models/2023-05-18_22-09/1/pytorch/E-68_VA-0.7143_VL-99.98_TA-0.6667_TL-118.50.pt (torch, 411791 bytes, 9 tensors)

AUsLSTM.weight_ih_l0 f4 [600, 17]
00000000: 224e e6bb 1379 973b 31aa dabb 999e aa3d
00000010: 1f14 a83d a19b 223d 6d91 63bd e87b 2dbd
00000020: 7be5 b039 af39 86bc 72ca 073e c9fd df3c
00000030: 0ffb 65bd faf9 24bd 4ba5 1f3c 670b 35bd
00000040: d645 0fbb 81c2 81bc 98ee 51bc ad00 c5bc
00000050: 847f 52bd 51b8 dbbc abaa 053c 8db1 7cbd
00000060: 94b4 fc3b 03a5 a73d c4f0 d8bd 4735 c0bd
00000070: a84e 09bd 3d74 babd 05a4 283d ee1d 28be
00000080: a286 bf3d 2ddc febd 3c80 903d e99e 5fbd
00000090: db17 ebbb 3f3f 86bd 7976 023c 66f8 dfbc
000000a0: 9898 b6ba 2959 acbd 0a50 b9bc 8f37 853c
000000b0: da41 1d3d 9293 f7bd 2a54 b8bd 500b 5ebd
000000c0: 1972 8fbd 5327 94bd 6e78 20bc 96be 88bd
000000d0: 081f b1bd 028c dbbd 2176 2cbc e674 973d
000000e0: 4d3b 08be 18e3 b4bd c146 f8bc d15f a7bc
000000f0: 92cf 64bd 2442 edbd 7f29 7cbc 7015 a4bd
00000100: 6905 febc 2cfd 8bbd 59ee 84bd 2a4f 47be
00000110: 47e0 d03d cdde 2a3e 5f18 4bbd d1c1 47bc
00000120: 71da eb3c 0d0f b53d 7b23 3dbd 97e1 9a3d
00000130: d820 09bd 937b 16be c846 8a3d 02fa 50ba
00000140: 794f c53c a910 823c bd02 e5bc b36f d1bd
00000150: c1f9 0e3d d139 74bd 2152 7f3d 971d eabc
00000160: deb8 66bd eb65 d33d eb67 723d 1afb 413d
00000170: 73e2 97bc 4592 673c e0cc 833d 3533 db3c
00000180: 5f94 c7bd 6b2c 363a 533e 7c3b 27f7 74bd
00000190: ed7e c3bd 5861 42be 958a 13bc 22f8 263d
000001a0: ad2f 10bd 1863 293c c4a4 37bd b454 303d
000001b0: 2da0 b0bc 4bdd 81bd ce03 21bd 373a 063e
000001c0: 6a47 abbd fb50 b3bc f2d5 bcbb aa0d 1c3e
000001d0: e272 163c 13e7 bf3d 062e e73c 1427 1e3d
000001e0: ef07 aa3b ec2a cf3d 6718 b03d 48fb 6b3d
000001f0: 1216 ef3d fbc1 dd3d 7ff4 0bbd 8acf 083d
00000200: 2d80 a73d 9e54 4d3d 6e8b 063d 37eb c53c
00000210: ed22 903c 3991 1abc d2c1 29bd 22de 3d3d
00000220: db0e 953c 0c81 34bd eb50 433d 75b9 46bd
00000230: 1a41 343d 90e7 123e 34e7 263d dfd5 a83d
00000240: 996b f63c 5bf9 dd3d 2c1a bf3b 2b42 533d
00000250: 3e75 06be 1483 f33c 00f0 97bd 9dbd e03b
00000260: dcef 90bb ce50 2c3d f9ce 6f3d df78 443b
00000270: 0721 ac3d 5daa 363d ba7a 6fbb 15d3 b43d
00000280: a72d febd a3d9 8b3c 0080 dc3c 16c9 443d
00000290: 764c 7bbc 0a0e 983d 1b18 983d 0867 b3bd
000002a0: 7b7c b4bd b5fb b7bd 9026 2e3d a108 4dbd
000002b0: eefd 90bd 274a 0abe 8c79 523d 068d 153e
000002c0: f76b 653d b5fc cbbc 7fe6 5abd c943 7a3d
000002d0: 4dbf ccbd af04 d2bd 0953 e03d 43cd 2d3c
000002e0: 4c73 94bd 086c edbd ea77 0f3e cbef 2f3c
000002f0: 7b29 83bd 2a11 bebd 2bc5 31bc cc80 bfbc
00000300: 26c6 343b 1af5 9a3a ad8c 20bd e1ea 08be
00000310: 5ee3 dabd d950 67bd 42f8 8f3d 683d 043d
00000320: 752c 5a3c 56b5 2fbc 6956 9e3d 91ba c43d
00000330: 6fd7 c7bd 29e0 df3c 3df4 703d 3f39 22be
00000340: 692d 9ebd 3a08 45bd 4b5d f23c 261e 113d
00000350: 47c6 a23d 9afe ec3b f8a5 a8bc 8f90 293e
00000360: 6530 9c3d 3589 92bb 3711 f9bd 1d61 18bd
00000370: 66a4 bfbd ccdc 9abb ec06 c7bd 62c5 3bbd
00000380: 2d94 2e3d 4880 82ba 4232 0dbd 0030 78bd
00000390: 4f7c 3fbd d5a1 e9bd 2982 1f3e cb5d 52be
000003a0: 1526 16be 82fe 5a3e 1da0 b03b 5816 a7bd
000003b0: e625 09bd 6953 e63d eedf 553d fa26 1f3d
000003c0: a75d 05bd bf79 dcbc d403 83bc 4a49 243d
000003d0: 1336 b1bd 1f1a 0fbe 7fb9 45bd bb81 a73c
000003e0: fcac 77bd 4fb4 d6bd 587a e73d f80e b93c
000003f0: a178 67bd 1381 023d 4287 cd3d 37a9 bfbd
-0.007028357 0.0046225875 -0.0066731204 0.08331031 0.08206963 0.0396992 -0.05555861 -0.042354494
0.00033740312 -0.016384928 0.1326082 0.027342694 -0.05614763 -0.04027746 0.009743999 -0.044200327
-0.0021861694 -0.015839817 -0.012813233 -0.024048174 -0.05139114 -0.026821287 0.008158366 -0.061692763
0.0077119563 0.0818577 -0.105927974 -0.09385162 -0.033522278 -0.09104202 0.041172046 -0.16417667
0.09351851 -0.12444339 0.07055709 -0.054594908 -0.0071744747 -0.06555032 0.007962816 -0.027340125
-0.0013930975 -0.084154435 -0.022621173 0.016261844 0.03839288 -0.12088694 -0.09000428 -0.054210007
-0.07004184 -0.07234063 -0.009794338 -0.066769764 -0.08648497 -0.10720064 -0.010526211 0.073953435
-0.13303871 -0.08832377 -0.030307176 -0.020431431 -0.055862017 -0.11584881 -0.015390753 -0.080119014
-0.03100844 -0.06835398 -0.06490774 -0.19463792 0.101990275 0.16686554 -0.04958379 -0.0121922055
0.028790684 0.08840761 -0.046176415 0.07562559 -0.033478588 -0.14695577 0.06751782 -0.00079718244
0.024085747 0.015877085 -0.027955407 -0.10226383 0.034906153 -0.05962545 0.062334184 -0.028578563
-0.056328647 0.10322174 0.059181135 0.04735861 -0.018540597 0.0141339945 0.06435561 0.026757816
-0.097450964 0.0006949368 0.0038489297 -0.059806015 -0.095456935 -0.18982446 -0.0090052085 0.04076398
-0.035201717 0.010338567 -0.044834867 0.04304953 -0.021560753 -0.063410364 -0.03931027 0.13108145
-0.083632305 -0.0218892 -0.005762809 0.15239587 0.009182664 0.09370246 0.028220188 0.038611487
0.005188934 0.101156086 0.085984044 0.057612687 0.116741315 0.108280145 -0.034168717 0.03340105
0.081787445 0.050129525 0.032847814 0.02416001 0.017594779 -0.009434038 -0.041444607 0.04635442
0.01819556 -0.04406838 0.04768459 -0.04851671 0.0440074 0.14346147 0.040747836 0.08243918
0.030080603 0.108385764 0.0058319774 0.051576775 -0.13130662 0.029725589 -0.07418823 0.006858541
-0.0044231247 0.04206925 0.058546994 0.0029979271 0.08404737 0.044596065 -0.0036541657 0.08829323
-0.12411051 0.01707155 0.026916504 0.048043333 -0.015338054 0.07424553 0.07426473 -0.08759886
-0.08812805 -0.08983556 0.042517245 -0.050057057 -0.07079683 -0.1350485 0.051385447 0.14604577
0.056011166 -0.024900774 -0.053442474 0.0610998 -0.09997425 -0.102547996 0.10953338 0.01060802
-0.07248554 -0.11592871 0.14010587 0.010738323 -0.06404396 -0.092806175 -0.010850231 -0.023376845
0.0027583926 0.0011822314 -0.03919666 -0.13370849 -0.10687898 -0.056473587 0.07029773 0.032285124
0.013316263 -0.010724386 0.07731325 0.09605897 -0.097578876 0.027328568 0.058826674 -0.1584215
-0.07723505 -0.04810355 0.029585501 0.035429142 0.07947975 0.0072324993 -0.020586953 0.16559051
0.07626418 -0.0044719228 -0.121614866 -0.03720199 -0.093575284 -0.004726028 -0.09718117 -0.045842536
0.04262178 -0.0009956444 -0.034471758 -0.06059265 -0.04674941 -0.1140782 0.15576996 -0.20543592
-0.14662965 0.2138615 0.0053901807 -0.081585586 -0.03348341 0.11246378 0.05221551 0.03885553
-0.032560017 -0.026913522 -0.015993036 0.040108956 -0.08652892 -0.13974808 -0.048272606 0.020447602
-0.060467705 -0.1048361 0.11302632 0.022590145 -0.056511525 0.031861376 0.10035564 -0.09358447

AUsLSTM.weight_hh_l0 f4 [600, 150]
00000000: 845f cb3c dc23 83bc 0c28 46bd 21f8 47bd
00000010: 95d7 5ebd f691 ee3c a814 9a3c 147a dd3c
00000020: 46e0 f73d 0b01 823c 9ed6 b4bd f005 c7bd
00000030: d94d cf3c ab48 2c3d fe8d 84bd 89cc 8d3c
00000040: e982 153d 75b8 643c f7f3 7e3d 10e8 46bd
00000050: 11f0 193c cbc2 ad3d db70 923c 98fc dd3d
00000060: a7bd a93c 93e1 d7bd d964 02bd 9392 a03d
00000070: de8c 0bbc abf6 de3d 6760 72bd b98f e7bd
00000080: 20f1 693c 2289 37bd efdd e33b 5c2d 17bd
00000090: 30df adbc 873f 1b3c 94cd fe3c 2176 9fbd
000000a0: c836 a2bc bb9e 14bc f4c8 813d 325a 563c
000000b0: be05 5a3c ca46 72bc f05c 08bd f4de 683c
000000c0: 4cee f03c 0304 6fbd f3fd a43d d696 85bc
000000d0: df8c aabb 0e25 70bd 3780 523d f313 73bd
000000e0: 57b7 1a3c 67a3 8bbc e717 ddbd 707a ffbd
000000f0: 6d2a 4ebd d7b7 b13d e24f d7bd 8e1e da3b
00000100: a6d8 babc e925 65bd a560 733c 481d 43bc
00000110: 94fc 5e3c 4fe0 623c 6c0a bebd 82c4 f73c
00000120: f46a 22bd c06f 503d d88a f1bc 240a babd
00000130: 425c dbbc 3851 86bb 7855 3fbc 7b00 bb3a
00000140: a0ca 27bd 0db9 f9bb 1fe7 29bb 1582 60bd
00000150: ac13 2ebb 8145 173d df12 033d aae0 89bc
00000160: 6124 c73d 23d8 6ebd bcb7 b03d 60bb 52bb
00000170: 68f6 bfbc cd04 3ebd 791e a2bd 388a 97bc
00000180: 15d9 1a3e bd4e 483d 0b81 8abd 2e6c 4bbd
00000190: 5b2a 12b9 3c78 f7bb 8938 2ebd 6297 a53d
000001a0: 25ab 3dbd a02f cabc e7f2 2d3d 58eb c33d
000001b0: 252d 123d a8b9 933c 05a6 213d e8ce 2fbd
000001c0: 6fab 263d 0e38 f9b9 3bce acbc 634a 353d
000001d0: eaf5 abbc 22d2 98bd 1bf5 8a3c a93e a13d
000001e0: c6a8 0dbd 6550 6d3d 9c58 3ebd 8455 acbd
000001f0: 59c0 213d cc11 143d 1e3e 87bc 06be 37bc
00000200: 234c ea3c 0430 553c b16c c03c 3dab b9bc
00000210: 54ac 3f3d b309 9b3d b409 1fbd 82ce 03bb
00000220: fe74 08bd a4d8 89bd c876 a63c f8dc 3fbd
00000230: 2f67 74bd be41 73bc 2eea 9dbc 56e4 57bd
00000240: d348 8dbd c03d 353d 6577 1a3c 242f 15bd
00000250: 4563 153c 9d0c 6f3c dd52 363e 858c 11bc
00000260: bdd6 423d 7ec6 4c3d 1c3d 563c 92e3 ac3d
00000270: 77ab c2ba cfd1 76bd df2d 6c3d 1efd b03d
00000280: 6940 1b3e 55bb 8c39 609f dbbd 2210 d5bd
00000290: 3f19 933d 378e d6bd 3031 cebc e7a3 16bd
000002a0: 3fb7 63bd 438b 35be 3c45 bfbc 12bf 8fbd
000002b0: 98ae 563c b3ee e5bd cd0d 3a3c 9a7a 013e
000002c0: 9055 b0bb 9814 c8ba 4b09 3d3d 7ad5 8dbd
000002d0: 951a fb3d 4658 a43c a90a d53d 70ed 2dbd
000002e0: cd37 463c 8924 593d c2e2 cfbd c966 533c
000002f0: af8d b83d e70a c03d 978e a2bd 0f56 70bd
00000300: abab bbbd 2d78 1ebc cdab d13d 891c 5e3d
00000310: 67a9 203e 5f83 f73d a1a0 b6ba 0485 20bd
00000320: 8442 d6bd 501a 923d de64 a3bd 081c a53d
00000330: be97 fdbd ef04 59bd 4f45 863b 2e27 b3bc
00000340: 0adb 313d f728 a0bd 731b 333d 4a44 3d3d
00000350: 83c6 fa3d 0336 173e bf36 fe3c 3967 d73d
00000360: 1515 88bd 17bb 0abd 6b99 8f3c 99fd 95bd
00000370: b07b 8d3d 2e7f adbd 794f 643d f8eb c43d
00000380: 98ca 093e 01ed 563d baa5 fb3c 1b95 19bd
00000390: c47e 1f3e f5ec b8bd fcdd 493d ec42 e73d
000003a0: 499e c63c d3e3 5f3d 8d9a ef3d 9f52 82bb
000003b0: 3044 6bbc 22df e23d c3eb d9bd d02e f1bc
000003c0: 0874 d4bc 26f7 a3bc 8eca 99bc 0ea0 b9bd
000003d0: becf 173e 27e9 a7bd 570b 9cbd 8f15 c8bd
000003e0: b467 213d 99bc 653d 2a9d bfbd c0f1 dabc
000003f0: f56a 8e3d 5474 ebbd 9f83 5b3b dbe5 213a
0.024825819 -0.01600831 -0.048378035 -0.04882062 -0.054404814 0.029122334 0.018808678 0.02703575
0.12103324 0.015869638 -0.088299975 -0.09717929 0.025305675 0.04206149 -0.06472395 0.017309444
0.0365018 0.013959994 0.06224438 -0.048561156 0.009395615 0.084844194 0.01787608 0.10839194
0.020720316 -0.10541072 -0.031834457 0.07840457 -0.008517472 0.10886892 -0.059173968 -0.1130671
0.01427868 -0.044808514 0.006953947 -0.036908492 -0.021224588 0.009475595 0.031103887 -0.07786203
-0.019801512 -0.009071047 0.06337157 0.013083028 0.013307033 -0.014787385 -0.033291757 0.014213312
0.029410504 -0.058353435 0.080562495 -0.016307276 -0.0052047814 -0.058629088 0.051391806 -0.059345197
0.009443126 -0.01704569 -0.10795575 -0.12474525 -0.05033343 0.08677643 -0.10513283 0.0066564744
-0.022808384 -0.055944357 0.014854585 -0.011908837 0.013610024 0.013847425 -0.092793316 0.03024507
-0.03965278 0.050887823 -0.029485151 -0.090839654 -0.02677739 -0.0040990375 -0.011678092 0.0014267111
-0.040964723 -0.0076209367 -0.0025925112 -0.054811556 -0.0026562018 0.03693152 0.03200042 -0.016830761
0.097237356 -0.058311593 0.086287946 -0.0032155141 -0.023432925 -0.046391297 -0.079159684 -0.018498525
0.15121873 0.048903216 -0.06762894 -0.049663715 -0.00013939424 -0.007552175 -0.042534385 0.080855146
-0.046305794 -0.024680912 0.042467978 0.09566373 0.035687584 0.018032864 0.03946497 -0.04292193
0.040690836 -0.00047534745 -0.021094432 0.044260394 -0.020991284 -0.07461955 0.016962579 0.078732796
-0.034584783 0.057938 -0.046471223 -0.08414748 0.039490078 0.036149785 -0.016509112 -0.011214739
0.028600758 0.013011936 0.023489328 -0.02266466 0.046795204 0.07570209 -0.038827613 -0.0020112102
-0.033314697 -0.06730774 0.020320311 -0.04684159 -0.059668716 -0.014847217 -0.019276705 -0.052707992
-0.06898656 0.044248343 0.00942788 -0.03642191 0.009117906 0.01459041 0.17805047 -0.0088836
0.04756807 0.049993984 0.013076093 0.08441843 -0.0014852126 -0.060258683 0.057660934 0.08642028
0.1516129 0.00026842454 -0.10723758 -0.10403468 0.0718255 -0.10476344 -0.025169939 -0.036777403
-0.05559468 -0.17728905 -0.023348443 -0.07018866 0.01310315 -0.11227169 0.011355829 0.12644425
-0.0053812936 -0.0015264926 0.04615144 -0.06925483 0.122609295 0.020061623 0.10402424 -0.042462766
0.012098265 0.05301336 -0.101506725 0.012902924 0.09011399 0.093770795 -0.07937353 -0.058675822
-0.091636024 -0.009672207 0.102378465 0.054226432 0.15689622 0.12085604 -0.0013933369 -0.039189354
-0.104619056 0.07133925 -0.07978223 0.08061987 -0.12382458 -0.05298322 0.0040976177 -0.021869268
0.043421783 -0.078203134 0.04372735 0.046207704 0.12244894 0.14766698 0.031031964 0.10517735
-0.06644646 -0.03386983 0.01752921 -0.073237605 0.06908357 -0.08471523 0.055739854 0.0961532
0.1345619 0.05247212 0.030718673 -0.037495714 0.15575701 -0.09029571 0.049283966 0.11292061
0.024245398 0.05466063 0.116994 -0.0039771344 -0.014359519 0.110777155 -0.10640671 -0.029441267
-0.025934234 -0.02001531 -0.018773343 -0.09063731 0.14825341 -0.08198767 -0.076193504 -0.09769737
0.03940554 0.056088064 -0.093561485 -0.026726604 0.06953994 -0.11496797 0.00334952 0.0006175914

AUsLSTM.bias_ih_l0 f4 [600]
00000000: 7fed ea3c 9855 20bd 647b 56bc b32a fdbc
00000010: 689e b7bc 698e 2cbd aaf5 30ba 1543 d43c
00000020: e483 0f3d 2616 4b3b fd55 9bbc 3a79 b73c
00000030: cf73 cbbc 5156 ccbc 75a0 8fbc a411 fcbb
00000040: 7bee af3b bea4 163c 5914 043c b046 e2bc
00000050: f47d c4bb 2598 ebbc 11e2 703d e395 68bd
00000060: 4cc0 153d 9ce5 3bbb 3139 0cbc 8411 fdbb
00000070: 9070 86bb 830d adbc d21a b1bc c5b7 383c
00000080: 1689 f83c 73e3 f1bb b9b3 94bc 0c2b c6bb
00000090: f381 9bbc 532f af3b db84 903c 61b6 dc3c
000000a0: 2c36 8abc a8c4 07bc 85f0 97bc 6723 75bc
000000b0: cd04 98bb d6a3 f1bb ab69 81bd 6b00 8dbb
000000c0: b1f5 1ebc bd8d 9e39 c2a4 7bbc 9a0f 9a3c
000000d0: 497d eebc 0daa 73bc 96f1 38bc a044 19bd
000000e0: efa9 e7bc b36e c0bc 08c5 26bc 947a 50bc
000000f0: b637 d2bc b282 0bbd 3e2b 82bc 66e0 b43c
00000100: 617a 8bbc fb4d 183c e6ad 5cbc 1e7d a2bc
00000110: 8f2a 8abb 8ef3 6abc 9a30 41bc 24f2 3dbc
00000120: c354 08bd 5735 1fbd 671f 14bd 9c88 ffbc
00000130: 7cc4 43bb e29a d0bb 1fc4 62bb 193e 24bd
00000140: 75ea f23b 70e3 e23c abc0 c9bc 11a0 c2bc
00000150: a66a 1bbc 6119 883b 7fb9 8b3b 33c4 49bd
00000160: 9124 97bc 23dc 123c 930a a9bd 4e2a debb
00000170: a8bb 89bb 911e 80ba 22a7 efbd 352b 46bd
00000180: 4110 ff39 045b febb 7cc9 813c b0ed acb8
00000190: 7403 d73c e45e 1cbc a428 59bc 908b cdbb
000001a0: 86f6 16bd 9b06 ee3b 82ec 60bd 9080 b5ba
000001b0: fc1b 5ebc 0969 2bbc c14b fdbc ae4b 40bc
000001c0: f273 d3bb 3769 5abc aab4 89ba 1ba6 d43c
000001d0: f34b e0bc fb6a 66bc 64e6 96bc 65af 873b
000001e0: 59a2 12bb 98df 10bc 7694 eebb c825 0dbd
000001f0: a554 71bc a257 ecb9 02e8 0b3d 9a5b c4bb
00000200: 8b98 233d 8b61 32bd 90f5 d0bc bc0f a3bc
00000210: cb79 17bc 659f 7bbb 56d8 b43b 672c 0a3d
00000220: 0ffe 3eba 0783 a0bc 2226 eabc 0e0b 9e3b
00000230: 1fc4 bcbb 87e5 11bd 75a3 bbbc 6c28 053c
00000240: 14bc 4dbb 47d8 e4bb 32f0 f3bb d148 16bc
00000250: ac5f 8d3a 3e50 d8bb 1f0d a13a d4df 273d
00000260: be4b f0bb 1afc b23c ecaa d1bc a772 593d
00000270: 1e65 59bc 8cfb a53c d77b 523c f225 2dbc
00000280: 289a 963b bcf0 2cb9 29d3 833c efcc e8bc
00000290: 4c23 ca3b 2ac7 4abb 3344 8c3c e656 84bb
000002a0: 55d1 80bc 7a2d 983c 1841 cebc e851 d93c
000002b0: 69a2 53bb 8d65 b63d d1c5 12bc 63db 5b3d
000002c0: 320c 85bc ae6b 413d d6db 86bc 7814 da3c
000002d0: a9c9 3ebb bcb4 2e3d 0e03 e1bc e404 d1bc
000002e0: 9e3e eeba c193 3b3d 841d ffbb dd75 3ebd
000002f0: 4549 2c3b 8f91 6c3c c55e cdbb f010 41bc
00000300: 8150 2bbb f1d8 b4bc 4126 073d f9c2 babc
00000310: dca2 ad3c e2bb 903d 9433 2fbc 8b32 84bc
00000320: 9b13 583c 9915 cfbb dd8a 7e3c 54c6 7c3c
00000330: e9ab 113a 5cf5 003d f92a cabc cecc 173c
00000340: 002c 133b 3e00 fb3b c49c acbc 50a1 513b
00000350: 8914 d53c 746f cf3c 34eb b5bc affb 9c3c
00000360: 9347 3abc 7a95 b4bc b631 7ebc 08e3 d8bc
00000370: 74b9 e0bb f6b7 81bc e8a4 b8bc 6ba5 7d3b
00000380: e581 3d3d 6af2 263c 152f 5fbc 3817 b63b
00000390: 6fd0 d7bc efef 17bc 0426 04bc 4799 073d
000003a0: dbd3 b53a 33e6 e63d caba 1bbb badd d1bc
000003b0: 8aab adbb 00a1 adbb d401 293a 5896 3cbc
000003c0: 7144 533d 8561 b43a 056d cd3c f6ee c4bc
000003d0: 19e7 d73d 8a61 4a3d 58c3 c53d 0433 12bc
000003e0: 11f5 003c ca69 183d abb9 c0bc 8b03 8bbc
000003f0: f54e 8ebc 20ec 713c a652 03bc b3b2 3abc
0.0286777 -0.03914413 -0.013090942 -0.03090415 -0.022414401 -0.042128 -0.0006750474 0.025910893
0.03503789 0.0030988543 -0.0189619 0.022396673 -0.024835495 -0.024943503 -0.017532567 -0.0076925326
0.0053690053 0.009194551 0.008061492 -0.027621597 -0.00599646 -0.028759072 0.058809344 -0.056783568
0.03656034 -0.0028670793 -0.008558557 -0.0077230353 -0.004102774 -0.021124607 -0.021619234 0.011274283
0.030338805 -0.0073818504 -0.018152105 -0.006047612 -0.018982863 0.0053462177 0.017641475 0.026942434
-0.016871534 -0.008286633 -0.018547306 -0.014962054 -0.004639244 -0.007374267 -0.06318983 -0.0043030283
-0.009702132 0.00030241712 -0.015359106 0.018806268 -0.029112475 -0.014872086 -0.011288067 -0.03741896
-0.028279273 -0.023490286 -0.010178812 -0.012724537 -0.02566133 -0.034060188 -0.01588976 0.022079658
-0.017026128 0.009295936 -0.013469195 -0.019835051 -0.004216499 -0.0143402945 -0.011791373 -0.011593375
-0.03328396 -0.03886923 -0.03616276 -0.03119307 -0.0029871752 -0.0063661197 -0.003460176 -0.040098283
0.0074132034 0.027696341 -0.024628004 -0.023757966 -0.009485876 0.004153416 0.004264056 -0.049259376
-0.018450053 0.0089636175 -0.0825397 -0.0067799455 -0.0042032786 -0.0009774734 -0.117018 -0.04838105
0.000486495 -0.0077623148 0.015843146 -8.245872e-05 0.026246764 -0.009544108 -0.013254318 -0.0062727407
-0.036856197 0.007263971 -0.05491305 -0.0013847519 -0.013556477 -0.010462054 -0.030919911 -0.011736793
-0.0064530307 -0.013330749 -0.0010506113 0.025958112 -0.027379965 -0.014063592 -0.018420406 0.0041407817
-0.0022374599 -0.008842371 -0.0072808815 -0.03445986 -0.0147296535 -0.0004507872 0.034156807 -0.005992365
0.0399404 -0.043550055 -0.025507718 -0.019904964 -0.009245346 -0.0038394567 0.0055189533 0.03373375
-0.00072857825 -0.019593729 -0.028582636 0.004823095 -0.005760684 -0.035619285 -0.02290509 0.008127313
-0.003139262 -0.00698379 -0.007444405 -0.009172634 0.0010785959 -0.0066013625 0.0012287236 0.040984944
-0.007333248 0.021848727 -0.025594197 0.053087857 -0.013268737 0.020261548 0.0128469085 -0.010568129
0.0045960136 -0.00016492879 0.0160919 -0.028418032 0.0061687585 -0.0030941465 0.017122364 -0.0040386794
-0.015724817 0.018576372 -0.025177523 0.026528314 -0.003229285 0.08906088 -0.008958296 0.05367602
-0.016241167 0.047221832 -0.016462248 0.026621088 -0.0029111898 0.04265283 -0.027467277 -0.025515027
-0.001817662 0.045795206 -0.007785501 -0.046499122 0.002628879 0.014439001 -0.006267401 -0.011783823
-0.0026140513 -0.022076102 0.032995466 -0.022798048 0.021195821 0.07067086 -0.0106934495 -0.016137382
0.013188268 -0.0063197133 0.015536037 0.0154281445 0.00055569276 0.031483993 -0.024678694 0.009265138
0.0022456646 0.007659941 -0.021070845 0.003198702 0.026010768 0.0253217 -0.02220688 0.01916298
-0.011369604 -0.022043932 -0.015514782 -0.026475444 -0.0068580452 -0.01583479 -0.02253957 0.0038703333
0.046266455 0.010189632 -0.013622065 0.005556967 -0.026344506 -0.009273513 -0.008065704 0.03310516
0.0013872342 0.11274376 -0.0023762458 -0.025618423 -0.00529999 -0.0052987337 0.0006447111 -0.011510454
0.051578943 0.0013761973 0.025076399 -0.024039727 0.10542125 0.049409427 0.096563995 -0.008923296
0.007870928 0.037210263 -0.023526033 -0.016969463 -0.017371634 0.014765769 -0.00801531 -0.011395144

AUsLSTM.bias_hh_l0 f4 [600]
00000000: 6eb3 d63c b7e6 38bd 69d2 59bc b751 2bbd
00000010: 1938 babc 5110 2dbd a2b6 7eb8 1168 d73c
00000020: 2ba3 123d b009 24bb ba51 b2bc d76d b63c
00000030: 4335 d2bc 3868 d0bc e6a7 92bc 60a0 03bc
00000040: 65e0 f13b 4bdd 193c bc5f 213c 54f5 f1bc
00000050: 9a37 c8bb 45d6 54bc 83aa 753d e845 d5bd
00000060: ea9d 053d 30b8 83bc 159f 0dbc 7b17 febc
00000070: 1bb0 86bb 8b3f 05bc b412 86bc cd37 353c
00000080: 7080 fc3c 3de2 f7bb d9a1 5dbc 3b51 c8bb
00000090: ccb7 edba 2d4e 1b3b 2914 913c a2c3 e13c
000000a0: 6e15 5fbc 4f7e 0fbc e12a 4fbc a6a6 7abc
000000b0: 3c76 cfbb 50d7 01bc 83cd 80bd 4b35 72ba
000000c0: 701c 27bc 167b 21bb 0d20 16bc 42e3 9e3c
000000d0: 6c79 33bd f5db 84bc c379 5cbc b05f 23bd
000000e0: ebf1 e7bc f3ed c2bc 0840 01bc be5b 54bc
000000f0: 3fd4 d6bc 75b8 a6bc 618a a3bc 26a0 b43c
00000100: 1070 90bc 14ee 8b3b b46f 5dbc 8111 a7bc
00000110: fbf8 95bb 814e 6ebc 16e9 67bc 0218 3fbc
00000120: 8061 12bd 12c0 31bd 47e0 e0bc 124a f4bc
00000130: 4a06 52bb 8636 dbbb dd40 4bbb 4bad 24bd
00000140: c206 f53b 3ce5 e63c ed43 cebc c7a9 be3c
00000150: 4da9 f8bb f901 963b 0829 483b 609f 3cbd
00000160: e9c7 3cbc 552f 103c 8326 adbc 042a e5bb
00000170: a36e 96bb 4b6e 96ba bf0f 8bbd 53b8 49bd
00000180: 3909 233c d9a3 09bc 74a0 713c 703d 8c3b
00000190: 7c9d dc3c ba16 1ebc 3a08 68bc e99e e5bb
000001a0: 51d2 52bd 33b0 013c 8a87 20bd 6af5 bfbb
000001b0: 4eec 59bc a5b1 41bc 31ed 05bd a8d6 4bbc
000001c0: fefd e8bb 63cb e2bc 1443 96ba b280 d43c
000001d0: 3644 e5bc 87a0 17bc 2aed b6bc 8fa3 853b
000001e0: 27f1 02bb 5e2d 01bd 79b9 f2bb e4c4 a2bc
000001f0: ee1a 49bc 5d47 5aba 159a 0c3d 1a82 d1bb
00000200: c0f6 263d b0e9 27bd 1eb0 82bc 15c7 8ebc
00000210: 5774 44bc 7b8b 77bb cb4d b73b a6d6 073d
00000220: 80ed 59ba 681d a3bc ae0e f7bc 5085 943b
00000230: 214e e2bb a865 1dbd 2cfd c1bc f7f3 363c
00000240: 1775 03bc 423d ebbb f70d ffbb b466 1bbc
00000250: 3d9d 653a e280 d3bb b577 4239 6f28 273d
00000260: 415b f8bb a85b a93c a6fe d3bc 0289 4a3c
00000270: bf93 63bc e626 a63c 629e 4d3c 0923 aabc
00000280: 0665 15bb 4085 dc39 394d 843c c401 ecbc
00000290: 51cb 7a3c 2f0e 5fbb b9e2 a73c f94e d3ba
000002a0: 81b6 84bc 0add 2c3c 2464 d2bc 4a95 143d
000002b0: 44ff 66bb f4e4 263e 70bf 12bc fe2a 883d
000002c0: bb5c 88bc 4560 e83c de5b 97bc c8a4 163d
000002d0: b37c d73a 77b5 273d b293 e2bc 853a d3bc
000002e0: bbc7 17bb beae 3d3d 5b65 233d a876 ddbc
000002f0: 49cd 213b d5bb 623c b0ed 23bc f11f 46bc
00000300: 28e2 29bb f43e bebc c274 f73c 56f4 bdbc
00000310: 3791 803c 12d6 2b3d e7c3 52ba bf48 5abc
00000320: 5e8d 8f3c 08b4 d9bb 3dcf bd3c e1a5 053c
00000330: 553f 81bb 93b2 6f3c d0eb cebc 04a0 303c
00000340: a9a5 083b f924 013c 5654 afbc e5e1 88bc
00000350: d0a9 1e3d 994f d63c c465 a9bc 1c3f a43b
00000360: 1315 42bc 60b7 b7bc dc31 80bc e3d8 ddbc
00000370: 03b9 0b3b 0bdd 80bc 0713 ee3b aa2c cd3a
00000380: 9deb 633d ef1f eeb9 30bc 65bc 8732 b63b
00000390: bce9 dcbc f73a 8fbb be76 08bc ebe3 073d
000003a0: 0687 a63a 3651 343e 811d 76ba 3f93 d5bc
000003b0: 22d8 18bc 120d 57bc 327c 29bb b8ce 3ebc
000003c0: 4935 d43d 1646 9d3a f17a cf3c 8f48 c7bc
000003d0: 143c 953d 259c 403d 21ae bf3d 2440 34bc
000003e0: 2478 403c 21a9 313d 08ce b4bc 6772 8fbc
000003f0: eab6 92bc 247f 8a3c 3661 bcbc 1ce1 48bc
0.026208606 -0.0451419 -0.013294795 -0.041825976 -0.022731828 -0.04225189 -6.072841e-05 0.02629474
0.03580014 -0.0025030188 -0.021767486 0.022269173 -0.025660163 -0.02544032 -0.017902326 -0.008033842
0.0073814862 0.009391139 0.009849485 -0.029535927 -0.006110144 -0.012990539 0.059977066 -0.10413724
0.0326213 -0.016079038 -0.008643885 -0.031017056 -0.004110349 -0.008132826 -0.01636634 0.011060667
0.030822963 -0.0075648115 -0.013527357 -0.006113199 -0.0018136441 0.002369772 0.017709808 0.027559105
-0.013615949 -0.008758142 -0.0126445005 -0.015298521 -0.0063312333 -0.00792487 -0.06289198 -0.00092395087
-0.010199651 -0.0024640015 -0.009162915 0.019395474 -0.04381697 -0.016218165 -0.013456765 -0.039886177
-0.028313598 -0.023795104 -0.007888801 -0.012961326 -0.026224254 -0.020351628 -0.019963445 0.022049021
-0.01763156 0.0042703245 -0.013515402 -0.020394089 -0.0045768 -0.014545084 -0.014154693 -0.011663439
-0.035737514 -0.043396063 -0.027450694 -0.029820476 -0.0032047206 -0.0066898493 -0.0031014003 -0.040204328
0.0074776122 0.02818548 -0.025178874 0.023274316 -0.0075885416 0.004577872 0.0030542035 -0.04605043
-0.011522272 0.008800347 -0.021136528 -0.006993534 -0.0045908256 -0.0011476962 -0.06790113 -0.04924805
0.009950929 -0.008400881 0.014747728 0.004279785 0.026930563 -0.009648973 -0.014162118 -0.007007469
-0.051470105 0.007915544 -0.03919176 -0.005858113 -0.013300968 -0.011822139 -0.032696906 -0.012441315
-0.0071103564 -0.027684873 -0.0011464083 0.025940273 -0.027986627 -0.009254581 -0.022329886 0.0040783356
-0.0019980164 -0.031537406 -0.007407364 -0.019869275 -0.012274487 -0.0008326674 0.03432663 -0.006393683
0.040762663 -0.040994346 -0.01595312 -0.017428914 -0.011990628 -0.0037772346 0.0055939904 0.03316369
-0.00083132833 -0.019911483 -0.030158367 0.0045324937 -0.0069062863 -0.038427025 -0.023680292 0.011166564
-0.008023522 -0.0071789334 -0.007783647 -0.009484936 0.0008759087 -0.006454573 0.00018545876 0.040810045
-0.0075792377 0.020673588 -0.025878262 0.012361767 -0.013890206 0.02028222 0.012549968 -0.02076866
-0.002279581 0.0004206095 0.016150104 -0.028809436 0.0153072635 -0.0034035554 0.020493852 -0.0016121558
-0.016200306 0.010550747 -0.025682516 0.036275186 -0.0035247365 0.16298276 -0.008956775 0.06648825
-0.01664578 0.028366217 -0.018476423 0.03677824 0.0016440362 0.040944543 -0.027658317 -0.02578474
-0.002315982 0.046309225 0.039891582 -0.027034119 0.002468901 0.013838728 -0.0100054 -0.012092576
-0.0025922153 -0.023223378 0.030207042 -0.023187798 0.015694244 0.0419522 -0.0008040056 -0.013323008
0.017523464 -0.006643776 0.023170108 0.008157224 -0.0039443173 0.014629978 -0.025258929 0.010780338
0.0020850694 0.00788235 -0.02140252 -0.016709277 0.038736165 0.026161002 -0.020678408 0.005012406
-0.011845845 -0.022426307 -0.015648775 -0.027080959 0.0021319992 -0.015730402 0.007265452 0.001565357
0.05564462 -0.0004541869 -0.014021918 0.0055602225 -0.026966922 -0.004371043 -0.008329092 0.033176344
0.0012705035 0.17609105 -0.00093885517 -0.026071189 -0.009328874 -0.013125675 -0.002586138 -0.011645965
0.10361726 0.0011999037 0.025327178 -0.02432659 0.072868496 0.04702391 0.09359384 -0.01100162
0.011747394 0.043374185 -0.0220709 -0.017510606 -0.017909486 0.016906328 -0.022995573 -0.0122607015

ClassificationAUs.0.weight f4 [150]
00000000: d119 a13f 383a 7a3f 88a0 8a3f e7e9 123f
00000010: 3407 9c3f 2db2 803f a310 8a3f 30c9 bf3e
00000020: 8d3e 903f 9e4a 873f 65a2 6f3f 5bd7 933f
00000030: 2f70 9d3f 5bbc 943f f6e8 8d3f 2120 933f
00000040: 2f29 9f3f 763b 8c3f 1c27 963f 9689 8c3f
00000050: 9487 993f 607a 443f 38e5 af3f dbb5 5a3f
00000060: 2100 a23f 47cd 883f 2400 843f d258 893f
00000070: f5a3 913f 855e 9e3f 93ee 913f 90f7 883f
00000080: aa78 943f 1a55 903f 065e 9b3f 3823 913f
00000090: 0d9b 793f 058f 9a3f d1b8 9a3f 0c44 a33f
000000a0: b9d0 903f 9c47 813f 3f84 813f c10e 8b3f
000000b0: c4f9 823f 7a6f 973f 593b 983f 16b7 943f
000000c0: 1de3 9d3f 216c 973f d094 3c3f 604f 9c3f
000000d0: f089 9b3f 3769 9c3e 50dc 8e3f 015a 973f
000000e0: c937 8e3f d287 973f d5d2 833f d12e 8a3f
000000f0: f79c 853f 3c1f 5c3f f8b9 6d3f fc3b 8a3f
00000100: 7c6c 993f 44b8 8b3f 6f58 913f dbd7 6c3f
00000110: 801f 983f 0241 8b3f b4c8 813f ec63 933f
00000120: 92a4 833f 9b50 373f 18b2 8f3f f59c 7b3f
00000130: db1c 4d3f c6b3 583f e22b 9e3f af15 923f
00000140: e97f 923f 6f13 9a3f 910e 863f 3b34 613f
00000150: 3658 873f 7545 933f a5a6 9d3f 99be 8b3f
00000160: aac0 8f3f effc a03f f0b1 2b3f 946e f43e
00000170: a9bc 793f 31c1 923f 52a1 4f3f 2845 913f
00000180: fd72 9e3f be7a 8c3f 0edf 7f3f 38a6 923f
00000190: 36be 993f 5c17 983f f74d a53f 91ed 913f
000001a0: fdea 763f 33e4 853f 7426 7d3f 3d02 853f
000001b0: 4faa 9e3f 18f6 6d3f 4398 9c3f 710b 8e3f
000001c0: 11b7 993f d074 883f 202a 873f 8325 a23f
000001d0: 774a 963f a098 8b3f 9b5f 963f d1ed 963f
000001e0: 2a74 8a3f 5b75 7d3f a843 3f3f c61d 913f
000001f0: 3b4d 833f d91d 843f e841 873f 6d1d 7a3f
00000200: 9b99 a53f 0d29 3d3f 8c24 f03e 6abd a13f
00000210: 1c09 913f 34cc 893f edbb a13f 7cf7 a03f
00000220: 065f 8c3f fb0f 863f 363e 953f 5f21 883f
00000230: f8d4 863f da37 923f e1b4 733f e29c 9b3f
00000240: 1e54 773f 226d 8b3f 9dea 4b3f 23e4 763f
00000250: d54c 443f 0bea 963f
1.2586004 0.97745085 1.083024 0.57388157 1.2189698 1.0054375 1.0786327 0.3745818
1.1269089 1.0569646 0.9360717 1.1550096 1.2299861 1.1619982 1.1086719 1.149418
1.2434443 1.0955646 1.1730685 1.0979488 1.19945 0.7674923 1.3741827 0.8543374
1.2656289 1.0687646 1.0312543 1.0730231 1.1378161 1.2372595 1.1400932 1.070055
1.1599324 1.1275971 1.2138069 1.1338873 0.97502214 1.2074896 1.2087651 1.2755141
1.1313697 1.0099978 1.0118483 1.0863878 1.0232472 1.1830895 1.1893111 1.1618373
1.2334934 1.1829873 0.7366457 1.2211723 1.215147 0.30549023 1.1160984 1.1824342
1.1110774 1.1838324 1.0298716 1.0795537 1.0438527 0.8598516 0.9286189 1.0799556
1.1986232 1.0915608 1.1355113 0.9251687 1.1884613 1.0879214 1.0139375 1.1514869
1.0284598 0.7160737 1.1226225 0.9828637 0.80122155 0.8464931 1.2357142 1.1412867
1.1445285 1.2037181 1.0473195 0.8797032 1.0573795 1.1505572 1.2316481 1.0917541
1.1230671 1.2577189 0.67068386 0.47740614 0.975535 1.1465207 0.8110553 1.134923
1.2378842 1.0974958 0.9994973 1.1456976 1.2011173 1.1882129 1.2914418 1.1400625
0.96452314 1.0460266 0.988868 1.0391308 1.2395724 0.92953634 1.2233967 1.1097242
1.2008992 1.0660648 1.055973 1.2667698 1.1741475 1.0905952 1.1747926 1.1791326
1.08167 0.99007195 0.7471261 1.1337211 1.0257944 1.0321609 1.0566988 0.9770115
1.2937502 0.73890764 0.46902883 1.263593 1.1330905 1.0765443 1.2635475 1.2575526
1.0966499 1.0473627 1.165961 1.0635184 1.0533743 1.1423295 0.95197874 1.2157252
0.9661273 1.089268 0.79654866 0.9644186 0.76679736 1.1790174

ClassificationAUs.0.bias f4 [150]
00000000: 34e3 b1bd b0f7 8eb9 4959 ff3c 322c 8bbc
00000010: 96a2 a4bc bb9a 983d f763 f5bc 189c 883c
00000020: e3ed 5d3d 8187 d03c 098d 34bc 883b a13c
00000030: 08a7 07bc 2c6d 50bd 6a0e 93bc 0cea 95bb
00000040: 893c 2c3d 0ae7 d83a c3cd d03a 750b b6bb
00000050: 9a71 5abc ee83 a0bc 6933 203e 030c 86bc
00000060: 2923 d63c fe86 383c d66a dcbc 8e93 2a3b
00000070: 5e7b f93c 9ae9 3dbd d43a e0bc f240 1c3d
00000080: e348 123d 0bc0 ebbb e997 dd3c 37e6 573d
00000090: 11c5 5bbd 7207 24bd 6241 703d 079d 92bd
000000a0: c412 2ebd bcc2 df3c 995b 05bc feb8 a43d
000000b0: cc59 193c d05a 583c 3575 bc3c 2dbe d43d
000000c0: 539d 1abd 97cd a8ba 0dfc 11bc 7b69 63bb
000000d0: b717 0ebd b46a 86bb 69fb dd3c b6dd a13c
000000e0: a3b1 a5bc 14aa 08bd caa8 b4bb 9b15 1b3d
000000f0: 87bd 843c 0fcd be3b ce55 553c f9a3 9f3c
00000100: 6ebb 07bb 4450 68bd 38ca ce3b ca22 143d
00000110: a883 1c3d 7ec1 7fbc 70e9 f93a c15a 003d
00000120: f78c 2e3d 38f9 21bb 4793 77bd 7a8e 7dbc
00000130: 551a 623d 5701 2dbb 8969 bb3d b0f0 863d
00000140: b04b e9bc fbd3 fd3c 30e6 bd3b 3e6a 8a3d
00000150: 1853 41bd d903 2a3b eebb f23c 5855 c23b
00000160: 1013 01bd e5ae 63bc 9371 d1bc f935 7fbc
00000170: 2308 593d bbf8 e9bc 423c 8d3c 31d0 74bc
00000180: c760 753d 189f 40bd 5887 ff3b 9ff4 d4bc
00000190: fbb8 a2bd fc24 a8bd 457a 3cbc eeef ad3c
000001a0: 5ac8 283d 23b1 4a3c 26e5 e63c 7f44 22bc
000001b0: e27f 13ba 7c8c 87bc 3927 cd3d 1c0c 4e3b
000001c0: 707b 2a3b 88ee 80bd 8d5d c5ba 9e6f 35bb
000001d0: e6e8 7e3d 8fac e73c 1e90 073d d02a 7ebd
000001e0: 0d5a a23d d62e 00bc 38c3 313d 77b0 bfbc
000001f0: 4069 fbbc b87d 0b3d c141 733d 558c 69bc
00000200: 393a a23d b19d 0ebd 1b80 75bb 7a4c 8c3d
00000210: 688a a23b 8513 8fbd b6bb d23d aeb5 b1bc
00000220: 999c 8abc cec0 81bb b4fd d63b e329 e63c
00000230: bbf0 263d 538f 4c3a 4a40 85bc 35d1 cb3d
00000240: 5f2f 83bc 8916 85bc 11b2 863c 6e96 b4bb
00000250: 886f 4b3d 0cc8 413b
-0.08685914 -0.00027268892 0.031170504 -0.016988847 -0.020097058 0.074513875 -0.029954894 0.016675994
0.054181945 0.025455238 -0.0110199535 0.019681707 -0.008279569 -0.050885364 -0.01795121 -0.0045750197
0.04204992 0.0016548347 0.0015930462 -0.005555565 -0.013332749 -0.019594159 0.15644611 -0.01636315
0.026139813 0.011262653 -0.026906412 0.002602789 0.030454334 -0.046365358 -0.027371801 0.038147874
0.03571404 -0.007194524 0.027049975 0.052709784 -0.053654734 -0.040046163 0.058656104 -0.07158857
-0.042498365 0.027314536 -0.008139514 0.08043097 0.009359788 0.013205245 0.023005107 0.10387836
-0.037747692 -0.0012878653 -0.008910191 -0.0034700322 -0.034690585 -0.0041020755 0.02709742 0.01975904
-0.020226305 -0.033365324 -0.0055132853 0.0378624 0.016203655 0.0058227847 0.013020946 0.019487368
-0.0020711082 -0.056717172 0.0063107274 0.03616599 0.038211495 -0.015610097 0.0019066762 0.03133655
0.042614903 -0.0024715196 -0.06044319 -0.015475864 0.055200893 -0.0026398504 0.091509886 0.06588876
-0.028478473 0.03098487 0.0057952628 0.06758545 -0.047198385 0.0025942235 0.029630627 0.005930584
-0.03151232 -0.013896679 -0.025566852 -0.015576833 0.052986275 -0.028560987 0.017240647 -0.014942215
0.059906747 -0.047026724 0.0077981167 -0.02599555 -0.079454385 -0.08210179 -0.011503761 0.021232571
0.041206695 0.012371334 0.028185438 -0.009904026 -0.0005626661 -0.01654648 0.10017247 0.0031440323
0.0026013516 -0.06295496 -0.0015057788 -0.0027684937 0.062233828 0.028280525 0.033096425 -0.062052548
0.07927332 -0.007823667 0.043399066 -0.023399575 -0.030689836 0.03405544 0.05938888 -0.014254649
0.07921261 -0.034818355 -0.003746039 0.06850524 0.004960347 -0.06986145 0.10289709 -0.021693077
-0.016920375 -0.0039597517 0.0065610055 0.028096145 0.040756922 0.00078033394 -0.016266007 0.099520124
-0.0160138 -0.016246097 0.01644233 -0.0055110967 0.04966691 0.00295687

ClassificationAUs.0.running_mean f4 [150]
00000000: 6e18 45bd 2d5d 773e 5afe cebb 14b3 50bd
00000010: f83c 46ba 2517 a8bd 72f9 cc3d 9106 783d
00000020: 0ce9 063e 3433 17be cf70 08bf 8d10 92bd
00000030: 28a5 433e 366b 7e3d 233f e7be 874c fa3c
00000040: e115 6bbd 9ad0 7a3d e348 0d3c c7ed 013c
00000050: 6945 24bb ac25 ec3e a907 62bc c142 78be
00000060: 88d0 a0bc 6aac 09bf cb41 34bd 4649 073d
00000070: d151 cabd 9837 953e 8f5a 61be c7a3 0ebe
00000080: d5ca 64bd 9339 80bc aa2a 643c 785e d7bd
00000090: 3432 0b3f 1806 8e3d 2ec0 dd3d fa3b 0f3d
000000a0: a120 c43b 3041 8b3d 2b3e 123f 79f8 61bc
000000b0: 64eb 15be c245 b0bc 797f 3abe dd0f 4dbe
000000c0: eb56 26bc 497b 283d d694 503f 1e38 073d
000000d0: 99be b03d b7e8 4abf 6290 753e d66c 313a
000000e0: 0f1d 5bbc 63d3 9d3d 50ac 87be c2df b8bc
000000f0: 0342 45bc c501 17bc 4de2 14bf a482 7dbd
00000100: 03b5 52bd c3db f7be 0104 623b ba59 02bd
00000110: ee8e e33a 70e0 833d aa3c ccbd 6e39 0c3d
00000120: 7f7a abbd 64c7 29be 8203 94be 4407 88be
00000130: a0fe b4bd f964 ae3c 2ace c73c 6898 503d
00000140: 415c dfbc 0ce5 31be 9bb9 e0bc 9d3e 67be
00000150: e71f b6be 5a6c ae3d 556b f1bc 34f7 95be
00000160: 5f64 a53e d037 913c b9c3 b4be df7b 253d
00000170: da0c 58bb 87bb 833c d23a 2ebe 88a2 bc3d
00000180: 2eac 083f a2b5 da3c b911 63be 950f 64be
00000190: 9a0c d23d 660d 103d 0ec5 cc3d 67ef 0e3e
000001a0: d50a 53be 828d 16be 479f e7be 7550 203f
000001b0: f43f aa3c 0535 a9be feed 573e ce0b 713d
000001c0: 5dab 683d 0053 4a3f ce4a 99bd c042 bbbb
000001d0: 1508 073e a87a 1dbc 793b 333a 5428 6c3d
000001e0: fa6f eabc 0605 063f 8849 77bd 2dc0 a0bd
000001f0: 3afb bdbe 7273 753e ec7a bd3d 7eb4 40bd
00000200: 9b3b b2bd 3ff7 78be d5c5 5d3f 285a 39be
00000210: 1623 433e 7f15 ef3d f4c0 84bb 2a3c 003d
00000220: e3d6 ab3c df59 4cbc decb 8e3e bfe6 10bd
00000230: e2f7 1fbe 4b58 3b3e 92e0 833b 9f80 c9bd
00000240: 419a a43e ea7e b9bc c401 543d 1cf3 d0bd
00000250: fad8 2f3d db1b be3b
-0.048119 0.24156637 -0.006316942 -0.050952032 -0.00075621856 -0.082075395 0.100085154 0.060553137
0.13174838 -0.14765626 -0.5329713 -0.07132063 0.19105971 0.062113963 -0.45165357 0.03055407
-0.057393912 0.061234094 0.008623335 0.007930226 -0.0025065786 0.4612249 -0.013795772 -0.24244215
-0.019630685 -0.5377871 -0.044008058 0.033028863 -0.098788865 0.29143977 -0.22007202 -0.13929664
-0.0558575 -0.015652454 0.0139261875 -0.10516065 0.5437348 0.06934756 0.10827671 0.034969307
0.005985335 0.06799543 0.5712611 -0.013792151 -0.14640576 -0.021517638 -0.1821269 -0.20025583
-0.010152559 0.0411332 0.81477106 0.033012502 0.086301036 -0.79261345 0.23980859 0.0006768232
-0.013373627 0.077063344 -0.26498652 -0.022567634 -0.012039664 -0.0092167305 -0.5815781 -0.061892167
-0.051442157 -0.48409852 0.003448725 -0.03182385 0.0017361322 0.064392924 -0.09972508 0.034234457
-0.08372974 -0.16579968 -0.28908926 -0.26568043 -0.08837628 0.021288382 0.024390299 0.050926596
-0.02726567 -0.1737253 -0.027432254 -0.22582479 -0.35571215 0.0851676 -0.029470125 -0.29290164
0.3230314 0.017726809 -0.35305575 0.040401336 -0.0032966645 0.016080631 -0.17014626 0.09210688
0.53387725 0.026697937 -0.2217473 -0.22271569 0.1025631 0.035169028 0.09998523 0.13958512
-0.20609601 -0.14702418 -0.45238706 0.6262277 0.020782448 -0.33048263 0.2108688 0.05884915
0.05680405 0.790329 -0.07484971 -0.0057147443 0.13186677 -0.009611763 0.000683717 0.057655647
-0.028617848 0.52351415 -0.06037286 -0.078491546 -0.37105733 0.2396982 0.09251961 -0.04704713
-0.08702775 -0.24313067 0.8662999 -0.18100798 0.19056353 0.11674022 -0.004051322 0.031307377
0.02097649 -0.012472599 0.27889913 -0.035376307 -0.15621904 0.182954 0.0040245736 -0.09838986
0.32148936 -0.022643525 0.051759496 -0.102026194 0.042931534 0.0058016605

ClassificationAUs.0.running_var f4 [150]
00000000: 89c7 6a3a 0594 b23a 5848 aa39 4432 5c39
00000010: cc56 d039 a628 983a ad0a 623a ed66 8b3b
00000020: 537a c53a f45f 803a 159c e13a acf2 383a
00000030: 70ac 2e3a 217a f138 0d95 493a 75af 273a
00000040: 3010 943a 366f 8d3a 8ebc be39 ea37 7539
00000050: 1d48 9339 85d6 9439 417c ee3a 8868 023d
00000060: 4258 023b b13f f93b a19b 0939 adb3 043a
00000070: 7755 0b3a c1da 9539 1e76 4c3a ea73 cf3b
00000080: 3b0b 4e3a 006d 1939 757e 353a 53a0 5d3a
00000090: e0fb 863b 2fbc 9d39 1474 143b e31f 333b
000000a0: 7792 d339 51b2 4939 ccd2 5f3a 01bb bf38
000000b0: 38dc 6b3a 2f07 ea39 229e 223b d64a 3f3b
000000c0: b6c4 5d3a 296a 393a 1b93 253a 62f0 7a3a
000000d0: 6555 2d3a b836 dc39 2b87 613a 3bf7 4e39
000000e0: 4175 ad37 d1f9 7f3a d990 7039 7c7c db39
000000f0: 2d7c c038 212c 6439 5003 ea39 860c 2b3b
00000100: 960b 833a b957 253a 7d6c d738 b835 3139
00000110: 807d 9539 1572 2a39 b30d 023b fda0 3739
00000120: d5f0 323a 5bc5 043a e301 213a 4ac8 dd3a
00000130: 53e7 5e39 9e02 e838 321d a43a 5e32 ab39
00000140: 1017 ba39 fb4a 333a db91 b038 6532 5c3d
00000150: a8d7 e639 7a71 4f39 cdc4 953a b48b f33a
00000160: 230a de39 babf 9039 1ff4 423c c2fb 4e39
00000170: 87e8 a239 cb21 253a 52f0 c13c 1336 a53a
00000180: e92b 9b39 bb0c c339 3dd6 aa3b 1ae7 b43a
00000190: af3f 7f39 3bfe 4f39 d68b 213b 4cec 5c39
000001a0: 157b 933a 24d8 403b 067e 873b 37c8 283a
000001b0: 2a51 f238 6d2b 293a d41d 913a 8d86 ef39
000001c0: 2853 b23a 2dbb 173b b2e1 2a3a de46 093b
000001d0: 7ebe 193b 4202 6c3a 62b7 993a 6da7 e439
000001e0: c724 033a c6c6 3b3a 0559 f438 78b0 103a
000001f0: d65e da39 c73e e739 f38f 0b3b 28ac b538
00000200: 8cae c33a 089f c339 a8cc 3439 80fe 453a
00000210: 1d73 633a c4d9 7439 f2e6 2a3a 7558 1b3b
00000220: 8c59 9839 50d0 7539 5ecc c63a 2181 4b3b
00000230: b6a5 3a3a c21b f239 5bb9 9c38 d144 2939
00000240: bed2 823a 04a9 0639 7cc8 b838 8973 8139
00000250: 9a89 3d39 632a a639
0.00089561247 0.0013624436 0.00032478827 0.0002099956 0.0003973752 0.0011608794 0.00086228066 0.004254213
0.0015066363 0.0009794221 0.0017212654 0.0007055204 0.00066632684 0.00011514524 0.0007689752 0.00063966896
0.0011296328 0.001079059 0.00036380108 0.0002338585 0.00028091753 0.0002838859 0.001819499 0.03183797
0.0019889032 0.0076064696 0.00013123314 0.0005062174 0.00053151645 0.0002858248 0.0007799583 0.0063309567
0.000785995 0.00014631823 0.00069234456 0.0008454371 0.0041193813 0.0003008558 0.0022652196 0.0027332238
0.0004035418 0.00019235282 0.0008538186 9.142422e-05 0.0008997354 0.0004463731 0.0024813493 0.0029188893
0.0008459793 0.0007073009 0.0006316171 0.0009572563 0.0006612151 0.0004200244 0.00086032104 0.00019737791
2.0677808e-05 0.00097647036 0.00022942144 0.00041863683 9.178403e-05 0.00021760214 0.00044634426 0.0026099994
0.000999796 0.0006307322 0.000102722064 0.00016900047 0.00028513 0.00016254962 0.001984459 0.00017512213
0.0006826048 0.00050648086 0.0006141944 0.0016920653 0.00021257745 0.000110631096 0.0012520908 0.00032653188
0.00035493867 0.0006839481 8.419502e-05 0.053758997 0.00044029695 0.00019783332 0.0011426449 0.0018581063
0.00042350692 0.00027608668 0.011899023 0.00019739478 0.00031072294 0.0006299286 0.023674164 0.0012604616
0.0002959662 0.00037202783 0.0052135275 0.0013801784 0.00024342419 0.00019835767 0.002465 0.00021068862
0.0011251891 0.0029425705 0.004134896 0.0006438526 0.00011554577 0.00064533093 0.0011071512 0.0004568588
0.0013605105 0.0023152337 0.00065186166 0.002094678 0.002345949 0.0009003022 0.0011727626 0.0004361229
0.00050027337 0.00071631034 0.00011651408 0.000551946 0.00041650858 0.00044106526 0.0021295517 8.662819e-05
0.0014929338 0.00037311786 0.00017242378 0.0007552877 0.0008676516 0.00023350777 0.0006519399 0.0023703848
0.00029058417 0.00023442623 0.0015167107 0.0031052309 0.000712003 0.00046178518 7.473185e-05 0.00016142732
0.0009981019 0.00012842199 8.811147e-05 0.00024690878 0.00018075705 0.00031693568

ClassificationCat.0.weight f4 [1, 150]
00000000: 76c7 97be 56e1 fdbd caf6 3a3e 55d8 2f3d
00000010: fc30 963e 73e3 1cbe 9fe4 383e b25b 033d
00000020: 799c 5fbe c878 39be 416d ad3d fd7a 763e
00000030: be20 89be 1198 67be ae4e 543e e667 6abe
00000040: 085e 97be 9b79 4fbe 08cc 823e a6fc 4ebe
00000050: 6604 83be f059 e33d 4f2c bbbe 655f 4c3b
00000060: 5df9 9dbe 9c84 363e 5368 263e 76a9 343e
00000070: 5521 723e e5c5 97be 0a20 68be b088 403e
00000080: d81a 6e3e 4ead 723e abc3 8cbe ade6 64be
00000090: 7609 e3bd de2c 87be 1e66 803e 042c 95be
000000a0: ac13 50be 1f07 3b3e fea7 153e f570 423e
000000b0: edb2 213e 7829 893e 2fda 793e 2ad1 723e
000000c0: a32d 96be bed2 8c3e b84e b4bd 8d9c 8d3e
000000d0: f6e2 963e 86b2 f13b f52c 53be c627 83be
000000e0: dde0 42be 2554 713e 2a73 203e 738d 3b3e
000000f0: 164a 2d3e f1a2 96bd a01c eb3d cf26 44be
00000100: f942 8d3e a37c 573e e888 62be bb35 d13d
00000110: 97c4 823e bad3 3ebe 037f 0d3e 42d7 67be
00000120: 5b3a 1c3e 81c8 79bd 0c17 673e a49f 043e
00000130: ecc0 1cbe d9de ce3d ea4c 933e 90e0 62be
00000140: a55f 6ebe 9022 893e 2013 1e3e f4e9 a23d
00000150: c115 2ebe 1b28 61be c431 a13e 114d 433e
00000160: f9fd 69be 02e9 91be 6e80 f1bc 992e 6fbd
00000170: 7e9b 173e 6c28 7a3e e9d5 90bd 111c 69be
00000180: 9f94 a0be 8e32 4dbe b275 f63d ed14 5c3e
00000190: 3e23 8dbe 4458 93be 1e26 a03e d966 5bbe
000001a0: 902b eb3d 6d67 39be 78d8 053e 7e01 1abe
000001b0: 476e a2be c179 f83d 7093 9a3e c234 603e
000001c0: 7ea2 853e 1381 35be c81b 383e 4418 abbe
000001d0: 4658 81be c884 4dbe 275a 813e 2eea 89be
000001e0: 1e3a 383e c6f6 0a3e 4345 c9bd dfe5 71be
000001f0: e0c5 2dbe 955c 223e d011 513e 6a0e fc3d
00000200: 9485 a2be 8f5e 99bd 9846 af3b 8d69 97be
00000210: a488 50be ec69 32be 5d4c 9a3e 7f46 a2be
00000220: a0c9 523e 3d9f 323e a942 7f3e 61e4 3d3e
00000230: 805b 35be c10c 5fbe 2949 eabd 9727 8f3e
00000240: 889b 06be 6150 3a3e e94b bc3d de19 103e
00000250: 2a8b 083e b1d7 853e
-0.29644364 -0.12396495 0.18258205 0.04293092 0.29334247 -0.1532114 0.18055962 0.03206987
-0.21837033 -0.1811248 0.08468104 0.24070354 -0.26782793 -0.22616602 0.20733139 -0.22891197
-0.29563928 -0.20261233 0.25546288 -0.20213565 -0.25589293 0.111011386 -0.36557242 0.003118479
-0.30854312 0.17824024 0.16250734 0.17642769 0.23645528 -0.2964317 -0.22668472 0.18802142
0.23252428 0.23698923 -0.27493033 -0.22353621 -0.11085789 -0.26401418 0.2507791 -0.29135144
-0.20320004 0.18264435 0.14614865 0.18988402 0.15790911 0.2678945 0.24399637 0.23712602
-0.29331693 0.27504534 -0.08804077 0.276585 0.29470032 0.007376018 -0.20622618 -0.25616282
-0.19031091 0.23567255 0.15668932 0.18315677 0.16922793 -0.07355297 0.11480069 -0.1915543
0.2759016 0.21043639 -0.22122538 0.102153264 0.2554061 -0.18635455 0.13817982 -0.22640708
0.15256636 -0.06098223 0.22567385 0.12951523 -0.15307969 0.101010986 0.28769618 -0.22155976
-0.23278673 0.26784182 0.15436983 0.07954779 -0.17000486 -0.21987955 0.3148328 0.19072367
-0.22850789 -0.28498083 -0.029480185 -0.05839405 0.1480541 0.24429482 -0.0707205 -0.22764613
-0.3136339 -0.20038816 0.12034167 0.21492358 -0.2756595 -0.2877828 0.3127908 -0.21425952
0.11482918 -0.1810586 0.13070858 -0.15039632 -0.3172476 0.12132598 0.3019061 0.21895126
0.26100534 -0.17725019 0.17979348 -0.3341695 -0.2526266 -0.20070183 0.25264093 -0.26936477
0.1799092 0.13570699 -0.09827664 -0.23622845 -0.16970015 0.1585563 0.20416951 0.12307437
-0.31742537 -0.07488739 0.0053489916 -0.29572716 -0.20364624 -0.17423218 0.30136386 -0.3169441
0.20584726 0.17443557 0.24927773 0.18544151 -0.17710686 -0.21782209 -0.114397354 0.27959892
-0.13145268 0.18194725 0.09194166 0.14072368 0.13334337 0.26141122
