models/2023-05-18_22-29/2/pytorch/E-19_VA-0.7143_VL-74.84_TA-0.6333_TL-113.28.pt (torch, 411855 bytes, 9 tensors)

Fd1da27LSTM.weight_ih_l0 f4 [600, 17]
00000000: be7f 92bb 310d 513d a1dd 73bd c40b a33c
00000010: 2349 303d 1044 9a3d 06fd 48bc b3a7 c63d
00000020: ce6c 0c3e f588 bfbc ceb2 7fbd e73c 2bbd
00000030: 74c1 42bc 20fe e53c 486d 0c3e 609c 33bd
00000040: 068f e33c d0a8 60bd daef 3e3d 72ae e43c
00000050: abd7 8ebd e38f 10be 61d1 f4bd e559 653c
00000060: cb57 aabd 157b 0cbe 6326 943c 32df e9bd
00000070: a061 86bb 0f78 bf3d d269 203d 48bf 85bb
00000080: 59a4 cabd 1cb0 b0bd e32c 53ba 7b3d 2c3d
00000090: b310 bc3d 81e8 e4bd c186 c13d b93f 7bbc
000000a0: 1863 7ebd feba 9a3d edf2 e33c 9701 88bd
000000b0: 17a0 1a3d bc99 1e3d b696 6e3c 4ac3 9fbb
000000c0: 7fe5 5b3d f509 16ba 006b 2cbc 833f 293d
000000d0: 7c19 18bd 9d2e debd 9aa1 8c3d 6f15 8bbd
000000e0: 1d4c e4bc 7716 093d d44f ccbc c091 f0bd
000000f0: a85f 2fbd 374f dcbb 78a5 343d 286b d3bd
00000100: 5184 c9bc b1a5 c3bb f71a 78bd 551a f739
00000110: 5be2 d23c 53ac 0f3d 2906 5bbd 534c a1bd
00000120: 1b6d a03d 784e 6f3d d351 313a 7586 c8bd
00000130: d2ab 243d 5669 e03d 18e4 8bbc 9a29 74bd
00000140: 6f8d e93d 8b86 3cbc 0ef3 10bc dbbf c9bc
00000150: 7fc2 7fbd a2a2 afbd 179e 6ebd 9c12 4f3d
00000160: ea73 f7bc 73ce adbd c951 01be 20e9 a7bc
00000170: b912 02be d568 edbc 0e75 833c 996d c4bd
00000180: a449 59bd 9fde fabd 3f4a 10bd 979c 76bd
00000190: e43a 14bc daf2 d2bd 22b5 e03c 2f07 8dbd
000001a0: d96d 793d 40ac 873c 38c4 8fbc d09e 043d
000001b0: c768 3c3d 8e7b f7bc 8bc8 67ba 303e b93d
000001c0: 65fe c03d 2927 433c c032 2b3c 179f a4bd
000001d0: 0cab c63b 3787 3fbd ba93 24bb 9965 a7bd
000001e0: 12b3 cabb 1a52 8fbd cc77 d0bd 85c9 51bc
000001f0: 64d1 2a3d d714 ec3b ae75 ef3c 5eeb 06bc
00000200: a454 a63b 1927 db3c f53e 9cbc 0781 7ebc
00000210: c92b b4bc 228a 643c e901 5bbb 763b 2fbd
00000220: 0f7e e7bb a557 8d3c 968b 1abc c93a a9bd
00000230: 9dc9 49bc 0813 2e3d 773c 7dbb 0af8 0c3d
00000240: 5bce c2bc 06dc 0c3c bfa9 8e3c 6263 7bbc
00000250: f611 d53c 95d6 93bd e84e b5bc 7da5 4bbd
00000260: 887d bcbc fc87 0ebe 0bff a2bd fdf4 05bc
00000270: 566d 453c 5680 d2bd 7031 ccbd bb9f 42bd
00000280: 85fa 65bd 5a18 e9bc da8a 3ebd a256 103c
00000290: 6315 dabd eaf8 f2bc 852b 983c af90 eabc
000002a0: 72d2 433c 819e bebd beca d33c 47c1 3d3d
000002b0: 6c15 8f3d 9551 84bd f5e2 693d b71a 693d
000002c0: 7429 fbbc f94e 333d 91e5 fb3c 70f7 5dbd
000002d0: adb2 b3bd 565a e6bd a605 1a3d f938 cbbd
000002e0: f986 c03d a936 ba3c 9104 54bc 93f0 0bbd
000002f0: 401c a5bd 5655 c3bc adb6 21bc 69db b9bd
00000300: ec8e 10bd cfeb 11bd 85ce 64bc 751a 71bd
00000310: da7d a63c 1cd8 2a3d c09a c7bd b631 6a3b
00000320: 33f5 c83a 2f4f 43bc 0b00 1ebd 9993 c03b
00000330: e58a 1bbb 356a ee3c 3057 0c3c 1371 1abd
00000340: 02d4 a73c 800f 81bd 3acf 34bd bead 23bc
00000350: c371 973d 2099 003d e24a d2bb fb8c 873c
00000360: ef07 7f3c 7ad9 3fbc ff2c 5a3b 327d b23c
00000370: 5c42 60bc 62d8 8a3d a07a 73bd b429 18bd
00000380: 7fa6 743c d25d 57bd 48ef 02be 97e8 6a3c
00000390: 0b5c 9cbd bb25 353d b283 e7bc e336 ddbd
000003a0: a04e 00bd 3021 dcbc d99c 51bd 7422 94bd
000003b0: bde1 01be a03a 0cbd f923 51bc 51f0 a83c
000003c0: 8f66 1ebd b252 abbd 5569 a6bd 11af bcbd
000003d0: 9f71 02bd 45ee 5dbc c96b 953c 3493 03bd
000003e0: b9ad dabc 61af e7bc d302 c33b 4225 b8bd
000003f0: 4e2e 8cbd b3f5 b63c 3fa4 6f3d a913 c43c
-0.0044707945 0.05103797 -0.059537534 0.019903071 0.0430385 0.07532513 -0.012267357 0.09699955
0.1371338 -0.023380736 -0.06242638 -0.041806128 -0.011886943 0.028075278 0.13713562 -0.043850303
0.02777816 -0.054848492 0.04661546 0.027915213 -0.06974729 -0.14117388 -0.11953998 0.013998483
-0.083175264 -0.13718827 0.01808471 -0.11419524 -0.0041009933 0.09349071 0.039163418 -0.0040816404
-0.09894628 -0.0862734 -0.00080557 0.04205082 0.091828726 -0.11177159 0.094495304 -0.015335017
-0.062106222 0.07555197 0.027825797 -0.06640928 0.03775033 0.03872083 0.0145622995 -0.004875575
0.05368566 -0.00057235296 -0.010523558 0.041320335 -0.03713368 -0.108487345 0.068667606 -0.067911975
-0.027868325 0.03346869 -0.024940409 -0.117465496 -0.042815834 -0.0067233103 0.044103116 -0.10323173
-0.024599226 -0.0059706797 -0.06057259 0.0004713113 0.0257427 0.03507645 -0.05347267 -0.07875886
0.0783331 0.058424443 0.0006764207 -0.09791271 0.040202923 0.10957591 -0.017076537 -0.059609987
0.114039294 -0.011506687 -0.008847011 -0.024627617 -0.062441345 -0.085759416 -0.058256235 0.050554857
-0.03020664 -0.08486643 -0.12628855 -0.020496905 -0.12702455 -0.028980652 0.016047027 -0.095912166
-0.053048745 -0.12249493 -0.035227057 -0.06020793 -0.009047244 -0.103002265 0.02743012 -0.06886136
0.060895775 0.016561627 -0.01754962 0.032378018 0.04599836 -0.030210283 -0.0008841834 0.090450644
0.09423522 0.011911192 0.010449111 -0.080381565 0.006062871 -0.04675981 -0.0025112466 -0.08173675
-0.0061858976 -0.069980815 -0.101790994 -0.012804394 0.041703597 0.0072046327 0.029230919 -0.008234827
0.005076008 0.026752042 -0.019072989 -0.015533692 -0.021993535 0.013948949 -0.0033417887 -0.042781316
-0.007064588 0.017253706 -0.009432694 -0.082631655 -0.012316135 0.04249862 -0.0038640776 0.034416236
-0.023780039 0.00859738 0.017414926 -0.015343519 0.026009541 -0.07218663 -0.022132352 -0.04971837
-0.023009077 -0.13919061 -0.07958802 -0.008176086 0.0120499935 -0.102783844 -0.09970367 -0.047515612
-0.056147117 -0.028453995 -0.046519138 0.008809717 -0.106486104 -0.029659707 0.01857544 -0.028633444
0.01195203 -0.09307576 0.025853511 0.0463269 0.06986508 -0.06460873 0.05710121 0.056910243
-0.030659415 0.043776486 0.030749114 -0.054191053 -0.08774314 -0.11247699 0.037603043 -0.09922976
0.09400744 0.022731142 -0.012940542 -0.034164976 -0.08062029 -0.023844402 -0.009870213 -0.09075052
-0.03529255 -0.035625275 -0.013965254 -0.058863122 0.020323683 0.041710004 -0.09746313 0.0035735196
0.0015331864 -0.011920734 -0.03857426 0.00587697 -0.002373391 0.029103378 0.008565709 -0.037705492
0.020486835 -0.063017845 -0.04414294 -0.009990154 0.07394745 0.03139603 -0.006417618 0.016546717
0.015565856 -0.011709565 0.003329098 0.021788213 -0.013687696 0.06779553 -0.059443116 -0.037149146
0.014932274 -0.05257971 -0.12786591 0.01433768 -0.07634743 0.044225436 -0.02826104 -0.108014844
-0.031324983 -0.026871294 -0.051174972 -0.07233134 -0.12683769 -0.034235597 -0.012764924 0.020622404
-0.038672026 -0.08365382 -0.08125559 -0.09213079 -0.03184664 -0.013545577 0.018239873 -0.032122806
-0.026694166 -0.02828187 0.0059512644 -0.08991481 -0.068447694 0.022333955 0.058506247 0.023935156

Fd1da27LSTM.weight_hh_l0 f4 [600, 150]
00000000: f080 d43c c6ca bc3d ee9b 013c acd1 77bc
00000010: 1609 c0bc 8d50 3dbb b92d 623d dc47 41b9
00000020: ea24 8b3d 1ab7 85bd 8d26 7dbc 24f5 983d
00000030: 6907 ef3c b08c d6bd 5a8b 9f3d 422f a53d
00000040: af8b 8abd 4e93 de3c cde3 a23b 117d 8a3d
00000050: 227e 223c 0d58 d6bc 46c9 733d f5a9 113d
00000060: ee79 883d dd6d 613d 2664 c83d 6906 323d
00000070: 92ba cd3d b2e9 263b 5f4f 953d ce75 483c
00000080: 4442 53bc fc86 8abd 6c25 a73b 15b0 703d
00000090: 73c4 1d3c cc54 1b3d 574f 9bbd 4957 91bb
000000a0: 8158 513c 219d cdbb de2c 07bd 1be4 a0bd
000000b0: 5c9f e1bd 0534 07bd 74e0 33bc db8e e739
000000c0: c19f 04bd 68d9 813d 07f6 c8bc 52a4 f03c
000000d0: 4878 95bc d1dc 5cbd a661 d43a 4cf2 4a3d
000000e0: aa58 433d 29cb 7bbb 6da9 97ba 1de7 02bd
000000f0: 3078 b8bd beea 8fbd 25dc 6f3d 5697 26bc
00000100: e6f8 b3bc 5779 933c 6ab5 cc3c 48b7 a5bd
00000110: 4d48 263d 2e5b fdbd eca7 1cbc 8a95 db3c
00000120: 5814 97bd 80b7 4b3c b4f4 3d3d a38a 563c
00000130: 488c 903d 9423 083d 90ea 25bd 2cd0 343d
00000140: 947c d8bd 69d9 043c 8ce4 85bd fd11 653c
00000150: 9721 e43c 7e59 60bb 45af f73b 4439 4e3d
00000160: f9cf ed3c 3266 86ba 6318 6e3d da0f a8bc
00000170: c60b 20bb 9cef a7bd 7ff6 30bd 7584 13bc
00000180: e931 ca3d 22e9 1c3d 2225 fcbd ae32 8f3d
00000190: 98cf 813c 1cc6 1bbd bded 673c ad19 b4bd
000001a0: d81c 973d abaf 68bc 2916 adbc ec63 493c
000001b0: 14c7 0a3d 6e2f 953d bfac 513d 0d17 b0bb
000001c0: 0978 85bd 584a 8ebc 00dc 103d a90c d83c
000001d0: b2c0 003d af9c c83c 1ba0 5e3d 0245 3d3d
000001e0: c89f 94bc f06c a6bd bad1 b5bd 3f96 293d
000001f0: 4ca9 a23d 431e 293d 35db bf3c e1f1 84bc
00000200: 5bcf da3c 00e3 0ebd da45 47bd 9130 0c3d
00000210: 6429 863c 0f22 c3bd 82e8 273d ef2c a13d
00000220: dd3e 83bd bec5 39ba e0f5 2cba 75d6 073c
00000230: 9046 ae3c fa5d 9ebd e475 c4bc 63a7 813d
00000240: bfbc 0d3d 02e9 c63b e1bd b9bd c906 473b
00000250: 4670 6ebc fc9e 223c 2645 183d 03ec 823c
00000260: 2e9c a1bc a090 69bd 67c8 bd3b 961c 133c
00000270: 6901 363c c642 5b3d d857 17bc 734d 753c
00000280: 39ff c0bc 256c 933c 9a26 253c 6d33 08bc
00000290: 32e9 3e3d 882a 90bc bac5 13bd 0631 d03d
000002a0: 44e1 b7ba f55d 1abd 6142 af3c 403d 633b
000002b0: 80f1 09bd 7d3e 45bd 5bbe 89bd 9ab0 b1bc
000002c0: e2cc d43c ca09 8a3c 4568 f53c 8388 093c
000002d0: 2619 8dbc 03b4 b8bd 629b 09bc 2030 8a3d
000002e0: dd29 3a3c fd1f ac3c 0530 973c 5c96 00bd
000002f0: 3f15 893c 60d5 cc3c 210b adbd 9d19 073d
00000300: ba85 43bd 1499 ae3d e1cc 843c 8acb 2d3d
00000310: 25d4 af3b eaa6 c23c 8ac8 ab3d 0464 ad3c
00000320: 3a80 45bd c5d0 d0bc ad5c b93c 636e c1ba
00000330: 66cf 38bc 3322 403d ff72 dabc e268 493c
00000340: cf1a 1b3d 38e1 ff3c 725a c1bb b9a8 04bd
00000350: b167 2ab9 5268 7dbd f7ff 0fbb 0842 ab3c
00000360: f2c4 4b3d 2296 85bc c833 e2bc 42fa 3e3d
00000370: e647 33bc a242 94bc c944 45bd 27b8 383d
00000380: eb47 78bd f353 253d 4e4b 21bd 2b30 493d
00000390: db8e b1bd 65db 0e3d d7ad 56bb 102b 89bd
000003a0: 50ec 8bbd c179 e7bc 1d61 2c3c f24d eebb
000003b0: b706 d73b 25e2 f1bb 464b ba3c ff9f 50bd
000003c0: 29cb 293c e626 093d f0d5 eabc 2b30 84bc
000003d0: e205 84bc a607 c6bc 9120 fd3c 7486 55bc
000003e0: ce5d ab3c ada6 183d 3dc7 eb3c 6704 0bbd
000003f0: 3aca 8d3c 5a81 4abd 72d5 babc 7c0f cdbc
0.025940388 0.092183635 0.007910712 -0.015125673 -0.023441833 -0.0028887123 0.055219386 -0.00018432684
0.0679415 -0.065290645 -0.015451086 0.07468632 0.029178338 -0.10476053 0.07790251 0.08065654
-0.06764924 0.02716985 0.0049710036 0.06762136 0.009917768 -0.026165033 0.05951812 0.035562474
0.06663881 0.055036414 0.09784727 0.043463144 0.10045351 0.0025468883 0.072905295 0.012235118
-0.012894217 -0.067640275 0.0051008966 0.058761675 0.009629357 0.037922665 -0.07583492 -0.004435454
0.012777449 -0.0062748347 -0.033001773 -0.07856008 -0.110167235 -0.033008594 -0.010978807 0.0004416619
-0.032378916 0.06340295 -0.024531377 0.029375229 -0.018245831 -0.053921524 0.0016203418 0.04954748
0.04769198 -0.0038420653 -0.0011570879 -0.031958688 -0.09007299 -0.070271954 0.058559556 -0.010167917
-0.02196927 0.018002195 0.024988849 -0.08091599 0.040596295 -0.12370907 -0.00956152 0.026804704
-0.07376927 0.0124338865 0.046375945 0.013094577 0.070580065 0.033237055 -0.0405069 0.04414384
-0.105706364 0.008108475 -0.065377325 0.0139813395 0.027848048 -0.003423303 0.0075587356 0.05034758
0.029029833 -0.0010253845 0.058128726 -0.020515371 -0.002442108 -0.08199999 -0.043203827 -0.009003748
0.09872801 0.03830827 -0.1231177 0.06992088 0.015846059 -0.03803073 0.014155802 -0.0879396
0.073785484 -0.014202039 -0.02112873 0.01229189 0.033881262 0.07284437 0.051190134 -0.0053738416
-0.065170355 -0.017369434 0.03536606 0.026373224 0.03143377 0.024488775 0.054351907 0.04620839
-0.018142596 -0.08126247 -0.08877893 0.04140305 0.07942447 0.041288625 0.023419956 -0.016228618
0.026710203 -0.034884453 -0.0486506 0.034226004 0.016377158 -0.095279805 0.04099322 0.078698985
-0.064084746 -0.0007086656 -0.00065979175 0.008290877 0.021273881 -0.07732768 -0.023981996 0.063307546
0.03460383 0.006070257 -0.0906942 0.0030369035 -0.014553135 0.0099256 0.03717532 0.01598168
-0.019727793 -0.05702269 0.005791712 0.008978983 0.011108735 0.053530477 -0.009237252 0.014972079
-0.0235592 0.017995903 0.010080004 -0.008313042 0.04660911 -0.017598405 -0.03607724 0.101656005
-0.0014028926 -0.03768726 0.021393957 0.003467396 -0.033677578 -0.048155297 -0.067257605 -0.021690655
0.025976602 0.01685037 0.029956946 0.008394363 -0.017223906 -0.090187095 -0.008398863 0.0674746
0.01136252 0.021011347 0.018455515 -0.031393394 0.016733764 0.025004089 -0.08449388 0.03298341
-0.047734953 0.08525291 0.016210975 0.042430438 0.005365866 0.023761231 0.08387859 0.021165855
-0.04821799 -0.025490174 0.022627199 -0.0014757629 -0.011279916 0.046907615 -0.026666163 0.012293072
0.037867364 0.031235322 -0.0059006745 -0.03238747 -0.00016251091 -0.061867066 -0.0021972635 0.02090551
0.04974837 -0.01630694 -0.027612582 0.046625383 -0.010942435 -0.01809818 -0.0481613 0.045097496
-0.06061546 0.040363263 -0.039378457 0.049118202 -0.08669826 0.0348772 -0.0032757425 -0.06697667
-0.068321824 -0.028256299 0.0105212005 -0.0072724754 0.00656208 -0.007381695 0.022740971 -0.050933834
0.010363379 0.033484362 -0.028666466 -0.01613625 -0.016116086 -0.024173569 0.030899318 -0.013032544
0.020918753 0.03726833 0.028781528 -0.033939745 0.017308343 -0.049439766 -0.022806857 -0.025031798

Fd1da27LSTM.bias_ih_l0 f4 [600]
00000000: 17a5 80bc d8e2 12bd fb66 02bd 74be 1bbc
00000010: fd88 51bc 0d4e 97bd 48a1 203d f31e cdbc
00000020: 6adc 4ebd 8eda fcbc c586 ef3b 60d3 e5bc
00000030: 79ef 033d d358 56bc be9f 683c 6326 173d
00000040: 7fb5 4bbc 6485 f3bb d425 de3c cf82 8cbd
00000050: f33d 41bc 2df2 c53a 6520 19bd d2d3 483d
00000060: 1a04 04bd 67c1 56bc 5614 8d3c 50b1 0bbb
00000070: 47c8 bbbb 2e14 c5bb 42de 4c3d faa8 0cbc
00000080: 6076 3c3c f723 2abd 89a4 b53b 5d80 cbbc
00000090: aff1 5abd 437e b2bc 3da8 a93c 464f 5ebb
000000a0: 8e8a 25bd 8002 983b a0b7 133d 033f f7bc
000000b0: ad14 113d 2d39 3dbd 7943 e33c 6e77 4ebd
000000c0: 58df 74bc 59ff 5bbc 0dff d93b 7ad1 0ebc
000000d0: 6722 ea3c 3eef 8dbb e843 5cbc 38fc 03bd
000000e0: 9860 48bd cddd 9a3b 3f64 acbc 0b85 a13c
000000f0: 3441 ffbc 71f0 d6bc 32b3 36bc e712 d8bb
00000100: 55c3 32bd 0f20 7b3b d6ab eabc 9b4c 11bd
00000110: 993e 86bc f6c6 833c 659c 0cbd 348c 1bbd
00000120: 3353 48bc 6072 643c 6179 c5bc 411a 5d3d
00000130: 0f29 e9bc 7ba5 adbc 6b91 ef3b 88d9 82bc
00000140: 9dca 75bc 1e05 09bd ea19 d2bc 6864 5fbc
00000150: dc1d 863d b70d c53c ca71 033c 28f5 b9bc
00000160: e275 7abd 482a 07bd 3fdd 04bc cc8b b53c
00000170: 29d0 b2bc 94ed 0b3d f122 19bd c61d 68bc
00000180: c1f8 fc3c 5c14 adbc 326d c2bc f8f2 79bc
00000190: 892d 34bc d6d1 debc 9eb0 38bd dc59 88bd
000001a0: 0418 cbbc e406 df3c ce7b 923b 8771 55bc
000001b0: 2ebc 8c3c d417 263d 8261 6ebd 410a 1fbd
000001c0: 80fa 77bb ffba ca3c eef7 063d 4b64 38bc
000001d0: 8b42 81bc 17c0 12bd 3fb7 33bd a119 b0bb
000001e0: c2e1 fc3b 23d8 22bd 31b8 15bd b06a 86bc
000001f0: a4ed 5d3b 01de b8bc eaed a4bc d69f 62ba
00000200: 6f08 23bd 5df2 77bc 7e41 81bb 05c2 1e3d
00000210: bd68 02bd 2d73 52bc 9893 923d 5ad8 d2bc
00000220: 64de b53c ab1e 9cbc e461 42bc 2eb7 b9bb
00000230: 5f14 c43b 35f4 d33a 5749 cc3b b35c 273c
00000240: e319 21bd f6a3 463d 7c46 31bc 5b65 95bc
00000250: 78e7 813c 3105 2bbc 3ae0 dc3d 4ef7 0b3d
00000260: 3d61 a8bc 9575 5ebc 1160 003b adfd 6f3d
00000270: 4227 b93d ae08 383a f3c0 f13c fa1b 693d
00000280: 37c5 b03b 7659 673d 595f 8ebc 94ce 283d
00000290: cfaa 0ebd f2ae 81bc 26b7 83bc 4756 663d
000002a0: 1166 3ebd 2764 39bd 5159 9dbc 0d78 a73c
000002b0: 088b 10bc 0f03 6e3d dd47 d3bc e375 233b
000002c0: c857 e4ba 646d b2bb 831a 85bc 99f3 0c3d
000002d0: 09be a53d 8885 a2bc 098d 80ba 698b 823d
000002e0: 7360 423c 179a 15bb 8c2f 273d e963 253d
000002f0: 67bd 8fb9 57da 3dbd 6888 7e3d 58c4 023b
00000300: 16ad aabc 628c a1bc 8af9 8e3d a046 2ebd
00000310: b08d 4dbc 470d 253d 46cf fe3d f771 693d
00000320: 8007 8a3d 9261 303b b8a3 923b fb14 7abb
00000330: 0a24 01bd 4993 f1bc 98e9 cdbc 3a99 a93d
00000340: 5c85 8c3d cd72 803c b56e 9ebc 3631 8b3d
00000350: ca0e 9abc 4e27 20bd 1b8d b93c aa51 8d3c
00000360: 207b 5d3d 9fed 8c3c 6f9d 263d f9b1 c13c
00000370: f049 b03d d67f 1e3d e627 3bbc 92a6 28bb
00000380: 8881 6c3c 816c 5d3d c59f a43a 8a0f b03c
00000390: c1c8 8c3d 46ba da3b 42e1 f63c af29 a93c
000003a0: 1f8b 433d eead 573d c077 203d b749 d33c
000003b0: 4565 65bc 8b56 693d 2e8b 833d 9bb5 13bd
000003c0: a88d 1cbd 2f07 24bb 689b 0cbc 73be 8abc
000003d0: 4ff2 1f3d c1c5 ae3c d2f5 2abd ccd9 b03a
000003e0: fc60 5e3d 1be8 893c c629 56bc 4280 a73c
000003f0: 50f5 403c 23be 18bd 0389 803c 2e39 4b3d
-0.015703721 -0.035860866 -0.03183649 -0.009505857 -0.012789008 -0.07387934 0.03921631 -0.025039172
-0.050503172 -0.030865934 0.007309767 -0.028054893 0.0322108 -0.013082701 0.014198242 0.036901843
-0.012433409 -0.007431673 0.027117647 -0.06860887 -0.011794555 0.0015102081 -0.03738441 0.049030133
-0.032230474 -0.013107634 0.017221611 -0.0021315403 -0.005730662 -0.0060143685 0.05001665 -0.008585209
0.011502832 -0.041538205 0.0055432958 -0.024841482 -0.053453144 -0.021788722 0.020710105 -0.0033921762
-0.04041534 0.00463897 0.03606379 -0.030181414 0.03542011 -0.046197105 0.027742134 -0.050406866
-0.014945827 -0.013427579 0.006652719 -0.008716935 0.028580857 -0.0043314984 -0.0134439245 -0.032222956
-0.048920244 0.0047261477 -0.021043895 0.01971676 -0.031159021 -0.026237698 -0.011151122 -0.00659405
-0.043643314 0.003831867 -0.02864639 -0.035473447 -0.01638727 0.016086083 -0.034328837 -0.037975505
-0.0122268675 0.013943285 -0.02410573 0.053980116 -0.028461961 -0.021197071 0.0073110363 -0.015972868
-0.01500192 -0.033452146 -0.025647122 -0.013634779 0.06548664 0.024054391 0.008022735 -0.022699907
-0.061147578 -0.032999307 -0.00810939 0.022161387 -0.021827774 0.03416212 -0.03738684 -0.014167255
0.030880334 -0.021127872 -0.023733709 -0.015255682 -0.010997185 -0.027199667 -0.04509031 -0.06657764
-0.024791725 0.027224965 0.004470325 -0.013027555 0.017179575 0.040550068 -0.05819846 -0.03882814
-0.0037838519 0.02474737 0.032951288 -0.01125438 -0.0157788 -0.035827722 -0.04387593 -0.005374149
0.007717342 -0.039756905 -0.03655261 -0.016408294 0.0033863569 -0.022566797 -0.020132978 -0.0008645033
-0.039802965 -0.0151334675 -0.003944575 0.03875925 -0.031838167 -0.012844843 0.071570575 -0.02573793
0.02220077 -0.019057592 -0.011864159 -0.0056675887 0.0059838737 0.0016170802 0.0062343287 0.010214972
-0.039331328 0.04849621 -0.010820027 -0.018236807 0.015857443 -0.010438249 0.10784955 0.034171395
-0.02055418 -0.013577838 0.001958851 0.058591533 0.09040691 0.00070203363 0.02951095 0.056911446
0.0053946036 0.0564818 -0.01737945 0.041212633 -0.034830865 -0.01583049 -0.016078543 0.056234624
-0.046484057 -0.04526153 -0.019207628 0.020442987 -0.00882221 0.058108386 -0.025791103 0.0024942092
-0.001742118 -0.0054451693 -0.016247993 0.034412 0.08092887 -0.019839063 -0.0009807657 0.063742466
0.011863816 -0.002282744 0.04081683 0.040378485 -0.000274162 -0.046350803 0.062141806 0.0019953456
-0.020834487 -0.01972026 0.069811895 -0.042547822 -0.012545988 0.040295865 0.12441878 0.05699345
0.06739712 0.0026913625 0.004475083 -0.0038159478 -0.03152851 -0.029489176 -0.0251358 0.08281179
0.06861374 0.015679741 -0.019339899 0.067964956 -0.01880588 -0.039099984 0.022650292 0.017250855
0.0540725 0.01720315 0.040677484 0.023644434 0.086078525 0.038696133 -0.011423087 -0.002573405
0.0144351795 0.054058556 0.0012559822 0.021491785 0.06874228 0.0066750376 0.030136708 0.02064976
0.047740098 0.052656107 0.039176702 0.025791986 -0.014001195 0.0569673 0.06423031 -0.036061864
-0.03822103 -0.0025028696 -0.008581974 -0.016936516 0.039049443 0.02133453 -0.04173834 0.0013492643
0.05429171 0.01683431 -0.013071483 0.0204469 0.011777237 -0.037290704 0.015690332 0.049615078

Fd1da27LSTM.bias_hh_l0 f4 [600]
00000000: 4fd6 2bbd a137 cabc 9c44 f1bc ac0d 6ebd
00000010: 2842 9fbc f0b3 6b3a 0348 df3c 7e02 cabc
00000020: 340e b2bc 155e bd3c 28c8 21bc 9909 a6bc
00000030: 60a4 6ebc 6ef6 2ebd 90df 67bc 54bf 6f3d
00000040: 8f80 b63b e78a 1c3d 54d0 babc b29e c0bc
00000050: 2137 3bbc 687c 983c e556 6bba 7c1e efbc
00000060: 0130 0dbd c692 b2bc 05ec 1bbd c3b1 36bd
00000070: 2909 36bd b2dd a1bc 278b 0f3d df33 703b
00000080: 0ef5 383c a8c2 7d3a b264 25bb a149 69bc
00000090: 9ef5 aab9 88c7 20bc 1278 85bc e8c7 7c3c
000000a0: 1612 52bc e974 2d3d 47ef 2b3d 9cee f4bc
000000b0: 4e5f d73c ff6b 46bd d240 543d 91a5 94bc
000000c0: dbcd db3b d271 233c 6c5a 63bd d3ba 8bbc
000000d0: 37b5 523c c9b1 d13a c67a 7c3a c89b 9fbc
000000e0: 5b21 44bc ad98 92bb d233 8b3c 5f8f 8a3c
000000f0: 9792 a7bc b20f cb3c 3c41 15bb a728 1b3c
00000100: de04 0bbd f0bd 2cbd 8cb8 bb3b b7a8 56bd
00000110: 47c8 58bd e194 043c 715e c1bc 6fba bd3c
00000120: 35e3 cfbc 0731 56bc f534 babc 1635 8e3c
00000130: 9864 48bc d2fd 493d a245 86bd 1ba5 863c
00000140: 0c19 acbc b97a 07bd e9ef 5fbc e954 35bd
00000150: 71f2 203d 9903 d5bc 6ea9 d83c 88eb 8e3c
00000160: cf76 e5bc ad98 20bd e210 e1bc f4a4 ac3c
00000170: 20e5 e9bc b255 a8ba e309 3abd 798d a0bc
00000180: c1d8 763c b80f 5bbd 4faa ba3c da28 4bbb
00000190: 3b43 febb 3597 b33c 6e8d 733c 6d8b 473b
000001a0: 937f 273c 882f cbbc f47f 3cbd 38f5 96bc
000001b0: 257a db3a 311a 8abc 25d7 bbbc e993 31bc
000001c0: 7dc3 8b3a ce42 1e3c d3e6 3f3a 0a00 4dbd
000001d0: 022f 24bc 30d8 babc 097c 3abd 35a0 dc3c
000001e0: 60c2 c83c 88ee 22bd c59f 603b 8037 0fbd
000001f0: 43b0 c7bc 0c05 973c e02d 36bc 959a f93c
00000200: a08d 5fbd 16a1 42bc 3ba7 673c b67a 8e3c
00000210: 47e0 c4bc 4414 da3c 0bfd a83d 878d 06bd
00000220: 1f6a d73b 6b3c 86bc 7d43 933c 3a00 53bc
00000230: e290 84bd 97a9 c2bb c517 b63c 0b1a 87bc
00000240: 4771 31bd 5067 263d ee9d 99ba f59a 17bd
00000250: eb7a 803d 54fa 3dbc b085 df3d 5ab2 a33c
00000260: 4056 89bc 33d8 153c 5e9d c6bc 3716 7c3b
00000270: c784 b73b 3d10 103c f20f f7bc d3fe be3c
00000280: 79f3 95bc fc80 883c 7c3b 47bd 115d e93c
00000290: 4996 16bd d884 333d b4ef 7f3c f96d ef3d
000002a0: b14d c33a ff14 6abc 29ce a8bc d6b7 e13d
000002b0: 189b d23c 4dce 263e 5127 fabb c380 013c
000002c0: f826 243d 6942 373d c079 b13d 54d3 bc3c
000002d0: d071 703d b324 2a3b 1ee2 3e3c 8909 253c
000002e0: 7c01 183d 9ff3 67b9 99ff 013d 8dd8 803d
000002f0: 3a5d 3f3c 16e4 91bc 656e 533d 749a 3f3d
00000300: de1b 3cbd bebb 06bd 5d04 203d ad56 d2bc
00000310: cdc9 ad3d f32c ae3b 0c15 ef3d 55af aa3c
00000320: d883 1a3d 9f1f 9e3b 7a9f ad3d 8810 a8bc
00000330: 611b fabc 209a 21bd 4cb8 fe3c 5262 ce3d
00000340: cc2c 053e c4b1 e23c 7cca 863c ff6e 07bb
00000350: 5b62 5a3b 15c6 92bb c015 41bc bc87 863b
00000360: e4ae 2fbb acf8 a93b c2a5 3d3d a6b6 213d
00000370: e687 ac3d ef5b 983d 8b10 3bbc 93a6 983a
00000380: 5e45 8f3b 039e 00bd 97f9 90bc c717 0d3d
00000390: a663 c0bb bde3 b33c 584f 1dbb 544b ad3d
000003a0: 2e34 c0bc fc32 593d e59f 49bc 5b9c f33c
000003b0: 326d 3ebc 0275 653d d0a2 523a 1463 71bc
000003c0: 1162 273b 4b7a ab3c acd1 d1b9 6b0c 0abd
000003d0: fe1d f53c 71a9 343d fb77 72bd be0a 1dbd
000003e0: 2753 7a3d ea04 073d 179e 3b3a a7cc 54bd
000003f0: e91e 02bd d25f 7cbc ef28 5d3d 9eb0 dd3c
-0.041952427 -0.024684729 -0.02945166 -0.058118507 -0.019440725 0.00089913514 0.027256018 -0.024659391
-0.021735288 0.02311615 -0.009874381 -0.020268248 -0.014565557 -0.042715482 -0.014152423 0.058532074
0.0055695246 0.038218405 -0.022804417 -0.023513172 -0.011426718 0.018614009 -0.0008977487 -0.02918934
-0.03446961 -0.021798503 -0.038066883 -0.04460312 -0.04444233 -0.019759033 0.035044815 0.0036652011
0.011288894 0.000968019 -0.002523702 -0.014238746 -0.00032607926 -0.009813197 -0.016292606 0.015428521
-0.012821695 0.042347822 0.04197624 -0.029898934 0.026290562 -0.048442837 0.05181963 -0.018145354
0.0067078895 0.009975867 -0.055506155 -0.017056858 0.012860588 0.0015998419 0.0009631332 -0.019483462
-0.011970843 -0.004473767 0.016992483 0.016914068 -0.020455642 0.024787758 -0.0022774478 0.0094701415
-0.03394019 -0.042173326 0.005728787 -0.052406993 -0.052925374 0.008092136 -0.023604603 0.023160188
-0.025376895 -0.0130732125 -0.02273033 0.017359298 -0.012231015 0.049314328 -0.0655625 0.01643615
-0.021008037 -0.03307602 -0.013668039 -0.04427043 0.03929371 -0.026002692 0.026447978 0.017446294
-0.028010754 -0.039208103 -0.02747387 0.02107475 -0.028551638 -0.0012842922 -0.045419585 -0.01959871
0.015066327 -0.053481787 0.022786288 -0.0030999691 -0.0077594793 0.021922687 0.014865262 0.0030448094
0.010223287 -0.024802938 -0.046020463 -0.018427476 0.0016744776 -0.016858192 -0.022929737 -0.010838487
0.0010663118 0.009659482 0.0007320467 -0.050048865 -0.010020973 -0.022808164 -0.045528445 0.026931861
0.024506748 -0.039778262 0.0034274918 -0.03496504 -0.02437604 0.018435024 -0.011119336 0.030469218
-0.054578424 -0.011879226 0.014138992 0.017392498 -0.024032725 0.026620992 0.08251389 -0.032849815
0.00657393 -0.016386231 0.017976517 -0.012878472 -0.06472947 -0.005940627 0.022228131 -0.01649191
-0.04332092 0.04062587 -0.001172004 -0.037013013 0.06273445 -0.011595327 0.10914171 0.019982506
-0.01676476 0.009145784 -0.02424496 0.003846539 0.005600545 0.008792934 -0.03015897 0.023314869
-0.018304573 0.016663067 -0.048640713 0.02848676 -0.036764417 0.04382786 0.0156211145 0.116908975
0.0014900473 -0.014287232 -0.020606117 0.11021392 0.02570872 0.16289635 -0.0076340814 0.007904234
0.040076226 0.044741068 0.086658 0.023049988 0.05870229 0.0025961816 0.01165059 0.010073074
0.03711079 -0.00022120633 0.031737898 0.06291304 0.011679942 -0.017808955 0.051618952 0.046778157
-0.045925014 -0.03289389 0.03906666 -0.025676096 0.08485756 0.005315417 0.11673936 0.020835558
0.037723392 0.004825547 0.08477683 -0.020515695 -0.030530633 -0.039453626 0.031093739 0.10077347
0.1300537 0.027672656 0.016453974 -0.0020665524 0.0033322785 -0.0044791796 -0.011784971 0.0041055363
-0.0026807124 0.0051871147 0.046300657 0.039480828 0.08424358 0.0743941 -0.011417518 0.0011646323
0.004372283 -0.03140069 -0.017697139 0.034446504 -0.005871254 0.02195918 -0.0024003591 0.08461633
-0.023462381 0.053027138 -0.012306188 0.029737642 -0.011622714 0.05601979 0.0008035125 -0.014733095
0.002554063 0.020932337 -0.00040019804 -0.03370325 0.029921528 0.044106904 -0.059196454 -0.038340323
0.061114457 0.03296367 0.0007157041 -0.051952984 -0.03176776 -0.015403705 0.053994115 0.027061757

ClassificationFd1da27.0.weight f4 [150]
00000000: 85e7 813f 0b87 4d3f 8e82 863f b7d0 883f
00000010: 8d0d 803f 3ee7 813f aee3 903f 1bf0 7f3f
00000020: f6dd 4e3f 94ec 833f c43e 8a3f 808c 763f
00000030: d4bf 863f 0ce2 6b3f 736d 7d3f 8786 883f
00000040: 52c2 823f 6e00 8a3f fba1 883f 1f77 863f
00000050: 1b29 7b3f 6f09 573f c366 8b3f f832 893f
00000060: 2db1 853f 4132 683f 67d2 863f 035e 813f
00000070: 12b3 7b3f 80cc 803f 786b 853f 1301 753f
00000080: 0153 863f ceb5 863f ccc0 863f 8079 623f
00000090: 6254 733f 35fb 723f 31df 873f fe39 773f
000000a0: ce91 7d3f 4080 753f c623 873f 658a 6f3f
000000b0: 79a9 773f f4f2 843f 373a 843f 2a11 7f3f
000000c0: 16af 7a3f d8d4 8d3f 3596 373f d129 803f
000000d0: 39d3 7c3f ba71 813f 7a32 793f d695 773f
000000e0: 00c0 833f 72e2 4b3f 18f5 6f3f 5fab 243f
000000f0: a219 863f 93be 893f b9a9 813f f6fa 873f
00000100: 8434 813f 389d 813f 243b 873f 876b 753f
00000110: e0ab 853f b50d 723f 93b4 743f c905 843f
00000120: a05d 163f fca7 723f 8ebc 853f 7635 7c3f
00000130: 2dfd 813f cabd 7f3f e2ba 7e3f 2f00 8b3f
00000140: 1121 703f 8149 3d3f 976d 853f f35c 843f
00000150: b56b 573f 0311 303f 07e3 743f e671 8b3f
00000160: 4ac5 7f3f 3255 233f 70e6 843f 74ef 8b3f
00000170: 976e 843f 4f82 8a3f f075 873f e724 5f3f
00000180: a124 863f c6ba 8a3f 0b0c 833f ea77 873f
00000190: a6f6 753f 198e 863f 8753 873f 49a8 883f
000001a0: dec2 843f 33e5 7d3f 2e6f 813f d5a8 403f
000001b0: b6d2 853f 4855 8a3f 4042 813f 5114 833f
000001c0: 9365 863f 1c63 7b3f 4070 7d3f b7a6 863f
000001d0: 738e 263f d993 833f afd0 7a3f 2abf 4b3f
000001e0: e221 8f3f 0c64 8b3f afd2 863f d2ed 853f
000001f0: 666d 833f 605a 7f3f eb5c 853f 32c0 6e3f
00000200: 3e9b 843f d840 703f 13c4 803f 6909 833f
00000210: f187 853f b6c7 8a3f 5a16 8e3f a85d 883f
00000220: bd1c 8a3f a43a 873f 0b57 883f 9e33 8d3f
00000230: f6a1 743f 40bb 7f3f 98c1 823f c8b6 7e3f
00000240: 454e 7c3f 98bb 833f b180 893f c6db 863f
00000250: 50bf 8e3f 9cea 633f
1.0148779 0.80284184 1.0508592 1.0688695 1.0004135 1.0148695 1.1319482 0.99975747
0.80807436 1.0306573 1.0800405 0.96308136 1.0527291 0.92141795 0.9899513 1.0666054
1.0215552 1.0781381 1.0674433 1.0505103 0.98109597 0.8399877 1.0890735 1.071868
1.0444695 0.9070168 1.053296 1.0106815 0.98320115 1.0062408 1.0423422 0.95704764
1.0494081 1.0524232 1.0527587 0.88466644 0.9505063 0.9491456 1.0614988 0.96572864
0.99050605 0.9589882 1.0557792 0.9357055 0.9674297 1.0386643 1.0330266 0.99635565
0.9792341 1.108058 0.7171357 1.0012761 0.987598 1.0112832 0.97342646 0.96713006
1.0292969 0.79642403 0.9373336 0.6432399 1.0476573 1.0761284 1.012992 1.0623462
1.0094151 1.0126104 1.0564923 0.958672 1.0443077 0.94552165 0.95588034 1.0314265
0.5873661 0.94787574 1.0448167 0.98519075 1.0155388 0.9989897 0.9950391 1.0859431
0.93800455 0.73940283 1.0424069 1.0340866 0.8414872 0.6877596 0.95658916 1.0894134
0.99910414 0.6380187 1.0382824 1.093245 1.0346249 1.0821017 1.0582867 0.87165684
1.0479928 1.0838249 1.023805 1.058347 0.9607948 1.0512115 1.0572366 1.0676357
1.0371969 0.99177855 1.0112054 0.7525762 1.0454929 1.0807276 1.0098343 1.0240575
1.0499748 0.98198104 0.98999405 1.0519627 0.6506111 1.0279495 0.97974676 0.7958857
1.1182215 1.0889907 1.0533046 1.0463202 1.0267761 0.99747276 1.0418981 0.93262017
1.0359876 0.93848944 1.0059837 1.0237247 1.0432111 1.0842197 1.1100571 1.0653582
1.079002 1.0564771 1.0651563 1.1031377 0.9555963 0.99895096 1.021533 0.9949765
0.9855693 1.0291624 1.0742399 1.053582 1.1152134 0.8902986

ClassificationFd1da27.0.bias f4 [150]
00000000: b2bf e2bb b070 94bc a65a 383d 8b06 45bc
00000010: 74ae 293c 8101 e7bc 747a c23c f76f 12bd
00000020: 670a d73a 6dc8 bcbc dd38 813d bf63 9539
00000030: 41ff 2dbc 3112 bdbb bb80 443d 8239 93bc
00000040: b0de 1dbc a865 d83a 199c 0cbd 0e8a 0ebc
00000050: 8e0f 0a3d b50c 533a 7115 a6bc 4edf 1c3d
00000060: 6cf0 4dbc ba31 4ebc f835 0abd 1181 913c
00000070: dc8e a73b bdd7 713c d5c6 53bc 1647 a6bc
00000080: d82a 003d dcb2 303d 385e 63bc 175f 113b
00000090: 82ec 253c 6a6a 6abc 4595 d5bc 15b0 bcba
000000a0: 133e 8abc 102e 4cbc 5e5b 173d f4d7 973c
000000b0: 3993 bbb9 cfee 343c 37a8 5d3d faa2 2ebd
000000c0: 1835 abba 1b06 c33c 7ff3 07bc 4480 cc3b
000000d0: 45b7 3ebd e86c cbbb 84f6 8d3c 33a2 f83c
000000e0: 8de0 1a3d 58bf 74bc 2f79 48bb f4a0 3ebc
000000f0: 6b0b 9cbc 3316 0f3d ede4 86bc 6a49 e73c
00000100: de75 36bb a1ac f03c 117a 8a3c b1b0 bcbc
00000110: b0c5 2a3c 79ca de3b f97b bc3c efbb 033b
00000120: 0b06 f1b9 02fe 38bc 1ba5 8dbc 40b6 f5bc
00000130: a4fb c6bc c63b a83b c1fa 8abb 2879 0abc
00000140: 9fb7 fdbc 9c40 04bb d18d 803c c300 08bd
00000150: 2452 a03b d21b 91b7 370a b937 f71d 013d
00000160: e179 32bd 7639 98bb e5af 2bbd 304e 70bb
00000170: b5d4 dabc 0ecb 23ba 073b 593d a59a 9ebb
00000180: bf6c 4d3d 9f41 9cbc c599 4fb9 555b c33c
00000190: a9b1 10bc 996a 443d d3d0 8c3b 46d0 353c
000001a0: 455c 73bc 7889 903a c71f a63c dc46 85bc
000001b0: bebd 543c fc61 223c dbd0 443d 3210 e4bb
000001c0: 2072 3f3c 123c 27bd 5f6f 533c e126 1cbb
000001d0: 54fa e83c d969 903c ae4a 743c 2dd7 76bc
000001e0: 9cd6 403d 26c0 e63c 880f 46bc 10ad 353d
000001f0: 1845 24bb 66a7 70bc 375c 11bb 043d a6bc
00000200: 3a49 22bc 3e04 d6bc ca99 60bb 13b6 a7bb
00000210: d138 b13c c264 693d c7bb 4c3c e332 793c
00000220: 9e41 1a3d fbfe adbc c4ed 44ba 6c1a 713c
00000230: 3a13 79bc 9e92 c0bc ac3d 04bd 06cc c7bc
00000240: 74aa 5fbc 810c 6d3c 8d07 1d3d 5e4a 933c
00000250: 27cd b4bc f968 86bc
-0.0069198245 -0.01812014 0.045008324 -0.012025486 0.010356534 -0.02819896 0.02374003 -0.03575131
0.0016406298 -0.02304479 0.06309674 0.0002849381 -0.010619939 -0.005769991 0.04797433 -0.017971758
-0.009635612 0.0016509788 -0.034328554 -0.008699907 0.03370624 0.0008050905 -0.020273896 0.038298897
-0.012569528 -0.012585098 -0.033742875 0.017761739 0.0051134657 0.014760909 -0.012925823 -0.020297568
0.03129086 0.043139324 -0.013877444 0.0022181922 0.010127189 -0.014307598 -0.026072154 -0.0014395738
-0.016875302 -0.012462154 0.03695237 0.018535592 -0.0003577711 0.0110432645 0.0541155 -0.042635895
-0.0013062088 0.023806622 -0.0082978 0.0062408764 -0.0465615 -0.006208051 0.017329462 0.03035078
0.037811805 -0.014938198 -0.003058981 -0.011635054 -0.019048413 0.03493328 -0.016466582 0.028233249
-0.002784125 0.02937919 0.016903909 -0.023033472 0.010423109 0.006799039 0.023008334 0.002010103
-0.00045971604 -0.011291029 -0.017290642 -0.02999413 -0.024289913 0.0051340787 -0.004241318 -0.008451737
-0.030971346 -0.0020180112 0.015692623 -0.03320385 0.0048926044 -1.7298302e-05 2.2058475e-05 0.031522717
-0.043573264 -0.0046455218 -0.041915793 -0.0036667697 -0.026712755 -0.0006248214 0.05303481 -0.0048402124
0.050152536 -0.01907426 -0.00019798342 0.023847261 -0.00883142 0.047953222 0.0042973547 0.01109702
-0.014853542 0.0011027297 0.020278824 -0.01626914 0.012984691 0.009911057 0.048050743 -0.0069599384
0.011684924 -0.040828772 0.012904971 -0.0023826885 0.028439678 0.017628597 0.014910383 -0.01506595
0.047079667 0.028167795 -0.012088664 0.0443545 -0.0025065597 -0.014688348 -0.0022180208 -0.020292766
-0.009905154 -0.02612507 -0.0034271353 -0.0051181405 0.021633537 0.056980856 0.0124959415 0.015209886
0.037660234 -0.021239748 -0.00075122365 0.014715772 -0.015202338 -0.023507413 -0.032285377 -0.024389278
-0.013651479 0.014468313 0.03833728 0.017979797 -0.02207048 -0.016407477

ClassificationFd1da27.0.running_mean f4 [150]
00000000: 20c4 60bd 3d15 cbbc 6f28 363c 587d 7f3c
00000010: 5987 25bb 2214 993d 6ebd 2fbe 7574 11bd
00000020: a472 b8bc 2c85 873c 6591 3bbb 9df2 5eba
00000030: 3dec 9ebb 88dc 653e 70d8 0ebd 6d23 a23b
00000040: 140f f03d fb56 d0be b394 a1bc 9936 cb3d
00000050: 26a6 33bd 97f0 69bd 9733 bfbb e4a6 85be
00000060: 4aca 923d 9384 a3ba 0e96 acbd 9b1f c6bc
00000070: 15bd e4bd b285 353d c27b 09bd 3c45 163c
00000080: c3ec c9bd 41e5 20bc 436b ad3d b8b7 afbe
00000090: 0b67 2d3d 81b6 50bc f625 0d3c d701 763d
000000a0: ed0d cd3d 2144 f0bc 8167 5c3d 7101 5cbc
000000b0: 2a2c f5bd 1992 66bd b7db 41be 9205 1d3a
000000c0: 060f eebe f8d8 083c a509 093e 745c eb3c
000000d0: 1b35 353e dfa9 da3c 7734 49bd 173e 00bd
000000e0: e2e8 de3c 9474 66bd 49d9 1fbf 8f71 353d
000000f0: c392 7a3b f9b1 85bc a2f5 1fbd 9271 253d
00000100: a247 a1bd 5b04 9ebd 6e23 7bbd 11a7 743d
00000110: cd58 25bd cf71 ea3c b723 3a3d 0ad4 153a
00000120: b2e4 6ebb 7280 62bd 6363 c93c d1dc 82bd
00000130: c126 e83c 6eb4 4ebd 2fb0 563e fd60 f93b
00000140: e562 7e3e 867d 36bc d116 da3c 6fd7 b9ba
00000150: ae3d e13a 2c61 353c 208b c7bd d485 013c
00000160: 3070 cf3c d3a1 293c ec3c 45bd 8524 ae3b
00000170: b0fd bc3b f5d4 933c ee2f 02bc acd0 f7bd
00000180: c031 9fbd b832 353d bc87 853c 9865 4dbe
00000190: deb0 d9bb 84eb e43a ecab 603e a0b9 b73d
000001a0: c582 163c 56d1 d9bc 62e6 46bd 3f34 c8bc
000001b0: 7cc2 93be dbd6 21bb bcb0 abbd 8c93 69be
000001c0: 1d6b b13b 182f 2c3e 8a2f ec3c e4d4 603c
000001d0: 514b 313b 1b67 fe3c 549d 80bd 225d 223d
000001e0: eb9a 2538 f47a ba3d 27cd a03d 0a28 67bd
000001f0: 0201 b93c 1059 e63d 87ac 9bbb 926b 7bbd
00000200: 36b1 ab3d 8d8b c63d 503e 173e 621a 30be
00000210: 20d5 ec39 183e 933d b027 c2bc d80b adbd
00000220: 9b05 913d 411c 9c3c b259 463d b722 d5bd
00000230: 8817 f6bc 32f3 013f 8715 99be 4126 a3bc
00000240: 3e25 153b 7120 373d c0c7 f43d 0a06 80bc
00000250: 7838 20bd 6994 50bd
-0.05487454 -0.0247904 0.011118039 0.015593849 -0.0025257675 0.07474543 -0.17162105 -0.035511453
-0.022515602 0.016542993 -0.0028620597 -0.000850478 -0.004849939 0.22447407 -0.03487438 0.0049480707
0.11721626 -0.4069136 -0.019724226 0.09922523 -0.043859623 -0.05711421 -0.0058350074 -0.2610389
0.0716749 -0.0012475423 -0.08427058 -0.024184993 -0.11168877 0.044316955 -0.03356529 0.00917178
-0.09859612 -0.009820283 0.08467724 -0.34319854 0.042334598 -0.012738825 0.008615008 0.06006035
0.10012422 -0.029329361 0.053809647 -0.013428078 -0.11971314 -0.056291673 -0.18931471 0.0005989905
-0.46495837 0.008352511 0.13382585 0.028730609 0.1769604 0.026692329 -0.0491223 -0.031309213
0.027210657 -0.05626352 -0.62440926 0.04429775 0.003823445 -0.016320216 -0.039052613 0.040391512
-0.07874991 -0.077156745 -0.061313085 0.05972964 -0.04036789 0.028618721 0.045444217 0.0005715495
-0.003645223 -0.055298276 0.024583524 -0.06389774 0.028338792 -0.05046504 0.20965646 0.007610439
0.24842413 -0.011138326 0.026622208 -0.0014178584 0.001718452 0.011070531 -0.09743333 0.007905442
0.02532205 0.010353523 -0.048153803 0.005314412 0.0057675466 0.018045882 -0.007945998 -0.12100348
-0.07773161 0.044237822 0.016300075 -0.20058286 -0.0066433987 0.0017465209 0.21940583 0.08970952
0.009186451 -0.026589077 -0.048559554 -0.024438975 -0.28859317 -0.0024694714 -0.08383319 -0.22810191
0.00541438 0.1681484 0.028831262 0.013722632 0.0027052949 0.031055024 -0.06280008 0.0396396
3.9483344e-05 0.09105483 0.0785163 -0.05643467 0.022583488 0.11247456 -0.0047507915 -0.061381884
0.0838341 0.09694586 0.14769864 -0.17197564 0.00045172218 0.07189578 -0.023700565 -0.08449525
0.07081147 0.019056441 0.048425384 -0.10407012 -0.030040517 0.5076171 -0.29899237 -0.019915702
0.0022757794 0.044708673 0.11952162 -0.01562788 -0.039116353 -0.050922785

ClassificationFd1da27.0.running_var f4 [150]
00000000: 567d 113b 9e51 263a c43a 4b3a f418 5b3a
00000010: 8ab7 7d39 f04b 7c3a 7640 0c3b f195 f439
00000020: ed55 7d39 d2e7 9c39 d595 db39 014d c539
00000030: 841f 143a 07d6 ae3a 63ca 5a39 6de1 723a
00000040: 5531 0c3b cb97 b63a 2c11 5c3a d2ab 683a
00000050: 18d5 b439 1b78 243b 45ee b539 9970 813b
00000060: ff77 7d3a dffa 0339 ba01 013b 9f71 083a
00000070: 59d2 5e3a 8120 b739 465b 3c3a d805 f139
00000080: 6421 ad3a 129a e039 cf72 e33a b67c 693b
00000090: d427 693a 0cff 703b dac9 3f3b f098 e439
000000a0: 411b 8e3b 96f8 f139 558a 483a 037c 8039
000000b0: e9c9 c43b 5654 9439 2198 5c3a e445 6e39
000000c0: d37f 833b 92b1 863a 832b 003a 6aef b33a
000000d0: 0217 b13a cf21 d339 e7d1 a939 429c 6f39
000000e0: 36ce e939 f0d4 ff3b 4ff5 9c3b c631 f539
000000f0: d894 0439 f997 d339 04fa b039 f11d 463a
00000100: 6e26 693a b79f 893a 56f1 243a fd56 b639
00000110: 2df5 193a 3c84 443a ed03 4f3a d2b4 8c39
00000120: 7886 8439 41da 163a 2941 1c3a f3c9 453a
00000130: d318 833a d34e 1f3b 5f2c b53a 668b 883a
00000140: 93cb 4d3b b2d2 a73a e087 2d3a e43d 713a
00000150: a7cb 5e3b d6fb ba39 8d25 383b 79ed db3a
00000160: 4fa7 543a c36d b838 4cd9 b239 ee51 e039
00000170: d7cf 0a3a 2b68 243a 3207 fb39 9844 583a
00000180: 103c ba3a 2081 0e3a 3329 e139 a0ab 863a
00000190: e3d6 b739 6848 0f3a 14f2 fd3a 342a 843a
000001a0: 68b4 803a 7e9a c739 bc25 d639 5abb c339
000001b0: 29d2 633a 861b e839 6642 943a 221d f23a
000001c0: 0e1e 2a39 292b 6e3a b088 1e3a 9b73 df3a
000001d0: d4f1 1039 8a12 043a 568f e53a 1013 4f3a
000001e0: 8bf4 833a 6420 3b3a 1f4c 023a 0210 e93a
000001f0: 0a53 bd39 66c1 4e3b 6c6d 0f3a eb5d 083b
00000200: 023c f739 b253 323a 137b e23a e0fc 513b
00000210: b044 503a f9c1 793a c15a 203b c109 7c3a
00000220: 43da 253b 22e6 b839 d6c7 3b3a 64e7 513a
00000230: b242 b03c 1e1a e33a 310b e13a ebbe 1b3a
00000240: 71d9 1839 479e a63a 5b9b db3a f2ae 1b3a
00000250: 44c5 163b 0c6d c139
0.002219995 0.00063445594 0.0007752592 0.00083579053 0.00024196334 0.00096243527 0.0021400726 0.00046651022
0.0002415997 0.00029927358 0.0004188257 0.0003763214 0.0005650448 0.0013338932 0.00020865495 0.00092651584
0.002139171 0.0013930736 0.0008394893 0.0008875701 0.00034491043 0.0025096003 0.00034700535 0.0039501903
0.0009669065 0.0001258659 0.0019684867 0.0005204919 0.0008499972 0.00034928697 0.00071852317 0.00045971456
0.0013208804 0.000428394 0.0017352941 0.0035627312 0.00088941795 0.0036773114 0.00292646 0.00043601496
0.004336745 0.00046152313 0.00076500076 0.00024506458 0.006005515 0.00028291595 0.0008415003 0.00022723485
0.0040130406 0.0010276309 0.0004889296 0.0013727967 0.0013510885 0.00040270246 0.0003239058 0.00022851027
0.00044594862 0.0078073665 0.0047899853 0.00046767126 0.0001264395 0.00040358285 0.00033755612 0.0007557562
0.0008893971 0.0010499869 0.00062920654 0.00034778556 0.0005873021 0.0007496511 0.00078970083 0.00026837602
0.0002527719 0.0005754568 0.00059606374 0.00075450464 0.0010001905 0.0024308458 0.0013822428 0.001041752
0.0031401857 0.0012803881 0.0006619673 0.0009202643 0.0033995898 0.00035664317 0.0028098554 0.0016779146
0.0008112089 8.7942484e-05 0.00034112704 0.00042785652 0.0005295253 0.0006271626 0.00047879812 0.00082499674
0.0014208574 0.0005436111 0.0004294604 0.0010274537 0.00035064583 0.00054658065 0.0019374513 0.0010083378
0.000981939 0.00038071343 0.00040845375 0.00037332886 0.0008690679 0.00044270995 0.0011311292 0.0018471817
0.0001622366 0.0009085411 0.00060475897 0.0017048003 0.00013822998 0.0005038163 0.0017514031 0.0007899264
0.0010067386 0.00071383105 0.00049704494 0.001778126 0.00036110758 0.003154838 0.0005471322 0.0020807933
0.0004715622 0.00068026327 0.0017279111 0.0032041594 0.00079448055 0.00095275004 0.0024468156 0.00096144906
0.0025307096 0.00035266677 0.0007163262 0.0008007197 0.021516178 0.0017326509 0.0017169473 0.000594123
0.00014576853 0.0012711965 0.0016754674 0.00059388496 0.0023005763 0.00036893075

ClassificationCat.0.weight f4 [1, 150]
00000000: fce2 d03d e2d0 2ebc 2236 0e3e 86b8 03be
00000010: b49c c23d 0ca0 c8bd 2d10 0c3e e4fd cabd
00000020: 8ae1 5c3c d4fb b8bd 2c47 e53d 66bd 4dbd
00000030: c720 e5bd 8c46 d5bc 9767 8d3d 479f 05be
00000040: ff2e cebd a665 04be 62b8 0dbe 645c 0e3e
00000050: 27f7 763d ddf9 373c 72ff 1abe 1f79 133e
00000060: 0f2f e4bd a91e 34bd 8a35 f6bd b444 be3d
00000070: d457 7d3d b5ed 963d a1c9 08be 8d0a 41bd
00000080: 4d87 e93d ce7c 0a3e dd2c dbbd 05b7 bf3c
00000090: af15 213d f135 76bd b689 f8bd 5ace 3f3d
000000a0: 2fb5 9bbd 8c6b 34bd d5bc 0c3e bc07 2f3d
000000b0: 3fbe 383d 6e38 cf3d 6184 ea3d b04c b9bd
000000c0: dcdf 73bd 6a35 36be da5d 87bc 4abf 923d
000000d0: 8caa 9fbd 1e8a 99bd 562e 6a3d 8c81 5c3d
000000e0: 4f08 ef3d 2a05 d4bb 7602 2b3d d14c 2cbc
000000f0: 7f06 c8bd e218 123e 8463 cbbd bbeb e03d
00000100: 8929 adbd 7b9e 973d 2748 033e 6fc6 4fbd
00000110: 5d9d b13d fd4e 1e3d 1a1c 723d 4b34 d23d
00000120: ed6b 083c 3b21 83bd a73c babd 1bbf 7bbd
00000130: f18e b9bd 75e7 933d cebe 803d 5780 19be
00000140: f32a 07bd 35db f339 67c8 e53d 1621 f4bd
00000150: d24a 333c 825c 43bc b478 48bd 5f7d 233e
00000160: 99ed 9cbd a1ff 7b3b 816e f0bd 9b88 11be
00000170: 73fe d93d 602c 1b3e 8dcb 023e 1d7f 263c
00000180: 78f3 043e b46f 23be 62d6 b9bd 3434 f73d
00000190: 3ac3 363d f2ab 043e 2fcb e7bd 3eec 153e
000001a0: 771a d7bd ab95 933d 4150 a33d 3bf9 a6bc
000001b0: 8600 db3d 901a 0d3e c2f2 a43d 3a7e f2bd
000001c0: 18d0 db3d bd2a 60bd 666a b33d a412 edbd
000001d0: 9ec7 c33c e15c f2bd 36a6 853d 2ec3 2dbc
000001e0: a6d4 26be 3c9d 2e3e 2b91 08be 42cf fb3d
000001f0: 4fb9 dd3d d595 94bd 0d97 c6bd 3ff8 c8bc
00000200: f471 f03d 963b 0ebd d55a c6bd 862f c3bd
00000210: c1a3 b63d f5a7 1f3e 1f7e 22be 7440 09be
00000220: 63e9 0e3e 0b1c c9bd cba6 12be b77b 0abe
00000230: ec20 2f3d 47a6 c1bd 81a3 e9bd 31d6 8abd
00000240: 9a00 78bd 6d23 d7bd ff58 d93d 7931 0c3e
00000250: 8ef2 30be 6bc1 f9bc
0.10199544 -0.010669919 0.13887838 -0.12863359 0.09502545 -0.097961515 0.13678046 -0.09911707
0.013481507 -0.090324074 0.111952156 -0.050229453 -0.111878924 -0.026034616 0.06904524 -0.1304904
-0.100675575 -0.12929401 -0.13839868 0.13902432 0.060294297 0.011229006 -0.15136507 0.14401673
-0.11141788 -0.043974552 -0.120219305 0.09290448 0.061851338 0.07369558 -0.13358165 -0.047129203
0.1140276 0.13524172 -0.10701916 0.0234027 0.03932732 -0.060110036 -0.12135641 0.04682765
-0.076029174 -0.044047877 0.13743909 0.042731985 0.045103308 0.10118185 0.114510305 -0.0904783
-0.05953966 -0.17793813 -0.016524244 0.07165392 -0.07796201 -0.07497047 0.057173096 0.053834483
0.116715066 -0.006470342 0.041750394 -0.010516361 -0.09766864 0.14267305 -0.099310905 0.10982462
-0.08455188 0.074032746 0.12820493 -0.05072635 0.08672593 0.038649548 0.05910883 0.1026388
0.008326513 -0.064028226 -0.090936 -0.06146155 -0.09060467 0.07221881 0.06286393 -0.14990364
-0.032999944 0.00046511894 0.11219864 -0.11920373 0.0109431315 -0.011923911 -0.048943236 0.15965794
-0.07662506 0.0038451927 -0.11739827 -0.14212267 0.106442355 0.15153646 0.12772961 0.010162142
0.12983501 -0.1596058 -0.090740934 0.12070504 0.044619776 0.12956217 -0.11318051 0.146409
-0.10503095 0.07206281 0.079742916 -0.020382514 0.10693459 0.13779664 0.08054115 -0.11840482
0.1073305 -0.05472826 0.08760528 -0.11575821 0.023898896 -0.118341215 0.06525843 -0.0106056165
-0.16292056 0.17052168 -0.13336627 0.12295391 0.108263604 -0.07255141 -0.096967794 -0.024532435
0.11740485 -0.034724794 -0.096852936 -0.09530549 0.08917952 0.15591414 -0.15868424 -0.13403493
0.13956217 -0.09819802 -0.14321439 -0.13523756 0.042756006 -0.09455543 -0.11408139 -0.06779135
-0.06054745 -0.10504804 0.10612678 0.13690747 -0.17280027 -0.030487737
