models/2023-05-11_23-34/pytorch/1-F_8-E_1.pt (torch, 862056 bytes, 63 tensors)

TSA.conv.weight f4 [3, 3, 3, 3]
00000000: 1b0e 453d b3f4 953d b063 ae3d 93f1 223d
00000010: 6ee6 503f 4476 083e 7e3f 4f3d 1049 c83d
00000020: 472a 203e be58 3d3d 3214 963d e579 a53d
00000030: 8534 c93c e2ff 493f 93cd ec3d bd55 dc3c
00000040: ba10 8a3d fbac 003e e32e 823d fd67 b43d
00000050: 1f74 a93d 44b8 123d 1712 483f 8fc8 e03d
00000060: 8393 203d 385b a43d 0d1b fd3d 4151 d53a
00000070: 8380 e63d 13d3 833d 9f4c 6d3d 7a8a 713f
00000080: a4f3 ca3d 9fe6 533d 853f 0b3e baf1 8f3d
00000090: 106b f9bb 6d6c 013e 62c2 aa3d 0e0a 433d
000000a0: 08a9 713f 6e44 fb3d 73b9 153d 4a1d 1f3e
000000b0: b5d1 cb3d cad5 aeba 5b27 fb3d 5a50 9f3d
000000c0: 9b02 413d 83a9 6e3f 5c0a f63d e551 ac3c
000000d0: 79f8 0d3e 0620 bb3d e06f b1bd 5fd5 9fbc
000000e0: 0e53 b53d 6130 39bd 64c6 073f a8a9 2c3e
000000f0: ceeb 94bc e9a2 9d3d 46d2 433e 3d4e e3bd
00000100: b0e3 7ebd b193 cb3d bfdf 99bd de9b f23e
00000110: faf5 363e 1ec3 50bd dc1a 123d a65e 523e
00000120: 4dc1 cebd 8020 71bd d8e8 9a3d 6418 6cbd
00000130: 97f8 f33e 642e 193e 9ea3 9bbc 7367 3c3d
00000140: c0e8 3b3e
0.048109155 0.07322063 0.08515108 0.039781164 0.8160161 0.13326365 0.05059766 0.097795606
0.15641128 0.04622721 0.07328071 0.0807989 0.024561176 0.7890607 0.11562648 0.026896352
0.067414716 0.12565987 0.06356599 0.08808897 0.082741015 0.03582026 0.781526 0.109757535
0.03920318 0.08025211 0.12358675 0.0016274826 0.112549804 0.064367436 0.0579344 0.94351923
0.09909752 0.05173361 0.1359845 0.070285276 -0.00761164 0.12639017 0.08337857 0.04761701
0.94398546 0.12268911 0.03655381 0.15538517 0.09952108 -0.0013338861 0.12263366 0.07778998
0.047121625 0.93227404 0.12013695 0.021035144 0.13864316 0.09136967 -0.086639166 -0.019510923
0.08853732 -0.045212153 0.53037095 0.16861594 -0.018178847 0.07697088 0.19123182 -0.11098907
-0.06222886 0.09940279 -0.07513379 0.47384542 0.1786727 -0.05096733 0.035670146 0.20543918
-0.10095463 -0.058868885 0.07563943 -0.05764045 0.47650596 0.14959103 -0.018998917 0.045997094
0.18350506

TSA.conv.bias f4 [3]
00000000: 1d36 a2bc 00c3 2abd 4e89 813b
-0.019801194 -0.041689873 0.0039531356

FPN.0.weight f4 [3]
00000000: 7884 493f 4899 663f 31cb 423f
0.78717756 0.9007764 0.76091295

FPN.0.bias f4 [3]
00000000: af8b 0fbc e3ff ff3b 3ac6 2bbc
-0.0087613305 0.0078124865 -0.010484273

FPN.0.running_mean f4 [3]
00000000: f200 023f 1eff d93e 68a9 c73e
0.5078269 0.4257745 0.38996434

FPN.0.running_var f4 [3]
00000000: 4d8b b33d 0515 9d3d 43ff 2f3d
0.08766804 0.07670025 0.042968046

FPN.1.conv.weight f4 [4, 3, 3, 3]
00000000: 6631 a6bb 2491 1c3e 09fc 02be 3ef4 95bd
00000010: 0b42 083d 8e65 1c3c ef03 f33d 29d2 3d3e
00000020: 3ab4 cb3d 0ce2 d5bd 1b3b 2abe d693 febc
00000030: 31df a137 bc32 46be 324a 6dbd e7d7 403c
00000040: bd5c 8cbd 7d7b 5dbe 6e2e 3ebd f8bf 11be
00000050: ade2 973c c087 e9bd 592b 3ebd 041f 9a3d
00000060: 186a efbd 18e5 443e dfea 323e 07de 4bbd
00000070: 9e5f a83c e615 31be 189c 073e 8527 ff3d
00000080: 392c 25be aeab 90bb b51f 3b3e 5303 043e
00000090: de82 23be 5cc6 233d 5885 323d f379 dcbc
000000a0: 1129 95bb a315 8a3d 2a41 21bd 1931 513e
000000b0: 9e1d 483d ef15 0bbe 302a 3d3d 2a48 bcbc
000000c0: ca44 e23d 8908 b33d f71b 49be c9b8 943a
000000d0: 0ccb 1e3d 8ad0 5b3d e2c1 18be d99a 3fbe
000000e0: b083 55bd 80c4 2cbe 464f 5cbc 0b56 e6bd
000000f0: 08a4 223e 2547 703c 727d d43d 9458 bd3c
00000100: 71bf 19be a1cc 74bb 9014 da3d 5b56 933d
00000110: e8ef 82bc 0940 733d 7be0 023d 172c 0f3e
00000120: 31d1 debd 7e69 e5bc adcf ffbd 7fe3 9c3d
00000130: f63e d7bb 996f 4dbe 41b6 af3d 4575 f3bd
00000140: ca64 1f3d aad6 9b3d 8532 b03c f640 01be
00000150: 5590 d6bc facc bdbd 1b80 ea3d c7fe 2bbe
00000160: 82cb 703d 1199 97bd c173 0c3e 610b e23c
00000170: 7eab 8d3c 6c50 0a3d 6832 963e e5fe a53e
00000180: 8143 9dbd 4989 913c c611 c23d 1855 aabd
00000190: 8118 153d 0046 87bd 7a92 a93d 7a0e 3d3c
000001a0: 3b13 833d 9dda 3abe d9dc 92bd df43 e1bd
-0.0050718067 0.15289742 -0.12791456 -0.07321976 0.03326611 0.009545697 0.11865985 0.18537201
0.09946485 -0.10443506 -0.1662411 -0.031076353 1.9296627e-05 -0.19355291 -0.057932086 0.011770225
-0.06853626 -0.21629138 -0.046430998 -0.14233387 0.018540705 -0.114028454 -0.04642806 0.07525447
-0.11690158 0.19228017 0.17472409 -0.04977229 0.020553406 -0.1729351 0.13243139 0.124587096
-0.16130151 -0.004414997 0.18273814 0.12891893 -0.1596789 0.039984092 0.043584198 -0.026913619
-0.0045520146 0.06742408 -0.039368786 0.20428886 0.04885637 -0.13582586 0.04618281 -0.02298363
0.11048277 0.08741862 -0.19639574 0.0011346574 0.03876786 0.053665675 -0.1491771 -0.18711413
-0.05212754 -0.16871834 -0.013446635 -0.1124688 0.15882885 0.0146654 0.10375489 0.023113526
-0.15014435 -0.0037353414 0.10648453 0.071942054 -0.015983537 0.05938724 0.031952363 0.13981663
-0.10879744 -0.028004404 -0.12490783 0.07660579 -0.006568785 -0.20062102 0.08579684 -0.11887602
0.03891448 0.07609303 0.021508465 -0.12622437 -0.02619187 -0.09267612 0.114502154 -0.16796409
0.05878783 -0.07402242 0.13716032 0.027593317 0.017293688 0.033768103 0.29335332 0.32421032
-0.07678891 0.017765658 0.09476046 -0.083170116 0.036400322 -0.06605148 0.08279891 0.011539096
0.06400152 -0.18247457 -0.071710296 -0.109992735

FPN.1.conv.bias f4 [4]
00000000: b0dd a437 f017 4b36 d526 afb8 04d2 fe38
1.9653555e-05 3.026329e-06 -8.351883e-05 0.00012150782

FPN.1.bn.weight f4 [4]
00000000: bd71 673f 8b40 693f 20e1 4b3f 98a4 7e3f
0.90407926 0.9111411 0.7964039 0.994699

FPN.1.bn.bias f4 [4]
00000000: 1920 d4bb 7624 15bc 9c6a 18bc f9af acbc
-0.006473553 -0.009102931 -0.009302761 -0.021080004

FPN.1.bn.running_mean f4 [4]
00000000: 5d93 46bc 0fb9 683b 45dc 053c f7e5 2a3b
-0.012120095 0.0035510694 0.008170192 0.002607701

FPN.1.bn.running_var f4 [4]
00000000: ee0b 673e 0a1b 253e 3a9e 373e fe9b 533e
0.22563145 0.16123596 0.17931452 0.20664975

FPN.3.conv.weight f4 [6, 4, 3, 3]
00000000: 4cc5 cb3d fd00 9abd fd66 093e 75f5 673d
00000010: 680d ae3a 1964 233e 3169 4e3c bb7f e1bd
00000020: e07c be3d 500d 4f3d f645 303e 13a9 493e
00000030: e847 37be bf90 b0bd 6487 0e3e ea66 07be
00000040: d846 083e 89fb e9bd 15f2 c33d 2e30 c2bd
00000050: 54ba 113d 8178 cdbd 4cef 413d a8d8 dc3c
00000060: ebfa 49bd af26 ca3d 4c1e fbbc 4e36 943c
00000070: d64b fdbb 40fd 533d d3d3 433c b167 283e
00000080: 4c66 523d 72ae 4abd 25c2 6e3d e72b cbbd
00000090: c44a 7a3d 15c4 ef3c c8ce 0bbe c22f 1f3e
000000a0: 3dbf 353e a9a6 16be 0d58 fa3d 6df9 273e
000000b0: e524 22bc 1240 c23d 3313 b0bc 2fb1 15be
000000c0: 3721 103e 8f49 bb3d 8c24 ed3d 3c39 f0bd
000000d0: d3b5 193e 8340 77bc 1aae 693d ce42 4cbe
000000e0: 7f9e 063e f736 9c3d 9c8a d93d 70d6 193e
000000f0: 928b 5fbd 49d9 273e d4be 65ba 3f49 c53b
00000100: 81d1 a5bd 87c4 683d 994b 863d fec0 eb3d
00000110: 9ccf bdbd d734 8ebd 6820 bbbd 2ad5 1dbd
00000120: a9c1 0fbd 4b6c 6abc 62c9 b03d 44dd e0bc
00000130: a89a 443d 439d 313e 4406 ccbc f930 553d
00000140: 915b 403e f434 b0bb 0563 c1bd 54f2 c4bd
00000150: c0f2 98bd 86ce e23b 52d4 46bc 2a88 febc
00000160: 5a22 0dbe 062a c93d e12b a2bd b95a 1bbd
00000170: bb48 fbbb aeeb 92bd ebcd fcbd ba10 67be
00000180: 72cd 8abd 62e5 1d3e b79a 1e3e 192f d63d
00000190: 3ee6 e53d fcb5 543e 8bca bfbc 7c4c 92bd
000001a0: d097 06be ffd9 8dbd 9cf9 d13c 9bf4 25bd
000001b0: 422d 593d f091 f33d c4b0 87bc 87b6 6e3d
000001c0: 3d1b 6ebd 0215 5e3d 2146 c73d cc5d 93bd
000001d0: 18e3 37bd c7d1 ea3d 77bb 9bbc 0562 4b3e
000001e0: 4a19 343c 7cf1 69bd 965c e2bd 144b f2bd
000001f0: 2224 043d e5d4 d4bc 2fff b93d 164b 8cbd
00000200: 05da b1bc 2202 98bd 8ec0 57bd c509 bcbd
00000210: 4d57 37bd c1ce 413d 26be 9db9 e0dc 283e
00000220: b31d 063e 07d9 803d 23ac 453e 9132 ef3c
00000230: 2477 5dbd 982f fcbd 312f 233d bbef 46be
00000240: 3b31 9d3d e8cb 9b3c c658 ffbd 4dcc ef3c
00000250: 1188 b43d 86f3 0d3d a55e 5a3c 4ba2 02be
00000260: 9d42 c63d c807 edbd 990c 5f3d 5dcc e53d
00000270: 9ca9 b53d 3a2f 4b3d 325e 693d 24e3 70be
00000280: c009 043d 6e40 323d ec34 85bd 445c 913d
00000290: b5c8 bf3d abe9 76bd ca9d 2c3d 3a6a 223d
000002a0: ee64 983a 6879 903c 3906 d0bd c491 b3bd
000002b0: 33e1 b2bc a98c f6bd a269 633d 92e6 063e
000002c0: a315 5f3e 3630 0ebe a392 833d ccf1 fe3d
000002d0: 2347 a43c 2c05 a73d 7f4f f33d 419c 3cbe
000002e0: 276c 16bd cdd7 6b3d bd70 d5bd 7626 5bbb
000002f0: bd66 89bd 833d ae3d 2e23 adbb d5c6 da3d
00000300: 9ffb 9fbd 6d2f 123e 5800 97bc 37c3 b9bd
00000310: 8f31 55be eb3d 9c3d 16a6 943d d7b0 4b3e
00000320: 6b7d 883d b423 0bbe 1194 c73d 8052 833d
00000330: b630 0dbe 430b 54bb ef1e 8a3c 3ed9 debc
00000340: fa7f 32be a60c dc3d 2f61 093e ef9a 883d
00000350: dde9 6f3d afcd 113d bddf 31be d002 833c
0.09949741 -0.0751972 0.13418193 0.05663057 0.0013279142 0.15956153 0.012598322 -0.11010691
0.09301162 0.050549805 0.17214188 0.19693403 -0.17898524 -0.08621358 0.13918835 -0.13222852
0.13308275 -0.1142493 0.09567658 -0.09481846 0.035578087 -0.1003275 0.047347352 0.026958779
-0.04931156 0.098706596 -0.030654095 0.0180923 -0.0077299876 0.05175519 0.011952358 0.16445805
0.05136709 -0.04948277 0.05829062 -0.09920483 0.06110646 0.029268304 -0.136531 0.15545562
0.17748733 -0.14712013 0.122238256 0.16403742 -0.009896492 0.09484877 -0.02149353 -0.14618371
0.1407517 0.091448896 0.115792364 -0.117296666 0.15010767 -0.015091064 0.0570508 -0.19947359
0.13146399 0.07627671 0.10622141 0.15023208 -0.054576464 0.16391481 -0.00087640923 0.0060206945
-0.080966 0.056828048 0.06557388 0.1151142 -0.09268114 -0.06943672 -0.091370404 -0.038533367
-0.035096798 -0.014308046 0.08632161 -0.027449258 0.047999054 0.17345147 -0.024905331 0.052048657
0.1878493 -0.0053774063 -0.094427146 -0.09616533 -0.07468176 0.006921592 -0.012135582 -0.031070787
-0.13782635 0.098224685 -0.079185255 -0.037928317 -0.0076685823 -0.071738586 -0.12343963 -0.22564974
-0.06777467 0.15419534 0.15488707 0.10458202 0.11225556 0.20772547 -0.02341201 -0.071434945
-0.1314385 -0.06926345 0.025631718 -0.040516477 0.053021677 0.1189307 -0.01656378 0.05827954
-0.058131445 0.054219253 0.09730173 -0.07195625 -0.044894308 0.11465793 -0.019010289 0.1986161
0.0109923575 -0.057115063 -0.110528156 -0.11830726 0.03226102 -0.025980422 0.090818755 -0.06850259
-0.021710405 -0.07422282 -0.05267387 -0.09181551 -0.04476099 0.047316317 -0.00030087045 0.16490507
0.13097267 0.06291395 0.19303946 0.029198917 -0.0540687 -0.12313765 0.039839927 -0.19427387
0.076754056 0.019018129 -0.12468104 0.029272223 0.08815015 0.03465607 0.013328229 -0.12757222
0.09680674 -0.1157375 0.054455373 0.1122062 0.08870241 0.049605586 0.056974597 -0.23524147
0.03223586 0.043518476 -0.06504235 0.070976764 0.09364454 -0.060281437 0.042142667 0.039652087
0.0011626759 0.017636016 -0.10157437 -0.08768037 -0.021835899 -0.120385475 0.05552066 0.13173893
0.21785598 -0.13885579 0.06424453 0.12448463 0.020053452 0.08155283 0.11880397 -0.18418981
-0.036724236 0.05757885 -0.10421894 -0.0033439673 -0.06709049 0.08507826 -0.0052837348 0.106824555
-0.07811665 0.14275904 -0.018432781 -0.090704374 -0.20819686 0.076289974 0.07258241 0.19891678
0.066645466 -0.13587838 0.09745038 0.0641222 -0.13788113 -0.0032355345 0.016860453 -0.027203199
-0.17431632 0.107446 0.13415979 0.06670176 0.05857264 0.035596546 -0.17370506 0.015992552

FPN.3.conv.bias f4 [6]
00000000: 7b01 2431 ea75 48b2 6231 9eb2 90f1 b9b2
00000010: 5d9f 4131 f37e bdb8
2.3865983e-09 -1.1668343e-08 -1.8416078e-08 -2.1646684e-08 2.8175784e-09 -9.0358684e-05

FPN.3.bn.weight f4 [6]
00000000: e95b 733f ca2f 803f 0584 863f a7b8 793f
00000010: 120c 6c3f 7016 663f
0.9506212 1.0014584 1.0509039 0.9754738 0.9220592 0.89877987

FPN.3.bn.bias f4 [6]
00000000: a687 fdbb 461e 7b3c 48ee 85bd c549 49bd
00000010: e316 78bc 6aaa 68bd
-0.007737118 0.015327042 -0.06539589 -0.049142618 -0.015142175 -0.056803145

FPN.3.bn.running_mean f4 [6]
00000000: 64a1 553e 7538 913e a4e1 f3bc 6001 513d
00000010: afa6 013e 38e4 1e3d
0.20862347 0.28363386 -0.02977068 0.051026702 0.12661241 0.038791865

FPN.3.bn.running_var f4 [6]
00000000: 0300 e03d f650 b53d e575 bf3d e6eb be3d
00000010: 0e7f e83d 1175 a03d
0.10937502 0.08853333 0.093486585 0.09322338 0.11352359 0.07834829

ConvLSTMLayer.cell.conv.weight f4 [32, 14, 3, 3]
00000000: 87df 0fbe 956f dcbd e68d 81bd 5275 6ebe
00000010: 84cc 83bd f2ad c6bd 5422 92bd c5df 853d
00000020: 21b4 8e3c 9be0 24be c199 13be 9c78 fabd
00000030: a520 93be 0868 47be 6eb5 01be 5450 b2bb
00000040: 3cd4 66bc a9fc f53c 32c6 9ebb b679 2dbd
00000050: 64de 6cbd 127a 21be 28e1 dfbd 1dd6 e7bc
00000060: af77 123e 3d0e 8e3d 0660 47bd 6318 fcbd
00000070: 4f2f 4a3d ac60 afbd ad96 04be 1463 8cbd
00000080: 6c64 d03c 8d6b 9b3c 627e c6bc 2516 99bc
00000090: 18e2 5abd ffb8 62bd c467 563d ca49 e8bd
000000a0: 2d17 e5bb d30e 8cbc 9575 0b3d 030f 033d
000000b0: 42fb 303e b40a 55bd 8015 0bbe 633d f3bd
000000c0: 3c40 573d 7f6f a3bd 640c 55bc 8448 3abd
000000d0: 41da babd 2c0d 50bd 8ae6 d2bb 333f 8a3b
000000e0: 1d46 2c3d 8eb1 283c e83e f43c 7384 f93d
000000f0: fcfc 6ebd ed1b aebc 0711 fa3c c43b 5ebd
00000100: a941 823c ad6e af3d 7498 46bd 0e39 5a3d
00000110: cc93 b1bc 137f b23b 5f3c 893d bb64 04bc
00000120: 1d29 c43c f92d a0bd a161 01bd 0926 9c3b
00000130: de78 b8bc 3eb6 d83d 31b4 bebc 3bc9 833d
00000140: fff3 0f3e c902 d1bc e5ea fbbd 867b 36bd
00000150: 3717 0e3c 4f21 f93c dfdd bc3b 51f6 113e
00000160: 0edb 103e f939 263e a982 623d aac8 a13b
00000170: 9790 dbbc a302 f43d d37b fd3c 4203 cfbb
00000180: 4481 c43d e932 713c 5131 d63c 4b9e 0a3c
00000190: d642 9e3c 5709 c43d f45d 333c 7617 3abc
000001a0: 96ec 253d b1ca 8e3c 89ea 4a3d 4f05 8e3c
000001b0: c795 de3b 4667 92bc fc88 8bbc d15e 89bd
000001c0: 41b4 73bd 2265 29bd 78c0 503d 8d47 8d3d
000001d0: 9f76 7f3d 29e0 1439 1278 2ebc 7e37 42be
000001e0: 2a93 2c3d 71da b4bd fee1 a2bd afbc 7ebd
000001f0: 8b1e f9bd 11f1 24bc 65e5 0c3e cd42 733a
00000200: 6f5d d23b 2fa9 973d 44cb a6bb a166 163e
00000210: 6aef be3d 91ef 68bd 9112 453d fa0b 993d
00000220: 9460 d73c 4580 0bbe 82f3 123c 6dcc 1ebc
00000230: f9ac 103d fdde dcbd 4c8d eebd dfd4 77bc
00000240: 17fe e83d e232 c33c 921d acbc de06 79bd
00000250: 48ca 9b3c 3e44 b33d 5184 5cbd 4ead 37ba
00000260: e7cb 90bd 146b 063d e5bc 13bd 4b2a ea3d
00000270: d4aa 603d 1247 d33d 5253 273c 8a34 ea3d
00000280: 758e da3d 6e5b 85bc 8e2e 8a3d 2f3c e73c
00000290: b65e c33d 4959 f23c 3d9c d5bd edd8 0f3e
000002a0: 00cc c63c e519 ddbd 1825 ce3c 0784 f53d
000002b0: d2da fbbc 9648 dabd 6da7 d53d 64cf 133d
000002c0: 0d52 53bd cf31 5a3d 00b7 80bd 1a76 e23d
000002d0: 573a 66bd d543 1abd 83ff 753c 3a7e 393d
000002e0: 94f9 13bc 02cd 723d 5c57 12bd 446d 2dbd
000002f0: e7d4 1c3d f54c 753d a7b8 a23d f4d5 2e3e
00000300: 494c b4bd 9f5b b6bc d528 1cbc b4bf 803d
00000310: 29fe c53d 61d0 813d ecda ecbd de2c a9bd
00000320: 6240 c43d bac9 ebbd 0065 5fbd d771 703d
00000330: 4bc0 88bd bcbb b8bc aba2 b23b 1312 2dbd
00000340: 2fe2 a73c ab2f 0ebd 6bb6 e63b bbec 2e3d
00000350: 1a90 79bd 3a70 593d dcbd c53d a267 ad3d
00000360: 1802 8f3d aa6b 8f3d e8ce 24bc e2b4 603d
00000370: 1766 613d ba9f dc3c 978e e53c dd01 a33d
00000380: 702b f7bb 4dda 35bd bab1 c23d e277 1e3b
00000390: f0d0 75bc 6392 de3d c5db 583d 36fd babb
000003a0: 40f6 d43d 690b 453c 48ca bdbd 69d7 a1bd
000003b0: f6aa b8bc e05c 6abd b7cd a1bd d3cf 0dbd
000003c0: 9e77 2fbc 62dd 33bd e983 ebbb d74b 893d
000003d0: 0276 82bc d49b 9ebd 8f4c d73c f54a 55bd
000003e0: aecd 253c 4c45 c73c 6e38 073c d4fd cd3c
000003f0: 4bf1 f1bd 20fd b73b 0a8e 0ebd 5d08 35bd
-0.14050113 -0.1076347 -0.06325893 -0.23286942 -0.06435493 -0.09701146 -0.07135454 0.06536821
0.017419877 -0.16101305 -0.14414121 -0.12230036 -0.28735843 -0.19473279 -0.12666866 -0.0054417048
-0.014088687 0.030027704 -0.004845404 -0.0423524 -0.057829276 -0.15769222 -0.10931617 -0.02830034
0.14303468 0.069363095 -0.04867556 -0.12309339 0.049361523 -0.085633606 -0.12948103 -0.06854835
0.02543851 0.018972183 -0.024230186 -0.018687317 -0.053438276 -0.055352207 0.052345052 -0.11342199
-0.006991288 -0.017096912 0.03404768 0.03199674 0.17283347 -0.05201216 -0.1358242 -0.11876943
0.052551493 -0.079802506 -0.013003442 -0.045479313 -0.0912366 -0.05079381 -0.006436174 0.0042189597
0.042059053 0.010296239 0.029815152 0.12183466 -0.058346733 -0.02125355 0.030525697 -0.054256216
0.01590045 0.085660316 -0.048485234 0.053277068 -0.02167692 0.0054472773 0.06700968 -0.008080657
0.023945386 -0.078212686 -0.031587247 0.0047652763 -0.022518571 0.10581635 -0.023279281 0.06434866
0.14057921 -0.025514023 -0.12300662 -0.044551395 0.008672527 0.03041139 0.005763754 0.14254119
0.14146063 0.16233052 0.05530039 0.004937251 -0.026802344 0.119145654 0.030942833 -0.006317527
0.09594968 0.014721611 0.026146563 0.008460592 0.01931898 0.09572094 0.010947693 -0.011358133
0.04050883 0.017430635 0.049540076 0.017336516 0.006792757 -0.01787151 -0.017033093 -0.06707538
-0.059498075 -0.041356213 0.050964803 0.06898413 0.062368985 0.00014197886 -0.010648744 -0.18966481
0.042132534 -0.08830727 -0.07953261 -0.06219166 -0.12164029 -0.01006724 0.13759382 0.00092796684
0.0064198296 0.07405316 -0.005090149 0.14687587 0.09323008 -0.056869093 0.04811341 0.074729875
0.02629117 -0.1362315 0.00896919 -0.009692294 0.03532121 -0.10784719 -0.11648044 -0.015126436
0.11376589 0.023827974 -0.021010194 -0.060797565 0.019017354 0.087532505 -0.053837124 -0.00070067204
-0.07070141 0.03281696 -0.036068816 0.11433848 0.054850414 0.1031629 0.010212736 0.11435802
0.10671703 -0.016278949 0.06747161 0.02822694 0.09539549 0.02958359 -0.10430191 0.14047594
0.024267197 -0.107959546 0.025164172 0.11988073 -0.03074399 -0.10658376 0.104323246 0.036086455
-0.05159192 0.053270157 -0.062849045 0.11057682 -0.05620798 -0.037662346 0.015014532 0.045286395
-0.009031672 0.059277542 -0.035727844 -0.042340532 0.038288977 0.059887845 0.07945376 0.17073804
-0.08803613 -0.022260485 -0.0095312195 0.062865645 0.09667618 0.06338573 -0.115651935 -0.08260511
0.095825925 -0.11513086 -0.05453968 0.058702316 -0.06677302 -0.022550456 0.0054515204 -0.042253565
0.020493595 -0.03471343 0.007040789 0.042706233 -0.06092844 0.053085543 0.096553534 0.08467032
0.06982821 0.07002957 -0.010059096 0.054860003 0.055029 0.026931632 0.028022094 0.0795934
-0.00754302 -0.04439764 0.09506555 0.0024180342 -0.015003428 0.10867765 0.052943964 -0.0057064546
0.10398531 0.012026646 -0.09267098 -0.07902414 -0.022542458 -0.05721748 -0.07900565 -0.034622025
-0.010709671 -0.0439123 -0.007187356 0.067039184 -0.015925411 -0.077445656 0.026281623 -0.052073438
0.010119839 0.024325036 0.0082532 0.025145449 -0.11813601 0.0056148916 -0.034803428 -0.04419743

ConvLSTMLayer.cell.conv.bias f4 [32]
00000000: 01df c53c 489b b6bc 025d a4bc 2f8d 503c
00000010: e02a 2c3b 13eb 333c 1ee7 cd3c 70e6 21bc
00000020: 58a6 cc3c c7f4 2e3d 9cd2 983b e0f9 4b3d
00000030: fe9d 1c3d 89d9 ff3c c430 223d 72d3 a53c
00000040: 3df2 a43c 006a 80bb dfd0 adbc bbb7 763c
00000050: 9754 5f3b b8c1 463c 6f20 053d 410f 9a3b
00000060: ee11 8cbc 3a05 a33d defe 233c fb46 5abd
00000070: bb73 a8bd a501 a23d 2f5d d9bc c6ef aebc
0.024154188 -0.02229084 -0.02006388 0.012728973 0.0026270673 0.010981339 0.02513462 -0.009881601
0.024981663 0.042713907 0.0046637785 0.049798846 0.03823661 0.031231659 0.039597288 0.020242427
0.02013504 -0.003918886 -0.021217762 0.015058453 0.003407752 0.012131147 0.032501634 0.0047015254
-0.017098393 0.07959981 0.010009496 -0.05329035 -0.08225199 0.0791047 -0.026533691 -0.021354567

Classification.0.g.0.weight f4 [4, 8, 1, 1]
00000000: b13c 0bb5 1fe4 bdb0 30e3 02ae 7b4d beb4
00000010: 77b1 d537 695a d633 a50c 1335 6aee c8b6
00000020: daab f734 7d33 ff33 6655 1c35 4de5 7f37
00000030: 1684 f836 6c88 4c33 2472 23b5 fbff 90b7
00000040: f406 ddb3 3cc9 32b0 3876 e8b5 94be 09b2
00000050: 1f8a 9632 0a49 2238 f949 10b4 d240 3938
00000060: e5e8 f430 10e9 d82f 6b75 4daf 6b0e 762d
00000070: 229b 4cb9 cc07 0425 793e b3af cf76 9436
-5.186985e-07 -1.3816396e-09 -2.976036e-11 -3.5446632e-07 2.5474217e-05 9.981597e-08 5.478017e-07 -5.9882195e-06
4.6132374e-07 1.18837285e-07 5.82388e-07 1.5252573e-05 7.406353e-06 4.7621526e-08 -6.088833e-07 -1.7285338e-05
-1.0292379e-07 -6.5041994e-10 -1.7319753e-06 -8.017782e-09 1.7525108e-08 3.8691833e-05 -1.3437956e-07 4.4167806e-05
1.7819529e-09 3.9455772e-10 -1.8686357e-10 1.39866825e-11 -0.00019512748 1.1451817e-16 -3.26043e-10 4.424575e-06

Classification.0.g.0.bias f4 [4]
00000000: b80c bab2 3ddf 2230 3788 0739 3a46 e9aa
-2.1659034e-08 5.92525e-10 0.00012925347 -4.1437844e-13

Classification.0.W.0.weight f4 [8, 4, 1, 1]
00000000: 86ec 4131 a895 64b3 ddec d435 7ee0 3c39
00000010: cefa 4837 2562 8ab8 f1fa a131 f628 cf8f
00000020: 71ae 1f35 7c5c bb36 e63d b0b7 c816 a5b8
00000030: e9fd cbb0 eb7f 2d34 e440 9b36 d1c2 3838
00000040: 0e07 a52d 0bd3 b6b3 5aba dfb4 ed5b 2210
00000050: 5929 622d d3d4 9537 6af2 8437 b95d 899b
00000060: 3eda 5535 25de c932 5739 0138 04fa 0336
00000070: 2348 16b7 a5eb 8935 96f1 bcb5 e9fc 05b7
2.8219644e-09 -5.32215e-08 1.5864167e-06 0.00018012707 1.1979324e-05 -6.5986336e-05 4.7142454e-09 -2.0427554e-29
5.948596e-07 5.583801e-06 -2.1009659e-05 -7.8720564e-05 -1.484236e-09 1.6158417e-07 4.6269142e-06 4.4050455e-05
1.8761461e-11 -8.513424e-08 -4.1672575e-07 3.2019684e-29 1.2855794e-11 1.7861288e-05 1.5848509e-05 -2.2725316e-22
7.966627e-07 2.35005e-08 3.08094e-05 1.966605e-06 -8.957492e-06 1.0275877e-06 -1.4077402e-06 -7.986303e-06

Classification.0.W.0.bias f4 [8]
00000000: 9fd6 b8b3 8fd1 98b6 9305 34b7 b399 4cb9
00000010: 7aba 0bb7 2093 3730 1f71 bab7 e923 0238
-8.607207e-08 -4.554349e-06 -1.0730134e-05 -0.00019512213 -8.328463e-06 6.678409e-10 -2.2225604e-05 3.102786e-05

Classification.0.W.1.weight f4 [8]
00000000: 6197 d7b7 46b0 48a0 7a81 9d20 30be 87a0
00000010: 1450 f79f 0d26 2fa3 167c f9a1 91fa 98a1
-2.5700489e-05 -1.6998983e-19 2.6682515e-19 -2.2995745e-19 -1.0474105e-19 -9.4948266e-18 -1.6905742e-18 -1.0366245e-18

Classification.0.W.1.bias f4 [8]
00000000: 4c15 2a39 6cbd 78b9 b2e3 8033 e6ce e031
00000010: 6848 a237 5d46 72b7 fcb3 f037 c6a7 f2b7
0.00016220397 -0.00023721688 6.001882e-08 6.5427797e-09 1.9345622e-05 -1.4440707e-05 2.8694041e-05 -2.8926774e-05

Classification.0.W.1.running_mean f4 [8]
00000000: 80a4 e031 6466 c733 6f56 8db5 0f67 9137
00000010: 4530 64b4 23a0 232e 58eb e436 6832 b2b6
6.5379595e-09 9.2852844e-08 -1.0530474e-06 1.7333337e-05 -2.1251715e-07 3.720414e-11 6.822327e-06 -5.3106814e-06

Classification.0.W.1.running_var f4 [8]
00000000: 2d78 190f 25e1 d515 281c 1c17 6a89 f719
00000010: 1f7d 1016 6738 cf09 262e 4a19 97e2 a618
7.5666274e-30 8.638523e-26 5.0441857e-25 2.5594703e-23 1.1671709e-25 4.9886478e-33 1.0452475e-23 4.313879e-24

Classification.0.theta.weight f4 [4, 8, 1, 1]
00000000: 5cec ceb3 3752 02b9 25ad 26b9 894d a1b5
00000010: a338 d033 0c30 85b4 2992 81b5 9d51 0239
00000020: b3e1 1fb5 35bc 7032 93af ddb7 bbff bb33
00000030: a45c 6bb4 ef4c 0d2a 0280 83b7 8f7e deb7
00000040: dc54 d0b6 ceda dd36 bf68 d838 fddf 7137
00000050: 637e cab6 1a6d 9e32 ef79 a2b5 8839 0037
00000060: 8fc1 7cb3 ca3b 1ab9 f7ba 7f33 2420 f02f
00000070: 91cc 8530 1a7f f5a9 1f38 ff36 09b4 97b2
-9.635616e-08 -0.00012428394 -0.00015895495 -1.2018e-06 9.696057e-08 -2.480814e-07 -9.653787e-07 0.0001242817
-5.956055e-07 1.4012632e-08 -2.6427011e-05 8.754383e-08 -2.1919783e-07 1.2550007e-13 -1.5676025e-05 -2.6523396e-05
-6.208762e-06 6.6117855e-06 0.00010319193 1.4416871e-05 -6.0347825e-06 1.8443234e-08 -1.2105428e-06 7.64279e-06
-5.8849363e-08 -0.00014708858 5.9541858e-08 4.3678583e-10 9.735165e-10 -1.0902234e-13 7.6061256e-06 -1.7660584e-08

Classification.0.theta.bias f4 [4]
00000000: 72cb 2db3 a69a 0a39 2aa2 e431 bf6f 8f35
-4.0464734e-08 0.00013218317 6.6541093e-09 1.0686853e-06

Classification.0.phi.0.weight f4 [4, 8, 1, 1]
00000000: b161 2aad 8fe8 f137 db39 16b9 2eee c036
00000010: 95cc b4b7 82b3 2db8 9c9e 31b6 baa4 83b3
00000020: c519 6536 9eea a5b5 f30f 0036 7813 c339
00000030: 9f44 d236 b528 7d31 5eeb 1e34 80ba c0b6
00000040: 8e5b 6637 f169 76b7 dedf 0537 e8da 0eb9
00000050: 9fb3 6630 70bb 78b2 a849 f2b8 d22d 1638
00000060: 3137 0f34 3f6b 2b2c 2c7f 24b2 b9f1 43b9
00000070: 19e0 aeb6 49fb 07b3 4210 9032 067b 8c36
-9.685073e-12 2.8837732e-05 -0.00014326668 5.7497737e-06 -2.1552938e-05 -4.1413594e-05 -2.6467378e-06 -6.1301265e-08
3.413866e-06 -1.2361741e-06 1.908277e-06 0.00037207804 6.2664762e-06 3.6839485e-09 1.4800523e-07 -5.7437574e-06
1.3730385e-05 -1.4687409e-05 7.979541e-06 -0.00013623724 8.392877e-10 -1.4478118e-08 -0.00011553179 3.580546e-05
1.3337991e-07 2.4360095e-12 -9.574972e-09 -0.00018686698 -5.2116925e-06 -3.166068e-08 1.67712e-08 4.186647e-06

Classification.0.phi.0.bias f4 [4]
00000000: 23f9 aab5 1360 522d d3ae c632 8679 b7b8
-1.2738495e-06 1.1958451e-11 2.3129735e-08 -8.7487555e-05

Classification.2.conv.weight f4 [10, 8, 2, 2]
00000000: edbc e03d aeb2 003e 93ce 4ebe e2d3 4bbd
00000010: 888f 9d3c 4850 12be 8876 833d 4322 6d3e
00000020: f4b6 cc3d 3c99 fc3b d577 e2bb fb2b 493e
00000030: 7846 4a3d c3e0 363d 735d 243e 2296 c4bd
00000040: deae c53d 60ba dabd b112 cdbc 057e 343d
00000050: 52dd 0f3d ca7d db3d 1873 10be a1ee d03d
00000060: c4ec 583d c39e cb3d df52 953d a2b5 6dbd
00000070: 95c0 2dbd d737 00ba 3344 d6bc 8da9 cd3d
00000080: 24c1 523d 7eaa 023e 9a5f 21bc cc97 443e
00000090: 79d6 963d 51e6 4fbe dca1 f1bd 0ae3 033e
000000a0: 3fd4 ab3d 8491 7bbd 470f 58bd 170e 4c3d
000000b0: c570 c4bb 78b6 b33d 8ac9 b8bc 47d4 b53d
000000c0: f853 c7bd 4acc f13d 3f05 bf3d a6d2 11be
000000d0: 9a4d f7bd 0574 c13b 3f6d a1bd af49 193e
000000e0: 7e2f fe3c e3f7 4cbd 874f 08bb 3f65 543e
000000f0: aafb 2d3c 4533 4e3e 6d0e b8bd 14af 49bc
00000100: d7e5 9dbd 1485 a0bd 73f5 cf3c b975 0a3e
00000110: 7ce9 56bd 923b 643b 8e50 16bd 9e95 ce3d
00000120: 10e9 ca3d 2ce0 8bbb 1839 463e d302 f7bd
00000130: 9d0f 25bd e2e6 9cbd 9948 e43d 26c2 183e
00000140: 15b0 febd 8b4a 673e 0c84 5dbd 1a50 99bd
00000150: d836 953c 65bf 8bbc 2be4 203e 0e41 17bc
00000160: 7015 b5bd 293a 913c 44cd bfbd 0023 143e
00000170: addd 1a3e 64c5 053e 37f2 6fbb 0bb6 0dbe
00000180: d738 8dbd a95d 233e 4734 1ebb 7790 e93d
00000190: 9dce 26bd 5937 34bd f4d7 c33c b85d 213e
000001a0: 32f2 a83c f4ca 733d 4213 80bd 7b3a c13d
000001b0: 697d 833d baff 1a3e d4d9 ae3d 3cf5 15be
000001c0: 7b89 03be 1aba 313d 4be3 9ebd 4138 02bd
000001d0: ec71 ab3d 7bdd bf3d e59b 013d 3120 423d
000001e0: c0b3 4bbe c34e 543e 86f2 1b3e e201 a03d
000001f0: 1df2 0c3e aedc 24be 98dc 273e 1042 0d3c
00000200: a7b3 ac3c fbbd 88bc 9bcb 883d 7cf5 e13d
00000210: d095 333e 8a08 27be c238 083d e8cd 30be
00000220: 9457 16bd 894a d03d 77d6 39be 51d4 dd3d
00000230: d847 09be f52d 1ebd 2694 7bba ec80 413d
00000240: b6d2 8bbd 153b e7bd 0941 fb3b 5ebd 783d
00000250: 39da 1d3e 3047 c8bd 4f2b 953c c853 4cbd
00000260: c6e6 22be eabd 373d 6cb9 10bc 7433 473d
00000270: c924 173e 58cc 8ebd 06bc 18be aa42 bc3d
00000280: d938 043c d33a a33d 1bb9 f23d 114a 39be
00000290: 80ee 9b3a 4728 6a3c 12f0 8fbd ef1a 463d
000002a0: 2d7d 30bd bc4e 0e3c 67a8 603d 33d7 0fbd
000002b0: c0c2 773e c84d 33be 50d0 e2bd 5930 cdbd
000002c0: b3c9 b1bb 2462 cd3d 14dd 023d f282 143d
000002d0: 7ecd 493d e43b 4bbd 9574 59bd 1dcf 8d3c
000002e0: 7972 8f3c 812e 85bb 155e fd3d 846b 6abe
000002f0: c29e 0abe e41d 123e 6853 aebd dccd aebb
00000300: 2e9c 31bd 24e8 8e3d 7509 193e 330d 56be
00000310: 6fd3 47bd dbd4 1c3e c001 443d 97d7 7a3d
00000320: 3145 8cbd 36c0 703c 0d63 b93d 9c70 39be
00000330: 6107 443e 9563 2d3d afe9 60be 3c6c c83d
00000340: 498c f93d cc82 013e d1f1 e83d 66c6 103b
00000350: b447 753d 7053 c2bd 59a2 06bd 55a9 1b3d
00000360: d106 233d 2072 11be becb d03d 8b1e 21be
00000370: dc27 d4bd 46ee bb3d 7f59 e3bd 34cb 93bd
00000380: c49e 78bd 9254 033e 1890 adbd deb4 bc3d
00000390: 3cd6 d63d d346 123c eceb c43c 464b 593d
000003a0: 9cce 2b3c 37db b6bd 7565 78bd 495c 4e3c
000003b0: c7a9 b63c 1278 89bd 4a4a ed3d 8a57 fbbd
000003c0: 6756 033c dcda 9abd 563f ef3d b26b c7bd
000003d0: 58f9 c7bd ba88 eb3d 24c8 493e 3679 39bc
000003e0: 3b64 f63d 9928 ecbd acd8 05be edf0 fd3d
000003f0: 4d5c 083c f6f5 fbbd cecb 513d 1b4f b8bd
0.10973535 0.12568161 -0.2019599 -0.049762614 0.01923348 -0.14288437 0.064190924 0.23157601
0.09995833 0.0077086966 -0.0069112577 0.19645683 0.04938361 0.044647943 0.16051273 -0.09598948
0.09652494 -0.106800795 -0.025033327 0.044065494 0.035123177 0.10717352 -0.14106405 0.10201765
0.052960172 0.09942391 0.07291197 -0.058034547 -0.04241999 -0.0004891133 -0.026155567 0.10042105
0.051453725 0.1276035 -0.009849453 0.19198531 0.07365126 -0.20302702 -0.1179845 0.12879577
0.08390092 -0.06141807 -0.052748945 0.049818125 -0.0059948885 0.087750375 -0.022557039 0.08878379
-0.09732813 0.11806543 0.093271725 -0.14240512 -0.12075348 0.005903723 -0.07882165 0.14969514
0.031028505 -0.05004109 -0.0020799355 0.20741747 0.010619083 0.20136745 -0.089871265 -0.012309808
-0.07709854 -0.07837883 0.025385594 0.1352147 -0.05246876 0.0034825546 -0.036697917 0.10087131
0.099077344 -0.0042686667 0.19357717 -0.120610856 -0.040298093 -0.07661225 0.111466594 0.14917812
-0.12435929 0.2258703 -0.054081008 -0.07485981 0.018214628 -0.017059037 0.15712039 -0.009231819
-0.088419795 0.017727928 -0.09365323 0.14466476 0.15123625 0.1306358 -0.0036612877 -0.13838975
-0.06895607 0.15953697 -0.0024140046 0.114045076 -0.040724386 -0.043998096 0.023906685 0.15758407
0.0206233 0.059519723 -0.06253673 0.094349824 0.064204045 0.15136614 0.08537641 -0.1464433
-0.12845413 0.04339037 -0.077581964 -0.03179193 0.08371338 0.09368416 0.031642813 0.04739398
-0.19892788 0.2073317 0.15229234 0.07812859 0.13764234 -0.16099808 0.16392744 0.008621708
0.021081759 -0.016692152 0.0667946 0.110331506 0.17537618 -0.16311851 0.033257253 -0.17266047
-0.036704615 0.101704665 -0.18148218 0.10831512 -0.13406312 -0.038618047 -0.0009596966 0.04724209
-0.06827299 -0.11290566 0.007667665 0.06072747 0.15415277 -0.09779203 0.018209128 -0.049884588
-0.15908346 0.04485885 -0.0088332705 0.048633054 0.14760126 -0.06972569 -0.14915475 0.09192403
0.008070194 0.07970204 0.11851712 -0.1809466 0.001189664 0.014291829 -0.07028212 0.04836553
-0.043088127 0.008685764 0.0548481 -0.03511734 0.24195385 -0.1751014 -0.11074889 -0.10018987
-0.0054256557 0.100284845 0.031949118 0.03625769 0.04926824 -0.049617663 -0.053089697 0.017310673
0.01751064 -0.0040643816 0.1237146 -0.22892576 -0.13537124 0.14269215 -0.08512002 -0.005334599
-0.043361835 0.06977871 0.14945014 -0.20903473 -0.048785623 0.15315573 0.04785323 0.06124076
-0.06849135 0.014694264 0.090520956 -0.18109363 0.1914344 0.042331297 -0.21964143 0.09786269
0.121849604 0.12647551 0.11374248 0.002209091 0.059882835 -0.09488571 -0.03286967 0.038003284
0.039801423 -0.14203691 0.10195111 -0.15734307 -0.10359165 0.091763064 -0.111010544 -0.07216492
-0.060698286 0.1282523 -0.08474749 0.09214185 0.10490081 0.008928019 0.024038278 0.053050302
0.010486271 -0.08928531 -0.060643632 0.012595245 0.022297753 -0.06712355 0.11586435 -0.12272556
0.008016205 -0.07561275 0.11682002 -0.09737338 -0.097643554 0.11500688 0.19705254 -0.011320403
0.12030836 -0.11531181 -0.13070935 0.123994686 0.0083227875 -0.12302773 0.051219754 -0.08999463

Classification.2.conv.bias f4 [10]
00000000: f607 4db3 77a1 05b6 559c 8ab6 f7d9 9db1
00000010: cbe3 14b9 2fa9 7935 ed71 0db5 4d2d 8fb5
00000020: 1f6a fc33 7808 05b3
-4.7737522e-08 -1.991253e-06 -4.13092e-06 -4.594081e-09 -0.0001419924 9.3005923e-07 -5.2692377e-07 -1.0667515e-06
1.1753968e-07 -3.0974178e-08

Classification.2.bn.weight f4 [10]
00000000: b824 613f b38b 643f 1e8d 713f d080 6d3f
00000010: cd94 763f 52f6 743f e31e 813f b8a6 603f
00000020: f3e3 813f 4cf5 513f
0.87946653 0.89275664 0.9435595 0.9277468 0.963208 0.95688355 1.0087551 0.8775439
1.014769 0.8201492

Classification.2.bn.bias f4 [10]
00000000: f127 9dbb 7e1e 75bc e7cc 47bc dbf2 cdbc
00000010: 8f90 debc 7e17 22bd 95ad b23c 12c9 1cbd
00000020: cd35 6fbc b57c 4dbc
-0.004796021 -0.014960883 -0.012194849 -0.025140217 -0.02716854 -0.039573185 0.021811286 -0.038277693
-0.014600229 -0.0125419395

Classification.2.bn.running_mean f4 [10]
00000000: 6067 263b 8516 083d 0f2a 1c3c e524 02bb
00000010: 89f2 c0bb aa6e 65bc b5b5 98bc ae11 fabc
00000020: e7fc 9bbc 800a 663c
0.0025391206 0.0332246 0.009531512 -0.0019858417 -0.0058882874 -0.014003435 -0.018641332 -0.030526008
-0.019041492 0.014040589

Classification.2.bn.running_var f4 [10]
00000000: 0cd6 563b 6a54 243b 4eae 293b fa91 3f3b
00000010: 2a06 383b 9f67 c43a aaab 093b 983a ed3a
00000020: c5c1 503b ec1e 143b
0.003278139 0.0025074729 0.0025891247 0.0029231296 0.0028079846 0.0014984495 0.002100686 0.0018099127
0.0031853777 0.0022601439

AUsLSTM.weight_ih_l0 f4 [600, 17]
00000000: a83c 7dbd 399c 6abd a8cb a1bd 36ca 54bd
00000010: 1808 4dbd 1801 89bd a68f 24bd 173d ecbc
00000020: de01 50bd 0739 8dbd fd4a 33bd 8ce6 81bd
00000030: c1ef 64bd d023 8cbd e6df 16bd 34f3 42bd
00000040: b24d 26bd 1385 ed3d e119 7cbc 037d 5bbd
00000050: dd44 1ebd dc62 313c d8f8 03bd fae2 4d3b
00000060: e98a 19bd e1b6 193d e97a 5dbd 2c45 81bc
00000070: bbeb a9bd 62ad 1f3d 311e 8fbc c11f acbd
00000080: 5ee5 cc3c 19f2 9bbd 9252 6abd 4897 f3bd
00000090: 259f d0bd 59d1 e03c ec69 c5bc 0124 88bd
000000a0: 31c3 a7bd bade 65bc 4677 fd3c dfce b4bc
000000b0: 2d9a 0cbe 7d95 00be 4db0 ffbd 258f 01be
000000c0: 3f45 e7bd 5d31 c3bd 9926 52bd c968 463d
000000d0: d76c 243d 3443 16be a4fa a5bd 99c8 f53c
000000e0: e922 7ebc 2c9c c7bc 6bba 7abd df68 96bc
000000f0: 3e51 0b3c 1461 d5bd a754 19be a2b2 4bbc
00000100: da3a c8bd a24e 683d 0220 f73b c8b6 25bd
00000110: 8b15 8cbd 7e47 3d3c 70e0 ea3b 107b 2dbd
00000120: 1e52 86bd e5b4 00bd 4269 c93c e29e c7bc
00000130: 1110 01be fa29 04be 02ca 4a3d 90c1 d8bc
00000140: cd93 b53b 56fd 2cbd c0d0 7bbd 977f c7bd
00000150: c1b5 e0bb 6559 63bc 0246 76bc 3172 9cbd
00000160: 6cf9 e8bc 58fd 303d 20e5 f239 11f4 06bd
00000170: c6b9 9a3c 17ba 2cbd a7ed 8bbd 5225 98bd
00000180: 0338 a1bc 9579 d9bb 5837 f5bb 27fc 913d
00000190: e197 293c 260b 89bd 97e0 70bd 1846 08bd
000001a0: 93da 9abd 3d1a 81bd 4378 0d3d c2cf 913b
000001b0: 90d8 02bd 77d1 aebd 693b 2fbd 2d97 90bd
000001c0: 54d2 92bd c82e 09bd e4b1 453d dbf4 7a3d
000001d0: e1ad 13bc 540d 043d f12b 17be e9f6 b93c
000001e0: d9c2 38bd 0cfd 96bc e77a cabc f961 36bd
000001f0: 30cc e5bd 8a97 85bd 6cd8 1ebd 5266 abbd
00000200: 78eb 72bd 568c edbc 838b 823c 07dd b9bd
00000210: 723a 40bd a914 92bd 240e 023c 7b97 92bc
00000220: 271d 23bd bbec 14be ac5a 05bd 3d3c febd
00000230: 4a4b 533d f250 443d c627 e2bb 87e8 823c
00000240: bc3c 723b 9fb7 b0bd f33c dfbc 6383 c6bd
00000250: bf1b b2bd c153 8abd 35e0 6bbc 654e ebbb
00000260: 5b44 c83b a477 063b 3d44 75bd bf23 a2bd
00000270: f535 44bd b935 d2bd 8f82 cbbd 15ac 0dbe
00000280: fe04 d8bd 2655 7bbd 8185 16bc 44cd 1ebd
00000290: b6c5 01bd d2d0 93bd fc34 86bc e630 5cbd
000002a0: 9670 1c3d 91d9 11be 09b2 56bd b89b 45bd
000002b0: 6189 8f3d a64e db3c b16a 6a3d c287 c5bb
000002c0: 6612 303b 1923 19bd 2992 30bd 42a6 2cbd
000002d0: da28 1e3d df26 55bb f30e 0fba f592 ad3c
000002e0: 1734 bbbc 6aef acbd 6319 073d 3fc7 24bd
000002f0: 7e2c 21bd accc a5bc 40a9 74bd 8d33 0abd
00000300: 288d 21bd ad31 f1bc 8274 23bd dfae c2bb
00000310: 3623 f3bc 60ae bfbd 7ba0 69bd f7fa 2dbd
00000320: 3667 0cbd 250d d83c 3d03 803a 8dfe 45bd
00000330: aab8 4abd 8ba4 af3c 404c 9bbc 1601 a0bd
00000340: eeea c2bd 1c27 aabb 5228 f4bd 323a 6abd
00000350: 1633 efbd e983 98bc 102c 113d 3190 9f3d
00000360: fef6 cc3c 688a 9f3d 249d 64be b575 ae3d
00000370: 53ba 6b3d 3048 6c3c c16d e8bc 27e8 f9bb
00000380: bc5d 873d 0cbf 96bc 32bc 1bbd d84d 0abe
00000390: 9883 47be 4421 403c b816 a03b 1a1d 63be
000003a0: fb69 02be 490f 04bd fa3b a93b 864e 91bd
000003b0: a844 a1bd 50f0 d63d c93e 853b e544 58bd
000003c0: 5650 62bd 7657 5bbd 2c19 31bd 61d2 2fbd
000003d0: 7fe9 1abc d384 03bd 8543 a6bd 9e2b 42bb
000003e0: 2b66 b5bc 242a 133d b2c5 50bd 03a0 60bd
000003f0: ac02 07bd 2a5b 14bd 012c 66bd bd39 31be
-0.061825424 -0.05727789 -0.079001725 -0.051950656 -0.050056547 -0.06689662 -0.040176056 -0.028837724
-0.05078303 -0.06895643 -0.043772686 -0.063428015 -0.05589271 -0.06842768 -0.03683462 -0.047595218
-0.04060144 0.115976475 -0.015387029 -0.053586017 -0.038639892 0.010826793 -0.032219738 0.0031415806
-0.03748599 0.037527923 -0.054072294 -0.015780054 -0.08296915 0.03898371 -0.017470451 -0.08404494
0.025011715 -0.07614536 -0.05720765 -0.11894089 -0.101866044 0.027443575 -0.024098359 -0.06647492
-0.08191527 -0.014030153 0.030940663 -0.0220713 -0.13730688 -0.12557025 -0.124847986 -0.12652262
-0.112925045 -0.095309 -0.05130634 0.048439775 0.04014286 -0.14674073 -0.081044465 0.030002879
-0.015511253 -0.02436646 -0.06121294 -0.018360553 0.008503256 -0.10418907 -0.14973699 -0.012432726
-0.0977685 0.056715615 0.0075416574 -0.040457517 -0.068400465 0.01155269 0.0071678683 -0.04235369
-0.06558631 -0.031422514 0.024586324 -0.024367753 -0.12603785 -0.12906638 0.049509056 -0.026459485
0.005541301 -0.042233787 -0.061478376 -0.09741133 -0.0068576043 -0.013876294 -0.01503134 -0.07638968
-0.028439246 0.043210357 0.00046328548 -0.032947604 0.018887412 -0.042169657 -0.06832438 -0.07428993
-0.019680029 -0.006636808 -0.007483404 0.07128172 0.010351152 -0.066915795 -0.058807936 -0.03326997
-0.07561221 -0.06303833 0.03453852 0.0044498155 -0.03194481 -0.08536046 -0.042781267 -0.070600845
-0.07169023 -0.03349188 0.048265353 0.06126867 -0.009013624 0.032239273 -0.14762856 0.022700744
-0.045107696 -0.018431209 -0.024716808 -0.044527028 -0.11220586 -0.065230444 -0.038780615 -0.083691254
-0.05930659 -0.028997581 0.015935665 -0.09075361 -0.046930738 -0.07132847 0.007937942 -0.017894497
-0.039822724 -0.1454343 -0.032557175 -0.12413833 0.051585473 0.047928758 -0.006901714 0.015980018
0.003696247 -0.08628773 -0.027250743 -0.09693029 -0.086966984 -0.06754256 -0.014396717 -0.007180976
0.006111664 0.0020518089 -0.05987953 -0.07916974 -0.04790302 -0.10264153 -0.099370115 -0.13835175
-0.10547827 -0.0613605 -0.009187103 -0.038769975 -0.031682692 -0.07217564 -0.016382687 -0.05375757
0.038193308 -0.14243151 -0.05241588 -0.048244208 0.07008625 0.026770901 0.057230655 -0.0060281465
0.0026866435 -0.037386987 -0.04310814 -0.042150743 0.038613178 -0.003252439 -0.00054572447 0.021188239
-0.022851987 -0.08444102 0.032983195 -0.04022908 -0.03934907 -0.020239197 -0.059731722 -0.03374057
-0.039441258 -0.029442633 -0.039906032 -0.0059412564 -0.029679876 -0.09359431 -0.05703781 -0.042475667
-0.034278117 0.026373455 0.000976659 -0.04833846 -0.049492516 0.021440765 -0.018957257 -0.07812707
-0.095174655 -0.0051926505 -0.11921753 -0.057184406 -0.11679666 -0.018617587 0.035442412 0.07791174
0.025020119 0.07790071 -0.2232557 0.085185446 0.05755074 0.014421508 -0.028372647 -0.0076265517
0.06609675 -0.018401645 -0.038021274 -0.13506258 -0.19483793 0.011726681 0.004885521 -0.2217907
-0.12735741 -0.03224114 0.0051646205 -0.07095055 -0.07874423 0.10495055 0.0040663225 -0.052800078
-0.055252396 -0.053550206 -0.043236896 -0.042925242 -0.009455084 -0.032109093 -0.08118347 -0.0029628049
-0.022143444 0.03592886 -0.050969787 -0.0548401 -0.032961532 -0.036219753 -0.05619431 -0.17307182

AUsLSTM.weight_hh_l0 f4 [600, 150]
00000000: 2fa2 07bc f845 a03c 6dc5 213c 8c22 e63b
00000010: 8935 643b d4b0 2abb a686 d7bc cfd3 17bc
00000020: bb4d 8f36 d6af d73b 9f67 573c 7993 b73b
00000030: 758d d63b 5954 bc39 5c29 9739 41f1 c23c
00000040: 22fe 13b9 a639 d5ba 053c c33a 9d17 64bb
00000050: 07a9 67ba 6a3d 7f3b 1740 f5bb a4a4 a0bc
00000060: a1be f6ba d3b3 76bb 9cec 9dba 433c 06bb
00000070: 56bb 51bc 47ca 88bb 9c26 b13b 8b1b 2dbc
00000080: 0dc1 bf3b b0fa 7c3b ac6b 8fbc 079d d53a
00000090: 66bd a83b 3e56 cfbb c539 3abb 2257 3a3c
000000a0: 60d8 fe3b 0666 47bb 67bc 593b b79b 353c
000000b0: c1ba 69bc 7ba9 8d3c dd6b efbb 3feb 88bc
000000c0: 4a03 06bc 3e4f 573b 975c e5bb d4ef 88bb
000000d0: 3734 413b 5a9f 0fbc cf1d 203b e6a8 243b
000000e0: eed6 363c 9f19 ac3c ec06 54bc 1529 52bd
000000f0: 7ecf 623c 5211 37bb f17c 5abc 799d f3bb
00000100: 9506 08bb 2dc7 9f39 3e20 073c 4a20 87bb
00000110: 3226 353c 53de 063c 8b70 063b bf35 13bc
00000120: 2239 a2b9 79d9 703c 0736 ec3a 104a 4fbc
00000130: 8955 c03b 08d7 a03a 1f1e a8bb 631e 3a3b
00000140: d634 4e3c 062a 433b 87b9 b03b 3e2d ea3b
00000150: f44a 80bc 8b5d 703c f954 a43b a6f5 90bb
00000160: 0783 8d3c 4964 f13b 898f d23b 271d b5bb
00000170: f232 45bc 41ae 74bc a094 89ba 862e 69bc
00000180: 9b95 9d3c 0cd0 10bc df81 32bb 2110 853b
00000190: 56ab b5bb ba02 373b 3175 673b 2580 ecbb
000001a0: 1047 0f3c c4ac ba39 55f4 0b3d 7d50 933a
000001b0: e144 b93b 7af8 163b 35b9 c539 020b bd3c
000001c0: e0e2 563a 8313 003d 69ff 16bb 18c5 aa3c
000001d0: 1554 e83a 2b30 c1bb f9eb 0dbc 8951 b1bb
000001e0: ddec 4aba 4cec b0bc 1b02 0ebc f494 8b3b
000001f0: 30cc d2bb 58c0 edba 798f 533c 978e 5a3c
00000200: 4c7e d33a 2beb 213c dd64 17bc 1f3b 4bbc
00000210: 92c7 eb3a 6801 9c3c 1042 b3bb 3b4a 8eba
00000220: 2c74 f4bb 75c0 563a d032 c73b cdab 383c
00000230: 117a 7139 1835 57bc 5df6 a8bb ab59 123c
00000240: 9f9f d7bb 2d99 1a3c ce9c dd3c d8a4 94b8
00000250: 6fb4 a4ba f523 8e3c 7b1d d6bc b86b c33c
00000260: 4a45 2c3c f5cd bf3b 5734 32bc 1634 933c
00000270: d0f7 943b 4223 dcbb b540 f6b9 850b 86bc
00000280: 639c 91bb 8518 a03a 2d7b e6ba 4907 9fbc
00000290: 85b3 edbc 76ec 2bbb 7a9a 99bb 9be2 a73b
000002a0: 7a44 60bc 9c2e 87bc 2fbe adb7 a955 3ebb
000002b0: 7bd1 1b3c 4d02 c3bb 935a 3bbc 4a07 823a
000002c0: 00bf 1abc 1117 093c 122e 0cbd 2ff2 973a
000002d0: 76cc e4bb 0283 bcbc 84f4 1cbc 9adc 2e3c
000002e0: 355b 8c3b efe9 873c e44f 9cbc da12 08bc
000002f0: b8d3 543b da4e d53b e8f7 2e3c 68e7 7d3c
00000300: 9006 433c 6598 b93c 4582 2bbc a40e 873b
00000310: 1a49 a6bc 13b9 97bc e862 7dbc 10e9 51bc
00000320: debe 6c3b cbfc 143b 9080 86bb 3b7e 05bc
00000330: cc74 9d3c 265a 7bbc 361d 0ebb e8f7 053d
00000340: 6c40 20bc 892b babd 0e0a 343c b60a 393c
00000350: 4ba2 be3c dd33 a23a 719c 9fbc 9b92 2ebc
00000360: e55a 703d be47 baba 2b75 0b3c b19b 28bc
00000370: 7e03 d03c cf83 f93b a223 69bc 7d7b 80bc
00000380: d12e 3f3d 322e dfbc 482c 8b3c 18d1 783c
00000390: 3c27 07bb 59c9 4ebc 0454 2c3d 4369 10ba
000003a0: e895 f83b 45f7 5ebb 1f2e 913c aef2 003d
000003b0: 4bf8 febb 5127 ff3b 540f d53b 472e 723c
000003c0: 1698 153d 1150 08bc 8778 35bd 492c a9bc
000003d0: 8389 3cba 6a7f a43b 418d 5e3b 9b83 00bd
000003e0: c287 cbba cf40 193d 9738 203c d8cf 85bc
000003f0: 69f6 fabb cab4 dd3b 0992 433b fda7 493c
-0.008278414 0.019564614 0.00987373 0.0070231613 0.0034821949 -0.002604534 -0.026309323 -0.009266808
4.270781e-06 0.0065822406 0.013147264 0.005602297 0.0065476247 0.00035920998 0.0002883178 0.02379668
-0.00014113684 -0.0016267791 0.0014895207 -0.0034804114 -0.0008837138 0.0038946518 -0.0074844467 -0.019609757
-0.0018825122 -0.0037643805 -0.0012048665 -0.0020482696 -0.012801012 -0.004174504 0.005406214 -0.010565649
0.005851871 0.003860157 -0.017507397 0.0016297408 0.005149531 -0.0063274195 -0.002841578 0.011373313
0.0077772588 -0.00304258 0.0033223869 0.011084489 -0.014265717 0.017292729 -0.0073065595 -0.016713737
-0.008179495 0.0032853629 -0.006999563 -0.0041789804 0.0029480585 -0.00876602 0.002443183 0.0025125085
0.011159642 0.02100831 -0.012941103 -0.05130871 0.013843415 -0.0027933908 -0.013335452 -0.0074345437
-0.0020755876 0.0003047524 0.008247433 -0.004123722 0.01105647 0.008231717 0.0020513858 -0.008984982
-0.00030941615 0.014700287 0.0018021472 -0.012651935 0.0058695716 0.0012271116 -0.005130544 0.002839946
0.012585839 0.0029779687 0.0053932103 0.0071465066 -0.01566074 0.01467074 0.0050150123 -0.004423815
0.017274393 0.0073666913 0.006425802 -0.005527157 -0.012036072 -0.0149341235 -0.0010496564 -0.014232283
0.019236377 -0.008838665 -0.0027238054 0.0040607606 -0.0055441065 0.002792521 0.0035317654 -0.0072174245
0.00874497 0.00035605405 0.03416856 0.0011239197 0.005653963 0.0023036287 0.00037712758 0.023076538
0.0008197259 0.031268608 -0.002304042 0.020845935 0.0017725254 -0.0058956346 -0.008662217 -0.005411331
-0.0007740984 -0.02159705 -0.008667494 0.0042597 -0.0064330325 -0.0018138988 0.0129126245 0.01333966
0.0016135662 0.009882729 -0.009240356 -0.012404232 0.0017988554 0.01904364 -0.0054705217 -0.0010855863
-0.007460138 0.00081921305 0.0060790554 0.011271429 0.00023029024 -0.013135217 -0.005156322 0.008932511
-0.0065803076 0.009435934 0.02705231 -7.0878945e-05 -0.001256598 0.01735113 -0.026137104 0.023855075
0.010514567 0.0058534094 -0.010876737 0.017969172 0.004546143 -0.0067180702 -0.00046968987 -0.016362915
-0.0044436916 0.0012214339 -0.0017584317 -0.019412654 -0.029016266 -0.002623347 -0.0046876045 0.005123449
-0.013688201 -0.016501717 -2.0711768e-05 -0.0029042757 0.009510393 -0.005951202 -0.011435169 0.0009920385
-0.009444952 0.008367316 -0.034223624 0.0011592562 -0.0069823815 -0.023011688 -0.009579781 0.010672713
0.0042833337 0.01659104 -0.019081064 -0.008305276 0.0032474827 0.006509644 0.010679223 0.015497066
0.01190342 0.022655675 -0.01046807 0.0041216183 -0.02029853 -0.018520867 -0.015465476 -0.012811914
0.0036124508 0.0022733684 -0.0041046813 -0.0081477715 0.019220732 -0.015341317 -0.0021684892 0.032707125
-0.009780984 -0.09090335 0.010988725 0.011294058 0.023270747 0.0012375076 -0.019483777 -0.010655071
0.058680434 -0.0014212055 0.008511822 -0.010291026 0.02539229 0.0076145898 -0.014229687 -0.015683884
0.046675507 -0.027243707 0.016988888 0.015186571 -0.002062275 -0.012621247 0.04207231 -0.0005508849
0.0075862296 -0.0034021896 0.017722188 0.031481437 -0.0077810637 0.0077866693 0.0065020714 0.014781541
0.036521994 -0.008319871 -0.044304397 -0.020651 -0.00071921217 0.0050200718 0.0033958706 -0.03137551
-0.001552813 0.037415322 0.009779117 -0.01633446 -0.007658769 0.0067659365 0.0029841682 0.012308118
