models/2023-05-18_22-42/3/pytorch/E-69_VA-0.5089_VL-262.58_TA-0.5917_TL-218.92.pt (torch, 411855 bytes, 9 tensors)

Fd2da27LSTM.weight_ih_l0 f4 [600, 17]
0	0x3d8032d7	0.06259697
1	0xbd332e74	-0.043745473
2	0xbd6105b8	-0.054937094
3	0x3b8327dd	0.004002555
4	0xbd991105	-0.07473949
5	0xbd6e22ac	-0.058138534
6	0x3b83ecf8	0.0040260516
7	0x3dd0fc22	0.102043405
8	0x3d450062	0.04809607
9	0x3d632259	0.05545268
10	0x3df99e85	0.12188438
11	0x3e072c48	0.13200486
12	0xbd46f50a	-0.04857353
13	0xbddf74dc	-0.10910961
14	0x3cd22a4b	0.025654932
15	0xbbe53b95	-0.006995628
16	0x3d713130	0.0588848
17	0xbcb23d3a	-0.02175771
18	0xbd6ae35a	-0.057345726
19	0x3d47782c	0.04869859
20	0xbdbdd70d	-0.09269533
21	0x3d618e72	0.055067487
22	0xbd323bc4	-0.04351403
23	0xbe1f119a	-0.15534058
24	0x3d87c2d9	0.06628961
25	0x3c8ade5d	0.016951734
26	0x3cc0ae31	0.023520561
27	0xbda7be76	-0.081906244
28	0x3e08e08f	0.13366912
29	0x3b935d23	0.0044971867
30	0x3cf2a54f	0.02961984
31	0xbdcbcc5e	-0.09951089
32	0xbe35d41b	-0.17756693
33	0xbc8e253e	-0.017351743
34	0xbcfef060	-0.03112048
35	0xbc4ce295	-0.012505193
36	0x3c83c539	0.016085254
37	0x393aeaed	0.00017825859
38	0xbce4d213	-0.027932202
39	0x3da1c4d7	0.07898872
40	0xbbfac314	-0.0076526497
41	0x3d45bbb5	0.048274714
42	0x3cfd440b	0.030916234
43	0xbd45791e	-0.04821121
44	0x3dbaac7e	0.091149315
45	0x3e00ae81	0.12566568
46	0xbd368c09	-0.04456714
47	0xbd3093a9	-0.04310957
48	0xba9fa3d6	-0.0012179564
49	0x3d771839	0.060325835
50	0xbb4011fd	-0.0029307597
51	0x3e566e99	0.20940627
52	0x3c9e486a	0.01932164
53	0xbdb19768	-0.086714566
54	0xbd99c6b6	-0.07508604
55	0xbd9a8193	-0.075442456
56	0xbdb1ffdd	-0.0869138
57	0x3c9f51c9	0.019448178
58	0xbd949af5	-0.07256118
59	0x3d2c32d6	0.04204067
60	0x3d515c4d	0.051113416
61	0x3c9745b6	0.018465858
62	0x3d81b359	0.06333036
63	0x3d56db2d	0.052455116
64	0x3d479a53	0.04873116
65	0x3d897464	0.06711653
66	0xbae2dd9f	-0.001730848
67	0x3d57a17d	0.05264424
68	0xbd269701	-0.040671352
69	0x3c00b167	0.007854796
70	0xbd4aea57	-0.04953989
71	0xbd597ba3	-0.053096425
72	0x3cdbeb7f	0.026845692
73	0xbd64797a	-0.05577991
74	0xbd31028b	-0.043215316
75	0x3d417288	0.047228366
76	0x3d809189	0.06277759
77	0x3cd3cd99	0.025854873
78	0xbda82e12	-0.08211912
79	0x3c09ea15	0.008417626
80	0x3baac30a	0.0052112387
81	0xbcfe7abb	-0.031064382
82	0xbd92949e	-0.07157253
83	0xbcb4e12c	-0.022080027
84	0xbd0d7967	-0.034539606
85	0xbd0800a4	-0.033203736
86	0xbb8c120a	-0.0042746114
87	0xbcb40475	-0.021974782
88	0xbdaafed6	-0.08349387
89	0x3d909ec9	0.07061536
90	0x3dab065d	0.08350823
91	0xbd629148	-0.055314332
92	0xbd065f53	-0.032805752
93	0x3e25cf3a	0.16192332
94	0x3d2d0abe	0.042246573
95	0xbe0045cd	-0.12526627
96	0x3c89b4f2	0.016809914
97	0x3c2b792e	0.010465903
98	0x3de34e3d	0.11098907
99	0x3c115081	0.008869291
100	0xbd9ce6c8	-0.076612055
101	0x3d8531af	0.06503617
102	0xbda22af5	-0.0791835
103	0x3dddba70	0.10826576
104	0xbd0a85cf	-0.033819016
105	0xbd577072	-0.05259747
106	0x3d6927ca	0.05692271
107	0xbdcda566	-0.10041313
108	0xbccb9bb4	-0.024854518
109	0x3d1fd342	0.03901983
110	0x3db503b5	0.08838598
111	0x3e07a599	0.13246764
112	0xbc23f2f0	-0.010006651
113	0x3da451b8	0.08023399
114	0x3d8c5ed4	0.068540245
115	0xb9e5d907	-0.00043839982
116	0xbcc43b56	-0.023954075
117	0x3d89c782	0.06727506
118	0xbd63a739	-0.055579398
119	0xbb007d47	-0.001960592
120	0x3dbc0ea0	0.09182477
121	0xbcaadff8	-0.02085875
122	0x3d9c71b6	0.07638876
123	0x3ce31bc3	0.027723199
124	0x3d93c3b3	0.07215061
125	0x3d6ab362	0.05729998
126	0xbd2bdd67	-0.041959193
127	0x3d3aaf92	0.045577593
128	0x3d028cd7	0.031872597
129	0x3db8297d	0.08992288
130	0x3d8dc7d1	0.069228776
131	0x3ce45b30	0.027875513
132	0x3c2da47b	0.010598297
133	0xbd6b0a16	-0.057382666
134	0x3d546b9e	0.051860444
135	0xbbcb1277	-0.0061972695
136	0x3de1d8af	0.11027657
137	0xbc35fcab	-0.011107604
138	0xbdd53641	-0.10410739
139	0x3cfaa8c9	0.030598061
140	0xbcd0a032	-0.025467012
141	0xbd87392b	-0.06602701
142	0xbd8ee79e	-0.06977771
143	0xbd485274	-0.04890676
144	0x3e11c953	0.14236955
145	0xbd159ab2	-0.036524482
146	0xbd27e71d	-0.04099189
147	0x3cadacc0	0.021200538
148	0xbd453cf6	-0.04815384
149	0x3d51d097	0.051224317
150	0x3d04df04	0.032439247
151	0x3d527a99	0.05138645
152	0xbd54a857	-0.051918354
153	0x3d1beb13	0.03806598
154	0x3d7d8de7	0.061902907
155	0x3d41be7f	0.04730081
156	0x3d40040f	0.04687887
157	0x3cb311c0	0.02185905
158	0xbc318594	-0.01083507
159	0x3d874339	0.066046186
160	0x3d2cda53	0.042200398
161	0x3c6f465d	0.014604178
162	0xbcb2504e	-0.021766808
163	0x3c07c5f3	0.008286941
164	0x3c51c940	0.012804329
165	0x3d20e49d	0.039280523
166	0x3d4fd0a0	0.05073607
167	0xbbf0276a	-0.0073289173
168	0x3cf7eacb	0.030263325
169	0x3c9c4b4c	0.019078873
170	0xbcef6246	-0.029221665
171	0x3cc946d0	0.024569899
172	0xbd44b6c5	-0.048025865
173	0x3d0f9776	0.035056554
174	0x3d4953f9	0.04915235
175	0x3d797eb6	0.060911857
176	0x3b682aa3	0.0035425804
177	0xbc7bad5d	-0.015361157
178	0x3da04f51	0.078276284
179	0xbba42023	-0.005008714
180	0x3c165b7d	0.009177086
181	0x3dbecc64	0.09316328
182	0xbccfe6e2	-0.025378648
183	0x3d48a77b	0.048987847
184	0x3da83055	0.082123436
185	0x3dbbc627	0.09168654
186	0xbccf369c	-0.025294594
187	0xbd37e03d	-0.044891585
188	0xbd260640	-0.040533304
189	0xbd325a62	-0.043543227
190	0xbd0a0c07	-0.033702876
191	0xbcb880cb	-0.02252235
192	0xbd66b0df	-0.05632102
193	0xbd186e0a	-0.037214316
194	0xbc90e4e8	-0.017687276
195	0xbc989911	-0.018627675
196	0xbd04671d	-0.0323249
197	0xbd92822a	-0.07153733
198	0xbd0af972	-0.033929296
199	0xbd08e20f	-0.03341871
200	0xbca57cfa	-0.020201195
201	0xbd403824	-0.04692854
202	0xbd845616	-0.06461732
203	0xbcdab2a1	-0.026696505
204	0x3c7123af	0.01471798
205	0x3db68465	0.08911971
206	0x3cb26b78	0.02177976
207	0xbccace42	-0.024756555
208	0xbd5ca4ca	-0.053868093
209	0xbdf9fc9e	-0.12206386
210	0x3d9a6631	0.07539023
211	0xbcdd4560	-0.02701062
212	0xbd93b63b	-0.07212492
213	0x3d5301d7	0.051515426
214	0x3d2df9c6	0.04247453
215	0x3c97e64b	0.01854243
216	0x3d9bb284	0.076024085
217	0xbcfe55c5	-0.031046757
218	0xbd000b30	-0.03126067
219	0x3b580f78	0.0032968204
220	0x3dc9fef3	0.09863081
221	0xbbe91bbc	-0.007113902
222	0x3db3ca17	0.0877878
223	0xbdccf906	-0.10008435
224	0x3dde45a0	0.10853124
225	0xbda3370f	-0.07969486
226	0xbbdc4c3f	-0.0067229564
227	0x3cd6cff9	0.026222216
228	0xbd9321df	-0.07184195
229	0x3ab193dd	0.0013548095
230	0x3e167d20	0.14696169
231	0x3cf06203	0.02934361
232	0xbc8bed8f	-0.01708105
233	0xbb8b127a	-0.004244146
234	0x3d3f4541	0.046696905
235	0x3dd1e487	0.10248666
236	0x3d931ac6	0.07182841
237	0xbd46d3ad	-0.048541714
238	0x3d10078a	0.03516344
239	0x3d5991e8	0.053117663
240	0xbd2d5729	-0.04231945
241	0x3d0b1b9c	0.033961877
242	0xbdb7d3b2	-0.089759246
243	0xbd8a17fd	-0.06742857
244	0xbbc8d308	-0.0061286725
245	0x3d2f0092	0.042725153
246	0x3adc79fd	0.0016821023
247	0xbc663959	-0.014051759
248	0x3d926816	0.07148759
249	0x3d5bc013	0.053649973
250	0xbcf6ef5a	-0.030143429
251	0xbc41fe6e	-0.011840446
252	0xbdc29256	-0.095005676
253	0x3dab63da	0.083686545
254	0xbdcaa19f	-0.09894108
255	0x3ca881c5	0.020569691

Fd2da27LSTM.weight_hh_l0 f4 [600, 150]
0	0xbc7b105e	-0.015323726
1	0x3d7116e7	0.058859732
2	0x3d0fc838	0.035103053
3	0x3b6ad7f2	0.003583428
4	0xbd1fd330	-0.039019763
5	0xbd03900b	-0.032119792
6	0xbc65c134	-0.014023114
7	0xbc3e4036	-0.011611989
8	0xbd19eb74	-0.03757806
9	0x3daa85cd	0.08326302
10	0xbd04953c	-0.032368883
11	0x3c92bcf7	0.017912371
12	0x3db8e767	0.090285115
13	0xbded0311	-0.115728505
14	0x3cb8f5d4	0.022578157
15	0xbcdd8404	-0.027040489
16	0xbcd20c96	-0.025640767
17	0x3d34273b	0.043982726
18	0xbc919732	-0.01777229
19	0x3dcc2268	0.099675
20	0x3acdca90	0.0015700627
21	0x3d70ebc8	0.05881861
22	0x3dc7f222	0.0976298
23	0xbbc60eb9	-0.0060442355
24	0x3df1d036	0.11807291
25	0x3dc18dd6	0.09450881
26	0x3d134107	0.035950687
27	0x3ccc5bb0	0.024946064
28	0xbc94a99f	-0.018147288
29	0xbc8bcdce	-0.017065909
30	0x3c61302d	0.013744396
31	0x3d5fd3a9	0.054645214
32	0x3ccc8ebd	0.024970407
33	0x3bf44b8b	0.0074552945
34	0xbd027fa3	-0.031860005
35	0xbcafdd45	-0.021467814
36	0x3dc6db90	0.09709847
37	0xbd8728a1	-0.06599546
38	0x3e00b990	0.12570786
39	0x3d64a721	0.05582345
40	0x3d829082	0.06375219
41	0x3d429259	0.04750285
42	0x3b0586d4	0.0020374553
43	0xbd1d42c5	-0.038393755
44	0xbcee0375	-0.029054383
45	0x3ad89a9e	0.0016525572
46	0xbde42142	-0.11139156
47	0x3d31cb07	0.043406513
48	0xbcedd427	-0.029031826
49	0xbd275df8	-0.0408611
50	0x3d92edb9	0.07174248
51	0xbd68f812	-0.056877203
52	0xbc7e075a	-0.015504682
53	0x3c57ba25	0.013166939
54	0xbd8325c5	-0.06403688
55	0x3d734bae	0.059398346
56	0xbcc54a4d	-0.024083281
57	0xbbd94f46	-0.0066317646
58	0x3d36056e	0.044438772
59	0x3d64491d	0.05573379
60	0x3c8d20c8	0.017227545
61	0xbce63ecb	-0.028106114
62	0x3c2d7fe0	0.01058957
63	0xbc90bc13	-0.017667806
64	0x3d6fe2d8	0.058565944
65	0x3d7d85e3	0.061895262
66	0xbd5d397d	-0.054009903
67	0x3da2fb94	0.07958141
68	0x3cba7a45	0.02276338
69	0xbd235fa6	-0.03988614
70	0x3c0304c5	0.007996743
71	0x3d836a32	0.064167395
72	0xbd0ceca1	-0.034405354
73	0x3d127599	0.03575668
74	0x3dce8df3	0.100856684
75	0xbced226f	-0.028947083
76	0xbd38b8cf	-0.045098122
77	0xbd2f713b	-0.042832594
78	0x3d1807df	0.03711688
79	0x3da267aa	0.079299286
80	0xbdc49c31	-0.09600104
81	0x3d9dded5	0.077085175
82	0x3c80c2ad	0.015717829
83	0xbd836bdd	-0.06417058
84	0x3d89af76	0.0672292
85	0xbd30bba1	-0.043147687
86	0x3cd4a042	0.025955323
87	0x3e4f3a99	0.20237197
88	0x39c2d6c3	0.00037162573
89	0xbcd51644	-0.026011594
90	0x3c8fb6db	0.017543247
91	0x3d59a4bb	0.053135615
92	0xbdb0dd7a	-0.08635993
93	0xbda32a91	-0.07967103
94	0xbbc9c728	-0.0061577745
95	0xbcb47b32	-0.0220314
96	0x3cc682df	0.024232326
97	0x3cb85331	0.022500606
98	0x3cf4b00b	0.0298691
99	0x3d0c3c5b	0.034237247
100	0x3d7009ee	0.05860322
101	0x3dc42dc5	0.09579042
102	0x3d97abfd	0.07405851
103	0x3d51c650	0.051214516
104	0xbd2176f0	-0.03942007
105	0x3d4811b5	0.04884501
106	0xbdcd6a9f	-0.10030102
107	0xbc79882b	-0.015230219
108	0x39e8b95e	0.00044388598
109	0xbc939f95	-0.01802043
110	0x3d06925f	0.032854434
111	0x3c18317e	0.009289144
112	0x3d883543	0.06650784
113	0xbd1509f7	-0.036386456
114	0xbd613705	-0.05498411
115	0xbb602e63	-0.0034207336
116	0xbcc6fe63	-0.024291223
117	0xbd64473b	-0.055731993
118	0xbd4cb65c	-0.0499786
119	0xbd8a3d23	-0.06749942
120	0x3cda84bb	0.026674619
121	0x3d1ec49d	0.038761724
122	0x3d40edd5	0.047101814
123	0x3c849765	0.016185472
124	0xbd5006a8	-0.050787598
125	0xbcb30f6e	-0.021857943
126	0xbcaf223f	-0.021378634
127	0x3ca2b0cf	0.0198597
128	0xbc93082f	-0.017948238
129	0x3ce1b810	0.027553588
130	0x3aad4313	0.0013218842
131	0x3ce41a6f	0.027844636
132	0xbd3e86b1	-0.04651517
133	0xbd8408ec	-0.06447014
134	0x3cfe57a7	0.031047655
135	0x3bf69aef	0.0075257937
136	0x3ceb76d5	0.028743187
137	0x3aeb40fd	0.0017948445
138	0xbd2b5d56	-0.04183706
139	0xbcea90e5	-0.028633544
140	0xbd8c9801	-0.0686493
141	0xbd17cbdd	-0.037059654
142	0xbd8d4460	-0.06897807
143	0xbc6ba9aa	-0.014383713
144	0x3cd60aeb	0.026128253
145	0xbddcb466	-0.10776596
146	0xbd4b9333	-0.049700927
147	0x3d421c76	0.047390424
148	0x3d6e5fd3	0.058196854
149	0xbc313eab	-0.010818164
150	0x3dce07cb	0.1006008
151	0x3c9b25f9	0.018939005
152	0x3db75251	0.089512475
153	0xbccda6c3	-0.025103932
154	0x3ca359c8	0.019940272
155	0x3d5a448a	0.05328802
156	0xbcff4702	-0.031161789
157	0xbda2c68c	-0.07948026
158	0x3de9f4ac	0.114236206
159	0xbc58f9b2	-0.013243126
160	0xbd397caf	-0.045284923
161	0x3ca6b32f	0.020349113
162	0x3d6b370c	0.057425544
163	0xbd87a30a	-0.06622894
164	0x3d508e0e	0.050916724
165	0xbcd0e5e4	-0.025500245
166	0xbb077eb5	-0.0020674889
167	0x3d84c024	0.064819604
168	0xbdadbfad	-0.08483825
169	0xbdc6e879	-0.097123094
170	0x3db8ee22	0.09029795
171	0xbba62ca2	-0.0050712386
172	0xbd4e2223	-0.050325524
173	0x3d848131	0.06469954
174	0x3c04f73f	0.008115589
175	0xbd311c6e	-0.043240003
176	0xbd99212e	-0.07477032
177	0xbc648df9	-0.013949865
178	0xbda3209b	-0.079652034
179	0xbbfb05a8	-0.0076605864
180	0x3c1060de	0.008812157
181	0x3cfd21c8	0.030899897
182	0xbd80aab1	-0.06282557
183	0xbd726fab	-0.059188526
184	0xbbc2c9b6	-0.005944456
185	0xbcca2068	-0.024673656
186	0x3c07458b	0.008256326
187	0xbd70b17a	-0.058763005
188	0x3a10dccc	0.00055260654
189	0x3e0ef3c2	0.13960174
190	0x3dbccad0	0.09218371
191	0x3d9649d2	0.07338299
192	0xbc8d6a02	-0.017262463
193	0xbc97ca73	-0.018529152
194	0xbd4993d1	-0.049213234
195	0xbcc8bea3	-0.024504965
196	0xbd2af51d	-0.041737664
197	0x3d90d37d	0.07071588
198	0x3b90baf4	0.004416818
199	0x3ca2d1aa	0.019875366
200	0xbbe4f9cd	-0.0069877864
201	0xbd31c305	-0.043398876
202	0x3cd02b9b	0.025411418
203	0xbd265e04	-0.040617004
204	0xbdb2429b	-0.0870411
205	0x3cb424bd	0.021990174
206	0x3bf41aef	0.0074495
207	0xbcec3ca2	-0.028837506
208	0x3ccd31f0	0.025048226
209	0x3c8710f1	0.01648757
210	0x3c3d3818	0.011549018
211	0xbd86e2d5	-0.065862335
212	0x3d57765f	0.05260312
213	0x3d707172	0.05870194
214	0x3d64b00f	0.055831965
215	0x3c0c5a24	0.008566413
216	0xbc2f3d91	-0.010695831
217	0x3da02949	0.078203745
218	0x3c275ba2	0.010214718
219	0xbda07fde	-0.07836889
220	0x3c8633fe	0.016382214
221	0x3d2b3ac1	0.04180408
222	0xbbe0f580	-0.0068652034
223	0x3c758787	0.0149859255
224	0x3ca07200	0.01958561
225	0xbdeebd54	-0.11657205
226	0xbd36fe11	-0.04467589
227	0xbd7785be	-0.06043028
228	0x3ca04583	0.019564396
229	0x3d412df6	0.047162972
230	0xbd118933	-0.035531234
231	0x3d54c858	0.051948875
232	0x3d7d6d5f	0.061871883
233	0x3da09318	0.07840556
234	0x3d9035d7	0.07041519
235	0xbd1ae873	-0.037819337
236	0xbd7be108	-0.061493903
237	0x3c7245ec	0.0147871785
238	0xbc9175ec	-0.017756425
239	0xbbb51a18	-0.0055267923
240	0x3de14471	0.10999382
241	0x3de8e3cf	0.11371576
242	0xbcb84f04	-0.022498615
243	0xbddaeb94	-0.10689464
244	0x3cd040e9	0.025421577
245	0x3d07ed6d	0.03318541
246	0xbce93b56	-0.028470676
247	0xbc6be228	-0.014397182
248	0x3c982078	0.01857017
249	0x3c256c8f	0.010096683
250	0xbd240ceb	-0.040051382
251	0x3d5c3a4f	0.053766545
252	0x3c67db17	0.014151356
253	0xbcbcb8b1	-0.023037286
254	0xbe07f3e9	-0.13276638
255	0x3db9254d	0.09040318

Fd2da27LSTM.bias_ih_l0 f4 [600]
0	0xbccf0878	-0.025272593
1	0xbc08d913	-0.008352536
2	0xbc9a5f41	-0.018844249
3	0xbbff45ef	-0.007790319
4	0xbc06b730	-0.008222386
5	0x3b8b34d9	0.0042482433
6	0xbc10f11c	-0.008846547
7	0x3c9ed8ed	0.019390548
8	0xbcb8ccec	-0.022558652
9	0x3c9435dc	0.018092088
10	0x3beb05f9	0.007172343
11	0xbc26c53c	-0.01017886
12	0xbb9240e7	-0.0044633034
13	0xba5e2edd	-0.0008475611
14	0xbc8f27e7	-0.017475082
15	0xbb95acaf	-0.0045677046
16	0xbb832dab	-0.004003247
17	0x3c05c169	0.008163788
18	0x39a67f42	0.00031756802
19	0xbd507655	-0.0508941
20	0xbbbe4705	-0.005806806
21	0xbbd6531c	-0.006540669
22	0x3bffd215	0.007807026
23	0x3b991dc5	0.0046727383
24	0x3b9f1a17	0.004855405
25	0x3a71864f	0.0009213434
26	0xbbbafe56	-0.0057065887
27	0xbb835a4e	-0.004008568
28	0xbd0ff781	-0.035148147
29	0xbd1c6423	-0.038181435
30	0x3c4485a8	0.011994757
31	0xbc9f8145	-0.01947082
32	0x3add30e1	0.0016875529
33	0x3a58f27a	0.0008275878
34	0x3bfd11df	0.0077230777
35	0xbcedd44e	-0.029031899
36	0x3c81462e	0.015780535
37	0x3c82f16b	0.015984258
38	0xb9642616	-0.00021757963
39	0xbc14cf71	-0.009082661
40	0x3d21d2c8	0.039507657
41	0xbcbf1fc9	-0.023330586
42	0xbc5d708c	-0.013515603
43	0xbc7b4027	-0.015335119
44	0x3cab46d9	0.020907806
45	0x3bd0405d	0.006355329
46	0x3c746407	0.0149164265
47	0xbc647562	-0.013944002
48	0xbc670926	-0.014101302
49	0xbc2df512	-0.010617511
50	0xbc0cc7b4	-0.008592535
51	0xbcd9d111	-0.026588948
52	0x3c4d572d	0.012532991
53	0xbccf88a8	-0.025333717
54	0xbbcfbf9b	-0.00633998
55	0xbba72b82	-0.005101622
56	0xbc48451e	-0.01222351
57	0x3c5a13e2	0.0133104045
58	0x3d57d7b9	0.052695964
59	0x3b999861	0.0046873544
60	0xbc3ff08e	-0.011715068
61	0xbb5d33a1	-0.0033752697
62	0xbc449a7d	-0.0119997235
63	0xbc1c120f	-0.00952579
64	0x3b2448dd	0.0025067844
65	0xbc67c2d9	-0.014145576
66	0xbc81e094	-0.015854158
67	0xbc00e9b9	-0.007868224
68	0xbbabd85e	-0.005244299
69	0xbccc9937	-0.024975402
70	0x3b27db8c	0.0025613038
71	0xbc110bd0	-0.008852914
72	0xbc31cac7	-0.010851569
73	0xbadfd574	-0.0017077164
74	0x3b823106	0.003973129
75	0xbd35220f	-0.044221934
76	0x3c5271b5	0.012844493
77	0xbc073032	-0.008251237
78	0x3b3c491e	0.0028730105
79	0xbc1f8e98	-0.009738587
80	0x3c9e5231	0.019326301
81	0xba966d6b	-0.0011476701
82	0xbd0a5249	-0.03376988
83	0x3cd3da43	0.025860911
84	0xbc6dd66b	-0.014516453
85	0xbc484b51	-0.012224988
86	0xbcfa1042	-0.03052533
87	0xbd9daada	-0.07698603
88	0xbbc79364	-0.0060905684
89	0xbc1dfb65	-0.009642457
90	0xbc8e100e	-0.01734164
91	0xbc339548	-0.010960884
92	0xbb871d9a	-0.004123402
93	0xbcab6831	-0.020923706
94	0xbbddce39	-0.0067689684
95	0xbbcb37cb	-0.0062017194
96	0xbbbe3992	-0.0058052028
97	0x3bdc7eb0	0.0067289695
98	0x3cb8d401	0.022562029
99	0x3ba48553	0.0050207763
100	0x3c697a67	0.014250374
101	0xbb0460d6	-0.002019932
102	0x3c35b76e	0.011091096
103	0x3c3e08a0	0.011598736
104	0xbcdab567	-0.026697828
105	0x3d0e5a74	0.03475423
106	0x3c64ab5f	0.013956874
107	0x3c296118	0.01033809
108	0xbc6b7cf3	-0.014373052
109	0xbbc88530	-0.006119393
110	0xbbe027ed	-0.006840697
111	0x3c390bc2	0.011294307
112	0xbb5f7791	-0.0034098367
113	0xbb488b63	-0.003060066
114	0x3c5afc05	0.01336575
115	0x3b6940a7	0.0035591514
116	0xbb1b35b5	-0.0023683135
117	0xbc8d1fe8	-0.017227128
118	0x3c0b5701	0.00850463
119	0xbbd7db6e	-0.0065874374
120	0xbc257f83	-0.010101202
121	0xbbd65077	-0.006540354
122	0xbb44faca	-0.0030056708
123	0xbc820458	-0.015871212
124	0xbbc8af82	-0.006124438
125	0x3c01d0f7	0.007923356
126	0x3b4f33d3	0.0031616583
127	0xbbcf293a	-0.0063220533
128	0xbc123337	-0.008923343
129	0x3b74bdb6	0.0037344522
130	0xbc499692	-0.012303965
131	0xbb9ac2d7	-0.0047229338
132	0xbcf648c4	-0.030063994
133	0x3b95c524	0.00457062
134	0x3c3a1cab	0.011359374
135	0xbba36618	-0.0049865358
136	0x3b0fb89e	0.0021930109
137	0xbbd2ea0c	-0.006436592
138	0xbb203fb9	-0.0024452044
139	0x3c95be4e	0.01827922
140	0x3bc87dad	0.0061184973
141	0xbd0bf23a	-0.034166552
142	0x3b0b74c0	0.0021279305
143	0x3bb7d61b	0.00561024
144	0xba9821fd	-0.0011606809
145	0xbc3217c0	-0.01086992
146	0xbb969a26	-0.0045960126
147	0xbc355046	-0.011066502
148	0xbc1234cb	-0.00892372
149	0x3c813e90	0.015776902
150	0x3abe0962	0.0014498646
151	0x3b70ba34	0.003673208
152	0x3a09cbb7	0.0005256491
153	0xbc3d1667	-0.011540986
154	0xbbd8ca88	-0.0066159405
155	0x3c6a5e56	0.014304718
156	0x3c2821c1	0.010261954
157	0xbc1b9188	-0.009495147
158	0xbc30ae4e	-0.010783745
159	0xbbb0551e	-0.0053812405
160	0xbb7a5790	-0.0038199164
161	0xbb5c791e	-0.0033641527
162	0x3c8c26f9	0.017108427
163	0x3ce4a9fa	0.027913082
164	0x3c8f1019	0.01746373
165	0xbb965dee	-0.004588834
166	0x3c2b879d	0.010469344
167	0x3c4db208	0.012554653
168	0xbb6c0467	-0.0036013366
169	0xbc6d71e7	-0.0144924885
170	0xba99e283	-0.0011740479
171	0x3bbf3c5f	0.005836054
172	0xbc267df2	-0.010161864
173	0xbc591669	-0.013249972
174	0x3b44b6ff	0.00300163
175	0xbb325528	-0.0027211402
176	0xbbc61d15	-0.0060459473
177	0xbaa24538	-0.0012380248
178	0x3c9fb1d7	0.01949398
179	0x3d472ae3	0.048624884
180	0x3d01f5a4	0.0317284
181	0xbcace430	-0.021104902
182	0x3baa76aa	0.005202134
183	0x3c3f62c3	0.0116812615
184	0x3c525907	0.012838609
185	0x3cf65b5c	0.03007286
186	0xbb92bb3d	-0.004477887
187	0xbb6e73e9	-0.0036385006
188	0x3c3c06f3	0.011476266
189	0x3d275920	0.04085648
190	0xbc03d9c9	-0.0080475295
191	0x3b67464d	0.0035289705
192	0x3c02a52e	0.007973952
193	0x3bfad47a	0.0076547237
194	0xb93e8ad9	-0.00018171537
195	0xbc244fc0	-0.0100287795
196	0xb7c2e64e	-2.3233846e-05
197	0x3b973fd9	0.0046157655
198	0xbc1a02ef	-0.0094001135
199	0x3b2f4fb7	0.0026750395
200	0xbb03ed54	-0.0020130472
201	0x3c370f4d	0.011173082
202	0xbc818d7a	-0.015814532
203	0x3870d7c6	5.7421414e-05
204	0x3b7e5f1f	0.003881402
205	0x3bc028ab	0.005864223
206	0x3c967171	0.01836464
207	0x3bae357c	0.0053164344
208	0x3cf39731	0.02973518
209	0x3c190620	0.009339839
210	0xbb802f4b	-0.0039118878
211	0x3b1ca9be	0.0023904885
212	0xbb9303c1	-0.0044865315
213	0xbb0723bd	-0.0020620667
214	0x3bff32ec	0.007788053
215	0x3c6461ab	0.0139393015
216	0x3c9dbc49	0.01925482
217	0x3ba721bd	0.0051004575
218	0x3b59fdba	0.0033262805
219	0x3d4b0b10	0.049571097
220	0xbc9560fa	-0.018234719
221	0x3c53ff2e	0.012939258
222	0xbb4e4f00	-0.0031480193
223	0x3b8302fd	0.003998159
224	0x3c6a9ca9	0.014319577
225	0x3d127089	0.035751853
226	0xba346001	-0.0006880761
227	0x3c0f65dd	0.008752313
228	0x3b9d09ef	0.004792444
229	0xbac61c51	-0.001511464
230	0xbca7efcc	-0.020500086
231	0xbc0accd7	-0.008471689
232	0xbcb0b005	-0.021568308
233	0xbc5024bc	-0.012704071
234	0x3ac74693	0.0015203528
235	0x3cb01bfc	0.021497719
236	0x3d01cb41	0.03168798
237	0x3e33e94f	0.17569469
238	0x39e3214c	0.00043321622
239	0x3aece81b	0.0018074544
240	0x3d21aa9b	0.039469343
241	0x3a54e8bf	0.000812184
242	0xbab4fa4a	-0.0013807502
243	0x3c605759	0.0136927
244	0x3c259b6b	0.010107855
245	0x39fd942f	0.00048366326
246	0x3b9594cb	0.0045648566
247	0x3cb10040	0.021606565
248	0xb9fb2e46	-0.00047908927
249	0x3bb6e137	0.005581047
250	0xbca9c27f	-0.020722626
251	0x3c907494	0.017633714
252	0xbc4013b3	-0.011723447
253	0x3ca02046	0.01954664
254	0x3d5a317a	0.05326984
255	0xbbe1e656	-0.0068939133

Fd2da27LSTM.bias_hh_l0 f4 [600]
0	0xbcd9c8da	-0.026585031
1	0xbc124180	-0.008926749
2	0xbca6ad18	-0.02034621
3	0xbc04f52a	-0.008115092
4	0xbc11263f	-0.008859216
5	0x3c3e521e	0.011616258
6	0xbc357148	-0.011074372
7	0x3ca51300	0.020150661
8	0xbcb24537	-0.02176152
9	0x3ca48bae	0.020086136
10	0x3c19ff84	0.009399299
11	0xbc383181	-0.011242271
12	0xbb9a3bd3	-0.0047068386
13	0xbb0f5fa3	-0.0021877072
14	0xbca3c741	-0.019992473
15	0xbb825247	-0.0039770934
16	0xbba12068	-0.004917193
17	0x3c051737	0.008123211
18	0x39e6095e	0.00043875998
19	0xbd659451	-0.05604965
20	0xbbd48825	-0.0064859563
21	0xbbfc88c4	-0.0077067334
22	0x3c339c84	0.010962609
23	0x3bb54982	0.0055324445
24	0x3b99dcea	0.0046955245
25	0x3aa1315d	0.0012298037
26	0xbba63a2f	-0.005072854
27	0xbb8a8978	-0.0042278133
28	0xbd25f203	-0.040514003
29	0xbd286c22	-0.04111875
30	0x3c3459c0	0.011007726
31	0xbcb27bf2	-0.021787617
32	0x3aad0eb1	0.0013203231
33	0x3a87b88f	0.0010354685
34	0x3bf1ea6a	0.0073826807
35	0xbd0501e2	-0.0324725
36	0x3c8e74c0	0.017389655
37	0x3c865f42	0.016402844
38	0xba4134c7	-0.000737023
39	0xbc82138f	-0.015878467
40	0x3d2e86f0	0.042609155
41	0xbce008ba	-0.027347911
42	0xbc8cff6f	-0.017211644
43	0xbc826823	-0.015918797
44	0x3cb74928	0.02237375
45	0x3bd4a0d3	0.0064888983
46	0x3c86e1de	0.016465124
47	0xbcc8b40c	-0.024499916
48	0xbc7f9265	-0.015598868
49	0xbc5ff033	-0.013668108
50	0xbc122178	-0.008919112
51	0xbce81173	-0.028328633
52	0x3c5cb1f5	0.013470163
53	0xbcc94892	-0.024570737
54	0xbb1e2ffa	-0.0024137483
55	0xbbc1f49e	-0.005919053
56	0xbc178d7c	-0.009250041
57	0x3c6dec6b	0.0145216985
58	0x3d6b5bf1	0.05746073
59	0x3b9d9f05	0.0048102164
60	0xbc48c9ea	-0.012255171
61	0xbbe542d8	-0.006996494
62	0xbc5a3a9f	-0.01331964
63	0xbc2b1c23	-0.01044372
64	0x3b245375	0.0025074158
65	0xbc200342	-0.009766402
66	0xbcb0ccf0	-0.021582097
67	0xbb1f7ac6	-0.0024334653
68	0xbbc9da20	-0.0061600357
69	0xbce2dd8e	-0.027693536
70	0xba43ec84	-0.0007473903
71	0xbc02fd80	-0.007995009
72	0xbc4d4d8f	-0.012530698
73	0xbb0bafc4	-0.0021314481
74	0x3bb9cbcf	0.005670048
75	0xbd5cf5ae	-0.053945236
76	0x3c5d0f6c	0.013492446
77	0xbc267703	-0.010160211
78	0x3b3370e2	0.0027380516
79	0xbc34c149	-0.011032411
80	0x3cbbee06	0.022940647
81	0xba969a81	-0.0011490138
82	0xbd143896	-0.036186777
83	0x3cf2a458	0.02961938
84	0xbc29c69d	-0.0103622945
85	0xbc4d3d0c	-0.012526762
86	0xbceeed13	-0.02916578
87	0xbda0f3bc	-0.07858989
88	0xbc058219	-0.0081486935
89	0xbc2a0a12	-0.0103783775
90	0xbc98e43f	-0.018663524
91	0xbc4d9696	-0.0125481095
92	0xbbe5f414	-0.007017622
93	0xbca1d930	-0.019756883
94	0xbbeaa796	-0.007161091
95	0xbb7e5960	-0.0038810596
96	0xbc032e59	-0.008006656
97	0x3b94acc0	0.004537195
98	0x3cc1cec2	0.02365816
99	0x3b980c67	0.0046401503
100	0x3c85e0a2	0.016342465
101	0xbb432286	-0.0029775216
102	0x3c4b41ff	0.012405871
103	0x3c3b34cc	0.011426162
104	0xbcf8e8cd	-0.030384446
105	0x3d1b7696	0.03795489
106	0x3c7c11e5	0.015385126
107	0x3c4fa568	0.012673713
108	0xbc802cf9	-0.015646445
109	0xbb918499	-0.0044408557
110	0xbbf6a5cd	-0.007527089
111	0x3b8e8302	0.0043491134
112	0x3c7649ac	0.015032213
113	0xbb6934c1	-0.0035584422
114	0x3c7b9ff1	0.015357957
115	0x3b1bd3a9	0.0023777282
116	0xbb881a82	-0.0041535506
117	0xbc7c66fb	-0.015405412
118	0x3c5b67ba	0.01339143
119	0xbbcd4748	-0.006264601
120	0xbc2c5896	-0.010519167
121	0xbbf29ec4	-0.0074041802
122	0xbb7a038a	-0.0038149082
123	0xbc921347	-0.017831458
124	0xbbdbfa2a	-0.0067131715
125	0x3c056baa	0.008143345
126	0x3b060cc7	0.0020454393
127	0xbbe00266	-0.0068362234
128	0xbc516ddd	-0.012782541
129	0x3b689595	0.0035489548
130	0xbc5e0ee4	-0.013553355
131	0xbbba975d	-0.0056943134
132	0xbd0b75eb	-0.034048002
133	0x3bb9a107	0.005664948
134	0x3c67f2b6	0.014156988
135	0xbbb40acb	-0.0054944507
136	0x3b3f08b5	0.0029149477
137	0xbbeb95bd	-0.007189481
138	0xbb4392a2	-0.0029842039
139	0x3ca3766a	0.019953925
140	0x3bd53c4c	0.006507432
141	0xbd15e299	-0.036593053
142	0x3aaacbe7	0.0013030738
143	0x3b6f36d1	0.003650118
144	0xbace72fd	-0.0015750822
145	0xbc31a44c	-0.010842394
146	0xbbb93827	-0.005652446
147	0xbc31bf11	-0.010848776
148	0xbc13768c	-0.009000432
149	0x3c8b1a6e	0.016980376
150	0xbc0f0bec	-0.00873087
151	0x3b752c52	0.003741045
152	0xb7df0c89	-2.6589509e-05
153	0xbc3f847c	-0.011689302
154	0xbbe8b603	-0.0071017756
155	0x3a83aca6	0.001004596
156	0x3bccb6d9	0.006247383
157	0x3b91a8b4	0.00444516
158	0x3cb302c5	0.021851907
159	0xbbe475a1	-0.0069720303
160	0xba768ddd	-0.00094052945
161	0xbb6b29ba	-0.0035883025
162	0x3c97e439	0.018541442
163	0x3c13f7a4	0.00903121
164	0x3cf311ec	0.029671632
165	0xbbc3d5bd	-0.0059764073
166	0x3c78add9	0.015178167
167	0x3c500465	0.01269636
168	0xbbc127ea	-0.0058946507
169	0x3d318523	0.04333986
170	0xba6be3f4	-0.0008998506
171	0x3bd984ef	0.0066381614
172	0xbc31d6ed	-0.010854465
173	0xbc665520	-0.014058381
174	0x3b5ff504	0.003417314
175	0xbb579115	-0.0032892872
176	0xbbe10b21	-0.0068677817
177	0xba7f97ee	-0.00097501173
178	0x3d167957	0.036736812
179	0x3d89739d	0.067115046
180	0x3cbc06e6	0.022952508
181	0xbcb380bf	-0.021911977
182	0x3bb15979	0.0054122773
183	0x3c7eb95d	0.015547124
184	0x3c6481cc	0.013946962
185	0x3d476056	0.048675857
186	0xbbf8fcbd	-0.007598488
187	0xbb5756e1	-0.003285818
188	0x3c5ba10e	0.013405098
189	0x3d310598	0.043218225
190	0xbc182a96	-0.009287497
191	0x3ba50601	0.005036116
192	0x3c8ac6c1	0.016940476
193	0x3c015b3c	0.007895287
194	0x39a36fce	0.00031173084
195	0xbc367981	-0.011137367
196	0xbab60cdb	-0.0013889329
197	0x3cfa467f	0.030551193
198	0xbc247135	-0.010036756
199	0x3b7c949b	0.0038540724
200	0xbbff15c5	-0.0077845776
201	0x3ba1a54d	0.0049330355
202	0xbc8ccdc4	-0.01718796
203	0x3ad1128d	0.0015950963
204	0x3adf2585	0.0017024731
205	0x3bc9c911	0.006158002
206	0x3c99d646	0.018778931
207	0x3b97c68b	0.0046318225
208	0x3d130edf	0.035902854
209	0x3c302680	0.010751367
210	0xbb87bf21	-0.0041426574
211	0x3bdcefd3	0.0067424565
212	0xbba10d57	-0.0049149203
213	0xb8b7518d	-8.74131e-05
214	0x3c10140f	0.008793845
215	0x3a26c3ea	0.0006361591
216	0x3acc3904	0.0015580957
217	0x3c23cbba	0.009997303
218	0x3b48e1bc	0.0030652126
219	0x3d2f0401	0.042728428
220	0xbc82525f	-0.015908418
221	0x3c5550d6	0.013019761
222	0xbb3d2754	-0.0028862553
223	0x3b84317b	0.004034219
224	0x3c8ee15c	0.017441444
225	0x3c8e9a12	0.01740745
226	0x3b19b7fd	0.0023455613
227	0x3c93b320	0.01802975
228	0x3bb0e687	0.0053985748
229	0xb8b0e647	-8.4352265e-05
230	0xbcad99ae	-0.021191444
231	0xbc23135a	-0.009953344
232	0xbcb9e49b	-0.022692015
233	0xbc4bc1b7	-0.012436322
234	0xba8780ea	-0.0010338102
235	0x3d0fd01b	0.035110574
236	0x3c9d97c5	0.019237408
237	0x3e2b0c7e	0.16703984
238	0x3ac7fc97	0.0015257773
239	0x3b057c72	0.0020368365
240	0x3b7be33d	0.0038435005
241	0x3b1b5272	0.0023700264
242	0x3a0ffd1f	0.0005492735
243	0x3d87ce4a	0.066311434
244	0x3c2e3611	0.010633008
245	0xbb76b47f	-0.0037644205
246	0x3c3e0ab0	0.011599228
247	0x3c8550e3	0.016273921
248	0xbadc2680	-0.0016796142
249	0x3bb28e6c	0.005449107
250	0xbca054b9	-0.019571649
251	0x3c9c291a	0.019062568
252	0xbc2c1810	-0.010503784
253	0x3ccf8882	0.025333647
254	0x3d37f8a5	0.04491486
255	0xbc10ed0e	-0.008845581

ClassificationFd2da27.0.weight f4 [150]
0	0x3f92a173	1.145552
1	0x3f810109	1.0078441
2	0x3f903e33	1.1268982
3	0x3f8e7e1b	1.1132234
4	0x3e3344b4	0.17506677
5	0x3f8f59a5	1.1199232
6	0x3f898389	1.0743266
7	0x3fa8317c	1.3140101
8	0x3f89eeb7	1.0775975
9	0x3f96440e	1.1739519
10	0x3f9db93f	1.2322158
11	0x3f21ab56	0.6315206
12	0x3f93b08a	1.153825
13	0x3f7a2a6a	0.9772097
14	0x3f8c6cb8	1.0970678
15	0x3f931ae8	1.1492586
16	0x3f9625f7	1.1730336
17	0x3f603675	0.87583095
18	0x3f9cbf11	1.2245809
19	0x3f9655e7	1.1744965
20	0x3f993f42	1.197243
21	0x3f64547d	0.8919142
22	0x3fa02ffc	1.2514644
23	0x3f80f4a7	1.0074662
24	0x3f903ae7	1.1267976
25	0x3f76be86	0.96384466
26	0x3f82d1ff	1.0220336
27	0x3f53e691	0.8277369
28	0x3f9f0be1	1.24255
29	0x3f94d7c6	1.1628349
30	0x3f9bd46a	1.2174199
31	0x3f8dba55	1.1072489
32	0x3f2838b3	0.65711516
33	0x3f898dbe	1.0746381
34	0x3f9f2687	1.2433633
35	0x3f9aeb03	1.210297
36	0x3f9844ad	1.1895958
37	0x3f93375b	1.1501268
38	0x3f849800	1.0358887
39	0x3f961534	1.1725221
40	0x3fa5e7fa	1.2961419
41	0x3f8de2fa	1.1084893
42	0x3f8ece8f	1.1156787
43	0x3f12856d	0.5723484
44	0x3f910992	1.1331046
45	0x3f8db877	1.1071919
46	0x3fa6ce67	1.3031739
47	0x3f8d3d0a	1.1034253
48	0x3f680a52	0.9064075
49	0x3f9401a9	1.1563007
50	0x3f94b574	1.1617875
51	0x3f992ae8	1.1966219
52	0x3f96bd4f	1.1776522
53	0x3f81a52f	1.0128535
54	0x3f9e6431	1.2374326
55	0x3e74ef9f	0.23919533
56	0x3f937f96	1.1523311
57	0x3f88448b	1.0645918
58	0x3f3688be	0.713024
59	0x3f975acc	1.1824584
60	0x3ed53681	0.41643146
61	0x3f8aab2b	1.0833486
62	0x3e8440da	0.25830728
63	0x3f8d06ff	1.101776
64	0x3f94db54	1.1629434
65	0x3f8e0762	1.1096003
66	0x3f9abc46	1.2088706
67	0x3f949132	1.160681
68	0x3d57d6a3	0.052694928
69	0x3f98004c	1.1875091
70	0x3f7c672c	0.9859493
71	0x3f92963e	1.14521
72	0x3f8060aa	1.00295
73	0x3f8b2457	1.0870465
74	0x3f95d0b9	1.1704322
75	0x3f9ad05a	1.2094834
76	0x3f96b7e7	1.1774873
77	0x3fa0b042	1.255379
78	0x3f4d6da3	0.8024542
79	0x3f9b6040	1.2138748
80	0x3fa9ac6f	1.3255748
81	0x3f9323f1	1.1495343
82	0x3f90e1a6	1.1318862
83	0x3fb113d9	1.3834182
84	0x3f90011f	1.1250342
85	0x3f9bbcab	1.2166952
86	0x3fa4c48b	1.287248
87	0x3f8f03e3	1.1173061
88	0x3f8fe7db	1.1242632
89	0x3b0b213b	0.0021229524
90	0x3f9c699e	1.2219732
91	0x3f907e97	1.1288632
92	0x3fa00268	1.2500734
93	0x3f933f80	1.1503754
94	0x3f7ca845	0.9869426
95	0x3f7ed982	0.9955064
96	0x3fad7001	1.3549806
97	0x3f9707c1	1.1799241
98	0x3f9a9948	1.2078028
99	0x3ccbd7a9	0.024883108
100	0x3fa0fc97	1.2577084
101	0x3f7db3d6	0.9910253
102	0x3f907f8d	1.1288925
103	0x3f9ab6d3	1.2087044
104	0x3f9d408e	1.2285326
105	0x3f9a6ef4	1.206511
106	0x3f941e16	1.1571681
107	0x3f8ebe38	1.11518
108	0x3f107325	0.56425697
109	0x3f6955bd	0.9114645
110	0x3f79a062	0.9751035
111	0x3f88a870	1.0676403
112	0x3f90cc34	1.1312318
113	0x3f10b327	0.56523365
114	0x3f950ae7	1.1643952
115	0x3f8d0bde	1.1019247
116	0x3f737896	0.95105875
117	0x3f98f832	1.1950743
118	0x3fa49366	1.2857482
119	0x3f611a76	0.87931
120	0x3f6935fd	0.91098005
121	0x3f943e67	1.1581544
122	0x3f7cf2c4	0.9880793
123	0x3f8fe511	1.124178
124	0x3f15232e	0.58256805
125	0x3f94d847	1.1628503
126	0x3f865005	1.049317
127	0x3f47013f	0.77736276
128	0x3f84fda5	1.0389906
129	0x3f9cf878	1.2263327
130	0x3f8c4ce3	1.0960964
131	0x3e1c1346	0.15241727
132	0x3fa63dee	1.298765
133	0x3f94e852	1.1633399
134	0x3fa3ef3f	1.2807387
135	0x3f8f23ca	1.1182797
136	0x3f8f165e	1.1178701
137	0x3f4046f7	0.75108284
138	0x3efd1806	0.4943239
139	0x3f8262c6	1.0186393
140	0x3fa1b7fe	1.2634275
141	0x3f8f7a21	1.1209146
142	0x3f960857	1.1721295
143	0x3f9a87d0	1.2072697
144	0x3f34608b	0.7045981
145	0x3fa5168e	1.2897508
146	0x3f80561d	1.002628
147	0x3f96c321	1.1778299
148	0x3f8af863	1.0857052
149	0x3f85dcdc	1.0458026

ClassificationFd2da27.0.bias f4 [150]
0	0x3ddd4438	0.10804027
1	0xbaa18660	-0.0012323372
2	0x3e03d034	0.12872392
3	0xbd309763	-0.043113124
4	0xbb8a6ae5	-0.0042241686
5	0x3d55f291	0.052233282
6	0x3c8ca864	0.017170139
7	0x3d9f773d	0.07786415
8	0x3df1e773	0.118117236
9	0x3ca0910f	0.01960042
10	0xbc6ad66e	-0.014333351
11	0xbc745fed	-0.014915449
12	0x3d716dfb	0.058942776
13	0xbd20c1f6	-0.039247476
14	0x3e28b2f3	0.16474514
15	0xbd8f19c5	-0.06987337
16	0xbbcbc118	-0.006218087
17	0x3d8467d2	0.06465115
18	0x3cd2bc84	0.025724657
19	0x3c09f1c5	0.008419459
20	0xbd38410c	-0.04498391
21	0x39319ac5	0.00016937692
22	0xbcef8941	-0.029240252
23	0xbdb704ff	-0.089365
24	0xbd23de75	-0.040007073
25	0x3dff003f	0.12451219
26	0x3d8c3878	0.06846708
27	0x3d79e0bb	0.061005335
28	0x3c2485b4	0.010041643
29	0xbda04aa5	-0.07826737
30	0xbd240e7e	-0.040052883
31	0xbce11f90	-0.02748087
32	0xba807a45	-0.0009802064
33	0xbd9e7954	-0.07737985
34	0xbcacff7f	-0.021117924
35	0x3c6c1fb9	0.01441186
36	0x3e035b19	0.1282772
37	0x3d7348b3	0.059395503
38	0xbc01918d	-0.007908237
39	0x3d340fae	0.043960266
40	0x3d2030e9	0.039109144
41	0x3dff1ba1	0.12456442
42	0x3dac8462	0.084236875
43	0xbc70b2e3	-0.014691087
44	0x3d87bbc1	0.06627608
45	0xbc9680f8	-0.018372044
46	0x3d4c16a5	0.049826283
47	0x3a339633	0.00068506895
48	0x3de319e1	0.110889204
49	0xbd8f3b39	-0.06993718
50	0xbd5a0476	-0.05322691
51	0xbc06b292	-0.008221285
52	0x3cfe6b61	0.031057062
53	0x3b73489d	0.0037122138
54	0x3c7c6663	0.01540527
55	0xbcb399db	-0.02192395
56	0xbd80b3ec	-0.062843174
57	0xbda143c4	-0.078742534
58	0xbd87b242	-0.06625797
59	0x3dc19859	0.09452886
60	0xbcf802a6	-0.0302747
61	0xbe017a60	-0.12644339
62	0xbc9f5dc9	-0.0194539
63	0x3d59438d	0.053042937
64	0x3d7ee47a	0.06222961
65	0xbd9233c8	-0.07138783
66	0xbc758b6e	-0.014986856
67	0xbd61249b	-0.05496655
68	0xbbca5db9	-0.0061757234
69	0x3dba4b3b	0.0909638
70	0x3d3633c3	0.044482958
71	0x3e257cfb	0.16160958
72	0x3d84b57f	0.0647993
73	0xbe056398	-0.13026273
74	0x3e534801	0.20632936
75	0xbcbbccba	-0.02292477
76	0xbab2778b	-0.0013615949
77	0x3da6ccf5	0.08144561
78	0x3c2a8add	0.010409084
79	0xbe38f0c9	-0.18060602
80	0x3d86f692	0.06589998
81	0xbc6fea9f	-0.01464334
82	0x3cd71c8e	0.026258733
83	0x3c8eb63d	0.017420882
84	0x3df53570	0.11973083
85	0xbc2e9f03	-0.010658029
86	0xbcb1ffcd	-0.02172842
87	0x3d932a0e	0.07185756
88	0xbd87e234	-0.06634942
89	0xba09a84f	-0.0005251215
90	0x3e01e608	0.12685406
91	0x3dbe9bef	0.09307086
92	0xbd027348	-0.031848222
93	0x3dcaedaa	0.09908612
94	0x3dcc9ea0	0.09991193
95	0x3ccbfa21	0.024899544
96	0xbdf31e03	-0.11870959
97	0x3c17334a	0.009228537
98	0x3d845c80	0.064629555
99	0xba615ffc	-0.00085973716
100	0x3e325ebb	0.1741895
101	0xbd26ced2	-0.040724583
102	0xba1a6c9d	-0.00058908184
103	0xbd1b446c	-0.03790705
104	0xbdba0723	-0.090833925
105	0xbd1a0ad5	-0.037607986
106	0x3d9ff4f2	0.078103915
107	0xbda53869	-0.080674
108	0x3d2cc0f1	0.04217619
109	0xbdd5db58	-0.10442227
110	0xbd975e97	-0.073910885
111	0x3dce3e80	0.10070515
112	0xbcdd216d	-0.026993478
113	0x3c8b9aa6	0.017041516
114	0x3d6b8649	0.05750111
115	0x3dccce8f	0.100003354
116	0xbda06160	-0.07831073
117	0x3dbf1947	0.09330993
118	0xbd05b15f	-0.032639857
119	0x3d631439	0.055439208
120	0xbd57e679	-0.05271003
121	0x3de18b1e	0.110128626
122	0x3c8cf0b7	0.017204626
123	0x3e2a7bf7	0.16648851
124	0x3d246819	0.040138338
125	0x3e148dbe	0.14507195
126	0xbdadfc90	-0.08495438
127	0xbd256bb0	-0.040385902
128	0x3db0510f	0.08609211
129	0xbe0f553c	-0.13997358
130	0xbdb04302	-0.08606531
131	0xbc76d732	-0.015065955
132	0x3d816be2	0.06319405
133	0x3e136cdb	0.14396994
134	0x3d6471f4	0.055772737
135	0x3de8bfb7	0.11364692
136	0xbb744e38	-0.0037278067
137	0xbd9d48ca	-0.07679899
138	0x3ae49b65	0.0017441331
139	0xbde13f7b	-0.10998436
140	0xbcdcd8ac	-0.026958786
141	0xbc0f3d1b	-0.008742596
142	0xbd2adabd	-0.04171251
143	0xbc3eabd1	-0.011637644
144	0xbc8e3634	-0.01735983
145	0x3dbecd7b	0.09316536
146	0x3d567aaf	0.052363094
147	0x3dbeaf64	0.09310797
148	0xbe281b05	-0.16416557
149	0xbd0f0360	-0.034915328

ClassificationFd2da27.0.running_mean f4 [150]
0	0xbe1bf769	-0.15231098
1	0x3d447ec4	0.047972456
2	0xbe9b6481	-0.30350116
3	0x3e23c244	0.15992075
4	0x3d349d5d	0.044095386
5	0xbd8ed307	-0.06973844
6	0xbdd16432	-0.10224189
7	0x3dcfa2b7	0.10138457
8	0xbdf02c98	-0.117272556
9	0x3cc14ab8	0.023595199
10	0xbd9abe00	-0.07555771
11	0x3b10036c	0.0021974696
12	0xbe32c623	-0.17458396
13	0x3da432d5	0.08017508
14	0xbe8ed48c	-0.27896535
15	0x3cb7cb8e	0.02243593
16	0x3eef1b6c	0.4670061
17	0xbd5c362f	-0.05376261
18	0x3d2f7e66	0.042845152
19	0x3e8c2fe2	0.27380282
20	0xbe892113	-0.26783046
21	0x3cb46fb8	0.022025928
22	0x3d67a340	0.05655217
23	0xbd526389	-0.051364455
24	0x3d1c8318	0.03821096
25	0xbe0ac075	-0.13549979
26	0x3d5df1f0	0.054185808
27	0x3d6f67e3	0.058448683
28	0x3e8cb498	0.27481532
29	0x3ec35ee7	0.38158342
30	0x3e2bb665	0.16768797
31	0xbddacf92	-0.10684122
32	0x3c48d424	0.0122576095
33	0xbb015f47	-0.0019740628
34	0x3ea03530	0.3129058
35	0x3e34fdc3	0.17674927
36	0x39cf1d23	0.00039503825
37	0x3be220ee	0.006900898
38	0x3dd19b22	0.10234667
39	0xbe9cb5e5	-0.30607525
40	0x3c147372	0.009060727
41	0xbe4fb9c5	-0.20285709
42	0xbe729c2a	-0.23692384
43	0x3c540a25	0.012941872
44	0x3db8c301	0.09021569
45	0x3da92554	0.08259073
46	0xbdac0780	-0.08399868
47	0xbed09c36	-0.4074418
48	0x3d5d42de	0.054018848
49	0x3e926e75	0.28599897
50	0x3d912431	0.07086981
51	0x3e4a8eaf	0.19780992
52	0xbd0bf8c5	-0.034172792
53	0xbddd0553	-0.10792031
54	0x3eb76fb7	0.3582742
55	0x3b3ec762	0.002911054
56	0x3ebed7b0	0.37273932
57	0xbc51ec73	-0.012812722
58	0xbf2c2b8a	-0.67253935
59	0xbe98f739	-0.29876116
60	0xbb49c055	-0.0030784805
61	0x3eb66e85	0.35631195
62	0xbdcf19cd	-0.10112343
63	0xbe73e057	-0.23816048
64	0xbe469721	-0.19393589
65	0xbc87fce1	-0.016600074
66	0x3e204c00	0.15653992
67	0xbe7ad841	-0.24496557
68	0xbc44d5f2	-0.012013899
69	0x3e69bc8e	0.22825834
70	0xbc4ab78d	-0.0123728635
71	0xbe71eee4	-0.23626286
72	0x3dc67371	0.096899875
73	0xbdc24a31	-0.09486807
74	0x3d2af1fa	0.041734673
75	0x3ec8a301	0.39186862
76	0x3e1fa341	0.1558962
77	0xbe3f6ae3	-0.18693118
78	0x3b6b00d0	0.0035858639
79	0x3cc0dbb8	0.02354227
80	0x3d3839f5	0.044977147
81	0xbd9b5fdb	-0.07586642
82	0xbe6b3aae	-0.22971603
83	0x3da0de4c	0.078549
84	0xbea30e5b	-0.3184689
85	0x3da7e29a	0.08197518
86	0x3e6c2ae8	0.23063242
87	0x3de4b3d9	0.11167116
88	0x3e35cf5d	0.17754884
89	0xbbf8d52c	-0.0075937714
90	0xbeae9e10	-0.34104967
91	0xbe4bd659	-0.19905986
92	0x3edf0c40	0.43564034
93	0xbb83d2c7	-0.0040229294
94	0x3d2bd267	0.041948702
95	0xbc5e52ea	-0.013569573
96	0x3ea5d70c	0.3239063
97	0x3e461d6b	0.1934716
98	0xbccbd349	-0.024881022
99	0x3cc711b8	0.024300441
100	0xbd0d44cc	-0.034489438
101	0xbb044ae4	-0.002018624
102	0x3d074180	0.03302145
103	0xbe40e927	-0.1883894
104	0x3e7f245a	0.24916211
105	0xbcf1a1f4	-0.02949617
106	0x3e3c2c60	0.18376303
107	0x3ecb60df	0.39722344
108	0xba821746	-0.0009925149
109	0x3d19f2a4	0.037584916
110	0xbd2d9628	-0.04237953
111	0x3d995571	0.07487
112	0xbd7c1481	-0.06154299
113	0xbc215ad6	-0.009848317
114	0xbccff5b4	-0.025385715
115	0xbdab8c30	-0.08376348
116	0x3dc677ea	0.096908405
117	0xbe9a979c	-0.30193794
118	0x3e0bffc5	0.13671787
119	0x3edc5b12	0.4303823
120	0x3c571774	0.01312815
121	0xbab9f23f	-0.0014186575
122	0xbdf43d56	-0.119257614
123	0xbe21b1ee	-0.15790531
124	0xbbf824f2	-0.0075727636
125	0x3e67fdc1	0.22655393
126	0xbdd713d5	-0.105018295
127	0xbba91cc9	-0.005160902
128	0x3debe00c	0.11517343
129	0xbcb95cc6	-0.022627246
130	0x3d8521f6	0.06500618
131	0xbaa80982	-0.0012820216
132	0x3ed94178	0.4243276
133	0x3e8ec4d4	0.27884543
134	0xbcdd848e	-0.027040746
135	0xbe936118	-0.28785014
136	0x3d8a15af	0.06742417
137	0x3d1e02ce	0.038576894
138	0xbc060fe7	-0.008182502
139	0xbd232694	-0.039831713
140	0x3df81ad5	0.12114493
141	0x3ea227d4	0.3167101
142	0x3da52774	0.08064166
143	0x3e97cc85	0.29648224
144	0x3c842680	0.01613164
145	0xbe91d5b3	-0.28483352
146	0xbcb15a1b	-0.021649411
147	0xbd8370d0	-0.06418002
148	0x3cd4e496	0.025987905
149	0xbea6c284	-0.3257028

ClassificationFd2da27.0.running_var f4 [150]
0	0x380f8159	3.421432e-05
1	0x36b0180d	5.2480086e-06
2	0x36e6aad6	6.874422e-06
3	0x37361bdf	1.0854535e-05
4	0x34b80cf5	3.4282098e-07
5	0x382fbc95	4.1898882e-05
6	0x380bc5e9	3.33245e-05
7	0x388cd1b6	6.714782e-05
8	0x37a27607	1.9366866e-05
9	0x380a2de4	3.2944503e-05
10	0x3860d98e	5.3608375e-05
11	0x34a154e7	3.0050361e-07
12	0x375663f2	1.2778664e-05
13	0x38ced2a8	9.862083e-05
14	0x37a53c59	1.9697634e-05
15	0x37b8a3ab	2.2010723e-05
16	0x37847a05	1.5792446e-05
17	0x373b2bd1	1.115627e-05
18	0x384048b1	4.5844066e-05
19	0x38b5f8ed	8.6771186e-05
20	0x3781ae18	1.5459067e-05
21	0x360eaa3b	2.1258736e-06
22	0x3824c5c6	3.9284838e-05
23	0x37b4082d	2.146148e-05
24	0x3826d99f	3.978016e-05
25	0x3725ec1a	9.889738e-06
26	0x37b06c5e	2.1031297e-05
27	0x373a3bc0	1.1100376e-05
28	0x389d7eba	7.509948e-05
29	0x378e77ac	1.6983446e-05
30	0x3891cb13	6.951964e-05
31	0x3765e9eb	1.3703927e-05
32	0x3668c420	3.4684854e-06
33	0x378bb4c7	1.6654272e-05
34	0x374c665b	1.2183179e-05
35	0x3820e7d8	3.8362894e-05
36	0x38a07421	7.651025e-05
37	0x38060f18	3.1962147e-05
38	0x384be745	4.8614358e-05
39	0x38a1afbc	7.709811e-05
40	0x38819ef9	6.18081e-05
41	0x3782e078	1.5601734e-05
42	0x378969f2	1.6381007e-05
43	0x35af366a	1.3054353e-06
44	0x38467d61	4.7323647e-05
45	0x377cd92c	1.5070935e-05
46	0x382aa6c8	4.0686486e-05
47	0x378671c7	1.6027027e-05
48	0x3573de2d	9.084786e-07
49	0x3734d6af	1.0778821e-05
50	0x37ab0497	2.0386926e-05
51	0x37eb8f60	2.8080947e-05
52	0x38378db2	4.3762564e-05
53	0x37db4b46	2.6141886e-05
54	0x3752be96	1.256135e-05
55	0x362cfe76	2.5778113e-06
56	0x373fc3a8	1.1430042e-05
57	0x387da27e	6.0471233e-05
58	0x3720c028	9.581483e-06
59	0x371f539d	9.496606e-06
60	0x34bbc99a	3.497815e-07
61	0x37c59213	2.3552251e-05
62	0x35fa9b33	1.867162e-06
63	0x379f86f4	1.901712e-05
64	0x3720abc3	9.576735e-06
65	0x37702be0	1.431533e-05
66	0x37e15c42	2.6865051e-05
67	0x37ca4231	2.41111e-05
68	0x34ba17b7	3.4662455e-07
69	0x379da540	1.8792809e-05
70	0x371feb3f	9.531911e-06
71	0x378615ae	1.598414e-05
72	0x36b44f24	5.373631e-06
73	0x370427be	7.877066e-06
74	0x3965a5f7	0.00021900969
75	0x37f47773	2.914269e-05
76	0x38210c99	3.8397124e-05
77	0x381751e8	3.6077487e-05
78	0x36cc56e6	6.08979e-06
79	0x37b05bbf	2.1023558e-05
80	0x387e83cd	6.0681068e-05
81	0x3748d8b0	1.197138e-05
82	0x37866940	1.6023056e-05
83	0x38c14e26	9.2175134e-05
84	0x3784d2ce	1.583379e-05
85	0x37f40c7b	2.9092878e-05
86	0x37bd039e	2.253224e-05
87	0x3aae6702	0.0013305845
88	0x37c46d1d	2.341583e-05
89	0x353f9340	7.136732e-07
90	0x3766a101	1.3746555e-05
91	0x37d4574f	2.5313026e-05
92	0x3734ba0c	1.07721535e-05
93	0x382d1583	4.126645e-05
94	0x373d189e	1.12710095e-05
95	0x3775cf41	1.4651393e-05
96	0x38c56ae4	9.413602e-05
97	0x379ffac0	1.9071042e-05
98	0x3887a118	6.467308e-05
99	0x354ba923	7.586952e-07
100	0x3837e6d4	4.3845575e-05
101	0x379341d0	1.7554412e-05
102	0x384b89d7	4.8527345e-05
103	0x3742ff1c	1.1622698e-05
104	0x37caeda4	2.4190937e-05
105	0x38722fd6	5.7741847e-05
106	0x37827ba6	1.5554786e-05
107	0x37b1907c	2.1167325e-05
108	0x350106a0	4.8065885e-07
109	0x383d0b68	4.5071734e-05
110	0x3695b9e3	4.462186e-06
111	0x37f26b86	2.8898718e-05
112	0x37ea65c3	2.794236e-05
113	0x35ac33b0	1.2830042e-06
114	0x385b23c7	5.224699e-05
115	0x37ba32d9	2.2196606e-05
116	0x37066c3c	8.012223e-06
117	0x378f1604	1.705718e-05
118	0x38ea0e34	0.00011160635
119	0x373bd63e	1.1195951e-05
120	0x36563979	3.1921938e-06
121	0x384a610b	4.825093e-05
122	0x37b0812f	2.104099e-05
123	0x37983795	1.8145694e-05
124	0x357bc100	9.378564e-07
125	0x373cf3d0	1.126244e-05
126	0x371a59f2	9.200057e-06
127	0x35d5c77f	1.5927798e-06
128	0x370575b4	7.954823e-06
129	0x37da6fb8	2.6039648e-05
130	0x371c86f2	9.329744e-06
131	0x349895b0	2.8421118e-07
132	0x37dc2c93	2.62468e-05
133	0x371e7aee	9.446156e-06
134	0x389613c7	7.156241e-05
135	0x373f6189	1.1407196e-05
136	0x37f6df5f	2.94295e-05
137	0x366d98f2	3.5404778e-06
138	0x36136cc8	2.1968026e-06
139	0x384bd90f	4.8601123e-05
140	0x38667369	5.4943757e-05
141	0x379519b2	1.777415e-05
142	0x37cc4c9a	2.4354365e-05
143	0x36d33a43	6.2950726e-06
144	0x36f62b5e	7.33642e-06
145	0x38a45e41	7.8376856e-05
146	0x379ae837	1.8466364e-05
147	0x37d2fc1a	2.5151345e-05
148	0x37317b66	1.0578753e-05
149	0x371fb8dc	9.520179e-06

ClassificationCat.0.weight f4 [1, 150]
0	0x3e6fc34b	0.23414342
1	0x3e15d879	0.14633359
2	0x3e662dc0	0.2247839
3	0xbe5fc1c4	-0.2185126
4	0xbc9c5727	-0.019084526
5	0xbe7299e8	-0.23691523
6	0x3e3fd09d	0.18731923
7	0xbebb27b8	-0.3655374
8	0x3e5304ac	0.20607251
9	0x3e9a8b55	0.30184427
10	0x3ea812f1	0.3282695
11	0x3cd531f5	0.026024798
12	0x3e790698	0.24318922
13	0xbe471884	-0.19442946
14	0x3e589e12	0.21154049
15	0xbe829b01	-0.25508884
16	0xbe94b708	-0.29045892
17	0x3e19a8d0	0.15005803
18	0x3e99bfe1	0.30029204
19	0xbe8e0750	-0.27739954
20	0xbe99dca0	-0.30051136
21	0x3dc83482	0.0977564
22	0xbeaf5be4	-0.34249794
23	0x3e6a529a	0.22883072
24	0xbe8c17df	-0.27361962
25	0x3e73911f	0.23785828
26	0x3e6757f0	0.22592139
27	0x3def1ffa	0.11676021
28	0xbea5c619	-0.323777
29	0xbe8b3224	-0.27186692
30	0xbea0ccdc	-0.31406295
31	0xbe826f25	-0.25475422
32	0xbde352e4	-0.110997945
33	0xbe4c53fb	-0.19953911
34	0xbea0610b	-0.31324038
35	0xbe9a38fa	-0.30121595
36	0x3e8ed5d4	0.27897513
37	0x3e89139b	0.2677277
38	0xbe467cf7	-0.19383608
39	0x3e84d43e	0.25943178
40	0x3ec8a677	0.39189503
41	0x3e51d39d	0.2049088
42	0x3e50a953	0.20377092
43	0xbd088704	-0.033331886
44	0x3e81753d	0.25284758
45	0xbe76e468	-0.24110568
46	0x3eaff71b	0.34368214
47	0x3e5bd0a1	0.21466304
48	0x3e037a26	0.12839565
49	0xbe87e82f	-0.2654433
50	0xbe93e337	-0.2888429
51	0xbe8f870f	-0.2803273
52	0xbe8e6a57	-0.27815506
53	0x3e1494b9	0.14509858
54	0xbea48062	-0.32129198
55	0xbc906a5c	-0.017628841
56	0xbe81bfe6	-0.2534172
57	0x3e7255bc	0.23665518
58	0x3e033859	0.12814464
59	0x3e8e2d6a	0.27769023
60	0xbdb63313	-0.088964604
61	0x3e85068d	0.2598156
62	0xbc26b502	-0.010174992
63	0xbe67f53d	-0.22652145
64	0x3e7d1658	0.24715555
65	0xbe6e3713	-0.23263197
66	0xbea10367	-0.31447908
67	0xbe8d1a10	-0.27558947
68	0xbc254717	-0.01008775
69	0x3e90bad0	0.28267527
70	0x3e1bd9a8	0.15219748
71	0x3e75f085	0.24017532
72	0x3e2f50eb	0.17120712
73	0xbe9b2792	-0.30303627
74	0x3e81af38	0.25328994
75	0xbe90627c	-0.28200138
76	0xbe817de3	-0.25291356
77	0x3ea48811	0.3213506
78	0xbe0b9844	-0.13632303
79	0xbeaa76de	-0.33293813
80	0xbebf4a65	-0.37361446
81	0xbe837ddc	-0.2568196
82	0x3e57e149	0.21082033
83	0xbed86e93	-0.4227186
84	0x3e6003a7	0.21876393
85	0xbe9b43d1	-0.30325177
86	0xbeb6fb16	-0.35738438
87	0xbe6352f8	-0.22199619
88	0xbe78d0f6	-0.24298462
89	0xb9e05d76	-0.00042794243
90	0x3e9a9f91	0.30199865
91	0xbe85d2a3	-0.26137266
92	0xbe9fdace	-0.31221622
93	0x3e7f9f3b	0.24963085
94	0x3e231f2e	0.15929863
95	0xbe339cd2	-0.17540291
96	0xbee647c5	-0.4497663
97	0x3e909124	0.28235734
98	0x3e9cde3b	0.30638298
99	0xb9fb7623	-0.0004796247
100	0x3eaf964b	0.34294352
101	0xbe193dde	-0.14965007
102	0x3e7469ac	0.23868436
103	0x3e9c42cb	0.3051971
104	0xbea54467	-0.3227875
105	0x3ea7b6ce	0.32756656
106	0x3e87730b	0.26454958
107	0xbe85bbbf	-0.261198
108	0x3d94ff77	0.072752886
109	0xbe1ae70b	-0.15127198
110	0xbe4058d0	-0.1878388
111	0x3e51b776	0.20480141
112	0xbe823c6c	-0.25436723
113	0xbdafab63	-0.08577611
114	0x3e8e50f1	0.27796128
115	0x3e4ae865	0.19815214
116	0x3e1b8867	0.15188752
117	0x3e8963c6	0.26833934
118	0xbeb20bdd	-0.34774676
119	0xbe106ff8	-0.14105213
120	0xbe2a556e	-0.16634151
121	0x3e74786b	0.23874061
122	0x3e09c0d8	0.1345247
123	0x3e6d0eb5	0.23150142
124	0xbdaa407e	-0.08313082
125	0x3e8a902b	0.27063116
126	0xbe72820c	-0.23682421
127	0xbe10929a	-0.14118424
128	0x3e30c694	0.17263252
129	0xbeb06c80	-0.3445778
130	0xbe7d114f	-0.24713634
131	0x3c02bc99	0.0079795355
132	0x3eb3c672	0.3511234
133	0x3e8f0360	0.27932262
134	0xbebc384e	-0.36761707
135	0x3e61f74e	0.22066996
136	0xbe6af8c0	-0.22946453
137	0xbe17eda3	-0.14836745
138	0xbdcff908	-0.10154921
139	0x3e5d3e8a	0.21605888
140	0xbeb044ff	-0.3442764
141	0xbe726226	-0.23670253
142	0xbe88d5f5	-0.26725736
143	0xbe965ee9	-0.29369286
144	0xbe243147	-0.16034423
145	0x3eb5690e	0.35431713
146	0xbe0fa3c3	-0.14027314
147	0x3e7cbf09	0.24682249
148	0xbe82c1b3	-0.25538406
149	0xbe8e22c5	-0.27760902
