models/2023-05-11_23-27/pytorch/1-F_5-E_5.pt (torch, 411855 bytes, 9 tensors)

Fd2da27LSTM.weight_ih_l0 f4 [600, 17]
00000000: 1cbc 753c f20d 21bb e9d9 72bc f3a3 ed3c
00000010: bdac cc3c 6ef9 983b fc09 af3d 945a 6d3b
00000020: 3462 f5ba 2765 22bb 731b 5e3d 6e46 80bc
00000030: 8b59 c33c e5d8 023d 9589 d8bc 17ec a73c
00000040: c94b 3bbd f804 613d bacb c53c f5e6 84bb
00000050: bebe 513d c697 f2bc f91e ffba 0bdc 36bc
00000060: c12a 1c3d 395b d5bc ae1a fdbb 4fc4 87bc
00000070: 5937 bf3c 0bfc 063d 9e48 bb3c aa0a 243d
00000080: ff07 a83c 008f fe3c 28cc 213c e015 203d
00000090: 7b2c 653d ab67 d63d 18e6 043d 3834 8f3d
000000a0: 8a19 e23d fb22 f93c 4fe9 b23d 7c1a 143d
000000b0: f728 833d dcb0 ba3d e4aa aa3c d38d 8b3d
000000c0: e9b8 443d 2971 883d 3fc6 913c bb93 0c3d
000000d0: 99ca 243d d8d5 9b3a ac4a c13d 3a7d bb3d
000000e0: c46e 22be 54d9 703c 98e4 db3d bd56 d1bc
000000f0: 246c 153d 3cc4 463c 2d1f 89bd cf8b adbb
00000100: 01ce 0bbc f465 f1bd ec48 82bd b960 903c
00000110: a85e 1e3d d907 243d 215d 7d3d fa28 ae3d
00000120: ac2e 7f3d a4c4 b0b9 1caa bc3d dec3 d83d
00000130: e15b d73b 18bb 863d b07e 5f3d c853 a83d
00000140: a834 eb3d f593 c33d 6147 30bc 06ad 943d
00000150: d983 b3bc 385d bdbc 7b1a 55bd a2cf 863c
00000160: 9928 0ebd 4a1d e139 1dec 9dbb 74b5 5c3d
00000170: 7508 553d 547e fa3c 551f 113c 1965 7e3d
00000180: 6044 c7bc 792a 693d efba 613c a020 83bb
00000190: e549 00bd 4b34 af3c ccb7 5dbd 7890 86bc
000001a0: f1a4 10bd 930f e43b dd4a 153d 4ee8 be3d
000001b0: 0002 fbbc f28b 9fbc e792 2f3d 81fd 5b3d
000001c0: e098 61bc 3e31 2dbd 8086 233d 746f a53d
000001d0: 7029 ecbc 4cc9 c43c d575 edbd a451 f33c
000001e0: 24e3 ad3c a9b9 f2bc 5378 923d 08ec 803d
000001f0: b30a 20bd 6c1c 3f3d 9d35 5c3c ec9b 803c
00000200: 6524 d8bc 30ad 453d 762d 703d da13 df3c
00000210: 5387 713d bca7 8fbc 466b 49bc 49a7 323c
00000220: 1ff5 3fbd 3990 57bd 89aa d3bc 46c4 25bd
00000230: 55a9 0cbd e7ca febb e307 24bd 9675 02bc
00000240: 1111 45bd b7ed 0ebd 75f1 e23b 3bbb 083d
00000250: cf6e 35bd bc11 1abd e1ec 433d 5656 c0bc
00000260: 2480 80bd 4597 57bc 25ad eabc feef 2dbd
00000270: 6b70 0cbd 8b51 09bd 4282 94bd db97 03bd
00000280: 9cb0 86bc aa04 7abd dcbe 9abd 6b3e b8bd
00000290: 8d30 91bc cbd1 83bd 318d ccbd 7ec2 443c
000002a0: b3a4 93bc d80b cfbc 85b2 5a3d acdc e83b
000002b0: 8ea2 f7bc 2d36 dc3c 3616 febb 359a d03c
000002c0: 5e5f 3abc 77f1 4bbc 2158 07bb 3f31 7339
000002d0: 9fbc 9c3d 54f1 bd3c e550 ea3c 53f3 5f3d
000002e0: fd78 c7bb 492c 5ebc a973 d2bc 65d8 853d
000002f0: 6356 a2b9 ea24 12bd aa1f b93d 37a0 713d
00000300: f528 22bd 6a7d ecbd 2cc7 f13d a5b1 b8bc
00000310: 329a 483d 00a3 433d e100 683d 8cdc d4bc
00000320: 898b cbbc 26f6 673a 705e 403d af3b 6d3c
00000330: 8068 f53d 182e c93c bf52 2abe fbb6 ca3c
00000340: ee6a 22bd 51c4 9c3d 4396 57bd 15d9 bcbc
00000350: 637d 48bd 197a ad3d 8d46 7c3d 79a5 12bd
00000360: 5da1 213e 037e 60bb eae3 493d 5a65 693d
00000370: e75c 10bd 1281 5ebc 8f89 34bc 7d9a f63c
00000380: 4816 84bd 7f98 663b 3329 b13d ef12 21bd
00000390: 8b28 5bbd e3da eb3d e1a3 d9bb 55f0 fbbc
000003a0: 4c38 0cbc 0c5c 9b3d 8fa7 193d 85ff a53c
000003b0: 9828 91ba 3e13 92bc 699e 75bc 37cc 14bd
000003c0: f810 0dbc 0152 4f3d 2d6f f03c d627 043d
000003d0: 69b1 ab3c 0090 b23c 488c 063d 85a8 a9bc
000003e0: b9ed 55bd 3001 89ba 3480 05bd 73f8 d1bc
000003f0: d74f 8b3c 783d c93c 2d03 a9bc 0442 3abd
0.014998462 -0.0024574962 -0.014822462 0.029008841 0.024984712 0.004668406 0.08546826 0.003621732
-0.0018721283 -0.002477953 0.054225396 -0.015658583 0.023846408 0.031945128 -0.026432792 0.020498319
-0.04572657 0.05493638 0.024144996 -0.0040558525 0.051207297 -0.029613387 -0.0019464187 -0.011160861
0.03812671 -0.026044475 -0.0077241277 -0.0165731 0.023341822 0.03295521 0.022861775 0.040049233
0.020511625 0.031074047 0.009875335 0.03908336 0.055950623 0.10468992 0.032445997 0.06992382
0.110400274 0.030412188 0.08735906 0.03615807 0.06404298 0.091157645 0.02083344 0.0681416
0.048027907 0.066622086 0.017794726 0.034320574 0.040232275 0.0011889292 0.09438071 0.091547444
-0.15862566 0.014700253 0.1073696 -0.025554055 0.036480084 0.012131747 -0.066953994 -0.0052962075
-0.008533002 -0.11787024 -0.06361565 0.017624246 0.03866449 0.040046547 0.061856393 0.085039094
0.06230037 -0.00033715845 0.09212133 0.10584234 0.006572232 0.06578654 0.054564178 0.08219105
0.11484653 0.09549705 -0.010759206 0.07259564 -0.021913456 -0.02311574 -0.052027207 0.016456429
-0.034706686 0.00042937166 -0.0048194067 0.053883985 0.05201002 0.030577816 0.008857568 0.062108133
-0.024324596 0.05692527 0.013777479 -0.004001692 -0.03132047 0.02138724 -0.05413036 -0.01642631
-0.03531355 0.0069598644 0.03644835 0.09321652 -0.030640602 -0.01947591 0.042864706 0.053708557
-0.013769358 -0.04228329 0.03992319 0.080778986 -0.028828353 0.024021767 -0.1159474 0.029702015
0.021226473 -0.029629545 0.07151856 0.062950194 -0.039072704 0.046657965 0.013440517 0.01569935
-0.026384542 0.048260868 0.058637105 0.027231146 0.058966946 -0.017536037 -0.012293642 0.010904142
-0.046864625 -0.052627776 -0.025838153 -0.040470384 -0.034341175 -0.0077756527 -0.040046584 -0.007962605
-0.04811198 -0.03489467 0.0069257566 0.033381682 -0.04429513 -0.03761457 0.047833327 -0.023478668
-0.06274441 -0.013158624 -0.028647015 -0.042465203 -0.034286898 -0.03352503 -0.07251407 -0.032127243
-0.016441636 -0.061039604 -0.07555935 -0.0899628 -0.017723346 -0.06436499 -0.099878676 0.012009261
-0.01802287 -0.025274202 0.053392906 0.0071063843 -0.03022888 0.026881302 -0.0077541126 0.025464157
-0.011375276 -0.012447706 -0.0020651894 0.00023192631 0.07653164 0.023186363 0.028603027 0.05467541
-0.006087421 -0.013560363 -0.025689917 0.065354146 -0.0003096341 -0.035679735 0.090392426 0.058990683
-0.03958984 -0.11547358 0.11805567 -0.022545645 0.048975177 0.04776287 0.056641463 -0.025984071
-0.024846809 0.00088486297 0.046965063 0.014479562 0.119828224 0.024558112 -0.16633128 0.024745455
-0.039652757 0.07654632 -0.052633535 -0.023052732 -0.048947703 0.08470554 0.06159072 -0.03580234
0.15784211 -0.0034254796 0.04928962 0.056981422 -0.03524485 -0.013580577 -0.011019125 0.030102963
-0.06449562 0.003518611 0.08650436 -0.039324697 -0.05350546 0.11516359 -0.0066418503 -0.030754248
-0.008558344 0.07585916 0.037513312 0.020263443 -0.001107472 -0.017831441 -0.014991381 -0.036327567
-0.008610003 0.050615314 0.029349888 0.032264553 0.02095862 0.02179718 0.032848626 -0.02071024
-0.052228663 -0.0010452624 -0.032592967 -0.025631165 0.017005844 0.024565443 -0.020631397 -0.045473114

Fd2da27LSTM.weight_hh_l0 f4 [600, 150]
00000000: 0af1 a4bc 5656 313d 1e63 9abd e113 8bbd
00000010: a9df 503b 84af 97bb c566 6ebc 11be 94bd
00000020: 361a 51bc 7d0b d3bc 70fa a7bb f2bf 47bb
00000030: a27d 6c3c 8e9c f2bb 79b7 14bd 6a6b a3bc
00000040: a4a1 d6bc f1b4 da3b ff20 c63c 7d9d 0ebb
00000050: 6067 cbbc e3bc 163d 03cd aebb c872 da3c
00000060: 0e84 823d f8de 113d c385 9bbc 8378 d0bc
00000070: db14 233b b2ec 0b3c 62d7 1e3b 51b5 79bd
00000080: e6d1 a1bc 4475 29bd 8592 a03c f437 473c
00000090: 7a33 97bd 637c 3f3d 9a99 933c 3818 943d
000000a0: dfea 89bb 231d b0bc 4dc1 d13c 1712 8abc
000000b0: 3a59 0ebd b2ad 163c f23f 1abc 0d6b 54bc
000000c0: 6a15 82bd b500 683c 57eb f23c 34f0 9f3c
000000d0: 65d1 1a3c 8b79 a93c eefd 2dbd 6f2d 393c
000000e0: 69b8 81bc a4ba 273d 33d6 1ebc 2c94 eb3c
000000f0: ef20 36bd d071 0b3d 7f7a d4bc cba6 2abd
00000100: 7af8 fa3b 9095 5d3c bf59 39bd 1349 5b3b
00000110: 6472 a5bd ef50 dfbb 28bc e13b e1ca 1e3d
00000120: 5ebb b3ba 350d 9bbc d20a ac3c 3863 9d3d
00000130: 1672 85bc 819c 763d c1e3 a7bd aa15 75bd
00000140: eb74 b33c 77eb f93b e0ff 503d b785 e0bc
00000150: 5352 b13c abef b339 fc88 9fbc 0ec4 7d3c
00000160: 525e 183c fb0b 13bd 391e cdbc 5328 d6bc
00000170: b477 5b3c 9495 c03b d054 eabc 0b5f ff3c
00000180: 2f5f 9abc b1c2 173c b4d6 6bbd f3df 62bb
00000190: 15a8 ccbc 5e93 2c3c c2d3 c0bd 15b5 8038
000001a0: 34fc a2bb 2418 7c3d 0166 3cbd 890b 0abd
000001b0: ea3d 02ba 20e0 b43a b351 b3bc 1233 f2bb
000001c0: c63f 04bd 659e fcbc 9410 55bb 7fd6 c2bc
000001d0: 05ce 723d 19d3 3ebc b253 61bc ef10 0d3d
000001e0: 4f3c 443b 481c d63c 5aff 7dbc 5223 c1bc
000001f0: 34f3 ad3c a4d4 41ba abbc 4a3d da15 32bd
00000200: 51a6 05bd ab3d d73b 7f2b 973c 98cf 81bc
00000210: e813 b6bc 15e5 213b 71cc a73c fcdc cc3b
00000220: 363e fb3b cadc 98bc 7ca6 90bc c6d5 653c
00000230: e564 0d3c ab5a c0bc 431f 24bd 115e 1b3d
00000240: c2e0 af3c b6e4 6dbd 9819 fabb 6d5d 023d
00000250: 842c f2bc 845b 71bc 70ad 883b 7506 c53c
00000260: 755f 85bb ee06 223b 2ec1 833c 291a 7cbc
00000270: f1e9 9b3b bb70 4cbd d8e2 06bc 02d3 50bc
00000280: bd34 98bc 8f39 fa3c dec5 153d 53dd 1d3b
00000290: f9f5 25bb 9090 ef3b ab85 07bd 021d 013c
000002a0: 775b 4ebc ee99 5c3c 778e fdbc 9fc5 643d
000002b0: 3cfa 07bc 9798 24bb da03 07bc 479f bfbb
000002c0: e668 a43b c1a3 25bd e9ea 0c3d 8e39 dc3c
000002d0: d321 16bd 9e49 d03c cf22 853c ca89 003b
000002e0: 5ff4 b63c 1c52 0b3d b3b9 23bd 042e 173d
000002f0: f728 553c cc84 003d 43b0 8dbc 1341 60bc
00000300: bb81 173d 2930 133c c459 8c3c 57d2 fb3c
00000310: c15f b4bc 86b0 bc3c d660 3ebc 7fa8 173b
00000320: 2122 f33b ab42 123c c61d 8d3c e9c6 293d
00000330: 401d f6bc e8ef 3ebc 336e 93bc 94b3 48bc
00000340: f062 0fbc 695e d03b e539 c1bc 55c8 e8bb
00000350: 59bb 00bb 069d cfbb dca9 93bb c155 92bc
00000360: c16a 71ba ddb5 ba3b 2e93 20bd 138c b83c
00000370: 02d1 92bc bdcd 393d 8da1 27ba 2912 dd3a
00000380: c21e a03b 9ac6 ac3c 58eb c73c dffc 393d
00000390: c481 1c3d 9bfd e6bb acea 18bd e4c8 473c
000003a0: ed2f e63c 4b24 d33a 996b b73c 02b6 723c
000003b0: b30e 613c 0bca 053c e2da 8cbc bce8 55bb
000003c0: c9f6 2cbc 66b6 1fbd 3361 fc3c d0e0 8abd
000003d0: 3c74 30bc 5f4a e2bb b5a9 92bc 4569 643c
000003e0: b9bc 4b3c 0b9f 783a fecb 20bc ec04 0b3d
000003f0: 73c0 0c3c 4829 393d 2700 8dbb 77f7 45bd
-0.020134468 0.043295227 -0.07538436 -0.06790901 0.0031871593 -0.0046290774 -0.014550869 -0.07262815
-0.012762597 -0.025762314 -0.00512629 -0.0030479399 0.01443425 -0.0074039167 -0.036307786 -0.01994868
-0.026200123 0.006674402 0.024185656 -0.002176135 -0.024829566 0.03680123 -0.005334498 0.02666606
0.06372844 0.03561303 -0.018984681 -0.02544809 0.0024884257 0.008540319 0.0024237265 -0.060963932
-0.019753408 -0.0413716 0.019601116 0.012159336 -0.07382865 0.046749484 0.018017579 0.07231182
-0.004208907 -0.021498268 0.025604868 -0.016854329 -0.03475306 0.009196686 -0.00941466 -0.012964976
-0.06351741 0.014160325 0.029653234 0.019523717 0.009449338 0.020687839 -0.042478494 0.011302336
-0.015835004 0.04094948 -0.009694624 0.028757177 -0.044465 0.034044087 -0.025937317 -0.041662972
0.0076590152 0.013524428 -0.045251604 0.0033460304 -0.08078459 -0.006815068 0.006888885 0.0387677
-0.0013712456 -0.018927196 0.021001253 0.0768494 -0.016289752 0.060207848 -0.081977375 -0.059835114
0.021906337 0.0076269465 0.05102527 -0.02740751 0.0216457 0.00034320107 -0.019474499 0.015488638
0.009299831 -0.035900097 -0.025038825 -0.026142275 0.013395239 0.005877206 -0.028604895 0.03117325
-0.018844215 0.009262727 -0.057577804 -0.0034618347 -0.024982492 0.010533182 -0.094153896 6.137245e-05
-0.0049739126 0.06154646 -0.045995716 -0.033702407 -0.00049683324 0.0013799705 -0.021889543 -0.007391342
-0.03228738 -0.030837247 -0.0032511102 -0.02378392 0.059278507 -0.011647009 -0.013752865 0.034439977
0.0029943173 0.026136532 -0.015502775 -0.023576412 0.021234132 -0.00073940516 0.049496334 -0.04347787
-0.032629315 0.0065686307 0.018453358 -0.015846059 -0.022226289 0.0024703194 0.020483227 0.0062519293
0.007667328 -0.018659968 -0.017657511 0.014028018 0.008630012 -0.023480734 -0.040068876 0.037931506
0.021469478 -0.058079444 -0.0076324455 0.03182738 -0.029562242 -0.014731292 0.004171066 0.02405093
-0.0040702173 0.0024723369 0.016083326 -0.015387096 0.0047581126 -0.049912196 -0.008232795 -0.012745621
-0.018579835 0.030545024 0.036565654 0.0024088218 -0.0025323613 0.0073109344 -0.03308646 0.007880451
-0.012595049 0.013464434 -0.030951722 0.05585253 -0.008299407 -0.0025115365 -0.008240664 -0.0058478448
0.0050173877 -0.04043937 0.034403715 0.026882913 -0.03665335 0.025425728 0.01625195 0.0019613379
0.022333322 0.034013852 -0.03997202 0.03690912 0.013010255 0.031376645 -0.017295962 -0.01368739
0.036988955 0.00898365 0.017132647 0.030739946 -0.022018315 0.023033392 -0.011619767 0.0023141203
0.00741984 0.008927028 0.017226111 0.04144946 -0.030043244 -0.011653878 -0.017996883 -0.012249846
-0.008751616 0.006358911 -0.023587177 -0.0071039596 -0.0019642918 -0.0063358573 -0.004506333 -0.017863156
-0.0009209328 0.0056979493 -0.03920286 0.02252773 -0.017921928 0.045362223 -0.00063946174 0.0016866374
0.004886479 0.021090794 0.024404213 0.045407172 0.03820969 -0.007049275 -0.037333176 0.012193892
0.028099025 0.0016108839 0.022390174 0.014813902 0.013736415 0.008165847 -0.017194215 -0.0032639941
-0.010556885 -0.038992308 0.030808067 -0.06781161 -0.0107699 -0.0069058384 -0.017903188 0.013941114
0.012435132 0.00094841485 -0.0098142605 0.03394024 0.008590805 0.045205384 -0.0043029967 -0.048331704

Fd2da27LSTM.bias_ih_l0 f4 [600]
00000000: e0a5 193c 0219 6d3c fd12 093d 87cb 8c3c
00000010: 3b4d 283d ca70 b93a 2ae2 2ebc 60f5 7f3c
00000020: ce0f 293a 9ad1 91bc 2f95 393c 57dd 1fbc
00000030: efe4 b0bc cb8e d53b a367 f83b 815f 91bb
00000040: c6c5 1bbd 8a73 98bc cf23 afba a6a4 23bb
00000050: 55dc a33b bdbd f33b 1cbe b3bb 403c 58ba
00000060: 4584 ab3b 1303 ec3b 07bc 83bb c46e 13bc
00000070: 5e5f 163b 4927 04bd 98b1 023d 2444 08bd
00000080: 7e09 98bc e358 2c3b eaed 9f3b 93b2 1fbd
00000090: 4816 fdbb e7f4 43bc c3e9 363c 1f55 33bd
000000a0: 8d0e 36bc 5ba0 24bb 5948 8fbb 39fe fdbb
000000b0: ab5c 1dbb 45fc e03a 14d6 b43b 8ba6 523a
000000c0: 221d b3bc fdfb 27bc 02ae b8ba eb4a 203a
000000d0: fc11 e53b b93d bdbc 182d e83c f801 9e39
000000e0: 3da4 423c 68c1 1ebd e426 f4bb a366 193a
000000f0: 4f4c 6a3c b801 87bc b1fe 8bbc 3aae 37bb
00000100: cc3f 893b 87db bcbc 4316 993c d50d 8c3b
00000110: 4f64 f2bc 9b5a 0ebc 118b 98bc d8a3 3fbc
00000120: 2c73 bcbb ce4f dcbb 20cc 86b9 07dd 9e3b
00000130: 88d0 8cbc 32ad ba3b f6dc 85bc 80e3 223c
00000140: b897 2ebb 4a1e 08bc af68 5dbc a180 f3bb
00000150: aa36 a9bc 478a 3c3c 7627 6b3c 2a99 023c
00000160: 49c9 71bc 3670 593b 8f53 e6bb 8411 483b
00000170: 8d24 bb3b c470 553c b345 c33c 6f9a 22bc
00000180: 3922 a1bc 2bbf 953c 3f5e 8ebc 1c46 d63a
00000190: da7f 81bc 743d 91b9 7082 b8bc c159 8abb
000001a0: 6736 db3b 7600 97bd 17d9 5f3c d59f d4bc
000001b0: af32 69bc e49b 483c 3593 2ebc 2719 903b
000001c0: a029 20bc 6967 083c 6f22 d03b 52f5 df3b
000001d0: 9670 d8bb 7ea6 86bc 9fd5 62bc 32d1 05bb
000001e0: 1fe9 e4bc 4187 253c 3f20 60bc 3785 e63b
000001f0: 43fc e83c e32a 863c 46f8 503c 589b aabc
00000200: 6511 d03b 3e2e 07bd 74f1 103b 31be cf3b
00000210: a5bd 483b aef1 61bc 4d25 493c 149e 8ebc
00000220: 0420 85bc 74ab 173d 0f39 78bc 0bb3 a23b
00000230: fa8e c9bb de00 273c b911 133c dd42 ebbb
00000240: 863a 03bc ddff 07bb d894 e7bc 4e20 86bc
00000250: 55b3 1e3c 5bfa 76bc 4cbe b93c 341f 943a
00000260: 73ce c1bc 5a20 2c39 8f59 28bd 2798 193d
00000270: 441d e3b9 b1c1 81bc f16b 8b3b 626a 3fbc
00000280: d916 68bc 0bdd 953b d78e 3d3d 9f33 cf3b
00000290: 603c 063c f73a da3b b42b 973b 281f dbbb
000002a0: 6479 1d3a 58bf 01b9 6d03 513c 873f 853b
000002b0: c60d 59b9 001a 22bc c3f0 3b3c 32dd fdbb
000002c0: ac96 033b 8399 3b3d 42b9 513c f9e4 503d
000002d0: 869b 9bbc f30d c53c 712b 1e3b e93e 6f3c
000002e0: d132 3a3d e028 b53d f133 dc3c 9545 f4bb
000002f0: 3e43 603c 4560 b73c 89b3 223d 6cbd 403c
00000300: d522 213c 2f46 a03c 9f4b 913c 2f6e 3d3b
00000310: a5cd 62bc 48a7 e5bb b0bf 753c f857 0f3b
00000320: 4112 b1bc dc08 9b3c c31e c43b c1b7 70bb
00000330: 4714 03bc 26e6 0b3c 144a 1a3c 7cc7 553c
00000340: d841 31ba 220c a13b 22ef c8bb a970 1e3c
00000350: df7e f13c ad14 343c 1c63 ee3b 00a0 563d
00000360: be91 123c 53d3 c9bc b07f fc3c bb39 ba3c
00000370: f5ea eabc 6835 373d 201f e6bb 171c dabb
00000380: b80b 033c 7f45 943c c994 8dbb a407 ffbb
00000390: e020 79ba 5dd5 993c 0492 a2bc 9031 d03b
000003a0: 2052 89bb 78df 2cbc e9dc ceba 1c29 483c
000003b0: f195 df3b e0e4 bbbc 03da c93c 72d0 fabb
000003c0: 3b58 973c 2bb3 993a 3cc6 88b9 1415 2ebc
000003d0: 6fac 793a 2230 af3c 859b 6fba f3d4 4dbc
000003e0: 09d3 7b3a f31d f33b 687f 8dbb 62e5 91bc
000003f0: eb84 8f3d f5dd 973c 704e 87bb d2e8 f13d
0.009377927 0.014471294 0.033465374 0.017186893 0.041089278 0.0014147994 -0.010674039 0.015622467
0.00064491935 -0.017800141 0.011327072 -0.009757361 -0.021593539 0.0065172664 0.007580714 -0.004436434
-0.03803041 -0.01860978 -0.0013362112 -0.0024969964 0.005000631 0.00743839 -0.0054853093 -0.0008248724
0.0052342736 0.007202515 -0.0040202173 -0.008998577 0.0022945027 -0.032264028 0.031907648 -0.03326811
-0.018559214 0.0026298098 0.0048806565 -0.03898866 -0.0077236034 -0.011960245 0.011164132 -0.04378235
-0.011111868 -0.0025119993 -0.004372638 -0.007751253 -0.0024011533 0.0017165026 0.005518684 0.0008035681
-0.021864478 -0.01025295 -0.0014089944 0.0006114679 0.0069906693 -0.02310072 0.028341815 0.00030137575
0.011879978 -0.038758665 -0.007450925 0.0005851781 0.01430042 -0.016480312 -0.01708922 -0.002802743
0.0041885134 -0.023053898 0.018687373 0.00427411 -0.029588846 -0.008688594 -0.018621 -0.011696778
-0.0057510342 -0.0067233806 -0.00025710557 0.004848126 -0.01718928 0.005696916 -0.016340714 0.009941936
-0.0026640724 -0.008308003 -0.013513728 -0.0074311052 -0.020655949 0.011507577 0.01435267 0.0079710875
-0.014757463 0.0033178455 -0.007029004 0.0030528018 0.0057111443 0.013027374 0.023836946 -0.009924515
-0.019669639 0.018279633 -0.017378924 0.0016347799 -0.015808035 -0.0002770234 -0.022523135 -0.0042221253
0.006689835 -0.07373135 0.013662598 -0.02595512 -0.014233275 0.0122441985 -0.010655214 0.0043975296
-0.009775549 0.008325436 0.006351761 0.0068346644 -0.006605218 -0.016436812 -0.013844877 -0.002041888
-0.027943192 0.010103048 -0.013679563 0.0070349234 0.0284406 0.016377872 0.0127545055 -0.020826027
0.00634973 -0.033003084 0.0022116574 0.0063398113 0.0030630615 -0.013790531 0.01227696 -0.017409362
-0.016250618 0.037028745 -0.015150323 0.0049651912 -0.0061510773 0.010193078 0.008976393 -0.0071796016
-0.008009559 -0.0020751872 -0.028269216 -0.016372826 0.009686311 -0.015074338 0.022673748 0.0011300803
-0.023658013 0.0001641525 -0.041101035 0.03749862 -0.0004331862 -0.01583943 0.004254811 -0.0116830785
-0.014165604 0.0045734695 0.0462788 0.0063232924 0.008193105 0.006659861 0.004613364 -0.0066870637
0.00060071633 -0.0001237368 0.012757164 0.004066411 -0.00020699864 -0.009893894 0.011470976 -0.007747316
0.002007882 0.045800697 0.012800517 0.050999615 -0.018995058 0.024054503 0.002413478 0.014602401
0.04545862 0.08845687 0.026880236 -0.007454584 0.013687907 0.022384772 0.039722 0.011763912
0.009834965 0.019564716 0.017736254 0.0028904786 -0.013842975 -0.007008467 0.014999315 0.0021872502
-0.02161515 0.018925123 0.0059851124 -0.003673062 -0.00800044 0.008538758 0.009417076 0.013048049
-0.00067618256 0.0049147764 -0.0061320225 0.009670415 0.029479442 0.010991258 0.0072749984 0.05239868
0.00894588 -0.0246369 0.030822605 0.022732606 -0.02867649 0.044728667 -0.0070227534 -0.0066561806
0.007998399 0.018099545 -0.004320715 -0.0077828933 -0.0009503495 0.018778497 -0.019845016 0.0063535646
-0.0041906983 -0.010551326 -0.0015782389 0.0122168325 0.0068232943 -0.022936285 0.024640089 -0.007654243
0.018474689 0.001172637 -0.00026087638 -0.010625143 0.0009524291 0.021385256 -0.00091403007 -0.012562978
0.0009606337 0.0074193417 -0.0043181665 -0.017809574 0.07007774 0.018538455 -0.0041292235 0.11811985

Fd2da27LSTM.bias_hh_l0 f4 [600]
00000000: 62ea ef3b 19c1 593c b30e 2f3d d246 683c
00000010: b454 2b3d 0b78 cbbb 29c7 74bc cc04 743c
00000020: a0e1 41b9 4b91 97bc 2d40 193c 9239 80bc
00000030: 4bab 313c 244c 973b f82b 0c3c 2fc7 a4bb
00000040: e9c0 3bbd 024d b4bc 5cae a8ba 0b39 47bb
00000050: 50fa 4d3b 726d 223c 1eca d8bb c54e 48ba
00000060: 23a1 063b 69d2 0d3c 701d 4bbb 3d39 613c
00000070: 1b05 9a3b 5c65 f5bc ff72 033d 6a1f 1bbd
00000080: 8121 9cbc 2962 4dbc 3138 a93a b627 0dbd
00000090: c7c3 053b a927 74bc f7d4 b33b 4374 47bd
000000a0: f695 1cbc d2f2 95bb 7f4f 1d3c b890 3bbc
000000b0: 9cba d3bc 6373 05bb cdcb 053c e235 f93b
000000c0: 2fca 89bc 22d7 2ebc ef30 80bb 3167 2e3b
000000d0: 6794 713c 486e b9bc fa70 b73c 3001 2cbc
000000e0: c1f7 283c b18d 14bc e09a 00bc 7f1c 21bb
000000f0: f302 8a3c f6d6 acbc dbe8 9dbc f7c1 5cbb
00000100: 0837 9f3b 3a8a b9bc f102 583c ae3b 853a
00000110: 399e f5bc 97ad bbbb 679f 09bc db5e 09bd
00000120: 8bec bdbb 2c57 e9bb 893f 14bb bd33 433c
00000130: 35a7 8ebc 47e1 403b 8e17 e1bc f532 463c
00000140: 371d 36ba ef69 84bc c6ea 1cbb 2529 60bc
00000150: 36ec b7bc d1ee 383c 1053 803c 8265 e8ba
00000160: f70f b1bc 6911 aa3b 8e8c 97bb c43b 933c
00000170: e890 0e3b f0e7 6a3c c020 3a3c 26f2 17bc
00000180: 537b adbc 4e57 8a3c 7820 9cbc 3d71 9d3b
00000190: 8062 96bc 8f64 cbb9 1243 023b 5c98 33bc
000001a0: f512 b03a 340c 313a 71ff 663c 404e d6bc
000001b0: 79fe 6dbc 8392 b43c c011 13bc 7092 fa3b
000001c0: 1f5f 97bb 3b5c e63b 16a4 ca3b 6fad ce3b
000001d0: 96b7 5abc 15de 4dbc 5255 d23b f5e4 bcbb
000001e0: 08b4 f5bc 2c9c 563c a6e8 a9bc f1b7 663c
000001f0: 326f 8d3c c903 833c a0d1 d43c 57d9 b0bc
00000200: c053 343c 782a cebc 11e1 d43a 471f bb3b
00000210: abce 893b 66e6 e3bc 1242 633c ca4b 9abc
00000220: 6183 8dbc 1734 463d 0d50 13bb 7f5a b93b
00000230: 0a4c aabb 8a81 713c e0f1 b73a 0e0f 0bbc
00000240: 2a8f 09bc eef7 38bb f429 62bc e607 76bc
00000250: c2e0 b93b b6bd 3bba 0e3f 003d c27f 25bc
00000260: d53a f8bc 0203 c8bb dece 80bd c787 6c3c
00000270: e164 c1bb 5ad6 50bc 5e98 a63b fa8b 40bc
00000280: d47e 4dbc adb9 8a3c e0ba 1d3c 5468 523c
00000290: 825f e23b 852b df3b ad0e a1bb 65ef 3ebb
000002a0: 420a 6f39 b8e8 8db9 aabd 903c 8d38 923b
000002b0: b436 1c3a ce30 22bc 666a 163c 9b2e 98bc
000002c0: 3026 a93b 081e d43d b4a2 e73c bfb4 663d
000002d0: dd18 f9bc 6b7f 3dbc 454e d43a 0271 80bc
000002e0: 398d 0d3c 1ff6 9e3d ebc4 763d 831e f2bb
000002f0: f2a9 293c 69a6 1b3d 23f3 8f3c 8043 a13c
00000300: 4164 073d 4f5b a73c e75c e93c cb88 f53a
00000310: c156 11bc ef6f c0bb 09b7 653c e440 063b
00000320: daf4 cabc 42ae 323d bf28 0f3c 4d85 143d
00000330: a6df babb 4294 863c fc06 103c b1b3 21bb
00000340: 18f4 44ba c7a0 3e3b 0f29 31bc dad5 9d3c
00000350: f99f 133c 07f8 783c cb34 093c 7c18 8a3d
00000360: 4de6 293d d2db f3bc 771b 313b 4d7d b93c
00000370: d582 75bc 59df 9c3c 4509 d7bb 83a5 e4bb
00000380: 195d 8d3c 8bcf 103c a178 d8bb 1de7 3b3c
00000390: 2701 033d f961 a93c c0f3 8abc b52a eabb
000003a0: a9d2 e23a 7e2d 3c3c 11dd 73ba 6ba3 8b3c
000003b0: cef0 b8bb 9498 bd3a 7da7 e93c e575 25bc
000003c0: 2074 bd3c 3356 993c 0111 7cbc 0757 3bbc
000003d0: 980e 923c e6a5 9a3b cca2 413b 8258 dfbc
000003e0: d6d5 8b3b 3850 32bb feae 9cbb 66e3 9abc
000003f0: 2f2a a73c 54bd 973c 755c 03bc ddcb 2f3e
0.007321642 0.013290667 0.042738628 0.014177041 0.041828826 -0.0062093786 -0.014940062 0.014893722
-0.00018489966 -0.018501898 0.00935368 -0.015652452 0.010844062 0.004617231 0.008555405 -0.0050286273
-0.04583827 -0.022009376 -0.0012869346 -0.003039899 0.0031429715 0.009913789 -0.006615891 -0.0007641132
0.0020542822 0.008656123 -0.0030992888 0.013746557 0.0047003157 -0.029955558 0.03209209 -0.037871756
-0.019058945 -0.01253561 0.0012910423 -0.0344617 0.0020410882 -0.014902034 0.005488034 -0.04869486
-0.009557238 -0.0045760656 0.009601473 -0.011448078 -0.025845818 -0.0020362965 0.008166266 0.0076053003
-0.016820041 -0.010671409 -0.0039120833 0.00266118 0.0147448545 -0.022635594 0.022392739 -0.01049833
0.010312975 -0.009066985 -0.007849425 -0.0024583635 0.01684711 -0.021098595 -0.019276073 -0.0033684948
0.004858855 -0.02264892 0.013184295 0.0010164881 -0.029982673 -0.0057274806 -0.008399821 -0.033537727
-0.0057960204 -0.0071209874 -0.0022620878 0.011914191 -0.017413715 0.002943115 -0.027477052 0.01209711
-0.00069471024 -0.016163794 -0.0023943647 -0.013681685 -0.022451501 0.011287407 0.015664607 -0.0017730447
-0.021614058 0.0051900637 -0.0046249097 0.017972834 0.0021753851 0.014337525 0.011360347 -0.009274041
-0.02117697 0.016887333 -0.019058451 0.004804759 -0.018357515 -0.000387941 0.0019876403 -0.010961618
0.0013433384 0.00067538326 0.014098988 -0.02616036 -0.014526003 0.022042518 -0.0089764 0.0076468512
-0.0046194936 0.0070300377 0.0061841113 0.006307296 -0.013349434 -0.0125651555 0.0064188624 -0.0057645985
-0.029993072 0.013098758 -0.020740818 0.014081941 0.017264936 0.015993016 0.025978863 -0.02158801
0.011006296 -0.025166735 0.0016241391 0.0057105157 0.004205545 -0.027819823 0.013870733 -0.018834967
-0.01727456 0.04838952 -0.0022478134 0.00565654 -0.005197053 0.014740357 0.0014033876 -0.008487476
-0.008395949 -0.002822395 -0.013803948 -0.015016532 0.005672545 -0.0007161753 0.031310134 -0.010101261
-0.03030149 -0.006103874 -0.06289457 0.014436669 -0.0059019183 -0.012746418 0.0050840816 -0.011752123
-0.012542445 0.01693424 0.009627074 0.012842257 0.006908358 0.006810608 -0.0049150796 -0.002913439
0.00022796637 -0.00027067005 0.017668564 0.004462308 0.0005959079 -0.009899331 0.009180641 -0.01857691
0.005162023 0.103572905 0.028275825 0.056324717 -0.030407364 -0.011566023 0.0016197643 -0.015678886
0.008639627 0.077617876 0.06024639 -0.007388891 0.0103554595 0.038000498 0.017571991 0.019685507
0.033054594 0.020429282 0.028486682 0.0018732784 -0.008870781 -0.0058727185 0.01402069 0.0020485455
-0.024774957 0.043623216 0.008737742 0.036259938 -0.0057029305 0.016428117 0.008790728 -0.0024673755
-0.00075131794 0.002908753 -0.010813012 0.019267011 0.009010308 0.015195853 0.008374403 0.06742951
0.041479398 -0.029767904 0.0027024427 0.022642756 -0.014984806 0.01914947 -0.0065623843 -0.0069777383
0.017256306 0.008838545 -0.006606177 0.011468676 0.03198352 0.0206766 -0.016961932 -0.0071462044
0.0017305213 0.011485456 -0.0009302656 0.017045697 -0.0056439405 0.0014465027 0.028522247 -0.010098909
0.023126662 0.01871786 -0.015384913 -0.011434323 0.017829224 0.0047194837 0.0029546497 -0.027263884
0.0042674346 -0.0027208459 -0.004781603 -0.01890726 0.020405857 0.018522896 -0.008017649 0.17167611

ClassificationFd2da27.0.weight f4 [150]
00000000: e6b8 8f3f 5457 883f 7979 9c3f f546 873f
00000010: 8f60 983f df23 613f afb5 7d3f 5e14 903f
00000020: f11c 563f 7add e83e 255f 873f 128c 713f
00000030: 696f 983f fbf7 853f 0a3f 833f a348 ec3e
00000040: b818 903f 652d 843f 5349 6a3f 7629 e83e
00000050: a7f8 8f3f f1a1 913f 9e5c d63e 9abf 4f3f
00000060: 671f 913f 6804 8e3f 8a0a 203f c1d6 903f
00000070: f08f 893f 61c0 893f 5133 953f fab5 803f
00000080: 2669 853f 0fba 833f 8b1d 943f 76a1 8b3f
00000090: c52f 913f 8531 6d3f f446 6c3f 8253 973f
000000a0: 4b0a 893f d9ab 8d3f 6f60 8a3f ba18 783f
000000b0: 5735 853f 1b51 843f 1eeb 953f f129 8d3f
000000c0: ea7f 8f3f 2463 153f 2c44 8a3f bf13 8a3f
000000d0: 9096 a23f 80da 8a3f afd3 913f 10dd 4c3f
000000e0: b39f 833f 31ac 8d3f 6171 143f d968 863f
000000f0: 4fd7 8b3f b94a 6f3f 8d89 773f 7cb2 853f
00000100: 7a04 8d3f 9ae1 8d3f 6ab3 913f 791b 843f
00000110: b96c 873f 653a 7c3f 5f56 8f3f 812a 903f
00000120: 7f21 183f 863f d03e cd8f 6a3f fc3e 8d3f
00000130: f7c8 8f3f 541e 973f 12e0 8b3f 5274 843f
00000140: c505 6e3f 850d 853f f2a4 983f c67e 863f
00000150: 2251 5f3f 7467 5a3f 4ad8 9c3f f187 873f
00000160: e7c1 ab3e 5f99 993f 1078 673f 79d0 913f
00000170: de30 923f ec85 3c3f 9e4a 933f c2b8 923f
00000180: e9c3 9d3e f609 913f 04f4 843f 36b8 8e3f
00000190: b49e e13e 8df0 5d3f 8245 903f f03d 993f
000001a0: a51c 423f 780b 703f afd9 8f3f c9e3 8a3f
000001b0: fe7d 833f 768d 9f3f f571 8f3f c5d0 843f
000001c0: 5395 6d3f 4a95 893f ac77 893f 839e 3b3f
000001d0: a1ba 8e3f cc12 0c3f 93d2 6a3f 908a 973f
000001e0: 08d8 a73f fa65 903f cbf4 8b3f bee9 893f
000001f0: 6ee1 953f 676f fe3e a9ad 2a3f 489a 923f
00000200: a4ef 993f 4583 833f 00ec 513f 5800 803f
00000210: f2e0 8e3f 7c84 8b3f 9124 933f 29f2 8a3f
00000220: f4e7 143f 3c0e 9a3f a69d 883f ebe7 193f
00000230: af4c 843f 9349 833f b40d 8c3f 6951 713f
00000240: 1fc6 b63e 1cd9 7e3f 0ba6 903f 19f8 803f
00000250: 2862 863f ef40 913f
1.1228302 1.065165 1.222457 1.0568529 1.1904467 0.8794536 0.9910535 1.1256216
0.8363791 0.45481473 1.0575911 0.94354355 1.1909 1.0466303 1.0253613 0.46149167
1.1257544 1.0326353 0.91518134 0.45344132 1.1247758 1.1377546 0.41867536 0.81151736
1.1337708 1.1095095 0.6251608 1.1315538 1.0747051 1.0761834 1.1656286 1.0055535
1.0422714 1.0291156 1.1571516 1.0908649 1.1342703 0.92653686 0.92295766 1.182236
1.0706266 1.1068069 1.0810679 0.9691273 1.0406903 1.0337251 1.1712377 1.1028425
1.1210911 0.583544 1.0802054 1.0787276 1.2702198 1.0847931 1.1392726 0.80024815
1.0283111 1.1068174 0.579855 1.0500747 1.0925082 0.9347339 0.9669426 1.0445094
1.1016991 1.1084473 1.1382878 1.0320884 1.0580055 0.98526603 1.1198233 1.1262971
0.5942611 0.40673465 0.9162567 1.1034846 1.1233205 1.180613 1.0927756 1.0347998
0.92977554 1.0394751 1.1925337 1.0507438 0.87233174 0.85314107 1.2253506 1.0588361
0.33546373 1.199993 0.90417576 1.1391746 1.1421163 0.7364185 1.1507146 1.1462634
0.3081353 1.1331165 1.0386968 1.1149967 0.44066393 0.86695176 1.1271212 1.1972027
0.7582496 0.937675 1.1238307 1.0850765 1.0272825 1.2465045 1.1206652 1.0376211
0.92805976 1.0748684 1.0739646 0.73288745 1.1150705 0.5471618 0.9172756 1.1839161
1.3112803 1.1281121 1.093408 1.0774457 1.1709421 0.49694368 0.66671234 1.1453333
1.2026258 1.0274435 0.8200073 1.0000105 1.1162398 1.0899806 1.1495534 1.0855151
0.5816643 1.2035594 1.067311 0.60119504 1.0335902 1.0256828 1.0941682 0.9426485
0.3569803 0.9955003 1.1300672 1.0075713 1.0498705 1.1347941

ClassificationFd2da27.0.bias f4 [150]
00000000: ad49 4b3d 9763 76bd 6b81 993d a4cd ba3d
00000010: 0166 3b3d 6e63 09bd 3a85 36bc 040b 723d
00000020: 7cef 47bc 4383 74bb d12f 373d 551a 093d
00000030: 8374 343c eb6a e3bc bdf5 9cbb d60f c43a
00000040: a9c9 a13b 9cea 153d 4172 3f3d cb6e 6bbc
00000050: 9e89 a73c f323 09bd d605 a5bc 47a3 fbbc
00000060: 165e 2d3c 0829 ce3d 2bbe e1bc 19a3 db3c
00000070: 0fb8 2c3c f891 4f3d da63 0abb 9f8f ab3b
00000080: cf4e 83b8 96b9 c93c 056c 6ebd bb76 243d
00000090: ef4e 103d 098a dcbc cd93 1c3c 1ecf d439
000000a0: 420b b43c 159c 873d fcc3 d83c b8e9 e8bc
000000b0: ab35 283d 9795 9ebd e7aa 8c3c b026 aa3d
000000c0: 394b e43d 978d aa3b e208 56bd 889b 50bc
000000d0: 8ded babd fbe7 913d 28c8 783c 323a 18bb
000000e0: 940c f3bc 3a05 1a3d 9bbf 85bc e3b2 b13c
000000f0: b88c 773d a266 34bc 6f70 3e3d 6647 873d
00000100: ff3d 07bd f3d3 683d a1c6 f2bc d18e a03c
00000110: bf41 8fbb a3b7 4a3c 68d5 813d 1162 683d
00000120: b758 d2bc 0c78 653b 19fd a1bc 555f df3c
00000130: 2726 fc3c 75c1 923c 203c 833d ad9e efbb
00000140: 8531 043c de5f 723d def9 8fbc a253 e1bc
00000150: 1b17 cfbc ff96 9b3b 67f5 263b 28ec 11bd
00000160: 9d60 cdbc 475a 503c 5692 11bd 3f9a 3b3d
00000170: 35a8 9dbd b90e 62bd 33fb 1a3d 628d 48bd
00000180: e452 b2bb a2d6 0b3d c249 7b3d 217d 493b
00000190: c9a8 05bc 45d5 acbc bddb 783c 0e75 86bb
000001a0: 397d 34bc 0da2 ed3c 9e80 943d b7cd a33d
000001b0: bcbc cbbb 231e f0ba cb1c 82bd 04b5 1dbb
000001c0: 9b25 263d ceee 103d 8799 59bd 26a1 cebc
000001d0: 7140 083d f7bd a4ba f0d5 3e3d cab5 0cbe
000001e0: 6c10 b2bc c873 b5bc 360a 3c3d ac34 12bb
000001f0: b9a4 25bd bd4f 533d b8ea 5bbc 3688 b9bb
00000200: 8013 713d a136 223d 8417 89bd 8251 5e3d
00000210: 7113 f43b 8841 673c 7462 efba cf53 493b
00000220: 8c6d 223a 5d38 393c 70c8 b63d 2607 003c
00000230: 7b81 233d bd95 05bc 4dc3 0b3d 3794 653c
00000240: 0253 a5bb aa61 303c db5c b23d 9c85 f2bc
00000250: cbb5 5a3c 747b 0c3d
0.04963081 -0.06015357 0.07495388 0.09121254 0.045751575 -0.03354209 -0.011140162 0.059092537
-0.012203094 -0.0037309683 0.044723336 0.033472378 0.011014107 -0.027760943 -0.0047900365 0.0014958333
0.00493737 0.036600694 0.04673982 -0.014369677 0.020451363 -0.03348155 -0.020144384 -0.030717505
0.010581514 0.1006642 -0.0275565 0.02681117 0.01054193 0.050676316 -0.0021116645 0.005235627
-6.261246e-05 0.024624627 -0.058208484 0.040152293 0.035231527 -0.026921289 0.009556723 0.00040590105
0.021978024 0.06621567 0.02646064 -0.028431758 0.041066807 -0.07743376 0.017171336 0.0830816
0.1114716 0.005204867 -0.052254565 -0.012732394 -0.091273405 0.07124325 0.01518444 -0.0023228046
-0.029669084 0.03760264 -0.016326716 0.021691745 0.060436934 -0.011010798 0.046493944 0.06605415
-0.03301811 0.056842756 -0.02963573 0.01959935 -0.004371851 0.012372884 0.06339532 0.05673415
-0.025677068 0.003501418 -0.019774007 0.027267138 0.030779911 0.017914513 0.06407952 -0.007312617
0.008068447 0.059173457 -0.0175752 -0.0275057 -0.025279572 0.0047482247 0.002547586 -0.035625607
-0.025070483 0.012716836 -0.035539947 0.045801397 -0.076980986 -0.055189822 0.03783722 -0.04896296
-0.0054420102 0.034140237 0.061349638 0.0030744749 -0.008157917 -0.021097789 0.015189108 -0.0041033095
-0.0110161835 0.029007936 0.07251094 0.07998221 -0.0062175673 -0.0018319528 -0.06353148 -0.0024064193
0.040563207 0.035383992 -0.05312493 -0.025223326 0.03326458 -0.0012568821 0.046590745 -0.13741222
-0.021736346 -0.022149935 0.045908175 -0.0022309227 -0.040440295 0.051589716 -0.0134226605 -0.0056619896
0.058856487 0.03960288 -0.066939384 0.05427695 0.0074486067 0.014114745 -0.0018263594 0.003072012
0.00061961333 0.011304942 0.08924949 0.007814204 0.039918404 -0.008153376 0.0341218 0.014012388
-0.0050452957 0.010765472 0.08709117 -0.029604726 0.013349007 0.03429742

ClassificationFd2da27.0.running_mean f4 [150]
00000000: 92d0 d83d 3c54 0abc d3aa e93b 76d9 87bd
00000010: 61ea 93bb 499e 903e 13de 143c 8a79 4e3d
00000020: 6c89 0dbc f530 a4bc cd2f eabb 0b14 d0bd
00000030: e9cd 943e 769d f2bd 77e5 d4bc a879 0cbb
00000040: 8153 28be 61b2 823d 2dba 1a3c 5453 90bb
00000050: cae2 adbd 3fcd 943b b719 a93c c55c 0dbc
00000060: ad2a 083e 664d 303d 8ba3 a0bb a6f9 d7be
00000070: 55a7 db3d 265b 1ebe 89ea a4bb 3e14 2fbe
00000080: 2910 493b 29fc 7cbc 1699 10bd a024 5d3e
00000090: a50f 7cbe 2abc ce3b 1de0 02bc 6122 573e
000000a0: 5182 5ebe 9d4f fbbd 6929 563e f9fd 3aba
000000b0: 54a3 243b ed8c 79bb c823 2cbe 301e d4bc
000000c0: 2545 cfbd 9915 87bc 4f33 6e3d b87f e83d
000000d0: 81b7 0cbd 6c3f 4dbe d4d7 febd 45ff 113e
000000e0: 119a 91bd 7f91 fd3d 79c9 49bb 86f2 2f3d
000000f0: 3c0e 10bd 3f4f bf3d 0476 cabb 9438 52be
00000100: cb0c c0bc cd34 ad3d 4fd1 cbbc 5c0d 5ebd
00000110: 0c61 3fbe 94fd e4bc 820a 89be cdbf 8e3e
00000120: 83a1 7b3d 6c3a 03bd 5045 40be db22 a6bc
00000130: 1392 063e 6a00 78bd 3242 90be a3b6 fabd
00000140: de87 5dbc 8220 9ebc 92f3 cd3e 4c90 85bc
00000150: 8679 cb3b 71b4 c73d 3568 82bc aff1 a0bd
00000160: 0450 f8bd f842 a13c ad07 23bb b81d b13c
00000170: 850a a43d 7b3b e03c 782a 49be 5dbc 433d
00000180: e640 bebc 9349 173e a6a8 37bd 2a82 90bd
00000190: 3362 ca3c 3a8a f7b9 049a 92be 48f5 073e
000001a0: 45cc ec3c 1c01 99be f1c2 0fbe 03e4 01be
000001b0: fec1 2bbe b654 673e f3e7 66bb e30d 0abc
000001c0: 0379 efbd 79a8 3a3c f53a 1e3d 713b ddba
000001d0: e91b 03bd f0c1 cabc a591 d93c bf6f ef3c
000001e0: e342 8e3e 3fe5 d83d 60c1 2b3d d16f 04bd
000001f0: a8dc 0f3c 0894 babc 71f1 bdbd ef5a 54be
00000200: 89f6 12bb a3b2 13be 3f6c 563c 00bf 833b
00000210: 0271 16be bd0d aabe 3a05 9a3b af7d f03d
00000220: 2b2e 1e3d 9719 64bd 8b23 b5bd 147b 833c
00000230: f222 bfbc 0cfe 6339 bef5 4ebd 8308 8e3b
00000240: b09c 63ba de86 9bbc e00c 9c3c 63f6 13bd
00000250: 2b7b 313c 14fc 19be
0.10586657 -0.008442935 0.0071309595 -0.06633274 -0.004514024 0.28245762 0.00908615 0.050408877
-0.008638721 -0.020042876 -0.0071468116 -0.10160073 0.29063347 -0.118464395 -0.025988324 -0.0021434817
-0.16438104 0.06381679 0.009443802 -0.0044044647 -0.08490522 0.004541069 0.020642145 -0.008628075
0.1329753 0.043042563 -0.0049023083 -0.42182654 0.107252754 -0.15464458 -0.0050328416 -0.17097566
0.0030679798 -0.015440979 -0.035302244 0.21596003 -0.24615343 0.006309052 -0.007988003 0.21009208
-0.217294 -0.122710444 0.20914234 -0.0007133182 0.0025121765 -0.0038078383 -0.16810524 -0.0258933
-0.1012061 -0.01648979 0.0581544 0.113524854 -0.03435469 -0.20043725 -0.1244351 0.14257534
-0.07109464 0.12381267 -0.0030790253 0.042955898 -0.035169825 0.09341287 -0.0061786193 -0.20529395
-0.0234436 0.084573366 -0.02488008 -0.05421196 -0.18689364 -0.027952947 -0.2676583 0.27880707
0.061433326 -0.032038137 -0.1877644 -0.020280292 0.1314166 -0.06054727 -0.28175503 -0.122418664
-0.013521163 -0.01930261 0.40224892 -0.016304158 0.006209555 0.09751213 -0.01591883 -0.078585975
-0.12124637 0.019685254 -0.0024876401 0.021620616 0.08009819 0.027372112 -0.19645107 0.04778706
-0.023224305 0.1477416 -0.04483857 -0.07056077 0.024705028 -0.00047214498 -0.2863313 0.13277161
0.028905997 -0.2988366 -0.14039208 -0.12684636 -0.16773221 0.22590908 -0.0035233467 -0.008426162
-0.11693003 0.011392706 0.038630445 -0.0016878677 -0.03200904 -0.02475068 0.026558707 0.02922809
0.27785406 0.105906 0.041932464 -0.0323332 0.008780636 -0.022775665 -0.09274567 -0.20737813
-0.0022424778 -0.14423613 0.013087331 0.0040205717 -0.14691547 -0.33213606 0.00470033 0.11742722
0.038618248 -0.055688467 -0.0884467 0.0160499 -0.023332093 0.00021743047 -0.050527327 0.004334511
-0.0008682711 -0.018985208 0.019049108 -0.036123645 0.010832588 -0.15037566

ClassificationFd2da27.0.running_var f4 [150]
00000000: bf1b 0e39 6db2 0538 19d2 7d38 d8f9 0638
00000010: 06f7 e837 9712 e736 b25c 7437 b8a5 2b38
00000020: f22b 7036 fa99 2d35 6cdd 9637 e89c 8137
00000030: c637 5838 4788 e337 d969 9837 afb8 c935
00000040: 5706 3e38 824c dd37 c495 0b37 e12d a836
00000050: 8341 3f38 c3aa 3a38 c7d1 8436 6b58 d536
00000060: 8885 d737 2d6b 2238 ea46 f636 0731 5937
00000070: dc1d 4938 d11d c937 2d15 1f38 a0d4 6d37
00000080: 11a9 c636 330a 4537 273c 8238 1ae6 9f38
00000090: ae24 ad37 e675 8736 c1d2 4a38 4a28 3c38
000000a0: 15e7 0237 721f 3537 ec1b d537 6996 4837
000000b0: 04cf 4b37 2945 cb37 00ca 8938 7524 0638
000000c0: 11fa d737 4405 9636 5dc4 4037 fbea 8338
000000d0: a44f 9038 6222 5a38 7815 2838 ee01 f136
000000e0: 4422 c737 ca1a bc38 1b69 5935 b785 8f37
000000f0: 4a83 8138 f9f0 3537 f8ce e036 3932 4e37
00000100: df41 1738 4f42 c038 dc34 5338 c7c8 a637
00000110: f5bb 1838 bc61 1238 7caf 0338 cddf 1b38
00000120: 8cbf 7e37 a125 ea35 c3ae 5938 bd7c 5f38
00000130: 685f 8838 4389 1038 c8f3 0538 1588 ad37
00000140: 9d77 1937 4ee6 1e37 5f28 1238 50e6 e837
00000150: 14ed 4b36 3c5e b537 a2af 5b38 a3d2 6e37
00000160: b0e6 9637 e4b1 0c38 a5e3 0d37 55da 5738
00000170: 8d7b 4538 86d1 1638 d474 9538 ac2d fc37
00000180: 0a53 a236 31db 7838 581b 2337 fe9e 8738
00000190: fd50 a035 1ea6 0a37 62a9 5437 15aa 2138
000001a0: 83f0 0937 097a a63a 21e9 b137 69ab d837
000001b0: 6280 7f38 93d5 6238 927a f837 c8ab 9237
000001c0: a61a 8b37 b55d cd37 63db 0538 b46e 4337
000001d0: feef 0e38 91eb 0d36 1a5d 5137 5e8b ff37
000001e0: 849d f237 d885 8e38 c2df 7b38 e73d 6638
000001f0: 7f1d 7438 4d48 ca37 c0aa 7339 b10a a637
00000200: 8d18 7a38 9b9b 3037 f71c 3137 c352 aa37
00000210: 0d44 fd37 44cc 0138 878f 1538 d933 ab37
00000220: 6997 9337 946e ae38 4ff8 0237 911f 1438
00000230: 1f0e b037 2231 3838 135b a337 d75c ef36
00000240: 20ff 0736 035a da37 e21c 9d37 6ac8 a537
00000250: ead2 5937 576d 8e37
0.00013552512 3.1875843e-05 6.051557e-05 3.2180775e-05 2.7771584e-05 6.8865006e-06 1.4565116e-05 4.0923915e-05
3.5788366e-06 6.467159e-07 1.7984501e-05 1.5451064e-05 5.1550356e-05 2.7123968e-05 1.8169101e-05 1.5029417e-06
4.5305434e-05 2.638088e-05 8.319916e-06 5.012131e-06 4.559896e-05 4.450489e-05 3.958328e-06 6.358188e-06
2.5692178e-05 3.8723625e-05 7.339627e-06 1.2945623e-05 4.7949943e-05 2.3974952e-05 3.7928276e-05 1.4175806e-05
5.9205418e-06 1.174449e-05 6.210087e-05 7.6245706e-05 2.0640287e-05 4.0370387e-06 4.8356833e-05 4.4860215e-05
7.802407e-06 1.0795762e-05 2.540458e-05 1.1955949e-05 1.21479425e-05 2.4231691e-05 6.5702945e-05 3.1982043e-05
2.5746443e-05 4.4709614e-06 1.1489811e-05 6.290335e-05 6.881289e-05 5.200727e-05 4.0074316e-05 7.1825843e-06
2.3738605e-05 8.9695284e-05 8.099175e-07 1.7109194e-05 6.175654e-05 1.08445465e-05 6.6998145e-06 1.229025e-05
3.6062553e-05 9.1676244e-05 5.035555e-05 1.9882236e-05 3.6414673e-05 3.4900135e-05 3.1396266e-05 3.716331e-05
1.5184178e-05 1.744531e-06 5.189959e-05 5.3283515e-05 6.502756e-05 3.446011e-05 3.193671e-05 2.0686575e-05
9.14736e-06 9.471156e-06 3.484671e-05 2.7763803e-05 3.0387355e-06 2.1620763e-05 5.237724e-05 1.4234948e-05
1.7988816e-05 3.3544275e-05 8.4572575e-06 5.1463332e-05 4.7083526e-05 3.595792e-05 7.1266346e-05 3.0062009e-05
4.8376432e-06 5.9331946e-05 9.721924e-06 6.466916e-05 1.19445e-06 8.264118e-06 1.2675622e-05 3.8543792e-05
8.221835e-06 0.0012701164 2.1208603e-05 2.5829026e-05 6.0916303e-05 5.4081505e-05 2.962098e-05 1.7484548e-05
1.65825e-05 2.448154e-05 3.191399e-05 1.1648681e-05 3.407895e-05 2.1147755e-06 1.2479048e-05 3.0463267e-05
2.8921997e-05 6.796018e-05 6.0051454e-05 5.4893924e-05 5.8201604e-05 2.4113944e-05 0.00023237895 1.979372e-05
5.962751e-05 1.0526647e-05 1.0556766e-05 2.0304118e-05 3.0191639e-05 3.0946234e-05 3.565804e-05 2.0408932e-05
1.7594271e-05 8.317563e-05 7.806418e-06 3.531535e-05 2.098741e-05 4.3914777e-05 1.9473524e-05 7.133563e-06
2.026507e-06 2.602954e-05 1.8729308e-05 1.9762858e-05 1.2983315e-05 1.6978634e-05

ClassificationCat.0.weight f4 [1, 150]
00000000: 6b8a 54be bab3 1f3e b241 8abe 7fdd 1a3e
00000010: c569 7a3e 6a8d b8bd fe7f f7bd 3349 5abe
00000020: 4c6a 7bbd 65ac 9c3c 7888 243e 5784 a93d
00000030: dd62 7dbe f06b 133e efe2 0dbe ab1a ff3c
00000040: a5e5 413e a131 16be c973 d33d 9758 95bb
00000050: e281 4dbe 6de5 5dbe b6ee 383c 55bf a6bd
00000060: ca0d 4bbe eb44 523e 0b1e 393d 1f13 633e
00000070: 8f96 28be 5ceb 3a3e de31 683e a1b7 e73d
00000080: e1f7 233e ff17 073e 5b02 6dbe f118 36be
00000090: f698 433e 12b7 b03d 2e2d bbbd ba5a 5cbe
000000a0: 9493 233e f58d 3b3e d6b3 1f3e b696 013e
000000b0: 119a 163e 8eea 2cbe b885 703e 7bcd 493e
000000c0: 7c61 5f3e 5063 d4bc 7dae 25be c8bf 1ebe
000000d0: 9fcb 9cbe bb22 273e eb1f 49be b00c 533d
000000e0: 909b 1fbe caae 38be f205 b1bc 2dff 2b3e
000000f0: 3974 40be daf9 bf3d 9abb b53d 6dab 113e
00000100: f0a8 2ebe 8c37 30be 5121 623e a88c 073e
00000110: 75b0 123e 0169 f13d 7cb4 403e b031 4bbe
00000120: 962d cfbc 5491 de3c 2f8b a2bd bfa7 533e
00000130: 63ba 50be 3aa6 823e 3dc8 363e 2c7b 08be
00000140: 32f7 b03d 1b65 213e 9a2f 78be eb8a 033e
00000150: 323a 923d 448e 73bd 8c66 7cbe 5ab8 2d3e
00000160: 9b2a 80bc 51ed 8a3e 4c35 9abd 47d5 43be
00000170: dbd4 64be 2d85 b6bd 12d9 61be 865b 63be
00000180: cdb7 1d3a 1a8c 61be 4c6c 033e 3252 4c3e
00000190: 673c 733c d76d ecbd fb87 443e 82b4 82be
000001a0: ce49 a73d 6218 39bd 3f38 53be 793c 3f3e
000001b0: 2bde 193e 4d99 91be 031c 50be 0eef 09be
000001c0: 4993 cc3d 9838 24be 85b2 1dbe 751a bebd
000001d0: dec4 43be 301d 2dbc dd64 933d 9066 6dbe
000001e0: 8662 a4be a510 593e e7ba 29be 5765 2fbe
000001f0: a13d 813e 63bf 6d3d 57b2 4ebd 8efc 623e
00000200: d800 6c3e ab06 083e 59a8 0dbe 15a2 033e
00000210: 9ca8 423e 2ea8 243e 607a 4bbe 6735 1fbe
00000220: 28d8 88bc 7ee2 8abe a211 243e 9955 e13c
00000230: f785 0a3e f7cb 0e3e 410b 393e b5dc d93d
00000240: a671 a73b b721 01be 3071 613e 3fc6 e9bd
00000250: 9449 183e cf6d 583e
-0.20755927 0.15595904 -0.27003247 0.15123557 0.2445441 -0.090113476 -0.120849594 -0.21316986
-0.06138067 0.019125173 0.16067684 0.08277195 -0.24744745 0.14396644 -0.138561 0.031140646
0.18935259 -0.1466737 0.10324819 -0.00455768 -0.20069078 -0.2166955 0.011287382 -0.081419624
-0.19829479 0.20534103 0.045194667 0.22175263 -0.16463684 0.18253845 0.22675273 0.11314321
0.16012527 0.13192748 -0.2314543 -0.17782952 0.19101319 0.08628668 -0.09139477 -0.21518984
0.15974265 0.18315871 0.15595946 0.12655148 0.14707209 -0.1688635 0.2348851 0.19707291
0.21814531 -0.025926262 -0.16179843 -0.15502846 -0.306241 0.16321842 -0.19641082 0.05152577
-0.15586686 -0.18035427 -0.02160928 0.1679656 -0.18794335 0.09373827 0.08873673 0.1422555
-0.17056632 -0.1720869 0.22083022 0.1323725 0.14325126 0.11787606 0.1881885 -0.19843173
-0.025290292 0.027168907 -0.079367034 0.20669459 -0.20383601 0.25517446 0.17849822 -0.13328236
0.08640899 0.15761225 -0.24236909 0.12845962 0.07140006 -0.059461847 -0.24648494 0.16964856
-0.015645316 0.27134183 -0.07529697 -0.19124328 -0.22346823 -0.0891212 -0.22055462 -0.22202882
0.0006016463 -0.22026101 0.1283428 0.1995323 0.014845944 -0.11544388 0.19192497 -0.25528342
0.08168374 -0.04518927 -0.20626925 0.18675412 0.15026157 -0.28437272 -0.20323186 -0.13470098
0.0998903 -0.16037214 -0.15400131 -0.0928239 -0.19118068 -0.010566041 0.071969725 -0.23183656
-0.32106417 0.21197756 -0.16575204 -0.17128502 0.25242332 0.05804385 -0.050463047 0.22166654
0.23047197 0.13283794 -0.13833751 0.12854798 0.19009632 0.1607978 -0.19870901 -0.15547715
-0.016704634 -0.27125925 0.16022351 0.027506636 0.13527666 0.13944994 0.180707 0.106378
0.0051099835 -0.12610517 0.22015834 -0.114147656 0.14871818 0.21135639
