models/2023-05-11_23-16/pytorch/1-F_2-E_4.pt (torch, 411855 bytes, 9 tensors)

Fd1da27LSTM.weight_ih_l0 f4 [600, 17]
0	0xbdae8f0b	-0.08523377
1	0xbd791886	-0.060814403
2	0xbc932d15	-0.017965833
3	0x3c895128	0.016762331
4	0xbcbc809d	-0.023010546
5	0x3c1002d9	0.008789741
6	0x3d43700e	0.047714286
7	0xbd444b85	-0.047923584
8	0x3d08f1e2	0.033433802
9	0xba8ccbfb	-0.0010741943
10	0xbce5333d	-0.027978534
11	0xbda94e3c	-0.08266875
12	0x3c378757	0.011201701
13	0xbd9a1521	-0.07523561
14	0x3cddca40	0.02707398
15	0x3dbaa3d5	0.0911328
16	0xbd882e9e	-0.066495165
17	0xbd6d3d14	-0.057919577
18	0x3c4d198e	0.0125183
19	0xbdf45e75	-0.11932079
20	0xbd9dc023	-0.07702663
21	0xbdf2b5c1	-0.11851073
22	0xbd25b827	-0.040458824
23	0x3bba2403	0.0056805625
24	0xbc825e6d	-0.015914166
25	0xbdafe27b	-0.085881196
26	0xbc9879be	-0.018612739
27	0xbcf3ee3c	-0.029776685
28	0x3d054bb2	0.03254289
29	0x3ca97c02	0.020689014
30	0xbd3a825c	-0.045534477
31	0xbd67903c	-0.056534037
32	0xbd1cbb39	-0.038264487
33	0xbd1bd205	-0.038042087
34	0xbce2661a	-0.027636576
35	0xbbba4900	-0.005684972
36	0xbdd699b4	-0.10478535
37	0x3dcabd4a	0.09899385
38	0x3ceed744	0.029155381
39	0xbbd20e0b	-0.0064103655
40	0x3c99076a	0.018680293
41	0xbd793cdd	-0.06084906
42	0x3d1c6297	0.03817996
43	0x3ce2ee00	0.027701378
44	0xbdcb4a0f	-0.09926235
45	0xbdbc8a0e	-0.09206019
46	0xbdca8655	-0.09888903
47	0xbd0af434	-0.033924296
48	0x3d9917e3	0.07475259
49	0x3dc9352e	0.09824596
50	0x3c96290e	0.018330123
51	0xbd6a9886	-0.057274364
52	0xbcc5dd96	-0.024153512
53	0x3b99105c	0.0046711396
54	0x3d983d7c	0.07433602
55	0xbd12e6cc	-0.035864636
56	0xbcf1f34b	-0.029534956
57	0xbdb922c4	-0.09039834
58	0xbb6fdccf	-0.0036600118
59	0xbdc64b8c	-0.09682378
60	0xbd2dae78	-0.042402714
61	0x3cff10b3	0.031135892
62	0xbd5f381b	-0.054496866
63	0x3d04782d	0.03234117
64	0xbcb8ade5	-0.022543857
65	0xbb1b8dd4	-0.002373566
66	0x3c94f088	0.0181811
67	0x3d298dbf	0.041394945
68	0xbcae9def	-0.021315543
69	0x3d2ae975	0.04172655
70	0xbcfbd615	-0.03074173
71	0xbdb43bfe	-0.08800505
72	0xbd0f8879	-0.03504226
73	0x3d37c540	0.044865847
74	0xbcb3a49a	-0.021929074
75	0x3c6a5efe	0.014304874
76	0xbd83c5fe	-0.064342484
77	0x3c094411	0.008378045
78	0xbbc102f6	-0.0058902455
79	0xbdc1db19	-0.09465618
80	0xbaee503b	-0.001818187
81	0xbcfbe162	-0.03074712
82	0xbdac4943	-0.08412411
83	0xbc6c15ab	-0.014409463
84	0xbd958864	-0.07301405
85	0xbc946702	-0.018115524
86	0x3c96631a	0.018357802
87	0xbc964d5e	-0.018347438
88	0xbd11fbe3	-0.03564061
89	0xbd14d4b6	-0.03633567
90	0xbd9c7998	-0.0764038
91	0xbd9d03cf	-0.07666742
92	0xbd934840	-0.07191515
93	0x3cee788d	0.029110217
94	0xbd83e38e	-0.06439887
95	0xbe12e8e0	-0.14346647
96	0xbdc4c9ce	-0.09608804
97	0xbd44fe77	-0.04809424
98	0xbb67c407	-0.0035364644
99	0x3d02f5e5	0.031972785
100	0xbde450b2	-0.11148204
101	0x3c9880c9	0.018616097
102	0x3a503071	0.00079417886
103	0x3aa24f96	0.0012383338
104	0x3d7ca586	0.061681293
105	0xbb0ba82f	-0.0021309962
106	0x3d64c4cd	0.055851746
107	0xbdb3d7d3	-0.087813996
108	0x3d8d5500	0.06900978
109	0xbc05b0c7	-0.008159823
110	0xbd520fbb	-0.051284533
111	0xbbfc34d2	-0.0076967264
112	0x3d6e9fe9	0.05825797
113	0xbdb2d833	-0.08732643
114	0x3ce66094	0.028122224
115	0xbd1d057b	-0.038335305
116	0xbdbf0c73	-0.093285464
117	0x3ca5116c	0.020149909
118	0x3d0d359c	0.034474954
119	0xbd8ffd27	-0.07030707
120	0xbd2fc3bd	-0.04291128
121	0xbca293aa	-0.019845802
122	0x3d469628	0.048483044
123	0xbb507e15	-0.0031813432
124	0xbbcabe87	-0.0061872634
125	0xbc28989d	-0.010290292
126	0xbdad5d24	-0.08465031
127	0xbc6ec09a	-0.014572287
128	0xbdcfd067	-0.101471715
129	0xbd4ad7c1	-0.049522165
130	0x3d38e62d	0.045141388
131	0x3d15a93c	0.036538348
132	0x3d2259f1	0.039636556
133	0xbd08c09c	-0.03338681
134	0x3c8dfa73	0.017331338
135	0xbd916be8	-0.071006596
136	0x3de44ea3	0.11147811
137	0x3dc38ae4	0.09547976
138	0xbcaf206f	-0.02137777
139	0xbc259471	-0.010106192
140	0xbd98804d	-0.074463464
141	0xbd0b8571	-0.034062807
142	0x3c80ad27	0.015707565
143	0xbdb90547	-0.0903421
144	0xbd1513a4	-0.036395684
145	0xbd898d49	-0.06716401
146	0xbda4b3ee	-0.08042131
147	0xba5d5e38	-0.00084445206
148	0xbd9ab9d9	-0.07554979
149	0xbd3b62d5	-0.04574855
150	0xbd6e4db0	-0.058179557
151	0xbd7cabcf	-0.061687287
152	0xbd06475b	-0.032782894
153	0xbc7bc10d	-0.015365851
154	0xbd231fdd	-0.03982531
155	0xbd8a7806	-0.06761174
156	0xbd41a18f	-0.047273215
157	0xbb95cd6d	-0.004571608
158	0xbcbaf914	-0.022823848
159	0xbdae1795	-0.08500592
160	0x3d04c782	0.032416828
161	0xbda3c32a	-0.07996209
162	0xbd3e4c15	-0.046459276
163	0x3d438716	0.04773625
164	0x3d3366dd	0.04379927
165	0x3d947eb9	0.07250733
166	0x3cd9a80a	0.026569385
167	0xbd10c421	-0.035343293
168	0xbd0aed94	-0.03391798
169	0x3cb5d22c	0.022194944
170	0xbba42782	-0.0050095925
171	0xbd914706	-0.07093625
172	0xbd9fde37	-0.07806056
173	0xbd90d745	-0.070723094
174	0x3ca4f92c	0.020138346
175	0x3ccc874d	0.02496686
176	0xbc0a5a1c	-0.008444335
177	0x3ce7ef03	0.028312212
178	0x3dbabdd8	0.09118241
179	0xbd81cea9	-0.063382454
180	0xbb8587b3	-0.0040750145
181	0xbd4af645	-0.049551267
182	0xbdba5f86	-0.09100251
183	0x3c9bcdfe	0.019019123
184	0x3ca78a38	0.02045165
185	0xbd3fb086	-0.046799205
186	0x3de1cce4	0.11025408
187	0xbcfe7dcd	-0.031065846
188	0xbd1b0649	-0.03784779
189	0x3c883dbe	0.016631003
190	0xbd986084	-0.07440284
191	0xbd6d432b	-0.057925384
192	0xbbbab824	-0.005698221
193	0xbdc80f81	-0.09768582
194	0xbd09cdf2	-0.03364367
195	0xbd86d223	-0.06583049
196	0xbce21b30	-0.027600855
197	0x3cbe38fe	0.023220535
198	0x3c2284f6	0.009919396
199	0xbdb2dcf1	-0.087335475
200	0x3cd4e813	0.025989568
201	0x3c4e76e7	0.012601591
202	0xbbacd01e	-0.005273833
203	0xbd2eacc8	-0.042645246
204	0xbd3dbfae	-0.046325378
205	0xbc859bba	-0.016309608
206	0xbd75f930	-0.060052097
207	0xbd028392	-0.031863756
208	0xbd62d68f	-0.0553804
209	0x3a7972d4	0.0009515707
210	0xbc992ca6	-0.018698048
211	0x3cba1134	0.022713281
212	0xbd916965	-0.071001805
213	0x3c4733dd	0.012158361
214	0x3d726913	0.059182238
215	0x3d604a64	0.054758444
216	0x3cc36226	0.023850512
217	0x3cf1dc18	0.029523894
218	0xbcc7a641	-0.024371268
219	0x3c0e9d9f	0.008704572
220	0xbd41cf28	-0.0473167
221	0xbdcd7e40	-0.10033846
222	0xbcb96a84	-0.022633798
223	0xbc81303c	-0.01577007
224	0xbd3f456d	-0.04669707
225	0x3d95418d	0.072878934
226	0xbd6805dd	-0.056646217
227	0x3a832bb2	0.0010007529
228	0x3d93f1bb	0.07223841
229	0xbcacb10f	-0.021080522
230	0x3d81c127	0.06335669
231	0xbcfa24cc	-0.030535124
232	0x3d983d6c	0.0743359
233	0xbb14bdff	-0.0022696254
234	0x3abc24c8	0.0014354223
235	0xbc22859f	-0.009919553
236	0xbbccb446	-0.006247076
237	0x3badcb6c	0.005303791
238	0x3d3ef72a	0.046622433
239	0xbd22d84a	-0.03975705
240	0xbd3a70e9	-0.045517836
241	0xbcfd8a63	-0.030949777
242	0x3ca967f6	0.020679455
243	0xbcb88de5	-0.022528598
244	0xbd67fbcc	-0.056636617
245	0xbc4f743b	-0.012661989
246	0xbccc1fc9	-0.0249175
247	0x3d544e02	0.051832207
248	0xbd03f272	-0.032213636
249	0x3d36f57d	0.04466771
250	0xbc01752e	-0.007901473
251	0x3ce5e4c0	0.028063178
252	0xbd9dfe82	-0.07714559
253	0x3ca04089	0.019562023
254	0x3ae6805b	0.001758586
255	0xbb11b7b3	-0.0022234737

Fd1da27LSTM.weight_hh_l0 f4 [600, 150]
0	0xbc9401ef	-0.018067328
1	0x3ae033d7	0.0017105293
2	0x3ac030e1	0.0014663005
3	0x3d695670	0.0569672
4	0x3c006625	0.007836853
5	0x3c984eb4	0.018592216
6	0xbc87fe7f	-0.016600845
7	0xbb9ccc55	-0.0047851005
8	0x3d043479	0.032276604
9	0xbce2739a	-0.027643014
10	0xbd1cb702	-0.038260467
11	0x3c8f3f9c	0.017486386
12	0x3bd65f77	0.006542142
13	0xbd2a758c	-0.041616008
14	0xbcc34d7c	-0.023840658
15	0xbd6421b2	-0.055696197
16	0xbd5ec0c6	-0.05438306
17	0xbc74ea7a	-0.014948482
18	0xbd4550b6	-0.048172675
19	0xbc7d4665	-0.015458678
20	0xbd4d6134	-0.05014153
21	0xbb168db1	-0.0022972638
22	0x3d3a60fc	0.045502648
23	0x3d0ec347	0.0348542
24	0x3c378118	0.011200212
25	0x3df2c598	0.11854094
26	0xbb824632	-0.003975653
27	0xbb83d997	-0.0040237415
28	0xbcf1cb7e	-0.029515978
29	0xbba4b88f	-0.005026884
30	0x3dc3b3b0	0.09555757
31	0xbdc5d2c5	-0.09659342
32	0x3d4106b9	0.04712555
33	0xbc319b1c	-0.010840204
34	0x3c94e482	0.018175367
35	0xbd56a950	-0.052407563
36	0xbca53a98	-0.020169541
37	0xbdc97ea8	-0.09838611
38	0xbd478d34	-0.048718646
39	0xbc738732	-0.014863776
40	0x3d6ef1be	0.058336012
41	0xbdaf1b2d	-0.08550105
42	0x3c9dbba7	0.019254519
43	0xbd47b5f8	-0.048757523
44	0x3d1db36d	0.038501192
45	0xbdb16671	-0.08662117
46	0x3d703895	0.05864771
47	0x3d895d1b	0.067072116
48	0xbd3309d7	-0.043710556
49	0x3bb6af1f	0.0055750753
50	0xbce63cad	-0.028105104
51	0xbd317e77	-0.043333497
52	0x3d249c5d	0.040188182
53	0x3ca79dd0	0.020460993
54	0x3bf992fd	0.0076163993
55	0x3d9917e4	0.0747526
56	0xbd2a943e	-0.04164528
57	0x3cc70f57	0.024299307
58	0x3ce7908b	0.028267166
59	0x3d6ffd9e	0.058591478
60	0xbbf5736e	-0.007490567
61	0x3d21b348	0.039477617
62	0x3c4286ad	0.0118729295
63	0xba6d4a86	-0.00090519374
64	0xbd564b13	-0.05231769
65	0x3c99e70c	0.01878693
66	0x3d847e4a	0.064694
67	0xbd2b3557	-0.041798916
68	0xbd9ed47d	-0.07755373
69	0xbd453e83	-0.04815532
70	0x3d19733d	0.037463415
71	0xbd0c794b	-0.03429536
72	0xbd3302aa	-0.043703713
73	0xbdda1d84	-0.10650161
74	0xbd899ce8	-0.067193806
75	0xbb343306	-0.0027496233
76	0xbca599ce	-0.020214941
77	0xbc0f20ff	-0.008735894
78	0x3ca25d0c	0.019819759
79	0x3d1904c3	0.037358057
80	0x3d6720fd	0.056427944
81	0xbd0d47cf	-0.03449231
82	0xbd073617	-0.03301057
83	0xbd729001	-0.059219364
84	0x3d1234fb	0.035695057
85	0x3d5a4c4d	0.053295422
86	0x3bed81e1	0.007248149
87	0x3d14fc5e	0.03637349
88	0xbd5b56ae	-0.05354946
89	0xba7d272c	-0.0009657021
90	0xbda5e350	-0.08099997
91	0x3db6b0e2	0.089204565
92	0x3cfad460	0.030618846
93	0xbd2f6454	-0.04282029
94	0x3dc31701	0.09525872
95	0x3d7ec36c	0.062198088
96	0x3d003309	0.03129867
97	0x3a052650	0.00050792564
98	0xbaf5064a	-0.0018693891
99	0x3d8b8696	0.068127796
100	0xbcbe66b7	-0.023242338
101	0xbbec7c48	-0.007216964
102	0x3bb90004	0.005645754
103	0xbc8ab800	-0.016933441
104	0x3c21e4b6	0.009881189
105	0x3b5a8361	0.0033342468
106	0xbb4e9481	-0.003152162
107	0xbd8a3be7	-0.06749707
108	0x3c2d9d93	0.010596651
109	0xbd23f18f	-0.04002529
110	0x3c646725	0.013940607
111	0xbd07ac6e	-0.033123426
112	0xbd1a38f8	-0.037651986
113	0x3d385834	0.045005992
114	0xbd529b1a	-0.051417448
115	0x3da8a5de	0.08234762
116	0xbc8be0dc	-0.017074995
117	0xbd47eb2a	-0.048808254
118	0xbc8b5f99	-0.017013358
119	0xbc7ff40d	-0.015622151
120	0xbccf9083	-0.025337463
121	0xbd38bac6	-0.045099996
122	0x3d1a4f86	0.037673496
123	0xbdb82912	-0.089922085
124	0xbd0d6707	-0.034522083
125	0xbd38965d	-0.045065273
126	0xbc3162f1	-0.010826812
127	0x3c933b42	0.017972592
128	0xbd852355	-0.0650088
129	0x3d8c02f8	0.06836504
130	0x3d039e37	0.032133307
131	0x3b3e0f90	0.0029000975
132	0x3c556554	0.013024647
133	0xbd390279	-0.045168374
134	0x3bb61c0a	0.0055575417
135	0xbc144d8f	-0.009051695
136	0xbc850aa1	-0.01624042
137	0xbd2e4d1e	-0.042554013
138	0x3ccba9eb	0.024861297
139	0x3d30c163	0.043153178
140	0x3cf3728b	0.029717704
141	0x3d159637	0.03652021
142	0xbc9d6aef	-0.019216029
143	0x3d83477f	0.06410121
144	0x3c981db9	0.01856886
145	0x3d0207ce	0.031745724
146	0xbc9b1a1f	-0.018933354
147	0x3c2f5cfc	0.010703322
148	0xbce8e975	-0.028431633
149	0xbd64e1b9	-0.05587933
150	0x3d442ebb	0.04789613
151	0xbd0335dc	-0.032033786
152	0xbdc916ef	-0.09818827
153	0x3d196651	0.037451092
154	0x3d2fa7c7	0.042884614
155	0xbcad4a7c	-0.021153681
156	0xbbba24e0	-0.0056806654
157	0xbd0b4d05	-0.034009
158	0x3db26afd	0.08711813
159	0x3d36cec2	0.044630773
160	0x3cfc2030	0.030777067
161	0x3d28310c	0.0410624
162	0x3d1464e2	0.03622902
163	0x3b9b030b	0.0047305874
164	0x3b5ae853	0.0033402636
165	0x3d81bda7	0.063350014
166	0xbc2a4a31	-0.010393665
167	0x3c455a64	0.012045477
168	0xbdb0f2e5	-0.086400785
169	0xbbb3ab1e	-0.0054830452
170	0x3c02be41	0.00797993
171	0xbd5fa41e	-0.054599874
172	0xbd46b3aa	-0.048511185
173	0xbc45762b	-0.012052099
174	0xbcf67917	-0.030087037
175	0x3d882147	0.06646972
176	0x3c91356f	0.017725674
177	0xbc2b42f3	-0.010452974
178	0x3df02c69	0.117272206
179	0x3c95116e	0.018196788
180	0x3c3e79eb	0.011625747
181	0x3c5fef2c	0.013667863
182	0xbb60fddd	-0.0034331002
183	0x3bf650b8	0.0075169466
184	0xbc5e1781	-0.013555408
185	0x3bfb694d	0.007672465
186	0xbc986cec	-0.018606625
187	0x3c1317c1	0.008977831
188	0xbc8789f1	-0.016545268
189	0xbcaa554d	-0.020792628
190	0xbd993807	-0.074813895
191	0xbc36e68b	-0.011163364
192	0x3cbfcf93	0.023414409
193	0x3d9e227d	0.07721422
194	0x3d7353c1	0.059406046
195	0x3cba350e	0.022730377
196	0x3bb36d01	0.0054756408
197	0xbb03e275	-0.0020123993
198	0x3cf34449	0.029695647
199	0xbda9fab6	-0.082997724
200	0x3b815a61	0.0039475416
201	0xbd6b4a1c	-0.057443723
202	0x3d36cdc1	0.044629816
203	0x3da76088	0.08172709
204	0xbd508f97	-0.050918188
205	0x3d4e7a4d	0.050409604
206	0x3d6e5cea	0.05819408
207	0xbc1f4c62	-0.009722801
208	0xbd2e3e4f	-0.04253989
209	0xbcc92805	-0.024555216
210	0x3d42e85b	0.047584873
211	0x3bc29ee4	0.0059393514
212	0x3cf41398	0.0297945
213	0x3c8f5c13	0.01749996
214	0x3b485a57	0.0030571425
215	0x3d574b11	0.052561823
216	0x3c8526e5	0.016253898
217	0x3cd19e67	0.025588227
218	0x3cef7874	0.029232241
219	0xbcc4f909	-0.02404453
220	0xbc3146d8	-0.010820113
221	0xbd660d70	-0.05616516
222	0xbd3ae197	-0.045625295
223	0xbd983c61	-0.07433391
224	0x3c0fd01c	0.0087776445
225	0x3d3d4e3b	0.046217185
226	0x3d804c15	0.062645115
227	0x3d057090	0.03257805
228	0xbd1dfa26	-0.03856864
229	0xbc1aa56e	-0.009438856
230	0xbd9b1905	-0.075731315
231	0xbd6a6703	-0.057227146
232	0x3d7b75d7	0.061391678
233	0x3d4b0ec4	0.04957463
234	0x3d0f1019	0.03492746
235	0xbdc213b2	-0.09476413
236	0x3d2de7d2	0.04245741
237	0xbd6f248f	-0.058384474
238	0xbd878a57	-0.06618183
239	0x3d809574	0.06278506
240	0x3c97b63f	0.018519519
241	0x3d8df4f2	0.06931485
242	0x3d0a5008	0.03376773
243	0x3d26d41b	0.040729623
244	0x3d1a8bf4	0.037731126
245	0x3d7d64b6	0.061863624
246	0xbda9479e	-0.08265613
247	0x39e8a3f9	0.00044372657
248	0x3d4e2e80	0.050337315
249	0x3c83b12a	0.01607569
250	0xbc66fce2	-0.014098378
251	0x3d7b152f	0.0612995
252	0x3d19dd4b	0.037564557
253	0x3d86c952	0.065813676
254	0xbd1e2be3	-0.038616072
255	0x3cc32243	0.023820048

Fd1da27LSTM.bias_ih_l0 f4 [600]
0	0xbccb78c7	-0.024837865
1	0xbd15c159	-0.036561344
2	0xbc9e5d98	-0.019331738
3	0xbc8f68a3	-0.01750595
4	0xbb48e258	-0.003065249
5	0xbc601187	-0.013676054
6	0xbcfb299a	-0.030659486
7	0x3ae8aba7	0.0017751352
8	0xba7e4451	-0.0009699511
9	0xbd9efa8e	-0.07762633
10	0x3cb05a4f	0.021527437
11	0x3bb64fc2	0.005563707
12	0xbd1d6382	-0.038424976
13	0xbceb9031	-0.02875528
14	0xbc1ca4d6	-0.009560784
15	0xbca3a56b	-0.019976338
16	0xbce38841	-0.027774932
17	0x3c17e42a	0.009270707
18	0x3d00afbd	0.031417597
19	0xbc82a5a8	-0.015948132
20	0x3d5614b4	0.052265838
21	0x3d0d8c48	0.03455761
22	0x3b0308c7	0.0019994245
23	0x3c2553aa	0.010090748
24	0xbaebfe87	-0.0018004932
25	0xbd36807d	-0.04455613
26	0xbd151d0c	-0.036404654
27	0xbd113302	-0.035449035
28	0xba73c25b	-0.00092986756
29	0xbd2c94e6	-0.042134188
30	0xbd438ebf	-0.047743555
31	0x3c4c2a06	0.012461191
32	0xbd828932	-0.06373824
33	0xbcc92caa	-0.02455743
34	0x3c2b0788	0.010438807
35	0xbd00a1c8	-0.031404287
36	0x3af606da	0.0018770352
37	0xbd203283	-0.03911067
38	0x3d285985	0.041100997
39	0xbbe8d8f8	-0.007105943
40	0xbc831de0	-0.016005456
41	0xbca5be89	-0.020232456
42	0xbbff1d11	-0.0077854474
43	0xbc93582d	-0.017986381
44	0xbc138ccc	-0.009005737
45	0xbd19c5cc	-0.03754215
46	0x3c1f7d4e	0.009734465
47	0xb8264681	-3.9643146e-05
48	0x3c6518a2	0.013982924
49	0xbced9579	-0.029001938
50	0xbd234e57	-0.039869633
51	0x3acd2b73	0.0015653208
52	0xbb4292f8	-0.002968965
53	0xbdb0e17a	-0.08636756
54	0xbce33829	-0.02773674
55	0xbd499a8b	-0.04921965
56	0xbc494b46	-0.012286013
57	0x3d861a28	0.06547958
58	0xbc06ed7f	-0.008235334
59	0xbd3ff6aa	-0.046866097
60	0xbcad33c6	-0.021142852
61	0x3bc1d2d9	0.0059150276
62	0xbcc7583c	-0.024334066
63	0xbbf4b7ee	-0.007468215
64	0xbd1b9977	-0.037988152
65	0x3c8141c8	0.015778437
66	0xbca4a384	-0.020097502
67	0xbdacb9a7	-0.08433848
68	0x3d37a8e6	0.04483881
69	0xbd4f3c28	-0.05059448
70	0xbc9485d0	-0.018130213
71	0x3a87848e	0.0010339187
72	0xbd76c5cc	-0.060247228
73	0xbd7983a9	-0.060916577
74	0xbce245d0	-0.02762118
75	0xbbb59057	-0.0055408883
76	0xbd9891a8	-0.07449657
77	0x3c80dab1	0.01572928
78	0x3aa057b0	0.0012233164
79	0xbce28b32	-0.027654264
80	0xbb0e9623	-0.002175697
81	0xbd1c8b6f	-0.03821891
82	0xbc6d9c8e	-0.014502658
83	0xbca473b9	-0.020074712
84	0x3c823d82	0.01589847
85	0xbda31f95	-0.07965008
86	0xbcc25852	-0.023723755
87	0xbd02f250	-0.03196937
88	0xbb6c39b5	-0.0036045138
89	0xbd58ba0d	-0.052911807
90	0x3c956bae	0.018239822
91	0xbccf3ac1	-0.02529657
92	0x3d43f469	0.04784051
93	0xbcee8683	-0.029116875
94	0xbd71fc16	-0.0590783
95	0x3c229107	0.0099222725
96	0xbc922743	-0.017840987
97	0x3b94b84d	0.004538572
98	0x3c38cb6a	0.011278966
99	0xbb0d7b0b	-0.0021588232
100	0x3d04df54	0.032439545
101	0x3c3987f8	0.011323921
102	0x3c65dc07	0.014029509
103	0x3c67e7b0	0.01415436
104	0xbc8ad1d5	-0.016945759
105	0xbc940e8d	-0.018073345
106	0xbce990fd	-0.028511519
107	0xbd815e6f	-0.0631684
108	0x3b14630f	0.0022642051
109	0x3cfa16fc	0.030528538
110	0x3c2b8f23	0.010471138
111	0x3a947275	0.0011325615
112	0x3be2fc19	0.006927025
113	0xbd6016bc	-0.05470918
114	0x3c708f9e	0.0146826785
115	0x3c123f60	0.008926243
116	0x3c984f06	0.018592369
117	0x3d0b2d32	0.03397865
118	0xbcb53e4d	-0.022124434
119	0xbc46e548	-0.012139626
120	0x3c984a0b	0.018589994
121	0xbd805db3	-0.06267872
122	0x3c7e61d2	0.015526252
123	0x3d971aeb	0.07378181
124	0x3ba52bcd	0.005040622
125	0xbb64fa62	-0.003493928
126	0xbac7e57b	-0.0015250886
127	0xbceb44e6	-0.028719377
128	0x3d469cf8	0.04848954
129	0x3c8d3d34	0.017241098
130	0x3c6addcf	0.01433511
131	0x3d4fb27a	0.050707318
132	0x3c1dffdb	0.00964352
133	0x3d3aa786	0.04556992
134	0xbd3535d3	-0.044240784
135	0xbcf6f734	-0.030147173
136	0xbc755ec6	-0.014976209
137	0xbc63e222	-0.013908895
138	0x3c8a4aec	0.016881429
139	0xbcef885c	-0.029239826
140	0xbc42addd	-0.011882273
141	0x3cd0fd21	0.025511326
142	0x3cd91a2b	0.026501736
143	0x3d4accc8	0.0495117
144	0xbbd1d153	-0.006403127
145	0xbbec2b9f	-0.0072073485
146	0xbc91f148	-0.017815247
147	0x3bc205d7	0.0059211063
148	0xbcf2d9a6	-0.029644798
149	0xbcfc53ac	-0.030801617
150	0x3c5b034f	0.013367488
151	0x3dab0a67	0.083515935
152	0x3d0a8c94	0.033825472
153	0x3e1c5d80	0.15270042
154	0xbcf1e806	-0.029529583
155	0x3c996983	0.01872707
156	0x3d304ce2	0.04304207
157	0x3b1b719f	0.0023718846
158	0x3c65be18	0.014022373
159	0xbd500232	-0.050783344
160	0xbc530aca	-0.01288099
161	0x3cea3d6e	0.028593745
162	0x3d7a71af	0.061143573
163	0x3ccc6d63	0.024954503
164	0xbd03eeec	-0.032210276
165	0xbce0bf01	-0.027434828
166	0xbcbdcd80	-0.02316928
167	0x3cba5506	0.02274562
168	0x3d901acf	0.07036363
169	0xbb89706e	-0.004194311
170	0x3c241dfd	0.010016915
171	0x3d8d7de6	0.06908779
172	0x3c600324	0.013672624
173	0xbd2dc1a5	-0.042421002
174	0x3da78550	0.08179724
175	0xbc8ab69f	-0.016932784
176	0xbd00d784	-0.03145553
177	0x3d4d3af5	0.050105054
178	0x3d3d7f89	0.046264205
179	0x3d946f08	0.0724774
180	0x3e3fb30a	0.18720642
181	0x3d99a032	0.07501258
182	0x3d93d809	0.0721894
183	0xbbb1c3e5	-0.005424964
184	0x3be3ef35	0.006956006
185	0xbc89d59e	-0.016825493
186	0x3cb753e4	0.02237887
187	0x3dfba17b	0.12286659
188	0x3dce4232	0.100712195
189	0xbcb9956c	-0.022654258
190	0x3cf3b197	0.029747767
191	0xbc866f8a	-0.016410608
192	0x3d9299c9	0.071582384
193	0x3cc3d551	0.023905428
194	0x3b92c795	0.0044793584
195	0x3d9ac7e0	0.075576544
196	0xbb75e14d	-0.0037518323
197	0x3d8a67e9	0.067581005
198	0xbd183a98	-0.037165254
199	0xba2614ae	-0.0006335479
200	0xbbf6ca24	-0.0075314213
201	0x3d161700	0.03664303
202	0xbcf2e530	-0.0296503
203	0x3d5e615a	0.05429206
204	0x3d26978d	0.040671874
205	0x3c406d37	0.011744789
206	0xbb8125c0	-0.0039412677
207	0xbcb122a9	-0.021622973
208	0xbcc926ce	-0.024554636
209	0x3e081224	0.1328817
210	0xbbf02c73	-0.0073295175
211	0xbca93612	-0.020655666
212	0x3d32b8d1	0.043633286
213	0xbc1b211c	-0.009468343
214	0xbcc03fa8	-0.023467854
215	0xbcd2c1ac	-0.025727116
216	0x3d5658da	0.05233083
217	0x3dde50ef	0.108552806
218	0x3d533b05	0.051569957
219	0x3e38bb06	0.18040094
220	0xbc4615aa	-0.012090126
221	0xbc0a131b	-0.008427407
222	0x3d4d0f8a	0.050063647
223	0x3d0ee8a3	0.03488983
224	0x3da02ea0	0.07821393
225	0xbc16f5ab	-0.009213845
226	0x3d0d457e	0.0344901
227	0x3b8c8c19	0.004289162
228	0x3d63c8b0	0.055611312
229	0xbc4d72f0	-0.01253961
230	0x3d4d44ca	0.05011443
231	0x3be6d11e	0.0070439717
232	0xbadddb47	-0.0016926312
233	0x3d0c042f	0.034183677
234	0x3abe3414	0.001451137
235	0xbce885b7	-0.028384073
236	0x3d288351	0.041140858
237	0x3a98944e	0.0011640878
238	0x3cd45d22	0.025923315
239	0xbc820ce8	-0.015875295
240	0x3dee28fb	0.1162891
241	0x3da7f18c	0.08200368
242	0x3d662984	0.056191936
243	0x3ceddd7c	0.029036276
244	0x3db06125	0.08612279
245	0x3c42ade4	0.011882279
246	0x3e0bf412	0.13667324
247	0xbc751805	-0.01495934
248	0x3b8edbd0	0.0043597
249	0x3dc6aafc	0.097005814
250	0x3d7b0233	0.061281394
251	0xbd00108d	-0.031265784
252	0xbd519bf4	-0.05117412
253	0xbc01d3b3	-0.007924008
254	0x3dae104a	0.08499201
255	0xbd6e79b2	-0.058221526

Fd1da27LSTM.bias_hh_l0 f4 [600]
0	0xbd193b0e	-0.037409835
1	0x3be990bc	0.0071278494
2	0xbc0d9098	-0.008640431
3	0x3caab5da	0.020838667
4	0xbc53f35a	-0.0129364375
5	0xbc7a419f	-0.015274434
6	0x3c9f0924	0.019413538
7	0xbc8a7172	-0.016899798
8	0xbd06ce03	-0.03291131
9	0xbd90dd68	-0.0707348
10	0xbb8f99be	-0.004382341
11	0xb9c1dec2	-0.00036977796
12	0x3d1668de	0.036721103
13	0xbcf5f848	-0.030025616
14	0xbcae868e	-0.021304395
15	0xbca6b1ee	-0.020348515
16	0xbd0e8432	-0.03479404
17	0x3c553272	0.013012515
18	0x3d1e3a7f	0.038630005
19	0x3c1c26c0	0.009530723
20	0xbd1bfa4b	-0.038080495
21	0xbd601cef	-0.054715093
22	0xbb93f102	-0.0045148144
23	0x3ca1d17f	0.019753216
24	0xbd5f454b	-0.054509442
25	0x3c9438bb	0.018093457
26	0x3ce95525	0.028482983
27	0x3d3b4aa1	0.04572547
28	0xbc89eb95	-0.016835967
29	0xbb2fc013	-0.0026817366
30	0xbdd0cbf5	-0.10195152
31	0xbade2b56	-0.0016950171
32	0xbcdf4601	-0.02725506
33	0xbc78e175	-0.015190472
34	0x3d245451	0.040119473
35	0xbcc630ef	-0.024193255
36	0x3ce55de2	0.027998868
37	0xbd983d81	-0.07433606
38	0xbd4171ef	-0.047227796
39	0xbba6c019	-0.005088818
40	0xbc9a3c25	-0.018827507
41	0xbc9be4d0	-0.019030005
42	0xbd01138e	-0.03151279
43	0x3a8d23a2	0.0010768066
44	0x3c2c8034	0.010528613
45	0xbd0ad3c3	-0.033893358
46	0xbbed1e0a	-0.007236247
47	0xbc969bc2	-0.018384818
48	0xbcfe60d8	-0.031052038
49	0x3be9f4a5	0.0071397596
50	0xbcf6f66f	-0.030146806
51	0xbd64960b	-0.055807155
52	0xbbaa531b	-0.005197895
53	0xbd17dc26	-0.037075184
54	0xbd02c39a	-0.03192482
55	0xbd057495	-0.032581884
56	0xbcb5548e	-0.022135045
57	0xbba8fbb7	-0.00515696
58	0xbcf5e4e7	-0.030016376
59	0xbdc2f16a	-0.09518702
60	0xbc910a1f	-0.017705021
61	0x3c4652f8	0.012104742
62	0xbcccfa48	-0.025021687
63	0xbb90adeb	-0.004415264
64	0xbcbaaacb	-0.022786519
65	0xbc75eaf4	-0.0150096305
66	0xbcd81a7f	-0.026379822
67	0xbc18e443	-0.009331766
68	0xbbfd69cf	-0.0077335606
69	0xbb11c5b5	-0.0022243087
70	0xbbf8ecbb	-0.00759658
71	0x3b39cc26	0.0028350442
72	0xbd70694b	-0.058694165
73	0x3cd79d6b	0.02632018
74	0x3d3eb8c9	0.046562944
75	0xbc154cc5	-0.009112542
76	0xbda6344a	-0.08115442
77	0x3d02a67a	0.031897046
78	0x3c441b53	0.011969405
79	0x3b4bb50e	0.0031083259
80	0x3c639477	0.013890377
81	0x3b84e28b	0.0040553263
82	0xbb8c910a	-0.004289751
83	0xbcca1764	-0.024669357
84	0x3d3cd4cf	0.046101388
85	0xbd31c5b0	-0.04340142
86	0x3c9fbb19	0.019498395
87	0xbcddef15	-0.027091542
88	0xbbc31a69	-0.005954076
89	0x3b650be0	0.0034949705
90	0xbd4e4803	-0.050361644
91	0x396f9e32	0.00022851749
92	0x3c9dfe89	0.01928641
93	0xbaa56e59	-0.0012621387
94	0xbd639565	-0.055562396
95	0xbc819f71	-0.015823098
96	0xbd627802	-0.05529023
97	0xbc43cbb5	-0.011950423
98	0x3c904c9c	0.017614655
99	0xbd08705b	-0.033310276
100	0x3d2a89d0	0.041635334
101	0x3c4869f3	0.0122322915
102	0x3d1c57a3	0.038169514
103	0x3d4aa4f6	0.049473725
104	0x3cd2a234	0.02571211
105	0xbb45fd27	-0.0030210705
106	0x3c041884	0.008062486
107	0x3b93fbb1	0.004516088
108	0xbbf4b572	-0.007467919
109	0x3c97b44f	0.018518595
110	0xbc22df12	-0.009940879
111	0xbd66b2c8	-0.056322843
112	0x3c9b0a1c	0.018925719
113	0xbd872e35	-0.0660061
114	0x3c12df68	0.008964397
115	0x3cc0aafe	0.023519035
116	0x3c404344	0.011734787
117	0x3c403185	0.011730556
118	0xbd24ebec	-0.040264055
119	0xbd3ba1d6	-0.045808636
120	0x3b64a7df	0.0034890098
121	0xbc5686a0	-0.013093621
122	0xba9be43d	-0.0011893582
123	0x3c1d250d	0.009591353
124	0xbd19893e	-0.0374844
125	0x3ced4bbd	0.028966779
126	0xbcfa81de	-0.030579504
127	0x3ca9eb2d	0.020742023
128	0xba6748cb	-0.00088227977
129	0xbce8d87e	-0.028423544
130	0xbc874ee4	-0.01651711
131	0xbc143556	-0.009045919
132	0xbcda2550	-0.02662912
133	0xbc526fbe	-0.012844024
134	0xbc2dd75d	-0.010610429
135	0xbd97c615	-0.07410828
136	0xbb1a3c4a	-0.002353447
137	0xba712258	-0.0009198538
138	0x3d175faa	0.036956467
139	0xbd1a9e55	-0.037748653
140	0xbc867c35	-0.016416648
141	0x3c938f67	0.018012716
142	0x3cc94cb5	0.02457271
143	0xbc1d7fb9	-0.009612971
144	0xbcb8c185	-0.022553215
145	0x3b9cd758	0.004786413
146	0xbd2ca1a2	-0.042146333
147	0x3b5ce5b1	0.0033706243
148	0x3c3cc49e	0.011521487
149	0xbcaf56a4	-0.021403618
150	0xbcc287b9	-0.023746358
151	0x3cffcdff	0.031226156
152	0xbc8ced0a	-0.017202873
153	0x3e31f709	0.17379393
154	0x3c6dc94d	0.014513326
155	0x3d0066b2	0.031347938
156	0x3d6fd98c	0.05855708
157	0xbcce600a	-0.02519228
158	0x3c9ed573	0.01938889
159	0x3d369fec	0.044586107
160	0xbd658fc2	-0.0560453
161	0x3d31db35	0.043421943
162	0xbce33a33	-0.027737712
163	0xbce58336	-0.028016668
164	0xbcb6d988	-0.022320524
165	0xbd010edc	-0.03150831
166	0xbc233607	-0.009961612
167	0xbc39f2c8	-0.0113493875
168	0x3cbf8f64	0.023383804
169	0x3c46e55f	0.012139647
170	0xbba708cc	-0.005097484
171	0x3e08ef5d	0.1337256
172	0x3d197f03	0.037474643
173	0x3aa4c795	0.0012571687
174	0x3d0daa63	0.03458632
175	0x3c448ac7	0.011995978
176	0xbd91ca4f	-0.071186654
177	0x3d9bc428	0.07605773
178	0x3c9b98cd	0.01899376
179	0x3dd41026	0.103546426
180	0x3df80d39	0.12111897
181	0x3d2b081f	0.04175579
182	0x3c03f4b6	0.008053949
183	0x3d1ea207	0.03872874
184	0x3d889715	0.066694416
185	0xba3cd200	-0.00072029233
186	0x3cb4dff4	0.022079445
187	0x3d80da01	0.06291581
188	0x3de101da	0.10986681
189	0xbcaa3798	-0.020778462
190	0x3c63b78c	0.013898741
191	0xbbc52c06	-0.006017211
192	0x3cdd1e95	0.026992122
193	0x3dc16571	0.094431765
194	0x3d66461d	0.05621921
195	0x3c9604c3	0.018312817
196	0x3d1c6bfd	0.038188923
197	0x3db050fb	0.08609196
198	0xbd05fb81	-0.032710556
199	0x3a3a37aa	0.00071036315
200	0xbd4f3a69	-0.050592814
201	0x3d9529cd	0.072833635
202	0xbd3b3a61	-0.04570997
203	0xbd4b2b3b	-0.049601775
204	0x3d7d0d89	0.061780486
205	0x3b6952fc	0.003560244
206	0x3cb7a4c5	0.022417435
207	0x3c4e7f60	0.012603611
208	0xbc56990f	-0.013098015
209	0x3d9de47e	0.07709597
210	0xbcc244aa	-0.023714382
211	0xbb165437	-0.002293838
212	0x3cf68742	0.030093793
213	0xbc555f9d	-0.013023284
214	0x3c97b19f	0.018517314
215	0xbcaab834	-0.020839788
216	0xbc92f63b	-0.017939677
217	0x3df46687	0.11933618
218	0x3dbd2e99	0.092374034
219	0x3dc799cf	0.097461335
220	0xbc0fa0eb	-0.008766393
221	0xbc874a76	-0.016514998
222	0xbd06b023	-0.03288282
223	0xbbd25a4b	-0.006419455
224	0x3da3adcb	0.07992133
225	0xbcab682f	-0.020923702
226	0x3b529342	0.003213123
227	0x3d275ed4	0.04086192
228	0x3d88e864	0.0668495
229	0x3cce8c3f	0.025213359
230	0x3d1f4509	0.038884196
231	0x3d5c4fdf	0.05378711
232	0xbb3b5c6a	-0.0028589019
233	0x3cf76b4e	0.030202534
234	0xbd03e292	-0.032198496
235	0xb8deb84c	-0.00010620113
236	0x3d9872a1	0.07443739
237	0xbbd9438b	-0.006630366
238	0x3d37cde6	0.044874094
239	0x3d61c422	0.055118687
240	0x3dc7dcce	0.09758912
241	0x3db9670f	0.0905286
242	0x3d65acc6	0.056072973
243	0x3c08c29b	0.008347179
244	0xbb100743	-0.0021976985
245	0x3d6072f7	0.05479714
246	0x3d0796d0	0.03310281
247	0xbd24d427	-0.040241387
248	0xbcc8d564	-0.024515815
249	0x3d9532e3	0.072850965
250	0x3c2e27d1	0.01062961
251	0x3d07eb4e	0.03318339
252	0xbd5835b5	-0.052785594
253	0xbc87b141	-0.016564013
254	0x3ad2605c	0.0016050446
255	0xbd3bafbe	-0.045821898

ClassificationFd1da27.0.weight f4 [150]
0	0x3f78fceb	0.9726092
1	0x3f79b699	0.97544247
2	0x3f881c10	1.0633564
3	0x3f72ccd6	0.94843805
4	0x3f5316d3	0.824567
5	0x3f7b7d9f	0.9823856
6	0x3f83cbd1	1.0296575
7	0x3f81ddac	1.0145774
8	0x3f83937e	1.0279386
9	0x3f819b47	1.0125512
10	0x3f81a592	1.0128653
11	0x3f39dcda	0.7260262
12	0x3f566e49	0.8376203
13	0x3f7f60bd	0.99756986
14	0x3f86700b	1.0502943
15	0x3f801965	1.000775
16	0x3f861374	1.0474687
17	0x3f8450de	1.0337179
18	0x3f738450	0.9512377
19	0x3f5cda61	0.8627072
20	0x3f7933d7	0.97344726
21	0x3f78494e	0.96986854
22	0x3f8332b8	1.0249853
23	0x3f88db1b	1.0691866
24	0x3f80685c	1.0031848
25	0x3f8754e0	1.0572777
26	0x3f8b44f6	1.088042
27	0x3f353624	0.7078574
28	0x3f87e0f5	1.0615526
29	0x3f6a7028	0.91577387
30	0x3f8607e2	1.0471156
31	0x3f836c54	1.0267434
32	0x3f833de2	1.025326
33	0x3f83a74b	1.0285429
34	0x3f82ea27	1.0227708
35	0x3f86fc4c	1.0545745
36	0x3f8003fa	1.0001214
37	0x3f64c75b	0.8936669
38	0x3f43faa5	0.7655433
39	0x3f6f7cf7	0.93550056
40	0x3f7b2ca2	0.9811498
41	0x3f71c8c5	0.94446975
42	0x3f8642c3	1.0489124
43	0x3f82f95f	1.0232352
44	0x3f82f198	1.0229979
45	0x3f8510be	1.0395734
46	0x3f59da81	0.85099036
47	0x3f8ca3f9	1.098754
48	0x3f87e77f	1.0617522
49	0x3f7bdb3b	0.98381394
50	0x3f83756d	1.027021
51	0x3f78bbfb	0.97161835
52	0x3f831626	1.0241134
53	0x3f80a235	1.0049502
54	0x3f743f8f	0.9540948
55	0x3f7d8b42	0.99040616
56	0x3f7e1b18	0.9926009
57	0x3f7b233d	0.98100644
58	0x3f72c2c2	0.94828427
59	0x3f84aa7d	1.0364529
60	0x3f83c5a6	1.0294693
61	0x3f84ec3a	1.0384591
62	0x3f812ea7	1.0092362
63	0x3f4cbd71	0.79976565
64	0x3f8328aa	1.0246785
65	0x3f6f71e9	0.9353319
66	0x3f8ac7f2	1.0842268
67	0x3f8768c4	1.0578847
68	0x3f731b00	0.94963074
69	0x3f5bb49b	0.8582246
70	0x3f7a7359	0.97832257
71	0x3f88a943	1.0676655
72	0x3f6005a1	0.8750859
73	0x3f724f02	0.94651806
74	0x3f80ff35	1.0077883
75	0x3f818d76	1.0121295
76	0x3f82a9fd	1.0208126
77	0x3f8a8081	1.0820466
78	0x3f8132c5	1.0093619
79	0x3f88a776	1.0676105
80	0x3f7a15c7	0.9768948
81	0x3f75ef0a	0.9606787
82	0x3f746340	0.95463943
83	0x3f85f67a	1.0465844
84	0x3f4b65ff	0.7945251
85	0x3f7501d3	0.9570591
86	0x3f82b5a0	1.0211678
87	0x3f7d6675	0.9898446
88	0x3f8329ec	1.0247169
89	0x3f839df8	1.0282583
90	0x3f7da26a	0.9907595
91	0x3f1e013f	0.6172065
92	0x3f709cf2	0.9398948
93	0x3f58ad98	0.84639883
94	0x3f82cccb	1.0218748
95	0x3f80e082	1.0068514
96	0x3f42b1c8	0.7605252
97	0x3f83486c	1.0256476
98	0x3f86a388	1.0518656
99	0x3f841fe1	1.0322229
100	0x3f8584df	1.0431174
101	0x3f893d5e	1.0721853
102	0x3f8e36d1	1.1110479
103	0x3f6bc32c	0.92094684
104	0x3f8241b0	1.0176296
105	0x3f42c233	0.76077574
106	0x3f81a9ba	1.0129921
107	0x3f511cc3	0.8168451
108	0x3f899b66	1.0750549
109	0x3f894ad1	1.0725957
110	0x3f8640b7	1.0488499
111	0x3f7a750f	0.9783487
112	0x3f8b652b	1.0890249
113	0x3f48f29c	0.7849519
114	0x3f81bd5b	1.0135912
115	0x3f77e6d7	0.9683661
116	0x3f83c278	1.0293722
117	0x3f88f0ad	1.0698448
118	0x3f8954f7	1.0729054
119	0x3f1ce4c1	0.6128655
120	0x3f84a125	1.0361677
121	0x3f81b0d9	1.0132095
122	0x3f84da6c	1.0379157
123	0x3f7b7e4c	0.9823959
124	0x3f8836cd	1.0641724
125	0x3f720321	0.94536024
126	0x3f81f2e4	1.0152249
127	0x3f82ca01	1.0217897
128	0x3f84b9f0	1.0369244
129	0x3f755458	0.95831823
130	0x3f58f8f3	0.84754866
131	0x3f88c03c	1.0683665
132	0x3f82511c	1.0181003
133	0x3f850c51	1.0394384
134	0x3f780540	0.9688301
135	0x3f82eaaf	1.022787
136	0x3f79f270	0.97635555
137	0x3f83aeab	1.028768
138	0x3f84ec01	1.0384523
139	0x3f706f47	0.93919796
140	0x3f800b8a	1.0003521
141	0x3f8473b3	1.0347809
142	0x3f858d4d	1.0433747
143	0x3f3ce8e1	0.73792845
144	0x3f219829	0.631228
145	0x3f3e8347	0.74419063
146	0x3f810f89	1.0082866
147	0x3f8abe73	1.083937
148	0x3f744224	0.9541342
149	0x3f812468	1.0089235

ClassificationFd1da27.0.bias f4 [150]
0	0x3b536fb4	0.0032262625
1	0xbc31e3f0	-0.010857567
2	0xbcfc5465	-0.030801961
3	0xbbc03973	-0.0058662235
4	0xbc59e8c5	-0.0133001255
5	0xbc6f8f3a	-0.01462155
6	0xbb99665d	-0.004681392
7	0x3b82a728	0.0039872117
8	0x3cb601a9	0.022217588
9	0x3cef67a1	0.029224219
10	0x3bda8b40	0.006669432
11	0xbb399078	-0.002831487
12	0xbbf14223	-0.0073626204
13	0x3bb725fa	0.005589244
14	0x3ce88802	0.028385166
15	0x3b9e1891	0.004824706
16	0x3c1beac8	0.009516425
17	0xbb0009c9	-0.0019537082
18	0xbc827717	-0.015925927
19	0x3a5109be	0.0007974169
20	0x3d0f3b79	0.034968827
21	0x3c6ee90f	0.014581933
22	0xbd41b162	-0.047288306
23	0x3c2fa7fa	0.010721201
24	0x3ca3aed3	0.019980824
25	0xbcbb18de	-0.022839006
26	0x3c5cf3e5	0.013485883
27	0xbb650cff	-0.0034950373
28	0xba86f04a	-0.0010295
29	0x3b866ac4	0.004102083
30	0x3d532bad	0.051555324
31	0x3c01dcb9	0.00792616
32	0x3c06a6ee	0.00821851
33	0xbc708257	-0.014679513
34	0xbc37d97d	-0.011221287
35	0xbc35cb87	-0.011095888
36	0x3c9e4474	0.01931975
37	0x3c12e36e	0.008965356
38	0xbb22c944	-0.0024839202
39	0x3b93e011	0.004512795
40	0xbb851465	-0.004061269
41	0xbc02d729	-0.0079858685
42	0xbb769f00	-0.0037631392
43	0x3c0c4b65	0.008562897
44	0xbc5cb592	-0.013471024
45	0xbb1bded7	-0.0023783946
46	0xba559a4a	-0.0008148296
47	0xbb5c8125	-0.0033646312
48	0x3b871e8f	0.004123516
49	0xbbb2c4b9	-0.00545558
50	0x3a0f8632	0.0005475014
51	0x3b6cbd71	0.0036123658
52	0x399245e8	0.00027899374
53	0x3ce7a5b1	0.02827725
54	0x3b352657	0.002764126
55	0x3ad2c8c5	0.0016081562
56	0x3cfdac21	0.030965867
57	0x3c069ce9	0.008216121
58	0xbc9e2bc6	-0.019307982
59	0x3ca32484	0.019914873
60	0x3c0a2cbc	0.008433517
61	0xbc8af0c2	-0.016960505
62	0xbb089fc0	-0.0020847172
63	0x3b706cd2	0.0036685956
64	0x3aec9bf7	0.0018051852
65	0x3c4889ee	0.012239916
66	0xbb0ea7cb	-0.0021767493
67	0x3cdb2812	0.026752505
68	0x3c4faede	0.012675969
69	0x3c4b088e	0.012392176
70	0xbb25482d	-0.0025220022
71	0xbb9c8d7b	-0.004777608
72	0x3bfb6566	0.0076719997
73	0x3c702af2	0.014658676
74	0xbc70cd31	-0.014697359
75	0x3bf17905	0.007369163
76	0x3d240e51	0.040052716
77	0xbb024434	-0.0019877078
78	0x3b37389a	0.002795732
79	0xbb4a16f8	-0.0030836444
80	0xbbdcd43b	-0.006739167
81	0x3a429d57	0.0007423958
82	0x3c46297e	0.012094853
83	0x3b416800	0.0029511452
84	0xbad3d91c	-0.0016162726
85	0x3ba71be2	0.0050997594
86	0xbc03a198	-0.008034132
87	0xbca91442	-0.020639542
88	0xbc18581c	-0.009298351
89	0x3c85f03b	0.016349902
90	0x3d0fd077	0.035110917
91	0xbc084f99	-0.008319759
92	0xbcb1c794	-0.021701612
93	0xbbda0290	-0.0066531375
94	0x3b3bd626	0.0028661578
95	0x3ce8974a	0.028392453
96	0x3a91e285	0.001113013
97	0xbc04ac01	-0.00809765
98	0x3b105fc6	0.0022029742
99	0x3d04d7cb	0.03243236
100	0xbc789316	-0.015171787
101	0x3c83f516	0.016108077
102	0x3c92cf49	0.017921107
103	0x3c7d32dc	0.01545402
104	0x3c28e0eb	0.010307531
105	0xbc46fd80	-0.0121454
106	0xbba82c30	-0.0051322207
107	0xbb1c84b8	-0.0023882817
108	0x3c3fe4ec	0.011712294
109	0x3bb2abe2	0.005452619
110	0xbb1c45d3	-0.002384533
111	0x3c490d01	0.012271167
112	0xbcc3a8c7	-0.02388419
113	0xbb0e4b83	-0.002171249
114	0x3d085bbb	0.033290606
115	0xbb91733e	-0.004438787
116	0x3bf9ada5	0.007619577
117	0x3c25dda4	0.010123644
118	0xbb17a047	-0.0023136304
119	0xbb90b026	-0.00441553
120	0x3c875f1e	0.016524848
121	0x3c689b94	0.014197249
122	0xbc1640df	-0.00917074
123	0xbaea295a	-0.0017865107
124	0xbc5e9641	-0.013585628
125	0xbc8e57f9	-0.017375933
126	0x3c2a5bff	0.01039791
127	0x3cd8a856	0.026447456
128	0x3d2a3dcc	0.04156284
129	0xbcf3ffd0	-0.029785067
130	0xbc2dcf9b	-0.010608579
131	0xb9fb681f	-0.00047952027
132	0xbb54cfd8	-0.0032472517
133	0x3ce271b2	0.027642105
134	0xbb4fc3b0	-0.0031702332
135	0x3cf2cc36	0.029638391
136	0x3a919dd9	0.0011109664
137	0x3bff86cc	0.0077980515
138	0x39ad65be	0.00033072935
139	0x39c685be	0.0003786515
140	0xbca12550	-0.019671112
141	0x3c62cc37	0.013842634
142	0x3c4eca88	0.012621529
143	0xba43fbb5	-0.0007476167
144	0xbc40bacc	-0.011763286
145	0xbc0b8233	-0.008514929
146	0xbbb4502c	-0.0055027213
147	0xb9d42ba2	-0.000404683
148	0xbb9aed86	-0.004728022
149	0xbc344b8f	-0.011004343

ClassificationFd1da27.0.running_mean f4 [150]
0	0x3d391061	0.045181636
1	0xbe740f39	-0.23833932
2	0x3d0dae83	0.034590255
3	0xbdcbef0e	-0.099577054
4	0xbdfbc23b	-0.12292906
5	0xbd974121	-0.07385469
6	0x3e5f03b8	0.21778762
7	0xbde3ca20	-0.11122537
8	0xbe17d179	-0.14826001
9	0x3de4be2d	0.11169086
10	0xbc87f9ff	-0.0165987
11	0xbe007e42	-0.12548164
12	0xbe6d846b	-0.23195045
13	0x3d8ab8dd	0.06773541
14	0x3b79fc1f	0.003814466
15	0x3ba43bb3	0.0050119995
16	0x3d9bd1ad	0.07608352
17	0xbc78e2bd	-0.015190777
18	0xbe8f9de3	-0.28050146
19	0xbd6c96a4	-0.05776085
20	0x3e8efbd9	0.2792652
21	0x3ef7bbfe	0.48385614
22	0x3db3885b	0.08766242
23	0x3cf73fb3	0.030181741
24	0x3e666c57	0.22502266
25	0xbddab386	-0.10678773
26	0xbd8dae2e	-0.06917988
27	0xbecf20b9	-0.40454653
28	0xbcf02d6b	-0.029318532
29	0x3e892ec0	0.2679348
30	0x3e9494db	0.29019818
31	0x3cfab567	0.030604078
32	0x3e6ec2b4	0.23316461
33	0x3b5bdb36	0.0033547408
34	0x3ceed2ec	0.02915331
35	0x3c2cf4e8	0.010556437
36	0xbc8b6bc4	-0.01701916
37	0x3f1241d8	0.5713172
38	0xbdac1cdc	-0.08403942
39	0xbab89ea0	-0.001408536
40	0xbc9ebc2f	-0.019376842
41	0x3d2d3718	0.04228887
42	0x3e252c2d	0.16130133
43	0xbe8e6acb	-0.27815852
44	0xbd8d0a83	-0.068867706
45	0x3e302ca9	0.17204536
46	0xbed3f8b6	-0.4140069
47	0xbdcb9a72	-0.099415675
48	0x3d7d507d	0.061844338
49	0x3d24f7fd	0.040275563
50	0xbd26b668	-0.0407013
51	0xbe160b22	-0.14652684
52	0xbcab7729	-0.020930843
53	0x3e5551c8	0.20831978
54	0xbd73eca4	-0.05955185
55	0xbd6cae1b	-0.057783227
56	0x3db35f37	0.08758395
57	0xbeb96e3e	-0.3621692
58	0x3d9eb8b8	0.07750076
59	0x3e67915a	0.22614041
60	0x3c3cdfd0	0.01152797
61	0xbda3219c	-0.07965395
62	0xbd38fd1a	-0.04516325
63	0x3c75f6e6	0.015012478
64	0x3cfc7b3c	0.030820481
65	0xbcd82007	-0.02638246
66	0xbd6cb4df	-0.05778968
67	0xbea0c230	-0.31398153
68	0x3eb539fe	0.35395807
69	0x3f17558a	0.591149
70	0x3d8952b1	0.06705225
71	0x3d1c7cf1	0.03820509
72	0xbd9c6bd6	-0.076377556
73	0x3e976412	0.29568535
74	0xbe0c79d9	-0.13718356
75	0x3ce5d937	0.028057678
76	0x3e47600c	0.19470233
77	0xbe197396	-0.14985499
78	0x3d81850b	0.06324204
79	0xbdb29f4b	-0.08721789
80	0xbde6aba7	-0.11263209
81	0xbd36b56f	-0.044606622
82	0xb977f87f	-0.00023648328
83	0x3caa7395	0.020807067
84	0xbe01e690	-0.12685609
85	0xbe202e8c	-0.15642756
86	0x3e288360	0.16456366
87	0xbde4af3e	-0.11166237
88	0xbd97bf49	-0.074095316
89	0x3deda3d4	0.11603513
90	0x3ed388d8	0.4131534
91	0xbcb7d2cc	-0.022439383
92	0x3bf1fef0	0.0073851272
93	0xbca2ec20	-0.019887984
94	0x3e443b5d	0.1916327
95	0xbe7177f2	-0.23580912
96	0xbf20ac40	-0.6276283
97	0x3beb1b55	0.007174889
98	0xbd655174	-0.055985883
99	0x3dc26a83	0.09492972
100	0xbb6e2b85	-0.0036341858
101	0x3be6c6a0	0.007042721
102	0xbd8ab1e9	-0.06772215
103	0xbe9534a2	-0.29141718
104	0x3e8f9b14	0.28048003
105	0xbe3e84c0	-0.18605328
106	0x3cb8d8a9	0.02256425
107	0xbd6a04e1	-0.05713356
108	0x3c788bf5	0.015170087
109	0x3ab6a48e	0.0013934539
110	0x3d3a8f7e	0.045547
111	0x3e0b3d52	0.1359761
112	0x3db2d863	0.08732679
113	0xbe0f3069	-0.13983311
114	0x3c6025fc	0.013680931
115	0x3d33e22e	0.043916874
116	0xbdf3e9d0	-0.119098306
117	0xbc92a62b	-0.0179015
118	0x3cf989e1	0.030461254
119	0xbde39569	-0.11112482
120	0x3b8ca099	0.0042916057
121	0x3e04044d	0.12892266
122	0xbcb25884	-0.021770723
123	0x3eae9c64	0.34103692
124	0xbcd3b55f	-0.02584332
125	0x3eb0f8ed	0.34564915
126	0xbe22725b	-0.15863936
127	0x3d7878c7	0.060662057
128	0x3de3bcd0	0.111199975
129	0xbe532f1b	-0.20623438
130	0xbe01e8c8	-0.12686455
131	0xbd5550ae	-0.052078895
132	0x3b811ef4	0.0039404575
133	0x3e7b416f	0.2453668
134	0x3e30bc9e	0.17259452
135	0x3dea003f	0.11425828
136	0xbdc65131	-0.09683455
137	0x3e1936fc	0.14962381
138	0xbc8aa512	-0.016924415
139	0xbd0850fb	-0.033280354
140	0x3d0c25ba	0.034215666
141	0xbd436f92	-0.047713824
142	0xba5ace26	-0.00083467586
143	0xbf2860a0	-0.6577244
144	0x3e06b140	0.13153553
145	0xbcaf5132	-0.021401022
146	0xbd5f27be	-0.05448126
147	0x3bb972ac	0.005659422
148	0x3dea3a0e	0.11436854
149	0x3a483a5c	0.0007638091

ClassificationFd1da27.0.running_var f4 [150]
0	0x3a224d73	0.00061913504
1	0x3b9fe694	0.004879782
2	0x39e2ea93	0.0004328085
3	0x3a8d2461	0.0010768288
4	0x39dbca18	0.00041921507
5	0x399d91b1	0.00030053922
6	0x3a8739f4	0.0010316954
7	0x3a4937bf	0.00076758483
8	0x3a000331	0.0004883288
9	0x3a59335a	0.0008285545
10	0x398ba967	0.0002663836
11	0x39c277d7	0.0003709185
12	0x3b407d1e	0.002937145
13	0x3a119e2e	0.00055548816
14	0x39c333f2	0.00037232
15	0x394e416c	0.00019670062
16	0x38ed2c34	0.00011309274
17	0x399e5746	0.00030201132
18	0x3c1328ec	0.0089819245
19	0x397bdf31	0.0002402037
20	0x3b13513c	0.002247884
21	0x3aa4de2b	0.0012578418
22	0x3a3de627	0.0007244073
23	0x39483925	0.00019094774
24	0x3b62b425	0.0034592238
25	0x3a1fcaec	0.00060956064
26	0x398480ec	0.00025273056
27	0x3a0d1fc3	0.0005383456
28	0x3a47d627	0.0007623159
29	0x3c2d1201	0.0105633745
30	0x3c931b36	0.017957311
31	0x3ad314c8	0.0016104216
32	0x3b102823	0.002199658
33	0x39d258dc	0.00040120527
34	0x3a479a07	0.00076141994
35	0x390781c2	0.00012922942
36	0x3a8aa00e	0.0010576264
37	0x3bb3fb76	0.005492623
38	0x3b5ae943	0.0033403195
39	0x3899f862	7.3418734e-05
40	0x392e3557	0.00016613804
41	0x39aa390c	0.0003246743
42	0x3ab4eb12	0.0013802967
43	0x3b5848bb	0.0033002335
44	0x39e91764	0.0004445865
45	0x3a822ff5	0.0009932505
46	0x3b90f79e	0.0044240495
47	0x3a2f3ac3	0.00066844764
48	0x3a794d49	0.00095101126
49	0x3a0c75fb	0.00053581566
50	0x38d0cd3d	9.9564415e-05
51	0x3b845e10	0.0040395334
52	0x39103f0e	0.000137564
53	0x3b4d8152	0.0031357598
54	0x3a02c652	0.00049886585
55	0x3923389a	0.00015565977
56	0x39cc2217	0.0003893531
57	0x3b1419da	0.0022598417
58	0x39f45f1d	0.00046610172
59	0x3bb2261c	0.005436672
60	0x38f24c4f	0.00011553673
61	0x3a069e5f	0.00051352935
62	0x39ac3add	0.00032850253
63	0x3928809c	0.00016069639
64	0x394ef5a1	0.00019737195
65	0x392b4aef	0.00016335746
66	0x396cbcfa	0.00022577113
67	0x3c7b6353	0.015343505
68	0x3b0b363a	0.0021242038
69	0x3a60cbe5	0.00085753045
70	0x3a6a734f	0.0008943574
71	0x3a6017a6	0.0008548446
72	0x3a8b432e	0.001062488
73	0x3aa82ac1	0.0012830124
74	0x3b9559e3	0.0045578345
75	0x39e099f6	0.0004283932
76	0x3b206588	0.002447458
77	0x3bdfb2c6	0.0068267314
78	0x3add6044	0.0016889651
79	0x3a6960aa	0.00089026487
80	0x3a9d7e80	0.0012015849
81	0x3ab2fb70	0.0013655256
82	0x394c4aff	0.00019482894
83	0x3a04695a	0.0005051099
84	0x3b30599d	0.0026908882
85	0x3af4af2f	0.0018667931
86	0x3aa402b4	0.0012513013
87	0x39843273	0.0002521459
88	0x3a4545ef	0.00075253745
89	0x3a320665	0.0006791114
90	0x3b62997f	0.0034576354
91	0x3b157273	0.0022803813
92	0x3b5ce72a	0.003370712
93	0x395c47e0	0.0002100761
94	0x3be18900	0.0068827868
95	0x3a836e25	0.0010027332
96	0x3a83421d	0.001001421
97	0x398702cb	0.00025751287
98	0x399d723b	0.00030030482
99	0x3b223e4a	0.0024756365
100	0x3a4d3803	0.0007828476
101	0x39c9a932	0.00038463768
102	0x3a8d8175	0.0010796027
103	0x3a8fa77c	0.0010959948
104	0x3a8995ca	0.0010496911
105	0x3a20723f	0.00061205396
106	0x390be1d1	0.00013340196
107	0x3ae39048	0.0017361725
108	0x39af85b7	0.00033478226
109	0x39d2d4df	0.00040212923
110	0x3a087ee0	0.0005206894
111	0x3ae898cd	0.0017745733
112	0x3aa27054	0.0012393096
113	0x39996f48	0.00029265345
114	0x39815563	0.00024668415
115	0x3b9745b5	0.004616464
116	0x3ac06694	0.0014679008
117	0x3a9ddd7e	0.0012044159
118	0x399e484b	0.0003018997
119	0x39c0bf88	0.00036763796
120	0x39d66320	0.00040891115
121	0x3a35a96b	0.00069298473
122	0x3a99e4ba	0.001174114
123	0x3b705c99	0.0036676286
124	0x3b03b9b0	0.0020099692
125	0x3a1d69b9	0.00060048286
126	0x3b564c34	0.003269923
127	0x3a0a9928	0.0005287104
128	0x3a185ed2	0.0005812469
129	0x39d58dff	0.0004073232
130	0x3bbe0db4	0.0057999734
131	0x3a841df2	0.0010079725
132	0x3a648a01	0.0008718074
133	0x3afcad51	0.0019277727
134	0x3a92f628	0.0011212276
135	0x3a7d61c0	0.000966575
136	0x3aded286	0.0016999997
137	0x3a6c05b4	0.00090035354
138	0x3a987525	0.0011631591
139	0x39d6429e	0.00040866894
140	0x3974330b	0.00023288668
141	0x39d23ded	0.0004010046
142	0x3993a888	0.0002816359
143	0x3a159ffa	0.00057077373
144	0x3a261ffe	0.00063371647
145	0x3a0fd5fa	0.0005486902
146	0x39797374	0.000237895
147	0x39919510	0.00027767615
148	0x395eba87	0.00021241057
149	0x3897b3b0	7.2337105e-05

ClassificationCat.0.weight f4 [1, 150]
0	0x3d9142e0	0.070928335
1	0x3d6d3faa	0.057922043
2	0xbdee6a75	-0.11641399
3	0x3d334f13	0.043776583
4	0xbc0afc6b	-0.008483033
5	0xbd8a1ddd	-0.06743977
6	0x3dbcb71f	0.09214615
7	0xbda651fd	-0.08121107
8	0x3df60de5	0.12014369
9	0x3dc7e9f1	0.09761418
10	0x3dd9bfd7	0.10632294
11	0xbc3a6840	-0.011377394
12	0x3cc43f30	0.023955911
13	0x3d8cfe81	0.0688448
14	0x3e046010	0.1292727
15	0x3d949616	0.07255189
16	0x3e001455	0.12507756
17	0x3dd4eb94	0.103964955
18	0x3d4c6aac	0.049906418
19	0x3d225829	0.039634857
20	0x3d970367	0.07373696
21	0x3d7ba316	0.061434828
22	0xbde3d0eb	-0.11123832
23	0x3deae5b6	0.11469595
24	0x3da2a6c7	0.079419665
25	0xbe137f5a	-0.1440405
26	0xbe19571b	-0.14974634
27	0x3c41ea35	0.011835624
28	0xbe03c1b2	-0.12866858
29	0x3cf82ee7	0.030295802
30	0x3ddde9ea	0.10835631
31	0xbde33ecd	-0.11095963
32	0x3dca1c78	0.09868711
33	0xbd972638	-0.073803365
34	0xbdc31214	-0.095249325
35	0xbdb873e1	-0.09006477
36	0x3d89d39e	0.06729816
37	0x3d0825ae	0.03323906
38	0x3b126bde	0.0022342126
39	0x3d433f55	0.04766782
40	0xbd5537b6	-0.052055083
41	0x3d41a506	0.04727652
42	0x3de717a2	0.112838045
43	0xbdd4e397	-0.10394972
44	0xbdb8bae2	-0.0902002
45	0xbde74e17	-0.11294191
46	0x3c274fdd	0.010211912
47	0xbe2cad02	-0.16862872
48	0x3e051aa6	0.12998447
49	0x3d9501f3	0.072757624
50	0xbd9864ee	-0.07441126
51	0x3d537f1f	0.051634904
52	0x3dc265aa	0.09492047
53	0x3dccc60f	0.09998714
54	0x3d6783de	0.056522243
55	0x3db0045f	0.08594584
56	0x3d9c4ffd	0.07632444
57	0xbd85180e	-0.06498729
58	0x3d5da67a	0.054113843
59	0x3dfd6dc8	0.12374455
60	0x3dd36a2f	0.10322987
61	0xbdabd901	-0.083909996
62	0x3dbe411a	0.09289761
63	0x3cc6d9d7	0.024273796
64	0x3df258bf	0.11833333
65	0x3d1081f5	0.035280187
66	0xbe063815	-0.13107331
67	0xbddc62cf	-0.10761034
68	0x3d2afc9d	0.041744817
69	0x3cf3d1bf	0.0297631
70	0x3d83162e	0.06400715
71	0xbe0482ce	-0.12940523
72	0xbcd00592	-0.025393281
73	0x3d23a7da	0.039954998
74	0xbd98973d	-0.074507214
75	0x3d9e4083	0.077271484
76	0x3de1d7f9	0.11027522
77	0xbe0f5a34	-0.13999254
78	0x3dcfb60a	0.10142143
79	0xbe0a80fa	-0.13525763
80	0xbd32d360	-0.043658614
81	0xbd0f4570	-0.03497833
82	0x3d7f67de	0.062354915
83	0xbdabe8f7	-0.08394044
84	0x3b43cad4	0.0029875534
85	0xbd18b9e2	-0.037286647
86	0xbdbc4aa5	-0.09193925
87	0xbd63a6f7	-0.055579152
88	0xbda2b296	-0.07944219
89	0x3db9609f	0.09051632
90	0x3d7b33ea	0.061328806
91	0x3c02f656	0.007993301
92	0xbd31aae1	-0.043375853
93	0xbc85fff9	-0.016357409
94	0x3dbfe32c	0.093695015
95	0xbdc574e7	-0.09641438
96	0x3cb6a00a	0.02229311
97	0xbdef9b8e	-0.116995916
98	0x3e01ea76	0.12687096
99	0x3de0b498	0.109719455
100	0xbe052a71	-0.13004471
101	0xbe0d6134	-0.13806611
102	0xbe14f94e	-0.14548227
103	0x3d333919	0.043755624
104	0x3dccbdcd	0.09997139
105	0xbc830b6a	-0.015996654
106	0xbd98e345	-0.07465223
107	0x3b1493a0	0.0022671
108	0x3dfda04a	0.12384088
109	0xbe1bfc6d	-0.15233012
110	0xbdeb5b7c	-0.11492059
111	0x3d6e4a3c	0.058176264
112	0xbdde6590	-0.10859215
113	0xbb2a2c65	-0.0025966403
114	0x3d9eeb24	0.07759693
115	0x3d5d5a43	0.05404116
116	0xbdba4203	-0.09094622
117	0xbe107d9a	-0.14110413
118	0xbe118a47	-0.14212905
119	0xbb276f69	-0.0025548583
120	0x3dbcabf4	0.09212485
121	0x3db77194	0.0895721
122	0xbda47324	-0.08029774
123	0xbd75d560	-0.060017943
124	0xbdf95cab	-0.12175878
125	0xbcc4131a	-0.02393489
126	0xbdada162	-0.08478047
127	0x3dca6d61	0.098841436
128	0x3e05160b	0.1299669
129	0x3d814722	0.06312396
130	0xbc0c85eb	-0.00857685
131	0x3e1733d6	0.14765868
132	0xbda5b484	-0.08091071
133	0x3de8dab8	0.11369842
134	0x3d7a2c4d	0.061077405
135	0x3de7d919	0.11320705
136	0x3d81c6ed	0.0633677
137	0x3dd49bdc	0.1038129
138	0xbde9391d	-0.113878466
139	0x3d130615	0.035894472
140	0xbd812d32	-0.063074484
141	0xbe00b80f	-0.12570213
142	0xbdb56d74	-0.08858767
143	0x3c469a6f	0.012121781
144	0xbc38d99d	-0.011282352
145	0xbc38561f	-0.011251002
146	0x3da4c5f8	0.08045572
147	0xbe28f1fb	-0.16498558
148	0x3d4d2b6a	0.05009023
149	0xbd879f42	-0.06622173
