models/2023-05-11_23-16/pytorch/1-F_2-E_2.pt (torch, 411855 bytes, 9 tensors)

Fd1da27LSTM.weight_ih_l0 f4 [600, 17]
000000 fe 68 ab bd 6f 88 83 bd a2 2a 23 bc 74 c4 61 3c
       -0.08369635 -0.06422507 -0.009958895 0.013779748
000010 0e 7a 1f bd bc a4 23 bb 13 1f 3f 3d 95 5f 4f bd
       -0.03893476 -0.0024970016 0.046660494 -0.050628264
000020 77 a5 aa 3c 57 30 85 bc c9 91 00 bd d5 13 ab bd
       0.020830853 -0.016258402 -0.03138903 -0.08353392
000030 13 61 4f 3b 8e a7 9e bd 4a f4 b7 3c 6a 1e b7 3d
       0.0031643554 -0.07746802 0.022455353 0.08941348
000040 58 3f 8c bd fe 5a 63 bd 72 ff 5d 3c 7c c6 ee bd
       -0.06848019 -0.0555067 0.013549672 -0.11658952
000050 89 e1 9a bd b2 12 dd bd e2 64 25 bd 50 e7 a7 3b
       -0.07562549 -0.107945815 -0.040379412 0.00512401
000060 35 87 91 bc 68 eb a2 bd 8d 24 9a bc b2 e1 1a bd
       -0.017764667 -0.079550564 -0.018816257 -0.037812896
000070 1f 0c f4 3c d1 7a 20 3c e2 bf 53 bd a4 4b 3a bd
       0.029790936 0.009794907 -0.051696666 -0.045482293
000080 b4 ef 04 bd 0f 2f 23 bd f3 9b dc bc dd bd c6 b9
       -0.03245516 -0.0398398 -0.026929831 -0.00037906962
000090 41 d2 a2 bd d4 d6 b5 3d 58 be 9f 3c ce a1 c4 ba
       -0.07950259 0.08878866 0.019499943 -0.0015001835
0000a0 07 79 8e 3c 88 5f 90 bd c3 09 04 3d 2c 3c 00 3d
       0.017391695 -0.07049471 0.032235872 0.031307384
0000b0 28 75 ae bd 93 3f a5 bd ab 75 cc bd 0f d5 da bc
       -0.085184395 -0.080687664 -0.09983381 -0.026712922
0000c0 0e cd 8e 3d 9e 38 c2 3d 94 d9 bb 3c f7 c3 58 bd
       0.06972705 0.09483455 0.022930898 -0.05292126
0000d0 03 cd d8 bc 3c 54 92 3c 29 50 80 3d d1 ef c0 bc
       -0.026464945 0.017862432 0.06265289 -0.023551853
0000e0 ed 66 9a bc 03 d4 ac bd 7e e4 d2 3b b5 a1 ac bd
       -0.018847907 -0.084388755 0.00643593 -0.08429281
0000f0 c9 fd 09 bd 93 b3 cb 3c 45 cc 5d bd c1 fd 13 3d
       -0.033689294 0.024865901 -0.054149885 0.03613067
000100 71 66 12 bd 19 2a d7 3b 00 f3 40 3c 50 a2 55 3d
       -0.035742227 0.0065662977 0.011776686 0.052156746
000110 fe d8 99 bc 6a fe 30 3d 4a a8 1d bd 05 20 ba bd
       -0.018780228 0.04321138 -0.03849057 -0.090881385
000120 4b e8 d4 bc 42 df 2a 3d 19 23 98 bc b7 09 84 3c
       -0.025989672 0.04171682 -0.018571423 0.016117914
000130 b9 9c 68 bd 60 37 3d 3b 1b 56 82 ba cd 7b ca bd
       -0.056790087 0.0028872117 -0.0009943874 -0.098868944
000140 d1 8d b5 bb cc 99 24 bd b6 14 a2 bd 11 cb 8e bb
       -0.0055405875 -0.040185735 -0.079141065 -0.0043577035
000150 6e 84 9f bd db 2d 82 bc 67 da 29 3c 21 8b bf bc
       -0.07788931 -0.015891006 0.010367013 -0.023381772
000160 23 5d 01 bd a7 8c 07 bd ed ab a0 bd 88 03 8d bd
       -0.031582963 -0.03309312 -0.07845292 -0.06885439
000170 a9 b2 82 bd be 05 f1 3c 1e 0f 98 bd 04 7e 0e be
       -0.06381733 0.029421683 -0.074247584 -0.13915259
000180 52 3f cd bd 82 ac 95 bd 22 42 51 bc d6 24 25 3d
       -0.10021843 -0.07308294 -0.012772115 0.040318333
000190 d9 f6 dd bd bc 35 80 3c f3 63 8d 3b 4e a9 98 ba
       -0.10838098 0.015650623 0.0043148934 -0.0011647136
0001a0 f1 93 6e 3d f3 f5 24 bc 35 51 86 3d 3f 1e ae bd
       0.058246557 -0.0100684045 0.06558458 -0.08501863
0001b0 a2 3c 84 3d 3f 44 7e bc bb 74 38 bd 48 c3 85 ba
       0.06456877 -0.015519201 -0.045033198 -0.0010205293
0001c0 76 88 7d 3d d0 2c ad bd 59 2b fe 3c cb ff cf bc
       0.061897717 -0.08455813 0.03102653 -0.025390526
0001d0 6e 99 af bd f8 d9 18 3c fd 17 11 3d dd bd 8c bd
       -0.08574186 0.009329312 0.035423268 -0.06872151
0001e0 2a 10 1d bd 35 bf 74 bc 30 75 40 3d 2f cf ec 3b
       -0.038345493 -0.014938165 0.04698676 0.0072268466
0001f0 c6 0a 46 bc 99 48 a6 bb c5 52 9e bd e3 83 7c bc
       -0.0120875295 -0.0050745723 -0.07730631 -0.015412304
000200 4c 4b d1 bd cd 3a 82 bd ea 71 1d 3d ca 83 d7 3c
       -0.1021944 -0.063588716 0.038438715 0.02630796
000210 fd 6a f5 3c d7 52 0b bd 05 b9 df 3c a1 9f 9c bd
       0.029958243 -0.03401455 0.027309904 -0.07647634
000220 97 14 e2 3d 83 25 bc 3d 52 9e d4 bc b9 9d 1a bb
       0.110390835 0.09186842 -0.0259544 -0.0023592545
000230 10 44 9b bd 80 31 20 bd 2e d3 28 3c 8e b1 c7 bd
       -0.07581341 -0.039109707 0.010304255 -0.09750663
000240 8c 5b 58 bd cc aa 89 bd 11 f4 9e bd 99 9d 11 3c
       -0.05282168 -0.0672203 -0.07761396 0.008887672
000250 1e 5f 8a bd 9c 13 59 bd 00 2d 71 bd 29 65 5f bd
       -0.067564234 -0.052997217 -0.058880806 -0.054539833
000260 69 50 bf bc 1f bc d9 bb 3e 75 27 bd 3e 82 86 bd
       -0.023353772 -0.0066447402 -0.040883295 -0.065678105
000270 e8 fa 5b bd ac ec 00 3b 0c 62 85 bc 70 12 98 bd
       -0.05370608 0.0019672317 -0.016282104 -0.07425392
000280 1f 5d 2f 3d 83 9e 8d bd 1e 65 58 bd a5 20 4b 3d
       0.042813417 -0.06914999 -0.052830808 0.04959168
000290 9d a6 43 3d f0 9e 85 3d 8a 5b b8 3c df 1a b3 bc
       0.047766317 0.065244555 0.022504587 -0.0218634
0002a0 82 51 25 bd 3b dd bd 3c 07 ab 25 bc 4c 2f 99 bd
       -0.040360935 0.02317678 -0.010111577 -0.07479724
0002b0 23 8a ae bd d3 1b 95 bd b1 48 1a 3c 38 0e 8f 3c
       -0.08522441 -0.07280698 0.009416745 0.017462835
0002c0 54 0f 8d bc 47 c3 98 3c d6 65 98 3d 3d b2 6c bd
       -0.017219223 0.018647803 0.07441299 -0.05778717
0002d0 8a 6f 89 3b 92 b7 36 bd 26 c5 a8 bd 0b 2f f6 3c
       0.0041942047 -0.04460866 -0.08240728 0.030051729
0002e0 98 38 40 3c c0 c4 4e bd 92 3d ea 3d 12 e2 e1 bc
       0.011732243 -0.050480604 0.11437525 -0.027573619
0002f0 31 5c 19 bd d8 87 9d 3c f2 a9 a9 bd 49 ad 43 bd
       -0.037441436 0.019229814 -0.082843676 -0.04777268
000300 f5 69 b0 ba 4d 75 c3 bd 92 07 de bc ff fa 78 bd
       -0.0013459312 -0.09543858 -0.02710322 -0.060786244
000310 43 b1 c4 bc e4 94 95 3c b8 7a 18 3c 08 b7 ba bd
       -0.024010306 0.018259473 0.009306602 -0.09116942
000320 d7 1b b4 3c 4d a4 7a 3c 3a 34 bb 3a dc 9a 25 bd
       0.021985931 0.015297961 0.0014282533 -0.04043089
000330 52 ba 4c bd 79 6a e2 bc 2f 90 69 bd 80 02 12 bd
       -0.049982376 -0.02763866 -0.05702227 -0.035646915
000340 8d c0 39 bd 69 ac 8e 3a ae 30 d9 bc 61 90 ab 3c
       -0.045349646 0.0010885122 -0.02651247 0.020942869
000350 20 3b 8a bd 8f b7 2a 3c b4 b8 3c 3d aa 3a 21 3d
       -0.067495584 0.01041974 0.046074584 0.039362587
000360 22 75 09 3c 91 7e 5e 3c 6d ec b9 bc 9b dd 71 3c
       0.008389743 0.0135799805 -0.022695744 0.0147623075
000370 cd d5 4d bd 81 c7 d3 bd e7 74 ee bc a6 c8 55 bc
       -0.050252724 -0.10340787 -0.029108478 -0.013048327
000380 e3 9a 3b bd eb 7f 96 3d 9e 4b 5d bd fc 77 0c 3b
       -0.04580201 0.07348617 -0.054027192 0.002143382
000390 ec b9 8d 3d 14 eb 32 bc 87 f7 6c 3d 32 bf 16 bd
       0.069202274 -0.010920305 0.057853248 -0.03680343
0003a0 8f 7b 7c 3d f8 55 f6 bb af 3c 43 3b 15 e0 b7 bb
       0.061641272 -0.0075175725 0.002979081 -0.0056114295
0003b0 41 9e 00 bc 17 c0 ce ba 8c 4e 5a 3d 12 43 0e bd
       -0.007850231 -0.00157738 0.053297564 -0.034731932
0003c0 d8 be 28 bd 31 b7 16 bd 04 26 bb 3b fd 09 f6 bc
       -0.041197628 -0.0367958 0.005711319 -0.03003406
0003d0 78 5a 84 bd bb c9 bb bc e1 aa 1d bd 2f bd 39 3d
       -0.06462568 -0.022923341 -0.03849304 0.045346435
0003e0 ad ee 3a bd 99 e1 37 3d 21 34 3f bc 43 75 b9 3c
       -0.045637775 0.04489288 -0.011670143 0.022638923
0003f0 a7 da be bd 5b e2 36 3c 45 7f b7 b9 d7 5a 6e bc
       -0.093190484 0.011162366 -0.00034999303 -0.014548025

Fd1da27LSTM.weight_hh_l0 f4 [600, 150]
000000 a7 b1 a2 bc d7 9f 49 3c 83 42 43 bc ef fb 61 3d
       -0.019860102 0.012306175 -0.011917713 0.055171903
000010 5f 20 74 3c 04 27 1f 3c 7a 63 cf bc a7 c3 c6 ba
       0.014900296 0.009713892 -0.025315989 -0.001516451
000020 b2 e9 00 3d 2a 2f 0a bd 5c 98 2d bd 66 f2 38 3c
       0.03147287 -0.033736385 -0.04238163 0.011288261
000030 1d db 46 3c 42 85 72 bd fb e1 bd bc 39 12 61 bd
       0.012137202 -0.059209116 -0.023179045 -0.05494902
000040 cb 7e 68 bd 44 9c f5 bb 93 e5 3b bd 5b 53 dc bc
       -0.056761544 -0.007495435 -0.045873236 -0.026895216
000050 d0 1c 75 bd 77 84 26 bc 82 a4 4b 3d e0 dd 02 3d
       -0.05984193 -0.010163418 0.049717434 0.031949878
000060 53 26 cf b8 47 ca f0 3d 64 11 e0 3a aa 2d ad 3b
       -9.8776676e-05 0.11757331 0.0017095027 0.0052849846
000070 2d 00 aa bc 71 e2 cd bc f4 cf 8f 3d 54 9c c5 bd
       -0.020752037 -0.02513239 0.07022086 -0.09648958
000080 70 cd 1c 3d 77 1b 92 bb 10 2b a4 bb 12 2f 46 bd
       0.038281858 -0.0044588405 -0.0050100163 -0.048384733
000090 cc 95 e4 bc 95 1a e6 bd e4 7f 56 bd 30 db 9b bc
       -0.02790346 -0.11235539 -0.05236806 -0.019025415
0000a0 d3 bb 83 3d 3d 36 be bd 7e 60 4d 3c 63 89 22 bd
       0.06432309 -0.09287689 0.012535213 -0.039681803
0000b0 6c 48 61 3d cd 82 c0 bd 73 89 92 3d f0 d4 9d 3d
       0.055000708 -0.09399948 0.071551226 0.0770663
0000c0 c1 1e 06 bd c4 72 84 bb d7 07 b5 bc f5 83 32 bd
       -0.032744173 -0.0040420014 -0.022098465 -0.043582875
0000d0 08 f3 06 3d 8b 2f 09 3c af 5a 44 bb d2 73 95 3d
       0.032946616 0.0083731515 -0.0029961278 0.072974816
0000e0 6d a6 43 bd 50 9e 2b 3d 82 07 97 3c 04 12 49 3d
       -0.047766138 0.041899025 0.018436197 0.049089447
0000f0 6c 08 eb ba f3 84 2f 3d b6 6d 0e 3b 40 ca 87 bb
       -0.0017931587 0.0428514 0.0021732873 -0.004143983
000100 02 23 71 bd b1 b4 b3 3c ab cc a2 3d fb fb dd bc
       -0.058871277 0.021936746 0.079491936 -0.027097693
000110 d8 d8 bd bd 49 0b 37 bd 42 da d3 3c 54 7b 18 bd
       -0.09269875 -0.044688497 0.02586091 -0.03722699
000120 ab 32 27 bd 69 b6 ec bd 9b 83 51 bd 22 3a fd bb
       -0.040819805 -0.115582295 -0.0511509 -0.0077278772
000130 d0 3f b5 bc a0 27 2b 3c 35 aa cb bb 73 b0 60 3d
       -0.022125155 0.010446459 -0.0062153586 0.054855775
000140 7c 0d 8a 3d ec c9 e4 bc 97 b0 ba bc b4 af 7c bd
       0.06740853 -0.027928315 -0.022789283 -0.061691
000150 82 27 30 3d e6 a2 5d 3d ec 95 d9 3b be a4 33 3d
       0.043006428 0.05411043 0.0066401865 0.043858282
000160 9b b0 28 bd e9 3b 59 bb 3a d3 bb bd 3b 61 9e 3d
       -0.04118405 -0.0033147282 -0.09171148 0.07733389
000170 e0 a9 ef 3c f9 e2 74 bd d2 9e a1 3d 05 ea 9a 3d
       0.029255807 -0.05978677 0.07891621 0.07564167
000180 7c 39 02 3d 4e 49 9c bc 87 70 bf 3b f9 01 8c 3d
       0.031793103 -0.019077923 0.0058422717 0.06836314
000190 32 49 0f bd ab 11 2d 3c ac ec 11 ba 1b 44 1a bc
       -0.034981914 0.010563294 -0.0005566578 -0.009415652
0001a0 f7 86 c4 3b 0f af 50 3c 4c d3 69 bb 16 4a 6d bd
       0.0059975344 0.01273705 -0.0035678921 -0.057931982
0001b0 11 34 df 39 6f 9c 18 bd cb e0 3f 3a a5 b1 29 bd
       0.00042572667 -0.03725856 0.00073195685 -0.04142918
0001c0 cf 6d 58 bd 0b b2 47 3d 71 82 76 bd 29 98 a1 3d
       -0.052839097 0.04875378 -0.060182992 0.0789035
0001d0 3b e3 93 bb 1b db 7a bd 5a d6 49 bc a5 8d 21 bc
       -0.004513172 -0.06124411 -0.012319172 -0.009860431
0001e0 7e 43 03 bd 19 11 57 bd cc b8 8c 3c 65 81 da bd
       -0.032046787 -0.05250654 0.017177962 -0.10669211
0001f0 67 88 b7 bc 4e a6 41 bd 1d 98 25 3b e4 d4 e9 3b
       -0.022403909 -0.04727774 0.0025267669 0.0071359742
000200 0b 52 6f bd 26 b5 9b 3d e8 fe 39 3d d2 46 dc 3b
       -0.05842785 0.07602911 0.045409113 0.0067223096
000210 1e 34 cf 3c 30 4d 64 bd 85 cc a0 bb 36 8b 83 bc
       0.025293406 -0.055737674 -0.004907193 -0.016057592
000220 37 b2 fa ba 4b 33 3d bd 9b 34 8c 3c d4 32 62 3d
       -0.0019126598 -0.046191495 0.017114928 0.055224255
000230 30 93 df 3c 18 70 37 3d ef 36 25 bc 55 b5 93 3d
       0.027291864 0.044784635 -0.010083898 0.07212321
000240 e9 92 c1 39 34 c5 0e 3d 9f 11 b0 bc be 97 81 3c
       0.00036921285 0.034856036 -0.021492777 0.015819427
000250 e9 d0 0b bd b2 c1 6e bd 33 9f 57 3d a5 64 f3 bc
       -0.03413478 -0.05829019 0.05264206 -0.029711077
000260 7b ab b9 bd 7a e0 07 3d 36 f6 44 3d d8 a0 77 bc
       -0.090659104 0.033173062 0.048086368 -0.015114032
000270 64 e2 ba bb ae 90 06 bd a8 02 b9 3d 3c 73 3f 3d
       -0.0057032574 -0.03285282 0.0903371 0.046740755
000280 af c1 b5 3c 55 4e 2c 3d 55 9e 25 3d c8 a7 bc 3a
       0.022187082 0.04206689 0.0404342 0.0014393264
000290 88 40 e4 3b 9d 79 5d 3d 3a e8 ad bc e5 e3 df 3a
       0.0069657005 0.054071058 -0.021228898 0.0017081468
0002a0 47 a0 a8 bd 81 67 a2 bb e0 2e 1b 3c 2d 88 6c bd
       -0.082336955 -0.0049561863 0.009471625 -0.057747055
0002b0 24 5b 52 bd 5e 45 62 bc fb 72 f2 bc 21 d6 8e 3d
       -0.05135645 -0.013810484 -0.029595843 0.069744356
0002c0 5f 90 b3 3c 3b 88 f5 bb 00 37 ed 3d 5d 60 8f 3c
       0.021919427 -0.0074930466 0.11582756 0.017502004
0002d0 95 f5 22 3c 5a 8b bd 3c 1f 12 8b bb 5c b8 04 3c
       0.009946247 0.023137737 -0.0042441036 0.008100595
0002e0 06 ca 45 bb 3f 35 c4 ba c0 e8 6c bc f3 91 ec 3b
       -0.003018023 -0.0014969482 -0.014459789 0.007219547
0002f0 bf bd a3 bc d0 5b 17 bd 4f af 7e bd 08 6e 95 bc
       -0.019987939 -0.036952794 -0.062178906 -0.018240944
000300 14 e6 88 3c d2 d0 99 3d d4 b7 80 3d 74 fa a5 3c
       0.016711272 0.075105324 0.062850624 0.020261027
000310 68 d4 e9 3b 5f ef b0 3b 75 e9 01 3d e7 3e ac bd
       0.0071359165 0.005399629 0.031716783 -0.08410435
000320 60 d6 93 3b bd fe 6b bd 5d 62 20 3d 01 bf a2 3d
       0.0045116395 -0.057615984 0.039156307 0.07946587
000330 95 cb 3e bd 6f 9e 49 3d 77 c7 6a 3d 7f c0 f3 bb
       -0.04658087 0.04922336 0.05731913 -0.007438719
000340 65 1a 32 bd 85 11 b9 bc cb 18 23 3d 3b b5 4e 3c
       -0.043482203 -0.022591362 0.039818566 0.012616451
000350 a8 b5 ea 3c fe a2 64 3c dc f1 4a 3b f0 2d 70 3d
       0.028651074 0.013954876 0.0030966913 0.05863756
000360 13 a7 88 3c 6c 05 e1 3c 9b 81 d6 3c 63 8e e6 bc
       0.01668123 0.027468406 0.026184848 -0.028144067
000370 91 7b 92 bc 78 55 4a bd 62 65 36 bd 5d 2e 98 bd
       -0.017881187 -0.049397916 -0.04453028 -0.07430718
000380 18 fa 31 3c 9f 31 41 3d 0e be 7d 3d 2b 51 1a 3d
       0.01086285 0.047166463 0.06194883 0.037675064
000390 86 bb 42 bd 26 25 24 bc fb 65 94 bd a8 a9 73 bd
       -0.047542118 -0.0100186225 -0.07246014 -0.05948797
0003a0 33 59 71 3d 3a 89 50 3d 6f 38 26 3d cf 7e bf bd
       0.058922958 0.05091212 0.040581163 -0.09350359
0003b0 11 a8 2e 3d 08 cc 49 bd f2 43 83 bd 33 00 81 3d
       0.04264075 -0.049266845 -0.06409444 0.06298866
0003c0 81 51 92 3c c3 63 8b 3d 6c 95 19 3d 46 08 20 3d
       0.01786113 0.068061374 0.037496015 0.03907039
0003d0 8a e0 0f 3d 87 4d 84 3d 69 7a a4 bd 68 7d 48 bb
       0.035126247 0.064601 -0.080311604 -0.0030592326
0003e0 25 d3 41 3d f6 ea 86 3c 89 be b9 bb 10 5e 50 3d
       0.047320504 0.01646946 -0.0056684655 0.050870955
0003f0 0c 42 1d 3d 7d 0d 8b 3d 0d 69 2b bd 24 90 be 3c
       0.038393065 0.06789682 -0.04184823 0.023262091

Fd1da27LSTM.bias_ih_l0 f4 [600]
000000 85 c8 04 bd 2a 59 24 bd 1b 22 0b bc 0c 95 9a bc
       -0.032417793 -0.040124096 -0.008492018 -0.0188699
000010 ed 83 78 bb 2c 30 ad bc 32 c6 00 bd cd a6 18 bb
       -0.003792043 -0.021141134 -0.031439014 -0.002329278
000020 da 9f c2 ba 23 08 a4 bd 06 99 8d 3c 68 6d 9f 3b
       -0.0014848665 -0.080093645 0.017284881 0.004865337
000030 8a bd 4c bd 31 e0 06 bd 25 79 85 bc 99 58 b7 bc
       -0.049985446 -0.03292865 -0.016293118 -0.022381114
000040 b8 1a a8 bc b3 5a 07 bb 2e fb 99 3c fe 2e 96 bc
       -0.020520553 -0.0020653426 0.01879653 -0.018332954
000050 ce 35 50 3d 7b a3 45 3d ad ee d4 bb 59 c7 df 39
       0.050832562 0.04825161 -0.006498179 0.000426824
000060 e7 a9 00 39 5b 92 3e bd ae cf 38 bd 5d f6 17 bd
       0.00012270325 -0.046526294 -0.045119934 -0.037100185
000070 26 2d 85 3b 0f a5 36 bd 93 10 47 bd 22 b5 de b8
       0.00406422 -0.044591006 -0.04859979 -0.000106195235
000080 2b 1e 8f bd 95 b7 c2 bc 12 be 89 3b c2 49 2b bd
       -0.06988176 -0.02376918 0.0042035664 -0.041818388
000090 4a 17 b6 b9 89 26 13 bd 97 71 23 3d 44 ac 8d bc
       -0.00034731097 -0.035925422 0.03990325 -0.017294057
0000a0 54 f9 a5 bc b9 a6 d7 bc 1f f4 02 bc d9 5e 45 bc
       -0.02026049 -0.026324617 -0.007992773 -0.012046539
0000b0 54 90 6d bc df 99 e9 bc f3 ca 75 3c c6 3c 8c bb
       -0.014499743 -0.028515754 0.015002 -0.0042797057
0000c0 31 ab 8f 3b 89 a6 21 bd 72 3a 1d bd fc 4f a4 bb
       0.0043844213 -0.03946546 -0.038385816 -0.0050144177
0000d0 9d 5a 16 bc 30 47 b2 bd 96 e3 d0 bc 66 87 5a bd
       -0.009176877 -0.08704984 -0.025499146 -0.053351782
0000e0 7c 8e 35 bc e2 ef 8b 3d 54 fd d0 bb 7d b5 36 bd
       -0.011081334 0.068328634 -0.0063778553 -0.044606674
0000f0 67 3a ce bc 71 63 4b 3b 59 5a 13 bd 76 31 fb bb
       -0.025174333 0.0031034613 -0.035974834 -0.0076658083
000100 77 aa 25 bd e9 78 17 3c 69 8e c1 bc c8 d1 b1 bd
       -0.04044577 0.009245136 -0.023627477 -0.08682591
000110 dd 1d 5b 3d 16 bc 2f bd 7a 9e 9e bc 44 c0 2b bc
       0.053495277 -0.042903982 -0.019362677 -0.010482851
000120 03 9b 7f bd 2a cc 81 bd 66 7b fa bc 36 e4 2d bc
       -0.06240369 -0.06337769 -0.03057642 -0.010613492
000130 7b 2e 9b bd b7 7a 1a 3c 0a 40 a0 bb 84 ff a6 bc
       -0.07577225 0.009428672 -0.0048904466 -0.020385511
000140 02 fc b9 bb c7 70 38 bd 24 e7 93 bc 78 0f fe bc
       -0.0056757936 -0.045029428 -0.018054552 -0.031013235
000150 74 cf f9 3b dc 74 a4 bd ac c1 d6 bc 48 22 00 bd
       0.0076236073 -0.08030102 -0.026215397 -0.031282693
000160 dd 3a cf bb c8 1c 62 bd 6d ee 90 3c c5 9a 05 bd
       -0.0063241557 -0.05520323 0.017691815 -0.032618303
000170 8a 34 11 3d c7 a8 17 bd fc d3 8a bd e8 75 27 3c
       0.035450496 -0.037026193 -0.06778714 0.010220982
000180 e7 97 59 bc b5 7e b6 3b f1 ad 8d 3c ad 57 12 ba
       -0.013280845 0.005569304 0.017294856 -0.0005582523
000190 bd c6 cb 3c 4f 6c 55 3c 2b fa 8b 3b e3 16 9b 3c
       0.02487504 0.013026311 0.0042717657 0.018931812
0001a0 ae 17 55 bc d7 7b 5e bc 8f f0 05 bd 88 cc 81 bd
       -0.013006134 -0.01357933 -0.032700118 -0.06337839
0001b0 b3 57 4a 3b 3b 41 d3 3c 5c 74 4e 3b 4b d1 36 3b
       0.0030875027 0.02578794 0.003150246 0.0027895744
0001c0 bc 2c 65 bb 0e b0 56 bd 86 ad 76 3c a6 58 0c 3c
       -0.003496929 -0.052413993 0.01505602 0.008566057
0001d0 07 ee b0 3c e3 75 1e 3d 70 c4 e2 bc 34 d0 54 bc
       0.021597875 0.038686644 -0.02768156 -0.012989093
0001e0 c0 ca 47 3c c4 6c 8b bd d0 fc 1f 3c 94 e8 aa 3d
       0.012194335 -0.06807855 0.009764865 0.08345142
0001f0 1f ef 31 ba c7 a1 85 bb 61 8b 13 bc 4b 86 0b bd
       -0.0006787646 -0.0040781233 -0.0090053985 -0.03406362
000200 2e 1d 3b 3d 33 1f 93 3c 4f 43 e9 3b f5 9a 64 3d
       0.045682125 0.017959213 0.0071186195 0.05581184
000210 cc e6 69 bb 96 bb 40 3d 37 5a 58 bd de 99 d9 bc
       -0.0035690544 0.047053896 -0.05282041 -0.026562627
000220 cf 56 dd bc e7 dd cb bc 0e 89 9e 3c 3a c9 eb bc
       -0.027018933 -0.024886085 0.019352462 -0.028782476
000230 55 c6 3c bc 65 c8 2c 3c 5e 99 da 3c 60 58 5d 3d
       -0.011521895 0.010545825 0.02668446 0.05403936
000240 d1 61 0e bc c4 08 55 bc 35 22 b1 bc ba 14 ab bb
       -0.008690313 -0.013002578 -0.021622756 -0.0052209767
000250 24 96 02 bd 22 08 12 bd 22 b2 41 3c f7 af a6 3d
       -0.031881467 -0.035652287 0.011822255 0.081390314
000260 8e c8 e2 3c 4c 8d 1a 3e 89 d4 0e bd 01 10 46 3c
       0.027683523 0.15092963 -0.034870658 0.012088777
000270 83 b0 25 3d a2 ea 0a bb 98 a1 67 3c 11 5a 55 bd
       0.040451538 -0.002119698 0.014137648 -0.052087847
000280 a0 c8 c0 bb 18 26 ef 3c c2 64 52 3d bc de 08 3d
       -0.0058832914 0.02919297 0.05136562 0.03341554
000290 74 34 11 bd 51 bb af bc 57 2b ac bc 7e be d0 3c
       -0.035450414 -0.021451624 -0.02101676 0.025481459
0002a0 ab 85 57 3d c5 b7 1f bc 16 ec cc 3a 1e 44 94 3d
       0.05261771 -0.009748404 0.0015634324 0.07239555
0002b0 35 eb 22 3c 13 bd 33 bd ff 33 a4 3d 5e 8d ec bc
       0.009943773 -0.043881487 0.0801773 -0.028876003
0002c0 7d 4a e9 bc d6 ec 45 3d fa 87 46 3d b3 92 84 3d
       -0.028477902 0.048321567 0.04846952 0.06473293
0002d0 76 c9 28 3e 49 b7 88 3d 06 88 8c 3d cb b5 b9 bb
       0.16483101 0.06675584 0.06861882 -0.0056674234
0002e0 06 b9 49 bc a4 0b d9 bc 9c 41 0d 3d 72 6d f6 3d
       -0.012312179 -0.026494808 0.034486398 0.12032594
0002f0 59 ad a9 3d bd fb b3 bc ac 79 97 3c 3d 91 e5 bc
       0.082850166 -0.021970624 0.018490635 -0.028023357
000300 9e 53 92 3d 26 f7 d7 3c 7c 1c 1b 3b 89 5e 97 3d
       0.07144855 0.026362967 0.00236681 0.07391078
000310 08 82 70 bb 3a ce 89 3d 6d 3a 3d bd b7 73 fe bb
       -0.0036698598 0.06728788 -0.046198297 -0.007765259
000320 a3 a9 38 ba 41 35 05 3d 25 02 fb bc 5e 85 77 3d
       -0.0007044321 0.03252149 -0.030640671 0.060429923
000330 5b c5 11 3d 71 c4 c5 3b e5 0b 62 bb 36 be bf bc
       0.035588603 0.0060353805 -0.0034491953 -0.02340613
000340 69 cc f3 bc ed ca 04 3e c8 4f 19 bb 21 b8 f8 bc
       -0.029760556 0.12968035 -0.00233935 -0.030361237
000350 69 3a c7 3c 93 d2 f5 bb e6 5d c4 bc d0 0b 27 bd
       0.024319844 -0.007501909 -0.023970556 -0.04078275
000360 f1 87 2e 3d 5b 93 c9 3d 81 57 58 3d bf aa 38 3e
       0.042610113 0.09842559 0.052817825 0.18033884
000370 cb 26 af bb df a6 b0 bc 58 9a 56 3d 00 d5 09 3d
       -0.0053452007 -0.021563945 0.052393287 0.0336504
000380 a5 e4 8c 3d 0b e8 9d bb 42 f9 10 3d d7 fb 99 bb
       0.06879548 -0.0048189214 0.03539396 -0.004699211
000390 11 dd 3c 3d f1 e8 86 bc 37 f4 3d 3d aa e1 3d 3b
       0.046109263 -0.016468497 0.04637548 0.0028973618
0003a0 25 63 e3 bb d4 6b a5 3c 7b 57 f1 bb 1a f4 f0 bc
       -0.006939309 0.020193018 -0.007365165 -0.029413272
0003b0 65 4b 22 3d 57 cf c4 bb 60 1c d6 3c 5c 9b 45 bc
       0.039622683 -0.006006162 0.026136577 -0.012060966
0003c0 17 0c df 3d 53 b5 96 3d 62 71 31 3d c5 e2 d1 3c
       0.10890978 0.073588036 0.04332102 0.025620827
0003d0 2c 28 ab 3d bb 21 0c 3c e0 87 0a 3e 22 79 ae bc
       0.083572716 0.008552964 0.13528395 -0.021297995
0003e0 60 64 a0 3b 1e 42 c7 3d 9d 03 47 3d 39 06 f6 bc
       0.004894778 0.09729408 0.04858743 -0.030032264
0003f0 69 9f 80 bd 04 18 10 bc 49 48 b2 3d 4b 5a 6c bd
       -0.06280405 -0.008794788 0.087051935 -0.057703298

Fd1da27LSTM.bias_hh_l0 f4 [600]
000000 ec 57 40 bd e4 7e 91 3b f6 e7 56 3b aa 13 a5 3c
       -0.04695885 0.0044401754 0.0032792068 0.020150978
000010 34 b8 6e bc 39 6a bb bc ea 56 ac 3c 1f df b2 bc
       -0.014570285 -0.0228778 0.021037538 -0.021834908
000020 a3 60 15 bd f1 9d 95 bd d4 57 37 bc 58 19 aa ba
       -0.036469113 -0.073055156 -0.011190373 -0.0012977524
000030 98 01 eb 3c bb 60 0d bd 5c 5d f3 bc 41 0b bc bc
       0.028687283 -0.034516077 -0.029707603 -0.022954585
000040 c7 34 e9 bc d1 32 1a 3b e4 cf d6 3c c8 97 0f 3c
       -0.028467549 0.0023528824 0.026222177 0.008764215
000050 d5 84 2b bd b7 b9 36 bd 1d 12 5e bc 58 99 46 3c
       -0.041874725 -0.044610705 -0.013554123 0.012121521
000060 94 db 5c bd ba 5f a7 3c ef 51 c2 3c 94 f4 3d 3d
       -0.053920344 0.020431388 0.02372071 0.046375826
000070 fc a4 4f bc f3 c9 96 bb 49 7d d3 bd 11 a6 81 bc
       -0.012673613 -0.004601711 -0.103266306 -0.015826257
000080 74 fe 01 bd 52 fe 60 bc b0 7b 13 3d 92 60 0a bd
       -0.031736806 -0.01373251 0.03600663 -0.033783503
000090 e7 38 e9 3c cb 78 92 bd cb a5 50 bd ba 1f 75 bc
       0.028469516 -0.07151946 -0.050939362 -0.0149611775
0000a0 0a ff c2 bc 0c d5 cd bc 74 52 08 bd e8 fd f1 3b
       -0.023803253 -0.025126003 -0.03328176 0.0073850043
0000b0 b2 d5 d3 3b 8a d4 ca bc b4 f4 18 bb 28 f4 c1 bc
       0.0064646835 -0.02475955 -0.0023339214 -0.023675993
0000c0 dd a1 35 bd 89 ca ad b9 33 27 e5 bc 8f 5f 83 bd
       -0.044343818 -0.00033148032 -0.027972793 -0.06414711
0000d0 eb 33 44 bc bc fa 11 bd 54 f9 f5 bc f7 84 13 bd
       -0.011975269 -0.03563951 -0.030026115 -0.036015477
0000e0 b3 f4 b3 bc cc ef 85 bb 78 d4 02 bd 52 bd bf bd
       -0.021967268 -0.004087424 -0.031940907 -0.09362282
0000f0 06 fa ae bc b1 41 21 3c 5d 74 17 bd f0 2b 84 bb
       -0.021359455 0.009842322 -0.036976207 -0.004033558
000100 0f 02 c3 bc ac 3d d7 bc d9 9c fa bc 94 ef 35 bc
       -0.023804693 -0.026274525 -0.030592369 -0.011104483
000110 7a 22 c8 ba 47 26 c9 3b 93 24 ff bb 22 7c 0c bc
       -0.0015269064 0.006138596 -0.0077863424 -0.008574517
000120 16 a4 79 bd cc 93 d6 3c 7a ed 3c 3d 5f 49 73 bc
       -0.0609475 0.026193522 0.046124913 -0.014849036
000130 59 74 a9 bd 8f 56 d6 3c 83 c4 d6 3b 48 96 53 3c
       -0.08274145 0.026164321 0.0065541877 0.012914248
000140 7d f9 39 3c d2 f7 5c 38 7d d4 d1 bb 8a be 13 bd
       0.011350987 5.2682888e-05 -0.0064035044 -0.036070384
000150 61 7a 20 3d 8d 9f 30 bd d5 ba 92 3c 47 60 d6 bc
       0.03917921 -0.04312091 0.017911354 -0.026168955
000160 9f 1b 10 bc de ba 96 3b 08 2a 58 bd 23 71 cd bb
       -0.008795648 0.004599913 -0.05277446 -0.0062695905
000170 90 ff ba 3b c1 93 b8 bb 68 a6 83 bd 37 9f 88 bc
       0.005706735 -0.005632848 -0.06428224 -0.016677482
000180 8b 4e 52 bd 8b 72 51 bc 9d f2 c6 3c 54 cb 0a bd
       -0.051344436 -0.012783657 0.024285609 -0.033885315
000190 db 67 0e 3d 33 31 68 3c a5 15 f9 3c 83 5a 64 3d
       0.034767013 0.014171886 0.030405829 0.05575038
0001a0 e3 44 01 3d 21 f8 22 3b 99 f0 07 3c 90 0a d8 3b
       0.031559836 0.0024867135 0.008297109 0.006593056
0001b0 bb 52 04 bc 39 1f 51 3c c6 9b a4 bc ec c9 6b bd
       -0.008076365 0.012763792 -0.02009381 -0.057565615
0001c0 9d de 19 3c 53 0a 84 bd b0 c9 11 3c 29 ac bf 3c
       0.009391454 -0.06447282 0.008898184 0.023397522
0001d0 07 f1 6a 3c 8b bd 7c 3c 86 7f 42 bd f8 48 47 bd
       0.014339692 0.01542605 -0.047484897 -0.048653573
0001e0 25 c5 90 bb 92 0d 68 bc 4c 8e fa bb 89 fc 8d 3c
       -0.0044180327 -0.014163392 -0.0076463576 0.017332332
0001f0 57 5f 35 bd f4 57 ef 3c fc 82 1f bd d2 43 ab 3c
       -0.044280376 0.029216744 -0.038943276 0.020906363
000200 41 4b bb bb 31 dd f1 bc c8 e8 cb bc 04 d3 09 bc
       -0.005715758 -0.029524418 -0.024891272 -0.008412126
000210 33 58 2c bd 2b 0e 5f bc a3 86 8f bc 56 7e 95 bd
       -0.0420763 -0.013614218 -0.017520254 -0.07299487
000220 74 bf 5f bc c5 04 2e bc 92 6e 26 3d 8a 0b 1c bd
       -0.013656486 -0.010621254 0.04063279 -0.038096942
000230 91 f3 86 bc 64 2d 0e 3b 2a 98 ca 3c b8 f4 c6 bb
       -0.016473563 0.0021694535 0.02473076 -0.006071653
000240 0a d3 d2 bc f2 f1 23 ba de 46 47 bd d1 a5 03 bc
       -0.025735397 -0.0006254009 -0.04865157 -0.008035139
000250 3e 84 5b 3c 6e 85 cb bc 7f ab f6 bc 1d f7 e7 3c
       0.013398228 -0.024843898 -0.030111073 0.028316075
000260 90 ea de bc a5 79 30 3e 58 8e 57 3c 77 48 d0 3c
       -0.027211457 0.17233904 0.013156496 0.025425179
000270 82 cc 67 3d 9a e3 fb bc c5 c7 a3 3c b7 87 42 3d
       0.05659152 -0.030748177 0.019992718 0.04749271
000280 cf 25 5a bd ec c2 36 3d 38 05 28 bd ef b8 c7 bc
       -0.053258713 0.044619486 -0.041020602 -0.024380175
000290 7a 95 ca bc c3 5f d7 bc 13 72 dc bb e8 a0 3e bc
       -0.02472948 -0.02629078 -0.006727466 -0.011635043
0002a0 82 02 9c 3b 42 fd f8 3b cc 1b 63 bc b4 1a 0e 3e
       0.004761041 0.00759855 -0.013861608 0.13877374
0002b0 25 e2 0f 3d 7f e9 ab 3b 7b bf 03 3d cf d7 91 3a
       0.035127778 0.0052463408 0.032165032 0.0011126938
0002c0 60 50 91 bd 1a 7d 99 3d 9f a9 a6 3c 4c e8 c4 3d
       -0.070954084 0.07494564 0.020344554 0.096146196
0002d0 c7 29 c9 3d 6c 4e 01 3d a1 94 04 3b b8 75 28 3d
       0.098224215 0.03156893 0.0020230191 0.04112789
0002e0 aa 67 52 3d bb 3a 0e bc c4 9f 0c 3d 05 b4 75 3d
       0.051368393 -0.008680995 0.034332052 0.059986133
0002f0 93 f9 bc 3d 14 29 a3 bc c4 67 ca 39 c6 2d 86 bc
       0.0922729 -0.019917049 0.00038605754 -0.016379248
000300 40 b6 ca 3c a6 24 c8 3d f1 45 67 3d dd 19 6c 3c
       0.024745107 0.09772615 0.056463186 0.014410463
000310 92 68 1f 3d 33 5a b1 3d e6 6b 2a bd b6 d1 cf bb
       0.038918085 0.08659782 -0.041606806 -0.006342138
000320 2a d9 40 bd 95 81 8e 3d 50 52 4c bd 37 87 3e bd
       -0.047082104 0.069583096 -0.049883187 -0.04651567
000330 96 0c 6c 3d a0 21 28 bb 10 09 cb 3c 30 44 3b 3c
       0.05762919 -0.0025654808 0.024784595 0.011429831
000340 61 df 8b bc d1 42 96 3d cb 17 aa bc 7b 21 31 bc
       -0.017074289 0.07336963 -0.020763298 -0.010811205
000350 35 7d 1e 3c 4e 5a 47 bc 1d 97 ad 3c a0 aa 10 bd
       0.009673406 -0.012167526 0.02119022 -0.03531897
000360 fd 27 ff bc c1 f5 df 3d e6 be c2 3d 37 f8 c5 3d
       -0.031146998 0.10935546 0.09509067 0.09666484
000370 fe ca db ba 4f de f6 bc 31 39 0a bd 2d e8 0b bc
       -0.001676887 -0.030135302 -0.03374595 -0.008539242
000380 53 af 90 3d f5 5e 93 bc b4 ec 64 3b 58 90 05 3d
       0.070646904 -0.017989615 0.0034931125 0.03260836
000390 62 35 6d 3d f0 fd be 3c 40 54 0e 3d e5 c9 55 3d
       0.057912238 0.023314446 0.034748316 0.052194495
0003a0 46 d6 08 bc 16 5b 83 3c 20 c7 2c bd 5a 4e db b9
       -0.008351868 0.016034644 -0.042182088 -0.00041829312
0003b0 d0 6e 96 3d 81 8f 6c bc 49 90 3b 3d a1 25 7f 3d
       0.073453546 -0.014438511 0.045791898 0.062291745
0003c0 b8 3f b8 3d e7 d4 a8 3d b3 45 31 3d 96 5d 18 3b
       0.089965284 0.08243733 0.04327936 0.002324914
0003d0 be 2b 00 bc 69 f9 58 3d 98 f1 fa 3c a3 1b 4a bd
       -0.007822929 0.05297223 0.030632779 -0.049342763
0003e0 86 93 db bc 1d 1f 94 3d 23 cd a5 bb 2c f7 1d 3d
       -0.026803743 0.07232497 -0.0050598546 0.0385658
0003f0 b8 ab 84 bd af f8 90 bc d6 cc 40 3a 80 f7 36 bd
       -0.06478065 -0.017696707 0.00073547417 -0.04466963

ClassificationFd1da27.0.weight f4 [150]
000000 b2 28 76 3f 40 24 79 3f 15 c9 86 3f cd 48 74 3f
       0.96155846 0.9732094 1.0530115 0.95423585
000010 54 86 59 3f b7 24 7a 3f f4 87 83 3f 75 cc 80 3f
       0.84970593 0.9771227 1.0275865 1.0062395
000020 6c df 82 3f 05 32 81 3f 8a 88 7f 3f 3c 79 3d 3f
       1.0224433 1.009339 0.9981772 0.74013114
000030 6a 4b 58 3f 37 97 7c 3f 5a 55 84 3f 4f 29 7b 3f
       0.8449007 0.98668236 1.0338547 0.98109907
000040 54 c9 84 3f 7e 85 83 3f 24 19 74 3f b5 f0 5b 3f
       1.037394 1.0275114 0.9535086 0.85914165
000050 8b 54 79 3f f1 7f 77 3f 88 ff 82 3f b0 88 85 3f
       0.9739463 0.966796 1.0234232 1.0432339
000060 20 3e 7d 3f bf 81 87 3f 8d 9e 89 3f 64 e2 38 3f
       0.9892292 1.058647 1.0751511 0.72220445
000070 84 b4 86 3f 4d 60 6c 3f a1 9e 84 3f 1a ae 82 3f
       1.0523839 0.92334443 1.036091 1.0209382
000080 46 ba 81 3f b1 7f 82 3f 3a 3f 82 3f ec 6a 85 3f
       1.0134971 1.0195218 1.0175545 1.0423255
000090 25 4e 7d 3f de 4a 65 3f 2a 12 49 3f 76 c7 6d 3f
       0.98947364 0.89567363 0.7854334 0.9288248
0000a0 58 0e 7b 3f e0 7e 72 3f 46 b5 83 3f 48 f7 82 3f
       0.9806876 0.94724846 1.0289695 1.0231714
0000b0 f4 81 82 3f 18 6b 83 3f ba 88 5c 3f 11 3e 8b 3f
       1.0195909 1.0267057 0.8614613 1.0878316
0000c0 20 fa 86 3f 3c 42 7b 3f 04 d8 82 3f a9 30 78 3f
       1.0545082 0.9814794 1.0222173 0.9694925
0000d0 80 a3 81 3f 63 cf 7d 3f 04 37 75 3f 76 8d 7b 3f
       1.0128021 0.9914457 0.9578707 0.9826273
0000e0 88 40 7b 3f e3 3c 7d 3f 1b 14 73 3f fc 2d 83 3f
       0.9814534 0.9892103 0.94952554 1.0248408
0000f0 88 70 81 3f bd 2d 83 3f 98 b8 80 3f d8 22 4d 3f
       1.0112467 1.0248333 1.0056334 0.8013129
000100 ab c8 82 3f 43 a3 6e 3f c4 ad 89 3f 43 82 87 3f
       1.0217489 0.9321787 1.0756154 1.0586628
000110 76 2e 73 3f 86 d2 5c 3f 7e ba 78 3f a3 70 87 3f
       0.9499277 0.86258733 0.97159564 1.0581249
000120 f1 aa 62 3f 63 c9 71 3f 00 58 81 3f f1 03 7f 3f
       0.88542086 0.94447917 1.010498 0.9961539
000130 40 d6 80 3f 7e f2 89 3f ca 2c 80 3f 57 6d 88 3f
       1.0065384 1.0777128 1.0013669 1.0658368
000140 65 e6 7a 3f 33 07 77 3f 24 5d 6f 3f 1e 21 85 3f
       0.98007804 0.9649536 0.93501496 1.0400732
000150 9e 91 52 3f f6 34 75 3f 4d 0f 82 3f 27 6b 7b 3f
       0.82253444 0.95783937 1.016092 0.98210377
000160 14 9c 82 3f 68 54 82 3f a9 70 7c 3f d3 c7 23 3f
       1.0203881 1.0182009 0.98609406 0.6397678
000170 fc 15 6f 3f 10 f1 5b 3f 28 9b 80 3f 4d f6 80 3f
       0.9339292 0.8591471 1.004735 1.0075165
000180 b8 45 43 3f 59 e7 82 3f 3a 63 84 3f bf 7e 82 3f
       0.7627826 1.0226852 1.0342782 1.019493
000190 20 d3 83 3f 95 67 87 3f 2a 2d 8d 3f 01 78 69 3f
       1.0298805 1.0578486 1.1029408 0.91198736
0001a0 c1 f5 80 3f 02 34 46 3f b9 63 80 3f d8 59 55 3f
       1.0074998 0.7742311 1.0030433 0.83340216
0001b0 c3 36 87 3f 5f 44 88 3f 9a 56 85 3f 30 3a 7a 3f
       1.0563587 1.0645865 1.0417054 0.9774504
0001c0 1f 10 8a 3f 2c b5 4e 3f ea 25 81 3f 50 df 76 3f
       1.078617 0.80745196 1.0089695 0.964345
0001d0 1f d1 83 3f 15 bc 87 3f be cc 87 3f 79 10 25 3f
       1.0298194 1.0604273 1.0609357 0.6447826
0001e0 75 44 82 3f c3 cc 80 3f c4 67 84 3f df 93 79 3f
       1.0177141 1.0062488 1.0344167 0.9749126
0001f0 7e f3 87 3f 44 8b 73 3f eb d4 81 3f 78 a8 81 3f
       1.0621183 0.9513438 1.0143102 1.0129538
000200 a8 e8 83 3f c6 cb 73 3f b7 73 5d 3f 4f 7a 88 3f
       1.0305376 0.9523281 0.8650469 1.0662326
000210 86 4d 81 3f df be 82 3f ad 31 76 3f 10 01 82 3f
       1.0101783 1.0214499 0.9616955 1.0156574
000220 b5 2f 77 3f 5f 0e 82 3f 96 79 84 3f e7 41 71 3f
       0.9655717 1.0160636 1.0349605 0.94241184
000230 95 e7 7c 3f a6 87 83 3f f4 03 86 3f 87 99 3f 3f
       0.98790866 1.0275772 1.0469956 0.7484364
000240 0d 7a 26 3f 79 34 42 3f ef 7d 80 3f 89 0c 89 3f
       0.65029985 0.75861317 1.0038432 1.070695
000250 c4 49 72 3f 5b 7a 80 3f
       0.9464381 1.003734

ClassificationFd1da27.0.bias f4 [150]
000000 c9 1d 89 3b bd 66 f5 bb fd bc b6 bc 66 50 42 bc
       0.004184459 -0.007489054 -0.022306914 -0.011859989
000010 47 51 cf bb 2c 53 9d bc c1 62 41 ba 0b 7e 2a 3c
       -0.0063268277 -0.019204699 -0.0007377081 0.010406028
000020 4b d0 b5 3c 2d 70 d7 3c 35 8f 87 3a a6 b5 bb bb
       0.022194048 0.026298607 0.0010342362 -0.0057284413
000030 87 3b 13 3b 82 d2 13 bc 23 17 cf 3c aa 01 18 bb
       0.00224659 -0.009022357 0.025279587 -0.0023194351
000040 4b 36 2a 3c 58 da 09 3a 4e 96 49 bc 39 13 80 3b
       0.010388921 0.0005258671 -0.012303902 0.0039085415
000050 af 2a ff 3c 31 0d b7 3b bb 33 1e bd 5f 94 93 ba
       0.031148283 0.0055862893 -0.038623553 -0.0011259428
000060 2f cd 4b 3c 4d 3c b6 bc bb 80 18 3c a4 10 95 bb
       0.012439056 -0.02224555 0.0093080355 -0.004549103
000070 71 a5 3a 3b d0 ba 24 3a be 23 51 3d c7 7d cb 3b
       0.0028479958 0.0006283941 0.051059477 0.006210062
000080 c5 f7 8a 3a 07 c9 60 bc f4 a2 7b bc 9e 55 42 bc
       0.0010602406 -0.013719804 -0.015358675 -0.011861233
000090 8f ef 7a 3c bb a2 52 3c 67 ea 5e bb 95 6c 09 3c
       0.015315904 0.012856181 -0.0034014226 0.008387704
0000a0 a9 df 58 3a b9 6e 0c bc 92 bf 2a bc 26 62 ab 3b
       0.0008273074 -0.00857132 -0.0104216505 0.005230206
0000b0 93 3f 90 bb 3d 78 bc bb ef f9 33 bb 3e fb 44 ba
       -0.00440211 -0.005751638 -0.0027462204 -0.00075142446
0000c0 e4 bb 1b 3c 46 ef f8 bb 55 56 f8 3b 9c 54 28 ba
       0.009505246 -0.007596883 0.007578651 -0.0006421299
0000d0 d4 41 63 3b 0d c4 b7 3c 45 4e 2c 3b 43 87 8d bb
       0.0034676688 0.022432351 0.002629177 -0.004319103
0000e0 0b 41 d9 3c cd 2e 26 3c ed 3a c6 bc 8d b3 cf 3c
       0.026520273 0.010142994 -0.02419802 0.025354171
0000f0 6c b2 35 ba fd fb 65 bc 1c d0 43 3b b2 99 ee b9
       -0.0006931189 -0.0140371295 0.0029878682 -0.0004550941
000100 24 9a e6 b8 ab 4d 57 3c d8 da ac 3a 4c ec f0 3c
       -0.000109959656 0.013141076 0.0013187779 0.02940955
000110 4a 97 ce 3b e8 1b 0f 3c d7 ee 1b bc 8f 20 45 ba
       0.006304656 0.008734681 -0.009517393 -0.0007519805
000120 cd ed 02 3b d0 24 84 3c 31 a0 e6 bb af 39 74 bb
       0.0019978166 0.016130835 -0.0070381393 -0.0037265827
000130 f8 7f 0a 3d 63 e0 99 3b 58 5d 19 bb 74 b9 85 3a
       0.033813447 0.0046959384 -0.0023401584 0.0010202364
000140 7f 84 86 3a d9 d3 81 3b 5b e3 d7 3b 07 54 80 3a
       0.0010262876 0.003962022 0.006588382 0.0009790667
000150 55 cd 3b ba 70 f5 a3 3b ea 08 8d bc 8b 48 84 bc
       -0.0007164081 0.0050036237 -0.017216165 -0.016147872
000160 73 f6 7e bb e3 e4 a5 3c 90 8b 16 3d cc 49 d2 bb
       -0.003890422 0.020250743 0.03675419 -0.0064174887
000170 07 60 c6 bc 69 bf e3 b9 e0 ef 48 bb 8a 5b 00 3d
       -0.024215711 -0.00043439426 -0.0030660555 0.0313373
000180 44 fe d3 bb 1a 2d 18 bc b4 76 02 bb 83 c4 dc 3c
       -0.00646952 -0.009288097 -0.0019907178 0.026949173
000190 78 c2 54 bc a8 4a a0 3c d0 72 2f 3c 98 7b 8e 3c
       -0.012985818 0.019566849 0.010708526 0.017392918
0001a0 e6 2b ba 3b 2e 9d 0d bc a8 ca b5 bb 4c ae af bb
       0.0056815026 -0.008643432 -0.00554784 -0.005361354
0001b0 fb 0d cd 3b fe 49 14 3c 9c 08 84 ba e4 4c 19 3c
       0.00625777 0.009050844 -0.0010073367 0.009356711
0001c0 ca dd d3 bc a2 42 04 bb 06 e3 bd 3c d0 22 89 bb
       -0.025862593 -0.0020181318 0.023179542 -0.004185058
0001d0 a1 75 87 3c 5f 7d 16 3c 5f be 52 ba 0b 97 4f bb
       0.016535582 0.009185164 -0.0008039232 -0.0031675722
0001e0 b7 ff 9d 3b ca 9c a5 3c 96 f5 12 bb 03 ca 84 ba
       0.0048217434 0.020216364 -0.0022424213 -0.0010131005
0001f0 57 de ae bb 35 a5 8f bc 84 23 90 3c e4 eb af 3c
       -0.0053365636 -0.017534832 0.01759506 0.021474786
000200 e5 cd ca 3c 9b 00 0e bd 07 5b 5f ba 43 4e 09 b9
       0.024756381 -0.034668546 -0.0008520339 -0.00013094493
000210 db fe 35 bb 87 66 a9 3c ac e7 fd 39 83 3b e0 3c
       -0.0027770314 0.020678772 0.0004842853 0.027372127
000220 bf 95 05 3c d5 b8 96 ba 43 88 1d 3c 61 7b fb 39
       0.008153378 -0.0011499176 0.009615007 0.00047966375
000230 8f cd 78 bc 72 cd 4b 3c 5b 10 94 3c eb 64 d8 bb
       -0.015185728 0.012439119 0.018074205 -0.0066038272
000240 86 ce 1a bc 02 99 b0 3a f4 7c 3a bc be 7d 8a 3a
       -0.009448653 0.0013473334 -0.01138233 0.0010566039
000250 62 61 17 bc 20 f5 18 bc
       -0.009239526 -0.009335786

ClassificationFd1da27.0.running_mean f4 [150]
000000 dc 36 b8 3c ac ab 84 be 66 be 20 3d 9e 83 12 be
       0.022487096 -0.25912225 0.039244078 -0.1430802
000010 da 2e 07 be 67 23 9e bd c8 45 4d 3e 36 59 f6 bd
       -0.13201466 -0.07721596 0.2004615 -0.120287344
000020 f4 15 f3 bd 50 4a a0 3d 71 0e a8 bc c4 33 17 be
       -0.118694216 0.07826674 -0.020514699 -0.14765841
000030 a8 38 41 be 14 1a 80 3d d9 7e 41 bb b0 5a a4 3c
       -0.18869269 0.06254974 -0.002952507 0.020062774
000040 63 e8 aa 3d ac f2 c5 bb 33 df 72 be 9d 43 66 bd
       0.083451055 -0.0060408916 -0.23717956 -0.056216825
000050 5d f0 9b 3e db 3c fe 3e 83 14 50 3d 67 21 b5 3c
       0.3045682 0.49655804 0.05080081 0.022110654
000060 94 a6 8a 3e b9 38 0c be fc ae 8f bd 1e 58 dd be
       0.27080214 -0.13693513 -0.070157975 -0.4323129
000070 89 63 05 bd ed 9b 92 3e ed b4 24 3e 0a 38 c4 bc
       -0.032565627 0.28634587 0.16084643 -0.023952503
000080 42 89 5c 3e a3 96 10 bd d8 00 7c 3c a0 c5 c7 3a
       0.21536735 -0.03529991 0.015381061 0.0015241392
000090 f6 3d bf bb 91 06 19 3f d4 45 fb bd 72 6f 86 3c
       -0.0058362437 0.59775645 -0.12269178 0.016410563
0000a0 19 6b 40 bc 4d b2 02 3d c8 8c d8 3d ad b5 bb be
       -0.011744284 0.031908322 0.10573727 -0.36662045
0000b0 2d e9 31 bd 4c f2 1f 3e 51 0b ff be 13 9c 93 bd
       -0.043435264 0.15619773 -0.4981332 -0.07207503
0000c0 dc 10 1b 3e 24 21 23 3d f2 65 82 bd 3e 62 12 be
       0.1514315 0.039826527 -0.06367101 -0.14295289
0000d0 a4 14 f2 bc 02 38 8b 3e ba c5 57 bd 5b f1 5e bd
       -0.029550858 0.27191168 -0.0526788 -0.054429393
0000e0 2d 03 cc 3d 26 e7 da be a1 78 c7 3d 58 a6 82 3e
       0.09961543 -0.42754477 0.09739805 0.25517535
0000f0 58 92 96 3b 9c 20 d2 bd 64 a4 c9 bc e2 a9 07 3d
       0.0045950823 -0.10260126 -0.02461452 0.033120997
000100 7c e7 b4 3d f9 d5 d5 bb 78 2b 69 bd 03 c9 8c be
       0.08833215 -0.0065257517 -0.05692622 -0.2749711
000110 fa 00 bd 3e da 0f 23 3f 58 8d 68 3d 7a ef d5 bc
       0.36914808 0.6369606 0.05677542 -0.026115168
000120 f7 bc b6 bd 00 d1 a0 3e 3e 71 14 be b4 f4 67 3d
       -0.08922761 0.31409454 -0.14496323 0.05662985
000130 4b 02 73 3e 1d f9 c8 bd 82 56 a5 3d 3b 4c d0 bd
       0.23731343 -0.098131396 0.08073141 -0.1017079
000140 18 ca 0b be 5a e0 a6 bd 34 49 e8 bc c3 c1 a6 3c
       -0.13651311 -0.081482604 -0.028355218 0.020356065
000150 7e 27 d4 bd 77 58 42 be 4e f3 32 3e d0 65 b0 bd
       -0.10359095 -0.18979059 0.17475626 -0.08613169
000160 ae 5b f9 bd 58 24 08 3e 22 f7 e5 3e be 5d 1a bc
       -0.1217569 0.13295114 0.4491511 -0.009421764
000170 1d 09 c3 bc 1f df e7 bb 47 5d 44 3e a4 6c 87 be
       -0.023808056 -0.0070761587 0.19176207 -0.26450074
000180 25 96 22 bf d6 95 e1 3c 41 70 ea bc cf 76 b2 3d
       -0.6351035 0.027537268 -0.02861798 0.08714067
000190 0b 7e 98 3b 40 7b bf bc 2f c9 a9 bd f0 5a a7 be
       0.0046536974 -0.0233742 -0.08290326 -0.32686567
0001a0 ad 4f 91 3e e2 6e 4d be eb 51 af bb 77 fe d5 bd
       0.283811 -0.2006183 -0.0053503416 -0.10448926
0001b0 f8 1d ea 3b ca 88 88 bb 4d 4a 2d 3d d4 4c 36 3e
       0.007144686 -0.004166697 0.042307187 0.17802745
0001c0 42 e3 8f 3d 10 40 43 be 00 98 0e bb cf cf 51 3c
       0.07025768 -0.19067407 -0.002175808 0.012805893
0001d0 96 0b 13 be c1 7a b9 3d 51 06 63 3d 5f 8a fa bd
       -0.14359888 0.090566166 0.055425946 -0.122334234
0001e0 ce d1 d3 3b d5 55 c5 3d 36 f9 30 bd 50 a4 c6 3e
       0.0064642197 0.09635512 -0.043206416 0.38797235
0001f0 70 0a 07 bd 80 45 bb 3e 5b ee 10 be 16 a3 c8 3c
       -0.03296894 0.36576462 -0.14153425 0.024491828
000200 05 3d 03 3e b1 46 7d be 00 61 7f be 40 ef 2a bc
       0.12816246 -0.24733998 -0.24939346 -0.010433018
000210 f8 00 c9 3c fb 5d 8d 3e f0 54 37 3e 1a cb 1e 3e
       0.024536595 0.27610764 0.17903495 0.15507165
000220 37 67 58 bd e1 f0 3a 3d ea 0a 63 bd 6b 15 a0 bd
       -0.05283281 0.045639876 -0.05543033 -0.07816585
000230 0b 7b a3 3c b5 6d 6b bd 38 e8 5c bc 3b 30 27 bf
       0.019956132 -0.05747767 -0.0134831 -0.6530797
000240 78 d8 08 3e 66 c6 23 bd 88 be 04 bd 56 e0 03 3c
       0.13363826 -0.03998413 -0.032408267 0.008049091
000250 73 ce 90 3d 2d 91 87 bc
       0.07070627 -0.016548717

ClassificationFd1da27.0.running_var f4 [150]
000000 9d 4d 0b 39 97 43 44 3b 2a fc 0c 3a 62 a4 e3 39
       0.00013284986 0.0029947513 0.00053781515 0.0004341929
000010 b3 9c 88 39 3e 07 36 39 9a 8f 0f 3a a2 3e e5 39
       0.0002605669 0.0001735957 0.00054764154 0.0004372495
000020 e5 f6 ae 39 e1 ed f5 39 6d 1b 8f 39 b4 89 ad 39
       0.00033371817 0.00046907275 0.0002729552 0.00033099728
000030 c0 e8 96 3a 37 b9 bd 39 9b 8a 04 39 67 d5 08 39
       0.0011513457 0.00036186885 0.00012640136 0.00013049469
000040 07 5d c0 38 38 34 5d 39 36 58 73 3b 29 3e 56 39
       9.172601e-05 0.00021095655 0.0037131435 0.00020431787
000050 cf 7a 17 3b a9 32 5d 3a 9d c3 b4 39 c0 78 11 39
       0.002311397 0.000843803 0.0003447802 0.0001387326
000060 7a 94 f1 3a a7 90 ca 39 18 19 2e 39 b4 33 b9 39
       0.001843109 0.00038636217 0.00016603281 0.00035324472
000070 5a df db 39 cc 20 e6 3b e6 6e 47 3c 52 5c 6a 3a
       0.00041937345 0.0070229527 0.012172436 0.00089401484
000080 0b 49 99 3a af 32 b8 39 93 86 e4 39 24 20 72 38
       0.0011694742 0.00035132977 0.00043587814 5.772723e-05
000090 b6 d6 82 3a 7a 6f 77 3b 69 67 10 3b 82 14 7d 38
       0.0009982202 0.0037755654 0.0022034294 6.0339e-05
0000a0 57 18 44 38 48 52 24 39 5d 98 51 3a bd 70 69 3b
       4.675271e-05 0.00015670911 0.0007995421 0.0035620176
0000b0 91 3c 53 39 dd b8 1f 3a 43 55 f2 3a d0 5e 5f 39
       0.00020145091 0.00060929154 0.0018488545 0.00021302258
0000c0 68 da 0a 3a 85 25 93 39 99 f9 f7 38 a4 44 34 3b
       0.00052968273 0.0002806598 0.00011824369 0.0027506733
0000d0 4a 95 1b 39 6e c9 25 3b 43 9c 84 39 2c cc f6 38
       0.00014837566 0.0025297063 0.00025293426 0.00011768224
0000e0 b0 e2 b5 39 34 c6 d5 3a 43 f9 d0 39 c9 58 84 3b
       0.00034691906 0.001630968 0.00039858566 0.0040389043
0000f0 00 cc ae 38 02 6a ba 39 33 48 41 39 f1 37 8d 38
       8.3349645e-05 0.00035555667 0.0001843281 6.733824e-05
000100 0b ca 95 39 bf e4 b3 38 51 24 4a 39 a8 09 32 3c
       0.00028570028 8.5779924e-05 0.0001927775 0.01086656
000110 24 bc 01 3b e7 98 3b 3a 25 88 d8 39 2b cc bb 39
       0.0019795978 0.0007156268 0.00041300166 0.00035819536
000120 bd 72 79 3a 8c f2 3e 3a fd 54 26 3b fb 93 83 39
       0.00095156935 0.0007284067 0.0025380247 0.0002509652
000130 e5 ba b9 3a 04 eb 29 3b 9c d7 66 3a ed 9f 28 3a
       0.0014170079 0.0025927434 0.0008805932 0.0006432522
000140 3d 20 6a 3a 73 c2 54 3a d4 84 0d 39 e3 32 ae 39
       0.00089311955 0.00081161334 0.0001349629 0.0003322578
000150 15 c1 95 3a 52 2e ce 3a 21 ff 98 3a 52 60 11 39
       0.0011425341 0.0015730357 0.0011672714 0.0001386416
000160 12 c7 80 3a 4e 6a e0 39 6b 9a f3 3a 82 15 8c 3a
       0.0009824953 0.00042803813 0.0018585449 0.0010687562
000170 58 ec 62 3a 42 23 09 39 13 ab 7c 3b 19 21 0c 3a
       0.0008656434 0.00013078473 0.0038554117 0.0005345508
000180 ea bc 37 3a 67 67 ba 39 82 c6 a4 39 45 af 5d 3a
       0.00070090464 0.00035553725 0.00031428417 0.0008456598
000190 37 e7 b6 39 ea 17 fa 39 1d eb 04 3a 16 86 7d 3a
       0.00034886014 0.00047701533 0.0005070435 0.00096711644
0001a0 39 e3 4e 3a f9 a3 e5 39 9a 58 bd 38 ef 31 c8 3a
       0.0007892135 0.00043800453 9.0287256e-05 0.001527367
0001b0 68 34 dc 39 60 9c 33 39 8c d3 91 39 4d 39 c5 3a
       0.00042000716 0.00017129024 0.0002781417 0.0015046984
0001c0 3e 67 10 3a 8a ab b5 39 31 c5 51 39 e1 5b 03 3b
       0.00055085483 0.00034650817 0.00020005253 0.0020043778
0001d0 c9 65 19 3a 9c 64 9d 3a 66 34 91 39 67 f5 8e 39
       0.0005851654 0.0012008133 0.00027695595 0.0002726719
0001e0 3a e9 4b 39 93 ab 88 39 e6 ad d9 39 1d e4 5f 3b
       0.00019446472 0.00026067774 0.0004151903 0.0034163066
0001f0 8a 42 58 3a f8 80 d5 39 07 5e 85 3a 9f a4 c9 39
       0.0008249661 0.00040722615 0.0010175117 0.0003846036
000200 e8 96 0b 3a bd 99 e6 39 22 0d 89 3b d0 9c 7c 3a
       0.0005324916 0.00043983563 0.0041824738 0.0009636404
000210 ec b0 01 3a 90 fd 61 3a fa 7a 20 3a d2 3a 65 3a
       0.0004947323 0.00086208526 0.00061218406 0.00087444216
000220 89 f4 5a 3a 57 59 a2 39 6f 1d a4 3a e2 75 89 39
       0.00083524786 0.0003096561 0.0012520979 0.00026218506
000230 c6 6e 33 39 34 75 80 39 b7 a9 bb 38 57 26 ca 39
       0.00017112037 0.00024501386 8.948467e-05 0.00038557008
000240 57 36 f8 39 ab c4 f6 38 d8 99 4e 39 db b8 e4 38
       0.00047342732 0.00011766826 0.00019703002 0.00010906319
000250 ff a2 71 38 ba 62 88 38
       5.761068e-05 6.5033746e-05

ClassificationCat.0.weight f4 [1, 150]
000000 ba ce 6f 3d 33 1d 59 3d b1 93 da bd 8c cc 3a 3d
       0.05854676 0.053006362 -0.10672701 0.045605227
000010 e8 94 5b bc 0f d2 77 bd 3a 72 b5 3d ef 90 95 bd
       -0.013402201 -0.06050306 0.088596776 -0.073030345
000020 51 bf e9 3d 1b c7 be 3d b9 45 be 3d ed 89 06 bc
       0.11413444 0.0931532 0.09290642 -0.008211595
000030 e4 48 b4 3c 68 60 6f 3d 18 24 ec 3d 76 35 6a 3d
       0.022007413 0.05844155 0.11530322 0.05717989
000040 92 13 ed 3d c0 92 c7 3d 84 ec 45 3d a1 4b 0a 3d
       0.11575998 0.09744787 0.048321262 0.03376353
000050 c2 a4 91 3d 7f ed 63 3d 04 45 dd bd e6 11 c3 3d
       0.07111503 0.055646416 -0.10804179 0.09524898
000060 8a 5e 86 3d 11 9b 13 be b6 0d 0e be 9b bf df 3b
       0.06561001 -0.14414622 -0.13872418 0.006828261
000070 c6 90 f6 bd 3d 63 f0 3c 16 a0 c9 3d 9a 3f d6 bd
       -0.12039332 0.029344196 0.09844987 -0.1046135
000080 a4 81 b2 3d ed 9e 85 bd e6 20 b7 bd 18 79 a1 bd
       0.08716133 -0.06524453 -0.08941822 -0.07884425
000090 c8 ce 69 3d d3 5e e6 3c 90 89 90 3b 79 5c 1f 3d
       0.057081968 0.028121388 0.00441093 0.03890655
0000a0 76 73 45 bd 78 b5 39 3d 70 e7 c5 3d e6 55 d1 bd
       -0.048205815 0.045339078 0.09663284 -0.10221462
0000b0 93 fd ae bd a3 d8 cf bd 23 f9 86 3b 34 f2 22 be
       -0.08544459 -0.10148742 0.004119055 -0.15912706
0000c0 30 ec fb 3d 25 34 8b 3d ee 07 8d bd 8e 62 40 3d
       0.123009086 0.06797055 -0.06886278 0.04696899
0000d0 bb c6 ad 3d 77 24 b0 3d 60 6c 6a 3d 8c 52 9f 3d
       0.084851705 0.08600705 0.05723226 0.077794164
0000e0 15 87 84 3d 18 e7 8f bd af b4 53 3d d5 2d e7 3d
       0.06471077 -0.070264995 0.051685985 0.11288039
0000f0 a7 e5 b2 3d 47 c8 93 bd b3 c4 b4 3d 84 0b 8e 3c
       0.08735209 -0.07215934 0.0882658 0.017339475
000100 f2 59 ea 3d b2 3c e0 3c 24 e7 fb bd 95 7b da bd
       0.11442937 0.027372692 -0.12299946 -0.10668103
000110 d7 44 19 3d 23 e5 ca 3c 3d 81 61 3d 84 de f6 bd
       0.037419166 0.024767464 0.05505489 -0.1205416
000120 8e db da bc 43 e1 08 3d 03 a1 98 bd 4b 70 83 3d
       -0.02671602 0.03341795 -0.074525855 0.064179026
000130 1d 3f c6 3d c1 ca 0a be f6 64 be 3d 68 c3 07 be
       0.09680007 -0.13553907 0.092966005 -0.13258135
000140 61 ed 2e bd 72 e8 0a bd 34 9b 44 3d 6e ed 9c bd
       -0.04270685 -0.033913083 0.047999576 -0.076624736
000150 1f b2 e8 3b ac c5 0a bd ca ea af bd 2c b7 40 bd
       0.007101312 -0.03387992 -0.08589704 -0.047049686
000160 8b f9 97 bd 8f 9d a6 3d e4 b9 5d 3d 8a c4 44 3c
       -0.074206434 0.08135521 0.054132357 0.012009749
000170 6c c1 0f bd 6c 9f 71 bc f3 ff 9d 3d 25 a6 c2 bd
       -0.03509657 -0.014747482 0.07714834 -0.09504346
000180 af c2 86 3c 0d 43 e7 bd a7 cd e5 3d 53 8d c7 3d
       0.016450254 -0.11292086 0.11220866 0.09743752
000190 91 dd f1 bd 39 0c 01 be 88 05 0d be 52 85 0b 3d
       -0.118098386 -0.12602319 -0.13771641 0.03406269
0001a0 0b 00 b8 3d 6b ee 87 bc 72 73 83 bd b1 f5 b9 3a
       0.08984383 -0.016593179 -0.06418504 0.0014187602
0001b0 5c 07 de 3d 4b 6d 14 be 06 02 dc bd 06 31 5e 3d
       0.108412474 -0.14494817 -0.107425734 0.05424597
0001c0 51 c6 cb bd b1 a1 ab bb 43 9a 92 3d 73 80 45 3d
       -0.09949935 -0.005237781 0.07158329 0.0482182
0001d0 64 be b6 bd e9 60 07 be ed 68 07 be c8 af 55 ba
       -0.08923033 -0.13220562 -0.1322362 -0.00081514986
0001e0 bd 20 9e 3d 42 bd a8 3d d4 9f 9a bd 2b a0 4e bd
       0.07721088 0.08239223 -0.07550016 -0.050445717
0001f0 06 46 f3 bd e9 00 c1 bc cb 5d a8 bd 60 b3 b8 3d
       -0.1187859 -0.023560004 -0.082210146 0.09018588
000200 55 6f fb 3d f9 30 5e 3d 88 f4 06 bc 4a 38 14 3e
       0.12277094 0.054245923 -0.008237012 0.14474598
000210 a1 db 94 bd 87 9c c7 3d fd d8 51 3d bf 21 d9 3d
       -0.072684534 0.09746652 0.051232327 0.1060214
000220 42 50 56 3d f7 90 bb 3d 26 13 e0 bd a1 aa 09 3d
       0.052322634 0.09158509 -0.10941152 0.03360999
000230 32 47 53 bd 17 a7 f2 bd 95 9f b6 bd 86 42 cd 3b
       -0.05158157 -0.11848276 -0.089171566 0.0062640337
000240 fd da 29 bc 3e 56 48 bc 32 a3 98 3d 70 e4 1c be
       -0.010367152 -0.012227593 0.07453002 -0.15321517
000250 a8 d0 2a 3d 52 1a 77 bd
       0.041702896 -0.060327835
