models/2023-05-11_23-16/pytorch/1-F_7-E_3.pt (torch, 411855 bytes, 9 tensors)

Fd1da27LSTM.weight_ih_l0 f4 [600, 17]
000000 f8 db 95 bd 64 b8 db bd b9 83 8b bb 01 aa e6 bb
       -0.07317346 -0.10728529 -0.004257646 -0.007039309
000010 43 72 13 bc 66 f5 b0 bb 75 eb 68 3d 3e 33 8f bd
       -0.00899941 -0.0054003475 0.056865174 -0.069921955
000020 4b ef f5 3c 39 a0 44 3d 6e 57 b7 bc 25 93 c0 bd
       0.03002133 0.048004363 -0.022380557 -0.094030656
000030 5b f5 2c bd c9 36 60 bd 50 1c 25 bd b1 79 bd 3c
       -0.042226177 -0.054739747 -0.040310204 0.023129316
000040 50 b1 cd bd b6 31 8b bd b6 83 4f bd cb f8 2f be
       -0.10043585 -0.06796591 -0.05066272 -0.1718475
000050 0d d9 e0 bd e4 ce e9 bd 64 ba 84 bc ca 3a 90 bc
       -0.10978899 -0.114164144 -0.01620216 -0.017606158
000060 c6 22 d7 bb 97 38 c4 bd f7 10 08 bd d1 31 57 bd
       -0.0065654246 -0.09581106 -0.033219304 -0.052537743
000070 7f 41 54 bc 81 ee 02 3d f1 f2 9a bd f5 75 69 bd
       -0.012955069 0.031965736 -0.07565869 -0.05699726
000080 6f ef d3 bd cd ea c5 bd 71 7c a9 3d 1b 15 1b 3d
       -0.10348403 -0.09663925 0.082756884 0.037861925
000090 40 ca 9f be 1d 5d 56 3e eb c9 97 3d 08 05 55 bd
       -0.31208992 0.20933957 0.0741156 -0.05200675
0000a0 fb 8d 81 bc 29 19 c8 bd b0 a2 e7 3d f9 59 25 3d
       -0.015814772 -0.09770424 0.11310327 0.040369008
0000b0 57 e7 50 be 68 16 73 bd 8a 95 76 be 08 36 c9 bc
       -0.20400749 -0.05934754 -0.24080482 -0.024561897
0000c0 95 e4 0a 3c 0f 8a f2 3d ae 99 e5 3d 2a 61 f4 bd
       0.00847735 0.11842739 0.11210953 -0.11932595
0000d0 fc f0 78 bd 52 6d 6b bd ea 71 d0 3c 81 56 77 bd
       -0.060776696 -0.057477303 0.025444943 -0.06038523
0000e0 32 0c 7c bd b2 96 05 be 4d a0 1b bd 61 ad fe bd
       -0.061535068 -0.13045767 -0.03799467 -0.12435413
0000f0 0e 5f 61 bd 39 92 92 3c 7b b4 03 be b3 8f 1d bd
       -0.05502229 0.01789199 -0.12861817 -0.03846712
000100 e1 a9 d2 bc 1d 24 8b bc 2a 5c 2b 3d 6b e0 e9 3b
       -0.02571577 -0.016984994 0.04183594 0.0071373484
000110 ab fa a6 bc d4 44 5f bb 7e 85 b7 bd bf 50 4d be
       -0.0203832 -0.0034068124 -0.089610085 -0.20050333
000120 eb 3d 96 bd 71 6e ed bc 60 2f 6b bd 51 ea 84 bc
       -0.07336029 -0.028983327 -0.057418227 -0.016225012
000130 81 b1 e7 bd 2b 45 07 bd 52 ed 0a bd 9f 85 ee bd
       -0.11313153 -0.033024948 -0.033917733 -0.1164658
000140 53 9e 03 bc 33 9b 60 bd 32 73 61 bd d4 8d 23 bd
       -0.008033353 -0.05483551 -0.0550415 -0.03993018
000150 a7 f2 9f bd 05 57 8a 3c 8f 51 9e 3d 21 18 8f 3c
       -0.07809954 0.016887197 0.077304 0.01746756
000160 5c 23 fd bd 5b 12 1d bd b6 b9 f5 bd 16 68 dd bd
       -0.1236026 -0.038347583 -0.11998312 -0.108108684
000170 e0 8a e8 bd cb d1 6f 3d cb fc 14 bd eb 10 41 be
       -0.11354613 0.058549684 -0.036373895 -0.1885411
000180 cf 24 a1 bd 86 1c 3a bd b7 e0 18 bc 6f f2 18 3d
       -0.07868349 -0.04543736 -0.00933092 0.037340578
000190 b3 42 f4 bd 45 d1 8a 3b 2a b6 9c 3c 14 d4 93 3d
       -0.11926784 0.0042363727 0.019129831 0.07218185
0001a0 d8 a3 ed 3c a6 3f 3a 3d 72 03 21 3d 8f 0b c4 bd
       0.02900879 0.045470856 0.039309926 -0.09572517
0001b0 bc 47 61 3d 1b 49 01 bd 5e 31 1c bd 23 42 df ba
       0.05500005 -0.03156386 -0.038133018 -0.001703326
0001c0 69 85 0a 3c 0b 22 16 be d2 c7 95 3c 1c 68 f6 3c
       0.008454659 -0.14661424 0.018283758 0.03007894
0001d0 6a 1a e9 bd 2d 88 94 3d 3c 5a de 3c 78 41 db bd
       -0.11381991 0.07252536 0.027142636 -0.107058465
0001e0 3c b5 53 bd 74 68 c4 bd 0d bc 2d 3c fd 4f 6d bd
       -0.05168651 -0.09590235 0.010603917 -0.05793761
0001f0 0a 96 f7 3c e3 cb 2f 3d 0d 74 41 be e9 71 82 bd
       0.030222911 0.04291905 -0.18891926 -0.06369383
000200 98 5c fe bd 07 7e 8e bc 2b e5 a2 3d b3 bd 17 3c
       -0.124200046 -0.017394079 0.079538666 0.009261536
000210 55 e3 8a 3d dd ab 5c bd 96 f4 2d 3b 93 eb e6 bc
       0.067816414 -0.05387484 0.002654349 -0.028188502
000220 c7 a0 44 3e e7 1d ee 3d f0 dc 48 bd 34 35 4f b9
       0.19201957 0.11626797 -0.049038827 -0.00019760878
000230 88 e4 cc bd f9 93 88 bd e2 f0 ea bb 04 f7 8d bd
       -0.100045264 -0.066688485 -0.0071698288 -0.0693188
000240 70 e7 90 bd 33 78 07 bb 29 d4 42 bd 07 34 7d 3d
       -0.07075393 -0.002067101 -0.047565613 0.061817195
000250 db 92 d9 bd cb 47 00 bd 1f e8 85 bd 02 8e aa bc
       -0.106237136 -0.031318467 -0.06538414 -0.020819668
000260 51 49 87 bd 25 b8 09 3d ab b8 b9 3c 46 6a 88 bd
       -0.06605781 0.03362288 0.022671064 -0.06660895
000270 01 35 f6 bc 70 8a f5 3a ad ad 30 bc ff e7 c8 bd
       -0.030054571 0.0018733274 -0.010783595 -0.09809875
000280 59 4e d1 bb cd 27 c1 bd 4e ce 9c bd 15 99 0a bb
       -0.0063875136 -0.094314195 -0.07656537 -0.0021148373
000290 fd 20 e4 3a 34 6c a2 3d 6d de 08 3d 02 aa b5 3c
       0.0017404851 0.07930794 0.033415247 0.022175793
0002a0 83 36 e0 3c 94 5b 48 3d 55 fd 46 3d 81 c2 f1 3c
       0.027369743 0.04891546 0.04858144 0.029511692
0002b0 4b b8 ad bd 09 cf 14 bd ab 1d 70 3d 20 81 d4 bc
       -0.08482417 -0.036330257 0.058622044 -0.025940478
0002c0 01 4e de 3c 34 f2 19 3d 53 68 53 3e 97 4f 00 be
       0.027136805 0.0375845 0.20645265 -0.12530361
0002d0 e1 d4 13 be a8 7c 2f be b3 0b 05 be 5c 9f 2e bd
       -0.14436676 -0.17137396 -0.12992744 -0.042632446
0002e0 3e 5f 2f 3b ac ad a7 bd 51 6b 16 3e 38 90 e8 bd
       0.002675965 -0.08187422 0.14689375 -0.113556325
0002f0 0c 29 ce bd 4f 57 8e bd 6f 33 c9 bd 40 e1 05 be
       -0.10066423 -0.069502465 -0.09824263 -0.13074207
000300 c2 5c b3 3c 65 24 91 bd 06 60 13 be 62 56 fc bd
       0.021894816 -0.0708702 -0.14392099 -0.12321164
000310 85 be f3 bd 9d 15 ed 3c 5d 45 13 3d 89 8b f6 bd
       -0.11901573 0.02894097 0.03595482 -0.12038333
000320 06 b8 55 3d 19 57 8c bc 12 ea 34 3c 93 e4 63 bb
       0.05217745 -0.017131375 0.011042135 -0.0034773692
000330 39 2a 86 bd 5c 47 d5 b9 4f bc a5 bd f1 9c 99 bd
       -0.06551022 -0.00040679693 -0.08092558 -0.07500637
000340 e5 bf e5 bd 4e 40 44 3c 1d 94 8d 3c f3 1b d0 3c
       -0.112182416 0.011978222 0.01728254 0.025403952
000350 0a 42 30 be 78 05 37 3a bd 88 77 3d ea 23 05 3e
       -0.17212692 0.0006981711 0.06043314 0.13001981
000360 0c ad 5c 3c 6c f1 a9 3d 73 3f 15 bd 3d df 95 bc
       0.013468992 0.08298001 -0.036437463 -0.018294925
000370 8e 99 03 bd 15 87 37 be d2 06 7d bc b3 83 29 bd
       -0.032128863 -0.17922623 -0.015443521 -0.041385364
000380 df c8 7b bd aa 22 47 3d 4b 3b 4a bc 2c cf f9 bc
       -0.061470862 0.048617043 -0.012343238 -0.030494295
000390 17 9b 57 3c 19 66 94 bd 68 f3 4a 3e fe 0a 10 be
       0.013159535 -0.07246036 0.19819415 -0.14066693
0003a0 11 11 c6 3d ed 4c 02 3e b6 fc 09 3d 44 06 ac 3d
       0.09671224 0.12724657 0.03368827 0.083996326
0003b0 fb 22 77 3d a9 45 90 3d a3 cf a3 3d a2 74 b6 bd
       0.060336094 0.070445366 0.07998588 -0.08908965
0003c0 30 bd ce bc 21 83 c9 bc 27 f8 b4 3d f7 77 ac 3c
       -0.025236696 -0.02459866 0.08836394 0.021053297
0003d0 30 5c 96 3d 7b 29 7d 3d b3 8a 6c 3d 09 cf f9 3d
       0.07341802 0.061807137 0.05774946 0.12197692
0003e0 81 fe 03 bd ad de 4e 39 53 f4 b7 3c 4c a4 5e 3d
       -0.032225136 0.00019728644 0.02245537 0.054355904
0003f0 31 8b 7a 3d 85 02 cd 3c a4 cc 83 3c aa 81 7b 3d
       0.0611679 0.025025615 0.016088791 0.061402954

Fd1da27LSTM.weight_hh_l0 f4 [600, 150]
000000 87 6c a4 3c 28 8f 85 bc b3 8c 3f 3d ae 84 ed 3c
       0.020071281 -0.016303614 0.04676504 0.02899393
000010 20 a2 19 3c e8 18 c4 3d bf 0a 60 bd 56 57 99 3c
       0.0093770325 0.09575063 -0.05469775 0.018718403
000020 df 11 4e 3d 28 17 94 bc 3c 43 86 bd 6d e5 ad 3d
       0.050310012 -0.018077448 -0.06555793 0.08491025
000030 3f b4 b1 bb d0 45 46 bd d0 40 d5 bd b8 06 fc bd
       -0.0054230983 -0.048406422 -0.10412753 -0.12305969
000040 a4 07 42 bd cd 35 14 bd 1d 50 26 bd 92 18 64 bb
       -0.047370568 -0.03618412 -0.040603746 -0.0034804684
000050 08 75 4f bd 98 67 6b bd c4 bb df 3c 7b a3 46 bc
       -0.05064872 -0.05747184 0.027311213 -0.012123938
000060 a1 43 b3 3c f0 87 cd 3d b9 d0 92 3c 68 3e a0 3c
       0.021882834 0.10035694 0.017921792 0.019561008
000070 7a cc f4 bd c2 e6 22 3d 62 fa 37 3e 3e dd 1c be
       -0.11953063 0.03977085 0.17966607 -0.15318772
000080 c5 d4 86 3c 3c 90 6e 3c bc 28 73 3d 87 60 8c bd
       0.016458878 0.014560755 0.05936502 -0.06854349
000090 c5 42 81 bd c9 2f e1 bd 7a 21 da bd a3 49 3a bd
       -0.063115634 -0.109954424 -0.106509164 -0.04548038
0000a0 f8 ea 6a 3d c1 e5 4e bd fd 1e 57 bc be aa 89 bd
       0.05735299 -0.05051208 -0.013129947 -0.067220196
0000b0 30 5a 14 bd 16 99 d1 bd fc 27 9d 3d 15 4d 2d 3d
       -0.036218822 -0.10234277 0.07673642 0.04230984
0000c0 79 2a bd bd 99 b9 91 3d 52 27 96 bc f4 ce 81 bd
       -0.09236617 0.07115478 -0.018329296 -0.06338301
0000d0 d4 94 5a bc 5a b5 61 3d bb cc 40 3d e8 bd 09 3d
       -0.013341147 0.05510459 0.047070246 0.033628374
0000e0 16 90 5b 3c d4 ac 7e 3c fe 1a 0e 3d b7 95 59 3d
       0.013401052 0.015544135 0.03469371 0.053121295
0000f0 4e 86 71 bc 93 23 9a 3d 9c 67 a2 3c f8 9e 1c bd
       -0.014741493 0.075263165 0.019824795 -0.038237542
000100 12 fa 15 bd 19 b3 8c bc 49 01 c4 bc 95 ef 43 bd
       -0.03661544 -0.017175244 -0.023926394 -0.047835905
000110 7c 5e e4 bd b9 30 25 be d2 7e 0c 3d 41 03 36 bc
       -0.11150834 -0.16131867 0.034300633 -0.011109174
000120 ec f1 27 3c 7b c6 45 bd 5b 3e 96 bd 37 8a d2 3c
       0.01025055 -0.04828499 -0.07336112 0.025700672
000130 ac 54 20 bc 20 62 2c bc 7d e0 80 3d 7d 63 cc bc
       -0.009785812 -0.010521442 0.06292818 -0.024949783
000140 74 f5 88 bc 28 2c cf 3b 5e 48 ea bd 37 bf 1a bc
       -0.016718604 0.0063224025 -0.11439584 -0.009445003
000150 1a 62 00 3d 59 71 79 3d c9 c7 b5 3c 07 28 b8 3c
       0.031343557 0.060899112 0.022189992 0.022480024
000160 a3 b4 fb bc 4a 47 10 bb 97 e4 c3 bd e6 d7 e8 3d
       -0.030725783 -0.0022015148 -0.095650844 0.11369304
000170 d1 2d 9c 3d 4b ed 14 bd 4b a4 90 3d c7 4d 5b 3d
       0.07625926 -0.036359113 0.070625864 0.05354097
000180 15 e8 ac 3d 8b cc 12 bd e5 8a 12 bc 62 06 8c 3d
       0.08442704 -0.0358396 -0.008944248 0.06837155
000190 de 71 72 3c d1 cb a6 bb b6 d1 08 3b 88 53 c4 3c
       0.014797656 -0.005090215 0.002087695 0.023965612
0001a0 c2 f7 ed bc 1f 4b 4b 3d e6 94 8b 3c 3f 8f 66 bd
       -0.029048804 0.049632188 0.017038774 -0.056288954
0001b0 37 f1 1a bc 3b e8 27 bd d7 2e 3e bd 9d 29 14 bd
       -0.009456924 -0.040992957 -0.04643139 -0.036172498
0001c0 c9 b9 68 bd e5 3a fe 3c 9c 91 91 bd 8a 7c a7 bb
       -0.056817804 0.031033942 -0.07107851 -0.0051112818
0001d0 d5 f1 16 bd f9 40 08 3d 98 f9 73 bb 99 79 d1 3c
       -0.036851723 0.033265088 -0.0037227627 0.025570678
0001e0 ec 44 9e bc 8b 29 fa bc 18 e4 46 3e 51 79 49 bd
       -0.019319974 -0.030537387 0.19422948 -0.049187962
0001f0 ce ed f6 bd c2 a5 f8 bd c4 0b 64 3b ac 42 43 3c
       -0.120570764 -0.12140991 0.0034797052 0.011917751
000200 f3 bb 91 bd 98 26 92 3d 1f 1a 51 bd 82 b3 e0 bc
       -0.071159266 0.071362674 -0.0510503 -0.027429346
000210 ed 53 79 bd e7 97 fa bd 24 46 96 3b a0 13 be 3b
       -0.060871053 -0.12236004 0.004585998 0.0058006793
000220 fd 7d 48 bd 8f 5c b7 bd 74 c5 31 3c b6 f7 6f 3d
       -0.048948277 -0.08953201 0.010850299 0.058585845
000230 4a 3d 47 3d ff 45 fe ba 27 05 61 bd 4d 15 cf 3d
       0.048642434 -0.0019399523 -0.054936554 0.10111485
000240 f0 a3 04 3d a3 11 13 bd 98 91 04 3b 5d 98 48 3c
       0.032382905 -0.03590549 0.0020228382 0.0122433575
000250 a1 d0 c8 bc 7c db 00 bc d2 b8 cc 3c 0c 61 3a bc
       -0.024513545 -0.007864829 0.024990473 -0.011375677
000260 bc d0 86 bc a8 cf 4d 3d df fa 55 3d b5 7d 85 3b
       -0.016456954 0.050246865 0.052241202 0.0040738233
000270 0a cc 36 bc aa 31 10 bd 50 6d d3 3d d0 cb 04 3d
       -0.011157045 -0.035203613 0.10323584 0.032420933
000280 59 60 b3 3b 3b 8d 03 3d b7 58 56 3d 83 96 0b 3d
       0.005474132 0.03211711 0.0523307 0.034079086
000290 c2 d4 e6 3c 07 30 b2 3c 19 0d 5a bb f4 1a b5 3c
       0.028177623 0.021751417 -0.0033271967 0.022107579
0002a0 c8 4d 66 bd 8e d8 b1 3c fa 65 b5 bc f0 5a 97 bd
       -0.05622652 0.021709707 -0.022143353 -0.07390392
0002b0 54 77 f8 bd 43 55 a5 bb fa 3b 11 bd de 1a c1 3d
       -0.12132135 -0.0050455644 -0.03545759 0.09428953
0002c0 7c c6 c2 3b d2 25 a3 3a 49 1c 02 3e 70 f8 f3 39
       0.0059440713 0.0012447184 0.12706102 0.00046533672
0002d0 04 23 71 3c fc a8 25 3d e6 7e 06 bc 13 20 38 bc
       0.014717821 0.04044436 -0.008208966 -0.011238116
0002e0 83 f8 7c bc 3b f5 d3 ba 5c 19 1c 3d 35 5d 31 bc
       -0.015440109 -0.0016171107 0.038110122 -0.010825445
0002f0 db 64 a1 bd 97 41 4f 3d 56 17 5d bd 3c 78 13 bd
       -0.07880565 0.05059966 -0.053977333 -0.036003336
000300 33 94 58 3c 03 2d c0 3d 93 f5 3a 3d 74 e3 af bc
       0.013218927 0.09383585 0.045644354 -0.021470763
000310 a9 4e a9 3c 9b b3 c5 ba 20 76 19 3b c3 2e 93 bd
       0.02066739 -0.0015083434 0.0023416355 -0.071866535
000320 05 f3 f2 b9 59 7c f4 bc ea 12 80 3d f0 23 7a 3d
       -0.000463389 -0.02984445 0.062536076 0.06106943
000330 d9 2e 60 bd ad 07 5c 3d 17 65 31 3b 73 50 c8 b8
       -0.054732177 0.053718258 0.002706831 -9.551728e-05
000340 bf 5e c0 bd 78 82 21 bd db a9 c8 3a 2c 87 45 bc
       -0.093930714 -0.039431065 0.001530941 -0.012056153
000350 5f 7f 68 3d 4d 82 eb 3c 40 e1 77 3c 72 b5 80 3d
       0.056762096 0.028748656 0.015129387 0.06284608
000360 23 73 1f 3d 89 79 16 3d 0e ac 80 3b b3 0b 44 bd
       0.038928162 0.036737 0.0039267605 -0.04786272
000370 35 cc 27 bc f6 ec 5b bd 48 4e 74 bd f3 69 c1 bd
       -0.010241558 -0.05369278 -0.059644967 -0.09444036
000380 e3 a7 1a bc 0c e4 3f 3d a7 b9 20 3d 27 e9 ad 3c
       -0.009439441 0.04684834 0.039239552 0.02122934
000390 30 d7 49 bc 7c b8 62 3d e4 9a a9 bd bf 9d ca bd
       -0.012319371 0.05535172 -0.08281496 -0.09893369
0003a0 4c ef 3b 3c a1 51 f3 3c 1b e0 68 3c ee 33 9b bd
       0.011470627 0.02970201 0.014213587 -0.07578264
0003b0 d9 65 28 bb 4b 60 c5 bc 73 cb 66 bd a5 2f 2c 3d
       -0.0025695472 -0.024093768 -0.056346368 0.042037625
0003c0 15 57 79 3c 01 32 bb 3d 16 11 43 3d 04 3f 60 3d
       0.015218516 0.09140397 0.047623716 0.054747596
0003d0 c5 9e fd 3c 76 1d 87 3d 23 a4 69 bd 58 d1 65 3d
       0.030959496 0.06597416 -0.0570413 0.05610785
0003e0 f6 2b 60 3d b6 a9 ec 3b f2 53 54 bd da 68 a5 3d
       0.054729424 0.0072223796 -0.05183787 0.080766395
0003f0 fa 5f 64 3d d1 a8 9e 3d 26 43 5e bd bd 3f 26 3d
       0.055755593 0.07747043 -0.054263256 0.04058813

Fd1da27LSTM.bias_ih_l0 f4 [600]
000000 01 bc 80 bc ea 78 12 bd 0d 1f 79 bc dd 1e d9 bc
       -0.015714647 -0.035759844 -0.015205157 -0.026503975
000010 9e 57 16 bc 9f 8a d5 bc 2b 13 20 bd 67 65 91 3b
       -0.009176163 -0.026067076 -0.03908078 0.004437137
000020 eb 86 4f bc ae 73 0f bd 2d c2 bf 3c 99 88 a4 bb
       -0.012666444 -0.03502243 0.02340802 -0.0050211665
000030 d9 c9 46 bc 1b 74 7e bc 9f 75 f9 3c 73 37 c3 3c
       -0.012133085 -0.015530611 0.030451594 0.023830151
000040 0d c3 5f bc 8d 62 14 bc c6 51 59 3d 89 6a 82 bb
       -0.013657344 -0.009056699 0.0530565 -0.003979985
000050 d0 d4 31 3c 54 ea ce bc 89 b2 18 bc 48 c5 f6 3b
       0.010853961 -0.02525822 -0.00931991 0.007530842
000060 13 23 f3 bc 8e 18 2b bd 74 56 4d bc 14 d0 a9 b9
       -0.02967981 -0.041771464 -0.012532819 -0.00032389222
000070 a2 9f 94 bc 6c 92 c4 bd 56 9e e5 bd a8 39 33 37
       -0.018142525 -0.0959824 -0.11211841 1.0682656e-05
000080 d5 60 30 bd b7 66 1e bd 80 eb c9 3c 66 c9 53 bb
       -0.043061096 -0.038672175 0.024648428 -0.0032316088
000090 ab 48 37 3c a7 8f 97 bd 5e 5e 9b 3c 2f 43 57 3d
       0.011186759 -0.074004464 0.018965896 0.052554306
0000a0 cd 6a bd bc 07 78 e7 3c 19 eb a6 bc 06 12 0b bd
       -0.023122216 0.028255476 -0.020375775 -0.033952735
0000b0 17 7b 45 bd ba d5 71 bd 31 41 02 bd cd b3 38 3b
       -0.04821309 -0.059041716 -0.031800453 0.0028183341
0000c0 d9 bd ac 3c cc 61 9f bc 55 82 4b bc a6 76 35 bb
       0.02108662 -0.019455813 -0.01242121 -0.0027689128
0000d0 27 91 1e 3c 08 88 81 bd 33 4c e2 bb 88 46 49 bc
       0.009678162 -0.06324774 -0.0069060563 -0.012284882
0000e0 44 cc 53 bc 4c 97 3a 3c 25 9e 9a bc 20 4e 72 bd
       -0.012927119 0.011388611 -0.018874237 -0.059156537
0000f0 9a 47 94 3b ab d0 b0 39 f3 31 4d 3c a4 f1 16 3c
       0.004525137 0.00033724806 0.012524116 0.009212885
000100 ca 25 5f bc 87 ed 68 3c 9b b6 cb bc 2b 27 d0 bd
       -0.013619849 0.014216787 -0.024867347 -0.10163721
000110 6f d5 e7 bb 60 fe d5 bd c4 68 32 bc c6 fd 39 bc
       -0.007075004 -0.10448909 -0.010889236 -0.011352008
000120 99 0f cb bc 6a de 46 bd ee 3f ab bc b0 0a 9e 3c
       -0.024787711 -0.048551954 -0.020904507 0.019292206
000130 8e bf 9d bd ee 97 99 bc 46 92 a6 bc 0d 23 14 bd
       -0.07702552 -0.018749204 -0.02033342 -0.03616624
000140 2c 53 09 bb 9a ff 40 bd cb 91 e8 3b 38 f9 39 bc
       -0.0020954115 -0.04711876 0.007097458 -0.011350922
000150 52 43 9b 3c dd 30 3f bd f4 19 be bc bf 83 03 bc
       0.018953 -0.04667746 -0.023205735 -0.008027016
000160 5d 10 5c bb c1 02 4d bd a2 78 8a bc 2d 9a 05 bd
       -0.003357909 -0.050051454 -0.016903225 -0.032617737
000170 0e 30 13 3d c9 b9 69 bc ca f7 92 bd f4 d4 23 bd
       0.0359345 -0.014265486 -0.07176168 -0.03999801
000180 a6 66 58 bd e3 48 32 3a ac be 50 3c c7 f7 02 bd
       -0.05283227 0.0006801022 0.012740772 -0.03197458
000190 67 7e 17 3d 25 40 33 3d f5 77 86 3b e8 e2 12 bc
       0.03698578 0.043762345 0.0041036555 -0.0089652315
0001a0 18 84 37 bd 29 e1 0e 3c 7b ae 6c bc c9 8d 9b bd
       -0.04480371 0.008720675 -0.014445896 -0.07595403
0001b0 04 c5 cd bc 60 e2 84 3d 9f e6 13 3c 42 4e 70 bc
       -0.025118358 0.0648849 0.009027152 -0.014667096
0001c0 c9 0c b4 bc bd 25 e8 bc fd 42 21 bb 13 74 e9 3b
       -0.021978753 -0.028338308 -0.0024606579 0.007124433
0001d0 83 ff 6a 3c 48 53 92 3c b8 fa 10 3c 12 bd f4 3a
       0.014343145 0.017861977 0.0088488385 0.001867207
0001e0 10 c6 8b 3c 63 fe ab bc db 56 29 3d 5b a5 0b 3d
       0.017062217 -0.020995324 0.041342597 0.034093242
0001f0 b3 34 ae bc 6c 59 07 bd 97 4c b7 bc 0e 41 72 bc
       -0.021265363 -0.033044264 -0.022375388 -0.014786018
000200 f0 f5 8c 3c 03 9b 19 bc 08 6d c4 bb 45 68 34 3d
       0.017207116 -0.009375337 -0.005994443 0.04404475
000210 04 04 f8 3b dc 68 b8 3b f5 e3 4b bd 7c 1e 11 bd
       0.007568838 0.0056277346 -0.049777944 -0.035429463
000220 22 0d 7d bc ca 8b bf 3c d0 86 a4 3c 09 0a 62 bc
       -0.015445026 0.023382086 0.020083815 -0.013796338
000230 45 57 44 bc 1b 1a 87 3c 07 20 08 3c ec 38 de 3c
       -0.011983697 0.01649194 0.008308417 0.027126752
000240 18 60 e1 bb cc ed 94 bc d0 b7 9b 3c d0 65 5a 3a
       -0.0068779103 -0.018179797 0.019008547 0.0008331211
000250 52 76 1d bc ee 7c 0d 3d 84 c2 af 3c f6 56 47 3d
       -0.009610729 0.03454297 0.021455057 0.048666917
000260 95 22 e3 3c be 5c e1 3d 7f 98 20 bc 30 78 71 3c
       0.027726451 0.11004017 -0.009801983 0.014738128
000270 78 22 ea 3a 24 ff ba 3c 31 fd eb 3c 37 ee 48 bd
       0.0017863056 0.022826739 0.028807255 -0.049055304
000280 c8 3b 14 3c 4c 5a 31 3d 57 f7 cd 3c af b4 81 3c
       0.009047456 0.043299004 0.025142355 0.015833227
000290 8d cd 67 bc de a2 03 bd b1 71 16 bd 55 71 84 3c
       -0.014148128 -0.032137744 -0.03672952 0.016167322
0002a0 af 51 cf 3d f8 ee 5a 3c 35 77 9b bb 3a 44 30 3d
       0.10123002 0.013362639 -0.004744435 0.043033816
0002b0 2c 0f 8b bc 8d 02 a9 bc 76 0f c9 3d 4f 82 7b 3c
       -0.016975008 -0.0206311 0.09817402 0.015350892
0002c0 66 36 a4 bc 3e ea bd 3d 97 52 57 3d e9 80 e5 3d
       -0.02004547 0.09273194 0.052569 0.11206228
0002d0 19 41 80 3e 3f 2f a2 3d b0 df 05 3d 89 eb c7 3c
       0.25049666 0.07919168 0.03268403 0.024404304
0002e0 d0 c9 75 3c 2b 59 57 bc 88 d7 6a 3c fd ac ff 3d
       0.015001729 -0.013143818 0.014333613 0.12484167
0002f0 7b 82 02 3e f9 4a ed b8 96 38 07 bc 65 bb 7e bc
       0.12745087 -0.000113150054 -0.008253237 -0.015547608
000300 51 5a 49 3d 65 dc 4d 3d 32 3c 92 bc 84 aa 3b 3d
       0.049158398 0.050259013 -0.017850969 0.045816913
000310 0f 38 22 bc b9 ba 66 3d af 6a 1d bd 17 72 6a 3d
       -0.009901061 0.056330416 -0.03843182 0.05723771
000320 1a 68 a5 bc 81 22 1f 3d 3a b6 00 bd 72 f2 02 3d
       -0.020191241 0.038851265 -0.031423785 0.031969495
000330 1b 80 15 3d 13 7b 48 39 6b d2 0b bc 56 06 96 bc
       0.036499124 0.00019119335 -0.008534054 -0.018313568
000340 80 07 90 bc d1 43 2f 3e ad 4e a2 bb a8 72 4e 3c
       -0.017581701 0.17115714 -0.0049532265 0.012600578
000350 f9 d7 b7 3c b7 f2 e2 3b f7 78 1d bc 33 48 c7 3b
       0.022441851 0.0069259065 -0.00961136 0.006081605
000360 96 17 33 3d bf ed 10 3e 36 f4 85 3d 67 aa 59 3e
       0.043723665 0.14153193 0.0654072 0.2125641
000370 50 36 6f bb 76 8a 9f ba 29 34 d9 3c d0 2d 4f 3b
       -0.0036500879 -0.0012172002 0.02651413 0.0031613
000380 75 64 99 3d ac c9 2b 3c 21 66 6a 3c 35 d2 1b bc
       0.07489864 0.010485094 0.014306576 -0.0095105665
000390 95 8e 59 3d 8d 4d d3 bb 2f ca 00 3d 46 9a 48 3d
       0.053114492 -0.0064484538 0.031442817 0.04897525
0003a0 a2 01 c5 bc c4 3a 83 3d 84 cd d9 3c 0f 5a d3 bb
       -0.02404863 0.06407693 0.026587255 -0.006449945
0003b0 e0 2d 9a 3c 53 b3 17 bc 8f a3 b9 3c 15 d4 8a bc
       0.018820703 -0.009259063 0.022660999 -0.016946832
0003c0 0f 42 d4 3d 2c 0e 7b 3d f2 1f 62 3d f4 4e 74 3c
       0.10364162 0.061292812 0.055206247 0.014911402
0003d0 96 f2 dd 3d 27 fb 5d 3b 44 d7 19 3e ee cb d1 bc
       0.10837285 0.0033871622 0.15023524 -0.025609937
0003e0 a4 62 46 bc a7 a4 6f 3d 02 49 68 3d 80 da d1 3b
       -0.012108479 0.058506634 0.05671025 0.006404221
0003f0 1d 2b 3c bd d0 de 69 bc 90 e8 4c 3d cf 6e 00 bd
       -0.045939554 -0.014274314 0.050026476 -0.031355675

Fd1da27LSTM.bias_hh_l0 f4 [600]
000000 dc ed 93 bc 01 39 eb bb aa e0 2f bc 6f 8f 1d 3b
       -0.018057756 -0.0071784263 -0.010734716 0.0024041792
000010 25 84 2b bc 66 ce d6 bc cd 79 8f bc c6 c1 89 bb
       -0.010468517 -0.026221465 -0.017514134 -0.004204008
000020 ba 87 bb bc 99 bb 00 bd fe fc 58 3c 73 bc fc bb
       -0.022891868 -0.031428907 0.013243912 -0.0077128946
000030 16 02 c0 3c 77 65 79 bc f4 da dd 3c 5d 56 c2 3c
       0.023438495 -0.015221945 0.027081944 0.023722822
000040 1b 7f 76 bc 31 70 03 bc 95 92 6e 3d 8e 6b 96 3b
       -0.015044953 -0.008022354 0.05824526 0.0045904582
000050 3d 41 3f bd df 04 95 bd 78 0c 3f bc 29 e2 16 3c
       -0.046693075 -0.0727632 -0.011660688 0.009209194
000060 f8 47 70 bd ee 84 88 bc ba 08 61 3c 54 aa 37 3d
       -0.058662385 -0.016664948 0.013734991 0.044840172
000070 45 bd ec bc fa 6c 80 bd 36 49 27 be 63 3e c8 bb
       -0.028898844 -0.06270786 -0.16336522 -0.0061109527
000080 e2 ea ef bc 86 a9 0f bd 98 5e 21 3d cd 8a 80 ba
       -0.029286806 -0.03507378 0.039396852 -0.0009806991
000090 28 77 ab 3c 05 d4 d3 bd 12 a2 41 bd bb c2 54 3d
       0.020930842 -0.10343174 -0.047273703 0.051943522
0000a0 51 37 ba bc 0e 6b e7 3c 73 5f f6 bc ee 64 97 bc
       -0.022731455 0.02824929 -0.03007481 -0.018480744
0000b0 be 61 2b bd d6 64 65 bd 22 cf 2c bd 2c f3 a0 bb
       -0.04184126 -0.056004368 -0.042189725 -0.004911801
0000c0 37 55 26 3b 9b b8 c4 bb cd 27 17 bc 40 7f 1d bd
       0.0025380382 -0.006003452 -0.009225798 -0.038451433
0000d0 f7 9a 19 3c 22 a0 30 bd 01 60 02 bc 4d 40 9a bb
       0.009375325 -0.043121465 -0.007957459 -0.0047073723
0000e0 f6 01 6a bc a5 56 d5 bc fd e2 b6 bc ff 63 c3 bd
       -0.014282694 -0.026042292 -0.022325033 -0.09540557
0000f0 e2 bd b5 3b 0e a5 19 3b 8c 55 48 3c e5 5e 1a 3c
       0.0055463174 0.0023444328 0.012227427 0.009422039
000100 01 a8 25 bc 27 ac e9 3b ea f1 d0 bc 63 5b 13 bd
       -0.010110856 0.007131118 -0.025505979 -0.035975825
000110 d1 d0 0e bd 0d b9 7d bd f4 61 01 bc 18 32 29 bc
       -0.03486711 -0.061944056 -0.007896889 -0.010326885
000120 4e 31 bb bc c2 df 19 bb 69 f5 cb 3c 6e 23 92 3c
       -0.022850659 -0.0023479317 0.024897294 0.01783916
000130 32 2e a2 bd 2b be 03 bc 2b e4 66 bc 33 a2 bc bc
       -0.07918967 -0.008040945 -0.014092485 -0.023026561
000140 42 44 6a 3b ef 64 b4 bc 61 58 13 3c 54 65 55 bc
       0.0035746251 -0.022020785 0.008993239 -0.013024647
000150 2e 29 09 3d 85 18 dd bc f5 e0 b3 3b 84 40 bb bb
       0.033486538 -0.02698923 0.0054894635 -0.005714478
000160 e5 7d 83 bb ee 91 0b bd 1a db 82 bd 61 2a 90 bc
       -0.0040128105 -0.034074716 -0.063894466 -0.017598333
000170 f4 65 90 3c 21 45 20 bc ce 17 8c bd 76 ef 4a bd
       0.01762674 -0.009782107 -0.06840478 -0.049544774
000180 a8 9e a7 bd ad a4 5c bb c0 37 71 3c 45 8b 2b bd
       -0.08184558 -0.003366749 0.0147227645 -0.041880865
000190 6e 74 27 3d d8 6c 30 3d 70 22 76 3c 4c 43 c1 3b
       0.04088252 0.04307255 0.015022859 0.005897915
0001a0 46 1c b8 bc f0 9e 57 3c 21 bf fe bb 66 e3 0c bd
       -0.02247442 0.013160452 -0.007774249 -0.03439655
0001b0 77 9f db bc ff ad 6e 3d 51 76 04 3b 68 56 0e bd
       -0.026809437 0.058271404 0.0020212124 -0.034750372
0001c0 ce 10 82 bc 56 8e fb bc 31 32 8b bb 2a c3 98 3c
       -0.015877154 -0.03070752 -0.0042479266 0.018647749
0001d0 d4 ca 31 3c bc f1 af 3b ba a2 ca 3a 32 a4 0e bc
       0.010851581 0.005369393 0.0015459873 -0.008706139
0001e0 03 32 3e 3c c6 d4 06 bc de da f7 3c 27 db 30 bc
       0.011608603 -0.00822944 0.030255731 -0.0107944375
0001f0 d9 04 58 bd 3a bb 64 bc d3 58 28 bd 4a 2b d3 b8
       -0.052738998 -0.013960654 -0.041100334 -0.00010069327
000200 da e6 cc bb d0 e4 e9 bc f1 f6 de bc 97 7d 84 3c
       -0.0062531056 -0.02855149 -0.02721736 0.016173167
000210 e9 57 3f bc 1c 86 a8 bc 0a 67 11 bd 6e 48 49 bd
       -0.011678674 -0.02057176 -0.035498656 -0.04914134
000220 32 55 eb bb 02 3f d9 3c 89 f4 f1 3c 74 57 7c bc
       -0.007181787 0.026519302 0.029535549 -0.01540171
000230 6a 83 48 bc 70 7c 5e 3c 0c 31 ed 3b 8a c7 8d bc
       -0.012238363 0.013579473 0.007238513 -0.017307062
000240 45 62 36 bc 45 99 39 bc 77 bd 36 3c 1e a3 32 39
       -0.011131828 -0.011328046 0.01115357 0.00017036169
000250 2b 52 ab 39 06 a7 12 3d 63 68 4c 3c fb 83 42 3c
       0.00032676882 0.035803817 0.01247606 0.011872287
000260 cc 6b bd 39 98 77 00 3e df 13 70 bb 3d 57 a5 3c
       0.00036129204 0.12545621 -0.0036632938 0.0201832
000270 e1 86 17 3c 04 dd 13 3c 9d b8 f5 3c 4b 08 61 bc
       0.009248466 0.009024862 0.029995257 -0.013734887
000280 d0 41 a7 bb 20 32 4a 3d 4d b0 b3 bc 63 63 89 bb
       -0.005104281 0.04936421 -0.021934653 -0.004192756
000290 0d b8 29 bc 93 31 05 bd 46 16 02 bd eb 16 83 3b
       -0.0103588225 -0.03251798 -0.031759523 0.004000535
0002a0 df 65 7a 3d cb 5e 8f 3c bc 45 7f bc 38 3f b0 3d
       0.061132308 0.017501255 -0.015580591 0.08605808
0002b0 1e 0d c9 bb 99 06 96 bb 0d 98 85 3d 8b c5 02 3d
       -0.006135597 -0.004578423 0.06523142 0.031926673
0002c0 bd 6e 0f bd 82 3f db 3d ae 4f 03 3d 2e e1 0d 3e
       -0.035017718 0.107054725 0.03205841 0.1385543
0002d0 18 31 42 3e 76 94 6f 3d 77 db 71 3b dd c6 21 3d
       0.1896404 0.058491193 0.0036904493 0.03949629
0002e0 1d ea 4b 3d db a8 06 bc bf 9a 63 3c e8 76 92 3d
       0.049783815 -0.008218969 0.013891875 0.07151586
0002f0 58 45 09 3e 2c 5f 64 3a b0 65 3f bc 2c 6b 43 bc
       0.13405359 0.00087116915 -0.011681959 -0.011927407
000300 87 f3 d3 3c 0b ef e2 3d 73 98 64 3b 2f 04 4a 3c
       0.025872959 0.1108075 0.0034880906 0.012330099
000310 eb 9d 9c 3c c8 8d 86 3d f6 9e 11 bd 56 c9 69 3d
       0.01911827 0.065700114 -0.035551988 0.057076775
000320 ac 47 01 bd fc 8f 80 3d 1c 09 05 bd 31 2c aa bc
       -0.031562492 0.06277463 -0.03247939 -0.020773025
000330 12 1e 3e 3d 26 91 51 bb 78 8e 09 ba c8 6e 30 3b
       0.046415396 -0.0031977384 -0.0005247365 0.00269215
000340 ec d0 67 bc 42 80 fe 3d 0c 14 0a bc b7 34 9f 3c
       -0.014148932 0.12426807 -0.008427631 0.019434316
000350 f4 6b 84 3c 34 87 ee 3b 83 b4 8f 3b 10 48 e4 3b
       0.016164757 0.007279301 0.0043855323 0.0069665983
000360 2d 8b 2e 3c 8b f2 19 3e cf 19 ba 3d 72 2b 0d 3e
       0.010653299 0.15033929 0.09086954 0.13786104
000370 7c 3c 2c bb 1a 3f b6 bb 52 88 ad bb e8 ec a8 bc
       -0.0026281169 -0.0055617215 -0.0052957917 -0.020620778
000380 1f 6f 99 3d 02 41 bb 3b 9a f0 d0 bb c5 a0 91 3c
       0.07491898 0.0057145366 -0.006376338 0.017776856
000390 ff 4f 77 3d 11 79 51 3c fa dd d1 3c 1c 35 9c 3d
       0.060379025 0.012785212 0.025618542 0.07627317
0003a0 39 2e c1 bc 95 de 78 3d b5 b5 07 3c e3 28 06 3c
       -0.023581611 0.060759146 0.008283068 0.008188459
0003b0 c0 bc 2e 3d 5f e0 34 bc 35 65 01 3d 66 b6 0f 3c
       0.042660475 -0.011039822 0.03159066 0.0087715145
0003c0 85 ac b4 3d 40 e7 85 3d b5 ce 5e 3d ce 59 48 3c
       0.08821968 0.06538248 0.05439635 0.012228442
0003d0 f2 48 48 3d 34 82 c3 3c 29 d3 82 3d d3 0f 00 bd
       0.04889769 0.023865797 0.06387932 -0.03126509
0003e0 29 cc b1 bc 9c b4 34 3d 9c 48 df 3c ea e0 27 3d
       -0.021703796 0.044117555 0.027256303 0.04098598
0003f0 eb 9e 37 bd 66 63 98 bc 45 93 53 ba 1b 58 d6 bc
       -0.04482929 -0.018602084 -0.0008070956 -0.026165059

ClassificationFd1da27.0.weight f4 [150]
000000 21 97 88 3f 28 00 74 3f 8c 53 9d 3f 5d e9 64 3f
       1.0671121 0.9531274 1.2291121 0.89418584
000010 92 4f 4a 3f eb 85 8b 3f 0f 5c 93 3f fb 68 8f 3f
       0.79027665 1.0900244 1.1512469 1.1203912
000020 b8 60 93 3f d0 0c 89 3f 58 73 89 3f b7 fd 0a 3f
       1.1513891 1.0707035 1.0738325 0.5429339
000030 b6 c6 39 3f 99 55 8f 3f 0b 9c 9d 3f a4 16 95 3f
       0.72568834 1.1197997 1.2313246 1.1647534
000040 a0 57 99 3f b5 91 91 3f ea 52 63 3f e9 5b 6a 3f
       1.1979866 1.1372591 0.8879839 0.91546494
000050 ac ca 85 3f a7 3f 85 3f e2 a4 92 3f 00 90 9f 3f
       1.0452476 1.041005 1.1456568 1.246582
000060 85 2a 8c 3f 4c d9 94 3f 0b 20 a8 3f 63 63 10 3f
       1.0950476 1.1628814 1.3134779 0.5640165
000070 0a 7d 97 3f 8d 8b 5f 3f ea 74 8d 3f 78 1c 9b 3f
       1.1835034 0.8732231 1.1051304 1.2118063
000080 e2 3b 8f 3f 41 ae 91 3f cb ed 92 3f 0b bd 97 3f
       1.119015 1.1381303 1.1478819 1.1854566
000090 d6 17 90 3f a6 88 6d 3f 30 24 00 3f a5 6e 90 3f
       1.1257274 0.92786634 0.5005522 1.1283766
0000a0 3c e1 8c 3f 53 24 90 3f 89 f2 99 3f 2b 9c 8c 3f
       1.1006236 1.1261085 1.2027141 1.0985159
0000b0 3b df 8e 3f bf 55 9a 3f c0 98 13 3f 1a 63 9d 3f
       1.1161875 1.2057418 0.57654953 1.2295868
0000c0 10 1d 92 3f 50 b7 8a 3f ba 32 99 3f 4a 3d 88 3f
       1.1415119 1.0837193 1.1968606 1.0643704
0000d0 80 ef 97 3f 6f cd 89 3f 42 87 75 3f 70 df 88 3f
       1.1869965 1.0765818 0.9590951 1.0693188
0000e0 b7 b4 8c 3f 83 ff 7c 3f 38 47 78 3f 64 ec 95 3f
       1.099265 0.9882738 0.9698367 1.1712766
0000f0 10 c8 92 3f 77 c1 93 3f 4e 08 8a 3f 21 40 68 3f
       1.1467304 1.1543416 1.0783784 0.9072285
000100 37 6d 95 3f a6 4c 84 3f 5b f4 98 3f c0 5d 8f 3f
       1.1673955 1.0335891 1.1949571 1.1200485
000110 83 0d 80 3f d3 18 4b 3f a0 ce 80 3f 61 34 a2 3f
       1.0004123 0.79334754 1.0063057 1.2672235
000120 02 76 6f 3f a0 27 77 3f f4 a6 8e 3f f0 a1 94 3f
       0.9353944 0.9654484 1.11447 1.1611919
000130 6a b9 8a 3f 94 ef 9d 3f 12 2a 82 3f d5 9b 96 3f
       1.0837834 1.2338738 1.0169089 1.1766306
000140 4f e6 86 3f 62 ce 7d 3f 12 86 8a 3f 2d a6 9f 3f
       1.0539035 0.9914304 1.0822165 1.2472588
000150 1d 83 c0 3e 08 52 7d 3f 70 01 9a 3f 6e b3 90 3f
       0.37600031 0.98953295 1.2031689 1.1304758
000160 c3 78 92 3f 1b 0c 8e 3f 79 49 84 3f 2f fb b9 3e
       1.1443104 1.1097444 1.0334922 0.3632445
000170 d3 28 79 3f 39 8a 57 3f 94 86 8e 3f b3 d3 8b 3f
       0.9732792 0.84195286 1.113482 1.092398
000180 c9 f1 4b 3f 20 b6 99 3f 8c ea 9c 3f a5 ec 8c 3f
       0.7966581 1.2008705 1.2259078 1.1009718
000190 9b 72 95 3f 43 9b 9f 3f 2f ac a4 3f c4 c5 7b 3f
       1.16756 1.2469257 1.2865046 0.9834864
0001a0 fd b8 8b 3f c5 b4 42 3f 97 71 93 3f 9f c0 3e 3f
       1.0915829 0.7605708 1.151904 0.74512666
0001b0 5e 24 99 3f b0 65 a3 3f 99 bb 9c 3f 5f 57 83 3f
       1.1964223 1.2765408 1.224475 1.0261039
0001c0 88 f3 a3 3f 53 74 db 3e c8 39 8a 3f 08 65 6c 3f
       1.2808695 0.42862186 1.0798883 0.9234166
0001d0 97 40 90 3f 6f 28 9a 3f 94 34 9e 3f 68 1a 70 3e
       1.1269711 1.2043589 1.2359796 0.23447573
0001e0 81 95 92 3f 1b db 88 3f b8 8f 8e 3f 11 b2 7a 3f
       1.1451875 1.0691866 1.113761 0.9792796
0001f0 25 2d 92 3f 82 b2 80 3f 40 89 8e 3f ba 1d 8d 3f
       1.1420027 1.0054476 1.1135635 1.1024697
000200 59 c7 97 3f f7 0e 86 3f ed f8 12 3f ee a1 97 3f
       1.1857711 1.0473317 0.5741108 1.1846292
000210 72 bb 8d 3f 75 b8 94 3f 77 09 7f 3f b2 67 91 3f
       1.1072829 1.1618792 0.9962382 1.135977
000220 76 47 81 3f 54 64 97 3f 66 7c 98 3f fa cd 81 3f
       1.0099933 1.1827493 1.1912963 1.0140984
000230 9b ab 8f 3f 9a 3d 99 3f 9d 9e 9b 3f 5a 35 29 3f
       1.1224245 1.1971924 1.215778 0.66097033
000240 69 e5 1c 3f 22 16 32 3f b4 80 8f 3f d0 ba a4 3f
       0.6128755 0.6956502 1.1211152 1.2869511
000250 73 9f 8a 3f a8 54 a4 3f
       1.082991 1.2838335

ClassificationFd1da27.0.bias f4 [150]
000000 12 5c ee 3b 8a 82 57 bc 47 8d cb bc b8 ac ca 3c
       0.007274159 -0.0131536815 -0.02484764 0.024740562
000010 fb 7c 62 bc fd 29 89 bb 9a 09 bf 3b 60 38 25 bc
       -0.013823743 -0.0041859136 0.005830002 -0.010084242
000020 aa 14 73 3d 13 da a9 3c ae d1 2a 3d 52 c8 f0 b9
       0.05934588 0.020733869 0.041703872 -0.00045925617
000030 15 56 3f bc 66 82 b6 3c ab 35 e0 3d a9 9c f3 3c
       -0.011678238 0.022278976 0.10947736 0.029737787
000040 1b c8 73 3d a1 7b 54 bc ee e9 3b 3c d8 0c de 3b
       0.059517007 -0.012968929 0.011469347 0.0067764334
000050 e9 f4 ef 3c 65 2d 38 bb b1 3c 94 bd c0 1b 2e 3d
       0.029291587 -0.002810323 -0.072381385 0.042506933
000060 6f 92 81 3d 35 a5 8e ba 3c db 4e 3d 73 9c 34 bb
       0.06326758 -0.0010882976 0.050502047 -0.0027559071
000070 d4 73 4c 3d d6 39 c5 3c 55 65 97 3d 86 2b d7 bc
       0.04991515 0.02407543 0.073923744 -0.02626587
000080 3e 22 d5 3c 85 ff 5e bc 3f 2c e4 3c 50 3b 89 3c
       0.026017305 -0.013610725 0.02785313 0.016751915
000090 06 42 15 3d 36 fc 23 bb 9b 1f 3a 3b 41 e0 41 3c
       0.036439918 -0.0025022156 0.0028400186 0.011833251
0000a0 04 bf 16 bd 66 b5 6d bc 8c 55 c5 3c 21 50 4d 3d
       -0.03680326 -0.014508581 0.024088643 0.050125245
0000b0 ee ae 2d 3d 50 ac 09 3c f6 34 f5 bb b8 c4 31 bb
       0.042403154 0.008402899 -0.00748312 -0.002712531
0000c0 c7 2c c4 3c 1f 59 4e 3d e3 34 19 bc 47 91 57 3d
       0.023947133 0.05037796 -0.009350988 0.05262878
0000d0 89 8a 21 3b f2 31 98 3c 27 7f 2f 3d 17 33 7b 3c
       0.0024649224 0.018578503 0.04284587 0.015332005
0000e0 a3 23 8f 3d a7 20 46 bc dd 51 0d bd 8e a4 1e 3d
       0.06989219 -0.012092746 -0.0345019 0.03873115
0000f0 b0 85 15 3c 0d ca 4f bb 30 d9 07 3c 8a cc 2e 3d
       0.009126112 -0.0031706125 0.008291528 0.042675532
000100 d6 45 4e 3d 12 d3 35 3d 11 53 81 3b 37 06 2f 3d
       0.05035957 0.044390745 0.00394667 0.042730536
000110 ee eb f2 bc c7 f4 72 bc cc d5 82 bb e2 66 8f bc
       -0.029653516 -0.014828867 -0.0039927717 -0.017505113
000120 f2 f1 0a 3d 7e c5 30 3b cb 67 35 bc e0 9c 21 bc
       0.033922143 0.0026973183 -0.011072109 -0.009864062
000130 86 7e 89 3d 55 e0 a4 3c c1 2f 49 3c 22 06 c1 3c
       0.067135856 0.020126501 0.012279452 0.023562495
000140 4d c4 d4 bc 16 ae 58 bc 5e 28 4f 3d f1 52 60 3d
       -0.02597251 -0.013225099 0.050575607 0.0547666
000150 8a 74 8e bb f8 d7 f0 ba c9 ce 38 3d 40 38 71 bd
       -0.0043473886 -0.001837491 0.04511908 -0.058891535
000160 02 4d d5 3b ac 7c ed bb 21 ba d2 3c 6c ec 70 bc
       0.006509424 -0.007247528 0.025723519 -0.014704805
000170 88 df cb bb 9d 2d aa bc 93 2d 81 3c f2 7d 39 3d
       -0.0062217154 -0.020773703 0.015768802 0.045286126
000180 b9 41 a6 3c b0 77 01 3d f9 0a 3f 3d c7 7e 1a 3c
       0.02029501 0.031608284 0.046641324 0.00942964
000190 dc 32 8e bc 92 ad 87 3d c4 ac 56 3d ef 2a a8 3b
       -0.017358236 0.06624903 0.052410856 0.005132071
0001a0 c8 67 07 3d 96 49 9d 3b 07 f1 e6 bc ce e3 db 3c
       0.033057958 0.004800032 -0.028191103 0.026842024
0001b0 03 5b 15 3d ea 7d af 3c 15 0c c5 bc d6 6f b4 bc
       0.03646375 0.021422345 -0.024053613 -0.022025984
0001c0 9d 47 63 3a 8b 52 73 bb 8e cf a6 3d 6c 10 05 bd
       0.0008670034 -0.0037128057 0.08145057 -0.032486364
0001d0 b1 ec 04 3d ff 13 2c 3c 49 27 64 3d 0b 8d ce 3a
       0.03245229 0.010502814 0.055701528 0.0015758587
0001e0 49 9a 47 3d a0 96 a0 3c 5b 01 73 3b c5 42 a3 3b
       0.048731122 0.019603074 0.0037079665 0.004982325
0001f0 f6 0b 1f 3c 47 b3 70 3c e2 93 66 3c b7 42 70 3b
       0.009707442 0.014691181 0.014073344 0.003666086
000200 18 e5 34 3d 99 67 0c 3b 42 c4 36 bb 14 cb cf 3c
       0.044163793 0.0021424054 -0.0027887975 0.02536539
000210 87 c1 60 bc 03 d2 98 3d c0 87 9a bc 33 30 1f 3d
       -0.0137180155 0.074619316 -0.018863559 0.038864326
000220 ec c0 57 bb b7 9a be 3c 31 0c 29 3d ee a0 82 3c
       -0.0032921387 0.023267133 0.041271392 0.015945878
000230 4d fa 20 bc 77 43 27 3c 29 09 14 3d 54 4e df bc
       -0.009825301 0.010208956 0.03614155 -0.02725903
000240 e4 e2 ca b9 e4 3f 2c 3b 22 8b 90 3c 70 52 37 3d
       -0.0003869749 0.00262832 0.017644469 0.044756353
000250 a1 03 a0 3c bc cc 2c bc
       0.01953298 -0.010546859

ClassificationFd1da27.0.running_mean f4 [150]
000000 fb 32 a3 bb 29 5a 96 bd 26 9a d3 3d b4 f1 3a bd
       -0.0049804426 -0.073414154 0.10332136 -0.045640662
000010 24 37 de bc 64 6c 24 bd bb 31 1a 3e f6 25 be bb
       -0.027125902 -0.04014243 0.15058033 -0.005802865
000020 dd 7c c1 bd 7e e5 89 3d 37 1c 54 bc b0 48 48 bc
       -0.09447644 0.06733225 -0.01294618 -0.012224361
000030 91 cc 72 bd b9 9f 87 3d d8 da 77 3b a2 68 bb 3d
       -0.05927712 0.066222616 0.003781965 0.091508165
000040 e7 a8 b0 3d b1 45 89 bc bb 7b 59 be 71 17 41 bd
       0.086259656 -0.016756864 -0.21238606 -0.047141496
000050 ac 1e 4a 3e d0 d4 5d 3e e3 c3 1b 3d b9 e8 d0 ba
       0.19738263 0.21663213 0.03802861 -0.0015938497
000060 63 25 96 3d d5 48 03 be ed d2 f9 ba ed cc 92 be
       0.0733135 -0.12820752 -0.0019060053 -0.2867197
000070 07 be c2 bb dc a1 be 3d b3 3d 99 bd 3d 13 7f 3d
       -0.005943063 0.09308216 -0.07482471 0.062274206
000080 a4 03 86 3d 6c 80 b7 3b 8a c2 e8 3d 83 b8 bb 3b
       0.06543663 0.005600026 0.113652304 0.0057287826
000090 bc 9e a5 3c 85 bc 74 3e 75 8a a2 bd 7e bc 70 bc
       0.020217292 0.2390004 -0.07936565 -0.014693378
0000a0 46 83 e6 3c d1 99 f6 3c 77 33 53 3d 89 49 95 be
       0.028138768 0.030102642 0.051562753 -0.29157665
0000b0 1b 0f 2d bd cf 12 47 3e 81 40 89 bd 65 4a c1 bc
       -0.042250734 0.19440769 -0.06701756 -0.023595044
0000c0 8d d0 4d 3d 2f 79 c1 bd ef 8f f3 bc 88 e4 a1 bd
       0.050247718 -0.09446942 -0.029731719 -0.07904917
0000d0 0c 29 82 bc 1b 7a 8f 3d ed ed a5 bd bf a8 7a bd
       -0.015888713 0.07005712 -0.08102021 -0.061196085
0000e0 55 25 f3 3c 46 58 fa bd 38 8a 77 3d d1 55 3b bc
       0.029680887 -0.12223868 0.06043455 -0.011434034
0000f0 37 98 d8 3c 48 b8 d6 bc b1 9f 79 bd 2e 1c f9 bb
       0.02643977 -0.026210919 -0.06094331 -0.0076022362
000100 37 e9 8b 3c 1e e8 55 bd 4f f7 29 bd 2c e8 5a ba
       0.017078979 -0.052223317 -0.041495617 -0.00083506363
000110 f3 11 7a 3e 99 e9 db 3e 54 94 c1 bb ca b8 8b 3d
       0.2442091 0.42951658 -0.0059075747 0.06822355
000120 fd 01 9d 3c 97 95 fb 3d 28 2d 4c bd 3a 45 00 3c
       0.019165987 0.122843914 -0.04984775 0.007829005
000130 c3 bf 59 3d 9f d3 25 3d d5 79 0b bc e3 23 5f bd
       0.053161394 0.04048502 -0.008512934 -0.054477584
000140 72 90 39 bd 03 2c 35 bd 1a f3 e8 3b 88 62 96 3d
       -0.04530377 -0.044231426 0.007109058 0.07343012
000150 2e cd b6 bc 0e a0 54 bc 3e 22 a8 3d 72 81 c7 bd
       -0.022314634 -0.012977613 0.08209656 -0.097414866
000160 61 3a a3 bc 36 f2 4d 3d 5d 7f ec 3d a7 32 c0 bc
       -0.019925298 0.05027982 0.1154773 -0.023461653
000170 51 7e d0 3a dc c4 2e bc 91 af 49 3c 74 0e a4 bd
       0.0015906786 -0.010667052 0.012309925 -0.08010569
000180 4f b9 f3 be 03 47 6d 3c 9d f1 80 bd 50 1d 5d 3b
       -0.47602317 0.014482263 -0.06296084 0.0033739395
000190 04 43 c9 3d b4 ed 7d bd e2 b5 df bd eb 47 70 bd
       0.09827235 -0.06199427 -0.10923363 -0.058662336
0001a0 f9 a9 2e 3e 3a 01 08 bd 41 9b ee 3b ac 7d ed bc
       0.17057027 -0.033204295 0.0072816913 -0.02899059
0001b0 6f 05 26 bc d6 01 1b 3e 5d 5d 03 bd f0 77 ef 3c
       -0.010133131 0.15137419 -0.03207146 0.029231995
0001c0 ec 05 25 3d c2 ba 87 bd f9 bc 98 bc 5a 78 40 3d
       0.04028885 -0.06627418 -0.018644797 0.046989776
0001d0 6d d9 2c 3c 12 f5 a9 bc 75 de 4a 3e cb 8a a0 bd
       0.010549885 -0.020746741 0.19811423 -0.07838973
0001e0 48 e6 af bb f3 93 4c 3d ca 71 ff bd 35 4a 57 3e
       -0.005368028 0.049945783 -0.124728754 0.21024401
0001f0 74 52 13 bd a2 55 31 3e 2c 37 42 3d bb 8a 80 3c
       -0.035967305 0.17317823 0.047415897 0.015691152
000200 ae 22 e2 3d 54 cf 15 be 52 b9 c3 bd 8c c5 b5 bd
       0.11041771 -0.1462987 -0.095568314 -0.0887557
000210 7e 55 63 3d ef dd 7a 3d 55 77 2f 3d 50 84 e8 3c
       0.055501454 0.06124681 0.042838413 0.028383404
000220 a5 b2 20 be 5d 85 c5 3d 9f 4b d9 bc 7a 30 d0 3c
       -0.15693147 0.09644578 -0.026525317 0.02541374
000230 06 18 71 3c 51 d7 41 bc b5 e4 9c 3c 4e 01 20 bf
       0.0147152 -0.011831121 0.019152025 -0.6250199
000240 5f fa 4c 3d 6b 3f df bc 11 5f 3b bc bf c9 3e bb
       0.05004346 -0.02725192 -0.01143624 -0.002911195
000250 63 34 cd 3d e0 8a 00 3b
       0.100197576 0.0019614026

ClassificationFd1da27.0.running_var f4 [150]
000000 0e 02 0d 3a b4 f3 83 3a 96 31 94 3b 96 54 08 3a
       0.00053790293 0.0010067136 0.0045225127 0.00052005926
000010 1a 95 25 39 73 e6 08 3a 65 08 80 3a 14 dd b1 3a
       0.00015791171 0.0005222328 0.0009768127 0.0013569915
000020 bb f9 fe 3a 17 61 91 3a 46 68 6a 3a 62 0a ea 3a
       0.0019453088 0.0011091557 0.00089419296 0.0017855878
000030 3c 10 37 3b b1 a6 d2 3b e0 72 fa 3a 9f ab 69 3b
       0.002793326 0.0064285626 0.0019107722 0.0035655273
000040 17 8a 13 3a 11 e3 86 3a 99 e6 e5 3c 78 ed 04 3a
       0.0005628182 0.001029106 0.02806406 0.0005070786
000050 09 c0 23 3b 19 fb 15 3b 3b 71 5c 3a 8e 02 cc 3a
       0.0024986288 0.0022885262 0.00084092066 0.0015564726
000060 3b 2a 59 3b 5f e9 6d 3a a0 33 36 3a b5 ec 04 3a
       0.0033136744 0.00090756075 0.0006950442 0.00050706725
000070 d3 f9 9f 3b c8 63 48 3c b0 00 01 3d aa a6 77 3b
       0.0048820763 0.012230821 0.031494796 0.0037788549
000080 89 b9 30 3a 64 fc cb 39 2d 8d 6f 3c fd a9 90 3a
       0.0006741514 0.00038907223 0.014621061 0.0011036989
000090 76 2c ca 3b 7c 86 6c 3b f4 c7 26 3c 23 af 0e 3b
       0.006169851 0.00360909 0.0101795085 0.002177187
0000a0 b8 80 24 3a 48 ea f5 3a 85 53 d8 3a f2 7b 9a 3b
       0.0006275284 0.0018761838 0.0016504383 0.0047144825
0000b0 7d 86 95 39 23 ab 02 3b 69 40 ba 3a 3d db 47 3a
       0.00028519696 0.0019938431 0.001420987 0.00076239166
0000c0 b6 8a 8c 3a 7d c0 1b 3b ec f4 9a 39 7e d1 31 3b
       0.0010722491 0.0023765855 0.0002955565 0.0027132924
0000d0 2c 6c cf 39 e8 79 8c 3a 43 55 36 3b 82 99 c5 3a
       0.0003956271 0.0010717483 0.0027821816 0.0015075656
0000e0 80 dd a8 39 1c 6f 11 3a f5 a2 ee 3a c0 e9 77 3b
       0.00032208487 0.00055478676 0.0018206524 0.0037828535
0000f0 1d 33 75 3a 9a a2 da 3a 9d 7f 2b 3a 24 1e c5 3a
       0.0009353625 0.0016680539 0.0006542148 0.001503889
000100 f8 de 17 3a 02 70 33 3a 47 93 6a 3a 2b d9 f6 3b
       0.0005793418 0.00068449986 0.00089483376 0.0075332127
000110 dc 36 28 3b e5 0c 3c 3c 0e 97 eb 39 36 d2 68 3b
       0.0025667464 0.011477684 0.00044935237 0.0035525686
000120 b4 3f 80 3a 32 0b 2e 3a 15 68 bb 3b b4 51 aa 3b
       0.000978461 0.00066392415 0.0057191947 0.005197728
000130 54 d8 10 3a 34 c9 23 3b 68 20 5d 3a a4 65 78 3a
       0.00055253995 0.0024991753 0.000843531 0.0009475595
000140 05 fb 89 3b 79 08 ed 3b 53 24 4b 3a 32 fa 71 3b
       0.004210832 0.007233676 0.0007749248 0.003692281
000150 d0 fb 7a 3b 97 f2 66 3a 64 4f 0a 3a 8a 3a 63 3a
       0.0038297065 0.00088099524 0.00052761124 0.0008668086
000160 62 a7 b7 3a 8e c8 73 3a 91 29 fe 3b 2b 85 fa 3a
       0.0014011676 0.00092995993 0.00775642 0.0019113173
000170 86 84 2f 3c 9d e5 27 3a b5 c2 29 3b 01 ab 7f 3a
       0.010712748 0.00064047595 0.0025903408 0.00097529596
000180 29 f5 b6 3b 03 da 5f 3a cf e0 cb 3a 94 05 3c 3a
       0.0055834246 0.0008539261 0.0015554669 0.0007172462
000190 a4 98 33 3b a3 85 a1 3b e5 b4 df 3a d6 02 04 3b
       0.0027404213 0.004929261 0.001706746 0.0020143292
0001a0 eb 71 c6 3a 56 6a 33 3b 31 bd e8 39 35 e0 cb 3a
       0.0015140151 0.0027376614 0.00044391447 0.001555449
0001b0 1b bc 2b 3a d9 e4 6a 3b da 9f f5 3a 0f 53 84 3a
       0.0006551162 0.003584197 0.0018739656 0.0010095554
0001c0 e8 6a d7 3a 4b 8e 59 3a 35 17 32 3a a4 db 13 3d
       0.0016435059 0.00082990964 0.0006793619 0.036098137
0001d0 55 94 60 3b 11 11 64 3b b4 02 a1 3b 10 20 cd 39
       0.00342681 0.0034800211 0.0049136523 0.00039124535
0001e0 52 42 b4 3a 67 f3 12 3a 7a 23 5d 3c 98 27 9a 3b
       0.0013752675 0.0005605728 0.013497228 0.004704427
0001f0 26 e8 af 3b 6c f1 c7 3a 63 4a 7b 3b 50 a3 7c 3a
       0.0053682504 0.0015254444 0.0038343898 0.00096373726
000200 ad 64 d5 3a e4 52 1d 3a a9 65 81 3c 92 d5 9f 3b
       0.0016280614 0.00060014264 0.015795546 0.0048777545
000210 4b ce 4e 3b 14 1c 6c 3a 21 a1 16 3b 1a 41 1e 3a
       0.0031556066 0.00090068695 0.0022984224 0.00060369226
000220 99 9b e7 3b b8 c2 a5 3a f8 1b 32 3b b7 bd 8e 3a
       0.0070681092 0.0012646532 0.0027177315 0.001089028
000230 0c 0e 2d 3a ce 1d 85 3a 74 fb 3f 3a 61 c9 58 3b
       0.00066015194 0.0010155977 0.0007323541 0.0033079016
000240 fb bb 82 39 da cb 52 3b 15 09 06 3b e9 f3 99 3a
       0.0002493559 0.0032164962 0.002045219 0.0011745665
000250 ec 89 80 3a 07 e6 6e 3a
       0.0009806729 0.0009113256

ClassificationCat.0.weight f4 [1, 150]
000000 eb 24 2d 3e 7b 18 ae 3d 18 9b 86 be b6 da 5b 3d
       0.16908614 0.08500763 -0.26290202 0.053675376
000010 b3 82 9e bd bd 8c 33 be 3e bd 56 3e b8 2f 3e be
       -0.07739773 -0.17534156 0.20970628 -0.18572891
000020 e1 2b 70 3e db 0c 2d 3e ba 4a 34 3e a1 2d cf bc
       0.23454238 0.16899435 0.17606631 -0.025290312
000030 63 a3 e2 3c c0 fd 39 3e ed d0 92 3e d7 35 56 3e
       0.0276658 0.18163204 0.28675023 0.20918976
000040 32 69 84 3e eb 9d 51 3e 3d ff 42 3d 50 67 e7 3d
       0.25861508 0.20470397 0.047606695 0.11299002
000050 db 12 21 3e c3 29 16 3e e9 e1 6d be 1a 61 87 3e
       0.15729849 0.14664368 -0.23230709 0.2644127
000060 3d 87 34 3e 86 e3 80 be 5b a6 ac be d6 8d 30 3d
       0.17629714 -0.25173587 -0.3372067 0.043104015
000070 a3 78 76 be e2 fc 86 3d de 4c 35 3e 8e 43 8a be
       -0.24069457 0.06591202 0.17705104 -0.27004665
000080 c5 82 48 3e d2 6b 3a be f4 80 58 be 3c c3 54 be
       0.19581135 -0.18205193 -0.21142942 -0.20777601
000090 92 05 3b 3e d0 f6 d2 3d 8d a8 90 3c 21 86 52 3e
       0.18263844 0.10300982 0.017658496 0.20558979
0000a0 3f c4 31 be 8c be 4b 3e f3 e3 7b 3e 60 11 41 be
       -0.17360018 0.19896907 0.24598674 -0.18854284
0000b0 ed 1d 40 be 12 b9 82 be 34 e4 9e 3b 4e 66 93 be
       -0.18761416 -0.25531822 0.0048489813 -0.2878899
0000c0 60 5a 5b 3e 5b f2 33 3e be 02 61 be bd 75 1b 3e
       0.21421194 0.1757292 -0.21973702 0.15181632
0000d0 74 cc 72 3e e7 2b 38 3e e9 31 cb 3d fc 7e 2d 3e
       0.23710805 0.17985497 0.09921629 0.16942972
0000e0 56 fe 3a 3e 28 19 e7 bd 56 34 e7 3d ef ab 7c 3e
       0.18261084 -0.11284095 0.11289279 0.24674962
0000f0 11 d0 58 3e e6 ee 46 be 0d aa 2f 3e 3f b9 09 3e
       0.21173121 -0.1942707 0.17154713 0.13449572
000100 cb f2 7e 3e 91 84 10 3e 32 2f 71 be 1a 1a 3a be
       0.24897306 0.1411307 -0.2355316 -0.1817402
000110 c3 41 f4 3d 37 d3 4a 3d 04 d8 fb 3d 27 22 99 be
       0.119266056 0.049517836 0.12297061 -0.2990887
000120 b2 1a ec bd d9 99 cd 3d 06 57 3c be fb 90 52 3e
       -0.11528529 0.1003911 -0.18392572 0.20563118
000130 bd 46 3d 3e 09 13 8d be 93 56 09 3e 82 cd 77 be
       0.18484016 -0.27553585 0.13411932 -0.24199489
000140 8c 37 0b be 2a af c8 bd b4 67 34 3e e1 77 80 be
       -0.13595408 -0.09799035 0.17617685 -0.2509146
000150 44 22 9c bb c9 85 d9 bd 8e 5e 7d be 47 f5 3c be
       -0.004764827 -0.106212206 -0.24743101 -0.18452941
000160 02 11 47 be 8a ac 36 3e 46 cd 06 3e bc 95 74 bc
       -0.19440082 0.17839256 0.13164243 -0.014928278
000170 d4 57 de bd 00 8c b4 bd 69 c5 40 3e 92 bb 40 be
       -0.10856596 -0.088157654 0.18825306 -0.18821552
000180 46 a8 c0 3d 81 c9 8a be e6 53 8c 3e 78 c4 3e 3e
       0.094070956 -0.2710686 0.2740776 0.18629634
000190 a3 a7 7d be 3c d8 93 be cf 0e 99 be 2c 08 04 3e
       -0.2477098 -0.2887591 -0.2989411 0.12893742
0001a0 3f b7 3b 3e b4 79 aa bd 55 c5 4f be a5 6b 88 bd
       0.18331622 -0.08323994 -0.2029012 -0.066611566
0001b0 8e d3 70 3e 0a 81 a6 be 43 f2 89 be 31 4a 07 3e
       0.23518202 -0.32520324 -0.26942644 0.13211896
0001c0 3d 41 8a be 9a ce d9 3b ed a8 21 3e 49 4a 77 3d
       -0.27002898 0.0066469433 0.15787096 0.06037358
0001d0 cf cd 44 be 99 97 86 be a9 45 91 be 58 85 19 3c
       -0.19219135 -0.26287535 -0.2837346 0.0093701705
0001e0 37 c5 48 3e 2b 5b 23 3e 60 fe 28 be b0 4c c8 bd
       0.19606481 0.15952747 -0.16503286 -0.09780252
0001f0 21 77 51 be 0d be ed bd 7f f6 3c be 22 eb 3c 3e
       -0.204556 -0.11608515 -0.18453406 0.18449071
000200 8a ba 85 3e ce 66 26 3e 6d e2 16 bc 2f b9 83 3e
       0.2611888 0.16250154 -0.009209258 0.2572722
000210 20 56 32 be 4c 4a 6c 3e 77 1e f2 3d 4c 0d 62 3e
       -0.17415667 0.23075217 0.11822217 0.22075385
000220 df 62 fa 3d 0a 63 77 3e 11 42 80 be 29 6a 05 3e
       0.122258894 0.24158874 -0.25050405 0.13028778
000230 93 bc 36 be ee a0 89 be 13 20 73 be 28 c6 6b 3d
       -0.17845373 -0.26880592 -0.23742704 0.057562023
000240 5b e0 90 bd ea 39 7f bd d1 b7 43 3e cb 9f ad be
       -0.070740424 -0.06231109 0.19113089 -0.33910975
000250 aa 42 2b 3e f6 e3 8d be
       0.16724649 -0.27712983
