models/2023-05-11_23-16/pytorch/1-F_6-E_6.pt (torch, 411855 bytes, 9 tensors)

Fd1da27LSTM.weight_ih_l0 f4 [600, 17]
0	0xbd9e54d7	-0.07731026
1	0xbdbf9fa0	-0.09356618
2	0xbbb7f773	-0.005614215
3	0xbba746f8	-0.0051048957
4	0x3acd0857	0.0015642744
5	0xbc1b136f	-0.009465083
6	0x3d77e8e0	0.06052482
7	0xbd8487ab	-0.06471189
8	0x3d00f275	0.031481225
9	0x3d3b690c	0.045754477
10	0xbc49ca2a	-0.012316266
11	0xbdb66b58	-0.08907193
12	0xbd07f5f0	-0.03319353
13	0xbd832beb	-0.06404861
14	0xbca3f5a8	-0.020014599
15	0x3d398c98	0.045300096
16	0xbda920ca	-0.08258207
17	0xbd976dcf	-0.07393991
18	0xbd59c026	-0.053161763
19	0xbe2f460f	-0.17116569
20	0xbddf0f00	-0.10891533
21	0xbdf356aa	-0.11881764
22	0xbc883403	-0.016626364
23	0xbc957d08	-0.018248096
24	0xbc758ef1	-0.014987693
25	0xbdd5ae6f	-0.10433661
26	0xbd16f3c7	-0.036853578
27	0xbd4f2741	-0.050574545
28	0xbb8a03bd	-0.0042118714
29	0x3cc8bde8	0.024504617
30	0xbd99a1ff	-0.075016014
31	0xbd8cdc68	-0.06877977
32	0xbdd83af7	-0.10558122
33	0xbdc8a56c	-0.09797177
34	0x3d6243c4	0.055240408
35	0x3c7486e9	0.014924743
36	0xbe9a6644	-0.30156147
37	0x3e444fff	0.19171141
38	0x3d924413	0.071418904
39	0xbd222d35	-0.039593894
40	0xbcb5689b	-0.022144606
41	0xbdb86c9b	-0.0900509
42	0x3dd8feea	0.10595496
43	0x3d106878	0.03525588
44	0xbe49ef99	-0.19720306
45	0xbd9e2152	-0.07721199
46	0xbe6cb303	-0.23115163
47	0xbcf5e160	-0.030014694
48	0x3cb15e9a	0.021651555
49	0x3de833e5	0.11338023
50	0x3dc5704e	0.09640561
51	0xbdef6bd6	-0.1169049
52	0xbd736f7e	-0.0594325
53	0xbd6d0668	-0.057867438
54	0x3d0cb2a4	0.034350052
55	0xbd606aa1	-0.05478919
56	0xbd777878	-0.060417622
57	0xbe09836b	-0.13429038
58	0xbd063a0e	-0.03277021
59	0xbdf6beda	-0.12048121
60	0xbd791f31	-0.060820762
61	0x3c4330c6	0.011913484
62	0xbe094077	-0.13403498
63	0xbd155379	-0.03645656
64	0xbce51830	-0.027965635
65	0xbc63d3cf	-0.01390548
66	0x3d20d5d4	0.039266422
67	0x3b0bb6ed	0.002131875
68	0xbc34b4b9	-0.011029416
69	0x3c6c4d8d	0.014422786
70	0xbda7f70f	-0.082014196
71	0xbe3ec2f7	-0.1862906
72	0xbd9d83b4	-0.07691136
73	0xbceca48f	-0.028887061
74	0xbd979c7c	-0.07402894
75	0xbb9641ed	-0.0045854957
76	0xbde1901c	-0.11013815
77	0xbd00b578	-0.031423062
78	0xbd291292	-0.041277476
79	0xbdfd5e2b	-0.12371477
80	0xbcada660	-0.021197498
81	0xbd754ae7	-0.059885886
82	0xbd84a122	-0.06476046
83	0xbd20b1ae	-0.03923195
84	0xbd9769f0	-0.07393253
85	0x3c4b8f0f	0.012424245
86	0x3d979b17	0.07402628
87	0x3c4ae54f	0.012383773
88	0xbdfe1b62	-0.124075666
89	0xbd1e5ff8	-0.03866574
90	0xbe0b7809	-0.13620009
91	0xbddf9815	-0.10917679
92	0xbdd39558	-0.103312194
93	0x3d5a0680	0.053228855
94	0xbd2435f5	-0.04009052
95	0xbe3f34f0	-0.18672538
96	0xbdb31b11	-0.08745397
97	0xbd2a9112	-0.041642256
98	0xbb549003	-0.003243447
99	0x3ca5743c	0.020197026
100	0xbe00ec9d	-0.12590261
101	0x3a9f45b6	0.0012151513
102	0x3d0d32ef	0.034472402
103	0x3d99aacd	0.07503281
104	0x3d2102bb	0.039309245
105	0x3d26312c	0.040574238
106	0x3d3ada97	0.04561862
107	0xbda54fa5	-0.080718316
108	0x3d90bbf9	0.07067103
109	0xbc84bc99	-0.016203212
110	0xbd4485d0	-0.047979176
111	0xbc9f8a5d	-0.019475156
112	0x3d32048e	0.043461375
113	0xbe0155d4	-0.12630397
114	0x3cb73409	0.02236368
115	0x3bda572c	0.0066632237
116	0xbde659a8	-0.11247569
117	0x3d851508	0.06498152
118	0x3d3719d0	0.04470235
119	0xbdbbfca7	-0.09179049
120	0xbd26f34f	-0.04075938
121	0xbdb07fac	-0.086181015
122	0x3c821bab	0.015882334
123	0xbd764335	-0.060122687
124	0x3cc2dc9e	0.02378684
125	0x3d0bad65	0.03410091
126	0xbe324df0	-0.17412543
127	0xbd863b05	-0.06554226
128	0xbe06e094	-0.13171607
129	0xbc8c7f27	-0.017150475
130	0x3d90bc9c	0.070672244
131	0xbb099918	-0.0020995792
132	0x3d8875cb	0.06663092
133	0xbd5d27fe	-0.053993218
134	0x3c106fa5	0.008815681
135	0xbd02143c	-0.03175758
136	0x3e44534a	0.19172397
137	0x3de12335	0.10993043
138	0xbd276ace	-0.04087334
139	0xb9a7a754	-0.0003197739
140	0xbdc5dfa9	-0.096618004
141	0xbd8736e7	-0.06602269
142	0x3c19b33f	0.0093811145
143	0xbd9a0099	-0.07519645
144	0xbd95f6d0	-0.073224664
145	0xbc88e458	-0.016710445
146	0xbd4e87ab	-0.05042235
147	0x3d87af52	0.066252366
148	0xbdda17be	-0.1064906
149	0xbcf6bc05	-0.030118952
150	0xbd87c807	-0.06629949
151	0xbcd4f328	-0.025994852
152	0xbd6c1d78	-0.05764529
153	0x3ca6b7e1	0.020351352
154	0x3c8cbf0a	0.017180938
155	0xbd787451	-0.060657803
156	0xbd20972c	-0.03920667
157	0xba05b178	-0.0005099992
158	0xbc8eb6eb	-0.017421206
159	0xbdc22aa3	-0.094807886
160	0x3a4cbe33	0.00078103243
161	0xbdbb20d8	-0.09137124
162	0xbd8a4529	-0.067514725
163	0x3b56d124	0.0032778466
164	0xbb94ff48	-0.0045470335
165	0x3d8c3108	0.068452895
166	0x3ce2e2ef	0.027696101
167	0x3c85b8f2	0.01632354
168	0x3c8be9e0	0.017079294
169	0x3d5c1a9d	0.053736318
170	0x3d55ba9e	0.052179925
171	0x3cd47f48	0.025939599
172	0xbdbc8e8c	-0.09206876
173	0xbd030fc4	-0.031997457
174	0x3d785086	0.060623668
175	0xbcbf1029	-0.023323135
176	0x3cf379ac	0.029721104
177	0x3d2b8ef1	0.041884366
178	0x3e520dae	0.20513031
179	0xbde9dc0b	-0.11418923
180	0xbe04a3cf	-0.12953113
181	0xbe2a0f0a	-0.166073
182	0xbdf4a66f	-0.11945807
183	0xbd026e9a	-0.03184376
184	0x3c6aeedc	0.014339175
185	0xbd9d96e3	-0.07694795
186	0x3e02e608	0.12783062
187	0xbddb759b	-0.10715791
188	0xbdcdf140	-0.100557804
189	0xbd6a9bc4	-0.057277456
190	0xbdcc92a5	-0.09988908
191	0xbe05e326	-0.13074932
192	0x3c092f61	0.008373112
193	0xbd9d8612	-0.076915875
194	0xbe09dae0	-0.134624
195	0xbe021998	-0.12705076
196	0xbdfd46c0	-0.1236701
197	0x3d16b333	0.03679199
198	0x3cefa910	0.02925542
199	0xbdef79b9	-0.11693139
200	0x3d241dea	0.04006759
201	0xbbcfae83	-0.006337942
202	0x3c529dfe	0.012855051
203	0xbc916496	-0.017748158
204	0xbd904f4b	-0.07046374
205	0xbc1fd6bf	-0.009755789
206	0xbd9b1993	-0.07573237
207	0xbd87f989	-0.06639392
208	0xbde236b7	-0.11045592
209	0x3c143b5f	0.009047358
210	0x3c60337e	0.013684152
211	0x3cc96b58	0.024587318
212	0xbe2dbc17	-0.16966282
213	0x3bab6f5b	0.0052317805
214	0x3d6bd0d3	0.057572197
215	0x3e077849	0.13229479
216	0x3c4fa389	0.012673267
217	0x3da7326b	0.08163913
218	0xbd0f3708	-0.03496459
219	0xbcb53db1	-0.022124143
220	0xbd05fb3e	-0.032710306
221	0xbe24fd69	-0.16112293
222	0xbc0de4d0	-0.00866051
223	0xbd21bca5	-0.039486546
224	0xbd654365	-0.055972476
225	0x3d562594	0.05228193
226	0xbc604db3	-0.0136904
227	0xbc7803be	-0.015137611
228	0x3cbd0ac9	0.023076432
229	0xbd887cc0	-0.06664419
230	0x3e40743e	0.18794343
231	0xbe013a34	-0.12619859
232	0x3dc884dd	0.09790967
233	0x3dff64b2	0.12470378
234	0x3cdbe582	0.026842836
235	0x3d92e0d0	0.07171786
236	0x3d3ef293	0.046618056
237	0x3d75302b	0.05986039
238	0x3db48c4a	0.088158205
239	0xbd9ac1fb	-0.0755653
240	0xbca2a4bd	-0.019853944
241	0xbbcf198e	-0.006320185
242	0x3dba9f7a	0.09112449
243	0x3cecd8d4	0.028911985
244	0x3d8f1ea0	0.06988263
245	0x3d786a1d	0.060648073
246	0x3d51145d	0.05104481
247	0x3df55f9a	0.11981125
248	0xbcce02be	-0.025147792
249	0x3bf2a08d	0.007404393
250	0x3d19a45d	0.037510265
251	0x3d695ea7	0.056975033
252	0x3d3d4dcf	0.046216782
253	0x3d04d7e8	0.032432467
254	0x3c3d8e09	0.011569508
255	0x3d671b5e	0.056422584

Fd1da27LSTM.weight_hh_l0 f4 [600, 150]
0	0xba80ac0b	-0.0009816898
1	0xbbe71317	-0.0070518362
2	0x3d233ce3	0.039852988
3	0x3d1e7146	0.038682245
4	0x3c47c72d	0.012193483
5	0x3dc810aa	0.097688034
6	0xbd72f307	-0.0593138
7	0x3ccc5f58	0.024947807
8	0x3d453eb2	0.048155494
9	0xbc761762	-0.015020223
10	0xbd678014	-0.05651863
11	0x3d98241a	0.07428761
12	0xbaa76a20	-0.0012772717
13	0xbd7b0f51	-0.061293904
14	0xbddbd74d	-0.10734425
15	0xbdebbfb2	-0.11511172
16	0xbd7730a0	-0.060349107
17	0xbc7a37cd	-0.015272093
18	0xbd175d08	-0.036953956
19	0x3b806249	0.0039179665
20	0xbd35444e	-0.044254594
21	0xbd557b5b	-0.052119594
22	0x3cf44c17	0.029821439
23	0x3c21d75e	0.009878008
24	0x3bca4563	0.0061728223
25	0x3dd1d0de	0.102449164
26	0x3ca2050d	0.019777799
27	0x3cd57f7b	0.026061764
28	0xbdd74fb4	-0.10513249
29	0x3d1866c5	0.037207384
30	0x3e1fa33f	0.15589617
31	0xbe14c5aa	-0.14528528
32	0x3c381e10	0.011237636
33	0x3cafd1f3	0.021462416
34	0x3d8299b7	0.06376975
35	0xbda6276a	-0.081129864
36	0xbd5d2aea	-0.053996004
37	0xbdf48d49	-0.119410105
38	0xbda1becf	-0.07897722
39	0xbcd3274b	-0.025775572
40	0x3d43f4f3	0.047841024
41	0xbd30c6a9	-0.043158207
42	0xbc95159a	-0.018198777
43	0xbd860203	-0.065433525
44	0xbd0f6a9c	-0.03501378
45	0xbdc66c8f	-0.09688675
46	0x3da0c54f	0.07850134
47	0x3d44a267	0.04800644
48	0xbda37b4b	-0.07982501
49	0x3d71932c	0.058978245
50	0xbcbefec2	-0.023314837
51	0xbd8d9caf	-0.06914651
52	0xbb8cf867	-0.004302073
53	0x3d166d7c	0.036725506
54	0x3d2f066f	0.042730745
55	0x3cfb5149	0.030678408
56	0xbb05e6f9	-0.002043186
57	0x3c86357a	0.016382921
58	0x3ce14b10	0.027501613
59	0x3d4a7d93	0.049436163
60	0xbbf60e47	-0.007509026
61	0x3d96c4ef	0.07361781
62	0x3cd06dc3	0.025442963
63	0xbd37afaf	-0.04484528
64	0xbd2bf081	-0.04197741
65	0xbc03ee40	-0.008052409
66	0xbc28059e	-0.0102552455
67	0xbd46c9d5	-0.048532326
68	0xbde2f36a	-0.11081584
69	0xbe174bcd	-0.1477501
70	0x3c80ab64	0.015706725
71	0x3c5571b7	0.0130276
72	0x3a31e2b1	0.0006785794
73	0xbd7d004f	-0.061767872
74	0xbdb038a0	-0.0860455
75	0x3c58c363	0.013230178
76	0xbce1c9cd	-0.027562046
77	0xbc8700d0	-0.01647988
78	0x3d879f3d	0.06622169
79	0xbc97af5b	-0.018516233
80	0xbb7896b5	-0.0037931625
81	0xbbd87dc7	-0.0066067907
82	0xbddebcbe	-0.108758435
83	0xbc16adfa	-0.009196753
84	0x3d1b7104	0.037949577
85	0x3d89e5b2	0.06733264
86	0x3cb8194b	0.022472998
87	0x3ca55560	0.020182312
88	0xbd10b846	-0.035331987
89	0xbbf067f7	-0.0073366123
90	0xbdd73b5d	-0.105093695
91	0x3de79b4e	0.11308919
92	0x3da44e6a	0.08022769
93	0xbcb645be	-0.022250053
94	0x3d882293	0.066472195
95	0x3d3d6403	0.046237957
96	0x3daefcee	0.08544336
97	0xbd01ab91	-0.03165776
98	0xbb7e72c8	-0.003882574
99	0x3d56b920	0.052422643
100	0xbaa51623	-0.0012595098
101	0xbcd9063b	-0.026492229
102	0x3bb9483c	0.005654363
103	0x3cff36bf	0.031154035
104	0xbd1adcc8	-0.03780821
105	0x3cb40459	0.02197473
106	0x3cb8ef34	0.022574998
107	0xbd5b3e2f	-0.0535261
108	0xbc5b61c6	-0.01339001
109	0xbd33d394	-0.04390295
110	0xbd0eb2c2	-0.034838445
111	0xbd2bed13	-0.04197414
112	0xbd4ac9cd	-0.04950886
113	0x3cab8c0a	0.0209408
114	0xbd73d318	-0.059527487
115	0x3c56906b	0.013095955
116	0xbd3b8255	-0.04577859
117	0x3ccbd55e	0.024882015
118	0xbb3d9800	-0.002892971
119	0x3c97a58d	0.018511558
120	0xbcdeb1c6	-0.027184378
121	0xbd10290b	-0.03519539
122	0x3e4d0906	0.20022973
123	0xbd644a5a	-0.05573497
124	0xbdefac58	-0.11702794
125	0xbdebef0b	-0.11520203
126	0xba4a4d85	-0.000771724
127	0x3c975643	0.01847375
128	0xbd91d4e8	-0.07120687
129	0x3d9b7c64	0.07592085
130	0xbd3a2d7c	-0.045453534
131	0xbcc6c6ba	-0.024264682
132	0xbd889cb3	-0.06670513
133	0xbdefee81	-0.11715413
134	0xbc396235	-0.011314918
135	0x3b1374b4	0.002249998
136	0xbd2e3b57	-0.04253706
137	0xbdca4ca5	-0.098779
138	0x3c05ae96	0.0081593
139	0x3d79cf52	0.06098873
140	0x3d6279a6	0.055291794
141	0x3c6906ff	0.014222859
142	0xbd878d93	-0.066188
143	0x3dcdac3f	0.10042619
144	0x3cdc7fb6	0.026916366
145	0xbce09142	-0.027413014
146	0x3cb8a670	0.022540301
147	0xbc279bca	-0.010230014
148	0xbc57be81	-0.013167978
149	0xbc310bdf	-0.010806053
150	0x3cb7005e	0.022339042
151	0xbc3c03d4	-0.011475522
152	0xbccea74d	-0.02522626
153	0x3d5218b1	0.05129308
154	0x3d629bf6	0.055324517
155	0x3b3788b3	0.0028005063
156	0xbc902388	-0.017595068
157	0xbd006154	-0.03134282
158	0x3ddc77d1	0.10765041
159	0x3cc2c4e2	0.023775522
160	0x3bfc9646	0.0077083437
161	0x3d07e82e	0.03318041
162	0x3d4dc0b4	0.050232604
163	0x3c9940d9	0.01870768
164	0x3c87084f	0.016483454
165	0x3d0806a3	0.033209454
166	0xbc261acf	-0.010138228
167	0x3ca95d3a	0.020674337
168	0xbd6a8813	-0.057258677
169	0x3cb1dff8	0.021713242
170	0xbcb61d02	-0.022230629
171	0xbd96e44a	-0.073677614
172	0xbdfc452c	-0.12317881
173	0x3aef3a20	0.0018251576
174	0xbd27fbfd	-0.0410118
175	0x3dc07053	0.09396424
176	0x3c0acbb7	0.008471421
177	0x3b0f8547	0.0021899508
178	0x3e0719c5	0.13193424
179	0xbb38a989	-0.0028177223
180	0xbb03d4af	-0.0020115783
181	0x3d1ef15c	0.038804397
182	0xbc30bc30	-0.010787055
183	0xbc7c9fca	-0.015418956
184	0xbcb70752	-0.022342358
185	0x3c1a101e	0.009403257
186	0x3d059aa4	0.03261818
187	0xbc5d0604	-0.013490204
188	0xbd8ee756	-0.069777176
189	0x3d387257	0.045030918
190	0xbd611d3b	-0.054959517
191	0xbd32ebf3	-0.04368205
192	0x3c0750b2	0.008258985
193	0x3dc63dbb	0.09679743
194	0x3d6ab59c	0.057302102
195	0xbc600b79	-0.01367461
196	0x3cb2420e	0.021760013
197	0x3ad45f55	0.0016202728
198	0x3af9856e	0.0019036958
199	0xbd7ed8d4	-0.062218502
200	0x3bd53d36	0.006507541
201	0xbcec04a8	-0.028810814
202	0x3d55d279	0.052202675
203	0x3d783270	0.060594976
204	0xbd5de9ba	-0.054177977
205	0x3d87ab53	0.066244744
206	0x3c2adcc0	0.010428607
207	0x3b3dcca9	0.0028961098
208	0xbdc8b4a0	-0.098000765
209	0xbd315046	-0.043289445
210	0x3c4a2886	0.012338763
211	0xbc3a9761	-0.011388631
212	0x3d712fec	0.058883592
213	0x3d0bdb28	0.03414455
214	0x3c4aa823	0.0123691885
215	0x3d7cdd5b	0.06173454
216	0x3d2ba167	0.041901972
217	0x3d20e50f	0.039280947
218	0x3a972b98	0.0011533378
219	0xbd420d62	-0.047376044
220	0xbc93c3d4	-0.018037714
221	0xbd4a4b43	-0.04938818
222	0xbd57267b	-0.052526932
223	0xbdc56088	-0.096375525
224	0xbc4bb5f4	-0.012433518
225	0x3cffeb5a	0.031240154
226	0x3d199f75	0.037505586
227	0x3cc67667	0.02422638
228	0xbc8acdd3	-0.016943848
229	0x3d5f1c39	0.054470275
230	0xbdb39336	-0.08768313
231	0xbdaf4f12	-0.08560003
232	0x3c2cb316	0.010540744
233	0x3d39ac3a	0.045330264
234	0x3c41bc62	0.011824699
235	0xbdabbfa2	-0.083861604
236	0xbb05d42d	-0.0020420656
237	0xbd06fccd	-0.032955933
238	0xbd70a262	-0.05874861
239	0x3d240707	0.040045764
240	0x3c1badef	0.009501918
241	0x3dbbb141	0.09164668
242	0x3d40d8be	0.0470817
243	0x3d759363	0.059955012
244	0x3c870886	0.016483556
245	0x3d8dbfc3	0.06921341
246	0xbd678952	-0.056527443
247	0x3d5969ce	0.05307942
248	0x3d84481c	0.06459066
249	0x3add520b	0.0016885413
250	0xbd8cdd69	-0.06878168
251	0x3d8e4af9	0.06947894
252	0x3d8662b3	0.06561794
253	0x3da98576	0.08277409
254	0xbd642ce1	-0.055706862
255	0x3d41512b	0.04719655

Fd1da27LSTM.bias_ih_l0 f4 [600]
0	0xbc838e29	-0.016058998
1	0xbd207828	-0.03917709
2	0xbcb198d0	-0.021679312
3	0xbcf1ef04	-0.029532917
4	0xbc388bda	-0.011263812
5	0xbd0e7cf0	-0.03478712
6	0xbd27312b	-0.040818375
7	0x3b94565f	0.004526898
8	0xbba69376	-0.0050834967
9	0xbd07722a	-0.03306786
10	0x3ccc6366	0.02494974
11	0xbbf1716c	-0.0073682573
12	0xbc486710	-0.012231603
13	0xbc932de4	-0.017966218
14	0x3d016207	0.031587627
15	0x3c83a47d	0.016069645
16	0xbc1d021c	-0.009583022
17	0xbc5f1cea	-0.0136177335
18	0x3d593079	0.053024743
19	0xbc1f24ff	-0.00971341
20	0x3c7df4f8	0.0155003
21	0xbc84ac31	-0.016195389
22	0xbbce0a2b	-0.006287833
23	0x3b7e7dae	0.0038832235
24	0xbd1b9b53	-0.037989926
25	0xbd260008	-0.040527374
26	0xbc633910	-0.013868585
27	0xbbec946d	-0.007219842
28	0xbcac660a	-0.02104475
29	0xbdce02d3	-0.100591324
30	0xbdd8546e	-0.10562979
31	0xbb7608e6	-0.0037541925
32	0xbd39c3a7	-0.045352604
33	0xbd6f18e9	-0.058373366
34	0x3ca1f1f4	0.019768693
35	0xbbc0cf2f	-0.005884073
36	0x3c352b16	0.011057636
37	0xbd89e878	-0.06733793
38	0x3ca5c855	0.020237127
39	0x3d55185e	0.05202519
40	0xbc9876e0	-0.018611372
41	0x3ca50939	0.020146
42	0xbcb7cae5	-0.022435615
43	0xbd0c152e	-0.034199886
44	0xbd2bb81e	-0.041923635
45	0xbd7114b3	-0.05885763
46	0xbcbea6a8	-0.023272827
47	0xbac2174c	-0.0014807968
48	0x3cb2b9fd	0.021817202
49	0xbc3dc6f3	-0.011583078
50	0xbc557c7c	-0.013030168
51	0x399ad2b9	0.0002953017
52	0x3b5cc26d	0.0033685223
53	0xbd99a3a7	-0.07501917
54	0xbbbf846c	-0.0058446433
55	0xbc40bc07	-0.011763579
56	0xbc700e3d	-0.014651832
57	0x3c67df81	0.014152409
58	0xbc950b49	-0.018193858
59	0xbd8279c6	-0.06370883
60	0xba280c9c	-0.00064105703
61	0xbb06925e	-0.002053402
62	0x3c7f7ffa	0.015594477
63	0x3c15214f	0.00910218
64	0xbcfa6c86	-0.030569326
65	0x3bbf02e0	0.0058292
66	0xbcd3ac25	-0.02583892
67	0xbdd6d9f6	-0.104907915
68	0x3a958732	0.0011408089
69	0xbdd7365f	-0.10508417
70	0xbbf00512	-0.007324823
71	0xbc0007b7	-0.007814339
72	0xbd05450f	-0.032536563
73	0xbd466fb7	-0.048446383
74	0xbcac0f66	-0.021003436
75	0x3c4a2525	0.0123379575
76	0xbd9cc672	-0.07655038
77	0xbc993a23	-0.01870448
78	0xbcd67ebd	-0.02618348
79	0xbd200c39	-0.039074156
80	0xbb67294c	-0.0035272418
81	0xbd5b3e2a	-0.05352608
82	0x3b9104e0	0.00442563
83	0xbc6b0869	-0.014345267
84	0x3c8c0fe5	0.017097423
85	0xbd5139bb	-0.051080447
86	0xbce7a507	-0.028276933
87	0xbc5b6fa7	-0.013393319
88	0xbc684457	-0.01417645
89	0xbd49ba13	-0.04924972
90	0xbbf29d91	-0.0074040373
91	0xbd1b53ed	-0.037921835
92	0x3d0d52e3	0.034502875
93	0xbc4d405b	-0.012527551
94	0xbd858ed1	-0.06521381
95	0xbd0dd0d1	-0.03462297
96	0xbd3cceaa	-0.046095528
97	0x39dd5756	0.00042217475
98	0x3bbc09c8	0.0057384707
99	0xbd161a05	-0.036645908
100	0x3d141c6f	0.03615993
101	0x3d0fad75	0.03507753
102	0x3c160861	0.009157271
103	0xbbace939	-0.0052768257
104	0xbd202192	-0.039094515
105	0xba667e63	-0.0008792637
106	0xbc03ed4c	-0.008052181
107	0xbd9b99e2	-0.0759771
108	0xbd02c31a	-0.031924345
109	0x3d96b469	0.07358629
110	0x3c380298	0.011231087
111	0xbc846193	-0.016159808
112	0xbcc2a3e2	-0.023759786
113	0xbd03ee9c	-0.032209978
114	0xbb35bf2d	-0.0027732358
115	0x38e29401	0.00010804088
116	0x3c04053f	0.008057891
117	0x3cc60c0f	0.024175672
118	0x3bcdf2f6	0.0062850667
119	0xbb2f60ca	-0.0026760572
120	0x3c7ff39e	0.015622048
121	0xbc833496	-0.016016286
122	0x3d1197de	0.035545222
123	0x3d0ea449	0.034824643
124	0xbccc0c73	-0.02490828
125	0xbd1110fb	-0.035416584
126	0xbca59fd3	-0.020217812
127	0xbc9edc20	-0.019392073
128	0x3cbd0bba	0.02307688
129	0xbc0b253c	-0.008492764
130	0xbb624f49	-0.003453212
131	0x3d30bee3	0.043150794
132	0x3c56d3c9	0.013112017
133	0x3c059ac0	0.008154571
134	0xbd4b7a37	-0.0496771
135	0xbd13f9e2	-0.03612698
136	0xbcb15e8c	-0.021651529
137	0x3cc50ed9	0.024054931
138	0x3c7cb86d	0.01542483
139	0xbc9af2b8	-0.018914565
140	0xbc272d56	-0.01020368
141	0x3cba9a5f	0.022778688
142	0x3b633749	0.0034670404
143	0x3d17199d	0.03688966
144	0xbc0ee8e3	-0.008722517
145	0xbd0ab42b	-0.033863228
146	0x3c345fcb	0.011009167
147	0x3b1bd2fe	0.0023776884
148	0xbbc6a7d5	-0.0060624876
149	0x3c9d979c	0.019237332
150	0x3cb1754e	0.02166238
151	0x3d4dc344	0.050235048
152	0x3cd8b57c	0.026453726
153	0x3de67602	0.11252977
154	0xbc5ade5c	-0.013358679
155	0x3ae03a65	0.0017107247
156	0x3c1cc871	0.009569273
157	0x3cf141b9	0.029450284
158	0x3d220a0e	0.03956037
159	0xbd578235	-0.05261441
160	0xba9f8c2f	-0.0012172515
161	0x3d26be09	0.040708575
162	0x3cfc202e	0.030777063
163	0x3be487eb	0.0069742105
164	0xbc908b09	-0.017644422
165	0xbd03c2e7	-0.032168295
166	0xbd080c03	-0.03321458
167	0x3c647857	0.013944707
168	0x3dd12b9f	0.10213398
169	0x3c95cfd2	0.018287573
170	0xbb59a652	-0.0033210707
171	0x3d4b0644	0.049566522
172	0xbc165b87	-0.009177095
173	0xbcbcbbb1	-0.023038717
174	0x3db2e6b4	0.087354094
175	0x3bdb36b3	0.0066898703
176	0xbc0609a0	-0.008181006
177	0x3da5d148	0.08096558
178	0x3d6c3e50	0.057676613
179	0x3dc57210	0.09640896
180	0x3e798ec1	0.24370863
181	0x3d85c2da	0.065313056
182	0x3d1f32a0	0.03886664
183	0x3c636103	0.01387811
184	0x3b8f7b0e	0.004378683
185	0xbceb64ae	-0.028734531
186	0x3c0f8d83	0.008761766
187	0x3e01cf33	0.12676696
188	0x3de95712	0.113935605
189	0x3b3bc056	0.0028648577
190	0xbc30be5e	-0.010787575
191	0xbd04a348	-0.03238228
192	0x3d74ea1f	0.059793588
193	0x3d3bb4c7	0.0458267
194	0xbc9d50e3	-0.019203609
195	0x3d457b90	0.04821354
196	0xbc2c5551	-0.010518388
197	0x3d4fa496	0.05069407
198	0xbd0fc4a8	-0.035099655
199	0x3d3e6a94	0.04648836
200	0xbcdcb5d2	-0.026942167
201	0x3d211e2f	0.039335426
202	0xbc8c1f57	-0.017104788
203	0x3cae4df4	0.021277405
204	0x3d101561	0.03517664
205	0xbb18c0d4	-0.0023308294
206	0xbb825c8d	-0.003978318
207	0xbca8a602	-0.020586971
208	0xbc824506	-0.015902054
209	0x3e262387	0.1622449
210	0x3bd23483	0.0064149513
211	0x3b0b9085	0.0021295857
212	0x3d09f853	0.033684086
213	0xbbcac3de	-0.0061879
214	0x3b87ae01	0.004140616
215	0x3bd23a20	0.0064156204
216	0x3d299b73	0.041408014
217	0x3e085735	0.13314517
218	0x3d83c631	0.064342864
219	0x3e4fda37	0.20298086
220	0xbaed302e	-0.0018096024
221	0xba99c6d1	-0.0011732226
222	0x3cd6f3b1	0.026239248
223	0x3c31eaf1	0.010859237
224	0x3d8ce8ec	0.06880364
225	0x3b8cd702	0.004298092
226	0x3cb3c090	0.021942407
227	0xbb8e656f	-0.004345588
228	0x3d44bbc4	0.04803063
229	0xbb905856	-0.0044050617
230	0x3d0a7707	0.03380492
231	0x3d08590c	0.033288047
232	0xbc7421ab	-0.014900605
233	0x3d817496	0.06321065
234	0x3ca13990	0.019680768
235	0xbc5ca17b	-0.013466234
236	0x3c830795	0.015994826
237	0xbc78914d	-0.015171361
238	0x3cc4f825	0.024044106
239	0xbc97c8f8	-0.018528447
240	0x3df2050e	0.1181737
241	0x3d81b223	0.06332805
242	0x3d805e45	0.062679805
243	0x3c263282	0.010143878
244	0x3dd841ff	0.10559463
245	0x3b5d6ced	0.0033786849
246	0x3e1cb4b0	0.15303302
247	0xbce6c13b	-0.028168311
248	0xbcca671c	-0.02470737
249	0x3d8347a6	0.0641015
250	0x3d87a3f4	0.066230685
251	0xbbb711a0	-0.005586818
252	0xbd576062	-0.052582152
253	0xbc31ee38	-0.010860018
254	0x3d6859af	0.056726154
255	0xbd1d59c4	-0.038415685

Fd1da27LSTM.bias_hh_l0 f4 [600]
0	0xbc9a2fa9	-0.018821554
1	0xbc1038db	-0.008802618
2	0xbc8adc4d	-0.01695075
3	0x39fbbca4	0.00048015
4	0xbc53d402	-0.012928965
5	0xbd0fb080	-0.035080433
6	0xbc8c3b1e	-0.017118033
7	0xbb9d011e	-0.004791393
8	0xbc87a524	-0.016558237
9	0xbceec134	-0.02914486
10	0x3c65025b	0.013977612
11	0xbc294abf	-0.010332762
12	0x3cda23c7	0.026628388
13	0xbc90f20a	-0.017693538
14	0x3ce5307e	0.027977224
15	0x3c832ec4	0.01601351
16	0xbc37ce65	-0.011218642
17	0xbc4d0be9	-0.012515047
18	0x3d6f1264	0.058367148
19	0x38244e0b	3.917333e-05
20	0xbd38ded8	-0.045134395
21	0xbd89cd5e	-0.06728624
22	0xbc122e0a	-0.008922109
23	0x3bbd2412	0.005772122
24	0xbd8e3100	-0.0694294
25	0xbc578670	-0.013154611
26	0x3c74e36d	0.014946801
27	0x3d2aba05	0.04168131
28	0xbd036cdc	-0.03208624
29	0xbd88bad5	-0.066762604
30	0xbe20e40b	-0.15711991
31	0xbc281971	-0.010259972
32	0xbcf2e841	-0.029651763
33	0xbd5f0344	-0.054446474
34	0x3d10d85a	0.03536258
35	0xbb589516	-0.0033047847
36	0x3cb099cc	0.021557711
37	0xbdc796c4	-0.09745553
38	0xbd42dd52	-0.04757435
39	0x3d53371e	0.051566236
40	0xbc963216	-0.01833443
41	0x3ca5fc1e	0.02026182
42	0xbd078743	-0.03308798
43	0xbc975127	-0.018471314
44	0xbd0e2da4	-0.034711495
45	0xbd64745b	-0.055775028
46	0xbd0cf9ae	-0.0344178
47	0xbc233cbb	-0.00996321
48	0x3ae1d2a2	0.0017228911
49	0x3b38fb2a	0.0028225877
50	0xbc19f3fb	-0.009396548
51	0xbd18f637	-0.037344184
52	0x3b46b5a3	0.0030320666
53	0xbd56a8d0	-0.052407086
54	0xbbe76029	-0.0070610237
55	0xbb60c003	-0.0034294135
56	0xbc8698a8	-0.016430214
57	0xbcdd352d	-0.027002895
58	0xbcb69348	-0.022287026
59	0xbdcf7415	-0.10129563
60	0x3a080d21	0.00051899446
61	0x392dc718	0.00016572734
62	0x3c7b4c28	0.015337981
63	0x3c19edc3	0.009395066
64	0xbcd9a8c6	-0.026569735
65	0xbb079e20	-0.0020693615
66	0xbcdacded	-0.026709521
67	0xbd1ca0ce	-0.038239293
68	0xbce8b1d0	-0.0284051
69	0xbd7e4ba6	-0.062083863
70	0xbb8047f9	-0.00391483
71	0xbbdd85b6	-0.0067603244
72	0xbcfa235a	-0.030534435
73	0x3b199918	0.0023437198
74	0x3cdc9159	0.026924776
75	0x3c313590	0.010815993
76	0xbda224d2	-0.07917179
77	0xbbf75dd0	-0.007549025
78	0xbca1060b	-0.019656202
79	0xbccadb55	-0.024762789
80	0x3b33c1dc	0.0027428782
81	0xbce3b33b	-0.027795425
82	0x3bdac387	0.0066761407
83	0xbc845ccc	-0.01615753
84	0x3d064933	0.032784652
85	0xbcf2a05e	-0.029617485
86	0x3b0d49fc	0.002155899
87	0xbc31ed51	-0.010859803
88	0xbc758e55	-0.014987548
89	0xbcf9626e	-0.030442443
90	0xbd674c44	-0.056469217
91	0xbcb3f85f	-0.021969019
92	0x3c7d112a	0.015445987
93	0xbbe9488e	-0.007119245
94	0xbd7d32b0	-0.061815917
95	0xbd3a7ea6	-0.045530938
96	0xbd9ba1f3	-0.07599249
97	0xbb88cd74	-0.0041748825
98	0x3c01fbac	0.007933538
99	0xbd44ea74	-0.048075154
100	0x3d254be5	0.04035558
101	0x3d0d2df9	0.03446767
102	0x3caaa5e3	0.020831054
103	0x3c397ddb	0.01132151
104	0xbc7790a3	-0.015110168
105	0x3b8d2a5a	0.004308027
106	0xb9323bb6	-0.00016997647
107	0xbd036423	-0.03207792
108	0xbd0b4fd7	-0.034011688
109	0x3d888a62	0.066670194
110	0x3b7140bd	0.0036812269
111	0xbd20168d	-0.039084006
112	0xbc8dba7e	-0.01730084
113	0xbd10041f	-0.03516018
114	0xbb9dcf30	-0.0048159584
115	0x3c433c9a	0.011916304
116	0x3b8d9e2b	0.0043218336
117	0x3c3432c7	0.010998434
118	0xbac5f0d4	-0.001510168
119	0xbc724b4c	-0.01478846
120	0x3c1e40ac	0.009658974
121	0xbab62d59	-0.0013899013
122	0x3cc531c3	0.02407158
123	0xbc3d7e79	-0.011565798
124	0xbd6ad569	-0.05733243
125	0xbc74e42d	-0.0149469795
126	0xbd226bd1	-0.039653603
127	0xbb4ad7cb	-0.0030951377
128	0xbb2d68e8	-0.0026460234
129	0xbcf5429d	-0.02993899
130	0xbcd0415d	-0.025421793
131	0x3c5d39ed	0.01350258
132	0xbbea1186	-0.0071432022
133	0xbca9e658	-0.02073972
134	0xbd0b00b6	-0.033936225
135	0xbd53eadc	-0.05173765
136	0xbc57779a	-0.013151074
137	0x3ce292f5	0.027657965
138	0x3cd0c73d	0.02548563
139	0xbcaac495	-0.02084569
140	0xbc2e2905	-0.010629897
141	0x3ca0d2a8	0.019631699
142	0x3b1760b4	0.002309841
143	0xbc153710	-0.009107366
144	0xbc62ed16	-0.013850471
145	0xbcd909e2	-0.02649397
146	0x3b1f4dd1	0.0024307857
147	0x3ad65f60	0.0016355328
148	0x3baf3ff3	0.0053481995
149	0x3ca9f8f2	0.02074859
150	0x3c3bd247	0.011463708
151	0x3c39fd43	0.011351886
152	0xbb16ae3a	-0.002299203
153	0x3e03b84e	0.12863275
154	0xbbb2000f	-0.005432136
155	0x3bfbf07a	0.007688579
156	0x3c90f355	0.017694155
157	0x3c70411c	0.014663961
158	0x3d27eafc	0.040995583
159	0xbc4b99e0	-0.012426823
160	0xbc895777	-0.01676534
161	0x3d426d9f	0.047467824
162	0xbca46b20	-0.020070612
163	0xbc6bfebd	-0.014403996
164	0xbc5dda6d	-0.013540846
165	0xbd05cad5	-0.03266414
166	0xbce33f40	-0.02774012
167	0x3a079d41	0.0005173274
168	0x3d7c0ebc	0.06153749
169	0x3cbedf78	0.023299918
170	0xbc6ef5cc	-0.01458497
171	0x3dc1ba2b	0.09459337
172	0x3b2a57a3	0.0025992177
173	0xbbb76599	-0.005596828
174	0x3d5867c9	0.052833352
175	0x3cc6e529	0.024279194
176	0xbcc94536	-0.024569135
177	0x3dc5a61d	0.09650824
178	0x3d16643f	0.036716696
179	0x3dfc9e14	0.123348385
180	0x3e3abb7b	0.1823558
181	0x3d3396e6	0.04384508
182	0x3bd7cf04	0.0065859575
183	0x3cfcb9cb	0.030850312
184	0x3d265ab4	0.040613845
185	0xbcbefd78	-0.023314223
186	0x3c085eae	0.008323355
187	0x3d94c146	0.072634265
188	0x3df7427d	0.120732285
189	0x3b810cfd	0.003938316
190	0xbc73325f	-0.014843552
191	0xbce8d285	-0.028420696
192	0x3d0f2890	0.034950793
193	0x3ddb8b52	0.107199326
194	0x3ba4491d	0.0050135986
195	0x3c50af84	0.012737159
196	0x3ca513ff	0.020151136
197	0x3d7915b8	0.06081173
198	0xbd037351	-0.032092396
199	0x3d3e40c3	0.04644848
200	0xbd233b81	-0.03985167
201	0x3d8406bb	0.06446596
202	0xbc97c095	-0.018524447
203	0xbd174f21	-0.036940698
204	0x3d3ca31d	0.046053994
205	0xbbc805eb	-0.006104221
206	0x3baac600	0.0052115917
207	0x3b089c76	0.002084521
208	0xbc464571	-0.012101517
209	0x3dea2d61	0.114344366
210	0x3b201096	0.0024423948
211	0x3c20089e	0.0097676795
212	0x3cdc7eb6	0.02691589
213	0xbbbea56b	-0.005818059
214	0x3ca248cc	0.019810103
215	0x3bf461cb	0.007457947
216	0x3bb45351	0.005503096
217	0x3e1192e1	0.14216186
218	0x3dba0a2f	0.090839736
219	0x3e02a6c7	0.12758933
220	0xba163a6b	-0.0005730751
221	0xbbbd1611	-0.005770453
222	0xbc2425b8	-0.0100187585
223	0xbc77413c	-0.015091237
224	0x3d8d3273	0.06894388
225	0xba4a2a33	-0.00077119767
226	0xb7758a9a	-1.4635409e-05
227	0x3cc335f7	0.023829443
228	0x3d639f82	0.05557204
229	0x3c85707a	0.016288985
230	0x3ce21a6d	0.027600491
231	0x3d7ba2ec	0.06143467
232	0xbc6d219e	-0.014473347
233	0x3d753ded	0.05987351
234	0x38ea93cb	0.00011185518
235	0x3b2ff5dd	0.0026849427
236	0x3d27e710	0.040991843
237	0xbc8d8d21	-0.01727921
238	0x3d0a55bd	0.033773173
239	0x3c33415f	0.010940879
240	0x3dd1bc82	0.10241033
241	0x3d8aeb25	0.067831315
242	0x3d7d9c1f	0.061916467
243	0x3be2dca8	0.006923277
244	0x3d33cd66	0.043897055
245	0x3cd4a377	0.025956852
246	0x3d847d05	0.06469158
247	0xbd0e6398	-0.03476295
248	0xbd10a997	-0.035317983
249	0x3d47a23a	0.048738696
250	0x3d11d58b	0.03560404
251	0x3cfb08b3	0.030643797
252	0xbd534fff	-0.051589962
253	0xbc7fcc1a	-0.015612626
254	0x3b412343	0.002947048
255	0xbd059f61	-0.0326227

ClassificationFd1da27.0.weight f4 [150]
0	0x3f876fbc	1.0580974
1	0x3f74e05a	0.95654833
2	0x3f9bc43d	1.2169262
3	0x3f663baa	0.8993479
4	0x3f48d580	0.78450775
5	0x3f8b8dbb	1.0902628
6	0x3f91101f	1.1333045
7	0x3f8ddcb0	1.1082973
8	0x3f92148b	1.1412519
9	0x3f88214b	1.063516
10	0x3f894275	1.0723406
11	0x3f0ca3b7	0.5493731
12	0x3f3d5aa2	0.7396642
13	0x3f8e81cb	1.113336
14	0x3f99833f	1.1993178
15	0x3f9384d3	1.152491
16	0x3f96325c	1.1734118
17	0x3f9082c4	1.1289907
18	0x3f64f72f	0.8943967
19	0x3f6a848a	0.9160849
20	0x3f853f06	1.0409858
21	0x3f855b88	1.0418558
22	0x3f90ab72	1.1302321
23	0x3f9c2a28	1.2200365
24	0x3f8ac525	1.0841414
25	0x3f934dc8	1.1508112
26	0x3fa5d27f	1.2954863
27	0x3f111f38	0.5668826
28	0x3f965a66	1.1746337
29	0x3f5f7860	0.8729305
30	0x3f8d8eea	1.1059239
31	0x3f9775e2	1.183285
32	0x3f8d1dcb	1.1024717
33	0x3f90001a	1.1250031
34	0x3f912b0b	1.1341261
35	0x3f96d4fc	1.1783748
36	0x3f8df889	1.1091472
37	0x3f6bb9fa	0.9208065
38	0x3f046658	0.51718664
39	0x3f8f5800	1.119873
40	0x3f8a64e1	1.0812036
41	0x3f8d0bfc	1.1019282
42	0x3f9865f9	1.190612
43	0x3f8b3921	1.0876809
44	0x3f8d2bfd	1.1029049
45	0x3f98426e	1.1895273
46	0x3f1c3854	0.6102345
47	0x3f9c9303	1.2232364
48	0x3f9123b5	1.1339022
49	0x3f88f414	1.0699487
50	0x3f979263	1.1841549
51	0x3f864b1d	1.0491673
52	0x3f952c40	1.1654129
53	0x3f88f4fc	1.0699763
54	0x3f75f220	0.9607258
55	0x3f87af02	1.0600283
56	0x3f8c7091	1.0971853
57	0x3f7d1fb3	0.98876494
58	0x3f7800db	0.96876305
59	0x3f940b7a	1.1566002
60	0x3f92595d	1.1433522
61	0x3f91f760	1.1403618
62	0x3f8954cc	1.0729003
63	0x3f649bb7	0.893001
64	0x3f925775	1.143294
65	0x3f81e1b3	1.0147003
66	0x3f980763	1.1877254
67	0x3f8e02c4	1.1094594
68	0x3f80a0c5	1.0049063
69	0x3f4e1737	0.80504173
70	0x3f7d9cd5	0.9906743
71	0x3fa0e490	1.2569752
72	0x3f6ae219	0.9175125
73	0x3f7617fa	0.96130335
74	0x3f8cc0fa	1.0996392
75	0x3f92737f	1.1441497
76	0x3f89b384	1.0757909
77	0x3f9c9a11	1.2234517
78	0x3f82be17	1.0214261
79	0x3f954714	1.1662316
80	0x3f85df57	1.0458783
81	0x3f7e3bc6	0.9930996
82	0x3f8870cf	1.0659426
83	0x3f9dd0b0	1.2329311
84	0x3ed7095e	0.41999334
85	0x3f7bd28d	0.9836815
86	0x3f989c38	1.1922674
87	0x3f8ef8f4	1.1169724
88	0x3f91fb74	1.1404862
89	0x3f8ccab3	1.0999359
90	0x3f827d82	1.0194552
91	0x3ec7c39e	0.39016432
92	0x3f792c1c	0.9733293
93	0x3f53a777	0.82677406
94	0x3f8d3c18	1.1033964
95	0x3f8b4368	1.0879946
96	0x3f488758	0.7833152
97	0x3f97fa5f	1.1873282
98	0x3f9a8adc	1.2073627
99	0x3f8c4884	1.095963
100	0x3f931165	1.1489683
101	0x3f9d13d5	1.2271677
102	0x3fa2d42f	1.2721003
103	0x3f79db52	0.9760028
104	0x3f8a0213	1.0781883
105	0x3f4160a0	0.75538063
106	0x3f91c72f	1.1388911
107	0x3f3cff32	0.738269
108	0x3f98733a	1.1910164
109	0x3fa0f100	1.2573547
110	0x3f9a793f	1.2068251
111	0x3f8200d4	1.0156503
112	0x3fa2065c	1.2658191
113	0x3ef1db5c	0.4723767
114	0x3f895233	1.072821
115	0x3f6f1d2f	0.93403906
116	0x3f8fbf0d	1.1230179
117	0x3f989695	1.1920954
118	0x3f9c404d	1.2207123
119	0x3e7f51a5	0.24933489
120	0x3f91f804	1.1403813
121	0x3f8920c6	1.0713127
122	0x3f8e55eb	1.111997
123	0x3f799015	0.97485477
124	0x3f90d466	1.1314819
125	0x3f80558e	1.0026109
126	0x3f8ca59d	1.0988041
127	0x3f8bee31	1.0932065
128	0x3f960419	1.172
129	0x3f84b3b7	1.0367345
130	0x3f1b0ea2	0.605692
131	0x3f967ab7	1.17562
132	0x3f8b9ffa	1.0908196
133	0x3f921874	1.1413713
134	0x3f7e2799	0.9927917
135	0x3f9072c9	1.128503
136	0x3f80c2ba	1.0059426
137	0x3f962b56	1.1731975
138	0x3f975971	1.182417
139	0x3f809e39	1.0048286
140	0x3f8da0bf	1.1064681
141	0x3f964618	1.1740141
142	0x3f99b0d0	1.2007084
143	0x3f29e3d3	0.6636326
144	0x3f1cccf1	0.61250216
145	0x3f325fe2	0.69677556
146	0x3f8f0288	1.1172647
147	0x3fa354eb	1.276029
148	0x3f881c4d	1.0633637
149	0x3fa142ec	1.2598548

ClassificationFd1da27.0.bias f4 [150]
0	0x3c876c7c	0.016531222
1	0xbb90a5e6	-0.004414308
2	0xbcc40972	-0.023930285
3	0x3ccc68ef	0.02495238
4	0xbc23bf43	-0.009994331
5	0xba5f7f2b	-0.00085257244
6	0x3ba7d55e	0.005121871
7	0xbbd3fc60	-0.0064692944
8	0x3d5e2c10	0.05424124
9	0x3cdc4146	0.026886594
10	0x3d2c6d5a	0.042096473
11	0xbb1f699d	-0.0024324425
12	0xbc819e78	-0.015822634
13	0x3cb183c3	0.021669274
14	0x3dd28eba	0.10281129
15	0x3ce07965	0.027401635
16	0x3d712da1	0.058881406
17	0xbc10c266	-0.008835411
18	0x3bffc091	0.007804938
19	0x3c257538	0.010098748
20	0x3d025f0e	0.031828932
21	0x3c0da7fa	0.008646006
22	0xbd8e4e62	-0.06948544
23	0x3d0c971a	0.03432379
24	0x3d86a5c5	0.06574587
25	0xbbe3288b	-0.0069323233
26	0x3d51b78f	0.051200446
27	0x3b483ae8	0.003055269
28	0x3d49a40e	0.04922872
29	0x3cc4ddc0	0.02403152
30	0x3d97a210	0.07403958
31	0xbcf98b06	-0.0304618
32	0x3cb1310f	0.021629838
33	0xbc5a0b5a	-0.0133083705
34	0x3cae6e28	0.021292761
35	0x3c93ceda	0.01804297
36	0x3d229a57	0.03969797
37	0x3ab2d0b7	0.0013642524
38	0x3b688003	0.0035476692
39	0x3c2bf366	0.010495042
40	0xbd22cf73	-0.03974862
41	0xbc5e7f2e	-0.013580127
42	0x3c564778	0.013078563
43	0x3d2ff1db	0.04295526
44	0x3d29dbe0	0.041469455
45	0x3c1c0044	0.009521548
46	0xbbf086b2	-0.0073402757
47	0x3af9a9e2	0.0019047821
48	0x3cb27d71	0.02178833
49	0x3d495da1	0.049161557
50	0xbb52f5e8	-0.0032190029
51	0x3d50005a	0.050781585
52	0xbb70576e	-0.0036673206
53	0x3ccebd3a	0.025236715
54	0x3d0bd3ca	0.034137525
55	0x3c548c5a	0.012972916
56	0x3d9fc739	0.078016706
57	0xbb10ec64	-0.0022113556
58	0xbcdca41c	-0.026933722
59	0x3d280d4d	0.04102831
60	0x3c905b1c	0.01762157
61	0xbc63d2fd	-0.013905284
62	0x3b8ea655	0.0043533244
63	0x3d08a59e	0.03336107
64	0x3d25b8e2	0.04045952
65	0x3d35068c	0.044195697
66	0xb8125bcd	-3.489461e-05
67	0x3d1f03d2	0.038822003
68	0xbcd13757	-0.025539083
69	0xbc5a8190	-0.013336554
70	0x3ac4f656	0.0015027027
71	0xbc91cb87	-0.017797245
72	0x3d1b69f5	0.037942845
73	0x3bb162d9	0.005413395
74	0xbc211e2f	-0.0098338565
75	0xbb9bb3d7	-0.004751663
76	0x3d9786aa	0.07398732
77	0x3cb79e8f	0.022414474
78	0x3c22ddda	0.009940589
79	0x3c861592	0.016367707
80	0xbcffb233	-0.031212902
81	0xbc8ccdf4	-0.01718805
82	0x3d28d10b	0.041214984
83	0x3d4fe206	0.050752662
84	0x3a838984	0.001003549
85	0xbbf248c0	-0.0073939264
86	0x3d1dcaf2	0.03852362
87	0xbd6e28fd	-0.05814456
88	0x3bcd2940	0.006261021
89	0xbbd3b2ba	-0.006460515
90	0x3d055b7a	0.032557942
91	0xbc0d58c8	-0.008627124
92	0xbc145b70	-0.0090550035
93	0xbc596d1f	-0.013270645
94	0x3cb2dd07	0.02183391
95	0x3d1d6ffe	0.038436882
96	0x3ca8d6f5	0.020610312
97	0x3cfa5694	0.030558862
98	0x3d6f99d2	0.058496304
99	0x3c541ac6	0.012945836
100	0xbcdd8af0	-0.02704379
101	0x3d57f185	0.052720565
102	0x3d54e8a0	0.05197966
103	0xbb80bc26	-0.003928679
104	0x3d1c6db0	0.038190544
105	0xbbdaab72	-0.00667327
106	0xbcd8f248	-0.026482716
107	0x3ca138b7	0.019680364
108	0x3d009072	0.031387754
109	0x3c8169ef	0.015797583
110	0xbc69dabe	-0.014273344
111	0xbc485744	-0.012227837
112	0xbb42a4e7	-0.002970034
113	0x39857b80	0.00025459751
114	0x3db63e11	0.08898557
115	0xbcf405da	-0.029787946
116	0x3d11639d	0.03549539
117	0x3c72289f	0.014780193
118	0x3d5328e5	0.051552672
119	0xbb94a598	-0.004536342
120	0x3d3b8722	0.04578317
121	0x3c7213a3	0.01477519
122	0x3be5135c	0.006990833
123	0x3bb74401	0.0055928235
124	0x3c16cb18	0.009203695
125	0x3c00bb48	0.007857151
126	0x3c63cf8c	0.0139044635
127	0x3b82e62c	0.003994724
128	0x3d505b68	0.05086842
129	0x3bb89293	0.0056327074
130	0xbaaf948f	-0.0013395714
131	0x3cf163bc	0.029466502
132	0xbbf20228	-0.007385511
133	0x3d89ae2d	0.067226745
134	0xbc92d5e4	-0.017924257
135	0x3d1883fe	0.037235253
136	0xbc20e137	-0.00981932
137	0x3cb19c90	0.0216811
138	0x3d33e372	0.04391808
139	0x3be07888	0.006850306
140	0xbc091907	-0.008367783
141	0x3bcd1a22	0.006259219
142	0x3cf79677	0.030223114
143	0xbd043f1e	-0.032286756
144	0x3b48f44e	0.0030663195
145	0x3bdbcabe	0.0067075184
146	0x3c266fb5	0.010158469
147	0x3d1fb56b	0.038991373
148	0x3cae19f6	0.021252614
149	0xb9cdee8d	-0.0003927838

ClassificationFd1da27.0.running_mean f4 [150]
0	0xbc1c90fd	-0.009556052
1	0xbd6656af	-0.05623501
2	0x3c945adf	0.018109737
3	0xbd5c25e2	-0.053747065
4	0xbd0edf8b	-0.034881156
5	0xbd2a1105	-0.041520137
6	0x3e415642	0.18880561
7	0xbd198049	-0.037475858
8	0xbdfc0d5b	-0.12307235
9	0x3d7e4d72	0.062085576
10	0xbc49b601	-0.0123114595
11	0xbd7933fa	-0.060840584
12	0xbd8e1fc5	-0.06939653
13	0x3cc2bc7d	0.023771519
14	0xbc515386	-0.012776261
15	0x3d9f8174	0.07788363
16	0x3dafa6b6	0.085767195
17	0xbcb4984f	-0.022045283
18	0xbe79d1d8	-0.24396455
19	0xbd53b8bd	-0.051689852
20	0x3e75a468	0.23988497
21	0x3e9475b6	0.28996056
22	0x3d1d0bdc	0.038341388
23	0xbc68092a	-0.014162341
24	0x3d624fd1	0.0552519
25	0xbdff7b01	-0.12474633
26	0x3bcb9da9	0.006213863
27	0xbe8ec34b	-0.27883372
28	0x3c1e4c05	0.009661679
29	0x3dc4c8d7	0.0960862
30	0x3cf1f9a9	0.029537993
31	0x3cbb0a5d	0.02283209
32	0x3d917364	0.07102087
33	0x3b467e37	0.0030287632
34	0x3cd0db40	0.025495172
35	0x3ba74183	0.005104245
36	0x3b5613af	0.003266554
37	0x3e9b7de0	0.30369473
38	0xbd70e11a	-0.058808424
39	0x3b52de81	0.003217608
40	0x3ca6b47b	0.020349732
41	0x3d45a062	0.048248656
42	0x3cb776f8	0.022395596
43	0xbe8b4d06	-0.27207202
44	0xbccc6718	-0.024951503
45	0x3e44027d	0.19141574
46	0xbdf1c84d	-0.118057825
47	0xbcee6a71	-0.02910349
48	0x3d5a9d60	0.05337274
49	0xbd34ad70	-0.044110715
50	0xbc8a8108	-0.01690723
51	0xbd327360	-0.04356706
52	0x3b384bbf	0.002812132
53	0x3d320d4d	0.043469716
54	0xbdb9ed97	-0.0907852
55	0xbd913ac6	-0.07091288
56	0x3d1489ae	0.036264114
57	0xbe030f91	-0.12798907
58	0x3cc58206	0.024109852
59	0xbd1fef0e	-0.03904634
60	0x3c01d878	0.007925145
61	0x3bc18b18	0.005906474
62	0xbdc4b690	-0.096051335
63	0xbc647c55	-0.013945659
64	0x3a82cae4	0.0009978679
65	0xbd2fe32e	-0.042941265
66	0xbd3ab155	-0.045579273
67	0x3a36de48	0.00069758715
68	0x3ea3e233	0.32008514
69	0x3ee104d4	0.43948996
70	0x3c07a327	0.008278645
71	0x3d9eeb84	0.07759765
72	0x3c5880ae	0.013214273
73	0x3e1658a2	0.14682248
74	0xbcc9ab6e	-0.024617877
75	0x3c830122	0.015991751
76	0x3d8abb17	0.06773966
77	0x3db2ea33	0.08736076
78	0xbbd2befe	-0.0064314594
79	0xbd2d76df	-0.042349692
80	0xbd2da519	-0.042393778
81	0xbcad5dee	-0.021162953
82	0xbb5c699e	-0.0033632289
83	0x3d732706	0.059363388
84	0xbcf1f7ac	-0.029537044
85	0xbc7d3d86	-0.015456563
86	0x3dc4b3e0	0.09604621
87	0xbdba533d	-0.09097908
88	0x3b8abbd8	0.0042338185
89	0x3cfe7bb7	0.031064851
90	0x3e9b78a2	0.30365473
91	0xbd332134	-0.043732837
92	0xbd061087	-0.032730605
93	0xbb28c562	-0.0025752415
94	0x3d076690	0.033056796
95	0xbdda378d	-0.10655127
96	0xbf0cc783	-0.5499193
97	0xbc267e86	-0.0101620015
98	0xbcf984ee	-0.030458894
99	0xbc44b78c	-0.012006652
100	0x3d3eee7b	0.04661415
101	0xbd7cc0a3	-0.06170715
102	0xbd9d08cb	-0.07667693
103	0xbe189870	-0.149019
104	0x3e52ad2f	0.20573877
105	0xbd03ae1b	-0.03214846
106	0x3c7aa889	0.015298971
107	0xbc95a196	-0.018265527
108	0xbce55707	-0.0279956
109	0x3e10d6e9	0.14144482
110	0xbd1208eb	-0.035653036
111	0x3d5e32a9	0.054247532
112	0x3d5732a5	0.052538533
113	0xbce6a655	-0.028155485
114	0xbc381479	-0.01123535
115	0x3db442f0	0.0880183
116	0x3bd54a02	0.0065090666
117	0x3bef2cd8	0.007299047
118	0x3e098e12	0.13433102
119	0xbd91157d	-0.07084177
120	0x395c3650	0.00021001068
121	0x3d8985a6	0.067149445
122	0xbdc20fb6	-0.09475653
123	0x3e6b5c7b	0.22984497
124	0x3c5d2ffb	0.013500209
125	0x3e1b83da	0.15187016
126	0xbcf17ed2	-0.029479418
127	0x3d079d12	0.03310878
128	0x3ddf9953	0.10917916
129	0xbe251ce2	-0.16124299
130	0xbd90c1f8	-0.070682466
131	0xbcadfa4a	-0.021237511
132	0x3d1f6a9a	0.038920023
133	0x3df9420a	0.12170799
134	0x3d9c72da	0.07639094
135	0x3d033a37	0.03203794
136	0xbded66b9	-0.115918584
137	0x3dc2d640	0.09513521
138	0xbc7fb1bb	-0.015606339
139	0x3c70a17b	0.014686937
140	0x3cc8708a	0.024467725
141	0x3b4cb1b7	0.0031233856
142	0x3d0425db	0.032262664
143	0xbf2b4c92	-0.6691371
144	0x3d5de383	0.05417205
145	0x3c3097ae	0.010778351
146	0xbb500579	-0.0031741543
147	0xbc8f8dd6	-0.017523687
148	0x3d91df9b	0.071227275
149	0x3c80817c	0.015686743

ClassificationFd1da27.0.running_var f4 [150]
0	0x39e9f23f	0.0004462171
1	0x3a712964	0.0009199588
2	0x3ad18036	0.0015983644
3	0x39a2f0e3	0.00031078522
4	0x39411854	0.00018414977
5	0x3983f9e7	0.0002517246
6	0x3ac175c9	0.0014759834
7	0x3ad4cc3c	0.0016235183
8	0x3b038c86	0.0020072772
9	0x3a38d04a	0.00070500805
10	0x3a3138d6	0.00067604834
11	0x3aa03625	0.0012223168
12	0x3b39fb67	0.0028378607
13	0x3b50010b	0.0031738903
14	0x3ad5435c	0.0016270685
15	0x3afcae68	0.0019278051
16	0x3a11537f	0.0005543753
17	0x3a16d067	0.00057531
18	0x3ce07456	0.027399223
19	0x399e08e9	0.00030142747
20	0x3b119b2a	0.002221773
21	0x3ac52777	0.0015041669
22	0x3a3a869a	0.0007115394
23	0x3a8ba5e6	0.00106543
24	0x3ad4d077	0.0016236444
25	0x3a8926ce	0.0010463835
26	0x3a2ebadd	0.0006665418
27	0x39d2fa16	0.0004024065
28	0x3c007492	0.0078402925
29	0x3c33b680	0.010968804
30	0x3d25778e	0.04039722
31	0x3aff85ec	0.0019494868
32	0x39f8bfb4	0.00047445076
33	0x3929c7be	0.00016191506
34	0x3bd870d6	0.006605248
35	0x3a3cca2f	0.00072017586
36	0x3b9f5a2a	0.0048630433
37	0x3bc818da	0.006106478
38	0x3beb494b	0.007180368
39	0x3b1a819a	0.0023575784
40	0x3a19596a	0.00058498105
41	0x3ac5c199	0.0015087604
42	0x3a8d49d9	0.0010779455
43	0x3b639d8c	0.0034731356
44	0x39890c2f	0.00026139754
45	0x3ac07b5f	0.0014685205
46	0x3ad7fa80	0.0016477853
47	0x3a352df7	0.00069114513
48	0x3a79bc95	0.0009526697
49	0x3b5ed1fb	0.003399967
50	0x393ce723	0.00018015182
51	0x3b1fa01d	0.002435691
52	0x39dd8f1c	0.0004225903
53	0x3a19252d	0.00058420264
54	0x3b1d9f17	0.0024051124
55	0x3a775a80	0.0009435788
56	0x39f41fa9	0.00046562895
57	0x3a2a088e	0.000648626
58	0x3ac2fef5	0.0014877009
59	0x3b157077	0.002280263
60	0x3a254013	0.0006303798
61	0x3a55e692	0.0008159663
62	0x39c24411	0.00037053277
63	0x3a575b82	0.0008215235
64	0x3a05a765	0.0005098491
65	0x39ff8af4	0.00048740918
66	0x3a2484d1	0.00062758947
67	0x3bf69e1e	0.0075261733
68	0x3b04da9b	0.00202719
69	0x3ba45626	0.0050151525
70	0x3a0d32f9	0.00053863187
71	0x3b97db3e	0.00463429
72	0x39fedc57	0.0004861082
73	0x3a125a7d	0.0005582942
74	0x3b4de667	0.0031417848
75	0x3b2a92de	0.002602748
76	0x3a1fdc24	0.0006098172
77	0x3b1c26d9	0.0023826866
78	0x39befd8c	0.0003642853
79	0x3a2e9622	0.0006659945
80	0x3af93bdf	0.0019015035
81	0x3ba0acf4	0.00490343
82	0x3a073597	0.0005157827
83	0x3b08f8a9	0.0020900166
84	0x3b536876	0.0032258308
85	0x39f6bd89	0.0004706199
86	0x39f4c32d	0.00046684724
87	0x3a31c533	0.0006781399
88	0x3a37e000	0.00070142746
89	0x39c26347	0.0003707653
90	0x3bb9a541	0.0056654518
91	0x3ab47038	0.0013766354
92	0x3bf5826a	0.007492353
93	0x39c481b5	0.00037480672
94	0x3b175f2b	0.0023097496
95	0x3a453fee	0.000752448
96	0x3a889423	0.0010420125
97	0x3a178220	0.0005779583
98	0x3a3a157b	0.0007098538
99	0x39c30c91	0.0003720266
100	0x3b5e0745	0.0033878845
101	0x3b15c457	0.0022852623
102	0x3ac6c32a	0.0015164365
103	0x3b201e30	0.0024432056
104	0x3ab8991f	0.001408372
105	0x3aa552f0	0.0012613218
106	0x39b1ba3c	0.00033898826
107	0x3acbc909	0.0015547584
108	0x3a0a0a1b	0.0005265788
109	0x3b8bca8b	0.0042660884
110	0x3a99e0fb	0.0011740023
111	0x3a785def	0.00094744464
112	0x3aa7ada0	0.0012792833
113	0x3a14a952	0.00056709826
114	0x39d9fb06	0.00041576492
115	0x3c9d2077	0.01918052
116	0x3b2e407b	0.0026588726
117	0x3aed9b85	0.0018128013
118	0x3b7efd89	0.0038908443
119	0x398f5997	0.00027341835
120	0x3a84a875	0.0010121005
121	0x3a021d8e	0.00049635104
122	0x3c0088d3	0.007845121
123	0x3ba7e4c8	0.0051237084
124	0x3bb71248	0.005586896
125	0x3a9498b2	0.0011337011
126	0x3bc709dc	0.0060741734
127	0x3a816786	0.0009872771
128	0x3a92e0a0	0.001120586
129	0x39bc9949	0.0003597236
130	0x3c8ff1e1	0.017571392
131	0x3b528664	0.003212356
132	0x3b0a3f85	0.002109499
133	0x3a7b59d0	0.0009588273
134	0x3aea75c3	0.0017887879
135	0x3a3349c6	0.0006839301
136	0x3b809ba0	0.003924802
137	0x3a798665	0.00095186225
138	0x3ab2c9db	0.001364048
139	0x3a0dec7b	0.00054139615
140	0x39ea072c	0.00044637301
141	0x3a4b91bd	0.0007765552
142	0x3a3ea2b9	0.00072721724
143	0x39e4da84	0.00043650356
144	0x3978e19a	0.00023735166
145	0x3ac32a95	0.001489001
146	0x3aaba726	0.0013096079
147	0x3a644d2a	0.0008709008
148	0x3a2693d3	0.0006354425
149	0x39ca08f1	0.00038535104

ClassificationCat.0.weight f4 [1, 150]
0	0x3e239174	0.15973455
1	0x3daa04f6	0.083017275
2	0xbe80b4d1	-0.25137952
3	0x3d52a173	0.0514235
4	0xbd8e205a	-0.06939764
5	0xbe310db7	-0.17290388
6	0x3e4630f1	0.19354607
7	0xbe324dd8	-0.17412508
8	0x3e65cb1e	0.22440764
9	0x3e24ff29	0.16112961
10	0x3e30ba11	0.17258479
11	0xbca2ad86	-0.019858133
12	0x3cefc0d8	0.02926676
13	0x3e32530f	0.17414497
14	0x3e854b15	0.26033846
15	0x3e4af287	0.1981908
16	0x3e73aaf0	0.23795676
17	0x3e48e5f8	0.19618976
18	0x3d3ec48e	0.046574168
19	0x3de17777	0.11009114
20	0x3e1b6c20	0.15177965
21	0x3e13f61a	0.14449349
22	0xbe5ed958	-0.21762598
23	0x3e77abbe	0.24186608
24	0x3e298400	0.1655426
25	0xbe75a877	-0.23990045
26	0xbea4afb3	-0.32165298
27	0x3d1f7a58	0.038935035
28	0xbe6d2ae1	-0.23160888
29	0x3d7367d0	0.059425175
30	0x3e33014f	0.17480968
31	0xbe7bac93	-0.2457755
32	0x3e38ff13	0.18066053
33	0xbe2d9559	-0.16951503
34	0xbe4b12c1	-0.19831373
35	0xbe4d0107	-0.20019923
36	0x3e2c73d0	0.16841054
37	0x3dc0a003	0.0940552
38	0x3c816274	0.015794016
39	0x3e4a6fa6	0.19769153
40	0xbe200564	-0.15627056
41	0x3e3871a1	0.18012096
42	0x3e70146c	0.2344529
43	0xbe35ce17	-0.17754398
44	0xbe335cd2	-0.17515877
45	0xbe76c57e	-0.24098775
46	0x3c06e379	0.008232945
47	0xbe8fe8e9	-0.28107384
48	0x3e531041	0.20611669
49	0x3e26970a	0.16268554
50	0xbe54c636	-0.20778736
51	0x3e0d5cc8	0.13804924
52	0x3e5fcefc	0.21856302
53	0x3e309a30	0.17246318
54	0x3dc4ee52	0.096157685
55	0x3e23662b	0.15956943
56	0x3e371617	0.1787952
57	0xbddee236	-0.1088299
58	0x3ddd6f63	0.10812261
59	0x3e6f6b40	0.23380756
60	0x3e54492e	0.20731041
61	0xbe3945fe	-0.18093106
62	0x3e28d2d8	0.1648668
63	0x3df8ed52	0.1215464
64	0x3e69a6c9	0.2281753
65	0x3e00b438	0.12568748
66	0xbe693782	-0.22775081
67	0xbe2e98a6	-0.17050418
68	0x3df318a6	0.11869936
69	0x3d552eda	0.052046634
70	0x3ddbd2d3	0.10733571
71	0xbe9427da	-0.28936654
72	0xbdcd769f	-0.10032391
73	0x3dbe9fc2	0.09307815
74	0xbe2daedb	-0.16961233
75	0x3e429d43	0.19005303
76	0x3e34d684	0.17659956
77	0xbe87ed29	-0.26548126
78	0x3e09f9a1	0.13474132
79	0xbe6d2b33	-0.2316101
80	0xbe01fe01	-0.12694551
81	0xbdc329dd	-0.09529469
82	0x3e259e02	0.16173556
83	0xbe73e066	-0.2381607
84	0xbbb3e910	-0.0054904297
85	0xbdc8f5dd	-0.0981252
86	0xbe733ee0	-0.23754454
87	0xbe2ee61e	-0.1707997
88	0xbe412d42	-0.1886492
89	0x3e2c312b	0.16815631
90	0x3df34820	0.11878991
91	0xbc83367a	-0.016017187
92	0xbdd799dd	-0.10527394
93	0xbd98ba32	-0.07457389
94	0x3e366899	0.17813338
95	0xbe3a68ce	-0.18204042
96	0x3da7d550	0.08194983
97	0xbe848e0d	-0.25889626
98	0x3e845c41	0.25851634
99	0x3e384128	0.17993605
100	0xbe6c7069	-0.23089756
101	0xbe8ac441	-0.27102855
102	0xbe9291ac	-0.28626764
103	0x3df6126d	0.12015233
104	0x3e2eb461	0.17060997
105	0xbd9a5e1c	-0.07537481
106	0xbe4332ad	-0.190623
107	0xbd6b42f8	-0.057436913
108	0x3e6a54e7	0.2288395
109	0xbe9ddd62	-0.30832964
110	0xbe81fa02	-0.25386053
111	0x3df75b7b	0.120779954
112	0xbe835986	-0.25654238
113	0x3c01eca4	0.007929955
114	0x3e1a0b94	0.15043479
115	0x3d83f8b6	0.06443922
116	0xbe3ef3c9	-0.18647684
117	0xbe80a976	-0.25129288
118	0xbe8a117d	-0.26966467
119	0x3be726db	0.0070541925
120	0x3e421464	0.18953091
121	0x3e2247ae	0.15847656
122	0xbe250488	-0.1611501
123	0xbdb8b7a3	-0.09019401
124	0xbe462453	-0.19349794
125	0xbde1fb7a	-0.110342935
126	0xbe2ea810	-0.17056298
127	0x3e330084	0.17480665
128	0x3e7f0c08	0.24906933
129	0x3e1bf1e6	0.15228996
130	0xbbe9c49d	-0.007134034
131	0x3e7e7996	0.24851069
132	0xbe231bf1	-0.15928628
133	0x3e59db2f	0.21275018
134	0x3de4bd47	0.11168914
135	0x3e59e759	0.21279658
136	0x3ded57ce	0.11589013
137	0x3e6de9cd	0.23233719
138	0xbe77ae92	-0.24187687
139	0x3df73efc	0.1207256
140	0xbe27e558	-0.16396081
141	0xbe7eef5c	-0.24895996
142	0xbe64e34f	-0.22352336
143	0x3d5bea7c	0.05369042
144	0xbd876ea5	-0.06612901
145	0xbd6e2861	-0.058143977
146	0x3e3e32ac	0.18574017
147	0xbea86fcf	-0.32897803
148	0x3e1a5870	0.15072799
149	0xbe83c2df	-0.25734612
