models/2023-05-11_23-16/pytorch/1-F_6-E_0.pt (torch, 411855 bytes, 9 tensors)

Fd1da27LSTM.weight_ih_l0 f4 [600, 17]
000000 92 a0 ba bd 1b d3 ac bd 53 f4 c2 ba a6 25 aa bc
       -0.091126576 -0.08438703 -0.001487384 -0.020769905
000010 07 f7 3a 3c f3 8b 9d ba 55 6f 85 3d e6 79 7d bd
       0.011411435 -0.0012019858 0.065153755 -0.06188383
000020 6c cc 0f 3d 91 1d cd 3c dd 65 a8 bc 41 35 d5 bd
       0.03510706 0.025038512 -0.020556385 -0.10410548
000030 8a 8b 1b bd b7 ff b8 bd 9e 30 4e bc aa c9 78 3d
       -0.03797487 -0.09033149 -0.012584833 0.060739197
000040 09 32 a5 bd f5 79 a9 bd 0a 2d 41 bd 01 a0 24 be
       -0.08066184 -0.082752146 -0.047162093 -0.16076662
000050 a2 5b eb bd bc 16 f8 bd e4 b5 b7 bc 2b 76 a0 bc
       -0.11492087 -0.12113711 -0.0224256 -0.019587597
000060 77 76 74 bc cc 0e d4 bd 39 65 3b bd 16 82 54 bd
       -0.014920822 -0.10354385 -0.04575083 -0.051881872
000070 ae 1a 28 bb ec 18 9d 3c 15 3e 97 bd 9e fd 80 bd
       -0.0025650668 0.019176923 -0.07384888 -0.06298374
000080 23 e4 ba bd b4 42 c1 bd 28 73 15 3d 57 c3 86 3c
       -0.09125545 -0.09436551 0.036486775 0.016450567
000090 a1 20 89 be 37 a3 2f 3e 21 72 ab 3d e4 b2 f1 bc
       -0.26782706 0.17152105 0.08371378 -0.029504247
0000a0 79 df ab bc 94 bb 8d bd 4e 48 d7 3d cf 30 0e 3d
       -0.020980584 -0.06920543 0.10511838 0.034714516
0000b0 40 e6 36 be 37 2d 9a bd 27 7a 4e be ae 25 13 bd
       -0.17861271 -0.07528155 -0.20163785 -0.035924606
0000c0 ab 49 33 3d 59 0f ed 3d 2e 29 b1 3d bd 1e eb bd
       0.043771427 0.11575193 0.086504325 -0.11480472
0000d0 a7 c2 6b bd cc a4 4a bd a5 eb 03 3d a8 fd 4d bd
       -0.05755868 -0.04947357 0.03220715 -0.050290734
0000e0 7f 43 69 bd 78 85 06 be 72 93 f1 bc dd b1 f1 bd
       -0.056949135 -0.13136852 -0.029489253 -0.11801503
0000f0 56 47 77 bd bc 7e 33 3c 5d 26 00 be 45 59 ec bc
       -0.060370766 0.010955509 -0.12514634 -0.02885116
000100 48 df 06 bd f9 8f 5b bc 0b b0 29 3d d6 b3 82 b8
       -0.03292778 -0.013401025 0.041427653 -6.23238e-05
000110 3d 5c ab bc c5 75 1b 3c 40 ee 71 bd b2 a8 2b be
       -0.020918006 0.009488528 -0.059065104 -0.16763571
000120 4b fb a5 bd 0e 71 c8 bc 25 f7 9c bd f0 d3 90 bc
       -0.08104571 -0.024467971 -0.076643266 -0.017679185
000130 b1 c7 ea bd 9f 94 ff bc f3 39 4a bd 8b 36 02 be
       -0.11463869 -0.031198798 -0.04937167 -0.12716119
000140 f9 ab ef bc 76 96 6c bd d6 a8 8a bd 71 0d 18 bd
       -0.029256808 -0.05776068 -0.06770484 -0.037122194
000150 29 25 85 bd e6 10 08 3c 8f a6 4f 3d 47 18 85 3c
       -0.06501228 0.00830481 0.050695952 0.016246928
000160 75 52 d0 bd 04 62 de bc 58 32 01 be c3 85 d9 bd
       -0.101719774 -0.027146347 -0.12616861 -0.10621216
000170 6a 6b cc bd d7 f2 76 3d 7c ac ae bc 6d 1b 46 be
       -0.09981425 0.060290184 -0.021322481 -0.193464
000180 1d ba ba bd b8 98 15 bd 45 73 49 3b 99 d6 13 3d
       -0.091175295 -0.036522597 0.0030738872 0.03609333
000190 ac 4a ef bd c3 2a 81 3c 05 cc 5a 3c 72 93 0d 3d
       -0.116841644 0.01576746 0.013354306 0.034564443
0001a0 06 b6 46 3d a9 41 e6 3c 25 46 3a 3d 5e 48 89 bd
       0.048513435 0.028107481 0.04547705 -0.06703256
0001b0 18 ce 87 3d a2 0a e5 bb dd 76 55 bd bd 99 bb bb
       0.06631106 -0.006989793 -0.05211531 -0.005725114
0001c0 6b 46 26 3d 83 96 06 be a7 d5 a8 3c c2 1e e7 3b
       0.0405945 -0.13143353 0.02060969 0.007053227
0001d0 0e 4b fa bd a5 b3 2a 3d 83 2c 50 3d 87 79 d7 bd
       -0.12221347 0.04167523 0.0508237 -0.105212264
0001e0 ee b2 4b bd 0d 15 8c bd 73 87 c1 3c b0 b2 54 bd
       -0.049731188 -0.068399526 0.023624158 -0.051928222
0001f0 56 da e9 3b 58 15 9d 3c e5 61 24 be aa 1b 7d bd
       0.0071366234 0.019175217 -0.16052969 -0.06179396
000200 6e fc 08 be a4 6a de bc 94 3f 82 3d 1a 60 16 bc
       -0.13377544 -0.02715046 0.06359783 -0.009178186
000210 fb cf 69 3d 5f d1 3d bd a5 cc 77 3c 54 b0 2e bd
       0.05708311 -0.04634225 0.015124475 -0.04264863
000220 2f e9 36 3e 4e 42 e9 3d 93 f5 e2 bc e3 d4 37 bc
       0.1786239 0.113896 -0.02770499 -0.01122019
000230 74 49 a8 bd 8e d7 62 bd c7 36 a7 3b f6 e5 99 bd
       -0.08217135 -0.05538135 0.0051029655 -0.07514565
000240 47 2b 7e bd 83 42 bf bc 80 44 4c bd b3 88 83 3d
       -0.06205299 -0.023347145 -0.049870014 0.06422558
000250 91 34 ae bd 27 9e f0 bc 5c 38 89 bd 9c 4d 1d bd
       -0.0850612 -0.029372288 -0.06700203 -0.038404092
000260 d1 8c 28 bd 9e ee 80 ba 66 3e 65 bc 9a 07 5e bd
       -0.041149918 -0.0009836738 -0.013991928 -0.05420647
000270 66 7b c6 bc b6 bd 95 3a e8 17 f9 bc 9f b0 bb bd
       -0.024228763 0.0011424336 -0.030406907 -0.09164547
000280 b8 7b a5 bb f3 b9 b2 bd 3b bb 3a bd 56 a6 d0 3c
       -0.005050149 -0.08726873 -0.045588713 0.02546994
000290 40 41 09 3b 82 b2 9f 3d 7d dd 8e 3c 72 fb 9c 3c
       0.0020943433 0.077977195 0.017439598 0.019162867
0002a0 d2 1c b7 3c af fa 5c 3d cb 77 82 3d 26 91 af 3c
       0.02235261 0.053950008 0.06370505 0.021431517
0002b0 29 0b a1 bd 3c 07 19 bd e3 f6 96 3d 31 62 9a bb
       -0.07863457 -0.037360415 0.07371309 -0.0047114124
0002c0 93 e8 b5 3c 44 4d 6d 3d 2b 36 4d 3e fd 6c bf bd
       0.022205627 0.057935014 0.20040195 -0.0934696
0002d0 fb d9 d2 bd 24 da 17 be ca a3 f3 bd 82 f9 81 bc
       -0.10295483 -0.14829308 -0.11896475 -0.015866045
0002e0 b0 87 f0 3c 31 1b 6d bd 1a f0 00 3e b4 99 d5 bd
       0.029361576 -0.05788726 0.12591591 -0.10429707
0002f0 05 18 cc bd 1b 54 b7 bc 26 92 a3 bd 1d b3 fe bd
       -0.09965519 -0.022378972 -0.0798686 -0.12436507
000300 29 91 8f 3b c4 58 a1 bd 4c f4 e9 bd ef 64 00 be
       0.004381318 -0.07878259 -0.11423549 -0.12538503
000310 41 50 d0 bd a2 35 2f 3d 8b 72 be 3c af ed f3 bd
       -0.10171557 0.042775758 0.023247978 -0.11910569
000320 de 8f 0b 3d 99 84 a3 3c 0f 87 00 3d 74 3a be bc
       0.03407275 0.019960688 0.031378802 -0.023221232
000330 1f 6a 96 bd 8f b2 6c bc b4 68 8f bd 1f ac 85 bd
       -0.0734446 -0.014446869 -0.070023924 -0.0652697
000340 5c 8b e4 bd b8 63 b6 bb ae a8 56 3b a6 7c 8c 3c
       -0.11159393 -0.0055660866 0.003275435 0.01714928
000350 fe 3a 22 be 8d a0 13 bc bc 63 79 3d 4b a3 ed 3d
       -0.15842816 -0.009010446 0.06088613 0.11603411
000360 60 97 2d 3c 84 24 70 3d 32 68 b1 bc 91 78 5d bc
       0.010595173 0.058628574 -0.02165613 -0.013517515
000370 88 7f 3a bd 94 03 1b be 90 41 bb bb da fb 13 bd
       -0.04553178 -0.15138084 -0.005714603 -0.036128856
000380 d2 38 90 bd be 95 3e 3d 5f d4 98 bc a1 6d 1e bd
       -0.070420876 0.046529524 -0.018655954 -0.03867877
000390 40 89 d9 3c 21 9d 5b bd 9a 30 26 3e 66 f8 db bd
       0.026554704 -0.053616647 0.16229478 -0.107407376
0003a0 f8 a8 b1 3d dc 74 ce 3d 3b 1b 5c 3c 8f 22 64 3d
       0.08674806 0.10080883 0.013434227 0.05569702
0003b0 8d 8b 1b 3d 09 e1 58 3d 32 c3 82 3d eb 11 ad bd
       0.037974883 0.052948985 0.06384887 -0.08450683
0003c0 c6 30 ed bc 72 92 ad bc 41 67 a5 3d e6 fe 72 3c
       -0.028953921 -0.021187995 0.08076335 0.01483128
0003d0 20 2c 7b 3d 74 bb 56 3d 66 8e fc 3c 8d 12 cd 3d
       0.061321378 0.052424863 0.03082962 0.10013304
0003e0 16 09 ff bc 1a d0 29 bb a2 34 27 3d 19 e9 42 3d
       -0.031132262 -0.0025911392 0.04082168 0.04758558
0003f0 26 9b 21 3d 80 27 36 3d 6f 6e 60 3c ee 05 88 3d
       0.0394546 0.044471264 0.013698204 0.06641756

Fd1da27LSTM.weight_hh_l0 f4 [600, 150]
000000 49 e0 8b bc 90 62 ad 3c 41 60 43 3d 5b 3b 47 3d
       -0.017074721 0.021165162 0.047699217 0.04864059
000010 36 9e d2 3c c3 fe bd 3d be cb 61 bd a7 90 2e 3d
       0.025710206 0.092771076 -0.055125944 0.04261842
000020 1d 05 36 3d e8 5e e6 bc 6a ed 4a bd 35 9f b7 3d
       0.04443847 -0.028121427 -0.049542822 0.08965913
000030 e3 f9 f5 3c 2e 11 53 bd be a0 aa bd c9 8e f7 bd
       0.030026382 -0.051530056 -0.083314404 -0.12087781
000040 82 a3 8d bd 84 ea 75 bc 35 5d f1 ba e2 9e e3 3c
       -0.06915952 -0.015009526 -0.0018414619 0.027785722
000050 be 27 16 bd 70 89 25 bd 54 ac b6 3c b3 e4 0a 3d
       -0.036658995 -0.040414274 0.02229897 0.03390951
000060 e3 7c 1a 3c 0e a7 ef 3d 53 22 2f 3c 4b 5d 0e 3d
       0.009429189 0.11701785 0.010689336 0.03475694
000070 4f 5b b0 bd 77 81 c8 3c c8 27 07 3e 95 d0 0a be
       -0.08611166 0.024475796 0.13198769 -0.1355613
000080 e0 ef d9 3b ef 12 92 3c ca 62 8e 3d 05 30 94 bd
       0.00665091 0.017831294 0.06952436 -0.072357215
000090 f2 11 98 bc 5e f5 09 be 05 be 8b bd 74 cd 39 bd
       -0.018563244 -0.13472506 -0.06823353 -0.04536195
0000a0 64 65 7a 3d 8d e4 85 bd 0c ec 2e bb 5c 48 49 bd
       0.06113185 -0.06537733 -0.0026690988 -0.049141273
0000b0 59 d7 ab bc 81 69 c7 bd 52 69 c3 3d f1 06 7b 3d
       -0.02097671 -0.0973692 0.09541573 0.061285917
0000c0 74 e0 c5 bd a5 a1 86 3b 9d 3d fc bc 76 5a c6 bc
       -0.09661952 0.004108625 -0.030791098 -0.024213057
0000d0 7a 96 c6 3b 53 7d a8 3b 34 ad 2c 3d 80 94 78 3d
       0.0060604187 0.005141893 0.042157367 0.060688496
0000e0 bf 10 b1 bc 9a 24 05 3d 97 ae 12 3d 0c dc 44 3d
       -0.02161443 0.03250561 0.035811033 0.048061416
0000f0 cc 19 9f bc 63 52 a3 3d 1c 3e 02 3d 62 8b 23 bd
       -0.01942148 0.079746984 0.031797513 -0.039927848
000100 52 64 10 bd b6 e2 3f 3c f1 3e 69 3c 39 cf 20 bd
       -0.035251923 0.011711767 0.014236198 -0.039260123
000110 b9 7d e5 bd 22 54 0c be 0b 25 61 3b 61 e4 c3 3c
       -0.1120562 -0.13703969 0.0034354355 0.02391261
000120 33 7c 10 3c d5 32 ce bd 93 35 8d bd 76 87 f8 bc
       0.008818674 -0.10068289 -0.06894984 -0.03033803
000130 7c 25 4a bd 23 fc ae bc 42 77 84 3d fc 56 6f bc
       -0.049352154 -0.021360463 0.06468059 -0.014608141
000140 33 b6 8b 3c 85 19 7d bb 99 60 94 bd 71 c2 48 bc
       0.017054653 -0.0038619947 -0.07244987 -0.01225339
000150 35 fe 53 3d 48 f5 90 3d eb 81 59 bb 6e f0 cc 3c
       0.051756103 0.07078034 -0.003318901 0.02501699
000160 72 28 2d bd 53 f9 b7 bc 81 92 f0 bd 82 7c b3 3d
       -0.0422749 -0.022457754 -0.117466934 0.08763982
000170 c8 25 38 3d 2c ad d9 bc 05 39 8d 3d e8 5b 6a 3d
       0.044957906 -0.026571833 0.06895641 0.057216555
000180 0f 0e bf 3d c2 84 ed bc 2b 96 1e bc c6 b8 36 3d
       0.09328853 -0.028993968 -0.0096793575 0.044609807
000190 14 e3 62 3c a7 74 34 bd 19 5c 48 bb 1b 00 bd 3c
       0.013848085 -0.04405656 -0.0030572473 0.02307134
0001a0 cc 23 4b bd 50 9c b2 3c 66 b8 77 3c 42 21 3b bd
       -0.049594685 0.021803051 0.015119648 -0.045686014
0001b0 10 2b 1d 3c 62 fa 32 bd 00 34 cf bc 0f 9b 5b bd
       0.009592786 -0.043695815 -0.02529335 -0.053614672
0001c0 a5 39 33 bd c3 62 2e 3d f8 59 05 bd 43 19 0c 3d
       -0.043756146 0.042574655 -0.032556504 0.03420378
0001d0 9b d2 41 bd 8b 44 4e 3c 12 8c 49 3c 78 2c f5 3c
       -0.04731999 0.012589584 0.012301462 0.02992843
0001e0 9b 0c 37 bb 72 ca 52 bd 76 53 2e 3e 6c 57 7c bd
       -0.0027931097 -0.0514626 0.17024025 -0.06160681
0001f0 d5 d9 be bd 0e b0 dc bd ee 60 38 3c a6 46 06 3d
       -0.09318892 -0.10775767 0.011253579 0.03278222
000200 dd 6e b3 bd b3 07 90 3d e0 a3 d2 bc c8 d1 be bc
       -0.0876138 0.070327185 -0.025712907 -0.02329339
000210 f1 58 29 bd a1 b9 b5 bd ba 2d a6 bc 2c a9 01 bc
       -0.041344587 -0.088732965 -0.020285476 -0.007913869
000220 57 89 5d bc 0c b0 d2 bd 8e e3 2e 3c 1c f5 ce 3c
       -0.013521514 -0.102874845 0.01067437 0.025263362
000230 88 b0 23 3d ab 44 ef 3c df 11 4a bd 04 ee e7 3d
       0.039963275 0.029207548 -0.04933345 0.11324695
000240 de 40 43 3c 8f 6e 08 bc 4c d0 77 3c 40 7a 35 3c
       0.011917321 -0.0083271405 0.015125345 0.01107651
000250 c8 fc a2 bc bc bf e9 bc dc 97 9d 3c 60 98 3f bc
       -0.019895926 -0.028533809 0.019237451 -0.011694044
000260 22 6c 1e bd 7e ff 4c 3d 09 ab 57 3d 15 7d a2 bb
       -0.038677342 0.050048344 0.052653346 -0.0049587586
000270 ab c3 89 bc b7 32 e0 bc 94 34 d5 3d df 08 07 3d
       -0.016816935 -0.027367933 0.10410419 0.032967445
000280 09 56 de b9 75 85 17 3d b5 27 57 3d 01 54 58 3c
       -0.0004240724 0.03699251 0.052528102 0.013203622
000290 1a 18 89 3c fe 52 e4 3c 47 4b 7d bc a7 ef a7 3c
       0.016735125 0.027871605 -0.015459842 0.020500017
0002a0 d6 33 7e bd 22 98 5c 3c a0 44 a8 bc e9 29 93 bd
       -0.062061153 0.013464006 -0.020540535 -0.07185728
0002b0 5e 39 fc bd 6b b5 82 3c 67 b3 2b bd 55 ef b7 3d
       -0.123156294 0.015955647 -0.04191914 0.08981196
0002c0 6d b8 09 3c 60 54 72 3b cc 98 14 3e 20 50 33 3b
       0.008405787 0.003697656 0.14511412 0.002736099
0002d0 e5 34 a4 3b 78 29 49 3d 67 37 2b bc 0b 42 ed bb
       0.0050111883 0.049111813 -0.010450221 -0.007240539
0002e0 8f db 73 bc 5c 82 a5 3c 28 9a 0b 3d 05 b6 56 bc
       -0.01488389 0.020203762 0.03408256 -0.01310492
0002f0 c7 73 56 bd 75 a6 19 3d 3f 47 7b bd 36 95 35 bd
       -0.052356508 0.03751226 -0.061347242 -0.04433175
000300 0b d3 71 3b 1f 20 c7 3d 8f c8 84 3d 15 64 86 bc
       0.0036899473 0.097229235 0.06483566 -0.016405145
000310 b8 3e b4 3c c2 87 9d bb ba 04 0e 3c 42 2b 7e bd
       0.022002563 -0.0048074434 0.008668119 -0.062052973
000320 fb 94 0c 3c 9f fa 0b bd 4a d8 33 3d ed 8b 70 3d
       0.008580442 -0.034174558 0.04390744 0.058727194
000330 94 f4 57 bd 24 ed 75 3d 71 5c e0 3c 66 3d bb 3a
       -0.052723482 0.060040608 0.02738783 0.0014285266
000340 d5 b2 d7 bd ee 98 29 bd 32 80 d1 3c eb 55 9d bb
       -0.105321564 -0.04140561 0.025573824 -0.004801502
000350 9a 32 53 3d db af 01 3d bc 09 fb 3b de 3f 8c 3d
       0.05156193 0.03166185 0.0076610725 0.06848119
000360 e1 32 42 3d b4 dd 1b 3d da 3a 93 3b e9 df 3c bd
       0.047411803 0.03805323 0.0044930996 -0.046111975
000370 ec d0 d3 bc 50 6c 88 bd 00 b7 4b bd 6a f2 c0 bd
       -0.025856458 -0.06661284 -0.04973507 -0.09421237
000380 d2 62 61 bb 48 8e f9 3c d0 c5 17 3d 4d e7 01 3d
       -0.0034391177 0.030463353 0.037053883 0.031714726
000390 e2 13 93 bc 0b 52 59 3d a1 f5 9b bd 2a 67 af bd
       -0.017953817 0.053056758 -0.07615209 -0.08564599
0003a0 ff b2 93 3c 39 a6 30 3d 02 1d c2 3c 79 04 a8 bd
       0.018029688 0.043127272 0.023695473 -0.08203978
0003b0 57 b6 53 3b a0 9f e7 bc 7a ae 75 bd 5a 36 39 3d
       0.0032304728 -0.028274357 -0.059980847 0.04521785
0003c0 c5 5b c2 3b f6 84 ba 3d 2a 5c 25 3d 32 1f 5e 3d
       0.00593135 0.091073915 0.040371098 0.05422897
0003d0 f6 14 5b 3c fe 92 92 3d f4 70 71 bd 7a 58 4d 3d
       0.013371697 0.07156943 -0.05894561 0.050133206
0003e0 8b f9 87 3d d2 20 99 bb af 01 8c bd a6 c3 90 3d
       0.066393934 -0.004673102 -0.068362586 0.07068567
0003f0 7b c3 7d 3d 1b 3a b2 3d df e0 6b bd b6 ef 2e 3d
       0.061954003 0.08702489 -0.0575875 0.042709075

Fd1da27LSTM.bias_ih_l0 f4 [600]
000000 43 65 e4 bc 51 50 24 bd 89 86 a1 bc 55 17 fd bc
       -0.027880317 -0.04011566 -0.019717472 -0.030894915
000010 e0 dc 71 bc e4 eb c7 bc cf 3f 41 bd e8 a3 a2 39
       -0.014762133 -0.024404474 -0.047179993 0.00031021168
000020 99 10 bb bb fd 85 1d bd 46 73 02 3d ba ba 27 3b
       -0.0057087657 -0.03845786 0.031848215 0.0025593475
000030 4c 7e 97 bc 3b 8d eb bc 85 25 9e 3c 92 97 03 3c
       -0.01849284 -0.028753867 0.019305 0.008031743
000040 1d 70 18 bc f2 d2 3b bc c3 ac 46 3d d2 40 c5 bb
       -0.009304074 -0.0114638675 0.048504602 -0.00601969
000050 74 3d 0b 3d a1 93 40 bc 55 e2 90 3b 5f dd 4d 3c
       0.033994153 -0.0117539475 0.004421512 0.012564986
000060 46 f3 fe bc 2b cf 27 bd 5d e5 49 bc b2 8e 60 bb
       -0.031121861 -0.040969055 -0.012322751 -0.003426474
000070 54 26 55 bc b2 de c1 bd 7a c6 cf bd f2 97 74 3a
       -0.013009626 -0.09466304 -0.10145278 0.0009330503
000080 d2 18 39 bd 79 40 46 bd a1 22 91 3c 96 3b 11 bd
       -0.045189686 -0.04840133 0.017716708 -0.035457216
000090 44 1f 04 3c c6 39 75 bd fb 53 b0 3c 3e 96 13 3d
       0.008064095 -0.05986955 0.02152442 0.036031954
0000a0 41 10 ce bc 74 5f ac 3c e9 0b 91 bc 37 a2 ba bc
       -0.025154235 0.02104161 -0.017705875 -0.022782428
0000b0 08 09 40 bd bb 5c 59 bd 32 ba a6 bc c7 b8 d3 bb
       -0.046883613 -0.05306695 -0.020352457 -0.006461236
0000c0 3c 7f 2c 3c 21 d5 21 bc 46 03 ac bc 66 19 17 ba
       0.010528382 -0.009877474 -0.020997655 -0.00057639775
0000d0 2d 05 f9 3a d7 bc 93 bd 20 ed 13 bc 83 dd cb bc
       0.0018998735 -0.07213753 -0.009028703 -0.024885898
0000e0 f3 e7 45 bc 11 8c ac 3c bd 1e 21 bc 37 ca 75 bd
       -0.012079227 0.021062883 -0.009833989 -0.0600073
0000f0 35 66 3d bc 78 11 21 bb bf db 45 3c 1d eb 68 3c
       -0.011560013 -0.0024577063 0.012076317 0.014216212
000100 4b 84 84 bc 92 f2 58 3b bc e8 cb bc 3a 64 da bd
       -0.016176363 0.0033103568 -0.02489125 -0.10663648
000110 f2 03 3c 3c 63 e3 cb bd 20 5d 31 bc 51 8c 5a bb
       0.01147555 -0.0995548 -0.010825425 -0.0033347795
000120 52 31 2c bd 38 93 56 bd 17 b3 f2 bc 83 b8 2e 3c
       -0.042039223 -0.052386492 -0.029626412 0.010664108
000130 4e a3 94 bd 19 94 90 bc 93 50 4a bc 7f 5a 36 bd
       -0.072577104 -0.017648743 -0.012348312 -0.044519898
000140 e1 24 03 bc b4 17 45 bd f8 21 10 3a fc 5f 51 bc
       -0.008004398 -0.04811831 0.0005498226 -0.012779232
000150 90 61 2c 3c 74 f4 72 bd 96 05 d6 bc fd 96 a3 bc
       0.010521308 -0.05931516 -0.02612571 -0.019969458
000160 0c ee f1 bb e1 40 3f bd 1c 27 8f bb 02 83 0f bd
       -0.0073831137 -0.046692733 -0.004368676 -0.03503705
000170 d0 b2 13 3d 25 b3 87 bc 65 75 7a bd da 6b 19 bd
       0.0360592 -0.016564915 -0.061147112 -0.03745637
000180 a2 cb 4d bd 43 d0 83 bb 8a ff 55 3c ad 82 03 bd
       -0.050243028 -0.0040226295 0.013061414 -0.032107044
000190 75 e6 19 3d ab a3 16 3d dc 66 8c 3b 97 e6 16 bc
       0.037573297 0.03677718 0.0042847227 -0.00921025
0001a0 6b a4 07 bd ac fe 44 bc ee 81 1a bb 13 3c 9f bd
       -0.033115786 -0.012023609 -0.002357598 -0.0777513
0001b0 a8 4c ec bc 06 52 95 3d 65 de 81 3b 5a c7 86 bc
       -0.028845146 0.07291035 0.003963279 -0.01645248
0001c0 bd 5e f1 bc 7f 7e 20 bd ee e4 13 3b bf 14 31 3b
       -0.02946412 -0.039183136 0.0022566873 0.0027020422
0001d0 cc 60 35 3c 78 ff b8 3c b9 cf 02 ba f6 26 19 bc
       0.011070441 0.022582754 -0.00049900595 -0.009347668
0001e0 be e6 6a 3c b0 d5 e4 bc dd 4a 09 3d 0e fd 34 3d
       0.01433724 -0.027933925 0.03351866 0.044186644
0001f0 b4 b7 b4 bc aa 25 00 bd 93 0d 91 bc 67 44 75 bc
       -0.022060253 -0.03128592 -0.017706668 -0.014969922
000200 7c ae bd 3c f5 e5 1d bb 28 88 b4 bb 59 2f 3e 3d
       0.02315449 -0.0024093364 -0.005509395 0.046431873
000210 6a 36 71 3c ac 1b b9 3c 99 92 5c bd 29 fc 16 bd
       0.014722446 0.022596203 -0.053850744 -0.036861572
000220 d7 86 a5 bc 8c 55 fa 3c b4 0e a0 3c cd 7c 77 bc
       -0.020205898 0.03055837 0.019538261 -0.015105438
000230 9a eb 8c bc 91 3e 98 3c d8 d7 92 3b dc 5b 13 3d
       -0.017202187 0.018584521 0.004481297 0.035976276
000240 8d 51 8b bc 7d fb 11 bd f9 86 1f 3c 91 d6 2c bc
       -0.01700666 -0.03564023 0.00973677 -0.0105492035
000250 c7 b6 21 bc 0e 0f 15 3c 76 a7 70 3b c2 fa 77 3d
       -0.009870238 0.009097828 0.0036720908 0.060541876
000260 d1 34 05 3d 69 a1 fb 3d c6 a8 67 bc f9 20 41 3c
       0.032521073 0.12286646 -0.01413936 0.011787646
000270 3b e2 a2 3b 2b b5 8b 3c 61 29 07 3d f2 be 7f bd
       0.0049708164 0.017054161 0.032998446 -0.06243796
000280 e9 04 77 3c 95 27 48 3d d8 05 0d 3d 75 32 4d ba
       0.015076854 0.048865873 0.0344294 -0.0007827648
000290 49 cb 83 bc 61 d2 e8 bc 63 0d 0a bd 09 d0 0a 3c
       -0.016088145 -0.028420629 -0.033704173 0.008472451
0002a0 3c 1c bf 3d c5 89 62 3c ec 6e 16 3c 8b d4 5b 3d
       0.09331557 0.013826792 0.009181719 0.053669494
0002b0 e1 f7 b3 bb e7 6f c6 bc 75 d2 c4 3d 68 60 af 3b
       -0.005492196 -0.024223281 0.09610454 0.0053520687
0002c0 d7 b3 43 bc 68 8f b0 3d f6 ad 7e 3d 97 86 ba 3d
       -0.011944733 0.086211026 0.06217762 0.09107702
0002d0 e9 d8 71 3e 1b 46 86 3d 92 7d 55 3d e3 a6 e1 3c
       0.23617901 0.0655634 0.052121706 0.027545398
0002e0 4a 94 3e 3c 43 ef b1 bc ad 2a e4 b9 40 f7 02 3e
       0.011632035 -0.021720534 -0.00043519345 0.12789631
0002f0 d4 82 ee 3d c9 c0 21 bc da e8 57 b8 36 ec 23 bd
       0.11646047 -0.009872624 -5.1476854e-05 -0.04002019
000300 e8 cc 83 3d 91 a6 55 3d bf ab 28 bc de 2d 5f 3d
       0.06435567 0.052160803 -0.010294854 0.0544871
000310 af ba 2c bc 04 5d 8d 3d 5a 73 19 bd fa 0c 48 3d
       -0.010542556 0.06902507 -0.037463523 0.0488405
000320 0e 35 03 bd b7 4e 2f 3d 46 3b 3f bc eb 52 fe 3c
       -0.03203302 0.042799678 -0.011671847 0.031045398
000330 d9 9d e1 3c 71 b5 41 bb b8 51 0b bc 6f 2a 8f bc
       0.027541088 -0.002955761 -0.00850337 -0.017476289
000340 77 23 87 bc 3b 6c 23 3e ab 0a 82 b9 36 fd 82 38
       -0.016496403 0.15959255 -0.0002480348 6.246047e-05
000350 e0 20 f4 3c 78 ff d2 3a a7 c8 b1 bb 3e f4 90 bc
       0.029800832 0.0016097864 -0.005425531 -0.017694589
000360 25 0d bd 3c d7 bb 02 3e 46 5a 8e 3d b3 4f 52 3e
       0.023077557 0.12766968 0.06950812 0.20538215
000370 59 c2 40 bc 6d d6 1c bc f2 81 04 3d c8 fb 99 3c
       -0.011765086 -0.009572607 0.032350488 0.018796816
000380 0b 62 8a 3d 41 b0 03 3c 91 fc 0a 3d 93 d2 38 bc
       0.067569815 0.008037628 0.033932272 -0.011280674
000390 e5 ef 4d 3d b8 d7 90 ba 06 96 ef 3c bb c0 24 3d
       0.05027761 -0.0011050617 0.029246341 0.040222865
0003a0 c2 e8 9f bc fb 71 6c 3d 1e 7f 39 3c d1 33 92 bc
       -0.019520167 0.057725888 0.011321811 -0.017846974
0003b0 fd 63 5a 3c 32 66 99 bc 63 98 9f 3c c7 d0 93 bb
       0.013329503 -0.018725488 0.019481843 -0.004510972
0003c0 ee 3e fa 3d 04 1b 8b 3d d7 14 74 3d 3f e8 52 3c
       0.12219034 0.06792262 0.059590187 0.012872755
0003d0 4a 43 d4 3d d7 16 c1 3b e8 d8 1a 3e c2 0f ec bc
       0.10364397 0.0058926153 0.15121806 -0.028816108
0003e0 7d 2a 65 bc b0 71 8e 3d 1e 77 65 3d 68 a0 04 3b
       -0.013987181 0.06955278 0.056021802 0.002023721
0003f0 fd 3c 66 bd 96 15 68 bc 10 0b 87 3d 2d b1 5e bd
       -0.056210507 -0.014165303 0.06593907 -0.054368187

Fd1da27LSTM.bias_hh_l0 f4 [600]
000000 0e 01 01 bd b1 38 e7 bb 2c bd 6d bc 25 d9 46 3a
       -0.031495146 -0.0070563187 -0.014510434 0.00075854576
000010 e5 bc 8d bc 99 04 cc bc 28 9e a1 bc 2e 65 27 bc
       -0.017301986 -0.024904536 -0.019728735 -0.010216994
000020 e4 11 9f bc 18 01 0b bd fb a7 9f 3c 42 88 61 ba
       -0.01941771 -0.03393659 0.019489279 -0.0008603373
000030 41 1f d4 3c 61 0d ea bc f3 ce 78 3c 97 8d 03 3c
       0.02589381 -0.028570833 0.015186059 0.008029363
000040 e0 4d 3a bc 31 bc 27 bc cf 92 5d 3d 02 76 c0 3b
       -0.011371106 -0.010237739 0.054095086 0.0058734426
000050 05 31 02 bd 82 c8 8c bd 42 b9 ac 3a e5 ec 73 3c
       -0.03178503 -0.06874181 0.001317777 0.014888023
000060 99 33 88 bd 97 5d 1b bc 74 8e ab 3c 04 8e 52 3d
       -0.066504665 -0.009482763 0.02094195 0.051404968
000070 da dd c8 bc df 80 75 bd 00 01 1d be b4 e0 cc bb
       -0.02451985 -0.059937354 -0.15332413 -0.0062523726
000080 b5 4d d6 bc 86 0b 34 bd 8d 73 0e 3d 3d ac 04 bd
       -0.0261601 -0.043956302 0.034778167 -0.03239082
000090 98 60 a3 3c 3e 67 ba bd 92 99 48 bd 93 e4 12 3d
       0.01994352 -0.09101723 -0.04897458 0.035862517
0000a0 ac 63 cd bc 28 0f af 3c 60 7f f5 bc 96 69 d9 bb
       -0.025071941 0.021369532 -0.029967964 -0.0066349013
0000b0 7e 56 1c bd e0 7c 4c bd cc c4 05 bd 79 77 85 bc
       -0.038168423 -0.049923778 -0.032658383 -0.01629232
0000c0 69 a5 49 bc f1 f1 d0 3b e0 d6 87 bc 0b b8 29 bd
       -0.012307503 0.006376498 -0.016581953 -0.041435283
0000d0 05 a1 c8 3a bf 3a 39 bd f8 39 2c bc 02 90 78 bc
       0.0015306777 -0.04522204 -0.010511868 -0.015171053
0000e0 f6 bf 6f bc 30 48 d4 bc 33 33 77 bc 9c 04 cc bd
       -0.014633169 -0.025913328 -0.01508789 -0.09961817
0000f0 ae 97 25 bc 7c 67 30 39 86 f0 42 3c 7f 8a 70 3c
       -0.010106964 0.00016823219 0.011898166 0.014681458
000100 4a 15 37 bc 99 20 c8 bb 24 ee d6 bc 89 4d 1d bd
       -0.011174509 -0.0061074016 -0.026236601 -0.03840402
000110 b2 01 ad bc 38 a6 64 bd 74 e3 d9 bb d8 f2 0d bb
       -0.021118972 -0.05582258 -0.006649429 -0.0021659639
000120 1b 99 23 bd 72 ba b5 3b 75 6c b4 3c 87 6c 13 3c
       -0.039940935 0.0055459077 0.022024373 0.008998043
000130 81 6a 9b bd 9f ea bd bb 20 6d ae bb b4 b8 e7 bc
       -0.075886734 -0.0057957913 -0.0053230673 -0.028286316
000140 f5 fb 24 ba 7b 72 ad bc 1a b0 63 3b 92 79 73 bc
       -0.0006293648 -0.021172753 0.0034742416 -0.014860528
000150 f9 1c e7 3c 66 6f 0f bd c1 35 e2 3b 7b e6 8b bc
       0.028212057 -0.035018347 0.0069033806 -0.017077675
000160 e2 5b 0a bc 52 4d bb bc 74 32 68 bd 83 2c 90 bc
       -0.008444758 -0.022864018 -0.05668874 -0.01759935
000170 52 ca 80 3c ed c7 16 bc 92 4e 6c bd ca b3 4f bd
       0.015721474 -0.009202939 -0.057692118 -0.05070857
000180 07 ef a6 bd cb 5a 1e bc 84 18 80 3c 5d 39 3d bd
       -0.081510596 -0.009665201 0.01563669 -0.046197284
000190 6e 52 2d 3d f2 b2 14 3d 14 93 8d 3c b1 8b 29 3c
       0.04231494 0.036303468 0.017282046 0.010348246
0001a0 1a 2d d2 bb 29 f9 b4 bb b6 c1 01 3c 9f 0a f6 bc
       -0.006414068 -0.0055228663 0.007919719 -0.030034361
0001b0 c7 9b 01 bd 7f 2a 86 3d 77 c6 93 bb 83 95 35 bd
       -0.0316427 0.06551074 -0.004509743 -0.04433204
0001c0 d4 73 b7 bc 27 ea 30 bd 3e fd 86 b9 3d 39 75 3c
       -0.022394098 -0.043192055 -0.00025747152 0.01496726
0001d0 fd 25 e3 3b 47 b4 06 3c 16 74 16 bc 9b c5 c6 bc
       0.006932019 0.008221692 -0.0091829505 -0.024264148
0001e0 e2 41 f6 3b e3 9a 21 bc f7 8c af 3c b6 66 9b bb
       0.007515178 -0.009863588 0.021429522 -0.0047424687
0001f0 06 63 65 bd 18 57 0d bc 14 3c 1d bd 97 82 89 3b
       -0.05600264 -0.008626722 -0.038387373 0.0041964757
000200 66 cd ce bb 56 e0 e2 bc 2c 3d eb bc 4a c0 60 3c
       -0.0063111065 -0.027694862 -0.028715692 0.01371772
000210 47 2c ed bb 0c ea 31 bc 17 f1 11 bd 3f 85 65 bd
       -0.0072379443 -0.010859024 -0.03563031 -0.056035277
000220 e1 62 39 bc cb 97 0f 3d 8d 0e fb 3c b5 2b 90 bc
       -0.0113150785 0.03505687 0.030646587 -0.017598966
000230 fd 9a 93 bc 43 52 76 3c 17 dd 4f 3b be 18 4b bc
       -0.01801824 0.015034261 0.0031717473 -0.012396036
000240 2a 35 c2 bc 0f 07 e1 bc 49 a4 16 b9 af 0e 3c bc
       -0.023706991 -0.027469186 -0.00014366316 -0.01147811
000250 26 d6 8e 3b f8 c8 34 3c 0f 6e 13 bc 70 ef 98 3c
       0.0043590246 0.011034243 -0.008998408 0.01866886
000260 91 7b b8 3a a8 5b 0f 3e 92 90 1e bb ac f4 98 3c
       0.0014074912 0.13999808 -0.0024195057 0.018671356
000270 77 f8 68 3c 7c 25 04 3a 55 c9 0e 3d 6f 9d 60 bc
       0.014219395 0.0005040986 0.034859974 -0.01370941
000280 44 8b 3b bb 42 da 68 3d 16 e4 b9 bc 7a ff ca bc
       -0.0028616944 0.056848772 -0.022691768 -0.024780024
000290 63 59 3b bc 82 a2 ee bc 8b d8 df bc 80 c7 ec bb
       -0.011434886 -0.029130224 -0.027324935 -0.0072259307
0002a0 fa 8e 54 3d 5e ad a7 3c 03 e7 35 bb aa c5 d0 3d
       0.051894166 0.02046841 -0.0027756102 0.101939514
0002b0 2a 5f 01 3c 08 10 91 bb a2 33 72 3d a3 c7 c9 3c
       0.007896224 -0.00442696 0.059131272 0.024631327
0002c0 6a 1a fc bc f0 72 d4 3d 46 cc 25 3d f3 1c f3 3d
       -0.030774314 0.10373485 0.040478013 0.11870756
0002d0 a3 36 32 3e ff 3d 2f 3d 51 ba 6d 3c 02 8c 43 3d
       0.17403655 0.042783733 0.014509753 0.047740944
0002e0 39 35 4e 3d c0 0e 7c bc 63 28 71 ba 1a 97 94 3d
       0.050343726 -0.015384376 -0.00091994385 0.07255383
0002f0 c0 21 fd 3d bc 34 0e bc 73 8c ab bb cf 8a 11 bd
       0.12359953 -0.008679565 -0.0052352487 -0.03553277
000300 b3 3b 17 3d c1 2f eb 3d 56 17 98 3c c1 85 80 3c
       0.036922168 0.11483718 0.018565815 0.015688779
000310 6e b6 b8 3c 68 8a a4 3d 69 51 0c bd 54 d3 48 3d
       0.022547927 0.080342114 -0.034257326 0.049029663
000320 c2 f8 44 bd b3 1e 8f 3d 7f 77 60 bc 45 f8 12 bd
       -0.048088796 0.06988277 -0.013700365 -0.0358813
000330 fc d7 23 3d 9d 15 f3 bb 2a e8 34 3b 80 9c fc 3b
       0.0400009 -0.007418348 0.00276042 0.007709086
000340 6d 1f 45 bc 9d a4 e1 3d 57 a1 a6 bb 96 f2 14 3c
       -0.012031418 0.110177256 -0.005085151 0.00909104
000350 7e eb b5 3c 5c a2 03 3b eb 63 5b 3c 38 8c 85 bc
       0.022207018 0.0020085787 0.0133905215 -0.016302213
000360 d8 7d 90 bc 6c 4a 0c 3e eb 50 c8 3d 76 ee 03 3e
       -0.017638132 0.13700265 0.09781059 0.12883934
000370 49 12 28 bc 47 29 6f bc 56 52 3c bc 9b 88 2a bc
       -0.010258266 -0.014597244 -0.01149424 -0.010408546
000380 cc 20 8b 3d ba e7 1d 3b d3 c3 25 3c 3c 2e 96 3c
       0.06793365 0.0024094419 0.010117489 0.018332593
000390 f4 bb 6e 3d 57 8f b4 3c 09 e9 b6 3c 55 43 8f 3d
       0.058284715 0.022041006 0.022327917 0.069952644
0003a0 59 48 9c bc ca 87 5e 3d 8c 84 2a bc f9 f4 3e 3a
       -0.019077467 0.054328717 -0.010407578 0.00072844286
0003b0 ba f9 23 3d 06 c5 af bc 3f 5c fa 3c 5d b3 00 3d
       0.04003308 -0.021456253 0.030561564 0.031421054
0003c0 6e d6 d8 3d 6c aa 95 3d 7e 49 71 3d 1e c9 07 3c
       0.10587774 0.07307896 0.05890798 0.008287696
0003d0 a6 17 1d 3d 66 c5 02 3d 10 24 75 3d b5 3f 18 bd
       0.03835263 0.031926535 0.059848845 -0.03717013
0003e0 3a d0 d7 bc c4 af 57 3d bd 9e be 3c 7c 90 28 3d
       -0.026344407 0.052657858 0.023269052 0.041153416
0003f0 59 23 63 bd 1e a4 a0 bc 05 92 f5 3b e6 03 43 bd
       -0.055453632 -0.019609507 0.0074942135 -0.04761114

ClassificationFd1da27.0.weight f4 [150]
000000 7f b9 84 3f 95 35 75 3f 78 81 98 3f aa 06 6a 3f
       1.0369109 0.95784885 1.1914511 0.9141642
000010 0c 2e 44 3f fd 1f 88 3f 6f 32 8e 3f 76 8e 8a 3f
       0.7663276 1.0634762 1.1109141 1.0824726
000020 50 6b 90 3f 86 0c 86 3f a5 58 88 3f a4 27 12 3f
       1.1282749 1.0472572 1.0652052 0.57091737
000030 c1 17 42 3f e7 ee 8b 3f c5 25 96 3f cc 44 90 3f
       0.75817496 1.0932282 1.1730276 1.1270995
000040 88 e6 92 3f 45 12 8e 3f 51 d8 68 3f 9d 88 68 3f
       1.1476603 1.1099325 0.9095507 0.90833455
000050 eb ad 82 3f dc e3 82 3f 8a eb 8d 3f 98 b5 9a 3f
       1.0209326 1.0225787 1.1087506 1.2086668
000060 9c b2 89 3f 69 ff 90 3f b3 50 a0 3f e0 7b 14 3f
       1.0757632 1.1327945 1.2524627 0.5800152
000070 9b bb 94 3f b9 75 62 3f 81 3a 8d 3f dd 30 95 3f
       1.1619753 0.8846088 1.1033479 1.1655537
000080 5d c9 8a 3f 32 50 8e 3f 77 1d 8f 3f 73 71 95 3f
       1.0842701 1.1118224 1.1180867 1.1675247
000090 af 30 8b 3f e3 60 69 3f e9 1b 0f 3f 83 a9 8a 3f
       1.0874232 0.9116346 0.5590196 1.0832981
0000a0 14 0d 87 3f 20 50 87 3f eb 6e 95 3f a9 0e 8a 3f
       1.0550866 1.0571327 1.1674474 1.0785724
0000b0 ea 05 8b 3f 73 c2 95 3f 48 0a 28 3f 52 c1 99 3f
       1.086118 1.1699966 0.6564069 1.2012122
0000c0 02 22 8f 3f 6a f7 86 3f 63 2e 93 3f 56 56 84 3f
       1.1182253 1.0544255 1.1498531 1.0338848
0000d0 e7 c5 91 3f 35 81 87 3f bd 10 75 3f d6 af 86 3f
       1.138852 1.0586306 0.95728666 1.0522411
0000e0 3b 25 89 3f 0b 4c 7b 3f bc ac 75 3f 41 9e 90 3f
       1.0714487 0.9816291 0.95966697 1.1298295
0000f0 ae 70 8f 3f ec 2d 90 3f 73 5d 87 3f 5c 02 60 3f
       1.1206262 1.1264014 1.0575393 0.875036
000100 41 ea 8f 3f ca ea 80 3f d4 77 96 3f 3b ff 8c 3f
       1.1243364 1.0071652 1.1755319 1.101539
000110 6c 2b 7d 3f a4 9b 4f 3f bc ca 7b 3f a4 d6 9a 3f
       0.9889438 0.81096864 0.98356223 1.2096753
000120 76 ef 65 3f 1d 02 75 3f 58 70 8b 3f 31 41 90 3f
       0.89818513 0.9570635 1.089366 1.1269895
000130 46 ff 88 3f 6f 21 9a 3f 8f cf 82 3f 0f e3 92 3f
       1.0702903 1.2041453 1.0219592 1.1475543
000140 56 7b 84 3f 31 ba 7c 3f 49 f1 86 3f 9b f9 98 3f
       1.0350139 0.98721606 1.0542384 1.1951174
000150 4f d9 f3 3e 36 a2 78 3f 66 4a 93 3f 54 7f 8e 3f
       0.4762673 0.97122514 1.150708 1.1132607
000160 6f 62 8f 3f f3 a2 8b 3f 30 a3 7f 3f 5d d1 d1 3e
       1.1201915 1.0909103 0.9985838 0.40980044
000170 9a 73 75 3f a0 02 50 3f d7 6e 8c 3f dd 01 8a 3f
       0.9587952 0.81254005 1.0971326 1.0781819
000180 a3 ff 47 3f e8 7a 94 3f 51 bd 97 3f 16 a7 8a 3f
       0.78124446 1.1600008 1.185465 1.083224
000190 61 42 90 3f be e5 9a 3f 90 47 9e 3f 8a 47 76 3f
       1.1270257 1.2101362 1.2365589 0.9620291
0001a0 74 de 86 3f b2 ca 3e 3f 63 90 8e 3f 05 2c 3c 3f
       1.0536637 0.7452804 1.1137813 0.7350467
0001b0 9f 4e 95 3f f5 e9 9c 3f d1 c9 97 3f 14 17 80 3f
       1.1664618 1.2258898 1.1858464 1.0007043
0001c0 6b db 9e 3f 1c 66 07 3f f9 15 87 3f 9e 30 71 3f
       1.2410711 0.5289018 1.055358 0.9421481
0001d0 95 7f 8d 3f 6b 0a 96 3f 64 32 9a 3f 96 fc 96 3e
       1.105456 1.1721929 1.2046628 0.29489583
0001e0 12 d7 8f 3f 4b c3 86 3f 80 a3 8b 3f d0 f0 78 3f
       1.1237509 1.0528349 1.0909271 0.9724245
0001f0 21 c8 90 3f 3d 5c 7a 3f 2b 0f 8b 3f d2 57 8a 3f
       1.1311074 0.97796994 1.0864004 1.0808051
000200 3a f6 92 3f fa 78 81 3f 0a 71 27 3f c8 a1 93 3f
       1.1481392 1.0115044 0.6540686 1.1533747
000210 db 40 89 3f 8a 5c 8f 3f 29 d6 7c 3f 03 cd 8d 3f
       1.0722917 1.1200116 0.9876428 1.107819
000220 14 b2 80 3f df 10 93 3f 88 ab 93 3f de 21 7b 3f
       1.0054345 1.1489524 1.1536722 0.9809855
000230 4e 5f 8b 3f 5f 84 93 3f 51 02 96 3f 5e fa 28 3f
       1.088846 1.1524771 1.1719457 0.6600703
000240 e4 f4 15 3f 82 f9 30 3f 68 da 8c 3f 1d e2 9f 3f
       0.585768 0.6913072 1.1004152 1.2490879
000250 96 62 86 3f 63 0f 9b 3f
       1.0498836 1.2114071

ClassificationFd1da27.0.bias f4 [150]
000000 f5 a5 7b 3c 60 e5 a0 bb 5a 2c f8 bc c2 e0 8b 3c
       0.015359391 -0.004910156 -0.030294586 0.017074946
000010 a0 2b 8f bc 91 bd 13 bc f8 ff 8f bc 6c ce ed bb
       -0.017476857 -0.009017364 -0.01757811 -0.0072572734
000020 22 81 73 3d 60 85 cb 3c 82 f1 29 3d f6 9b e5 ba
       0.059449323 0.024843872 0.041490085 -0.0017517793
000030 c4 1d 7d bc 98 6b 47 3c 91 46 c6 3d 39 a9 9d 3c
       -0.015448991 0.012171648 0.09681428 0.01924573
000040 d4 2b 4d 3d 20 74 52 bc 32 eb 85 3b 36 ee 9e 3c
       0.050090626 -0.012845069 0.0040868754 0.019400697
000050 bb b7 f9 3c 70 88 cd 3b a3 1a 7a bd 19 4a fc 3c
       0.030483117 0.006272368 -0.06106056 0.030797051
000060 2a ae 71 3d 3c 84 82 bc b1 cd 25 3d 78 75 cd 3c
       0.059003986 -0.015932195 0.040479366 0.025080428
000070 6d 51 34 3d ce 36 f3 3c 46 8d a2 3d 52 95 ce bc
       0.044022966 0.029689219 0.07937102 -0.025217686
000080 dc 38 9d 3c f5 6c e3 bb 91 91 7e 3c 45 06 a7 3c
       0.019192152 -0.006940479 0.015537635 0.020388732
000090 0f 64 09 3d 58 be a2 3b a7 8f c7 3b 72 3d 29 3c
       0.03354269 0.0049665384 0.0060901227 0.010329591
0000a0 8f 70 b1 bc 5e 57 71 bb 32 c3 48 3c e4 1d fb 3c
       -0.021660117 -0.0036825757 0.012253569 0.030653901
0000b0 8a 4d 13 3d a7 b3 aa 3c 08 60 7d b9 c9 e3 4b 3b
       0.03596262 0.020837618 -0.00024163735 0.0031111112
0000c0 f0 f2 89 3c 2f d7 32 3d cf a5 1d bb 39 13 30 3d
       0.016839474 0.043662246 -0.0024055128 0.042987082
0000d0 cd 20 45 bc 2d 2d 90 3c 01 33 f7 3c cf af 45 3c
       -0.012031746 0.017599666 0.030175688 0.012065842
0000e0 c4 72 78 3d d7 33 60 3c cf 13 d3 bc 9e 58 1b 3d
       0.060656324 0.013684235 -0.025766281 0.03792631
0000f0 dc f5 c9 3c 76 0c 30 bc d5 3c 9f bb cd e8 09 3d
       0.024653368 -0.010745158 -0.0048595467 0.03366928
000100 3e c2 08 3d c7 4d 55 3d ce 4a 16 3c f8 ad f5 3c
       0.03338837 0.052076127 0.009173108 0.029990181
000110 1f ac 68 bc 06 2f cf bc e6 85 c6 bb 19 23 2d bc
       -0.014201193 -0.025290977 -0.0060584424 -0.01056745
000120 8c 30 fc 3c 75 ae af 3b 2e 48 e7 bc 55 72 c1 ba
       0.030784868 0.005361373 -0.02823266 -0.0014758805
000130 b2 22 95 3d 15 4b d6 3c a9 73 00 3c 20 de 96 3c
       0.07282008 0.026158849 0.0078400755 0.018416464
000140 8a 2f de bc 07 9c aa bc 36 0b 0f 3d 26 34 02 3d
       -0.027122278 -0.020826353 0.0349228 0.031788014
000150 0d d7 29 bb 90 63 66 bb bc aa b6 3c 50 1b 53 bd
       -0.0025915534 -0.0035154559 0.02229821 -0.05153972
000160 df 88 3f bc d2 86 0d bb a5 78 1d 3d 8d 86 cf bb
       -0.011690347 -0.0021595252 0.038445134 -0.0063331784
000170 9e 79 b8 bc cf e2 6e bc 6e 58 d0 3c 51 35 1a 3d
       -0.02251893 -0.014580443 0.025432792 0.037648503
000180 77 18 fe 3c 21 11 c9 3c af bc 79 3d 99 31 ed 3c
       0.031017525 0.0245443 0.06097096 0.028954314
000190 4f 37 92 bc a8 24 37 3d 3e 5c 4c 3d eb ca 31 3c
       -0.017848639 0.044712692 0.049892657 0.010851602
0001a0 45 09 ad 3c f4 e1 c8 bb 3e 14 dd bc 3e c4 eb 3b
       0.021122584 -0.0061304513 -0.026987191 0.0071950248
0001b0 ac 46 eb 3c 82 00 a3 3c f5 98 29 bc e0 26 84 bc
       0.028720222 0.019897703 -0.010351409 -0.016131818
0001c0 fc 84 48 bc 28 7f 80 bb 61 ad 9f 3d cf 93 c1 bc
       -0.012238737 -0.003921408 0.07796741 -0.023630051
0001d0 fc 2c e0 3c a9 5e 6a 3c e4 25 1c 3d 18 73 17 39
       0.0273652 0.014304795 0.038122073 0.00014443358
0001e0 53 ac 25 3d b0 82 cb 3c 17 b9 15 bb 52 24 14 38
       0.040447544 0.02484259 -0.0022845918 3.5319776e-05
0001f0 27 36 da 3b 24 40 e9 3a c9 47 50 3c 4b c0 19 3c
       0.0066592875 0.0017795605 0.012712427 0.009384225
000200 37 47 4c 3d 35 ef 13 3c 01 37 74 bb 33 99 1a 3d
       0.049872603 0.009029199 -0.003726423 0.03774376
000210 e4 62 0b ba 3a ec 74 3d 90 a0 4e bc f9 e8 01 3d
       -0.0005317165 0.059795596 -0.012611523 0.03171632
000220 4c 58 97 bc 73 fb 10 3c 96 e3 1f 3d 0a c1 ee 3b
       -0.01847472 0.008849013 0.039035402 0.0072861956
000230 10 81 18 bc 1f cb 91 3c 5c d8 14 3d d9 d3 eb bc
       -0.009308115 0.017797051 0.03633915 -0.02878754
000240 6c f5 1a bc 6d 6d 75 3c 53 a5 61 3c 29 99 d0 3c
       -0.009457927 0.014979702 0.0137723265 0.025463657
000250 9d a6 9c 3c 32 2e 51 bb
       0.019122416 -0.0031918404

ClassificationFd1da27.0.running_mean f4 [150]
000000 f6 72 13 3c 59 5b 95 bd f3 3c d8 3c 5c dc 3e bd
       0.008999577 -0.07292814 0.02639625 -0.04659687
000010 96 02 11 bd 25 8c 0e bd 59 7b 3d 3e cc ea 52 bd
       -0.035402857 -0.03480162 0.18504085 -0.05149345
000020 ed a1 f3 bd d6 01 6f 3d 06 9f 3d bc a6 91 99 bd
       -0.11896119 0.05835136 -0.011573559 -0.07498483
000030 ec bc b5 bd d7 b8 0d 3d 15 cb a6 bb 34 9b 53 3d
       -0.088739246 0.034600105 -0.0050901272 0.051661685
000040 79 78 c9 3d c4 62 58 bc a5 6c 93 be f1 27 a1 bd
       0.098374315 -0.013207141 -0.28793827 -0.07868946
000050 30 c7 90 3e 68 0a 98 3e 6a e8 30 3d 8d 7f cf bc
       0.28276968 0.2969544 0.043190397 -0.025329376
000060 a4 d2 c5 3d c5 8c 13 be 35 8c 79 bc bc 37 a1 be
       0.09659317 -0.14409168 -0.015231182 -0.31487834
000070 7d 7d d4 bc f5 e0 91 3d ae 0f 12 3e 38 e0 82 3d
       -0.025938744 0.07122985 0.14263794 0.063904226
000080 15 ad bc 3d 22 18 93 bb ba be 07 3d 08 d0 65 bb
       0.092127 -0.004488961 0.033140875 -0.0035066623
000090 fc 25 90 bc f1 83 be 3e 4e 79 56 bd 26 79 9a bc
       -0.017596237 0.37210038 -0.05236178 -0.018856596
0000a0 61 70 1e 3c d1 33 34 3d 41 e5 2a 3d 10 d5 c0 be
       0.009670348 0.04399473 0.04172254 -0.37662554
0000b0 f6 01 e1 bc f4 56 5a 3e 87 e2 14 be 24 ae 7c bc
       -0.027466755 0.21322232 -0.14539538 -0.015422378
0000c0 1f 18 76 3d 57 49 02 bd 95 ea 57 bc 44 fa 53 bd
       0.060081597 -0.031808224 -0.013178487 -0.051752344
0000d0 d1 09 a3 bc 12 67 4f 3d 9d d0 32 bd 49 3f 75 bd
       -0.019902142 0.050635405 -0.04365598 -0.059874807
0000e0 64 36 c6 3c 98 2c 21 be 54 67 b2 3d 93 8d bc 3c
       0.024195857 -0.15739667 0.087111145 0.023016727
0000f0 0b 8d d2 3b 1a 3b 7b bc c1 63 a2 bd 93 de 35 3d
       0.006425505 -0.015333915 -0.07929183 0.044401716
000100 75 cc 9a 3c 68 d7 1a bd a0 bb 0b bd 84 3f 01 bd
       0.01889632 -0.037803084 -0.03411448 -0.031554714
000110 cc 9d 9b 3e a4 ec e6 3e cf 9d a0 3c e2 6e 24 3d
       0.30393827 0.45102417 0.019606499 0.04014481
000120 c1 43 ae 3a 80 e4 35 3e 9c ab 76 bc 34 09 bd 3c
       0.0013295339 0.17762947 -0.015055563 0.023075677
000130 9c 1a ca 3d 01 41 7a 3d 92 97 84 bc d6 64 31 bd
       0.098683566 0.06109715 -0.016185556 -0.043309055
000140 b7 f6 e6 bc 6d bc 74 bd 38 6b c8 3c ee be 9b 3c
       -0.028193815 -0.05975001 0.024465188 0.01901194
000150 83 46 5c bd a3 95 e5 bc 51 38 cb 3d 6f d3 c4 bd
       -0.053778183 -0.028025454 0.09922851 -0.0961064
000160 b0 fe 9b bc 58 13 96 3d c0 9f b2 3e 00 25 42 bd
       -0.019042343 0.07327908 0.34887505 -0.047398567
000170 8a 56 8e bd b5 d2 08 bc 5b ac 8e 3c 5d 0a ff bd
       -0.069501 -0.008351018 0.01741617 -0.124531485
000180 4f c5 08 bf 1c c6 9c 3c 7b b1 20 bd 95 e7 e2 3c
       -0.5342607 0.019137435 -0.03923176 0.027698318
000190 76 95 59 3d 16 35 7d bd 94 6d 9a bd 14 df 16 be
       0.053121053 -0.061818205 -0.075404316 -0.14733535
0001a0 ae c4 85 3e 49 75 04 bc d7 67 2a 3c 21 f2 fe 3b
       0.26126617 -0.008084604 0.010400734 0.007780329
0001b0 e4 a0 b1 bc 6e af c5 3d 10 1b 0c bd 70 d1 30 3d
       -0.021683164 0.09652601 -0.034205496 0.043168485
0001c0 1f 87 f4 3c ee d0 91 bd 6e c3 16 bb 4e 1b 00 3c
       0.029849587 -0.07119928 -0.0023004669 0.00781901
0001d0 02 13 2c bd 01 24 02 bc 1f 4f 5e 3e a1 64 5d bd
       -0.042010315 -0.007943154 0.2170987 -0.054051045
0001e0 cb d6 b5 3c bc f8 7e 3d 3e a2 17 be 03 cd 81 3e
       0.022197148 0.06224893 -0.14807984 0.25351724
0001f0 2f 88 78 bc 83 54 2c 3e f9 4a 58 bc a4 a8 aa 3c
       -0.015169187 0.16829114 -0.013201469 0.020832367
000200 0a 1a 08 3e f1 9a 30 be 4b 5b ba bc bb 15 34 3c
       0.13291183 -0.17246605 -0.02274861 0.010991509
000210 e9 3d eb 3d 2b a4 fb 3d f6 3e e2 3d 40 d3 84 3d
       0.11486418 0.12287172 0.11047165 0.06485605
000220 ed 37 93 bd 18 ac e6 3d 51 ee 92 bc c0 52 bf 3b
       -0.07188401 0.11263293 -0.017935904 0.005838722
000230 d8 10 e5 3b 9b 48 6d 3c 0e 0c 95 3c 98 e3 29 bf
       0.0069905333 0.0144826425 0.018194225 -0.66362906
000240 59 48 48 3d df e7 82 bc 63 f3 5d bd 2f 7f 6a bc
       0.04889712 -0.015979705 -0.05418719 -0.0143125495
000250 89 b7 35 3d ba 96 c5 3c
       0.044364486 0.024119724

ClassificationFd1da27.0.running_var f4 [150]
000000 bc 9d 76 39 e5 7c 49 3a 37 2e 97 3a a9 25 ea 39
       0.00023519149 0.0007686152 0.0011534159 0.00044660017
000010 08 49 99 38 50 0a 92 39 5b 15 87 3a 57 9f 70 3a
       7.309212e-05 0.00027854973 0.0010306047 0.0009179017
000020 19 03 d2 3a a1 7e 00 3a c5 c9 96 3a e7 64 b8 3a
       0.0016022652 0.00049016817 0.0011504224 0.0014068157
000030 ea a2 01 3b 16 ee fd 3a 14 6f 7b 3a 7e 3d 16 3b
       0.0019780942 0.0019373323 0.0009591442 0.0022924836
000040 dc 73 e8 39 bb 4e cf 39 0d 0f 81 3c ce 80 03 3a
       0.0004433681 0.00039540775 0.015754247 0.0005016447
000050 50 2d e1 3a 6e 1e b8 3a 74 74 43 3a 7b e5 25 3a
       0.0017179642 0.0014047155 0.00074560125 0.0006328446
000060 f5 ab 92 3a 44 03 28 3a 8d e8 d6 39 8b 32 97 39
       0.0011190163 0.0006409178 0.00040990525 0.00028838622
000070 45 cb a4 3b 31 ff e1 3b ca 58 bb 3c 63 96 2a 3b
       0.0050291144 0.0068968763 0.022869486 0.002602958
000080 81 97 ce 39 25 61 39 39 21 4a b6 3b a0 1c c3 39
       0.0003940426 0.00017679164 0.005563036 0.00037214626
000090 02 2c 48 3b 17 5d 86 3b 4f af da 3b fc ca 5f 3a
       0.0030543809 0.0041004526 0.0066737304 0.0008537022
0000a0 66 5c 42 39 3f 8a 88 3a ac 9b 95 3a d5 8d 4f 3b
       0.00018535703 0.0010417177 0.0011414192 0.0031670232
0000b0 88 65 31 39 0c d3 9b 3a 57 c7 ab 3a ae 19 09 3a
       0.00016917859 0.0011888458 0.0013105673 0.0005229962
0000c0 ce 62 80 3a 68 f2 f1 3a 17 54 fa 38 65 f1 f0 3a
       0.0009795071 0.0018459084 0.00011936592 0.0018382488
0000d0 28 b9 cc 39 31 6c 1d 3a 63 7b 97 3a 67 ed 36 3a
       0.00039047864 0.00060051965 0.0011557158 0.0006978125
0000e0 1b 3c a1 39 6b 75 d2 39 25 1a ca 3a f7 86 0c 3b
       0.00030753095 0.00040141804 0.0015419169 0.002144275
0000f0 d4 98 c5 39 b1 e9 2e 3a 20 5f 0b 3a 4f 5f 4e 3a
       0.00037688634 0.0006672396 0.0005316604 0.00078724785
000100 75 dd 12 3a df 94 a3 39 ae df ab 39 17 21 8c 3b
       0.00056024577 0.000312007 0.00032782316 0.0042764056
000110 b8 b6 c5 3a 6c d0 60 3b 85 33 a0 39 88 6a f9 3a
       0.0015084362 0.0034303917 0.00030555963 0.0019028941
000120 b9 90 e3 39 d2 0a 13 3a 01 ab ca 3a 03 a2 13 3b
       0.0004340464 0.00056092173 0.001546234 0.0022526986
000130 b9 07 21 3a 2d 22 d1 3a 6d 62 0b 3a 54 54 32 3a
       0.00061428134 0.001595562 0.0005317096 0.0006802727
000140 41 94 ac 3a b0 20 9c 3b ea 89 b7 39 1a f8 a4 3a
       0.0013166742 0.004764639 0.00035007234 0.0012586147
000150 67 45 e3 3a a7 15 e2 39 d7 bc d1 39 aa 03 c2 39
       0.0017339409 0.0004312221 0.00040004283 0.00037005293
000160 49 30 55 3a e6 8b 3f 3a ec 76 34 3b a0 c6 a5 3a
       0.00081325 0.0007306918 0.0027536703 0.0012647696
000170 3a e7 dd 3b 3b 7e 45 39 15 e3 04 3b bc 67 a2 39
       0.006771949 0.00018834409 0.0020276953 0.00030976336
000180 0c 5b c7 3a 76 44 05 3a d3 7c 40 3a 23 92 cb 39
       0.0015209629 0.0005083749 0.0007342819 0.00038828058
000190 ee 3e e3 3a 6c 1d e5 3a 5d 9d 69 3a 13 94 9f 3a
       0.001733748 0.0017480082 0.00089116936 0.0012174867
0001a0 d6 f6 91 3a 49 dd 1b 3a 4a 3a b0 39 15 ed dc 3a
       0.0011136185 0.0005945755 0.00033612765 0.0016855324
0001b0 1c a0 02 3a 02 8c 00 3b b9 b1 2b 3a 98 66 30 3a
       0.00049829646 0.00196147 0.0006549615 0.0006729155
0001c0 e1 86 69 3a 61 41 d4 39 62 92 a1 39 f4 8d 4f 3c
       0.0008908343 0.00040484502 0.00030817377 0.012668122
0001d0 0b 6e c1 3a af cf e7 3a 84 b3 57 3b eb 61 34 39
       0.0014757527 0.0017685796 0.0032913396 0.00017202615
0001e0 e2 2b 54 3a 38 a9 02 3a 4e 52 76 3b 85 2b 42 3b
       0.0008093697 0.0004984322 0.0037585679 0.002962799
0001f0 29 97 2a 3b 40 83 66 3a db d4 2c 3b f2 66 52 3a
       0.002603004 0.00087933615 0.002637199 0.00080262043
000200 f2 cb 27 3a a7 10 d8 39 68 32 53 3c 79 87 4b 3b
       0.00064009347 0.00041211137 0.012890436 0.003105609
000210 15 de ec 3a 7b 66 43 3a 61 73 93 3a 54 fd 14 3a
       0.0018071557 0.00074539304 0.0011249596 0.0005683501
000220 0e 03 2a 3b dc c0 c6 3a 92 5f f7 3a c3 97 26 3a
       0.0025941762 0.0015163678 0.0018873087 0.0006355012
000230 1e b6 d6 39 c1 7a 06 3a 06 fc e9 39 ce f1 78 3a
       0.0004095295 0.0005129986 0.00044628995 0.0009496481
000240 81 a1 ed 38 8b e6 a1 39 6c 70 83 3a 1e cd cc 39
       0.00011331123 0.0003088008 0.0010028011 0.00039062736
000250 ce c4 ec 39 8d f7 8c 39
       0.0004516006 0.0002688732

ClassificationCat.0.weight f4 [1, 150]
000000 f9 b4 0f 3e 5d 49 9e 3d 66 3a 6a be 08 b5 5f 3d
       0.1403388 0.07728837 -0.2287384 0.054616004
000010 b9 bb 51 bd b1 25 19 be d2 2d 31 3e 48 6b 1a be
       -0.051204417 -0.14955784 0.17302635 -0.15079987
000020 36 2d 59 3e 5f 4c 14 3e b5 6e 27 3e ac 97 7f bc
       0.21208653 0.14482258 0.16350825 -0.015600126
000030 75 1e fb 3c fe 2c 1f 3e 3c e1 72 3e 53 fe 34 3e
       0.030654171 0.15544507 0.23718733 0.17675142
000040 f8 5f 5c 3e 54 b8 36 3e b7 e4 53 3d a4 c9 cc 3d
       0.21520984 0.17843753 0.05173179 0.099993974
000050 7c 68 08 3e 74 40 01 3e 2f 69 49 be 5c ec 6b 3e
       0.13321108 0.12622243 -0.1966903 0.23039383
000060 9d 87 1e 3e 76 4c 63 be 1e 66 92 be 54 e8 15 3d
       0.1548142 -0.22197136 -0.28593534 0.03659852
000070 db dd 5f be 3e b9 6e 3d 5e 38 2d 3e ba a5 6a be
       -0.21861975 0.05828213 0.16916034 -0.22914782
000080 90 b7 26 3e 7a 40 1f be 3c 1e 3b be 79 16 41 be
       0.16280961 -0.1555194 -0.18273252 -0.18856229
000090 b3 8e 18 3e c5 de a6 3d 70 0f 9f 3c 93 c4 2d 3e
       0.14898185 0.08147959 0.01941654 0.16969518
0000a0 f9 e0 07 be 4a b8 16 3e 48 dd 5a 3e ff 64 2a be
       -0.13269414 0.14718738 0.21373475 -0.1664009
0000b0 e2 46 22 be 4a e9 64 be d9 33 32 3c d6 6f 85 be
       -0.15847352 -0.22354618 0.010876619 -0.26061887
0000c0 2c 5d 43 3e aa 87 16 3e 89 68 37 be db 52 fb 3d
       0.19078511 0.14700189 -0.17910971 0.12271663
0000d0 fa 7f 48 3e 70 fd 23 3e 9d 3c b3 3d c5 68 19 3e
       0.19580069 0.16014647 0.087517954 0.14981373
0000e0 77 db 1e 3e a6 18 c6 bd 89 bb c3 3d 2e 98 57 3e
       0.15513407 -0.0967267 0.09557254 0.21054146
0000f0 13 8c 3f 3e bd 53 2a be 54 23 19 3e 51 f1 d7 3d
       0.18705778 -0.16633506 0.14954883 0.10544074
000100 96 ea 57 3e 58 5e ed 3d 55 51 5c be e7 a4 23 be
       0.21085581 0.1159026 -0.215154 -0.15980874
000110 2c b9 d1 3d ef 41 41 3d f7 38 c4 3d 9a 24 80 be
       0.10240397 0.04718202 0.09581178 -0.25027925
000120 ff 6e a7 bd b5 8e ab 3d 32 f2 21 be be 1c 32 3e
       -0.08175468 0.083768286 -0.15815046 0.17393777
000130 c3 9a 2c 3e 63 ab 7d be 2b d6 05 3e de b8 5a be
       0.16855912 -0.2477241 0.1306998 -0.21359584
000140 95 fc e8 bd f6 fb ac bd 47 79 19 3e 1f 51 54 be
       -0.11376301 -0.08446495 0.1498767 -0.2073407
000150 e6 61 42 bb 44 d5 aa bd e0 f2 50 be 2b 06 27 be
       -0.0029660403 -0.083414584 -0.2040515 -0.16310947
000160 d6 20 2e be bf 5f 21 3e 65 a1 ca 3d af b3 86 bb
       -0.17004713 0.1575918 0.09894065 -0.0041107754
000170 5b 8e b7 bd 1f ce 70 bd 0c db 2d 3e 27 a9 2e be
       -0.08962699 -0.058790322 0.16978091 -0.17056714
000180 0b d3 99 3d 3d b1 70 be b4 75 75 3e f1 dd 2a 3e
       0.075109564 -0.23505111 0.23970681 0.16686226
000190 c9 7a 57 be a7 c5 82 be 9a 0b 83 be 40 d8 d7 3d
       -0.21042933 -0.25541422 -0.2559479 0.10539293
0001a0 b5 c0 16 3e a5 05 7d bd 86 5e 2c be f7 71 42 bd
       0.1472195 -0.06177296 -0.16832933 -0.047471967
0001b0 ff ec 53 3e e0 29 90 be 8b a2 70 be 49 15 d6 3d
       0.20695876 -0.28156948 -0.23499505 0.104532786
0001c0 83 7b 70 be 9e d8 aa 3a 3a e4 07 3e 48 b6 82 3d
       -0.23484616 0.0013034528 0.13270655 0.06382424
0001d0 b5 f2 2c be 5d 85 6e be 18 2b 82 be 0a f8 f1 3b
       -0.1688946 -0.23293062 -0.25423503 0.007384305
0001e0 73 4d 31 3e bc 8b 0f 3e 47 49 10 be 19 11 a8 bd
       0.17314701 0.14018148 -0.14090453 -0.08206386
0001f0 5a 75 42 be 1a 18 b5 bd 28 cf 20 be 37 4f 25 3e
       -0.18990079 -0.08842488 -0.15704024 0.161435
000200 99 82 69 3e 09 01 05 3e bc 52 2e bb a5 39 6a 3e
       0.22803725 0.12988676 -0.0026599606 0.22873552
000210 d1 a5 10 be ec be 45 3e 1a 2a d1 3d 0b 82 46 3e
       -0.14125754 0.19311112 0.10213108 0.19385545
000220 8e 68 e3 3d 28 be 57 3e ab 31 5e be 6a 18 cc 3d
       0.111039266 0.21068633 -0.21698634 0.09965594
000230 5e 56 16 be 2d 36 6b be 72 90 4b be c7 18 34 3d
       -0.14681384 -0.22969885 -0.1987932 0.043968942
000240 55 3c 3b bd 2b 94 3e bd 5a f8 2d 3e 8e 40 9c be
       -0.045711834 -0.046528023 0.1698927 -0.30518
000250 c1 8b 0c 3e f6 e5 60 be
       0.13725187 -0.21962723
