models/2023-05-11_23-16/pytorch/1-F_8-E_4.pt (torch, 411855 bytes, 9 tensors)

Fd1da27LSTM.weight_ih_l0 f4 [600, 17]
000000 e7 7e 93 bd 31 97 c9 bd 84 cb 7e bc 6e 4e 66 ba
       -0.07201939 -0.098432906 -0.015551452 -0.00087854906
000010 59 97 92 bc f5 8f 99 bc 20 44 6f 3d 46 e4 98 bd
       -0.017894434 -0.018745402 0.05841458 -0.07465415
000020 51 ba e4 3b 66 19 4a 3d 47 e4 32 bd 86 89 d3 bd
       0.0069802185 0.049340628 -0.043674733 -0.10328965
000030 39 c9 45 bd ef 4b 6f bd d6 31 77 bd 32 85 d2 bb
       -0.048287604 -0.058422025 -0.06035026 -0.0064245695
000040 74 c2 08 be c7 63 92 bd 75 75 63 bd 6f 99 37 be
       -0.13355428 -0.07147937 -0.055531938 -0.17929624
000050 e9 0d 00 be 93 c2 d3 bd b5 cc c9 bc 5a ac d8 bc
       -0.12505306 -0.103398465 -0.024633745 -0.026449371
000060 57 75 23 bc 90 a3 ca bd 79 86 be bc 00 e9 32 bd
       -0.0099767065 -0.09894478 -0.023257481 -0.043679237
000070 bf dc 29 bc f9 43 f9 3c 20 9e 96 bd 5e 46 8b bd
       -0.010367571 0.03042792 -0.07354379 -0.06800531
000080 36 f3 ec bd 69 8a c1 bd 43 f4 ab 3d ec 03 9c 3c
       -0.11569826 -0.09450228 0.083961986 0.019044839
000090 31 ea b5 be af 82 74 3e c9 70 76 3d 0e 37 9e bd
       -0.35530236 0.23877977 0.060166154 -0.077253446
0000a0 c0 d9 47 bc 9d 4c 08 be 86 58 e3 3d b5 20 1d 3d
       -0.012197912 -0.13310476 0.11100869 0.03836127
0000b0 7b 81 6d be f5 ec 50 bd 7f 97 81 be 33 5b 84 bc
       -0.23193924 -0.05100723 -0.25310895 -0.016156768
0000c0 89 c2 ef bc 09 fd db 3d 85 1f ce 3d 66 ae ed bd
       -0.029267566 0.10741622 0.100646056 -0.116055295
0000d0 8e bf 79 bd 0c ea 7a bd 3d 74 b3 3c c8 24 76 bd
       -0.060973696 -0.06125836 0.021906013 -0.06009367
0000e0 c2 6d 87 bd bb 99 02 be 3f 9d 18 bd 22 9f 00 be
       -0.066127315 -0.12753956 -0.037259337 -0.12560704
0000f0 c2 0b 42 bd bc 92 55 3c 02 a8 07 be fe c2 3e bd
       -0.047374494 0.0130354725 -0.13247684 -0.046572678
000100 5a e2 97 bc ed 85 8d bc 76 5a 1b 3d d1 ca d4 ba
       -0.01854055 -0.017275775 0.037928067 -0.001623476
000110 71 78 a8 bc af 3d bc 3a eb 20 ec bd 0f 81 56 be
       -0.020565243 0.0014361645 -0.11529716 -0.2094767
000120 d8 55 b7 bd 72 e4 2d bd 19 ef 90 bd ff 9a c7 bc
       -0.0895192 -0.04245419 -0.07076854 -0.0243659
000130 da 71 ff bd 24 b4 cc bc fa 84 f8 bc a5 94 d2 bd
       -0.12472887 -0.024988241 -0.030336846 -0.10282258
000140 21 dc 9c 3b 9d 24 87 bd 85 a4 92 bd ff cc e8 bc
       0.0047869836 -0.0659878 -0.07160286 -0.028418062
000150 ef 8b 95 bd fc 73 b7 3c f4 0f c5 3d 53 90 0d 3d
       -0.07302081 0.022394173 0.096221834 0.034561466
000160 69 16 ec bd c7 02 45 bd 49 f6 04 be d9 7c ec bd
       -0.11527712 -0.04809835 -0.12984575 -0.1154725
000170 7d 82 02 be 05 80 43 3d 9e 94 78 bd ed 92 40 be
       -0.1274509 0.04772951 -0.060688607 -0.18806048
000180 74 d6 ab bd f8 5b 4c bd 07 c4 ba bc 7b 24 1d 3d
       -0.08390513 -0.049892396 -0.022798551 0.03836487
000190 ac c6 00 be 0a a9 79 3c bd b4 75 3d 76 42 98 3d
       -0.12575787 0.015238056 0.05998682 0.074345514
0001a0 40 38 50 3c ba 4f 4e 3d c0 a0 22 3d d6 3f dc bd
       0.012708724 0.050369002 0.039704084 -0.10754363
0001b0 67 14 5d 3d 87 7f 50 bd d9 30 c2 bc 66 77 b6 b9
       0.053974535 -0.05090287 -0.023704933 -0.00034802704
0001c0 6d e1 0c bc 4b d8 28 be 45 e7 cb 3b b6 a4 4c 3d
       -0.008598668 -0.16488759 0.006222638 0.049961768
0001d0 46 ff 01 be be dd a6 3d 89 00 1c 3d 4f db ff bd
       -0.12695035 0.08147763 0.038086448 -0.12493002
0001e0 5b b5 82 bd cd 51 fc bd 29 29 fb bb e6 ae 82 bd
       -0.06382247 -0.1232029 -0.007664819 -0.063810155
0001f0 df b5 41 3d 30 9a 8d 3d f6 90 4d be 28 ef 9a bd
       0.047292586 0.069141746 -0.2007483 -0.07565147
000200 1f 3e e7 bd 76 c7 18 bd 05 2f 9c 3d ff c8 24 bc
       -0.112911455 -0.037299596 0.07626156 -0.010057687
000210 03 8c 2c 3d 54 3d 82 bd 67 d3 95 bc 58 12 ed bc
       0.042125713 -0.06359354 -0.018289281 -0.028939411
000220 03 70 4e 3e 5f f1 ee 3d 8f 98 4e bd a9 9c a9 bb
       0.20159917 0.11667132 -0.05043846 -0.005176146
000230 db ab dc bd d4 70 51 bd 8b 04 30 bc 39 b3 8c bd
       -0.10774966 -0.051132992 -0.010743271 -0.068701215
000240 3a c3 a5 bd d8 f5 0d 3b 26 50 39 bd d0 ef 73 3d
       -0.08093877 0.0021661427 -0.04524245 0.059554875
000250 94 03 e3 bd 8d 1a 0c bd 84 b5 6a bd 48 3b 11 bc
       -0.11084667 -0.03420501 -0.057302013 -0.008864231
000260 75 7b b4 bd ee b3 0c 3d ec 33 b8 3c 59 6c c1 bd
       -0.0881261 0.03435128 0.022485696 -0.09444494
000270 9a 73 05 bd 3b d9 bb bb fe 56 45 bc 10 e6 f3 bd
       -0.03258095 -0.005732683 -0.012044666 -0.11909115
000280 38 6e 7e bc ac 1d d6 bd 38 70 d3 bd 6e 40 cf bb
       -0.015529208 -0.10454878 -0.103241384 -0.0063248193
000290 e6 8a a0 bb 16 46 92 3d e4 03 ed 3c 8c fd d9 3c
       -0.0048993705 0.07142274 0.02893252 0.026610158
0002a0 cf 5f 0a 3c 71 10 c2 3c e6 c0 87 3d 11 15 59 3d
       0.008445694 0.02368948 0.06628589 0.052998606
0002b0 55 15 a9 bd be ab cd bc 06 72 5b 3d bc f5 b8 bc
       -0.08256022 -0.025106307 0.053575538 -0.022578113
0002c0 8d 5b 97 3c 14 42 87 3c 2c cc 57 3e ef a9 20 be
       0.018476272 0.016511 0.21073979 -0.15689825
0002d0 be 69 30 be ee 30 4e be 25 e2 14 be 84 27 6e bd
       -0.17227837 -0.20135853 -0.14539392 -0.058143154
0002e0 00 3d da 3a 5f 63 cc bd 7b 70 1a 3e 56 11 04 be
       0.001665026 -0.09979891 0.1508197 -0.12897238
0002f0 65 8d da bd 3d 90 b3 bd f0 69 e2 bd d0 1c 08 be
       -0.106715 -0.08767746 -0.11055362 -0.13292241
000300 63 82 1f 3d ff a6 4f bd cd e2 30 be e6 a0 0d be
       0.038942706 -0.05069637 -0.17274018 -0.13830909
000310 66 3a d0 bd ea 2d 2c 3c df 9c 5d 3d 61 84 09 be
       -0.101673886 0.010508994 0.054104682 -0.13429405
000320 d6 85 58 3d b6 0a 01 bd 5e 88 74 3c d5 67 9f 3b
       0.05286201 -0.031504355 0.014925091 0.0048646727
000330 6f 6a bb bd 21 04 91 bb 85 9c b0 bd 95 f3 cf bd
       -0.0915116 -0.004425541 -0.08623604 -0.101538815
000340 91 72 de bd a0 e1 cd 3c 50 13 40 3c cd 06 9c 3c
       -0.108616956 0.025132 0.011723354 0.019046212
000350 70 8d 3e be f1 23 dd bb bb f3 8f 3d b1 6a 08 3e
       -0.18608642 -0.0067486693 0.0702891 0.1332195
000360 6d c0 12 3a 89 d7 8f 3d 48 08 3f bd a9 3d 9b bc
       0.00055981317 0.07023532 -0.046638757 -0.0189503
000370 f0 f4 db bc ce e7 4f be 4b ee c7 bc 1d df 58 bd
       -0.026850194 -0.2030327 -0.02440562 -0.052947152
000380 c0 e2 63 bd 15 4c 2b 3d 0e e4 6a bc d0 bd 12 bd
       -0.055636168 0.041820604 -0.014336599 -0.03582555
000390 5d e2 27 3c f6 b6 c7 bd 3b 7d 49 3e 5c 02 3f be
       0.01024684 -0.09751694 0.19676678 -0.18653244
0003a0 9b 2a c8 3d 0e 27 0c 3e 3f 0e d9 3c c5 e9 de 3d
       0.09773751 0.13686773 0.02649605 0.10884432
0003b0 28 9e ab 3d 18 b0 8e 3d ab 7f da 3d d9 fe b7 bd
       0.08379775 0.06967181 0.10668882 -0.08984155
0003c0 02 37 e5 bb 2d ae 23 bb 2a 53 d7 3d 3b 2e 0a 3c
       -0.006995083 -0.0024975643 0.10513909 0.008433874
0003d0 6f d4 c1 3d 5e ca a5 3d de 1a 7c 3d 91 b8 ef 3d
       0.094643466 0.08095239 0.06154906 0.11705125
0003e0 ba 05 8c bc c8 e7 af 39 f4 20 1c 3d a5 1e 93 3d
       -0.017092574 0.00033551292 0.038117364 0.07183579
0003f0 9b ce e5 3d 56 77 e7 3c 67 63 9c 3c f3 65 73 3d
       0.112210475 0.028255146 0.019090367 0.0594234

Fd1da27LSTM.weight_hh_l0 f4 [600, 150]
000000 af da 47 3d 61 01 fa bc f2 03 3d 3d 39 bc 82 3c
       0.048792537 -0.030518236 0.04614634 0.015958892
000010 c3 4e d4 3c 2a 94 ca 3d 1f 59 34 bd 40 b8 43 3a
       0.025916463 0.09891541 -0.044030305 0.0007466115
000020 47 72 33 3d 4c 1f b6 bc dd 84 96 bd f6 35 ab 3d
       0.043810155 -0.02223172 -0.073495604 0.083599016
000030 1b da ab bc 39 8a 91 bd 67 de c9 bd 06 5e ea bd
       -0.020978024 -0.07106442 -0.09856873 -0.11443715
000040 4d cf f9 bc b0 8a 25 bd ba 85 c4 bc 37 1f 2d bc
       -0.030494357 -0.040415466 -0.023989547 -0.010566524
000050 13 ca 6b bd e8 00 97 bd e3 84 00 3d c8 6d 08 bd
       -0.05756576 -0.0737322 0.03137673 -0.03330782
000060 1d cf 04 3d ca 06 d5 3d c9 d8 e9 3c 98 c7 79 3c
       0.03242408 0.104016855 0.028545754 0.015245341
000070 59 06 f9 bd dc fc e9 3c c6 65 52 3e 3d 6b 27 be
       -0.12159414 0.028562956 0.20546636 -0.16349502
000080 a1 c5 06 3d 8d 46 d7 3b 92 29 6c 3d 4d e1 8d bd
       0.032903317 0.0065696896 0.057656832 -0.06927738
000090 42 95 98 bd 74 56 cb bd fc 6b 0c be db 0c 8a bd
       -0.07450344 -0.09928599 -0.13713068 -0.06740733
0000a0 00 37 a5 3d 64 be b0 bd 50 b4 1b bd f7 86 ae bd
       0.08067131 -0.08630064 -0.038013756 -0.08521836
0000b0 1e 51 d0 bc 26 74 c5 bd ea 42 8b 3d 3f cd 3e 3d
       -0.025429305 -0.09641294 0.06799872 0.046582457
0000c0 89 dd cb bd 71 3a bf 3d 58 5d d5 bb 37 00 9b bd
       -0.09954364 0.09337319 -0.0065113716 -0.075684
0000d0 59 44 57 3c 11 c7 a1 3d dc ac 66 3d f3 0b 1f 3d
       0.013138854 0.07899297 0.056317195 0.038829755
0000e0 ad f5 ba 3c 7d 4c 9f 3c f0 e7 27 3d 86 c6 98 3d
       0.022822225 0.019445652 0.040992677 0.0745974
0000f0 21 a6 88 3b ad a5 ae 3d 40 df 92 3c 0c 22 94 bb
       0.0041701947 0.08527694 0.01792872 -0.0045206603
000100 a2 0a 9b bc e0 22 1c bd b8 60 8a bc 30 17 65 bd
       -0.018925969 -0.038119197 -0.016891822 -0.055930316
000110 fe 26 e7 bd e8 ae 27 be b2 49 53 3d 09 bf bd 39
       -0.11286734 -0.16375315 0.051583953 0.0003619122
000120 74 a3 c1 3c d6 2e fb bc 19 11 94 bd 39 a9 b9 3c
       0.02363751 -0.030661982 -0.072298236 0.0226637
000130 33 16 76 3c a0 15 cd 39 45 fb 3f 3d 9a 9d 12 bb
       0.015019941 0.0003911676 0.04687049 -0.002237177
000140 8d 9e 2f bd a3 6d aa bc d6 45 f4 bd 55 13 91 3b
       -0.042875815 -0.020804232 -0.11927383 0.0044273534
000150 0c da 22 3c 53 57 b1 3c 23 a7 a6 3b 2a 4e a8 3c
       0.009939682 0.021648085 0.005085842 0.020545084
000160 92 25 15 bc ca 09 4d bb ff 7b ba bd 1c f2 f3 3d
       -0.009103196 -0.0031286352 -0.09105682 0.11911413
000170 62 cf b3 3d 94 28 a8 bc 7e ca 5b 3d bb 2b 7e 3d
       0.087797895 -0.020527162 0.05365991 0.062053423
000180 22 8e ae 3d 02 d6 65 bc b0 19 f4 3c 44 5d ac 3d
       0.085232034 -0.014028074 0.029797405 0.084162265
000190 31 b4 d5 3b fb c5 3e bc 9e 97 6a 3c b2 fc 14 3c
       0.0065217246 -0.011643882 0.014318375 0.00909345
0001a0 72 c3 f0 bb 2d c7 ae 3d 46 4d 82 3c 94 60 65 bd
       -0.0073475176 0.085340835 0.015905987 -0.056000307
0001b0 f1 c4 d8 bc fe 9b a6 bc 7f 3d 54 bd 46 c1 df bc
       -0.026461096 -0.020338055 -0.05181646 -0.02731384
0001c0 06 d1 81 bd 44 80 2b 3d 58 d9 a1 bd 4f ef 32 bd
       -0.06338696 0.04187037 -0.07902783 -0.043685254
0001d0 83 b2 cc bc d2 fa 7b 3d 9b fd 33 3c c3 36 24 3d
       -0.024987465 0.061518498 0.010985757 0.040091287
0001e0 6b 9a a7 bb a9 fd c9 bc 29 3d 39 3e 37 1b 3e bd
       -0.0051148436 -0.024657087 0.18089737 -0.046412673
0001f0 88 67 ef bd f6 5b 07 be 68 36 0c 3d a1 22 b7 38
       -0.11689669 -0.13218674 0.034231573 8.73257e-05
000200 63 99 1d bd d6 cf 88 3d 13 13 97 bd dc 34 77 bc
       -0.03847636 0.066802666 -0.07376685 -0.015088286
000210 cf 5c 73 bd 0c 76 e4 bd bb e2 a1 3c f3 25 ae 3c
       -0.05941468 -0.11155328 0.019761434 0.02125833
000220 8b 3a 4d bd 63 a4 94 bd e1 a2 d2 3c e1 c7 a8 3d
       -0.05010466 -0.07257917 0.025712432 0.08241249
000230 a5 7f 13 3d 5a 9a 69 3c 66 c3 20 bd 3f 55 df 3d
       0.036010403 0.014257992 -0.039248846 0.10904931
000240 42 0b 3d 3d ea 67 3e bd 60 0a 9a bc 72 1e 21 3c
       0.046153314 -0.04648582 -0.018803775 0.009833919
000250 dc 71 38 bd 60 b3 3f bc ef c6 13 3d 41 6e 8f bc
       -0.04503046 -0.011700481 0.03607839 -0.017508628
000260 9c bc ac bc c0 77 23 3d 37 09 22 3d 36 4f 21 3b
       -0.02108603 0.039909124 0.03955957 0.0024613864
000270 6b 9b 2d bc 56 d7 18 bd ba bf e4 3d 2b d0 a5 3c
       -0.010596137 -0.037314735 0.111693814 0.020240864
000280 f1 43 27 3c 27 94 f2 3c 6c 33 22 3d 55 9f 09 3d
       0.01020907 0.02961166 0.03959982 0.033599216
000290 05 00 13 3d a2 6f 17 3c e5 88 3f b9 b7 06 93 3c
       0.03588869 0.009242924 -0.00018266177 0.017947538
0002a0 df 4a 81 bd 6d c1 79 3c f4 f7 e3 bc 30 d3 a0 bd
       -0.06313109 0.01524387 -0.027828194 -0.07852781
0002b0 94 31 dd bd 4d b1 80 bc 57 78 e2 bc 5f 9f aa 3d
       -0.10800472 -0.015709544 -0.027645273 0.08331179
0002c0 66 e8 cf 3c 4e ee b3 3a df 7b 07 3e 45 3d c1 bb
       0.02537937 0.0013727637 0.13230847 -0.0058971965
0002d0 79 de 3f 3c b4 23 1e 3d c7 10 43 39 37 86 84 bc
       0.011710756 0.038608268 0.00018602899 -0.01617728
0002e0 10 3f 84 bc 56 58 d9 3c 35 4f 2c 3d e1 2d 43 bc
       -0.016143352 0.02653138 0.042067725 -0.011912794
0002f0 e0 1c ad bd df 83 85 3d b3 59 23 bd b9 a5 32 bd
       -0.08452773 0.06519293 -0.039880466 -0.043615077
000300 f7 12 5f 3c 6b 95 be 3d 44 75 3d 3d 13 2c 61 bc
       0.013615361 0.09305843 0.04625441 -0.013743418
000310 9f 44 62 3c 4f 1c 37 3b a7 29 fa bb e4 e6 73 bd
       0.013810306 0.0027940457 -0.00763436 -0.059546366
000320 bb ac 31 3c bc 82 be bc d7 29 93 3d ec fe 7d 3d
       0.010844405 -0.023255698 0.07185715 0.06201069
000330 58 74 72 bd 25 75 57 3d f4 5c 91 b9 b8 57 74 3a
       -0.059192985 0.052601952 -0.0002772581 0.00093209324
000340 97 41 d9 bd 02 e3 f0 bc 00 5f da bc fa e5 80 bc
       -0.106082134 -0.02940512 -0.026656628 -0.015734661
000350 83 a3 5c 3d c1 54 1f 3d 5c 8d d7 3c eb b1 8e 3d
       0.053866874 0.038899187 0.026312523 0.06967529
000360 ad cf 3b 3d d9 8e ea 3c 19 6b ce ba 09 19 4e bd
       0.045852352 0.028632568 -0.001574847 -0.050316844
000370 dd 51 e1 bb a6 3d 0d bd d3 68 3a bd a4 c4 be bd
       -0.006876214 -0.03448262 -0.045510124 -0.0931485
000380 8b 58 a1 bc 43 73 16 3d 4c 04 26 3d a4 b6 da 3c
       -0.01969554 0.036731016 0.04053144 0.026698418
000390 59 fb 9d bc 76 e6 85 3d a8 7d ae bd d8 19 9c bd
       -0.019284891 0.065380976 -0.08520061 -0.07622117
0003a0 22 4d 12 bc 2a 7b 56 3d 6d c3 9f bc 3e b0 ac bd
       -0.008929523 0.052363552 -0.019502366 -0.08432053
0003b0 f4 68 27 3b 87 da f1 bc a2 66 24 bd 07 4d 0a 3d
       0.0025544735 -0.029523147 -0.04013694 0.033764865
0003c0 34 5c 4e 3c a2 31 c0 3d ec 0c 1c 3d 75 31 86 3d
       0.012595225 0.09384467 0.03809826 0.06552402
0003d0 04 2f dd 3c 31 e4 7f 3d 26 f7 64 bd 7d 16 81 3d
       0.026999958 0.06247348 -0.05589976 0.063031174
0003e0 81 ef 77 3d 08 a8 99 3c b1 04 8f bd 03 5c d0 3d
       0.060531143 0.018756881 -0.06983317 0.101738
0003f0 15 9d 5a 3d 2d 14 9c 3d d9 8e 5b bd c7 d2 4d 3d
       0.05337246 0.07621036 -0.053603027 0.05024984

Fd1da27LSTM.bias_ih_l0 f4 [600]
000000 7e b0 9c bc ac a9 0e bd ed 71 af bc f1 01 dc bc
       -0.019127127 -0.03482978 -0.021416629 -0.026856394
000010 d0 20 c9 bb 46 da c8 bc 2c 74 21 bd 8a 51 e3 bb
       -0.0061379448 -0.024518143 -0.03941743 -0.0069372104
000020 ab 59 9e bc 29 d5 3e bd 15 a9 c5 3c e1 c9 e6 bb
       -0.019329866 -0.046590004 0.024128476 -0.007043109
000030 c4 7a 8d bc c9 a0 b8 bc bf ee 31 3d 69 68 ad 3c
       -0.017270453 -0.022537606 0.043440577 0.02116795
000040 59 0e 7d bc 3c 9a 0f bc 59 e1 3d 3d 37 13 9f bc
       -0.015445315 -0.0087648 0.046357486 -0.019418342
000050 20 77 8a 3b 4e e7 05 bd 2a 31 15 bc 5d b3 28 3c
       0.0042256266 -0.032691292 -0.00910596 0.01029667
000060 f0 11 2f bd 2b bb 3f bd c3 be 19 bc 1d 20 cf bb
       -0.042741716 -0.046809357 -0.00938386 -0.006320967
000070 24 a9 9e bc 32 94 d3 bd 9f d6 e9 bd 97 58 81 bb
       -0.019367762 -0.103310004 -0.11417889 -0.0039473283
000080 09 3d 3b bd 48 1b 5c bd 56 57 38 3c 8f cc 79 bb
       -0.045712505 -0.053736955 0.011251291 -0.0038116311
000090 39 d0 70 3c d7 50 a5 bd ec 37 76 3c 41 86 49 3d
       0.014698082 -0.080720596 0.015027981 0.0492003
0000a0 c9 29 cc bc f5 51 a8 3c ba 31 8d bc 87 68 28 bd
       -0.024922268 0.020546893 -0.017235626 -0.04111531
0000b0 c5 a5 1f bd 55 77 87 bd 9e 92 24 bd 6d 55 66 b9
       -0.03897645 -0.06614558 -0.040178888 -0.00021966333
0000c0 98 91 d8 3c 2e 89 62 bc 02 32 c0 bc e8 ee 2d bc
       0.026436612 -0.0138266515 -0.023461346 -0.010616042
0000d0 5f 8c 53 3c 22 09 a7 bd 55 7a ac 3b 14 c2 3a bc
       0.012911885 -0.08156039 0.0052636066 -0.011398811
0000e0 68 36 2c 3b 9b b6 8b 3a 50 8b 0a bb 5d be 7f bd
       0.0026277546 0.0010659279 -0.0021140166 -0.062437404
0000f0 52 58 3f bb d4 c1 03 bc 6c 6c 88 3b bc a8 88 3c
       -0.002919693 -0.008041818 0.0041633155 0.016682021
000100 77 dd 37 bc 27 6d 0a 3c b3 47 22 bd ba 1b ce bd
       -0.011222235 0.0084488755 -0.03961916 -0.10063882
000110 d2 18 35 bc aa 82 ea bd f2 5a 44 bb b0 5a 90 bc
       -0.011053281 -0.114507034 -0.0029961434 -0.017621368
000120 22 dd 0d bd f4 a4 42 bd 9e 09 cb bc 00 ec 91 3c
       -0.034634717 -0.047520593 -0.02478486 0.017812729
000130 fd 3e 8b bd 39 78 6b bc e3 56 69 bc e2 66 1b bd
       -0.067991234 -0.014371925 -0.014241907 -0.037939914
000140 a3 34 fb bb 9f 45 43 bd 1b e3 6f 3b 45 1d 29 bc
       -0.007666187 -0.047673818 0.0036603871 -0.01032192
000150 c3 80 05 3c 21 ac 31 bd 8e c2 cc bc 1c c9 8c bc
       0.008148375 -0.043377046 -0.024995115 -0.01718574
000160 15 22 ea 3b 0d 15 fd bc 81 9e b1 bc b0 bf 03 bd
       0.007145176 -0.030893827 -0.021682026 -0.03216523
000170 aa 5c f4 3c 08 aa 4b bc 5c 4d 89 bd 56 24 31 bd
       0.029829342 -0.012430675 -0.06704208 -0.043247543
000180 88 d3 3e bd 76 4d 84 3c 0a 66 17 3c 2d 32 3c bd
       -0.04658845 0.016150218 0.009240637 -0.04594629
000190 50 95 28 3d 18 ef 3e 3d b5 e6 e1 3b 55 3a 41 bc
       0.04115802 0.046614736 0.0068939575 -0.011793693
0001a0 85 25 3f bd ac 0a 43 3c c1 08 73 bc 55 1a 94 bd
       -0.04666664 0.0119044 -0.01483363 -0.07231585
0001b0 d6 58 c3 bc f7 85 81 3d ff d2 13 3a 71 4b 77 bc
       -0.023846071 0.0632438 0.0005639046 -0.01509367
0001c0 c0 1e 23 bc aa 57 df bc 30 dd 27 bc 96 fa 63 3a
       -0.009956062 -0.027263481 -0.010245606 0.0008696703
0001d0 c5 16 82 3c 91 e5 82 3c 95 e0 36 3c ac e6 02 3a
       0.015879998 0.015978606 0.011161943 0.0004993479
0001e0 04 91 64 3c 08 70 60 bc 96 aa 21 3d 35 a0 14 3d
       0.01395059 -0.013698585 0.039469324 0.036285598
0001f0 dc f1 89 bc 6d 95 17 bd 01 7e d6 bc 1e 6a 55 bb
       -0.01683896 -0.037007738 -0.02618313 -0.0032564471
000200 bc fb 7c 3c a2 97 d2 bc 9b 51 84 bc 1c e3 31 3d
       0.0154408775 -0.02570707 -0.016152194 0.04342948
000210 47 23 27 3c ad e1 23 3c 2f fe 3c bd 33 5f fa bc
       0.010201282 0.010002536 -0.046140846 -0.030562973
000220 5a d9 96 bc 49 b1 b3 3c 97 8d f2 3c ae 5b 93 bc
       -0.018414188 0.021935122 0.02960853 -0.017988052
000230 dc 09 f6 bb 97 1b 8f 3c 46 a4 7e 3c df 77 c4 3c
       -0.0075084995 0.01746921 0.0155420955 0.02398294
000240 d7 ba a4 bb a5 3a 02 bd 6f c0 e2 3c 96 0f 7a 3a
       -0.005027156 -0.03179421 0.02767965 0.00095390656
000250 50 95 91 bc 08 37 ad 3c b5 ca 07 3c 26 27 2d 3d
       -0.017771393 0.021144405 0.008288075 0.042273663
000260 f1 dc b3 3c 25 30 d5 3d ab 97 5f 38 26 52 5b 3c
       0.021955939 0.104095735 5.3308595e-05 0.013386285
000270 2f 66 41 bc 62 a6 d1 3c 61 d9 b5 3c 33 a5 7d bd
       -0.011804148 0.025592033 0.02219838 -0.061925124
000280 f5 ca 5d 3c 10 0e 1e 3d 60 e1 0e 3d 89 ed 25 3c
       0.013537158 0.03858763 0.034882903 0.010127434
000290 c6 1c bc bc a3 74 0e bd f1 7b 28 bd 23 79 7d 3c
       -0.022962939 -0.034779202 -0.041133825 0.015470776
0002a0 13 06 c8 3d a9 da a2 3c 52 51 c4 bb 4c 13 2d 3d
       0.097667836 0.019879656 -0.0059911394 0.04225473
0002b0 f2 12 9e bc e5 1d 6d bc 79 7a ba 3d ac aa 22 3c
       -0.019296143 -0.014472459 0.09105391 0.009928387
0002c0 00 01 98 bc b1 49 c1 3d 43 45 69 3d cd 9f e2 3d
       -0.018555164 0.09437884 0.05695082 0.11065636
0002d0 83 74 81 3e f1 da a7 3d 12 b6 27 3d 0a 33 02 3d
       0.25284204 0.08196057 0.04094512 0.031786956
0002e0 f8 ba 0e bb 83 0d 62 bb 62 b0 3a 3c e4 a9 01 3e
       -0.0021778923 -0.0034492917 0.011394592 0.12662464
0002f0 8d 6d 08 3e d3 66 85 bb 59 48 d5 bc cf e7 a8 bc
       0.1332304 -0.0040710955 -0.026035475 -0.020618347
000300 2d 34 3a 3d f4 23 60 3d eb 31 88 bc 8a da 09 3d
       0.045459915 0.054721788 -0.016625365 0.03365568
000310 b5 bd 48 bc 3e 01 6f 3d 52 24 01 bd ab 1a 78 3d
       -0.012252261 0.058350794 -0.03152878 0.060572308
000320 50 ce 9c bc cc 57 c7 3c e6 ea c5 bb d5 2f 69 3b
       -0.019141346 0.024333857 -0.006039965 0.0035581489
000330 34 ec 32 3d 7b a2 ef 3a 8a a8 05 bc 9d 0e 54 bc
       0.043682292 0.0018282676 -0.008157859 -0.012942937
000340 ea f5 1b bc 85 6f 32 3e 31 7e 1b 3c bb 33 48 3b
       -0.00951908 0.17425354 0.009490536 0.0030548412
000350 b1 a3 d0 3c eb a8 8b 3b 35 3b cd 3b 4f f0 be 3a
       0.02546868 0.00426208 0.0062631615 0.0014567467
000360 b8 bc 45 3d fe 41 1c 3e 64 0e 86 3d 15 55 60 3e
       0.04827568 0.15259549 0.065457135 0.21907456
000370 0b c4 57 bb 8a 34 64 bc a8 7a d1 3b 9e a5 7e bc
       -0.0032923247 -0.013928542 0.0063927956 -0.015542416
000380 84 ef 92 3d 76 7f 82 3b fd e6 47 3c f7 ed 16 bc
       0.0717459 0.0039824797 0.012201068 -0.009212009
000390 7e e1 72 3d af ac 9a bc bc 03 e9 3c ba bc 3c 3d
       0.059297077 -0.01888117 0.028444164 0.04607842
0003a0 f6 5b 9e bc 85 c0 46 3d ba c7 1f 3d 00 11 d9 3b
       -0.01933096 0.048523445 0.039008833 0.006624341
0003b0 f3 0b b1 3c b1 df 39 bc 24 c3 f2 3c 6d 60 1f bc
       0.021612143 -0.011344836 0.029634066 -0.00972758
0003c0 1d 26 df 3d 86 eb 54 3d fe dd 64 3d be fa ff 3b
       0.108959414 0.051982425 0.05587577 0.007811873
0003d0 3d 90 fb 3d 93 9a 2a bc 1a 76 2a 3e f4 45 cb 3a
       0.12283371 -0.01041283 0.16646615 0.0015508519
0003e0 b5 8f a5 bc ed 22 63 3d df a1 6b 3d 29 ac 9c 3c
       -0.020210126 0.05545323 0.05752742 0.019125061
0003f0 6d 19 40 bd e7 cc 6c bc 30 08 68 3d 28 bb 16 bd
       -0.046899248 -0.014453149 0.056648433 -0.03679958

Fd1da27LSTM.bias_hh_l0 f4 [600]
000000 27 7a aa bc 91 3a 21 bc 25 72 8e bc b0 47 6a b9
       -0.0208102 -0.0098406235 -0.017388413 -0.00022342685
000010 a9 71 e4 bb ec b3 c8 bc 86 45 af bc 36 c7 6c bc
       -0.006971557 -0.024499856 -0.021395456 -0.014451792
000020 08 dd e0 bc ec 18 32 bd 72 35 7b 3c 4f 8f 18 bc
       -0.027449146 -0.0434808 0.015332567 -0.009311511
000030 73 0a 50 3c 58 a5 b5 bc ff aa 25 3d e6 f3 ab 3c
       0.012697804 -0.022173569 0.040446278 0.020990323
000040 39 cc 86 bc 6d 83 00 bc 05 fd 51 3d 77 8d 51 bc
       -0.016454803 -0.007843834 0.05126669 -0.0127900755
000050 9c 44 43 bd cb 34 97 bd bd 34 33 bc 34 32 3e 3c
       -0.047672853 -0.07383116 -0.010937867 0.011608649
000060 cc 08 8a bd 85 bb cf bc de ac 4e 3c 66 60 02 3d
       -0.06739959 -0.025357971 0.012614457 0.031830214
000070 bf c9 f2 bc 96 9b 91 bd 11 e7 28 be 20 f5 1a bc
       -0.029637216 -0.07109754 -0.16494395 -0.009457856
000080 0b 68 10 bd ad a6 4f bd 9a d3 c9 3c b8 8c 08 bb
       -0.035255473 -0.050696064 0.024637032 -0.0020835828
000090 4e 46 be 3c 3a d6 de bd 2e 50 46 bd e6 3c 46 3d
       0.023226883 -0.10880704 -0.04841631 0.04839792
0000a0 59 3d c8 bc ee 31 a7 3c a5 d5 cf bc 54 f5 d5 bc
       -0.024443315 0.02040955 -0.025370428 -0.026117958
0000b0 6d 0b 0b bd 4e 83 81 bd 95 2b 49 bd ee dc da bb
       -0.033946443 -0.063238725 -0.04911383 -0.006679169
0000c0 15 d2 2c 3c 1d 4b fb ba fa 3f ab bc 88 0b 2f bd
       0.010548134 -0.0019172166 -0.02090453 -0.042735606
0000d0 3d 5e 4d 3c 25 43 86 bd 58 f5 90 3b b3 89 a7 bb
       0.012534675 -0.065557756 0.0044237785 -0.0051128506
0000e0 68 01 df 3a 6e 58 f2 bc d1 d6 96 bb 7e 28 c5 bd
       0.0017013969 -0.029583182 -0.004603245 -0.09626864
0000f0 b5 c3 0a bb cb 25 d0 bb c4 d5 7d 3b 6b 49 89 3c
       -0.002117378 -0.0063521615 0.003873215 0.016758641
000100 17 19 0c bc 9b 91 29 3b be 7b 23 bd e2 51 17 bd
       -0.008550904 0.002587414 -0.03991293 -0.036943324
000110 2e 84 12 bd a3 23 95 bd bc d0 3a ba 93 6d 88 bc
       -0.035770588 -0.07282188 -0.0007126441 -0.016653812
000120 cd a5 06 bd 33 4f 24 bc c9 49 8e 3c 0c f8 86 3c
       -0.032872964 -0.010028648 0.017369168 0.0164757
000130 eb 19 8e bd 26 8d 92 bb 41 f8 0b bc e4 94 db bc
       -0.06938537 -0.0044723926 -0.008543075 -0.026804395
000140 64 85 3f bb 64 d1 c1 bc bb 5a a5 3b 71 19 41 bc
       -0.0029223794 -0.023659416 0.0050462163 -0.011785851
000150 e6 9b aa 3c 3a 61 dc bc 36 ee 52 39 bb a6 79 bc
       0.020826291 -0.02690183 0.00020115901 -0.015237506
000160 c3 2c d9 3b 37 18 a0 bc 8c b2 84 bd b7 eb 99 bc
       0.0066276505 -0.019542797 -0.064793676 -0.018789155
000170 08 71 52 3c 75 e0 16 bc 8f 9a 82 bd 62 28 4f bd
       0.012844332 -0.009208788 -0.06377136 -0.05057562
000180 e9 7a 97 bd 0b 5c 53 3c 49 38 32 3c a4 c2 5a bd
       -0.0739649 0.012900363 0.010877677 -0.05340828
000190 ff 65 36 3d 99 8f 3b 3d e8 f9 86 3c 57 2b a8 39
       0.044530865 0.045791242 0.016476586 0.00032075748
0001a0 ba 4e df bc 6a b2 79 3c 53 2f 24 bc 7c 61 10 bd
       -0.02725922 0.015240291 -0.010021049 -0.03524922
0001b0 cd 41 cc bc a5 5d 6a 3d 26 aa b5 bb 4f d9 fa bc
       -0.02493372 0.057218213 -0.005543965 -0.030621199
0001c0 23 66 94 bb b4 be eb bc 00 84 3e bc d6 96 42 3c
       -0.004528777 -0.028777458 -0.011628151 0.011876782
0001d0 f1 66 51 3c 1f 71 9a 3b 6a b4 9a 3b 0d 69 fb bb
       0.012780891 0.004713192 0.004721214 -0.007672435
0001e0 6f cc 18 3c de b3 7c bb 4e 55 ee 3c 05 7c bd bb
       0.0093260845 -0.0038559358 0.02909341 -0.0057826065
0001f0 34 cc 3e bd 9b c0 a7 bc 89 f1 32 bd a2 8b 0e 3c
       -0.046581462 -0.020477584 -0.043687377 0.008700283
000200 73 dd 8a bb 96 7e 27 bd f0 a7 13 bd b4 ae 98 3c
       -0.0042378246 -0.040892206 -0.03604883 0.018637992
000210 ee d1 ec bb 49 af 3c bc 85 2b 0c bd 45 96 29 bd
       -0.007227174 -0.011516401 -0.03422119 -0.041403074
000220 66 36 2d bc 9d 9c c7 3c 5b 93 1b 3d 43 9f 9c bc
       -0.010572052 0.024366671 0.037982326 -0.01911891
000230 2d 24 f9 bb 3f 03 75 3c 2e 73 6f 3c 73 78 8f bc
       -0.0076031894 0.014954387 0.014614863 -0.01751349
000240 20 a1 02 bc 89 ac d3 bc cf 1e ac 3c 39 f4 ce 39
       -0.0079729855 -0.025839107 0.021010784 0.00039473342
000250 82 35 26 bc 44 71 b4 3c 27 28 a3 3a d0 f2 20 3c
       -0.010144593 0.022026666 0.0012447879 0.009823516
000260 d5 88 47 bb 69 f8 f1 3d 4f ac 77 3b 6c 29 92 3c
       -0.0030446548 0.118149586 0.0037791913 0.017842017
000270 db 12 b2 bb 37 97 5c 3c 27 01 bd 3c 03 16 0e bd
       -0.0054343767 0.013463787 0.023071839 -0.03468896
000280 56 cf dd 3a 7c 27 32 3d ef 03 be bb b4 09 01 bc
       0.0016922753 0.043494686 -0.0057988088 -0.007875849
000290 b2 0c a1 bc c5 58 0f bd f3 68 17 bd 77 3e b2 3b
       -0.019659374 -0.034996767 -0.03696532 0.0054395753
0002a0 c5 cd 6f 3d 8b a2 b9 3c 75 27 83 bc b1 d1 a6 3d
       0.058545846 0.022660514 -0.016010026 0.08145464
0002b0 39 f7 23 bc 8f 8e 29 ba df 2b 7a 3d f1 44 ca 3c
       -0.010007673 -0.0006468081 0.061076995 0.024691077
0002c0 04 38 fe bc 14 ef d9 3d 55 91 18 3d a0 90 0b 3e
       -0.03103257 0.10641304 0.037247974 0.13629389
0002d0 ac 9e 45 3e 5e 09 80 3d 58 83 91 3c f7 e9 32 3d
       0.1929881 0.06251787 0.017762825 0.043680158
0002e0 4d a8 f8 3c 28 78 13 3a a1 74 33 3c a6 7f 99 3d
       0.03035369 0.00056255097 0.0109530995 0.0749505
0002f0 3a da 0e 3e be c6 51 bb 01 f8 e8 bc f9 98 8f bc
       0.13950434 -0.0032009329 -0.02843857 -0.017528998
000300 90 58 cc 3c 04 e2 e8 3d 33 18 76 b9 c7 d7 7d 3b
       0.024944574 0.11371234 -0.00023469403 0.003873335
000310 51 f7 5b 3c dc f2 87 3d f1 ca ec bc fc bd 76 3d
       0.013425664 0.066381186 -0.028905364 0.060239777
000320 22 c9 e6 bc 8f 90 3c 3d 1c 9e d9 bb 31 94 20 bd
       -0.02817208 0.0460363 -0.0066411626 -0.039203826
000330 14 20 55 3d f6 41 80 ba 19 21 08 bb b5 a0 9e 3b
       0.052032545 -0.0009785283 -0.002077168 0.004840935
000340 9b 11 db bb 1d 5a 04 3e 53 96 dd 3b cf 23 0d 3c
       -0.0066854483 0.12925 0.006762305 0.008614494
000350 08 6d a4 3c be 8b 93 3b f3 4c 91 3c 39 28 0b 3b
       0.020071521 0.0045027426 0.017736888 0.0021233691
000360 c4 1f a2 3c 9f e0 24 3e ab 75 b6 3d 9c 2e 15 3e
       0.019790538 0.16101311 0.08909162 0.14568561
000370 64 b6 29 bb 4c 00 92 bc 97 f4 96 bc d4 57 0f bd
       -0.0025896067 -0.017822407 -0.018427176 -0.03499587
000380 65 91 92 3d 65 75 a5 b9 f4 10 bf bb d8 26 86 3c
       0.07156638 -0.00031558718 -0.0058308784 0.016375944
000390 71 56 87 3d 13 42 17 bb e5 79 be 3c ce 76 93 3d
       0.06608284 -0.0023080155 0.023251483 0.072003946
0003a0 5c 6c 9a bc b7 9a 39 3d 44 b5 b9 3c ba ab 97 3c
       -0.018850498 0.045313563 0.022669442 0.018514503
0003b0 8e b9 30 3d c5 8c 4f bc c6 54 18 3d 3d f6 1d 3c
       0.04314571 -0.012667839 0.03719022 0.009641227
0003c0 82 ec c0 3d 74 e6 62 3d 0f 49 61 3d 8c bc c2 3b
       0.0942011 0.05539556 0.055001315 0.0059428867
0003d0 09 fc 89 3d 18 3f d0 3b f0 1c ac 3d 8f 08 36 bb
       0.06737525 0.0063551776 0.08403957 -0.0027776097
0003e0 7a e0 e6 bc a4 d8 2f 3d 3e b7 f7 3c 97 e5 51 3d
       -0.02818321 0.042931214 0.030238744 0.051244345
0003f0 6a 3a 3b bd bd 1e 94 bc 30 d6 36 3c c9 0c 05 bd
       -0.045710005 -0.018081063 0.011159465 -0.032482896

ClassificationFd1da27.0.weight f4 [150]
000000 e2 5f 8b 3f fc 31 74 3f 1a 36 9f 3f f5 30 63 3f
       1.0888636 0.9538877 1.2438385 0.8874658
000010 cd d4 4f 3f be 94 8c 3f 24 bc 96 3f 58 e3 90 3f
       0.81184083 1.0982893 1.1776166 1.131938
000020 fe ec 95 3f 2f ee 8b 3f 50 30 8a 3f 03 7b 0a 3f
       1.1712949 1.0932063 1.0795994 0.5409395
000030 bc 54 33 3f c9 a3 91 3f ab fa a0 3f b2 18 99 3f
       0.7005117 1.1378108 1.2576498 1.1960661
000040 03 a4 9c 3f 78 c1 92 3f 6c 14 63 3f c7 81 6e 3f
       1.2237552 1.1465292 0.88703036 0.93166775
000050 f9 ed 87 3f 55 b1 86 3f 7a 27 94 3f 30 99 a2 3f
       1.0619498 1.0522867 1.1574547 1.2702999
000060 3a 59 8e 3f 7d a8 96 3f 8c 1b ad 3f 21 bd 0e 3f
       1.112098 1.1770169 1.3524032 0.5575734
000070 b2 a9 98 3f 71 09 5e 3f 12 23 8d 3f aa ba 9d 3f
       1.1926787 0.86733156 1.1026328 1.232259
000080 a6 af 91 3f 79 f0 94 3f 7a 33 95 3f e0 68 99 3f
       1.1381729 1.1635886 1.1656334 1.198513
000090 6e 13 93 3f e4 34 6e 3f 75 f5 e3 3e 5e fc 94 3f
       1.1490304 0.93049455 0.44523206 1.1639516
0000a0 f6 bb 91 3f bc b0 96 3f 13 5c 9c 3f 58 5b 8f 3f
       1.1385486 1.1772685 1.2215599 1.1199751
0000b0 fe 59 92 3f 28 0a 9e 3f 3e 25 03 3f 71 8c a0 3f
       1.1433713 1.234685 0.512287 1.2542859
0000c0 69 95 94 3f db fa 8c 3f c2 a6 9c 3f c3 f9 89 3f
       1.1608096 1.1014055 1.223839 1.0779346
0000d0 f5 73 9b 3f e3 e2 8b 3f 9c 0e 77 3f c3 d0 8b 3f
       1.2144762 1.0928615 0.9650667 1.0923084
0000e0 ea cf 8d 3f a3 b1 7e 3f 62 c1 78 3f e2 7a 98 3f
       1.1079075 0.994898 0.9717008 1.1912501
0000f0 38 83 94 3f 9b d7 94 3f fd 30 8b 3f ff 16 6a 3f
       1.1602545 1.1628298 1.0874325 0.9144134
000100 3f 41 99 3f 7b 1f 87 3f 31 08 9b 3f cb cd 90 3f
       1.1973037 1.0556482 1.2111875 1.1312803
000110 f7 d5 82 3f b9 ab 47 3f 1e ab 82 3f ce 3b a5 3f
       1.0221547 0.779964 1.0208471 1.2908876
000120 f5 c7 73 3f 9d 94 7a 3f 31 22 90 3f 6f 65 98 3f
       0.95226985 0.97883016 1.1260434 1.1905955
000130 25 64 8c 3f c6 d5 9f 3f a3 09 84 3f c3 9f 98 3f
       1.0968062 1.2487113 1.0315441 1.1923755
000140 26 99 86 3f 2f d0 7b 3f 9b 99 8d 3f 41 8b a2 3f
       1.0515487 0.9836454 1.1062502 1.2698747
000150 c5 f2 98 3e 93 8c 7d 3f 17 73 9d 3f 7b a9 92 3f
       0.29872718 0.99042624 1.2300748 1.1457971
000160 aa 10 95 3f 42 2c 8e 3f aa 8f 86 3f 46 b2 a1 3e
       1.164571 1.1107256 1.0512593 0.31581324
000170 ed 2c 7a 3f 02 03 5c 3f 16 ad 91 3f c0 84 8c 3f
       0.977248 0.8594209 1.1380947 1.0978012
000180 13 a9 4d 3f 2d b9 9c 3f 48 b5 9f 3f 5d 21 8e 3f
       0.8033611 1.2244011 1.2477198 1.1103932
000190 25 dd 99 3f 80 6d a4 3f 71 45 a7 3f 2c 01 80 3f
       1.2020613 1.2845917 1.3068067 1.0000358
0001a0 7f 05 8d 3f 94 cc 48 3f fe bc 98 3f f9 a8 3c 3f
       1.1017302 0.7843716 1.1932676 0.7369533
0001b0 fd fa 9a 3f 26 7e a6 3f b0 b2 9f 3f 9c 32 85 3f
       1.2107846 1.3007247 1.2476406 1.040607
0001c0 e4 80 a5 3f 13 59 b9 3e 76 a9 8d 3f ef 84 68 3f
       1.2929959 0.3620077 1.106734 0.9082784
0001d0 45 68 91 3f 8a 30 9b 3f d1 17 a2 3f 36 61 54 3e
       1.1359946 1.2124188 1.2663518 0.20740208
0001e0 07 48 95 3f d3 c8 8a 3f 71 76 8e 3f 93 b1 7b 3f
       1.1662606 1.0842537 1.1129895 0.9831783
0001f0 58 c1 91 3f 31 dc 82 3f 3b b4 90 3f 72 0e 90 3f
       1.1387129 1.0223447 1.1305002 1.1254408
000200 58 81 99 3f 08 66 88 3f a6 02 03 3f c9 c5 99 3f
       1.1992598 1.0656137 0.51175916 1.2013484
000210 9a d1 8f 3f 0d 83 96 3f 66 3b 7f 3f c3 cd 93 3f
       1.123584 1.1758744 0.9970001 1.1547168
000220 64 62 81 3f af bd 99 3f e8 a6 99 3f 26 95 82 3f
       1.0108151 1.2011012 1.2004061 1.0201766
000230 25 6f 91 3f a4 e7 9c 3f 90 9f a0 3f 86 6b 29 3f
       1.1362044 1.2258191 1.2548695 0.6617969
000240 7b b4 23 3f 97 6d 31 3f 5b 08 92 3f fd fb a8 3f
       0.63947266 0.69307846 1.14088 1.3201901
000250 3f 91 8e 3f 65 a0 a9 3f
       1.1138076 1.3252074

ClassificationFd1da27.0.bias f4 [150]
000000 f6 38 59 3c 91 05 63 bc cc 0c 16 bd f0 80 e2 3c
       0.013258209 -0.013856308 -0.036633298 0.027649373
000010 a3 2e d7 bb cf d6 52 bb 4f e2 e7 3b f7 e6 ff bb
       -0.006566839 -0.0032171493 0.0070765386 -0.0078095156
000020 cf 5e 90 3d 84 64 84 3c 11 95 5b 3d ea 90 74 bc
       0.07049333 0.01616121 0.053608958 -0.014927128
000030 ff af 17 bc c8 b3 ca 3c 9b c6 ec 3d 3d 88 ff 3c
       -0.009258269 0.02474393 0.115613185 0.031192893
000040 26 8b 7e 3d 37 8a 7b bc 80 16 fc 3c f5 cb a0 3c
       0.06214442 -0.015352777 0.030772448 0.019628504
000050 06 60 e1 3c a1 e3 81 3b 01 4a 9a bd 43 f0 27 3d
       0.027511608 0.003963903 -0.075336464 0.041000616
000060 c8 a4 79 3d df f9 f9 3a 92 a4 48 3d 74 1c 60 ba
       0.060948163 0.001907166 0.04898507 -0.0008549162
000070 b4 18 6c 3d 33 18 09 3d c7 9f 97 3d 3b ee f8 bc
       0.057640746 0.033470344 0.07403522 -0.030387035
000080 8f a4 9b 3c e1 6e 5f bc 1d dc f5 3c 44 a6 67 3c
       0.018999366 -0.013637275 0.030012185 0.014138762
000090 8f fd 2d 3d 54 6a ab bb 5d 19 3e bc 1e 13 d0 3c
       0.04247814 -0.005231181 -0.011602727 0.02539974
0000a0 26 c5 47 bd 4b 84 91 3c 26 88 b2 3c 61 07 4f 3d
       -0.048772 0.017763278 0.021793436 0.050544146
0000b0 ef c7 33 3d 2b 2e 57 3b 3b 41 e2 bb ea d8 15 bc
       0.043891843 0.0032833915 -0.0069047487 -0.009145955
0000c0 a7 af ad 3c c8 7f 8d 3d ea 7b 96 bb 2a a7 77 3d
       0.021201922 0.06909138 -0.0045924084 0.060462154
0000d0 a9 fd 8a 3c a8 82 d6 3b 64 b1 3c 3d 36 9b c4 3c
       0.016966658 0.006546337 0.04606761 0.023999792
0000e0 d9 31 9c 3d b5 1f b6 bc 3a 9a ec bc 40 9a 31 3d
       0.07626695 -0.022231916 -0.028882135 0.043359995
0000f0 04 cc b7 ba 0f 10 23 3c 15 3b ac 3c 32 bf 0a 3d
       -0.0014022593 0.009952559 0.021024266 0.033873744
000100 62 b6 3f 3d 49 52 80 3d b6 86 7d ba 60 aa 40 3d
       0.046804793 0.06265695 -0.00096712576 0.047037482
000110 74 c8 55 bc 15 1a 91 bc 35 f9 a3 ba b6 62 bd bc
       -0.01304828 -0.017712632 -0.0012510183 -0.023118358
000120 b5 9a cd 3c a4 09 01 bb 50 2c 76 bc b7 2a 0c bc
       0.025098184 -0.0019689584 -0.015025213 -0.008555106
000130 16 81 91 3d 50 8b b8 3c 48 25 4f 3c 74 90 81 3c
       0.07104699 0.022527367 0.012643166 0.01581595
000140 d3 a6 0e bd cf 17 46 bc 40 7c 80 3d a0 c6 69 3d
       -0.034827065 -0.012090637 0.06273699 0.05707419
000150 aa 5e 1b bb 3f 0c d2 ba f5 d2 45 3d 8e 29 83 bd
       -0.0023707547 -0.0016025378 0.048296887 -0.0640441
000160 e7 3e 04 3c bf aa 28 bc 2c 22 e0 3c 7a fe 43 bc
       0.008071638 -0.010294615 0.027360044 -0.011962527
000170 9f 02 b4 bb 18 a5 a6 bb cf 07 fc 3c 00 48 23 3d
       -0.0054934765 -0.0050855987 0.030765442 0.039863586
000180 ad 86 a2 3c c1 05 29 3d 48 3a 41 3d 2f 72 13 3c
       0.019839609 0.041265253 0.047174722 0.008999391
000190 39 cd 91 bc eb c6 94 3d 01 97 64 3d 85 c6 e4 3a
       -0.017798053 0.07264503 0.05580807 0.0017454183
0001a0 1c 10 03 3d 42 93 24 3c 8b fc f0 bc 50 0e e8 3c
       0.031997785 0.010044875 -0.029417297 0.028327137
0001b0 24 8f 2e 3d 55 34 ec 3c d1 15 26 bc be d1 14 bd
       0.04261698 0.028833548 -0.010137037 -0.03633284
0001c0 e4 d6 b0 3b b6 a7 a1 bb 02 b8 a3 3d 9f 97 f3 bc
       0.0053967107 -0.004933323 0.07994081 -0.029735385
0001d0 41 0a 0d 3d 1b 4a a4 3c ff 8a 84 3d e1 be b4 bb
       0.034433607 0.020054867 0.06471824 -0.0055159186
0001e0 56 1d 83 3d fc ab 9d 3c c3 fb 85 3b d4 e8 f5 3b
       0.0640208 0.019247048 0.00408885 0.007504562
0001f0 57 77 1a 3c c1 85 a2 3c e0 ad 36 3c 84 93 08 3c
       0.009427867 0.01983917 0.0111498535 0.008335952
000200 a4 af 68 3d 49 dd a3 3c 96 de 16 bb ba 46 ad 3c
       0.05680813 0.020002978 -0.0023020855 0.02115189
000210 59 cc b5 bc 2b 84 99 3d d6 f2 1c bc 8a 8b 39 3d
       -0.022192167 0.07495912 -0.009579381 0.04529909
000220 95 da 0d 3a a4 3e 63 3c f9 ac 23 3d b8 84 40 3c
       0.00054112944 0.013869915 0.03995988 0.011750393
000230 64 af a7 bb ce de f7 3c e3 8e 4b 3d 20 be eb bc
       -0.0051173437 0.030257609 0.049696814 -0.028777182
000240 8c c3 82 bb 54 b4 a5 bc d6 42 fb 3c d6 59 47 3d
       -0.003990596 -0.020227589 0.030671518 0.04866966
000250 e8 55 ca 3c 71 88 a7 bc
       0.024699166 -0.020450803

ClassificationFd1da27.0.running_mean f4 [150]
000000 d3 52 12 3b 78 3b 4e bd 5c 84 2b 3d b6 4d 30 bd
       0.00223272 -0.050349683 0.041874275 -0.04304286
000010 b3 b4 aa bc 13 47 51 bd 20 1a 1f 3e 8d 9f 64 bc
       -0.020838117 -0.051093172 0.1553731 -0.0139540555
000020 81 a7 a3 bd ca e6 45 3d 7d a7 28 bb b4 8b 6b bd
       -0.07990933 0.0483158 -0.0025734596 -0.05750628
000030 69 6d 85 bd 68 73 8c 3b 57 cc b2 3b 36 d9 94 3d
       -0.06515009 0.0042862184 0.005456488 0.07267992
000040 58 a2 b5 3d d9 1b fb bc d4 16 66 be 57 84 4d bd
       0.08868855 -0.030652927 -0.22469646 -0.050175037
000050 0e a8 6a 3e d7 d3 5e 3e 14 58 28 3d d2 a6 67 bc
       0.2291567 0.21760498 0.041099623 -0.014138894
000060 87 de 55 3d d2 80 9c bd 4e 24 51 3c 71 b6 95 be
       0.05221417 -0.07641758 0.012765003 -0.29240754
000070 1a 47 1e bd ea 24 bc bc 67 ff 6e bb 4c 28 7d 3d
       -0.038642026 -0.02296682 -0.003646815 0.06180601
000080 6c 10 3b 3d fd 23 e3 3b bf 23 e4 3c 84 df 52 3c
       0.045669958 0.0069317804 0.027849076 0.012870673
000090 f1 0b ba 3c c9 8b 7f 3e 56 08 f6 bd c7 2e 04 3d
       0.022710772 0.24955668 -0.12013309 0.032271173
0000a0 87 a5 f8 3b 1b 3d c6 3c 1f 66 55 3c d2 e8 8e be
       0.007588092 0.02419906 0.013024836 -0.27912003
0000b0 d0 48 fc bc 4d 9a 54 3e e3 ad 14 bd 5d 2b bb bc
       -0.030796438 0.20761986 -0.036298644 -0.022847826
0000c0 a5 0e 88 3d 57 69 8e bd 41 36 8a bb 7d 95 69 bd
       0.06643418 -0.06953686 -0.0042178934 -0.05702733
0000d0 17 f3 b0 bc 15 1f d5 3c 6e 05 15 be 48 ad da bd
       -0.02160029 0.026015798 -0.14552853 -0.10677582
0000e0 d8 89 8c 3c fd a0 b1 bd 53 ba 83 3c fb 63 12 3c
       0.017155573 -0.08673284 0.016080057 0.00893497
0000f0 ea 0e 38 3b 46 bc 3f 3c 0f a7 d1 bd 2e d7 b2 bb
       0.0028085061 0.011702603 -0.10236942 -0.0054577803
000100 be 9e 10 3c 90 fa e6 bc 06 37 32 bd 6b 77 34 3d
       0.00882691 -0.02819565 -0.043509506 0.0440592
000110 90 13 8c 3e b1 c6 fa 3e e2 42 b3 bc f1 fa 73 3d
       0.27358675 0.48979715 -0.021882478 0.05956549
000120 40 76 c0 3c 3d ed d6 3d 19 c3 b7 3c bd ee 39 3d
       0.023493886 0.10494468 0.022431897 0.045393694
000130 68 17 40 3d af b5 18 3d 58 c0 0f bd 76 32 3a bd
       0.046897322 0.037282642 -0.035095543 -0.04545828
000140 99 f1 1f bd 33 69 2f bd 04 4d ba 3b bc 48 20 3d
       -0.039048765 -0.042824935 0.0056854505 0.039131865
000150 e8 32 45 bd f8 42 da bc dc 19 a1 3d f7 62 91 bd
       -0.04814425 -0.026643261 0.078662604 -0.07098954
000160 60 7e 94 3c de 79 16 3d 37 e7 79 3e 08 e6 90 bd
       0.018126667 0.036737315 0.24404608 -0.07075125
000170 ec 28 52 bd 5f 93 06 bc a3 3d b2 bc 8c e4 60 bd
       -0.051308557 -0.008213847 -0.021757906 -0.05490546
000180 e8 77 13 bf a0 1f e9 3c b4 5a 7d bc 9b 07 af 3b
       -0.5760484 0.028457463 -0.01546352 0.005341483
000190 b6 30 d0 3d f9 ee 56 3d da 39 a7 bd a4 05 ff bd
       0.10165541 0.052473996 -0.08165331 -0.12452248
0001a0 dc 1c 63 3e c6 0e 03 bd 56 8a 71 3c 29 0e 4f 3a
       0.22178978 -0.03199651 0.0147424545 0.00078985334
0001b0 98 36 01 bd 17 44 3c 3e 31 3b a9 bc 90 fe e9 3c
       -0.031546205 0.18385349 -0.020658107 0.028563768
0001c0 17 51 34 3d e1 60 88 bd 59 8e e8 bc 2f 99 87 3d
       0.044022646 -0.06659103 -0.02838819 0.06621014
0001d0 b6 39 95 3b d4 6a 25 3c 33 ad 6c 3e 95 b6 79 bd
       0.004553999 0.010096271 0.23112945 -0.06096514
0001e0 de bc b7 bc 2f 53 83 3d c2 23 25 be 3f f0 72 3e
       -0.022428926 0.064123504 -0.16126922 0.23724459
0001f0 c1 88 ac 3c a3 31 37 3e 1a 41 b2 3d ee 38 9b 3b
       0.021061303 0.17890029 0.087038234 0.004737011
000200 45 40 d6 3d b8 83 02 be c8 c5 a3 bd 5a 13 80 bb
       0.10461477 -0.12745559 -0.07996708 -0.003908557
000210 21 e0 9c 3d d6 15 c5 3d b7 3a 5d 3d 2d 30 3a 3d
       0.07659937 0.096233055 0.054011073 0.0454561
000220 60 45 0b be 59 9d b8 3d 77 33 02 bd d0 9d 85 3c
       -0.13600683 0.09014387 -0.031787362 0.016310602
000230 4b f9 5e 3c 1f 7c cd 3c 4b 01 10 3d 31 d4 2c bf
       0.013609241 0.0250836 0.035157483 -0.6751128
000240 12 69 27 3d 17 4a ef 3c cd 57 38 bc 5f 07 72 bc
       0.040871687 0.029210133 -0.011251402 -0.014772265
000250 94 9b 51 3d 27 94 d9 bb
       0.05117376 -0.0066399756

ClassificationFd1da27.0.running_var f4 [150]
000000 fc 5c c0 39 31 b7 6f 3a 0b ac 37 3b a4 a9 9c 39
       0.00036690373 0.0009144424 0.002802613 0.0002988103
000010 bf 81 c0 39 4b 1d 94 39 c2 25 bd 3a 75 31 b6 3a
       0.00036717762 0.00028250585 0.0014430808 0.0013900237
000020 36 7f dc 3a b2 d0 f4 39 a2 a4 2c 3a 77 4e d5 3a
       0.001682258 0.00046694797 0.00065858115 0.0016273995
000030 9b 3c 51 3b b2 16 44 3b 08 8a 0d 3b 78 b0 c5 3b
       0.0031926993 0.0029920754 0.0021597166 0.0060329996
000040 fe 37 2c 3a 04 d0 05 3a 86 b9 d6 3c a6 fd ea 39
       0.0006569623 0.0005104544 0.026211511 0.0004482094
000050 b9 b3 39 3b 31 3c b4 3a 9d ae 21 3a 4d 50 c5 3a
       0.0028335883 0.0013750849 0.0006167682 0.0015053839
000060 00 e0 ca 3a 15 4b 93 3a 30 88 6b 3a a9 2a 13 3a
       0.0015478134 0.0011237586 0.0008984832 0.0005613962
000070 19 10 cc 3b 8f af 36 3c 21 e4 1a 3d 21 11 93 3b
       0.006227505 0.011150255 0.037815217 0.004488126
000080 c7 a8 c0 39 27 b1 90 39 97 75 50 3c a9 4e f4 3a
       0.00036746843 0.0002759781 0.012723348 0.0018639165
000090 74 34 d4 3b 13 7c 61 3b 21 2e 2e 3c 43 22 36 3b
       0.0064759795 0.003440623 0.010631115 0.0027791418
0000a0 be 95 df 39 11 68 fd 3a 56 43 5c 3a f4 0b 55 3b
       0.0004264544 0.0019333382 0.0008402368 0.0032508345
0000b0 79 26 7c 39 3a 49 09 3b 7e 7d 83 3a 0b 80 3b 3a
       0.00024046925 0.0020948187 0.0010031906 0.0007152564
0000c0 26 cc b9 3a 40 ee 5c 3b 43 a1 8d 39 41 f5 e3 3a
       0.0014175221 0.0033711344 0.00027013765 0.0017391817
0000d0 dc 2e 2f 3a 50 9f aa 39 90 51 6c 3b c5 49 1f 3b
       0.0006682703 0.00032543624 0.0036059357 0.0024305445
0000e0 5f 0f 03 3a 19 fc 16 3a a4 9c 2c 3b f2 26 c9 3b
       0.0004999544 0.00057596114 0.0026338482 0.006138676
0000f0 e8 e0 48 3a f3 9b 90 3a 20 88 10 3a 37 1d 0e 3b
       0.0007662908 0.0011032805 0.0005513448 0.0021684894
000100 25 1a 85 3a a1 b7 39 3a 98 55 82 3a 33 5e 09 3c
       0.0010154886 0.0007084553 0.0009943722 0.008384275
000110 8e 08 46 3b c8 74 aa 3b a6 9d 58 3a 7a 0e 85 3b
       0.0030217501 0.0052019097 0.00082632375 0.0040605636
000120 be a4 cd 39 cb ce ef 39 2a b7 9c 3b ea b6 86 3b
       0.0003922339 0.00045739705 0.004782577 0.0041111605
000130 f3 3e fa 39 9e cf 33 3b 61 9a 47 3a 30 59 44 3a
       0.00047730617 0.0027436982 0.0007614252 0.00074900966
000140 45 e7 5b 3b be 21 f0 3b 48 55 31 3a 9d a8 29 3b
       0.0033554595 0.007328241 0.0006764722 0.0025887855
000150 1b fb a4 3b d9 d7 55 3a 43 af cf 39 2f 8b 42 3a
       0.005034817 0.0008157469 0.00039612697 0.00074212527
000160 1f d6 4b 3b 52 42 fd 39 ff 0c bf 3b 58 b9 10 3b
       0.0031102968 0.00048305333 0.0058304067 0.002208313
000170 6e 76 ee 3b ac a1 e4 39 f2 66 4d 3b 03 76 17 3a
       0.0072773015 0.00043608004 0.0031341878 0.0005777778
000180 3d c3 dd 3a 7e 3e 0e 3b f5 6e 52 3a 4c 57 9f 39
       0.0016919147 0.0021704729 0.0008027398 0.00030391885
000190 c8 25 6b 3b d8 6d 15 3c c5 11 03 3b 68 94 ee 3a
       0.0035880674 0.009120427 0.0019999605 0.0018202187
0001a0 ce 19 c5 3a e9 df 48 3b 55 92 0c 3a 11 03 9a 3a
       0.0015037598 0.003065104 0.00053623813 0.0011750181
0001b0 e5 8e b2 39 f0 31 56 3b 17 2c af 3a a8 57 4f 3a
       0.0003405727 0.0032683574 0.001336458 0.0007909485
0001c0 71 8f 2a 3b 30 fe 17 3a 8a a4 de 39 ed 9a c2 3c
       0.002602544 0.000579807 0.0004246573 0.023755515
0001d0 5f 01 76 3b 9e 7c 55 3b ea 30 a9 3b 01 22 d2 39
       0.0037537438 0.0032575498 0.0051633017 0.00040079656
0001e0 75 30 3a 3a 1f 8e 50 3a cf 48 25 3c 71 02 86 3b
       0.00071025576 0.0007955748 0.01008816 0.0040896465
0001f0 b8 11 dd 3b d1 e2 ee 3a 57 5f 95 3b 22 72 b9 3a
       0.006746497 0.0018225556 0.0045584845 0.0014148394
000200 a4 05 a0 3a cc c2 06 3a 03 bf 83 3c 83 3e 8d 3b
       0.0012208712 0.00051407213 0.016082292 0.0043104305
000210 ac 49 71 3b 63 5b b0 3a e5 12 38 3b 92 11 4a 3a
       0.0036817594 0.001345497 0.0028087434 0.00077083067
000220 0a 4f a3 3b 8d 2e ef 3a d0 52 5c 3b 47 0d 4f 3a
       0.0049837874 0.0018248126 0.0033618696 0.0007898402
000230 b2 a6 56 3a 19 ac 64 3a 94 69 ab 3a 26 75 fa 3a
       0.00081882917 0.00087231543 0.0013077729 0.0019108399
000240 6b 85 8e 39 97 88 08 3b b6 9e 1c 3b 42 8a a2 3a
       0.00027183755 0.0020833367 0.002389831 0.0012400823
000250 65 e5 10 3a 04 30 51 3a
       0.00055273465 0.0007979872

ClassificationCat.0.weight f4 [1, 150]
000000 a9 c9 42 3e ce 9a c2 3d 22 b0 8e be df e0 79 3d
       0.1902224 0.09502183 -0.27868754 0.06100547
000010 c4 38 ca bd ee 52 3f be d0 05 70 3e 0e 25 4c be
       -0.098741084 -0.18683979 0.23439717 -0.1993601
000020 71 65 82 3e 44 c5 43 3e bd 47 3e 3e 3b d9 1b bd
       0.2546802 0.1911822 0.18582053 -0.038048964
000030 4e ab df 3c de 2e 4d 3e 72 1e 9f 3e f1 58 72 3e
       0.027303364 0.2003741 0.31077915 0.23666741
000040 1d 56 90 3e 6c a8 5d 3e a9 75 79 3d ff af 06 3e
       0.281907 0.21646279 0.060903225 0.13153075
000050 4b 84 33 3e aa 51 25 3e 5a 65 7c be 49 a4 92 3e
       0.17530935 0.16144434 -0.24648038 0.28640965
000060 94 e0 46 3e 49 cd 88 be ca ff bd be 6c bd 4c 3d
       0.19421607 -0.2671912 -0.37109214 0.049985334
000070 67 45 81 be ba 6c 98 3d f1 40 39 3e c6 6d 94 be
       -0.25248262 0.07442613 0.1809118 -0.2899
000080 a4 74 5c 3e 45 9e 53 be e3 1a 6b be 17 d9 63 be
       0.2152887 -0.20665844 -0.22959475 -0.22250782
000090 b9 62 51 3e 94 a3 e7 3d b5 98 c1 3b f4 2f 72 3e
       0.20447816 0.11310497 0.0059080967 0.23651105
0000a0 58 48 54 be ef ce 74 3e 0a 77 87 3e de d2 56 be
       -0.20730722 0.23907064 0.26458007 -0.20978877
0000b0 f5 ff 59 be 29 1f 90 be 82 f9 66 3b 57 c9 9f be
       -0.21289046 -0.28148773 0.0035243933 -0.31208298
0000c0 92 7e 6f 3e c4 bb 47 3e 57 5c 7b be 1b 0b 2c 3e
       0.23388126 0.1950522 -0.24546944 0.16801111
0000d0 d6 92 86 3e ea da 49 3e 31 39 e5 3d 08 fd 44 3e
       0.26283902 0.19712415 0.11192549 0.19237149
0000e0 26 1c 47 3e da c7 01 be a5 1b f8 3d 32 4f 88 3e
       0.19444332 -0.12673894 0.12114648 0.2662292
0000f0 4e b1 67 3e 31 0f 53 be 79 20 3c 3e f5 98 14 3e
       0.2262623 -0.20611264 0.18371762 0.14511473
000100 29 e4 8c 3e c9 e2 26 3e 17 70 81 be 04 a8 48 be
       0.27517822 0.16297449 -0.2528083 -0.19595343
000110 e3 40 11 3e 68 0f 54 3d db cc 0f 3e 3a a5 a4 be
       0.14184909 0.051772505 0.1404299 -0.32157308
000120 9d 03 08 be 94 21 f0 3d b4 4d 4b be 0a 42 6e 3e
       -0.13282628 0.117251545 -0.1985386 0.2326738
000130 b1 b3 4c 3e 65 12 95 be da 49 1c 3e af 3c 84 be
       0.19990422 -0.29115596 0.15262547 -0.25827548
000140 54 74 10 be 43 8d cc bd 42 a9 4b 3e c2 60 8b be
       -0.14106876 -0.09987881 0.19888785 -0.27222258
000150 66 4a 49 bb 0e 06 eb bd 94 1a 8b be 3a 5b 4f be
       -0.003071451 -0.11475764 -0.27168715 -0.20249644
000160 fa 7f 5c be 21 b0 3c 3e 02 6d 1a 3e 4d fd 36 bc
       -0.21533194 0.18426563 0.15080646 -0.01116879
000170 86 80 f3 bd 15 08 db bd 09 99 59 3e ca ef 49 be
       -0.11889748 -0.10694901 0.21249785 -0.19720379
000180 20 1e d8 3d 69 0f 96 be 03 dc 96 3e 71 30 4b 3e
       0.10552621 -0.29308632 0.2946473 0.19842698
000190 a8 c3 8e be 25 c9 a4 be 7a 04 a3 be 45 89 17 3e
       -0.2788365 -0.3218471 -0.31839353 0.14798458
0001a0 10 69 48 3e 61 a0 da bd a3 fd 74 be 88 85 90 bd
       0.19571328 -0.10675121 -0.2392488 -0.07056719
0001b0 24 5f 80 3e 72 11 b2 be 75 09 95 be a6 18 19 3e
       0.25072587 -0.34778935 -0.29108778 0.14950809
0001c0 0d dc 90 be 25 be fc 3b f0 c6 3a 3e 9e 6d 6e 3d
       -0.28292885 0.0077130967 0.18239951 0.058210008
0001d0 ff 75 51 be 46 aa 8b be 68 9c 9f be ba 35 39 3c
       -0.20455168 -0.27278346 -0.31174016 0.011304313
0001e0 38 c2 5e 3e cc be 34 3e 23 e3 2d be 78 91 de bd
       0.21753776 0.17650908 -0.16981177 -0.1086759
0001f0 20 33 53 be b2 92 09 be fc 62 4f be a5 0f 54 3e
       -0.20624971 -0.13434866 -0.20252603 0.20709093
000200 da 1e 8d 3e b2 f5 39 3e 6c 08 4a bc 79 43 8c 3e
       0.275626 0.18160132 -0.0123311095 0.27395228
000210 de 3a 44 be 5b a6 7b 3e 39 8b 00 3e b0 7c 75 3e
       -0.19163081 0.24575178 0.12553109 0.23973346
000220 aa 50 04 3e e9 05 85 3e be c3 85 be 0d 59 10 3e
       0.12921396 0.25981072 -0.26125902 0.1409647
000230 ce 6f 46 be 61 0d 97 be 30 2d 8b be 2d 57 8d 3d
       -0.19378588 -0.29502395 -0.27182913 0.06901393
000240 f5 8d be bd 53 38 90 bd 7a 4b 58 3e d3 ea bc be
       -0.0930442 -0.07041993 0.21122542 -0.36897907
000250 5f 5f 47 3e 49 71 a0 be
       0.19469975 -0.3133643
