models/2023-05-18_23-09/3/pytorch/E-5_VA-0.7500_VL-75.17_TA-0.6333_TL-90.39.pt (torch, 862056 bytes, 63 tensors)

TSA.conv.weight f4 [3, 3, 3, 3]
000000 0c 2c bc 3c 8e 7e 7d 3c 37 88 62 bc 91 19 14 3d
       0.022970222 0.0154720675 -0.013826421 0.036157195
000010 b1 5b 80 3f 01 fc 55 bb d9 b2 23 3d 66 b1 06 3d
       1.0027982 -0.0032651427 0.039965484 0.032884024
000020 de d6 a0 3b 83 3d aa 3c f0 91 82 3c 0c 6c 6f bc
       0.0049084267 0.020781284 0.015938729 -0.014613163
000030 68 69 01 3d 06 25 80 3f 46 52 31 bb d8 08 09 3d
       0.031594664 1.0011299 -0.0027057095 0.0334557
000040 86 ec 02 3d 81 d5 be 3b c8 05 9a 3c 0f fc 69 3c
       0.031963848 0.0058237915 0.018801585 0.014281287
000050 8a 51 a3 bc 2e 8d fa 3c 5b 98 7f 3f b1 7f 03 bc
       -0.019936342 0.030584898 0.9984185 -0.0080260495
000060 e6 9b fb 3c f9 b9 e5 3c 1c f8 61 39 19 a8 04 bd
       0.030713987 0.02804278 0.000215501 -0.032386873
000070 62 b3 90 3c 96 7c 83 3d 51 18 35 bd 9d 9a 7b 3f
       0.017663661 0.06420247 -0.044212643 0.98282796
000080 4d b5 7e 3d 67 3c 53 bd 21 e6 99 3b 5b db 57 3d
       0.06218462 -0.051571276 0.004696623 0.052699428
000090 4d 04 12 bd 5a c1 82 3c c4 f3 8e 3d ef 0c 42 bd
       -0.035648633 0.015961338 0.06980088 -0.047375616
0000a0 7d ea 7a 3f 23 78 8a 3d 06 bf 5a bd 0c 52 4e 3b
       0.9801405 0.067611955 -0.05340483 0.003148201
0000b0 c2 5e 69 3d 83 65 f4 bc 86 62 85 3c 5b ba 81 3d
       0.056975134 -0.02983356 0.016282331 0.063343726
0000c0 21 95 2f bd d1 95 7a 3f 32 2d 78 3d c6 c3 4c bd
       -0.04286683 0.9788485 0.060589977 -0.04999139
0000d0 db 8e 5a 3b e1 b7 4a 3d 60 f3 02 bc 2c 71 c3 3c
       0.0033349309 0.049491767 -0.007992595 0.023857675
0000e0 79 af 4a 3d b8 f4 20 bc bb ed 7f 3f 16 bc 49 3d
       0.04948375 -0.0098239705 0.9997212 0.04925164
0000f0 05 43 50 bc a9 b8 a9 3c 00 04 39 3d fe 68 7e bc
       -0.012711291 0.020717936 0.04516983 -0.015527962
000100 02 d1 9e 3c 23 ee 4d 3d 9c b1 91 bc 1c 4e 7e 3f
       0.019386772 0.050275933 -0.017784886 0.99337935
000110 74 73 4e 3d 28 31 a5 bc d2 b3 86 3c ce 3d 3f 3d
       0.050403073 -0.020165041 0.016443167 0.0466898
000120 12 03 55 bc 65 db 96 3c 1a ec 3c 3d a4 0c 77 bc
       -0.01300122 0.018415162 0.0461236 -0.015078697
000130 68 21 7e 3f ec 1d 3d 3d 0c 46 91 bc 67 ab 7d 3c
       0.99269724 0.046171114 -0.017733596 0.01548276
000140 78 d8 23 3d
       0.040001363

TSA.conv.bias f4 [3]
000000 73 6e 52 bc 3f cf e5 bb 03 23 74 bc
       -0.012843716 -0.007013231 -0.014900926

FPN.0.weight f4 [3]
000000 5a 17 80 3f 16 81 77 3f ad f9 7b 3f
       1.0007126 0.96681345 0.9842785

FPN.0.bias f4 [3]
000000 34 53 2b bb a1 2f ea 3a 49 73 a5 3a
       -0.0026142122 0.0017866978 0.0012622859

FPN.0.running_mean f4 [3]
000000 60 33 03 3f dd 93 df 3e 4c 2c cc 3e
       0.5125027 0.43667498 0.39877546

FPN.0.running_var f4 [3]
000000 85 da 95 3d 87 da 68 3d cb fc 66 3d
       0.0731707 0.05684903 0.056393426

FPN.1.conv.weight f4 [4, 3, 3, 3]
000000 47 4e ef bd 29 e8 27 bd 85 d2 3b 3e 84 8e e3 bd
       -0.11684852 -0.04099289 0.18342026 -0.11111167
000010 7e a2 37 be 68 2b 85 bd 4b 00 9b 3d 82 b3 d9 3d
       -0.1793308 -0.0650242 0.07568415 0.106299415
000020 3c ba 18 3e a7 35 bb 3d a6 ca 11 3e 05 cd 9d bd
       0.14914793 0.09141093 0.1423746 -0.0770512
000030 06 99 fb 3d fd d6 19 3c 57 8b ce 3b 31 81 ce bd
       0.12285046 0.009389636 0.0063032317 -0.10083235
000040 ec ba 07 3e 3e 85 43 3d c5 b3 dc bb 34 a3 49 3e
       0.13254899 0.04773449 -0.0067352974 0.19691163
000050 9f df 04 3e 34 f8 10 3e 1b 08 61 3d c3 9a 07 be
       0.1297593 0.14157182 0.05493937 -0.1324263
000060 58 d4 d8 bd 7a 2a 79 3c 8f c3 46 bd 01 b4 68 bd
       -0.10587376 0.015207881 -0.048526343 -0.05681229
000070 ab 1f 24 3d f4 8b b9 bd c9 07 ca 3d 06 95 19 3c
       0.040069263 -0.09059897 0.09864766 0.009373909
000080 4c 72 5f bd 8e 6f 34 be 82 fb 0b bd 75 1d 0f be
       -0.05455236 -0.1762068 -0.034175403 -0.1397608
000090 99 78 21 be a7 84 01 3e 0d 7a 0e 3e 8a 48 be bd
       -0.1576866 0.12648259 0.13913746 -0.092911795
0000a0 32 7a ee bd c6 87 11 3e c6 eb c2 bd a8 72 b0 3d
       -0.11644401 0.1421195 -0.095176265 0.08615619
0000b0 65 72 56 3d 34 47 a0 3c 3e 83 45 3d f1 27 b4 bc
       0.05235519 0.019565202 0.048220865 -0.021991702
0000c0 6d b2 96 3c 3c 38 fd bd 15 07 ce 3d 0b 9f 66 bd
       0.018395627 -0.123642415 0.100599445 -0.05630402
0000d0 a5 39 7e bc a8 f3 0b 3e 66 65 89 3d be e4 bf 3d
       -0.015516673 0.13667166 0.06708793 0.09369801
0000e0 4d 81 92 bd 7f 58 8c 3d 78 20 59 bd 64 4d 10 3c
       -0.071535684 0.06852817 -0.05300948 0.008807514
0000f0 a2 2e bd 3d 31 14 34 be b5 4a 42 3e 8a f9 c0 3d
       0.0923741 -0.17585827 0.18973811 0.09422596
000100 97 6e 0c be 57 6c 4c 3e be 6d 57 bd b3 5c fb bd
       -0.13714062 0.19963203 -0.052594893 -0.1227354
000110 dd 81 7b bd 45 93 e6 3d a4 76 9a 3d 0c 13 53 3e
       -0.061403144 0.11258558 0.0754216 0.20612735
000120 d0 20 ca bd b2 fc 02 be 81 9e 2a 3e 6e 88 90 bd
       -0.0986954 -0.12791708 0.16662027 -0.07057272
000130 87 4b 97 3c a8 6b 63 3c da 45 d5 3d 5e 16 07 3e
       0.018468631 0.013880648 0.10413714 0.13192126
000140 be 70 24 3e 85 70 0f 3e ed 66 28 3e b5 e5 dd bd
       0.16058633 0.14007767 0.16445513 -0.10834829
000150 86 bd 84 3d ec 70 3c 3e 94 fe 36 be df 8b 11 3e
       0.06481461 0.18402451 -0.17870551 0.14213513
000160 5b e4 36 be 5b 70 ae bd 01 e3 c7 bd dd d9 01 be
       -0.17860548 -0.08517524 -0.097600944 -0.12680764
000170 62 5a bb bd fb d3 30 3e ba 7b 92 ba 96 49 a2 3c
       -0.091480985 0.17268364 -0.0011175789 0.01981048
000180 b4 47 56 3b d5 b6 d9 3d ae 9c 51 3d 22 30 fa 3c
       0.0032696547 0.106305756 0.051174812 0.03054053
000190 c0 0a 20 3d 5d cd 6b 3d 9e 4b 51 3e b5 ee f0 bd
       0.039072752 0.057568897 0.20439002 -0.1176428
0001a0 d3 ff a2 bd 62 c2 0c be 30 54 3f bc 53 18 44 3d
       -0.07958951 -0.13746026 -0.011677787 0.04787476

FPN.1.conv.bias f4 [4]
000000 df e1 c6 32 81 1c 5b 33 fe 96 da 38 da f7 b6 b6
       2.3152948e-08 5.1015835e-08 0.000104231745 -5.4528764e-06

FPN.1.bn.weight f4 [4]
000000 c0 82 7c 3f 84 33 81 3f cb e3 7d 3f f7 1c 79 3f
       0.9863701 1.0093846 0.9917571 0.9730982

FPN.1.bn.bias f4 [4]
000000 a6 95 28 3c f5 82 b5 3a ac 92 9f bc a4 39 71 b9
       0.010289585 0.0013848232 -0.019479118 -0.00023005024

FPN.1.bn.running_mean f4 [4]
000000 fe 12 72 3c 71 18 d2 bb f1 ec c1 3c 57 a4 52 3b
       0.014775036 -0.006411605 0.023672553 0.0032141411

FPN.1.bn.running_var f4 [4]
000000 9c 44 8f 3e e7 57 cf 3d 47 68 0d 3f ed 95 07 3e
       0.27982032 0.10124188 0.5523724 0.13240786

FPN.3.conv.weight f4 [6, 4, 3, 3]
000000 59 89 e4 bd 66 bc 0f 3e 91 88 c4 3d 8b c1 2c bd
       -0.111590095 0.14036712 0.095963605 -0.042176764
000010 f0 d3 41 3d 5b be 13 3e dc ed 1d 3e c0 bc cf bc
       0.04732126 0.14428084 0.15422767 -0.025358558
000020 46 8a ba bd db fd 7d bc 26 c6 00 be 56 44 35 3d
       -0.09108405 -0.015502418 -0.12575588 0.044254623
000030 9c 15 00 3e 69 eb 9d bd c7 60 0e 3e b4 f1 25 3e
       0.12508243 -0.077109165 0.13904105 0.16205484
000040 a7 6c b2 bd 1f 10 14 bd a1 37 1d be 17 a9 29 3d
       -0.0871213 -0.036148187 -0.15353252 0.041421022
000050 27 05 16 be 98 12 da bb 2b e3 26 3e 02 cc b3 bd
       -0.14650403 -0.0066550486 0.16297595 -0.08779146
000060 c3 d7 4d 3b de 79 1d 3e ca 19 4b bb b7 e5 71 3d
       0.0031409122 0.1537852 -0.0030990713 0.059056964
000070 31 be 99 bc d4 65 3e 3d 44 2f d9 bc 84 56 b2 bd
       -0.018767448 0.04648383 -0.026511796 -0.08707908
000080 ae d8 c4 bc 7c 8f e8 3a 9b 92 17 bd bd ff e4 3d
       -0.024029102 0.0017742957 -0.03700505 0.11181591
000090 14 b4 f6 bd 43 0a 50 bd fc 4c d9 bc 81 d4 be bd
       -0.12046066 -0.050791036 -0.026525967 -0.09317876
0000a0 6a dc 29 be 63 2d ae 3d cf c7 ba 3d 34 8f 09 3e
       -0.16587988 0.085047506 0.09120142 0.13433534
0000b0 57 52 d3 bd db 06 65 bc c7 bc 63 bd 50 17 dc 3d
       -0.103184395 -0.013978685 -0.055599954 0.10746634
0000c0 3a 38 6c 3d e6 1d 26 bd 38 23 3d bd ea 8a c6 bc
       0.05767081 -0.040555857 -0.046176165 -0.024236161
0000d0 bd d4 c6 bd 1c 99 d5 3d f8 02 ea 3b fb da 3c 3d
       -0.09708545 0.10429594 0.007141467 0.046107274
0000e0 ea 25 b2 3d 52 7a 0d be da ca 18 3e aa 41 c7 bd
       0.08698638 -0.13816193 0.14921132 -0.09729321
0000f0 cd 76 27 3c cc 8e 27 3e f7 fb 36 3e a7 e3 55 3c
       0.010221195 0.16363066 0.17869554 0.013054765
000100 25 f2 d1 bd 11 a7 c6 3d 5a b3 dc bd ad cc 83 3c
       -0.102512635 0.09699834 -0.10776396 0.016088808
000110 60 cc f6 bd 2d 13 f9 3d e1 cb d6 bd 73 c5 db bc
       -0.120507 0.121618606 -0.104881056 -0.02682755
000120 63 3f ce bd 3f ea 03 be 2c 64 ba 3d 7b d6 3e bd
       -0.10070684 -0.12882327 0.091011375 -0.046591263
000130 fe f7 18 be 2c 2b ab 3d 56 3e ca 3b c5 26 ea bd
       -0.14938352 0.08357844 0.006171982 -0.11433176
000140 0c 70 a0 bd 2d a8 cf 3d b0 ef 13 be 84 b9 35 3e
       -0.07833871 0.10139499 -0.14446902 0.1774655
000150 24 4f 1b 3d ba 92 0f be fe 22 cf 3d 44 68 cc 3c
       0.03791727 -0.14020815 0.10114096 0.024952061
000160 e6 73 a9 3d 82 50 89 3d bf 10 f2 3d c2 24 23 3d
       0.08274059 0.06704809 0.118196 0.039829977
000170 18 88 b9 3d 20 6b de 3d d2 b0 b6 bd 21 b4 f4 3d
       0.09059161 0.10860276 -0.089204445 0.11948419
000180 c6 75 e8 3d 43 a5 9a 3d ba 45 29 bd 1d 94 95 bc
       0.113505885 0.075510524 -0.041326262 -0.018259102
000190 78 fc 13 be 76 80 ec bd b3 05 55 3c 6a c9 b5 3d
       -0.14451778 -0.115479395 0.013001847 0.08876307
0001a0 b3 8c 0c 3e 71 3d da bd e9 16 0b be 37 50 fe 3d
       0.13725547 -0.1065625 -0.13582958 0.124176435
0001b0 3a e0 c5 bc e1 f8 0e be cd 03 3c bc b5 b8 22 3b
       -0.024154771 -0.13962127 -0.011475516 0.0024829332
0001c0 16 56 e5 3c fa 40 53 bd 2c cb d4 3d 59 17 01 be
       0.02799515 -0.05157564 0.103903145 -0.12606563
0001d0 28 1c 0e 3e f0 de 26 be db c8 88 bd 11 bb 38 be
       0.13877928 -0.16295981 -0.06678935 -0.1804011
0001e0 4c 0a b7 3d 4d ed 26 be 83 5d ca 3c 2d 0c 52 3d
       0.08937511 -0.1630146 0.024702793 0.051281143
0001f0 42 58 a2 bd a4 f4 94 bd f7 d4 37 3d 5e 2c 49 3c
       -0.0792699 -0.07273224 0.044880833 0.012278644
000200 75 ed 0d be 15 d3 43 3d be 1a 0e 3d 8a 98 99 3d
       -0.13860114 0.047808725 0.034693472 0.07499798
000210 f9 2d 0b be ff 51 42 bc aa d1 65 3d 73 be a5 3d
       -0.13591756 -0.01186037 0.056108154 0.08092966
000220 7c 47 a8 3d 3e f9 95 bd ca 63 f2 3c 9a 85 39 bd
       0.082167596 -0.0732293 0.029588599 -0.045293428
000230 44 6f ee bd e0 c8 08 3e d9 78 a7 3d ea 10 fd bd
       -0.11642316 0.13357878 0.08177347 -0.12356742
000240 da 6b 1f 3d 0f 41 dd bd 4c 62 b7 bd 67 7b 96 3d
       0.038921215 -0.108034246 -0.089542955 0.07347756
000250 42 02 7a 3d fb b0 8e bd e8 b2 fa bb 50 e3 ab 3c
       0.06103731 -0.0696735 -0.007650722 0.020982414
000260 b0 d4 03 3e 5d 23 14 be 57 eb 11 3e 59 34 34 3d
       0.12874103 -0.14466615 0.14249931 0.043995235
000270 12 98 97 3d f8 a8 c7 bd 41 4e d1 3d e8 38 21 3e
       0.07402052 -0.09749025 0.10220004 0.15744364
000280 29 8e c3 bd 9f ed f9 bd dc 0d a8 3c ad ff a6 3d
       -0.09548599 -0.12203526 0.020514421 0.08154235
000290 a5 1a af bd 48 dc 10 3c e8 9c a7 bd c5 e5 b3 bc
       -0.08550004 0.008841582 -0.08184224 -0.021960149
0002a0 34 68 0a 3e bd 12 30 3e 24 aa fc 3d 61 30 10 bd
       0.13516313 0.17194648 0.12337139 -0.035202388
0002b0 33 a1 df bd bc 92 fe 3d 84 42 1d be b4 7e 13 bc
       -0.10919418 0.12430331 -0.15357405 -0.009002376
0002c0 52 c3 64 3c e4 9e e9 3d ce 96 c6 bc a3 f7 b9 3d
       0.013962584 0.11407259 -0.024241831 0.09080436
0002d0 ee 96 b7 3d 95 85 74 bd c4 8e 16 be 1e 25 3f 3c
       0.089643344 -0.059697706 -0.14702898 0.011666564
0002e0 ea 85 8c bd ef 07 88 bd a3 e8 28 3e 71 0d 16 be
       -0.068614796 -0.06642138 0.16494994 -0.14653565
0002f0 b0 c9 1d be 0a a3 8d 3d e9 9e 01 3e a9 6b ec bd
       -0.15408969 0.06915863 0.12658276 -0.11543972
000300 2c ce 46 3e bb a8 8b 3d 7c 6f f2 bd 00 b3 db 3c
       0.19414586 0.06819292 -0.1183767 0.026818752
000310 b6 f0 db 3d 54 43 41 bc 61 90 07 bd d5 55 05 3e
       0.10739271 -0.011795837 -0.033096675 0.13021024
000320 96 c1 6a 3c 3c 44 10 3e 6f 9b 0d 3e 48 ac c2 3d
       0.014328381 0.1408853 0.13828824 0.09505516
000330 dc e7 a3 3d 49 82 0c be d2 08 5d 3d 74 67 34 be
       0.08003208 -0.13721575 0.05396349 -0.17617589
000340 04 27 e6 3d b5 ae a6 3d ad f1 16 3e 04 ac 95 3c
       0.112379104 0.081387915 0.1474063 0.0182705
000350 d9 92 fe bd b5 95 d0 bd 95 72 7e bd 24 fd 12 3e
       -0.12430353 -0.10184804 -0.062120993 0.14354378

FPN.3.conv.bias f4 [6]
000000 12 f8 1c 39 29 4c 05 38 7f 3c 81 b7 be 4a c2 37
       0.00014969733 3.17806e-05 -1.5406169e-05 2.3161407e-05
000010 86 9e a7 b7 46 44 36 b7
       -1.998177e-05 -1.08639415e-05

FPN.3.bn.weight f4 [6]
000000 39 b0 7e 3f 76 04 7e 3f e8 6a 7e 3f b9 f5 75 3f
       0.99487644 0.99225557 0.99381876 0.9607807
000010 78 fe 76 3f 1e ae 7d 3f
       0.9648204 0.99093807

FPN.3.bn.bias f4 [6]
000000 f7 43 ed bb a8 9d a6 bc 71 89 12 bb 8a ce b2 bc
       -0.007240768 -0.020338848 -0.0022359753 -0.021827001
000010 73 db 56 bc a0 d2 cb 3b
       -0.013113844 0.006220177

FPN.3.bn.running_mean f4 [6]
000000 0b 6a 11 3e da b9 c1 bc 8a ae 76 3d 96 3e 37 be
       0.14200608 -0.023648191 0.060225047 -0.17894968
000010 0a 21 17 3e 82 e7 22 3e
       0.14758697 0.15908626

FPN.3.bn.running_var f4 [6]
000000 48 6f 8c 3d 40 0d 24 3d 0f 5e 2a 3d 3f 9b a3 3d
       0.06857163 0.0400517 0.041593608 0.07988595
000010 a3 9f d3 3d bd 8d 76 3d
       0.10333183 0.060193766

ConvLSTMLayer.cell.conv.weight f4 [32, 14, 3, 3]
000000 7a 50 5a bc ad c7 45 bd 6a 61 9e 3c 4d 3c aa 3d
       -0.013324851 -0.04828613 0.01933356 0.08312283
000010 31 a3 85 3d c3 45 8a bd ba 23 11 bd c0 46 ed 3c
       0.06525267 -0.06751587 -0.035434462 0.0289644
000020 65 c7 9f bd 30 21 83 bd f7 71 92 bc 5d 8e 90 bd
       -0.07801703 -0.064028144 -0.017876608 -0.07058404
000030 3b 02 a9 3d 68 99 87 bc 0d 4b ef 3b f9 23 99 3c
       0.082523786 -0.016552642 0.007302648 0.01869391
000040 ae d4 30 bd 21 d8 00 bd 53 ea 3c bd df f4 a5 bc
       -0.043171577 -0.031456117 -0.046121906 -0.020258365
000050 a7 11 01 3d d9 fc 4f bd 5c 53 83 bd 72 80 87 3c
       0.031510975 -0.050778244 -0.06412384 0.01654074
000060 ac 57 2c bc 8d 75 5a 3d c7 1b 3d bd 59 56 31 3d
       -0.0105189495 0.05333476 -0.04616907 0.04329524
000070 20 eb f4 3c 4a 7e 83 3d 66 ff 89 bd b8 ec 29 3d
       0.029897273 0.06420572 -0.067381665 0.04148552
000080 11 3f c4 bd d7 c8 3a bd 6a 5b 02 3d 19 6c b5 bc
       -0.095823415 -0.045601692 0.03182546 -0.022146272
000090 21 34 70 bd 3a 1e 97 3d a9 d1 62 3d 4a 03 2b 3c
       -0.058643464 0.07378812 0.05537573 0.010437796
0000a0 bb 9e 42 bc d5 bf b8 bc 2c be 75 bd 2b 54 97 3d
       -0.011878665 -0.02255241 -0.059995815 0.07389101
0000b0 fe 4f 35 bd 3e 04 a3 3d d2 94 9f bb 4b ff 28 3b
       -0.04426574 0.079597935 -0.0048700357 0.0025786932
0000c0 7e de 1c bd ca ce 8c bd e3 c7 82 bd 85 9c ef bc
       -0.038298123 -0.068753794 -0.063857816 -0.029249439
0000d0 d7 c5 bd 3b 78 b0 25 3d 9b fc b1 ba 4a d4 9e bd
       0.0057914066 0.040451497 -0.0013579311 -0.07755335
0000e0 28 30 26 bd 61 3d cc 3c cf 55 a6 bd 35 d6 92 bd
       -0.04057327 0.024931611 -0.081218354 -0.07169763
0000f0 2b 15 5d 3d 63 ae 3f 3d 5e 13 29 3d b4 86 1e 3d
       0.053975265 0.046797168 0.041278236 0.03870268
000100 fb cb 41 3d ae 7c 31 3d b5 1d 3e bd ab 31 57 3c
       0.04731367 0.043331794 -0.04641505 0.0131344
000110 e4 eb 46 3d d1 6e 45 3d d3 a8 9b bd 30 7f b8 bc
       0.048564807 0.048201386 -0.0760056 -0.022521585
000120 59 43 f6 bc 34 9c 1e bd e9 d6 a3 3d c0 68 72 3d
       -0.03006141 -0.038723186 0.07999975 0.05918193
000130 91 56 9b bd 26 56 2b 3c 99 4b cf bc 46 1b 03 bd
       -0.075848706 0.010457551 -0.025304602 -0.03200843
000140 cc a8 1c bd 11 d7 ea 3c 84 f7 21 3c 46 83 26 bd
       -0.038246915 0.028667005 0.0098856725 -0.040652536
000150 de 41 c4 3c a6 40 ae 3d 5d 2c ac 3d 81 e6 bb 3d
       0.02395719 0.085084245 0.08406899 0.091748245
000160 53 8c 9d 3c d5 6c 45 3d d8 56 46 bd 29 ce 70 bd
       0.01923195 0.048199493 -0.048422664 -0.05879036
000170 67 da 3e 3d a6 b9 d1 bc bb b4 9c 3d 47 17 a5 3d
       0.046595003 -0.02560122 0.07651659 0.080610804
000180 b9 6d 99 3c 9e b4 be 3c 33 26 0e 3d d6 f4 bc 3d
       0.018729078 0.023279484 0.0347044 0.09226386
000190 dc 16 4c 3d b5 88 4e 3c 1c ae de 3d d7 97 16 3d
       0.049826488 0.012605836 0.108730525 0.0367659
0001a0 f1 1b 8e 3c 07 07 bd 3d fc 99 04 3d eb 67 ad 3c
       0.017347308 0.09229856 0.032373413 0.021167716
0001b0 5c 98 16 3d e6 00 04 39 ff 92 86 3d 90 4f d5 3c
       0.036766395 0.00012588836 0.06571006 0.026038915
0001c0 e5 05 54 3d 3e 00 5a 3d 62 1c c5 bc 4e d4 2a bd
       0.051763434 0.053222887 -0.024061386 -0.041706376
0001d0 9d ac 5b 3d 95 ee 56 3d 28 d5 8a 3b ab 6c 61 bc
       0.053631414 0.052473623 0.004236836 -0.013758819
0001e0 58 15 82 3d 79 d7 32 bd 22 dd c0 bc 93 47 5c bd
       0.06351727 -0.043662522 -0.023542944 -0.053779196
0001f0 82 be 88 bd 1a 79 14 bd 2f 0b 9d bd 97 c0 16 bd
       -0.066769615 -0.036248304 -0.07668149 -0.03680476
000200 c4 d6 97 bc 52 9f dd bd 0e 1f 96 3d 43 5d fe 3d
       -0.018535025 -0.108214036 0.07330142 0.12420132
000210 c6 29 66 bd f2 85 bb 3d a3 76 9d 3d 3a 70 aa ba
       -0.056192182 0.091564074 0.07688644 -0.0013003417
000220 00 f9 5d 3d f4 20 5b 3d 26 ff 1c bc 14 9b 95 3d
       0.054192543 0.053498223 -0.0095823165 0.073049694
000230 23 8d e4 bb fa e3 65 3d f9 3a ab 3d 03 27 0b bd
       -0.0069748326 0.05612562 0.083608575 -0.03397275
000240 5e 78 7a bd 74 a6 a2 3c 9f 39 a5 3d 4a 89 2a bc
       -0.061149947 0.019854762 0.08067631 -0.010408709
000250 88 0a f1 bc 5b b5 50 3d a8 1e a9 3c 91 f6 59 bc
       -0.029423967 0.050954204 0.0206445 -0.013303415
000260 33 65 20 bd 8f d6 18 bd 18 e2 8c bd dd a7 6e bd
       -0.03915901 -0.037313994 -0.068790615 -0.058265556
000270 cc 53 82 bc 0e d5 8d 3d 4f d7 7a 3d 0e af 91 3d
       -0.015909098 0.069254026 0.06124049 0.07113467
000280 d6 1a e7 bc bb a3 65 3c a5 ab 0c be 2d e0 4c 3c
       -0.028211039 0.014016087 -0.13737352 0.01250462
000290 94 37 82 3c 61 62 81 bd 87 de 8b bd 19 3f 8a 3d
       0.015895642 -0.063175924 -0.06829553 0.06750316
0002a0 10 b5 57 3d 05 66 86 bd 9e 16 30 3d 87 37 10 bd
       0.05266291 -0.065624274 0.04299032 -0.035209205
0002b0 c1 55 8a 3d 65 e4 c9 3d 1a 45 a1 bd 05 cf b0 bb
       0.067546375 0.09858016 -0.07874508 -0.0053957724
0002c0 53 70 a5 ba 69 ae d6 3b 5e 7c e5 bc 39 42 b4 3c
       -0.0012621976 0.006551553 -0.028013404 0.022004234
0002d0 e8 e9 9c 3c e7 77 02 bd 94 b6 0f bd 7e e6 cc 3a
       0.019154504 -0.03185263 -0.03508623 0.0015632657
0002e0 7b 6e 08 bc ec fa 2b 3d a7 51 1d 3d 9b 7f e3 3b
       -0.008327122 0.041987345 0.038407948 0.006942702
0002f0 c3 39 e5 3c ae fd 9d 3d 26 8c ea 3c 3d 9e 55 3d
       0.027981644 0.07714401 0.028631281 0.05215286
000300 9c 1a d1 bc 6a 53 8d bd ef f2 e4 3c 20 64 94 3d
       -0.025525384 -0.069006756 0.027947871 0.0724566
000310 76 30 22 bd 1f 83 c3 bc 60 da 91 bd 3c d6 39 3d
       -0.039596997 -0.023866234 -0.0712173 0.045370325
000320 76 53 27 3c e9 ff 42 bd af 90 81 3d 3c 1e 80 3c
       0.01021277 -0.047607336 0.06326424 0.015639417
000330 af 57 8e bd e6 43 81 3d 62 9f 5a 3d 9f 17 8c 3c
       -0.06950318 0.06311779 0.053374656 0.017101107
000340 1f 1d d9 bc 29 71 57 bd 5f 94 60 bb e6 52 2b bd
       -0.026503144 -0.052598152 -0.0034268124 -0.041827105
000350 29 a8 ad bc 8d 44 46 bc eb 73 8a 3c 5c 5e 54 bd
       -0.02119835 -0.012101305 0.016900977 -0.0518478
000360 38 81 11 3d 4b 43 6b bd 00 6d 94 3c 66 80 27 bc
       0.035523623 -0.057437222 0.018118382 -0.010223484
000370 15 c9 47 3d 4b 3b b9 bd 07 02 82 3d f5 c8 42 3d
       0.04877575 -0.09044512 0.06348043 0.04755493
000380 ed f4 91 bd 99 64 fb bc ba 5e 8e 3d 16 bd f7 bc
       -0.07126794 -0.030687617 0.069516614 -0.03024153
000390 57 60 21 3d 9a 60 8c bd c6 02 50 bd 52 6f dd 3c
       0.039398517 -0.06854363 -0.050783895 0.02703062
0003a0 e6 e7 26 3d df 31 8e 3d b8 f0 54 3d 09 2b 57 bd
       0.0407485 0.06943106 0.05198738 -0.052531276
0003b0 bd 56 40 bd b1 01 0c 38 8d 45 4b 3c e5 7d 1b 3d
       -0.04695772 3.3380176e-05 0.012406719 0.03796186
0003c0 b6 a5 a0 ba 2d e0 44 bd fd 9b 87 3d a9 90 90 3c
       -0.0012256417 -0.048065353 0.06621549 0.017647104
0003d0 1c 34 22 bc 6e f2 e1 3c f0 df 5b bd 2a d0 55 bd
       -0.009900119 0.02758142 -0.05368036 -0.052200474
0003e0 18 70 01 3d b1 f8 9c bd ba 36 8d 3d f1 15 d7 3a
       0.03160104 -0.076646216 0.06895204 0.0016409737
0003f0 9b 08 52 bd b2 fb 95 3d 54 a0 84 3d 4f cb 64 bc
       -0.051277738 0.07323398 0.06475893 -0.013964488

ConvLSTMLayer.cell.conv.bias f4 [32]
000000 26 52 8f bc a4 45 db bc 80 db 03 3d d5 1a 2e 3d
       -0.017495226 -0.026766606 0.032191753 0.042506058
000010 e5 90 03 3d cc f8 58 3c f2 df f6 3c 96 c7 42 bd
       0.032120604 0.013242912 0.030136082 -0.04755362
000020 34 bd 0e bd 43 71 b8 3d 5b 33 38 bc 25 08 96 3d
       -0.034848407 0.09005978 -0.011242713 0.07325772
000030 55 f6 91 bc 33 98 8d 3d bb 82 57 bd d8 68 02 bd
       -0.017817656 0.06913795 -0.05261491 -0.031838268
000040 0f 93 f0 3c 6f 5f 6c 3c 45 c0 98 3d eb f2 5c bd
       0.029366998 0.01442705 0.074585475 -0.053942602
000050 c0 41 44 3d af 4b 3e bd 0c 2a 6e bd 2c 00 24 bd
       0.047914267 -0.046458896 -0.058145568 -0.040039226
000060 73 7a ad 3d b0 bb 8e 3d d2 28 f5 bc 21 c4 0e 3d
       0.08470621 0.06969392 -0.029926691 0.03485501
000070 01 a2 86 bd 10 2d b7 bd 8f b8 52 3d 72 5e 05 bd
       -0.065738685 -0.08944142 0.05144554 -0.032560773

Classification.0.g.0.weight f4 [4, 8, 1, 1]
000000 3d 98 c6 bd c7 e8 56 be 59 0d 3a be b9 c4 c3 bb
       -0.09697006 -0.20987235 -0.18169154 -0.005974379
000010 3c 82 14 be 3f bc c2 3d 89 69 7f 3d 0e 00 32 3d
       -0.14502805 0.09508561 0.062356506 0.043457083
000020 dc 4f d8 bd d4 42 86 3d af 55 12 be 7a 52 b0 3c
       -0.10562107 0.06555715 -0.14290498 0.021523703
000030 b7 04 02 3e 36 f5 02 bd dd 4c 0c bd c5 7f 42 bd
       0.12697111 -0.031972133 -0.03425299 -0.04748513
000040 59 5b 11 bc c9 33 9b 3d c3 51 ff bd 01 d4 d7 3c
       -0.008871877 0.075782366 -0.12466767 0.026346209
000050 b0 8e cd bd 63 ea 58 3e 17 dc 25 3d f9 45 90 3c
       -0.10036981 0.21183161 0.040493097 0.01761149
000060 49 ad 7a bb 87 f5 c1 3d 0c bf 6a 3a 59 9c 87 bb
       -0.0038250259 0.09470659 0.000895486 -0.004138511
000070 37 b7 0d 3d 51 54 84 3d 8a fd ef ba 19 b6 48 bc
       0.034598555 0.064613946 -0.0018309813 -0.012250447

Classification.0.g.0.bias f4 [4]
000000 41 94 f7 3c d6 01 2b 3e a0 d9 04 3e 59 19 14 3d
       0.03022206 0.16699919 0.12973642 0.036156986

Classification.0.W.0.weight f4 [8, 4, 1, 1]
000000 4d 20 65 be 0e d6 af be 43 fa 24 be 5d db 08 bd
       -0.22375603 -0.34342998 -0.16111092 -0.033412326
000010 04 24 1d 3d 0c e8 78 bd 6a c6 28 3e 85 ce b9 bd
       0.038364425 -0.060768172 0.16481939 -0.090725936
000020 67 51 b6 be 7e 35 b6 be f9 c6 48 be f5 6c ba 3d
       -0.3560898 -0.35587686 -0.19607152 0.09102813
000030 4c bf 9a 3d 1f 92 90 bd b6 80 75 3e 88 d4 ca bc
       0.07556018 -0.070591204 0.2397488 -0.024759546
000040 2a 8d 6c be 1a f2 27 be 2f 97 8b be f0 df 1b 3d
       -0.23100725 -0.16400948 -0.2726378 0.03805536
000050 e9 a4 62 be b3 7e 2c 3e 37 58 7d be 37 32 f4 3d
       -0.2213322 0.16845207 -0.24740683 0.1192364
000060 df 56 09 3e 8e 4f a0 3d 2c 06 a3 bd b5 c5 54 be
       0.13412045 0.07827674 -0.079601616 -0.20778544
000070 ad 0a b7 3b 20 5d 6b 3d 83 30 4e 3e c4 db 2c bd
       0.0055859894 0.057461858 0.20135693 -0.042201772

Classification.0.W.0.bias f4 [8]
000000 04 3f ea b5 80 3a 08 3d db 78 75 3c 12 d9 05 b7
       -1.7452699e-06 0.033258915 0.0149824275 -7.977958e-06
000010 56 ba 81 3c de 84 35 b9 a4 9e 1e bd 0f 5b 23 b6
       0.015835922 -0.00017311002 -0.03872551 -2.4341896e-06

Classification.0.W.1.weight f4 [8]
000000 3f 89 88 bc 6a f0 0d bc aa f8 ab bc 4f 7a 49 bb
       -0.016667007 -0.008663276 -0.020992596 -0.0030743068
000010 ab 99 11 bc c5 c5 3b bb 49 e7 1b bb 9f fa 44 bb
       -0.008886735 -0.0028651815 -0.002378898 -0.0030056608

Classification.0.W.1.bias f4 [8]
000000 55 75 1b b9 a5 d6 88 37 b0 a2 5a 35 eb c6 1f b7
       -0.00014825661 1.6312415e-05 8.144807e-07 -9.523453e-06
000010 33 e7 04 b8 b1 63 a5 35 ce 5f 3b b6 44 f1 b9 37
       -3.1686573e-05 1.2322472e-06 -2.7920937e-06 2.2166067e-05

Classification.0.W.1.running_mean f4 [8]
000000 16 82 16 bb bd 3a 36 3d 3e 41 a6 3c d5 2e 07 3a
       -0.002296572 0.04448961 0.020294782 0.000515682
000010 55 3e b4 3c ac 94 14 39 5e 84 4e bd 64 3d 6a 3a
       0.022002378 0.00014169764 -0.050419204 0.00089355395

Classification.0.W.1.running_var f4 [8]
000000 67 31 00 35 21 dc cf 31 33 a0 1c 35 ac f7 00 33
       4.7755606e-07 6.0495187e-09 5.834765e-07 3.002758e-08
000010 28 df aa 34 a3 39 b8 32 30 73 62 31 b5 8c 96 33
       3.1827335e-07 2.144663e-08 3.2952805e-09 7.010514e-08

Classification.0.theta.weight f4 [4, 8, 1, 1]
000000 5a dd 49 3e 21 94 09 3d 5a ca 64 be 2f 0a 45 be
       0.19713345 0.033588532 -0.22342816 -0.19242166
000010 62 25 f4 3d fb 0d 02 be 1b 57 63 3c 5a 79 5c 3d
       0.11921193 -0.12700646 0.013875748 0.053826667
000020 80 bc fa bd e8 ee cb 3d 27 f7 26 3e 26 81 d9 bc
       -0.12242985 0.09957677 0.16305219 -0.02655084
000030 33 34 e8 3d 68 44 09 be 49 fc 1d 3d 33 61 00 3d
       0.11338081 -0.13405001 0.038570676 0.031342696
000040 e4 f1 3e 3b cf a9 3d be 70 32 6f 3e dd fe 93 bd
       0.0029135877 -0.18521808 0.23359084 -0.07226346
000050 5c e9 f2 bd 67 12 15 3e 04 06 1b be 43 65 95 bd
       -0.11860916 0.14557801 -0.15139014 -0.07294705
000060 70 32 93 bd f6 a2 13 3e 8f 88 54 3d 89 f7 5e 3a
       -0.071873546 0.14417633 0.051888045 0.00085055135
000070 4f f5 71 3d d7 a6 ae bd ca a1 97 bd a7 c2 11 3c
       0.059071835 -0.08527916 -0.07403906 0.008896506

Classification.0.theta.bias f4 [4]
000000 e1 7a 52 3c 78 a2 8d be 8a 06 8d bc a9 37 57 be
       0.012846679 -0.27663016 -0.017215032 -0.21017326

Classification.0.phi.0.weight f4 [4, 8, 1, 1]
000000 8b 99 dd 3d a4 13 b5 3d 33 56 39 bc bb fb 3e 3d
       0.108203016 0.08841637 -0.011312055 0.046626788
000010 86 8c 93 bc 2a 7a a2 bd aa 31 34 bd 55 31 e0 bd
       -0.018011343 -0.07933457 -0.043992676 -0.10946909
000020 ec 95 7b be d0 ab 48 3e f3 c4 6e 3e 81 38 73 3e
       -0.2456891 0.19596791 0.23317318 0.23752023
000030 be f0 87 bd ff 3e 47 be ad e6 37 bd dd 4a ac bd
       -0.06637715 -0.19457625 -0.044897724 -0.084127165
000040 98 2d 45 3d 6a d2 6b 3e 91 92 32 3e e9 4c fc 3d
       0.048139185 0.23029485 0.17438723 0.12319357
000050 03 3b e1 3b 7f 8f cf 3d 33 2f b8 bc df 16 98 bb
       0.00687349 0.101347916 -0.022483444 -0.0046413983
000060 1f 38 4f be 01 5e 95 be 89 ea 97 bc 5b 98 68 be
       -0.20236252 -0.29173282 -0.018544452 -0.22714369
000070 f9 06 1a be cc 16 94 3d 12 54 2f 3e 3e 4a 19 3e
       -0.15041722 0.07230911 0.17121914 0.14969727

Classification.0.phi.0.bias f4 [4]
000000 cb 44 f9 bd b3 f1 ac bd f7 2d 0a 3e b4 64 cc bd
       -0.12171324 -0.08444538 0.13494097 -0.09980145

Classification.2.conv.weight f4 [10, 8, 2, 2]
000000 3e 06 3a bc c6 c9 9c bd f8 d5 29 3e ad 89 7e bd
       -0.011354027 -0.07655673 0.16585529 -0.062143017
000010 31 18 71 bd 08 e4 33 be 8e b9 89 3d 30 ad d9 bd
       -0.05886096 -0.17567456 0.06724845 -0.10628736
000020 ce b0 87 bd e1 a8 17 be a7 39 8d 3d ea 95 65 3d
       -0.0662552 -0.14810516 0.06895762 0.056051172
000030 07 99 01 3e e1 fd 08 3c 7d 05 f9 3d cc 7e d4 3c
       0.12656032 0.008361311 0.1215925 0.025939368
000040 cc a3 35 be 53 5c 11 be 24 26 0e 3d 06 a2 9f 3d
       -0.17738265 -0.14195375 0.034704342 0.077945754
000050 21 3d 17 3e f3 ac 51 3d 98 6c ef bd 1e bd 40 3e
       0.14769413 0.051190328 -0.116906345 0.18822142
000060 2b d5 46 bd f8 de cb bc 2c 86 1c be f8 8c fc bd
       -0.048543137 -0.024886593 -0.15285558 -0.12331575
000070 d5 49 1c be 10 46 f1 ba fb 10 3e bd 4e 13 c8 bd
       -0.1526254 -0.0018407721 -0.046402913 -0.09769307
000080 80 38 f9 3d 5e d0 e8 3d 1e b3 66 bc e6 89 03 be
       0.1216898 0.11367868 -0.014080791 -0.12845573
000090 b2 49 05 3e a4 58 dc 3c 59 21 55 bd 4c ef dc bc
       0.13016394 0.026897736 -0.052033756 -0.026969574
0000a0 2b 99 df bd fe 8a 05 3e fd ef cc 3c b4 31 0c 3d
       -0.10917886 0.13041303 0.02501678 0.034227088
0000b0 53 c1 8f bd a8 bb 0c 3e 41 8b 2e 3e 01 af 45 3d
       -0.070192955 0.1374346 0.17045309 0.0482626
0000c0 a6 a8 cd bc dc 5f 06 be 83 27 ae bd 52 b0 9f 3d
       -0.025104832 -0.13122505 -0.0850363 0.07797302
0000d0 0d 1c cc bd 21 5e 82 3d 23 02 2f be 14 1b 1f bd
       -0.09966288 0.0636561 -0.17090659 -0.038844183
0000e0 e8 10 19 be 88 03 d1 3c 92 5d 91 bc d8 3f 62 bc
       -0.14947855 0.02551438 -0.017744813 -0.013809167
0000f0 70 6e 16 3d 06 47 1b 3c 14 9d 67 3d 8a f2 48 be
       0.036726415 0.0094773825 0.056546286 -0.19623771
000100 3a b0 6b bd fb 02 71 bd 9c c0 0c 3d 7b 7a 31 3e
       -0.05754111 -0.058840733 0.034363374 0.17331879
000110 a4 16 d8 bd d0 a9 fd bb 39 ab 01 be ec d8 74 3d
       -0.10551193 -0.0077411905 -0.12662973 0.059777185
000120 e7 df 9a 3c da 63 fe 3d 31 1a 1f 3e a5 86 e7 3d
       0.018905593 0.12421389 0.15537335 0.11304978
000130 d9 32 d4 bb e3 85 bf bc 54 ef a8 3d 46 b5 8a 3b
       -0.006475788 -0.023379272 0.08248773 0.0042330353
000140 c9 d6 e8 3d 2d 95 14 3d 81 bf 01 3e a7 03 90 3b
       0.11369092 0.036275078 0.12670709 0.0043949666
000150 7e 3a 25 3e 6a 84 81 3d 26 6e 03 be e0 11 0f 3e
       0.16135594 0.06324084 -0.12834987 0.13971663
000160 31 75 b3 bd 50 fa 25 be 25 d9 5b bd fb b0 0f 3e
       -0.08762587 -0.16208768 -0.053673882 0.14032356
000170 3b 60 1f bd 93 bd 24 3d cd 2b c7 bd e0 42 17 bd
       -0.038910132 0.040219855 -0.09725151 -0.03692901
000180 e0 84 00 3e 87 06 b3 bd e8 78 89 3d 88 df b9 3d
       0.12550688 -0.08741479 0.06712514 0.09075838
000190 ab 71 23 3e 80 61 1f 3e a5 1b cc 3d 52 c4 03 be
       0.1596133 0.15564537 0.0996621 -0.12867859
0001a0 0f 0d d8 bd 52 ae 24 3e d4 47 c5 bd 2c 69 bd bd
       -0.10549366 0.16082123 -0.09632841 -0.092485756
0001b0 e3 d8 fe 3d dd ef 19 be 56 6a 24 3e 14 3a 09 be
       0.124437116 -0.15032907 0.16056189 -0.13401061
0001c0 b0 de 8c bd 5e cd be bd 22 53 2a 3e 43 e9 3a bd
       -0.06878412 -0.093165144 0.16633275 -0.045632612
0001d0 99 1a dd 3d b6 75 db bd 1f e4 8a bd d4 7d 1d be
       0.10796089 -0.10715811 -0.06781792 -0.15380031
0001e0 ea ed 0d 3d 45 91 99 3d e2 66 16 be cb d7 69 3d
       0.03465072 0.07498411 -0.14687684 0.05709056
0001f0 b5 3a c8 3d 3e 26 c5 bd 65 47 18 3e ea ef 55 3d
       0.097768225 -0.09626435 0.14870985 0.052230753
000200 17 a1 22 3e fe d2 a6 bb 3d f4 af 3d 4f b1 79 3d
       0.15881763 -0.00509107 0.08591507 0.06096011
000210 f5 f9 69 bd f6 1a 0b 3e 07 d1 09 3e db 83 f0 bc
       -0.057123143 0.13584504 0.13458644 -0.029359749
000220 da 0c e9 3d 2c bc 43 bd fb da bc 3d e7 59 ac 3c
       0.11379404 -0.047786877 0.09221455 0.021038963
000230 76 31 14 be 4a 3f 04 3e 8a 67 f1 bb ea 9d c3 bc
       -0.14471993 0.12914768 -0.007367079 -0.02387901
000240 3a 8d b1 3b 12 90 31 3e e4 bb fc bd b2 82 27 3e
       0.005418447 0.17340115 -0.12340525 0.1635845
000250 c0 56 85 bd 57 49 a5 3d 6f ab 06 3e a9 11 e9 bd
       -0.06510687 0.08070629 0.13151334 -0.113803215
000260 b4 ae 59 3d 9b c2 b6 3c 98 1e 21 3e b9 04 d6 3d
       0.053145126 0.022309592 0.15734327 0.104501195
000270 c4 0e 54 ba ab 0e 69 bd f0 41 41 be 7a 68 0b 3e
       -0.00080893585 -0.056898754 -0.1887281 0.13614073
000280 77 a1 8e bc 0d c2 dd 3d aa ea 06 be 54 68 17 be
       -0.017410977 0.10828028 -0.13175455 -0.14785892
000290 b6 79 34 be a8 b2 e2 bc 3f 3d 81 bd f8 20 72 bd
       -0.17624554 -0.02767308 -0.0631051 -0.059113473
0002a0 13 75 07 3e 14 f7 d6 bc f6 5e 95 3d 09 52 2e 3e
       0.13228254 -0.026240863 0.07293503 0.17023481
0002b0 45 3c 21 3e f1 7a 11 be 26 d6 2a be 30 5a 8b bd
       0.15745647 -0.14207055 -0.16683254 -0.06804311
0002c0 d1 43 2d be de bb 62 bd b3 d6 79 bc 0e b0 05 be
       -0.16920401 -0.055354945 -0.015248942 -0.13055441
0002d0 5d ab ef bd e0 f2 5b 3d 55 56 a8 3d c0 70 cf 3d
       -0.11702607 0.05369842 0.082195915 0.10128927
0002e0 16 ee c5 bd d9 2f 2f be 0b fc 1b bd df 4a 01 3c
       -0.09664552 -0.17108096 -0.038082164 0.007891386
0002f0 bc 3e 3a 3b 3d 6c 0d be 85 8b f3 3d a1 e6 d2 3d
       0.002841874 -0.13810821 0.118918456 0.10297895
000300 8a 46 1c be 7d a1 00 be be 2e 67 3d 08 d3 04 be
       -0.15261284 -0.12561603 0.05644106 -0.12971127
000310 58 a6 a0 3d 83 39 20 3e 8b 97 b7 bc a1 f7 ba bd
       0.078442276 0.15646939 -0.022411129 -0.09129263
000320 a2 2e 88 bc 0a 6b 8d 3c ab 27 f0 3d af a3 47 3d
       -0.016623799 0.017262954 0.11726316 0.048740085
000330 c0 ab ca bd 4f 6d 06 3e 12 dd 03 3e 00 9e 8b 3d
       -0.0989604 0.13127635 0.128773 0.068172455
000340 a4 e3 0e 3e 5d 6d 98 3d e0 89 e9 3d bc c1 24 be
       0.13954026 0.074427344 0.11403251 -0.16089529
000350 69 ca 99 3d 15 63 9d bd c8 20 f7 bd 11 fa 1a be
       0.0750931 -0.07684914 -0.120667994 -0.15134455
000360 da 2b f5 3c 1d 83 d4 3c d9 09 fb bd ed e8 d0 bd
       0.029928137 0.025941426 -0.12257738 -0.10200677
000370 f8 72 cd 3d 7a df d1 3d 18 bc 24 3e 97 e1 5a 3b
       0.10031694 0.10247703 0.16087377 0.0033398622
000380 13 e9 72 bd 09 0f eb 3d 41 8a ec bd 98 b8 da 3d
       -0.05930431 0.11477477 -0.11549807 0.1067974
000390 9d c5 f6 bc bf 81 b4 bd a7 51 34 3d 0a be f2 bd
       -0.030123526 -0.088138096 0.044023182 -0.11852653
0003a0 2c 97 48 bd 0f a5 43 be 98 17 d6 3b 7e c3 a3 bc
       -0.048972294 -0.19105934 0.0065335743 -0.019990679
0003b0 92 88 e7 3d 3a c3 ac bc 51 7e 26 be e0 cc e6 bd
       0.113053456 -0.021089185 -0.16259123 -0.112695456
0003c0 37 10 1a bd 0d 6d 05 3e f1 c9 12 be be af 2b be
       -0.03761312 0.13029881 -0.14334847 -0.16766259
0003d0 a9 d9 93 bd 46 50 30 3e f7 a8 68 3d d3 2a 17 3d
       -0.0721925 0.17218122 0.056801762 0.036906075
0003e0 67 fb 0a be 9a d1 f6 3d a9 67 0a be 13 1b f2 3d
       -0.13572465 0.12051697 -0.13516106 0.1182157
0003f0 31 1b 4e bc 78 61 79 bd 18 87 f3 bd 0e 2a 50 3d
       -0.012579725 -0.06088397 -0.118910015 0.050821356

Classification.2.conv.bias f4 [10]
000000 40 54 27 39 2f 4c 4d 38 69 8a 75 b6 6d 33 4f 38
       0.00015957747 4.894676e-05 -3.658841e-06 4.940054e-05
000010 56 56 e1 32 69 8f f2 36 be ca d3 b7 2c 48 84 37
       2.6232708e-08 7.228857e-06 -2.524757e-05 1.5769234e-05
000020 2b c9 1a 38 58 d9 18 38
       3.6903813e-05 3.644204e-05

Classification.2.bn.weight f4 [10]
000000 78 3a 7a 3f 3f fc 7c 3f e2 c6 70 3f 99 a4 6e 3f
       0.97745466 0.98822397 0.9405347 0.93219906
000010 04 3b 77 3f a6 9b 70 3f 0f 2f 72 3f d1 7e 78 3f
       0.96574426 0.939875 0.94603056 0.97068506
000020 43 49 74 3f ba 7f 75 3f
       0.9542429 0.9589802

Classification.2.bn.bias f4 [10]
000000 45 30 82 bc 4e 0f 06 bc 68 32 da bc 25 e8 42 bd
       -0.015892157 -0.00818236 -0.026635364 -0.04758467
000010 f2 75 1b bd b1 33 d5 bc c3 fb cb bc 7f b7 b4 3b
       -0.03795428 -0.026025625 -0.024900323 0.0055150385
000020 c3 23 c9 bc 60 35 1d bd
       -0.024553185 -0.03838098

Classification.2.bn.running_mean f4 [10]
000000 89 bc 91 bc ca e9 ad 3c 1f d8 22 3b 25 ec 31 3c
       -0.017790096 0.021229643 0.0024848056 0.010859524
000010 ad 67 3e 3c 61 94 27 3d ae 06 99 bc 1d 62 06 3c
       0.011621398 0.04091299 -0.018679943 0.008202103
000020 63 14 0b ba 96 59 b1 3c
       -0.0005305467 0.021649163

Classification.2.bn.running_var f4 [10]
000000 d5 70 b7 3a 57 31 fc 39 e7 23 97 3a 2c bd 9b 3a
       0.0013995419 0.00048101947 0.0011531085 0.0011881939
000010 cc 36 2c 3a 8a 1f b7 3a 4c 45 64 3a 49 6b 7c 3a
       0.00065694447 0.0013971191 0.0008707836 0.0009629024
000020 b4 a6 aa 3a 51 e8 89 3a
       0.0013019652 0.0010521506

AUsLSTM.weight_ih_l0 f4 [600, 17]
000000 cb fa a7 bc e0 6d 99 3b c8 fd d2 bb 19 d0 87 bd
       -0.02050533 0.0046822876 -0.0064389445 -0.06631488
000010 08 39 17 bd 1a 75 44 3a 09 7b ae bd 09 9e eb bc
       -0.036919624 0.0007494256 -0.08519561 -0.02876188
000020 c7 8b 36 3c f6 51 ae bd 06 de 99 bd e6 7d 4b bc
       0.011141724 -0.085117266 -0.07513051 -0.012420153
000030 e3 5c 9f bc f0 44 f7 bc 90 fe 91 bd 69 6a 70 3c
       -0.019453472 -0.03018424 -0.07128632 0.014673808
000040 ce e5 41 3b 44 e8 45 bd 49 a1 17 3b 4f 4d 18 3d
       0.0029586437 -0.04831721 0.0023136905 0.037183102
000050 b7 ed 04 3d 19 83 3c 3d 9e be 1f 3d 4b ca 7a bd
       0.032453265 0.046023462 0.039000146 -0.061228078
000060 3b 82 56 bd e7 0a 80 bd ab 09 06 bd 56 66 ca b9
       -0.05237029 -0.062520795 -0.032724064 -0.0003860469
000070 da 37 a6 3d 7f 05 51 bd e2 bc 8a 3d dc 7d d5 3c
       0.081161216 -0.051030632 0.06774308 0.026060991
000080 23 fa 12 3d 1a 27 d8 bd 45 2e 81 bb 0c 39 55 bb
       0.03588308 -0.10554333 -0.0039422833 -0.0032535223
000090 c5 68 67 bd de 5b 7e 3d f6 2e 27 bd 7a 59 f6 3c
       -0.0564964 0.06209933 -0.04081627 0.030071963
0000a0 ff 6e 1d 3d ef 4c 18 bd 4d 52 9a bd e1 e8 bd bc
       0.038435932 -0.037182745 -0.07535229 -0.023182334
0000b0 26 14 a3 bc 73 f9 2f bd 92 77 59 bd 91 21 0e bb
       -0.019907068 -0.042962503 -0.053092547 -0.0021687488
0000c0 8f ba 90 3d b6 ec a5 3c 6f 74 ed 3c 73 28 63 3c
       0.07066833 0.020254474 0.028986184 0.013864624
0000d0 ae ef d5 3c 35 b9 9b bd 47 57 c6 bc 08 3d ce bc
       0.026115265 -0.07603685 -0.024211539 -0.025175586
0000e0 d0 92 7d 3b 56 2f 22 3c 51 77 e5 bc 1a 69 8e 3d
       0.0038692243 0.009898981 -0.028010996 0.0695364
0000f0 2f 32 62 3d 59 5f aa bb c3 9f b0 bc dd 72 bd bc
       0.05522364 -0.0051993546 -0.021560555 -0.02312606
000100 b6 45 74 3d 8a 38 3a 3c f8 e1 a9 3c bf bc 7b bd
       0.059636794 0.011366019 0.020737633 -0.0614593
000110 c7 99 63 bd 96 62 70 bd af b0 a6 3c a8 8c 01 bd
       -0.055566575 -0.05868777 0.020347921 -0.03162828
000120 e6 65 35 bd 7d bd e4 bb 2c db 53 3c 16 82 4d bd
       -0.04428663 -0.0069805966 0.012930673 -0.050172888
000130 51 28 52 bd f5 7d 61 3d 07 7a de ba ee d4 ee bb
       -0.05130798 0.055051763 -0.0016973623 -0.007288567
000140 50 ff 80 bd 2d cc 65 3c 77 53 14 bc 1d d5 67 bc
       -0.06298697 0.01402573 -0.009053103 -0.014149931
000150 77 c6 21 bd 89 55 3a 3d 61 f7 79 bd 03 5d bd bc
       -0.03949591 0.04549173 -0.061026935 -0.02311564
000160 b6 ea 21 bc 25 ed 3e bd 1e 50 80 bb 11 ac a9 bd
       -0.00988262 -0.046612877 -0.0039158007 -0.08284772
000170 1e f6 84 bc b4 8d c0 bd 58 e0 78 3d 3b 07 fd 3c
       -0.01623064 -0.09402028 0.060760826 0.030887237
000180 7d af 71 3c cd 7d 75 bd 2d 11 87 3d 1d 06 4d bd
       0.014751312 -0.059934426 0.06595073 -0.05005466
000190 0c 2e 7c bd c9 f9 85 3c ac 53 5b 3d 71 59 20 3c
       -0.06156735 0.016354458 0.053546593 0.0097869495
0001a0 3e 7b 29 bd d5 9d 72 bd e2 e7 07 3d 46 71 d3 3c
       -0.0413773 -0.05923255 0.033180125 0.025810849
0001b0 c2 81 87 3c 52 38 52 3c d5 87 0a bc dc 6e 9f 3d
       0.016541366 0.012830811 -0.008455236 0.077848166
0001c0 74 9b 5c 3d 6c 71 0b 3c cd d1 0a 3d 1e ac 9f 3c
       0.05385919 0.008510929 0.033891488 0.019491252
0001d0 ba 3f 00 3c 8d 89 8c bd 8d 41 8e bc 39 85 8a 3d
       0.007827694 -0.06862173 -0.017365241 0.067636915
0001e0 63 f9 28 3d b1 c9 3c 3d b8 ea ba bc c3 27 15 3d
       0.04125346 0.046090785 -0.022817 0.036414873
0001f0 ef d8 9f 3d 4b e0 00 3d c6 6f bb 3c 62 27 6a bc
       0.07805049 0.031463902 0.022880446 -0.014291616
000200 11 e4 51 bc 1a d6 4b 3d 9d a7 47 bd 79 da 29 bd
       -0.012810723 0.04976473 -0.048743833 -0.041468117
000210 a4 39 14 3d 15 58 71 3b 85 54 07 3d c7 a8 69 3d
       0.036187783 0.0036826183 0.03303959 0.057045724
000220 e0 cb 98 bd f1 31 d4 bc 2a 7f 4e bd f9 45 8b bd
       -0.07460761 -0.02590272 -0.05041424 -0.068004556
000230 09 62 f6 3b df 7b 86 3d 90 c2 39 3d ec 79 eb bc
       0.007519011 0.06566595 0.045351565 -0.02874466
000240 47 e6 9d bc 5c c6 86 bd fd 2b 1c bd e7 44 7f bd
       -0.019274844 -0.06580803 -0.038127888 -0.06232157
000250 df 95 39 3d e0 4a 04 bd 8f e5 63 3d a6 ef 99 3d
       0.045308944 -0.03229797 0.055638846 0.075164124
000260 3c a8 20 bd 1e 5e 9c bd 1c 72 86 bd 7a c0 c5 3c
       -0.03922294 -0.07635139 -0.065647334 0.024139632
000270 ba ba 24 bc d8 07 43 bd eb 10 6d 3d 19 dd f9 bb
       -0.010054285 -0.047614902 0.057877462 -0.007625234
000280 3b fa d2 bc f0 79 ce 3b 5c 1c 2e 3d 19 97 e0 bc
       -0.025754085 0.006301157 0.042507514 -0.027415799
000290 ea 43 30 bd 62 b7 92 3a c4 4b 6b bd 30 ce 92 3c
       -0.043033518 0.0011193568 -0.057445303 0.017920583
0002a0 90 45 ab bd 01 a1 1c 3c d6 4d 26 bd d0 b7 f2 3c
       -0.08362877 0.009559871 -0.040601574 0.029628664
0002b0 71 0c 3f bd ff 48 89 bc 8b fb 8b 3d 14 d4 56 b5
       -0.046642724 -0.01675844 0.068350874 -8.0029827e-07
0002c0 ce 6a 21 bd 5b 90 8c bd 07 88 2e 3d 1b 0a 7d 3d
       -0.039408498 -0.06863471 0.042610195 0.061777215
0002d0 99 79 73 bd 9b 9c 54 3d e4 84 5e bc 42 4d 87 3d
       -0.059442136 0.051907163 -0.013581488 0.06606533
0002e0 85 cb 1f bc 25 d7 27 3d 24 39 a1 bc 11 08 37 bd
       -0.009753113 0.040976662 -0.019680567 -0.044685427
0002f0 de 2f 1e bd 81 4b c2 3c 44 93 5c 3d 0b 62 af 3c
       -0.03861987 0.023717644 0.05385138 0.021409055
000300 1c 04 95 3d 7b 9f 50 ba 4b 64 85 3d d7 dc 9f 3c
       0.072761744 -0.0007958335 0.0651327 0.019514484
000310 73 7c 3d 3d 45 f7 44 3d b4 30 ad 3c 7e bd 5e 3d
       0.046261262 0.048087377 0.021141388 0.054379933
000320 6e 7f 57 3d c7 77 58 3d d5 d6 cc 3c 62 13 64 bd
       0.05261176 0.052848604 0.025004784 -0.055682547
000330 c9 d2 12 3d c9 14 25 3d 07 06 ef 3c ea 9d 1b bd
       0.03584555 0.040303025 0.029177679 -0.037992395
000340 35 52 77 3d 34 83 90 3c f8 6a 3e bd c7 dd 61 bc
       0.060381133 0.017640688 -0.046488732 -0.013785786
000350 6b 52 c6 bc 6e 27 37 3d f8 15 55 bd 0c 26 b8 3c
       -0.024209222 0.044715337 -0.052022904 0.02247908
000360 ea 8a 87 3c a9 37 7c 3d 2c 53 fb bc 79 02 4a 3b
       0.016545732 0.06157652 -0.030679308 0.0030824228
000370 fe db 1f bd 92 19 4d bd 2d ff a9 bc b8 fc 48 bd
       -0.03902816 -0.050073214 -0.02075156 -0.049069136
000380 5b ac 74 3c c6 a8 9c 3d 74 97 31 3d af e1 93 bd
       0.014933671 0.076493785 0.043357328 -0.0722078
000390 ac 9a 87 3c 99 f7 82 3d 66 c9 7a bd 3a f1 55 3d
       0.016553245 0.06394882 -0.061227225 0.052232005
0003a0 05 10 20 bd 3e c2 55 3c e5 54 47 3d 35 51 9b bd
       -0.039077777 0.013046799 0.048664946 -0.075838484
0003b0 5b 76 17 bd 26 24 cd 3c 60 0b 3c bd 4f 21 5b bd
       -0.036978107 0.025041651 -0.045909286 -0.053498562
0003c0 3f 2d 2d 3d d2 7c 41 bc 7e 0d a0 bc 3e 48 c9 bd
       0.04227948 -0.011809545 -0.019537684 -0.09828232
0003d0 3a 26 82 bd ae af 35 bd 2c 5b 1f bc ea b0 71 3d
       -0.063549474 -0.044356994 -0.009726327 0.05900661
0003e0 66 35 02 bd 9f 31 b7 3c 43 2a 0d bd 87 08 c4 bd
       -0.031789206 0.022362528 -0.034464132 -0.09571939
0003f0 d8 76 9f bb 03 df 3b bd 59 7b 85 3d 1d e6 ad bc
       -0.004866462 -0.045866977 0.06517667 -0.02122789

AUsLSTM.weight_hh_l0 f4 [600, 150]
000000 5d c5 c3 3c 09 fd 1c bb 7a 24 6a bc 8a 35 b2 3c
       0.023897821 -0.0023954532 -0.014290923 0.021754045
000010 1b 4a 1b bc e0 5c 70 3c ef 61 8b 3c 44 ff 44 bd
       -0.009478117 0.014670581 0.017014472 -0.048095003
000020 88 a9 9d bc 20 ba 37 3d b5 e5 23 3d 21 cd 66 bd
       -0.019245878 0.044855237 0.040013988 -0.05634797
000030 47 30 99 bb 1c 86 51 3d 39 36 5b bd 48 4f 53 3d
       -0.0046749446 0.051153287 -0.053518508 0.05158928
000040 c2 08 b1 bc 6a 48 9d bc 1a c1 11 bb 7d 8e 52 bc
       -0.021610621 -0.019199569 -0.0022240342 -0.012851355
000050 c9 90 80 b8 c7 b4 01 bd 40 8e e7 bb 71 23 b6 3c
       -6.130484e-05 -0.031666543 -0.007066518 0.022233697
000060 7f b9 81 bc 32 4f 48 3c 4d 13 19 3c 07 b5 14 bd
       -0.015835522 0.012225913 0.009342981 -0.036305454
000070 82 f4 a7 bc 30 48 83 3c 72 52 e2 bb cc 5d db 3c
       -0.020502333 0.016025633 -0.006906801 0.026778124
000080 8a 25 69 bc 15 1b a2 bc c6 b7 e8 bc 56 b2 8b 3d
       -0.014230141 -0.019788304 -0.028407943 0.06821124
000090 76 8d 08 bd 15 55 5a 3d 3b 5b a1 bb 3d 07 d7 bc
       -0.033338033 0.053303797 -0.0049242056 -0.026248569
0000a0 6f 1b e7 3c 35 5b 6c bd de c3 07 bd 1c cc 3d 3d
       0.028211324 -0.05770417 -0.033145778 0.046337232
0000b0 4f 52 21 bd af 85 d5 bc 0d 35 77 bd a0 25 d5 bc
       -0.039385136 -0.026064722 -0.060353328 -0.026018918
0000c0 1d 73 9c bc 81 76 36 bc 1e 24 95 3d c2 52 59 3d
       -0.019097859 -0.011136652 0.072822794 0.05305744
0000d0 87 d2 88 3b 28 58 d0 bc 60 1a 9d bc bf f4 a8 bb
       0.0041754874 -0.025432661 -0.019177616 -0.005156129
0000e0 3e ad 0a 3d 91 59 15 bd 25 5f 1d bd ff 7a 4c ba
       0.033856623 -0.03646237 -0.038420815 -0.000780031
0000f0 1d 60 b4 3b a4 05 2d 3d 1f 79 89 bd 17 b6 c3 3c
       0.0055046217 0.042241707 -0.06712555 0.023890538
000100 f0 0a 5b ba 32 fb ca bc 3b ab 17 3d 1e 42 54 3c
       -0.0008355817 -0.024777982 0.037028532 0.012955217
000110 71 73 b3 3c 4e 36 96 bc a4 6a 60 3d d9 94 a6 3a
       0.021905633 -0.018336441 0.0547892 0.0012709155
000120 f3 ee 28 3d 3a bd 18 3d 4b 62 9a bb 6f fd 44 3c
       0.041243505 0.037289836 -0.0047114245 0.012023314
000130 62 03 0e 3c fe 90 c3 3c 03 e9 51 3d d1 a4 c2 3c
       0.008667799 0.023872849 0.051247608 0.023760231
000140 0e e6 23 3d c3 a0 56 3c fd 31 31 bb 66 f4 9f 3c
       0.04001432 0.013099852 -0.0027037852 0.019525718
000150 e8 3c 7f 3a ef d4 25 3d dc 70 20 bc fd 16 98 3b
       0.0009736554 0.040486272 -0.009792533 0.0046414123
000160 be 4c 10 bd 84 ab 5d bc 4b 96 54 3d 9f a5 e6 3c
       -0.035229437 -0.013529662 0.051901143 0.028155146
000170 2d 56 00 3c df e1 6c 3d 30 7c e1 3c cb 6c 16 bd
       0.007833046 0.057832595 0.027525038 -0.036724847
000180 b2 f4 9d 3c 08 b9 32 bd 98 d8 9d 3c 6d 20 32 3c
       0.019281719 -0.04363349 0.019268319 0.010871989
000190 41 c0 12 bc 16 5c 3b bd e9 48 d5 bc 3a 57 e8 bc
       -0.00895697 -0.045742117 -0.026035743 -0.028361905
0001a0 e4 be 63 3d 7e 95 d3 3c 14 72 a5 3c b5 c5 8d 3b
       0.05560197 0.02582812 0.020195998 0.004326547
0001b0 f6 59 83 3c d0 54 f0 3b 87 96 85 3a 57 23 35 3b
       0.016034108 0.007334329 0.0010191955 0.0027639472
0001c0 f7 57 42 3d 1b aa 14 3d 4a de e0 bc aa b2 cc bc
       0.04744717 0.036295038 -0.027449746 -0.024987537
0001d0 44 12 b5 3c 0e 1a 58 bd 3c 34 1c 3d c7 e8 0b bd
       0.022103436 -0.052759223 0.038135752 -0.03415754
0001e0 82 5e 55 3d db c2 03 bd ec 52 d0 bb 62 4a da bc
       0.052092083 -0.03216825 -0.0063575413 -0.026646797
0001f0 6c 6e c3 3c 0c 7a ce bc eb 97 45 bd 37 d9 3c bc
       0.023856364 -0.02520468 -0.048240583 -0.011526397
000200 f0 e7 c9 bc 96 4e ab bc d3 64 15 3d c4 49 aa bc
       -0.02464673 -0.020911496 0.036473107 -0.020787127
000210 08 15 94 bc b2 18 bb 3c 7a 96 75 bd dc da 67 3d
       -0.018076435 0.022838924 -0.05995796 0.056605205
000220 f1 51 cb 3c e6 81 8b 3c e1 e1 c0 3c 5d b1 d8 3c
       0.024819346 0.017029714 0.023545207 0.02645176
000230 e6 a6 4a bc 07 8c 1a bd 14 5f 2b 3d bb b5 cc bc
       -0.012368893 -0.037731197 0.04183872 -0.024989
000240 b0 60 80 bd 90 7e eb bc e0 e9 b4 3b eb 07 47 bd
       -0.06268442 -0.028746873 0.005521044 -0.048591536
000250 a4 ef fc 3b 2d b5 a6 3c 32 82 79 3c 14 7d 0d bd
       0.007718997 0.020350063 0.015228795 -0.034543112
000260 57 00 92 3d fb fb 38 bd c5 44 19 bd 32 50 a5 bc
       0.07128971 -0.045162182 -0.0374191 -0.020179842
000270 97 d1 10 3c 7d 7f 23 3d 2f 75 ad bc cd 64 7c bd
       0.008839033 0.039916504 -0.021174042 -0.06161957
000280 b6 fa 8b bd 9f 6c b8 bc 8a bb 44 3d d0 6a a6 bb
       -0.06834929 -0.022512732 0.048030414 -0.005078651
000290 7e 37 56 3c 57 6a 18 3d 7b de cc 3c fd b6 4a bc
       0.013074754 0.03721079 0.02500843 -0.012372729
0002a0 b9 57 37 bc c6 3d 4d 3d 7c 11 ff 3c cb cc b9 3c
       -0.011190348 0.05010774 0.031136267 0.02268066
0002b0 df 47 01 bd 53 5a b1 3c 38 23 38 bc e1 e2 6d bd
       -0.031562682 0.021649515 -0.011238866 -0.058077697
0002c0 6b 2e 16 bc 18 9f 68 bd 5d 8b 2d bc 13 3f 24 bd
       -0.00916634 -0.05679235 -0.010592309 -0.040099215
0002d0 60 16 b7 3c fe 8f 5f 3d ec bb c4 bc cc 7f 30 bd
       0.022349536 0.05458068 -0.02401539 -0.043090627
0002e0 bc 9a e7 3c e0 f0 ec 3c 24 b2 27 bd 39 d0 06 3d
       0.028272025 0.028923452 -0.040941373 0.03291342
0002f0 8d 82 82 3d 11 eb b0 3c 6b 70 4f 3d 51 08 21 bd
       0.06372557 0.021596463 0.05064432 -0.03931457
000300 9b 0c f8 3c ad d5 d7 3c ab 01 d8 3b 86 99 db 3c
       0.030279448 0.026347006 0.0065919957 0.026806604
000310 f6 f8 4e bc 3c bd 25 bd 42 03 ff 3c 76 73 49 3d
       -0.012632599 -0.04046367 0.031129483 0.049182378
000320 60 12 03 3d 82 9f 8b bd 4d 16 01 3d 97 94 2e bd
       0.031999946 -0.06817533 0.03151541 -0.042622175
000330 28 65 ef bc db 0b 6b bc 87 28 8a 3d 2a 70 4a bc
       -0.02922304 -0.014346088 0.06746011 -0.012355844
000340 65 dd 0f 3c b8 ed a4 bd e0 b5 81 bc 8a d5 a5 3c
       0.008780812 -0.08053154 -0.015833795 0.020243425
000350 fc c1 61 3c f4 a4 6a 3d c6 f3 e7 3c f2 6e 55 3d
       0.01377916 0.057286218 0.028314482 0.05210776
000360 6e 80 bb 3b 1f 5c ad bd 70 a9 21 3d 73 c6 6d 3d
       0.005722097 -0.08464836 0.03946823 0.058050584
000370 2f 01 cf 3c 8b b2 c1 bc bb 50 f2 3c bd 34 3a bd
       0.02526912 -0.023644706 0.02957951 -0.04546045
000380 03 82 79 bd 85 03 98 3d ad 32 5d 3c bc 2c 8e 3c
       -0.060915004 0.07422546 0.013500852 0.017355315
000390 e2 f0 1e 3d 2a f5 1c bd 52 68 a6 3c 52 b4 38 3d
       0.038803943 -0.038319744 0.020313416 0.04509384
0003a0 b0 89 26 3d e8 f6 1a 3d 5a 49 2c bd 49 a6 12 3d
       0.040658653 0.037833124 -0.04206214 0.035803113
0003b0 35 f4 f8 3c c5 34 e3 3c 19 7c 0c bd 7c c0 a9 3c
       0.030389884 0.027735123 -0.034298036 0.020721667
0003c0 8d d7 20 bc 77 ba 0d 3d e4 87 50 3c 52 77 9e 3c
       -0.009817016 0.034601655 0.012727711 0.019344006
0003d0 b7 38 88 bb 9a ba c6 3c af 9e 0e bd 89 d5 96 bb
       -0.0041571516 0.0242589 -0.0348193 -0.004603092
0003e0 8d 65 17 3c f2 53 9a 3d 8d 7a 59 3c af 56 b6 bb
       0.00924052 0.075355425 0.013273847 -0.0055645327
0003f0 65 78 31 3d ce 06 c2 bc 31 be 80 3d 52 04 c8 ba
       0.043327708 -0.023684885 0.06286276 -0.0015260077
