models/2023-05-11_21-27/pytorch/1-F_3-E_1.pt (torch, 35806 bytes, 39 tensors)

TSA.conv.weight f4 [3, 3, 3, 3]
00000000: 0111 b6bd 1044 f039 90b6 753d 1e3d b6bd
00000010: 930e 7a3f 550d d23d 327d a7bd 2e4e a33d
00000020: 5df3 163e 5d6e 91bd 1998 5d3d b059 183e
00000030: ca7e 8fbd 98cd 833f 5b8b 463e 9588 85bd
00000040: 3fe9 113e 9810 7a3e 0b61 82bd e87d 703d
00000050: baef 133e bcda 8cbd 7093 823f 49df 323e
00000060: e34f 8dbd 8eb9 f63d 9f89 513e 6030 ec3c
00000070: 4fe4 7c3d e8c7 b83c 3cce 8a3c 1071 753f
00000080: d347 4fbd 9e7c 05bc 6a30 d1bc 3ded e9bd
00000090: 9233 1a3c 29e2 273d 24f2 1339 b4fd 3b3b
000000a0: 3265 6e3f b249 9dbd 1e51 27bc 9959 1cbd
000000b0: f1ef 0abe 4a42 d63c ef28 863d 28bf a13c
000000c0: 03a8 b73c 8ada 743f 5579 4ebd ebd2 b5b9
000000d0: 22be 9abc fe93 e5bd a9ff f9bd ac46 153d
000000e0: 4658 1d3e 980f a9bd 9029 803f 95b5 283e
000000f0: a94b eebb 97a3 113e d5a0 133e fdc6 f8bd
00000100: 275e 563d 44fc 483e 5bea b1bd 6e83 803f
00000110: fd7a 503e 82a7 ce39 47ea 233e 362d 3a3e
00000120: ec08 f1bd c656 663d ae5b 4c3e d98e 9ebd
00000130: 24a2 803f fb22 4f3e 1b8e 5f3c 413d 203e
00000140: 0a16 2f3e
-0.08889962 0.00045827078 0.05998856 -0.08898376 0.9767849 0.10256449 -0.08178176 0.07973896
0.14741273 -0.07101128 0.05410013 0.14877963 -0.07006605 1.0297117 0.19389097 -0.065201916
0.14249133 0.24420393 -0.06366166 0.058713824 0.14446917 -0.06877658 1.0201244 0.17467989
-0.06900003 0.120471105 0.20462655 0.02883166 0.06174117 0.02255626 0.016944043 0.95875645
-0.050605606 -0.008147387 -0.025535781 -0.11422203 0.009411709 0.040987168 0.00014109217 0.0028685154
0.9312316 -0.07680072 -0.010212211 -0.038171384 -0.13568093 0.026154656 0.06550776 0.01974447
0.022418981 0.95645964 -0.05040868 -0.00034680156 -0.01888949 -0.11209868 -0.122069664 0.03644435
0.15365705 -0.082549274 1.0012684 0.16475518 -0.007272203 0.14222561 0.14416821 -0.12147329
0.052335884 0.19627482 -0.08687278 1.0040109 0.20359416 0.00039416185 0.16007338 0.18181309
-0.1176928 0.056235097 0.19956848 -0.0774209 1.0049481 0.20228188 0.01364472 0.15648367
0.17098251

TSA.conv.bias f4 [3]
00000000: 9eb4 a2bd 8b98 aebb 29ad bbbd
-0.07944606 -0.005328243 -0.09163887

FPN.0.weight f4 [3]
00000000: 63aa 783f ab97 833f 0bf6 683f
0.9713499 1.028066 0.9100043

FPN.0.bias f4 [3]
00000000: 357a b0bc 800b e43b 06b0 3dbc
-0.021542648 0.0069593787 -0.011577612

FPN.0.running_mean f4 [3]
00000000: 2eea f63e 7478 dc3e 1b49 c03e
0.4822554 0.43060648 0.37555775

FPN.0.running_var f4 [3]
00000000: 7dda ad3d b839 423d 95f3 8b3d
0.08488939 0.047418326 0.06833569

FPN.1.conv.weight f4 [4, 3, 3, 3]
00000000: 6353 7c3d 1173 323e 5f86 8f3d 40b9 0ebe
00000010: 7cda 953d 21ea 283e fab3 09bd 3b16 11bd
00000020: 2b17 e13d 41cd e73b 1248 393e 63bc 023e
00000030: 6f74 b4bb 7ab4 d8bd 9231 873c c0e8 42be
00000040: e937 eabd 1e69 7cbe 5b33 1e3e 9259 a2bd
00000050: 8814 293e 714c 93bd a50f 69be 219a 593d
00000060: 48bb 43be 001b 5f3d 8bdc b33d 5b2f 17be
00000070: dd9c f4bd 77e1 503e 4213 07be b831 e3bc
00000080: e9bf 323e 60b9 16be 8a68 473d 5576 2a3e
00000090: 16cf d03b 9a59 77bc 5edc febd de2e 313e
000000a0: 4e9e 32be ff26 1abd 47b3 f6ba 12ba cabd
000000b0: d752 08be 0cbe ecbd 9b42 c5ba f89f 1abd
000000c0: b959 2a3e 2c4c b73d af55 0c3e 87aa 393e
000000d0: 45e8 15be 0abd 1e3d 4baa 31be 7a2d 283d
000000e0: 61a8 bf3b 4b13 38be a21d 75bd de32 efbc
000000f0: 7326 60be b35f 013d b0d5 29be 9bec 313e
00000100: a494 ce3d 4bd8 a13d 0626 1ebe 9d50 e83d
00000110: f6fb eb3c 6224 d43c cbec 353b 04e1 71bc
00000120: 7fa9 5c3d 3ec0 1ebe 5469 14be 76b2 d3bd
00000130: 757d 73bd 908c 3bbe d15a edbb f5d3 ea3d
00000140: 966f 0cbe 4066 f63d 46f0 dd3d 8bc8 1ebe
00000150: 52b2 293e 0404 b83c 7969 47be 5421 a53d
00000160: 2711 b53d e0d9 883d fb81 47bd dd91 333e
00000170: cd2e 12be 554a 1f3e 5f98 013d 8bfe 953c
00000180: f66a 1c3e d314 7f3d a18a 4bbe bbf3 f33c
00000190: 7378 ccbd 6acf 33be 044d a7bc f34f 8cbd
000001a0: a599 673c b260 24bd f7b9 173e 80f9 1dbe
0.06160296 0.17426707 0.07008051 -0.13937855 0.07317063 0.16495563 -0.033618905 -0.03542159
0.10990747 0.0070740287 0.18093899 0.12767176 -0.005507044 -0.10581298 0.01650313 -0.190341
-0.11436445 -0.24649474 0.15449278 -0.079272404 0.16511738 -0.071923144 -0.22759874 0.053125504
-0.19114411 0.05446911 0.087822996 -0.14764158 -0.11943982 0.20398508 -0.1319094 -0.027733669
0.1745602 -0.14719152 0.04868368 0.16646703 0.006372343 -0.015097046 -0.124443755 0.17303035
-0.17443201 -0.037634846 -0.0018821739 -0.09898771 -0.13312851 -0.11559686 -0.0015049757 -0.037750214
0.16635789 0.089500755 0.1370456 0.18131457 -0.14639385 0.0387545 -0.17350118 0.041058995
0.0058489298 -0.1797611 -0.059842713 -0.02919906 -0.21889667 0.031585407 -0.16585422 0.17375414
0.10086945 0.07902583 -0.15444192 0.11343501 0.028806668 0.025896255 0.0027759548 -0.014763121
0.05387258 -0.15503022 -0.14493304 -0.10336773 -0.059445817 -0.18315339 -0.007243492 0.11466209
-0.13714442 0.120312214 0.10836844 -0.15506189 0.1657193 0.022462852 -0.19473828 0.080629975
0.08841162 0.06682181 -0.048707943 0.17536111 -0.14275666 0.15555699 0.031639453 0.018309852
0.15275177 0.06227572 -0.19877101 0.029779306 -0.09983911 -0.17559591 -0.020422466 -0.068511866
0.014135753 -0.04013128 0.14817034 -0.15427208

FPN.1.conv.bias f4 [4]
00000000: 62dc 1cb6 1f2a df38 2e14 0d38 c2cd 4c39
-2.3374091e-06 0.00010641314 3.3635813e-05 0.00019531607

FPN.1.bn.weight f4 [4]
00000000: 45f7 843f 128d 663f e3db 7a3f ac71 743f
1.0387961 0.90059006 0.9799177 0.9548595

FPN.1.bn.bias f4 [4]
00000000: fe9b 2a3d 5193 38bd bdce 87bd 9ed5 9dbd
0.041652672 -0.045062367 -0.06631229 -0.0770676

FPN.1.bn.running_mean f4 [4]
00000000: 7798 52bc 25c3 85bc 3c82 823c 4358 c03b
-0.012853733 -0.016328404 0.015931241 0.0058698966

FPN.1.bn.running_var f4 [4]
00000000: 3b8c 603e 6863 cb3d 8b2e 523f 4fbe 7d3e
0.21928494 0.099310696 0.8210227 0.24779628

FPN.3.conv.weight f4 [6, 4, 3, 3]
00000000: 7a3a cdbb 0937 67bc 05ce adbd ff4e af3c
00000010: 8efe 633d 5e92 c53d 537f fc3c 4100 8bbd
00000020: a29a 94bd 7452 953d 8653 6ebd 4599 373d
00000030: 1bfd b4bd 411d b43d a6b6 263e ac2f 25be
00000040: c3bb f6bc 798d 173e 81cc 0dbd 9fcc 0cbd
00000050: e0e7 973d 64a8 2fbd 6771 393c 13b0 743e
00000060: 390f f73d b4dd e23d d14f f1bb 604d 9ebd
00000070: d199 17be cccb 1b3c 4496 b43d 330b 263d
00000080: b6e8 0dbe beda 9e3d ec45 1ebe 866c e1bd
00000090: 23ff ca3d 4b0e cdbd 6f7d c1bd 161b 0e3d
000000a0: 9bca 32be 44cc 593d bce3 433e 9fda 14be
000000b0: b763 a5bd 171c 163b 64ba cd3d 459d f9bc
000000c0: aa54 083d 0afa 053e 044f 5e3e 17e7 103e
000000d0: 05f6 bbbd 95b2 183e fa26 003e 23fd a93d
000000e0: 5b2c 5b3e 82e0 8fbd ab3e 0f3e 3e93 e13d
000000f0: b2ce a03b 2f01 1dbe 148e cf3d cebc 93bd
00000100: 56ef 283d b67c bcbd bc7c 553d f959 4b3d
00000110: 02db 963d a9a7 ffbc 94af cdbd cf34 d53d
00000120: 3458 f8bd 10c8 c93d 7ded 7c3d 7ee6 b53d
00000130: 2e45 a9bc eb3a 253e 4f94 2ebe f90a 1ebe
00000140: 1de5 dcbd 9baf a73d 4b1b 06bd acf8 d43c
00000150: 0fc1 85bd fe5e 293d ed00 0e3d a99c 303d
00000160: 0b70 073e 8c6d 23bd ef73 1c3c 7291 41bb
00000170: 8a0e 363d 5f35 c23c a591 b53d 8300 013e
00000180: b13e 4fbd 4aea 0d3d c074 173b 10bf 1cbe
00000190: 3c1e 093e 8e2e dd3d a261 fe3d ba76 b1bb
000001a0: fc82 963c 13c4 83bd 4c39 6cbd da72 3bbe
000001b0: 511e 3d3d 6fa6 863d 6c13 21be 9dbb 0f3e
000001c0: cde0 30bd f45d 21bd ed9c eabd 3613 703e
000001d0: 0de5 813e e724 c53d aaa6 563d eda6 c03c
000001e0: 5f70 90bd 6099 e7bd 1513 6c3d 08bd 3bbd
000001f0: c443 023e 9de4 a33b 4ac6 ff3d 821a 60bd
00000200: 2233 ebbd 3d7c f83d be77 4cbd c4d7 9ebc
00000210: aa38 0f3e 5677 213d 3850 53bd 60a4 18be
00000220: 2bfa 1dbe 7cb6 a03c e78f 81be 8d43 02be
00000230: e267 b93c 3a74 6fbd cbb9 863b 5e22 6cbc
00000240: dc11 163e 1110 e5bc bbd3 f73d af9d 3bbe
00000250: 7d33 4c3e 98a9 42bb c28a 30be bf54 58bd
00000260: dba4 403e aedc fcbd 3995 8fbd d954 fabd
00000270: 1b3a b43d b010 21be 93bf bf3d d59d bb3c
00000280: 0d67 c93d 557e 003e e2de b3bc aa31 f43d
00000290: f1d6 063e b05d 4dbe d343 fbbc 2c7a bcbc
000002a0: 449c c83c 92e7 3fbe 0966 823d de2d 39be
000002b0: 509d b5bc e4de dcbd 42f3 c83d ac4b 643c
000002c0: 7e2c 253d 839d a0bd 9d37 10be 4e85 f43c
000002d0: 7479 8abd b040 d13d 47cb 59bd 28e0 293e
000002e0: d0f9 2f3e b0e3 473d 7739 293d 6b3c d13d
000002f0: 4483 ec3c c1c6 dabd d4de 87bd e9b1 773c
00000300: 0ef3 1ebd d708 c2bd ba3c 9cbd 9e33 0dbc
00000310: 1cc5 9cbc 1a5f dc3d 6ea5 723d 6a1d 063c
00000320: c029 7fb9 cd98 f43d 284c 7bbc 4484 a33d
00000330: bc6d 77bd 4606 a33d b089 883d 42ec 323c
00000340: 0820 b53d 151c 963e 2b42 8bbd 9768 e0bc
00000350: a478 7e3d 1fea d2bd a4e3 d1bc 75b4 8e3d
-0.0062630745 -0.0141122425 -0.08486561 0.021399973 0.055662684 0.09647058 0.030822432 -0.06787158
-0.07256056 0.07291117 -0.058185123 0.044823904 -0.088373385 0.08794642 0.16280612 -0.16131467
-0.030118829 0.14800061 -0.03461886 -0.03437483 0.074172735 -0.0428852 0.011318541 0.23895292
0.1206345 0.11077443 -0.007364251 -0.07729602 -0.1480477 0.009509038 0.088177234 0.040538024
-0.13858303 0.077565655 -0.1545636 -0.11007027 0.09911945 -0.10012492 -0.09447753 0.0346938
-0.174601 0.05317332 0.19129843 -0.14536522 -0.0807566 0.0022904926 0.10045317 -0.0304705
0.033283867 0.13083664 0.2170983 0.14150654 -0.09177784 0.14911874 0.12514868 0.08300235
0.21403639 -0.07025243 0.1398875 0.11014412 0.0049074525 -0.15332483 0.10134521 -0.07213746
0.041243874 -0.09203474 0.05212091 0.04964635 0.07365991 -0.031207876 -0.100432545 0.10410463
-0.121261984 0.09852612 0.061749924 0.088818535 -0.02066287 0.16135757 -0.17048763 -0.15433873
-0.107858874 0.08187791 -0.032740872 0.025997482 -0.06530964 0.041350357 0.03466885 0.043118153
0.13226335 -0.039899394 0.009549125 -0.0029536155 0.04444746 0.02370709 0.0886567 0.12597851
-0.050596897 0.034647264 0.002311036 -0.1530726 0.1339044 0.10799895 0.12420966 -0.0054157646
0.018373005 -0.064338826 -0.05767183 -0.18305531 0.04617149 0.065747134 -0.15730065 0.14036413
-0.043183137 -0.03939624 -0.114557125 0.23444828 0.25370064 0.09626179 0.052405037 0.023517096
-0.07052683 -0.11308551 0.057635386 -0.04583457 0.12721163 0.005001618 0.124889925 -0.05471278
-0.11484362 0.121330716 -0.049918883 -0.019389994 0.1398646 0.03942045 -0.051590174 -0.14906454
-0.15427463 0.019618265 -0.253051 -0.12721081 0.022632543 -0.05846045 0.0041115037 -0.014412491
0.1465525 -0.027961763 0.12100931 -0.1832187 0.19941516 -0.0029703137 -0.17240432 -0.052815195
0.18812887 -0.12346779 -0.07010884 -0.12223215 0.08800145 -0.15729022 0.09362712 0.022902409
0.098341085 0.12548192 -0.021956865 0.11923535 0.13167931 -0.2005527 -0.03067199 -0.023007475
0.024488576 -0.18740681 0.06367118 -0.18083903 -0.022169739 -0.107847005 0.09812023 0.013934057
0.040325634 -0.07842543 -0.14083715 0.02984872 -0.067614466 0.10217416 -0.053172376 0.16589415
0.1718514 0.048801124 0.04131457 0.10216602 0.028871186 -0.106824405 -0.06634298 0.015118101
-0.038806014 -0.09474342 -0.0762877 -0.0086182635 -0.019136958 0.10760327 0.059239797 0.008185724
-0.00024334248 0.11943207 -0.015337981 0.07984212 -0.060407385 0.07960181 0.06666887 0.010920586
0.08844 0.293183 -0.0679973 -0.027393622 0.06212677 -0.10298561 -0.025621243 0.06968013

FPN.3.conv.bias f4 [6]
00000000: 3201 c6b8 191d de35 8878 ef38 7682 0cb7
00000010: bfad ebb7 f72a 9536
-9.4415984e-05 1.6548757e-06 0.00011418859 -8.375026e-06 -2.809509e-05 4.445548e-06

FPN.3.bn.weight f4 [6]
00000000: 54ca 763f a4cc 6b3f af1e 823f a09d 7c3f
00000010: 4d77 8a3f 6282 8b3f
0.9640248 0.9210913 1.0165614 0.98678017 1.0817658 1.0899165

FPN.3.bn.bias f4 [6]
00000000: b6d8 1fbd 640e cabd 3632 53bd 2c53 82bd
00000010: 3596 19bd 2fd5 a2bd
-0.03902503 -0.09866026 -0.051561557 -0.0636352 -0.037496764 -0.07950818

FPN.3.bn.running_mean f4 [6]
00000000: 6e3e 483d faa9 743e 535f 913d 7d8b d4bb
00000010: f892 a9bd 26d5 863e
0.048887663 0.23892966 0.0709826 -0.006486355 -0.08279985 0.26334494

FPN.3.bn.running_var f4 [6]
00000000: 4150 ef3d 540c 383e 965d b63d bec2 293e
00000010: bcff 733d 9c79 1f3e
0.11685229 0.17973453 0.08904569 0.16578194 0.05957006 0.15573734

ConvLSTMLayer.cell.conv.weight f4 [32, 14, 3, 3]
00000000: a919 d83c 6f55 02bb 549d 663d ef24 f1bc
00000010: 72a4 0ebd d33f 6a3d 7038 f0bd e623 3dbc
00000020: 1e7f 6d3c d51f 963d 31fa 00bd 6ef7 ce3d
00000030: 39e7 03bd 8c17 c53c ceb0 983d b2d4 e1bd
00000040: 15a8 e0bd 5b3e 7dbd 0619 b03d ab62 853b
00000050: 4ae0 43bd 597c 5f3d f7b5 ad3c 0ec4 093d
00000060: b477 163d 695f 84bd e2df 66bc 7bfc de3d
00000070: f167 a13a b61b f5bc 526e 8c3d 3a14 653c
00000080: dff8 45bd 3b4e b0bd 1f1c 5bbd d816 adbd
00000090: 43f0 923b 563e e3bd 67ca e6bd ec19 df3d
000000a0: 5543 383d 65b1 59bc d9a0 a73c 7efa e53b
000000b0: 1970 59bd b1a5 bc3d 142b 45bc 0f57 cd3d
000000c0: 86a6 50bc 98d7 dabd d1d3 923d 17fa 8dbd
000000d0: 1222 113e f28d 203e 1837 973c 19a7 833b
000000e0: d53d dbbd bbc4 8a3c ec82 1dbc b85d 01bd
000000f0: f2ba 413d bd72 d43c 68a9 eebd 9e01 893d
00000100: 8160 ae3d e288 563d 8ff4 d3bb 2f1c b53c
00000110: 218e 7cbc 4b99 573d db76 dc3d 5120 2a3c
00000120: 610b e0bc 650e 6bbd 988c a53c 183d b73d
00000130: b0bc 71bd a617 cb3c e8f0 2a3d eb93 043e
00000140: a716 2f3e 7ef1 883c d6a3 79bd 08aa 8fbd
00000150: 4a59 d53d 59e7 2c3d 3d90 0bbd 9faf 7c3d
00000160: 68f2 8e3d 048b ebbd 8e5c 363d 41d3 12bd
00000170: 5b93 9cbd 942a e9bb ae32 083d 9a5a 98bd
00000180: 7a8f da3d ec2c d43d 59c7 ad3c 87f7 a83d
00000190: 83cd 643e 05da ba3d e6d1 ac3d cc88 d43d
000001a0: e54a 45bd 63a9 c53d c407 8ebb 97d0 16be
000001b0: c6c5 73bb d828 883d db00 e93d f5e4 6fbb
000001c0: a802 90bb 7b6e 033e ab06 123c 506d 9fbc
000001d0: 8958 c83b 25c9 913c dc72 5cbd c24b a6bd
000001e0: c94a 833d 7f0a bcbd 558b 12be 1fce 29bd
000001f0: ae2f 10be a739 d2bd e198 083c 9161 d8bc
00000200: a28f 1f3d 6cf1 553c 65ae cd3c 2271 46bb
00000210: a7f0 8dbd 9abb 5a3d 86be 30bc e1ff 61bc
00000220: 5e41 183d 7007 293d 9e32 b03d 43b3 f13c
00000230: f58f 2fbd 6a93 61bd 90b7 013d 6026 a2bd
00000240: 6029 3b3c fd16 633d e2d2 93bc 10ee b3bd
00000250: 126d bfbd 5cb3 36bd aeae 483c e8b3 2abd
00000260: 3b8a 543d f31f b4bd 4e71 3e3d 4cc6 173b
00000270: 8ebb 173d 3112 9d3d 6ada 9fbc 0379 823d
00000280: 3cb9 80bc fed0 a83d a753 e13d 9035 fd3d
00000290: 8974 903c e8d6 afbd 6f50 ce3c df42 cebc
000002a0: 2e80 893d 1fc5 e23d 0edb db3c 3650 c4bd
000002b0: e2da 973d 2901 a33b 4edb 0ebc 25ff dcbd
000002c0: cbeb 823d a084 853d 27e2 223d 0957 cd3d
000002d0: fe34 12bd c8ae 01be a9bd f3bd 3620 05bd
000002e0: f564 e3bc 22cb b7bd de4a acbd 98f0 9b3c
000002f0: a7e1 78bb 500e 6fbb cec3 d23d 6b8e 743d
00000300: 349b adbd 8b88 913d 53dd fb3c 048c 93bb
00000310: 9d67 fd3c b8b6 0bba a432 27bd dacc 633d
00000320: 0047 fc3c fb4c af3d fac1 3dbd 7b1b 0abc
00000330: 25f7 e43d 1d6e 933d 5471 76bd 5394 67ba
00000340: 0e79 20bd 321f f3bd 12bf ed3d 63fe 513c
00000350: 2522 14be 3fea 3abb fd46 b63d 7417 a33d
00000360: 026c 233d 74bb d23b d03a 23be 6d72 783d
00000370: 6d75 4e3d b7b2 6bbd f9a7 013e e48e 713d
00000380: aaae 803d 1afb 573d bd54 93bd 3e45 abbc
00000390: 8439 c73d 1dca c9bc 3722 5ebd f086 06bd
000003a0: 36d0 e13d 0378 6fbb afba 143d 7cc2 aabc
000003b0: 82c4 fabd 2599 473c 8d2e b13d 6c98 a03c
000003c0: 89ef d93c 531c afbc 2c35 8d3d 2ea5 d13c
000003d0: d90e 973c 578c d2bd 8272 123d 9cea 673d
000003e0: a063 643d 239b 0c3d ba7a 12bd 3743 acbd
000003f0: f0ea 3f3e d3f1 8cbd 7c7c 32bd d0e6 8fbd
0.026379423 -0.0019887348 0.056302384 -0.029436557 -0.034824796 0.057189774 -0.117295146 -0.011544203
0.014495639 0.0733029 -0.0314886 0.10105787 -0.032202933 0.02405908 0.07455598 -0.110268965
-0.10969559 -0.061827045 0.08598523 0.0040706 -0.04782132 0.054561947 0.021204932 0.033634238
0.03673525 -0.064635105 -0.014091464 0.108880006 0.0012314302 -0.02992044 0.068569794 0.013981873
-0.048333045 -0.08608671 -0.053493615 -0.08451623 0.004484208 -0.11095874 -0.11269074 0.10893616
0.044986088 -0.013286923 0.02046244 0.0070183864 -0.05308542 0.09211291 -0.012034196 0.10026371
-0.012735015 -0.106856525 0.07169307 -0.069324665 0.14173153 0.15679148 0.018458888 0.0040177223
-0.10705153 0.016939512 -0.009613734 -0.031583518 0.047297426 0.025933618 -0.116534054 0.066897616
0.085145004 0.052376635 -0.0064683626 0.022108166 -0.015414746 0.052636426 0.107648574 0.010383681
-0.027349176 -0.057386775 0.020208642 0.089471996 -0.059017837 0.02479155 0.041733652 0.12947051
0.17098485 0.016716715 -0.06094726 -0.07014853 0.10417421 0.042212818 -0.034073103 0.061690923
0.06979829 -0.115011245 0.04452186 -0.035846 -0.07645293 -0.0071156714 0.033251457 -0.07439156
0.10671897 0.10360131 0.02121322 0.08250337 0.22344021 0.09123615 0.084384724 0.103776544
-0.048167128 0.096514486 -0.004334422 -0.14728008 -0.003719674 0.06648415 0.11377116 -0.0036604975
-0.004394848 0.12835114 0.008912723 -0.019461304 0.00611407 0.017796108 -0.053820476 -0.081199184
0.064107485 -0.091816895 -0.14310963 -0.041456338 -0.14080688 -0.102649026 0.00833723 -0.02641371
0.03895534 0.013058048 0.025107572 -0.0030279835 -0.069306664 0.053401567 -0.010787612 -0.013793916
0.037171714 0.04126686 0.086034045 0.029504424 -0.042861897 -0.055072226 0.0316692 -0.07917476
0.011423439 0.055441845 -0.018044893 -0.08785641 -0.093469754 -0.044604644 0.012248678 -0.04167548
0.05188964 -0.08795156 0.046494775 0.0023158966 0.0370441 0.07669485 -0.019513328 0.063707374
-0.015713327 0.08242987 0.110022835 0.12363732 0.017633693 -0.08585912 0.025184838 -0.025178371
0.067139015 0.11072754 0.026837852 -0.095856115 0.074147955 0.0049745035 -0.0087192785 -0.107908525
0.0639263 0.06519437 0.039766457 0.10026366 -0.03569507 -0.1266433 -0.11901409 -0.032501422
-0.027758101 -0.089742914 -0.08412717 0.019035622 -0.0037976296 -0.0036477037 0.10291253 0.059706133
-0.08476868 0.07106122 0.030745184 -0.004502775 0.030933196 -0.00053296564 -0.04081978 0.055615284
0.030795574 0.08559605 -0.04632757 -0.008429403 0.111799516 0.07198737 -0.060166672 -0.0008834053
-0.039177947 -0.118711844 0.116087094 0.012816998 -0.1446615 -0.002852097 0.08900259 0.07963458
0.039897926 0.0064310376 -0.15940404 0.060656 0.050404955 -0.057543483 0.12661733 0.05897416
0.062833145 0.052729703 -0.07193897 -0.02090704 0.09727767 -0.024632508 -0.05423185 -0.03284353
0.11026041 -0.0036540038 0.036310848 -0.02084469 -0.12244512 0.012182509 0.08651457 0.01960393
0.026603477 -0.02137581 0.06894907 0.02559146 0.018439697 -0.10280674 0.035753734 0.056620225
0.055759072 0.034327637 -0.035761572 -0.08411258 0.18741965 -0.06882062 -0.04357575 -0.07026446

ConvLSTMLayer.cell.conv.bias f4 [32]
00000000: 97d3 02bd 0613 a83d 0bd1 963c 8d21 953c
00000010: 52de 673d d110 7d3d 847d 2b3c 2f72 873c
00000020: 73a1 693d d389 983c a808 0b3e 4d0c 0e3d
00000030: c6ec dd3d a2d1 463d 31fb ec3c d38e 863d
00000040: ace9 9cbb a152 763d 7780 4f3d ebd1 893c
00000050: ebb1 193d fa45 863d 9151 0d3d c6e3 913d
00000060: 5495 97bd 4c8e f9bc dae6 473d 86fd 65bd
00000070: e16a f53c a940 f93c ed10 18bc 959f b6bc
-0.03194007 0.082067534 0.018410226 0.018204475 0.056608506 0.061783615 0.010466937 0.01653394
0.057038736 0.018620407 0.13577521 0.0346797 0.108361766 0.048539765 0.028928371 0.0657021
-0.004788598 0.060137395 0.050659623 0.01682373 0.03752319 0.06556316 0.034501616 0.071235225
-0.07401529 -0.03046336 0.04880414 -0.056149982 0.02995819 0.03042634 -0.009281379 -0.022292892

Classification.0.g.0.weight f4 [4, 8, 1, 1]
00000000: b0d5 0cb7 7442 04b7 c5c6 7e37 05e0 1d37
00000010: a8e0 f7b7 c14b e4b7 9619 acb6 4857 f235
00000020: 73c8 5b37 e117 d0b7 60b4 e1b9 78d7 8738
00000030: a326 4938 d913 79b8 319c b4b7 7ca4 7039
00000040: 9846 9039 e5bc 77ba 0ce3 8aba 4e67 98b7
00000050: 347c efba 2f2b 37ba 187d 96ba ccc5 c53a
00000060: 303f 4735 7967 3433 9cca bb36 dc59 cc34
00000070: 8506 adb6 c31c 71b6 61f0 a4b5 2df9 c6b5
-8.394403e-06 -7.883285e-06 1.5185859e-05 9.410088e-06 -2.9549308e-05 -2.7214994e-05 -5.128978e-06 1.8055807e-06
1.3100088e-05 -2.4806652e-05 -0.00043049734 6.477436e-05 4.7958118e-05 -5.938471e-05 -2.1530404e-05 0.00022949459
0.00027518417 -0.000945045 -0.001059623 -1.8167917e-05 -0.0018271268 -0.0006987331 -0.0011481373 0.0015088855
7.4225227e-07 4.2003624e-08 5.596621e-06 3.8063342e-07 -5.1565607e-06 -3.592854e-06 -1.2288912e-06 -1.4824669e-06

Classification.0.g.0.bias f4 [4]
00000000: 3a70 823a e45a e5bb ea46 e83d 550d e0b7
0.0009951659 -0.0069993604 0.11341651 -2.6709089e-05

Classification.0.W.0.weight f4 [8, 4, 1, 1]
00000000: db0d e4b8 d172 dbbb 693c b63d 70ab 25b6
00000010: 52f8 9ab9 239a c438 0e0b 533d f0e1 5d37
00000020: 4a96 e1b5 2c09 5cb8 3929 0539 0d0e 0e34
00000030: bec0 98b8 5b49 083b 3b7e 8ebc 30e4 1cb7
00000040: f045 8dba b090 993c cad1 4abe c522 61b9
00000050: ee32 73ba 7c40 7eba 35c5 123e 5152 3b38
00000060: ee26 5234 8224 89b6 3c04 01ba df09 8bb0
00000070: 170e fcb8 b7e9 193a 5843 04bb c2d4 4b36
-0.00010874468 -0.006697037 0.08898241 -2.4686706e-06 -0.00029558182 9.3747185e-05 0.051524214 1.3225232e-05
-1.6807546e-06 -5.246063e-05 0.00012699225 1.3229892e-07 -7.283826e-05 0.0020795676 -0.017394176 -9.351454e-06
-0.0010778289 0.01874575 -0.1980659 -0.00021470625 -0.00092773035 -0.000969894 0.14333041 4.4660937e-05
1.9571937e-07 -4.0871682e-06 -0.00049215904 -1.0116387e-09 -0.00012018921 0.0005871313 -0.0020181742 3.0373199e-06

Classification.0.W.0.bias f4 [8]
00000000: 5aff ecb5 5e0c 0c32 69cc b4af 8514 ad32
00000010: 69af 04b9 ae51 04b6 ee2f 01b6 400a 9133
-1.7657687e-06 8.1518845e-09 -3.2887051e-10 2.0149182e-08 -0.00012653846 -1.9717077e-06 -1.9250397e-06 6.753953e-08

Classification.0.W.1.weight f4 [8]
00000000: f689 ad3c 8625 12bc da36 b939 1123 fdbb
00000010: 85c9 30bd ae11 7a3c 8061 5137 8560 f83a
0.021183949 -0.008920079 0.00035326817 -0.0077251275 -0.043160934 0.015263004 1.2480072e-05 0.0018949663

Classification.0.W.1.bias f4 [8]
00000000: a40b 41b7 cbc9 cab4 ac31 f436 a1c0 f4b6
00000010: 4e5d 0d36 418a 2e38 e1cc 5938 b131 ebb6
-1.1506407e-05 -3.7772256e-07 7.2775492e-06 -7.2941916e-06 2.1064948e-06 4.161359e-05 5.192764e-05 -7.0093306e-06

Classification.0.W.1.running_mean f4 [8]
00000000: 82c1 eeb8 420f 8bb8 3c58 4ab4 2806 b937
00000010: 292c 8239 13ff 3cb9 ff33 5935 546d af35
-0.00011384768 -6.6308785e-05 -1.8844815e-07 2.2056585e-05 0.00024828434 -0.000180241 8.0914464e-07 1.3070335e-06

Classification.0.W.1.running_var f4 [8]
00000000: c350 2833 5ffb 6232 8f67 072a 109b c830
00000010: 36d4 4a34 77a8 d133 9dba d52b 5e93 f72c
3.9189e-08 1.32120865e-08 1.2026338e-13 1.4595987e-09 1.8889918e-07 9.7629645e-08 1.5186356e-12 7.0365233e-12

Classification.0.theta.weight f4 [4, 8, 1, 1]
00000000: 6272 8abd df17 42bc c5d8 76be 9c21 60bd
00000010: e85a e7bb 46ae 083e 041c 6cbc ca31 6abe
00000020: cfdc a0bd 3b02 73bd 4fba 543e cdd6 c73d
00000030: 6ef8 333e 74f4 a73d 9202 41bd aeda 663e
00000040: b05f 07be f414 323c f2e1 0bbd 8538 50bd
00000050: d20d 05bd adda 103d 695b 0a3d b0e6 1b3e
00000060: a12e 6abe 0fb4 2b3b 309a a8bc f5a5 4a3d
00000070: 25f1 313e ec87 41bd 59f5 413d 5fd3 23be
-0.06760098 -0.011846512 -0.24106129 -0.054719552 -0.0070603974 0.1334773 -0.014410976 -0.22870556
-0.07854616 -0.0593283 0.20774196 0.09757767 0.17575237 0.082009226 -0.047121592 0.22544357
-0.13220096 0.010869253 -0.034151025 -0.05083515 -0.032483883 0.035364795 0.03377858 0.15224719
-0.2286935 0.0026199853 -0.020581335 0.049474675 0.17377146 -0.047248766 0.047353122 -0.159986

Classification.0.theta.bias f4 [4]
00000000: 0c1e 3f37 9f8b a3b6 486b b1b6 7116 13b8
1.1391483e-05 -4.8740326e-06 -5.2875002e-06 -3.506843e-05

Classification.0.phi.0.weight f4 [4, 8, 1, 1]
00000000: 8de5 2238 7505 3039 0f67 cdb8 e821 4839
00000010: 938d bd38 d2a1 2ab7 fe81 d9b8 abb9 4939
00000020: a71d 6e39 ced5 1239 898d 9139 01c7 77b9
00000030: f733 9bb7 2e04 b4b9 ded5 4138 239a b738
00000040: 34b8 2a39 5146 2b38 0097 6338 1587 053a
00000050: 41e9 9cb9 19e5 3a39 d6ce 7db9 10c5 d2b9
00000060: dd41 c2b9 ad1b 8fb8 7477 ab39 d039 9fb8
00000070: c22e 4aba ec92 eab8 9d74 9139 49d7 ac39
3.8837596e-05 0.00016786701 -9.794358e-05 0.00019086117 9.0385925e-05 -1.0170466e-05 -0.00010371579 0.0001923802
0.00022708495 0.00014003293 0.00027762007 -0.0002362989 -1.8501638e-05 -0.0003433539 4.6213965e-05 8.75483e-05
0.00016281084 4.0835064e-05 5.4261647e-05 0.0005093676 -0.00029928426 0.00017823688 -0.00024205013 -0.00040201144
-0.00037051635 -6.8239264e-05 0.0003270466 -7.592479e-05 -0.0007712656 -0.00011185356 0.0002774344 0.00032966796

Classification.0.phi.0.bias f4 [4]
00000000: c219 243e 6df6 32be a614 863d 0c23 6abe
0.16025451 -0.17476816 0.06546907 -0.22864932

Classification.2.conv.weight f4 [10, 8, 2, 2]
00000000: a534 433d d4d6 f3bc d98a c43c 62ce 2bbe
00000010: 1a48 33bd 9a17 4b3e 9435 14be 6f9a 8dbd
00000020: e282 44bd 1cd3 baba 0a95 c8bd 44b7 a23d
00000030: fdda 993c 8283 40be c3c8 f33d ba7d ec3b
00000040: 434a babd 2ba4 01be a5f2 213c 9614 a7bd
00000050: a47d f83d 550c 47be 291f 563e 03c4 98bd
00000060: 3d53 f7bc 66e8 c83a c506 cc3d df87 6e3e
00000070: 50fb fa3d 4a48 e7bd bbe1 08be a83a ca3c
00000080: 5d4b 8b3d 2721 9abd ffb0 1ebe b168 f53d
00000090: 1473 a83d 1da0 d73c 54c3 61bd 9568 953d
000000a0: 3328 1d3d 9ef0 363c 447b 0c3e 8768 8dbd
000000b0: 3a13 1e3e de12 143e 1a39 bebb 84f1 e0bd
000000c0: 8c2c 9bbd d866 863b 57e7 e83d 0834 cc3d
000000d0: b6c1 173c 0997 04be ac51 dd3d 4977 a8bc
000000e0: bebf 8d3d 43b4 d33d f8cc f2ba 37dd 30be
000000f0: 83a0 c03c bb6d cd3d b9bf a6bd cb0b b33c
00000100: be69 23be 1510 eabb 17ed ec3d 5bef d13d
00000110: 9e7e e8bd 5ad4 523d cde6 26be b6bb 173e
00000120: f798 283c 7b5d 2a3e b10d adbc 2f21 01be
00000130: b30e c83d 8369 1c3e 74ab abbd a5cc e1bd
00000140: 9d49 8ebc 7e59 efbc 817c debd d79a 2e3e
00000150: 89b6 c2bd f603 0abd 5519 eb3d ae42 a43d
00000160: 317e 1f3e 6264 30be 9290 423d 81c7 f7bd
00000170: 5d12 f8bd c545 ef3d 887d 4e3d 326d b93d
00000180: 040d e6bd 10af d63d 2309 e63d ea13 8b3d
00000190: eb28 383e d99f ecbd c9cb 4bbe 92f1 08be
000001a0: 0d8d f73c f378 8c3d 7daf 01be 451a d2bd
000001b0: db24 0bbe fb29 e5bd 81b3 eb3d 8e9e 983d
000001c0: e2dc 2a3e e762 4cb9 94f3 1f3d bd45 573d
000001d0: 66f4 58bb 3a5e 2bbc 8a6f 82ba a68e ae3c
000001e0: f9c3 ee3c c825 b6bd 6ce7 c83d 7dc2 1f3d
000001f0: 62bf dcbc 8e5f 32be 88b5 093e 3ecd 15bd
00000200: 735f cd3d 9bdf 57be ad6c 143e 09e0 f9bd
00000210: 159c 3dbd 8cc3 243e 20bf 233e 42b6 aa3d
00000220: 53fe e0bd 5a78 0f3d d2de d23c e75a 813d
00000230: 2579 56bd 78c1 b3bd ff85 4e3e cca0 c83c
00000240: 8628 1ebd 5130 0b3e e26a e8bd d4ed 0c3e
00000250: 7951 f43d cfd3 5d3d a499 a5bd 8ea7 e23c
00000260: 5be7 b83d c2bc 22bd 2d12 603d ab32 a13d
00000270: 7282 e7bc b0f2 143e e7ee 113e e58f 643d
00000280: dd60 e83d 467c 40be 552e 203c 8e4f 8bbd
00000290: f164 033e a95a 113c ebf2 fc3d a107 6c3e
000002a0: dd23 8cbd 99f9 5f3d c286 e3bd a920 833d
000002b0: 72c9 41bc 6de8 0f3e 021c dbbd cb08 4bbc
000002c0: a5a3 813d 4e9e 07be 0297 75bd 76b2 a23d
000002d0: f0e2 103e a1cb a93d 42a8 1b3d 62d5 37bc
000002e0: 0697 06be 7fe9 793d 2a7e 36be b944 893d
000002f0: 3100 10bd 8d2c c03d 0f31 3cbd ea9a 443d
00000300: 354a 08be 9fd7 d33d b613 fa3c a0fb d0bd
00000310: 264e 133e 205a 7a3c e0e3 88bc f6f9 1d3e
00000320: 148b db3d 9c25 b83d f35b a7bd 4dfa 243e
00000330: 21ff 323d d17f 8cbb 6ff2 983d b872 d53d
00000340: 61a7 d0bd 57db 8cbd 2505 363e a8fa 293d
00000350: 04a4 fcbd ed51 8abd 29eb 1e3e 659a 02be
00000360: eaa0 9ebc 8560 a63d da64 473d 4b85 f5bd
00000370: ac20 513e 9acc aebd a02d 103e dbec cbbd
00000380: 3ec3 ecbd b938 c73d 20c0 3cbe 5df2 163e
00000390: 2f7a e8bd 3a17 bfbd 88f4 8ebd 5ae9 833d
000003a0: e885 4e3d b297 933d 1f74 c63d af7d 09be
000003b0: 8064 b4bd 4a3b 0c3b 886d 5d3e 7c12 313d
000003c0: b723 fe3c b74d cc3c 9974 6abd 39b3 2bbe
000003d0: df63 65bd a487 fdbd 3be8 d63d 5af8 be3d
000003e0: 9ca7 393e fd89 c9bc 5f50 303d 26a7 293e
000003f0: 7454 a8bd 93d4 58ba bf6e 05be 9e07 923b
0.047657628 -0.029765524 0.023991989 -0.16777948 -0.043769933 0.19833222 -0.14473563 -0.069142215
-0.047976382 -0.0014253589 -0.09794052 0.079451114 0.01878118 -0.18800166 0.11903527 0.007217136
-0.090961955 -0.12660281 0.009884511 -0.08158223 0.12133339 -0.19438298 0.20910324 -0.07459261
-0.030191058 0.0015328049 0.09962229 0.23294018 0.12254965 -0.11293085 -0.1336736 0.024686173
0.06801484 -0.075258546 -0.15497206 0.11982859 0.082250744 0.026321465 -0.05511792 0.07295338
0.038368415 0.011165766 0.13718897 -0.06904703 0.15437022 0.14460322 -0.005805147 -0.109835654
-0.07576856 0.0041016154 0.113722496 0.09970862 0.009262493 -0.1294824 0.10806593 -0.020564692
0.069213375 0.103371166 -0.001852422 -0.17271887 0.023514038 0.10030695 -0.08142037 0.02185621
-0.15958306 -0.0071430304 0.11568659 0.102507316 -0.11352275 0.051472045 -0.16298981 0.148177
0.010290376 0.16637222 -0.021124693 -0.12610315 0.09768429 0.15274625 -0.083823115 -0.11025361
-0.017369086 -0.029217478 -0.10863591 0.17051254 -0.09507472 -0.033695184 0.11479441 0.08020531
0.15575482 -0.17225793 0.047501154 -0.12098599 -0.121128775 0.11683229 0.050412685 0.090540305
-0.11232951 0.10482609 0.112322114 0.06790908 0.17984359 -0.11553926 -0.19901957 -0.13373402
0.030218625 0.06859007 -0.126646 -0.10258917 -0.13588278 -0.11189648 0.11508847 0.07452117
0.16685823 -0.000194918 0.039050654 0.052556742 -0.0033104657 -0.010459477 -0.0009951454 0.021308254
0.029146181 -0.08893925 0.09809765 0.039003838 -0.026946727 -0.17419264 0.13448155 -0.036572687
0.10027971 -0.21081392 0.14494582 -0.122009344 -0.04629143 0.1609022 0.15990877 0.08335544
-0.109860085 0.035026886 0.025741015 0.06316166 -0.052361626 -0.087771356 0.20168303 0.024490736
-0.038612865 0.1359265 -0.11348511 0.13762599 0.11929602 0.054157075 -0.08085945 0.027667787
0.090285026 -0.039730795 0.054704834 0.07870992 -0.028260443 0.14545703 0.1425129 0.05580129
0.113466 -0.18797407 0.009776671 -0.06802283 0.12831475 0.008871713 0.123510204 0.23049785
-0.06842778 0.054681394 -0.111096874 0.06402714 -0.011827813 0.14053507 -0.106987014 -0.012392233
0.06330041 -0.13243982 -0.059958465 0.07944195 0.1414907 0.08290792 0.03800226 -0.011220308
-0.13143548 0.061013695 -0.17821565 0.06702561 -0.035156433 0.093834974 -0.045945223 0.0479993
-0.13309558 0.10343861 0.030526977 -0.10204244 0.1438528 0.015280277 -0.016710222 0.15427384
0.107198864 0.089915484 -0.08171835 0.16111107 0.04370034 -0.004287698 0.074681155 0.104222715
-0.10188175 -0.06877773 0.177754 0.04149881 -0.12335971 -0.06753907 0.15519394 -0.1275421
-0.01936384 0.081238784 0.048680164 -0.11988314 0.2042262 -0.085351184 0.14079905 -0.09957286
-0.11560677 0.09727616 -0.18432665 0.14740892 -0.1135143 -0.09330602 -0.069802344 0.06440993
0.05042067 0.07206668 0.09690117 -0.1342685 -0.08808231 0.0021397644 0.21623814 0.04323052
0.03102289 0.024939401 -0.057240102 -0.16767587 -0.056003448 -0.12379387 0.10493513 0.09324713
0.18130344 -0.02460193 0.043045398 0.16567668 -0.08219233 -0.0008271422 -0.13030528 0.0044564744

Classification.2.conv.bias f4 [10]
00000000: 3397 9435 9b76 44b4 5eb8 a433 f065 84b0
00000010: c29f aab6 d44c 3838 adf1 d9b6 6855 01b4
00000020: 7620 adb4 69f3 6b34
1.1070864e-06 -1.8297071e-07 7.670381e-08 -9.633236e-10 -5.084993e-06 4.394057e-05 -6.4952387e-06 -1.2045132e-07
-3.224738e-07 2.1974633e-07

Classification.2.bn.weight f4 [10]
00000000: 5ac1 713f 50ca 693f f9e5 6e3f 8570 753f
00000010: 38a6 713f 46a8 6a3f 6174 763f 0e38 823f
00000020: ea7f 703f 5cf9 6d3f
0.94435656 0.9132433 0.9331966 0.95874816 0.94394255 0.91663015 0.9627133 1.0173357
0.9394518 0.9295862

Classification.2.bn.bias f4 [10]
00000000: ad6a 2bbd 10a0 9bbd ec2d d8bc 4a7c b6bc
00000010: c48d 6f3c 4528 1fbd c38d 44bd 0ca1 eabc
00000020: 8a82 cfbd 8b02 aebc
-0.04184978 -0.07598889 -0.026389085 -0.022276063 0.014621202 -0.038856763 -0.047986757 -0.028641246
-0.1013232 -0.021241447

Classification.2.bn.running_mean f4 [10]
00000000: 7c31 16bd 2766 053d bb35 8239 e374 d43b
00000010: efa2 403d f030 7a3d 222d 233d 3c70 2bbd
00000020: 7fea 8bbc 13a0 8d3c
-0.036668286 0.032568123 0.00024835565 0.0064836605 0.047030386 0.061081827 0.039837964 -0.041855082
-0.01707959 0.017288243

Classification.2.bn.running_var f4 [10]
00000000: 84c7 473b 1e94 013b 4aee b33b b616 8a3b
00000010: 2668 3a3b 265c 603b 1c99 fc3b 03d3 4a3b
00000020: 2352 5d3b dfe2 033b
0.003048391 0.0019772123 0.0054910528 0.004214133 0.0028443425 0.0034234612 0.0077086817 0.0030948527
0.003377088 0.002012424

ClassificationCat.0.weight f4 [1, 250]
00000000: 1c19 9dbc 4e33 d93c 0b57 653b 8e8d 1d3d
00000010: 5436 5e3b b2eb 4ebc d374 953d 3d92 41bc
00000020: 7713 fc3d 601e 0abc 7cb6 c93c 6baa 6bbd
00000030: fe44 a3bd 4e83 883d 982c 603d c7c6 873b
00000040: f96c c23d 9ed2 71bd ccf5 1dbc 664e 8e3d
00000050: 115a 49bc 2416 7e3d 6d55 d3bc 72ea 593d
00000060: baa2 063c 0042 b8bc bbab 8fbc 6e83 d6bc
00000070: ee41 45bc 062a 883d 6f3f 25bc 8381 47bd
00000080: e394 553d 8448 18bd a250 2f3d a8d1 513d
00000090: 6ed4 2a3d 54fc b5bd 295c 1e3d a654 63bd
000000a0: 1c1c 14bd ec2d 16bb a64d 18bc 2546 493d
000000b0: 0692 56bc 1015 60bd f245 c33c f2bb 31bd
000000c0: 0215 b7bc 924b f23c 58a7 9dbb 1cb1 d939
000000d0: 5bf2 9c3d a6ea d9bc fc70 54bd d89c 9b3c
000000e0: 0e61 8bbd ee7f 2e3d 8bd4 9f3d 3942 88bd
000000f0: 4dc6 303d 7fbf 9b3c 04b1 99bd f690 31bd
00000100: a80c c1bb 8f79 363c aed1 683d 8711 c53c
00000110: 157c af3c deea 013d 4fd6 cebd 4eff 1e3c
00000120: eaf0 3cba f807 99bc 8345 d13c dcd5 47b9
00000130: 4fb3 a6bc 8740 583d 4bf3 87bd f377 0fbd
00000140: 00c4 7b3c da2f d5bc 8d98 733c e564 abbc
00000150: 2cd5 0dbb 2bd7 08bd 2142 37bc 8533 5dbd
00000160: c09d 76bd 03e4 1d3d fb79 893c 4cb1 e43d
00000170: aa4d 603c 9460 97bd b1fd 41bd ebb1 92bc
00000180: 632b e8bd 3a6b 743d b610 b13c 4b3e 26bd
00000190: 8269 153d 3c76 053d 580c 4c3d 32fb 8b3d
000001a0: adb9 4c3d 280e cfbc 8c06 65bc 34e2 bc3c
000001b0: eca7 d23d 1d27 383d 51ce 91bd fa6d a1bc
000001c0: 6aa8 66bc cfbb fc3d d256 b13d 9e1e ce3b
000001d0: 4d22 83bc eb96 c93a d32b ccbb 83d9 283b
000001e0: fa23 1abc 293b 373d 5e0c 833d bd47 1bbc
000001f0: dacf 50bc 554d 4dbc c41c 793c 5456 a9bb
00000200: 4167 d93c b008 20bc b913 5dbc be25 82bc
00000210: 064b 0abd 076e d83d 0634 a53d 666a a9bb
00000220: 425e 8c3d d9a0 a2bd 7ad6 b03c 1d46 593c
00000230: e7e9 3fbd 8455 83bc bc32 c53d d1cd 3dbd
00000240: 2788 833d 2fa6 163d 9ea8 1e3d 9d6a af3c
00000250: de67 72bd cd80 b73c 528f 91bc 1f99 11bc
00000260: 3b62 753c 18f4 d43d f9a3 15bd 3773 3a3c
00000270: 0000 213d d4c7 b6bd 37f7 f43c 0341 333d
00000280: 6e30 05bd ecc3 613b 2c11 813b 4229 dcbd
00000290: 05ba 003d 036f 0fbd e389 bc3c 1a23 9d3d
000002a0: dc85 20bc ac61 ddba 4406 5abc 1e9f f4bd
000002b0: 6f52 893d c5a5 dd3c c27a 3dbd 13c3 15bc
000002c0: 76c5 143e ce74 49bd 678a 36bd f007 273d
000002d0: 692d 40bc c20c b73d da0f ad3d 4176 fdbd
000002e0: 8592 ea3c 5ca0 c63d 1849 2bbd 8894 17bd
000002f0: b2b2 34bb 154b 7d3c 8025 ad3d fedb 173e
00000300: 3292 80bc 910b 40bc 492b b53b ebc7 943d
00000310: c496 313d 1f01 46bd 529b 39bc 5684 bc3d
00000320: e0a1 363d 2f48 81bc fc2d e53c 82e8 84bd
00000330: 7e25 483d 8f2f b23d 72ff 9fbc c76e 113c
00000340: 454a cebd cc98 993d 2cf2 043d 7773 04bc
00000350: 3851 d7bb f0fd cabd 3ff8 913d 5e70 5c3d
00000360: 5ef6 45bb 7b05 563c 006d 2fbd 3789 843d
00000370: 0267 3b3c 05bd 343d 11f8 c63d 5f0c 233d
00000380: 024e e0ba da59 d33c 7f0f c1bc 5446 313c
00000390: 25e9 5a3c cf3a 1ebd 0828 8fbc 77b6 2bbc
000003a0: a0ba 3fbd b1de a0bd 73d5 e43c deca 12bd
000003b0: 5e1b 41bc 7e0c 9f3d a89e 863b 9944 e0bd
000003c0: bb31 e4bc 6aee 8ebd 81e3 16bc bb52 26bd
000003d0: 4e4e e93c 3044 8d3d 7f77 b93a c5c2 72bd
000003e0: 0117 293d 2b59 c43c
-0.019177012 0.026513722 0.0034994509 0.038465075 0.0033906894 -0.012629436 0.07297673 -0.011814651
0.123084 -0.0084300935 0.024623148 -0.05753557 -0.079721436 0.066656694 0.054730028 0.004143569
0.09493441 -0.05903875 -0.009641122 0.06948547 -0.01228954 0.062032834 -0.02579757 0.0532021
0.008217508 -0.022492409 -0.017537942 -0.026185717 -0.012039645 0.0664864 -0.0100859245 -0.048707496
0.052143943 -0.03717853 0.042801507 0.051225334 0.041706495 -0.088860184 0.03866211 -0.05550065
-0.03615962 -0.0022915555 -0.009295857 0.04913916 -0.013096338 -0.054707587 0.023837063 -0.04339213
-0.022348884 0.02957705 -0.0048112087 0.00041521422 0.07663413 -0.026601147 -0.051865563 0.018995687
-0.06805621 0.042602472 0.07804211 -0.06653256 0.043157864 0.01901221 -0.07504466 -0.043351136
-0.0058914013 0.01113738 0.05684059 0.02405621 0.021421472 0.031718127 -0.1009947 0.009704424
-0.000720753 -0.018680558 0.025545841 -0.00019057788 -0.020349173 0.052795913 -0.06638201 -0.035026502
0.015366554 -0.026023794 0.014867914 -0.020922134 -0.0021641953 -0.033408325 -0.0111852 -0.05400421
-0.060209036 0.038547527 0.016781798 0.11166629 0.013690392 -0.07391468 -0.04736108 -0.017907104
-0.113364 0.05967257 0.021614414 -0.04058675 0.036477573 0.03258346 0.04981646 0.06835021
0.04998176 -0.025275305 -0.013978612 0.02305708 0.10285935 0.044959176 -0.0711943 -0.019705761
-0.014078239 0.12340509 0.08659138 0.006290271 -0.016007567 0.001538006 -0.00623081 0.0025764413
-0.009407992 0.044734154 0.06398843 -0.009477553 -0.012744868 -0.012530644 0.015204612 -0.005167762
0.026538493 -0.009767696 -0.013493472 -0.015887138 -0.033762954 0.10567861 0.08066563 -0.0051701544
0.06853916 -0.079408355 0.021586645 0.013261345 -0.046853926 -0.016031988 0.096288174 -0.04633886
0.064224534 0.03677958 0.038735025 0.021413142 -0.059181087 0.022400284 -0.017768536 -0.008886605
0.014977033 0.1039812 -0.03653333 0.011380008 0.03930664 -0.08924833 0.029903037 0.043763172
-0.03251689 0.0034449054 0.0039388146 -0.10750057 0.031427402 -0.03501798 0.023014968 0.07672711
-0.00979754 -0.001689007 -0.013307158 -0.11944412 0.06705176 0.027056584 -0.04625965 -0.009140748
0.1452845 -0.04918366 -0.044565585 0.040779054 -0.011729577 0.0893798 0.08450289 -0.12376071
0.02863432 0.09698555 -0.041817755 -0.037006885 -0.002757233 0.0154597955 0.08454418 0.14830014
-0.015694711 -0.011721508 0.0055288416 0.07264694 0.043356672 -0.048340913 -0.011328535 0.092049286
0.04458797 -0.01578149 0.027976029 -0.0648966 0.04886388 0.08700477 -0.019530986 0.008876509
-0.100727595 0.07499847 0.032457516 -0.00808417 -0.0065709613 -0.09911716 0.07127427 0.0538181
-0.003020666 0.01306283 -0.04282856 0.06471484 0.011438133 0.044125576 0.09715284 0.03980672
-0.0017113092 0.02579968 -0.02356696 0.01081999 0.01336125 -0.038630303 -0.017475143 -0.010480515
-0.04680884 -0.07854975 0.027933812 -0.035838 -0.01178631 0.077660546 0.004108269 -0.10950584
-0.027855745 -0.069790676 -0.009209515 -0.04060624 0.028479721 0.06897771 0.0014149992 -0.059267778
0.041281704 0.0239683
