models/2023-05-11_21-27/pytorch/1-F_7-E_2.pt (torch, 35806 bytes, 39 tensors)

TSA.conv.weight f4 [3, 3, 3, 3]
00000000: 6860 0f3d 28f1 ee3d 0124 a03d 2d5c ea3c
00000010: 3d43 8a3f f5cd 1f3e 8010 2c3c 4742 4b3e
00000020: f584 613e 42be d93c 248d 1e3e 31e4 223e
00000030: b195 643c 6c92 8d3f 8b66 723e 0d37 5fbc
00000040: 83cb 6c3e 1df2 9e3e a632 1d3d 7b7b 143e
00000050: 6ec7 053e 0bef 923c 6b11 8a3f ef87 413e
00000060: ad9b 74bc ec75 423e 9329 723e 0186 413d
00000070: c6d3 9b3d 2aaf 5d3d 092a 863c 211a 6a3f
00000080: 0034 3dbd 7be4 27bd d7a6 9bbd 88e6 1dbe
00000090: 243f 3f3d 64a7 823d 13f8 5a3d b77c 003c
000000a0: 4e61 603f cb2d 89bd 18ed 14bd ad84 bdbd
000000b0: ebb6 2cbe 15d1 3e3d 0f19 933d ab10 9c3d
000000c0: 1d4c 173c 6148 623f d207 1dbd 173f 54bd
000000d0: eae9 c7bd 6acc 1ebe 1d30 14be 8361 8f3c
000000e0: 1011 333e 0230 a4bd beaf 753f 8489 543e
000000f0: add9 ce3c 2ea8 343e 3bea 3d3e 8ee6 02be
00000100: fec4 193d 64a5 603e c524 8fbd 4ade 763f
00000110: cf60 803e 60d4 523d b1d7 4a3e e876 673e
00000120: b589 d7bd 0441 483d 7ec9 6a3e 6309 e7bc
00000130: e8b7 7b3f 1759 873e ceab c63d 7e21 603e
00000140: 8985 663e
0.03500405 0.11667091 0.07819367 0.028608406 1.080177 0.1560591 0.010501981 0.19849502
0.22023375 0.02657998 0.15483528 0.1590736 0.013951705 1.106031 0.2367193 -0.013623965
0.23124509 0.31044093 0.03837838 0.14500229 0.13064358 0.01793625 1.0786566 0.18899511
-0.014929694 0.18990296 0.23648672 0.047246937 0.07608752 0.054122128 0.016377466 0.9144612
-0.04619217 -0.04098938 -0.076001815 -0.15419972 0.046691075 0.063795835 0.05345924 0.007842234
0.87648475 -0.066981874 -0.036358923 -0.092538215 -0.16866653 0.046586115 0.07182514 0.07620367
0.009234455 0.8839169 -0.038337536 -0.05181798 -0.097614124 -0.15507665 -0.14471479 0.017502552
0.17486978 -0.08016969 0.95971286 0.20755583 0.02525028 0.1764228 0.18546383 -0.12783262
0.037541382 0.21938092 -0.06989435 0.96432936 0.2507386 0.051472068 0.19808842 0.22603953
-0.105243124 0.04889013 0.22928426 -0.028202718 0.98327494 0.26435158 0.09700738 0.21887776
0.22511877

TSA.conv.bias f4 [3]
00000000: 6c61 28be 829b c43c 94da d1bd
-0.16443413 0.023999933 -0.102467686

FPN.0.weight f4 [3]
00000000: 04dc 703f fedb 843f 72ae 653f
0.9408572 1.0379636 0.8971931

FPN.0.bias f4 [3]
00000000: 959f 77bd f291 543b 8bc6 3bbd
-0.060454924 0.0032435623 -0.045843642

FPN.0.running_mean f4 [3]
00000000: b3a1 e73e 8514 e03e baca bb3e
0.45240554 0.43765655 0.36678106

FPN.0.running_var f4 [3]
00000000: e59d 043e c7ee 3a3d 4d82 993d
0.12950857 0.045637872 0.07495556

FPN.1.conv.weight f4 [4, 3, 3, 3]
00000000: 5afa bc3d 1e11 333e 6985 6c3d 94d0 06be
00000010: 265e 6f3d 6fe2 0d3e 133a 11bd 377c 4bbd
00000020: 1920 c33d 7eb7 6a3d 5cf3 603e bb7e 393e
00000030: 7bdc 283c 9e89 ccbd 7d87 043d d3be 43be
00000040: 1c48 09be 2bd3 81be 7cd2 4a3e 6497 5fbd
00000050: e980 403e 24df 66bd 8bfb 61be be72 7d3d
00000060: 1420 44be d071 443d 2c39 c73d cf18 35be
00000070: 8f5f 01be fb0f 553e e18d 12be 10fa 22bd
00000080: 2b4d 3d3e 9840 29be 3a90 2e3d 9381 2e3e
00000090: e1c7 2dbb 6f23 8bbd 1335 d8bd 9b51 443e
000000a0: 7616 69be 2a43 d1bc 9286 833c a0be eabd
000000b0: 58f3 09be 387c dcbd ed2c 1ebc 5b96 14bd
000000c0: 255d 593e fd4b e23d 6678 1b3e 3633 583e
000000d0: e679 ccbd 9a7b 723d f321 07be f851 893d
000000e0: bfd3 0abb d45c 41be 83e3 afbd 58c6 99bd
000000f0: 4397 73be fef1 bdba 70f5 43be 015c 6d3e
00000100: 8294 183e cbf0 c83d fa2b 0bbe cae8 e33d
00000110: bb25 caba 2c47 bf3c 6c99 8abc 3554 53bd
00000120: fbf3 e83d d58c f6bd b5e6 12be bac1 bcbd
00000130: 00ec 9ebd 0a54 5dbe f745 94bb 24b2 bc3d
00000140: 096a 15be 53ac 193e 8a9c dd3d 83c7 2ebe
00000150: 919b 433e 0a3f 1d3d a176 49be 4947 d23d
00000160: a3c5 dc3d 17fa 813d 72ef 89bc b9b7 373e
00000170: 6ebd 0bbe c8cd 3c3e f19f 3c3d 98d8 0e3d
00000180: 3eb5 3e3e 188a aa3d 3e16 37be 2ecd bf3c
00000190: bf65 09be eaff 59be 23b0 d3bc b253 abbd
000001a0: 1a53 c9bb 012f 36bd 0242 0b3e 5729 31be
0.09227438 0.17486998 0.057744417 -0.13165504 0.058439396 0.13855909 -0.035455775 -0.049679007
0.095276065 0.057303898 0.21967834 0.1811475 0.010306473 -0.09987186 0.032355774 -0.19115762
-0.13406414 -0.2535642 0.19806856 -0.054587737 0.18799175 -0.056365147 -0.22068612 0.061877005
-0.19152862 0.047960103 0.097277015 -0.17685245 -0.12634109 0.20806877 -0.14311935 -0.03978926
0.18486468 -0.16528547 0.042618014 0.17041616 -0.0026516842 -0.06793868 -0.10556998 0.19171755
-0.22762474 -0.025544722 0.016055379 -0.1146214 -0.13471735 -0.1076588 -0.009654266 -0.036276203
0.21226938 0.1104965 0.15182647 0.21113285 -0.09984188 0.059199907 -0.13196544 0.067050874
-0.002118334 -0.18883067 -0.08588316 -0.07508534 -0.2378817 -0.0014491675 -0.19136596 0.23179628
0.14900401 0.098115526 -0.13590994 0.11128385 -0.0015422622 0.023349367 -0.01691886 -0.051593978
0.113746606 -0.1203858 -0.1434582 -0.09216638 -0.07759857 -0.2161409 -0.004524942 0.09213665
-0.1459123 0.15007143 0.10820873 -0.17068295 0.19102313 0.038390197 -0.1967416 0.10267503
0.10779884 0.06346529 -0.01683781 0.17941178 -0.1364648 0.18437874 0.04605097 0.03487453
0.18623826 0.083271205 -0.17879578 0.023413267 -0.1341772 -0.2128903 -0.025840824 -0.08365573
-0.0061439397 -0.04447842 0.13599399 -0.17300926

FPN.1.conv.bias f4 [4]
00000000: 18ea 0439 2ee4 d2b4 42bc 17b6 6ef0 aab3
0.00012675708 -3.928157e-07 -2.2610334e-06 -7.959976e-08

FPN.1.bn.weight f4 [4]
00000000: 5ad6 853f 17da 533f ea4a 813f eb93 6f3f
1.045604 0.82754654 1.0100987 0.9358508

FPN.1.bn.bias f4 [4]
00000000: 28a3 61bc 5d71 18bd 94aa c8bd 4237 5dbd
-0.01377181 -0.037217487 -0.0979816 -0.054007776

FPN.1.bn.running_mean f4 [4]
00000000: 1ef9 dabc bf0c ecbc f01e 993d b70c df3b
-0.026730116 -0.028814672 0.07476604 0.0068069356

FPN.1.bn.running_var f4 [4]
00000000: 7fbb 953e 43b4 b43d cb85 633f 6d71 c13e
0.2924461 0.08823445 0.88876027 0.3778185

FPN.3.conv.weight f4 [6, 4, 3, 3]
00000000: 22a9 873c de75 31bd 6ef2 6ebd 9569 203b
00000010: 092e c33d 3a4b d93d 2380 50bc 7878 8fbc
00000020: 4c4d 9ebd f740 f73d ac5a f3bd 7d5e 533d
00000030: e751 a4bd dd59 1a3d 7eae 113e 6d81 27be
00000040: 5fc8 0a3d d118 1d3e cb8a e9bc ce5c 2bbd
00000050: f6d6 4b3d 1821 bcbc 1907 993d 77a7 8b3e
00000060: 5a20 183e 9060 1e3e 80a1 bb3d 5550 17be
00000070: 2c0a 27be da44 b53d 3042 e83c 006a 0ebd
00000080: 1830 10be d5ea c33d 9c43 5abe 1c99 cabd
00000090: 413e 8c3d afd5 44be 376c 27be cafb 053d
000000a0: 06ee 4abe 9578 b63c b516 6a3e 3f27 0ebe
000000b0: c86b 1dbd 09eb 803c beff 0e3e 3f9c 26bd
000000c0: fe3f 58bd 5790 1b3e 7c80 3d3e a9d0 bb3d
000000d0: 4d1d d4bd 5d04 213e 2493 323e 9ac4 253e
000000e0: 7968 8c3e 1dfa 26bd 85fb 183e 7bfc 113e
000000f0: fc87 673d 23de d4bd 215f 373e cfcd d3bd
00000100: ab3b f03c 20e9 28bd 886a 153d f5f9 763d
00000110: 5f0a 433d 682e 74bd 2fd5 6dbd 6d0d 5b3d
00000120: 8f65 03be 80a9 0a3e 6590 843d 4878 f43d
00000130: d7a2 103d 311a 203e 3857 2abe e8c8 fbbd
00000140: 9723 e0bd 706b 6c3d 9a5c ffbd 2c1c 1abd
00000150: 1ccd dfbd ce6f 1f3c 6a7a 853c 8861 1d3d
00000160: 345a 083e 7193 52bd d777 4e3c 583f 863d
00000170: 8300 ce3d fc3f 813d bf5c 423e 6714 543e
00000180: 9691 37bd 3a3d 6d3d 8123 ce39 8659 22be
00000190: d9ca c63d 8cda 023e a8e8 1a3e b16e 27bc
000001a0: a226 353c 2c6d debc d493 cebd 52b4 13be
000001b0: dea5 08bc 5d73 d43c ccdf 15be 337e f73d
000001c0: 4b17 34bd 4ecf 2abd ad68 d8bd 5592 933e
000001d0: 8028 813e 4f1b 243d 193a 74bb 583b a7bc
000001e0: 9044 c9bd c7b6 06be 0195 77bc 3a0c a5bc
000001f0: 626c 3d3e 952d d4bc 4c48 113e 530f bdbc
00000200: 1212 3cbd 264e 103e 8b3f 36bd bc38 66bd
00000210: 1307 273e 9fe1 313d 48ca afbd 4c2a 6abe
00000220: a040 2dbe c86a 6bbc d16f 82be cc8f 1abe
00000230: 9e94 26bc cb3c 8e3d 04ea a63d ea90 f8bb
00000240: 72bc 163e ea82 60bd 6873 b43d 3ee7 5ebe
00000250: 27be 6e3e de37 a63b 6d2c 23be fbcb 7bbc
00000260: df7b 823e f36a 0bbe 4a23 2fbd afad 09be
00000270: 4918 a23d 4b8e f0bd 10d5 033e 15f1 d9bc
00000280: 9ab0 c03d 74a4 1b3e 692f ffbc 02a4 143e
00000290: 3f94 213e cb69 70be f812 67bd ea86 58bc
000002a0: 594d a03c 8c20 46be afe9 a93d 3412 6dbe
000002b0: 5e80 5ebd 2e88 88bd 91f1 7b3d b37b af3c
000002c0: 7f04 7c3d 3edb b5bd e5c4 cbbd 76d1 103d
000002d0: 03ba bbbd e3d8 ec3d ec3b 423c 1753 1f3e
000002e0: 0e69 373e 0f07 973d 308c 563c fdf0 0cbb
000002f0: 83af e2bd 9e65 23be 5ede 97bd 312b e0bc
00000300: 275b 92bd 203f 74bd db0f 10be 8556 82ba
00000310: bb23 153c 7e5e 28b9 8b0f 813d 274e 45b9
00000320: a66e 4d3d 5fdb bb3d 2e2a 69bd 1135 123d
00000330: cfa0 43bd a9e8 563d ef99 ad3a 779e c2b8
00000340: 2998 6c3e 82a1 b73e 4e7a bcbd 3c99 573c
00000350: e6b7 fe3c 88fc cfbd 2abf b83a 2631 803d
0.016560141 -0.043325298 -0.058336668 0.0024476994 0.09530265 0.106100515 -0.012725863 -0.017513499
-0.07729587 0.12072938 -0.11882529 0.051603783 -0.08023434 0.037683357 0.1422672 -0.16357966
0.033882495 0.15341498 -0.028508564 -0.041836552 0.04976555 -0.022965 0.07472057 0.27276203
0.14856091 0.15466523 0.09161663 -0.14776738 -0.16312474 0.08851023 0.028351873 -0.03476906
-0.14080846 0.09566275 -0.21314853 -0.098924845 0.068478115 -0.19222139 -0.16349874 0.032710828
-0.19817361 0.022274295 0.22860225 -0.13882159 -0.038432866 0.015737073 0.13964745 -0.04067635
-0.052795403 0.1519178 0.18506044 0.09170658 -0.10357151 0.1572432 0.17438942 0.16188279
0.27423456 -0.04076587 0.14939697 0.1425647 0.05652617 -0.10393932 0.17907383 -0.10341989
0.029325327 -0.04123795 0.03647855 0.06029697 0.047617313 -0.05961457 -0.058064636 0.0534796
-0.1283171 0.13541222 0.064728536 0.11937004 0.035311546 0.15634991 -0.16634834 -0.12294179
-0.10944288 0.057719648 -0.12468834 -0.037624523 -0.109277934 0.009731246 0.016293723 0.03842309
0.1331566 -0.051410142 0.012601814 0.065550506 0.10058691 0.06311032 0.18980692 0.20710908
-0.044816576 0.05791972 0.00039317834 -0.15854463 0.09706659 0.12778682 0.15127814 -0.010219262
0.011056574 -0.027151667 -0.1008679 -0.14424255 -0.008340327 0.025933916 -0.14636153 0.120846175
-0.043967526 -0.041701607 -0.1056684 0.2882258 0.25226212 0.040065106 -0.0037266074 -0.02041404
-0.098275304 -0.13155662 -0.015111209 -0.020147432 0.18498376 -0.025900641 0.14187735 -0.023078596
-0.04591567 0.14092311 -0.044494193 -0.05620645 0.16311292 0.04342806 -0.08583504 -0.22867697
-0.16919184 -0.01436872 -0.25475934 -0.15093917 -0.010167269 0.06945189 0.08150104 -0.0075856345
0.14720324 -0.05481235 0.088110745 -0.217679 0.23314725 0.005072578 -0.15934916 -0.015368457
0.2548513 -0.13615017 -0.042758264 -0.13445161 0.07914788 -0.1174589 0.12874246 -0.026604215
0.09408684 0.15199453 -0.031150537 0.14515689 0.15779208 -0.23477857 -0.056414574 -0.01321576
0.019568132 -0.19348353 0.08296525 -0.23151475 -0.05432164 -0.06666599 0.061509673 0.02142129
0.061527725 -0.08879708 -0.09949664 0.035356008 -0.09166338 0.11564805 0.011855107 0.1555904
0.17911169 0.07374393 0.013094947 -0.0021505945 -0.110686325 -0.15956733 -0.0741546 -0.027364345
-0.07146292 -0.059630513 -0.14068548 -0.0009943998 0.009102757 -0.0001605693 0.06301793 -0.00018816498
0.05015435 0.09172701 -0.05692499 0.03569514 -0.04776078 0.052467976 0.0013244728 -9.280157e-05
0.2310492 0.35865408 -0.09203015 0.0131590925 0.031093549 -0.101555884 0.0014095057 0.06259374

FPN.3.conv.bias f4 [6]
00000000: 8683 b331 a9ea 3b33 871c d138 9997 0234
00000010: a0e0 6a36 6ab9 aab2
5.224538e-09 4.3752753e-08 9.97121e-05 1.2162344e-07 3.4999466e-06 -1.9874921e-08

FPN.3.bn.weight f4 [6]
00000000: 31d2 803f 0e1c 5d3f 163b 863f 28ba 823f
00000010: 50f7 903f 2538 903f
1.0064145 0.86370933 1.0486782 1.021306 1.1325474 1.1267134

FPN.3.bn.bias f4 [6]
00000000: 6f12 28bd 2fee 26be 78a2 2abe a911 b8bd
00000010: b3dd 07be fac8 e3bd
-0.041033205 -0.16301797 -0.1666354 -0.089877434 -0.13268165 -0.111223176

FPN.3.bn.running_mean f4 [6]
00000000: 8931 963c fe31 3d3e af4d cb3d cd4c 9ebd
00000010: 9635 3abd 9237 2e3e
0.018334167 0.18476102 0.09926926 -0.07729492 -0.04546126 0.17013386

FPN.3.bn.running_var f4 [6]
00000000: 0d1b 223e c492 303e aace e43d 9858 133e
00000010: b945 a53d 140c 473e
0.15830632 0.17243487 0.111722305 0.14389265 0.08069939 0.19438201

ConvLSTMLayer.cell.conv.weight f4 [32, 14, 3, 3]
00000000: 4042 a73d 5d52 8a3c 7e7a 6a3d ad7e d9bd
00000010: 19e1 bcbc 066f 9a3d e0b2 55be c533 93bc
00000020: e3cb 363e 2913 023e f9d2 49bc 86b2 143e
00000030: 5ad1 39bd 55ea 193d fb68 063e 1589 35be
00000040: 8bf3 81bd 9c3c 8d3d 4f9f a03d c927 c83c
00000050: ba36 6cbd d5fe 713b e11d 51bd cc00 55bb
00000060: c946 27bd f3f1 d2bd 61e0 d23d 5554 323e
00000070: 501c 0f3b 24f8 67bd 292e 3b3c e9a2 25bd
00000080: c6f7 3c3d 2715 02be 202e 363c 27c4 c7bc
00000090: 849b 013d 5f35 5dbe 4c6d 35be 7f14 c03d
000000a0: 065e edbb aa88 73bd cbf2 973c 95a8 e43d
000000b0: 983d 81bd 1531 a03d de46 b5bd 57e5 803d
000000c0: 3044 b5bd 729d 77be 34f9 ca3d 0e72 d6bd
000000d0: 515a 0d3e fe75 873e 8cc8 03bd 9123 093c
000000e0: 875c a0bb bcec 95bb 99a2 b33c e7dc 0ebd
000000f0: c5b8 093d 4231 323e 67e2 bbbd 4b63 353d
00000100: aade d33d aec1 683d c7f8 e23c 9209 423d
00000110: e578 27bd dadb c8bb d8dd a83d 4046 a5bd
00000120: b53f d2bc 20f6 9bbd 6e92 a1bc 3fe0 373d
00000130: cd88 bcbd b1e8 513d 54c4 3638 3bd5 893d
00000140: c1a4 153e 1989 11bd 32ec 2cbd bed9 c2bd
00000150: 0dc9 8f3d e5a4 4abd 6c4b 2abd 46f0 b93d
00000160: e775 9b3d 1ac0 4fbe f995 f43c ba39 2bbd
00000170: a6ba c9bb fda1 ffbc 800c 023d bf5d c2bd
00000180: 7450 543d 6465 d63d dad5 023d 7261 1c3e
00000190: af0c 7c3e fa49 f33d d261 dd3d 523e 1e3d
000001a0: 7702 2d3d 983e c13d 49b6 103d afd2 0cbe
000001b0: 11e9 913d 331d 813d bba5 103d ff9e 04bd
000001c0: b369 07bd 50ac b83c 6317 85bd f465 10be
000001d0: 9e2f d5bd cae6 b43b 0501 15be 57fa bdbd
000001e0: 1ea1 5f3d 4170 0bbe 76d4 7fbe 3a02 24bc
000001f0: 1ce8 08be be28 08be 5c72 0cbc 38bd 2cbc
00000200: 9889 003d 7a75 833a 899e 4f3c c590 f5bb
00000210: 2ccf 11bd 218c 3b3d 112f 3ebb f9d4 a63c
00000220: 61fc 823d a2e7 2e3d c03d 0d3e ca32 dd3d
00000230: 9666 45bd 7759 203d fe3b d83d c49d 43bc
00000240: 1a13 55bd 2740 273d f7cb 10bd 44b6 16be
00000250: 9769 f6bd 3ddb 80bd 5c53 163e e7aa 90bb
00000260: daaf 8e3d e6b2 5fbe a35c a63c 65d1 4d3d
00000270: 68e5 2f3d e0d2 423d 5181 5a3c c598 a23d
00000280: 4b58 a3bd 02b6 583d 86bd 123d f293 163e
00000290: 9b8a d63c e66c eabd dd5a cf3c 1714 e93b
000002a0: 416a cdbc 93b4 593d aa4f 7e3c 8c3d 46be
000002b0: f1c8 1dbd ece7 63bd db08 11bd 0755 fdbd
000002c0: 48c3 883b f333 2a3e 3090 073e 7f61 943d
000002d0: 6252 ecbd 580c 3abe 1bd6 03be e938 97bd
000002e0: b583 fcbd dd12 b1bd 8ab5 84bd 35a0 cebd
000002f0: 0126 84bd fac2 13bb cf3c f83d 1554 e73d
00000300: ef3f 8bbd f81a c03d 6120 943d b656 633d
00000310: f234 c03c 6e3a 323d 18ed b9bc 0292 2d3d
00000320: 4de1 2fbc b36c 043e a0e0 5a3c 2141 63bd
00000330: 7004 3d3e c600 fb3d 186e 98bc 8e2d 183e
00000340: 6dbb 0b3d 65e6 26be fd0d 983d 778a 303d
00000350: c30e 15be 3b9b cbbc 7580 453e f907 663d
00000360: 849c f6bb 392d 41bd 1097 45be 4f21 9e3d
00000370: b799 b83d 77a7 4bbd 1350 3b3e dd0b 893d
00000380: 350c ef3d fe3d 173e 85cc 12be 369c 77bd
00000390: 06a2 173e 9895 8ebd 7001 8cbc 40c1 383e
000003a0: 66e4 d13d a3c7 573d 6804 64bd 866e 15bc
000003b0: b65c 88bd 4605 50bd 1cbe 893d 823b 833c
000003c0: cc80 5f3d f95c e03c 3b31 5b3d aa19 edbc
000003d0: cedb 833d 04d2 2ebe 4b36 683d 23d9 8c3d
000003e0: 150c b43c 88ce e13d 38c1 31bd aa10 c2bd
000003f0: bafa 773e df5a f1bd 3cb6 07be d5f7 36bd
0.08166933 0.016884977 0.057245724 -0.106198646 -0.023056554 0.07540707 -0.20869017 -0.017969022
0.17851214 0.12702622 -0.012318366 0.14521226 -0.04536567 0.037576992 0.13125984 -0.17728074
-0.0634528 0.06896326 0.07842886 0.024433034 -0.05766938 0.0036925573 -0.051053885 -0.0032501696
-0.04083899 -0.103000544 0.10296703 0.17414983 0.0021836944 -0.05663313 0.01142458 -0.040438566
0.046134733 -0.12703381 0.0111193955 -0.024385525 0.031642452 -0.2160239 -0.17717475 0.09378909
-0.0072438745 -0.059456505 0.01854839 0.11164967 -0.06310576 0.07821862 -0.088514075 0.06293743
-0.08850896 -0.24181154 0.09910813 -0.10470973 0.13803984 0.26457208 -0.03217368 0.008370296
-0.0048938426 -0.00457534 0.021928119 -0.034878638 0.033623476 0.17401603 -0.09174042 0.044284146
0.10345204 0.056825332 0.027706517 0.04737241 -0.04088678 -0.006129724 0.08245438 -0.0807004
-0.025665144 -0.07615304 -0.019723143 0.044891592 -0.0920578 0.051247302 4.3575026e-05 0.067301236
0.1461363 -0.035531137 -0.04221744 -0.09514187 0.07020769 -0.049473662 -0.041575834 0.09079032
0.075908475 -0.20288125 0.029856669 -0.0418031 -0.0061562834 -0.031205172 0.031750202 -0.09490537
0.05183454 0.104685575 0.031942226 0.15271547 0.24614213 0.11879344 0.10809673 0.038633652
0.04223868 0.09435767 0.03533009 -0.13752244 0.07124532 0.063043974 0.035314303 -0.032378193
-0.033059787 0.022543103 -0.06498601 -0.14101392 -0.10409473 0.0055206763 -0.1455117 -0.09276264
0.054597013 -0.1361704 -0.24983391 -0.0100102965 -0.13369793 -0.13296792 -0.008572187 -0.01054316
0.03138122 0.0010029518 0.012672075 -0.0074940645 -0.035597965 0.045787934 -0.0029019753 0.020365225
0.06395794 0.04270137 0.13793087 0.10800703 -0.048193537 0.03914782 0.105583176 -0.01193947
-0.05202017 0.040832665 -0.035350766 -0.14717966 -0.120318584 -0.062918164 0.14680237 -0.0044149044
0.06967135 -0.21845588 0.020307845 0.050248522 0.04294339 0.047564387 0.0133364955 0.07939295
-0.07975825 0.05290795 0.035825275 0.14704874 0.02618914 -0.11446552 0.025311882 0.0071129906
-0.02507508 0.053150725 0.015521923 -0.19359416 -0.03852171 -0.0556411 -0.035408836 -0.12369733
0.00417367 0.1662138 0.13238597 0.072451584 -0.11539151 -0.18168771 -0.12874644 -0.073839016
-0.123298086 -0.08646176 -0.06479938 -0.10089151 -0.06452561 -0.0022546635 0.12120973 0.11295334
-0.06799304 0.09380144 0.07232738 0.055502616 0.023462746 0.043512754 -0.022696063 0.042375572
-0.010734868 0.1293209 0.013359219 -0.055482034 0.18458724 0.12256007 -0.018607184 0.14861128
0.03411429 -0.16298826 0.07424543 0.0431008 -0.14556412 -0.024854293 0.19287284 0.056159947
-0.0075259823 -0.04716227 -0.19295907 0.07721197 0.09013694 -0.049720254 0.18292265 0.06691716
0.1167225 0.14769742 -0.1433583 -0.06045171 0.14807901 -0.069621265 -0.01709053 0.18042469
0.10248642 0.052680623 -0.055668265 -0.009120589 -0.06658308 -0.05078628 0.067257136 0.016019586
0.05456619 0.027388083 0.053513747 -0.028942902 0.06438409 -0.17072302 0.056692403 0.06877353
0.021978417 0.11025721 -0.04339716 -0.09475835 0.24216738 -0.117849104 -0.1325311 -0.044669945

ConvLSTMLayer.cell.conv.bias f4 [32]
00000000: 354d 93bd 24d6 813d 353a 513c 80b6 9a3c
00000010: 9fe1 103d 7ec2 a53c 0473 b13c 2e44 0ebd
00000020: afbc e53d f81d 763c 4928 483e 26ec f03d
00000030: 5e96 1a3e 590e 033e 2998 e53d c5d0 f03d
00000040: 394a 933c ede1 a73d a1f3 973d 0b65 bc3c
00000050: 729b 303d 17f9 9f3d a80a 3c3d 69eb 963d
00000060: 5462 b0bd fead 6ebd 1f81 e83d 1218 f5bd
00000070: 5132 3c3d 8995 403d d7d9 f93c ef16 853b
-0.071924604 0.06339672 0.012770225 0.01888585 0.03537142 0.020234343 0.021661289 -0.03473299
0.11217629 0.015021794 0.19546618 0.11763792 0.15096423 0.12798442 0.11210663 0.1175857
0.017979728 0.08197389 0.074195154 0.0229974 0.043116994 0.07811182 0.0459086 0.0736912
-0.086125046 -0.0582714 0.11352753 -0.11967482 0.045946423 0.047017608 0.030499382 0.004061572

Classification.0.g.0.weight f4 [4, 8, 1, 1]
00000000: 7bbb 0038 d953 dc36 d76c 7634 b2d4 d238
00000010: bdb1 8fb5 dbbd 2c36 5a13 a9b6 f6e6 2db3
00000020: 54e2 5d36 bc58 ffb7 6c63 9cad 61c7 8bb2
00000030: 7b22 23b9 d5e1 3bb2 a04a 62b8 bf7c 83b2
00000040: 46b6 8c9d cbb8 8a9c f632 9c1c 69ca afa4
00000050: ad32 f41b a8ed cc1c e6c7 81b7 fdcb 9a1e
00000060: 14dc 1736 6598 9db7 28c3 b635 d82d 1ead
00000070: 0dd7 e8b6 71d6 8131 c315 4b33 979d 642e
3.0692183e-05 6.566272e-06 2.2950131e-07 0.00010053198 -1.0706059e-06 2.5740508e-06 -5.0388453e-06 -4.048976e-08
3.3063307e-06 -3.0439689e-05 -1.7779299e-11 -1.6272397e-08 -0.00015557736 -1.0936181e-08 -5.39521e-05 -1.5307135e-08
-3.7246158e-21 -9.179842e-22 1.0336387e-21 -7.623705e-17 4.0399162e-22 1.356102e-21 -1.5471083e-05 1.6389752e-20
2.2628856e-06 -1.8786823e-05 1.3616855e-06 -8.9914395e-12 -6.939174e-06 3.7787733e-09 4.7284413e-08 5.1981166e-11

Classification.0.g.0.bias f4 [4]
00000000: 26b0 fb22 6e41 c4a8 b002 67a1 da57 61b8
6.822019e-18 -2.1788747e-14 -7.82694e-19 -5.3726e-05

Classification.0.W.0.weight f4 [8, 4, 1, 1]
00000000: 672b 67b6 1fbb 0726 548b b420 cec8 b038
00000010: 9a3b 35b6 206f 1cb1 ebb7 8b22 ad0c 0d38
00000020: 21dd 3bb6 21b6 1c38 bfdc 1cb0 5971 c531
00000030: 9a5f 1b37 4df6 8129 0383 631f 8d84 54b7
00000040: d519 62ae de30 c5a3 c439 bda3 d201 f7b2
00000050: ada8 7ab9 937e 1c23 57fc d9a0 d67c 36b8
00000060: eb6e 9838 aa1c 9cb6 03a3 dcab f767 08b4
00000070: 8549 23b5 fda5 8337 1e73 6fa8 443d 02b7
-3.4446946e-06 4.709113e-16 3.0585386e-19 8.429737e-05 -2.7005794e-06 -2.2764155e-09 3.7870756e-18 3.3628825e-05
-2.7993885e-06 3.736292e-05 -5.706617e-10 5.7463407e-09 9.260979e-06 5.771477e-14 4.817749e-20 -1.2667047e-05
-5.1409394e-11 -2.1379479e-17 -2.0515886e-17 -2.8755412e-08 -0.00023904695 8.48358e-18 -3.6928214e-19 -4.3508444e-05
7.268585e-05 -4.6524992e-06 -1.5677185e-12 -1.2703809e-07 -6.0829217e-07 1.5693711e-05 -1.3292127e-14 -7.762868e-06

Classification.0.W.0.bias f4 [8]
00000000: 8c85 a4b5 c3f1 5135 931a 7331 3748 0f37
00000010: 67d5 8832 9ded 1fb9 9e3b 0c37 f48b 1e36
-1.225782e-06 7.8210377e-07 3.537626e-09 8.540278e-06 1.5929528e-08 -0.0001525194 8.358531e-06 2.3625298e-06

Classification.0.W.1.weight f4 [8]
00000000: 83fa 1035 90e1 2b36 a3ef 592f 75e6 22b4
00000010: f158 86b6 7a23 8db4 2bb9 2c2f 9e21 3a33
5.400872e-07 2.561228e-06 1.9821171e-10 -1.5171265e-07 -4.0038653e-06 -2.628911e-07 1.5709094e-10 4.3337074e-08

Classification.0.W.1.bias f4 [8]
00000000: d4ae 7137 2077 2339 94fe 97b3 1c9f 9133
00000010: 3f0d 41b8 337f 87b3 a72e 9734 49c7 3831
1.4405425e-05 0.00015589269 -7.077793e-08 6.7810305e-08 -4.6027122e-05 -6.309565e-08 2.8159886e-07 2.6888805e-09

Classification.0.W.1.running_mean f4 [8]
00000000: 7efe bb33 d01f a5b3 4c93 1aaf efe9 8fb5
00000010: 0d4d a932 f0c7 7337 85a6 d1b4 497f 84b4
8.754158e-08 -7.689198e-08 -1.4058549e-10 -1.0722414e-06 1.9709228e-08 1.453048e-05 -3.9050443e-07 -2.4679528e-07

Classification.0.W.1.running_var f4 [8]
00000000: eafd 1f14 fa20 d312 e4d1 5a0c c082 e617
00000010: 802f a013 58e8 e919 d5d3 c316 c3c0 8614
8.077524e-27 1.3324101e-27 1.6857271e-31 1.4896408e-24 4.0436517e-27 2.4185478e-23 3.1637634e-25 1.3606573e-26

Classification.0.theta.weight f4 [4, 8, 1, 1]
00000000: f77c 402c 96e9 062e 901a 17ad 6b08 d12e
00000010: f4f8 a42d 994f 5030 7d7f bb2d 0d39 0130
00000020: 5f54 3ead afe9 87af 2b06 c12d 2f3b 8730
00000030: 3952 0830 485a 76b0 00fa 9230 b71d e3af
00000040: 1786 082f fb1b e8b0 a557 81b3 5116 1c2f
00000050: 36be 0434 8fdc c638 9811 b4b1 b3dc c12e
00000060: a50a 0bad 81bf b4a8 a224 29ac 82d2 732d
00000070: 4635 60af 7452 aeae d77d 84af 73cd ce2f
2.735421e-12 3.067554e-11 -8.589254e-12 9.505715e-11 1.8755199e-11 7.5783074e-10 2.1316055e-11 4.7011e-10
-1.0818984e-11 -2.47224e-10 2.1944299e-11 9.839364e-10 4.9593357e-10 -8.9622576e-10 1.0693952e-09 -4.1312173e-10
1.2416766e-10 -1.6888174e-09 -6.022973e-08 1.4196046e-10 1.2362656e-07 9.482458e-05 -5.2406897e-09 8.815828e-11
-7.903599e-12 -2.0067066e-14 -2.403668e-12 1.3859693e-11 -2.0391608e-10 -7.9272505e-11 -2.4100075e-10 3.7617162e-10

Classification.0.theta.bias f4 [4]
00000000: d709 da31 18c1 d0b8 87f9 3722 da1c ec30
6.3457537e-09 -9.9541794e-05 2.4933223e-18 1.717946e-09

Classification.0.phi.0.weight f4 [4, 8, 1, 1]
00000000: 5417 c231 824d 802e a589 7bae 1b51 21b9
00000010: 6989 9ca9 8c99 1036 f0e9 33b2 6534 ca2e
00000020: 9084 1ab1 9237 ff35 a171 a8aa 4cb1 4ab6
00000030: dace 64b2 fdc5 deb2 479f 74b1 e204 10a6
00000040: 372b f4b2 baba 38b6 f7fb bf34 c90c bbb3
00000050: 19fa 61b3 5a28 a4b6 1667 84b5 408c 8eb3
00000060: 31a7 e52f 6d1a 3634 6c67 1a35 c155 ce31
00000070: 6169 c133 cd0d a1ac 5af3 05b6 6c13 08aa
5.648795e-09 5.834534e-11 -5.7193045e-11 -0.0001538437 -6.9516285e-14 2.1547048e-06 -1.04723625e-08 9.1952036e-11
-2.2485303e-09 1.9015154e-06 -2.992164e-13 -3.0203546e-06 -1.3318379e-08 -2.5934236e-08 -3.5597212e-09 -4.9966654e-16
-2.842499e-08 -2.7526826e-06 3.575985e-07 -8.710192e-08 -5.2614357e-08 -4.8922784e-06 -9.864768e-07 -6.6379016e-08
4.1773654e-10 1.6959685e-07 5.751997e-07 6.005138e-09 9.006431e-08 -4.5774274e-12 -1.9960194e-06 -1.2085965e-13

Classification.0.phi.0.bias f4 [4]
00000000: dc2c e5b7 a6e8 15b2 6ad0 9daf de66 bb29
-2.7319817e-05 -8.72584e-09 -2.870622e-10 8.322313e-14

Classification.2.conv.weight f4 [10, 8, 2, 2]
00000000: 858b c23d 901f 95bc 62c3 b93d 17d9 6bbe
00000010: 216f f2bd 4fcc 773e 0527 91be 9456 693d
00000020: d981 bcbc 38dd 8cbd 88fb 84bd 4e8c b43d
00000030: 7130 d03d e36d 02be 23b4 023e 58d6 64bd
00000040: f940 c6bd 66ff fabd c9e8 4dbd bf1a 25bd
00000050: fb61 2b3e 0fbd fbbd 4c30 2e3e 6ae7 993c
00000060: d3ad 24bc 8d58 b6bc 187a 8d3c a687 5f3e
00000070: 1eee e23d fb8a 73bd df30 e6bd 4fa8 db3d
00000080: 6664 d13d 2859 a8bd 8317 7fbe b3e8 d93d
00000090: 7894 b03c 025f 9d3d 2e8c 8dbd 8d31 963d
000000a0: 2f1e b53d 861f 22bd 921c 0d3e dfbd 03be
000000b0: 9d15 933d 4c23 863d 2260 383d 07b5 cdbd
000000c0: 250b 75bd d9de 87bc 0210 e13d 9f6b 443d
000000d0: 4da9 b73d 23b7 32be c107 123e 3836 acbc
000000e0: a6f6 d43c c366 333e 8f8c 00bd 01f0 08be
000000f0: 5ec8 de3c d6e4 e73d a233 11bd 8cf1 dd3c
00000100: d19d b8bd 2713 29bc 5675 d93d beb5 073e
00000110: b388 31be eb48 a63d d713 54be e4ed fb3d
00000120: 7c89 253d 8de2 b03d 5886 a6bd a91e f5bd
00000130: ee83 5a3d 7f3e 093e 669b 05be 7ebb 3bbe
00000140: 517d 5abd 1106 f6bc f106 19bd a04f 093e
00000150: 8d37 e1bd 0ad4 02be 3542 293e a52b 543e
00000160: 8df7 323e 8819 1dbe 67e6 863d 2832 1bbe
00000170: 0b7f dbbd 2b87 033e d13a a43b e81a 5d3d
00000180: 5422 23be 3fe3 f03d 61c2 d33c 134f 1a3d
00000190: f9d3 953e 2933 fabd 74cf d4bd 959d 2ebe
000001a0: ee2c 7ebc e897 9e3c 9db0 0bbe efbe 5dbc
000001b0: ea55 dabd 7425 f3bd 0bad 003e 37b8 243d
000001c0: fdad 4b3e e22e 813d 68a3 563d 2eb5 473d
000001d0: 71d0 b2bd 1c2e cbbc 5799 87bc 7df6 f23c
000001e0: b6dc ed3d c30b 3fbd 6fdf 173e 9cf4 28bc
000001f0: f239 423d 03f3 1ebe 143e 303e ad81 c3bd
00000200: 73f3 c73d c8ee 24be 6c9d 453e 8634 1cbe
00000210: eecc 9cbd f120 333e ab15 ad3d 6d56 8d3d
00000220: 673f f3bd 5ed9 343b a02b 2e3d d5c9 d43d
00000230: cfd2 99bb 0265 39bd b0e6 453e 9f3c 833d
00000240: d424 24bd 0564 243e aab7 0cbe 73a7 0d3e
00000250: aff3 163e 33f0 b23d f616 d93c 834c 563d
00000260: a1fa 1d3e 2d5c c33c 8323 fd3d 406a 233e
00000270: 0145 b63c 48d8 c33d 7316 393e 6d16 493c
00000280: a1ee 1e3e fa8a 0cbe e020 bf3c 54f3 eabd
00000290: 8e64 b33d d34c 053d 611c 3a3e fd79 bc3e
000002a0: 9e2d 01be cdad fabc 386b 06be 6f38 78bc
000002b0: a89e 5bbd 3e28 e63d 9a03 2ebe 85ba 0cbb
000002c0: 8d79 03bc 2005 d6bd ff35 b439 26e5 713d
000002d0: 72ac f13d 5118 a7bd 9f17 0e3e f0dd 99bd
000002e0: db60 a7bd ff11 c73d eaaf c8bd 8d69 963d
000002f0: db70 90bd 4b8d 6c3c 857f 17bb 8f3f f93c
00000300: 383e 0bbe 5388 563d 6629 ad3d f37c 26be
00000310: de28 8a3e d50d 70bd fa32 61bd b372 8f3e
00000320: 63d8 92b7 684b bf3d c2be c4bd 3e54 c23d
00000330: dfee dc3c 4897 7eba 55a8 a73d 2b32 cc3d
00000340: 9964 debc 49ec 62bc 2e63 153e d4f0 be3d
00000350: 2995 1dbe 41d8 88bd 1ceb 463e 4003 4bbe
00000360: a1da bdba 0598 df3d 6333 4a3c 0b31 91bb
00000370: b918 463e 449c adbd 5617 c63d 812e 98bd
00000380: d8a0 b4bd 9d30 043e 6fa3 80be 4c7c 423e
00000390: 6eaa 3bbe 9bd2 e1bd 9e7c 3e3c a98a f03b
000003a0: 7077 bc3c 04ca 93bb 7763 a33d d256 d4bd
000003b0: 5faa 3dbd a234 9f3c 697d 383e 979e 1ebb
000003c0: cbf2 883c 3063 fcbc ea74 4dbc 1c34 12be
000003d0: 0d48 d9bd 3971 4ebe a7e9 c43d 7ad9 783c
000003e0: aa25 6f3e 4b8b da3d 5888 ac3d f106 e23d
000003f0: 2732 09be 1f4b 813c 822a 67bd bc00 b0bd
0.094992675 -0.018203527 0.090704694 -0.23032032 -0.118376024 0.24199031 -0.28350082 0.056967333
-0.023011135 -0.06878132 -0.06493288 0.088158235 0.101654895 -0.12737231 0.12764029 -0.055868477
-0.09680361 -0.12255745 -0.05027083 -0.04030871 0.16736595 -0.122919194 0.17010611 0.018787105
-0.010051209 -0.022259021 0.017270133 0.2182909 0.110805735 -0.059458714 -0.1123979 0.10725462
0.102242276 -0.0822013 -0.24911313 0.10640087 0.02155517 0.07684137 -0.06911503 0.0733367
0.08843648 -0.039580844 0.1378043 -0.12865399 0.07181857 0.06549701 0.045013554 -0.10044294
-0.05982508 -0.016585754 0.109893814 0.047954198 0.089678384 -0.17452674 0.1426077 -0.021021947
0.025996517 0.17519669 -0.031384047 -0.13372804 0.027195152 0.11322944 -0.03544963 0.027092718
-0.09014476 -0.010319508 0.10618083 0.13252923 -0.17337303 0.08119377 -0.20710693 0.123012334
0.04041432 0.08636961 -0.08131093 -0.119687386 0.053348474 0.13402747 -0.13047561 -0.18333241
-0.053342167 -0.03003219 -0.037360135 0.13409281 -0.109969236 -0.12776199 0.16529162 0.20719774
0.17477246 -0.1534177 0.065869145 -0.15155852 -0.10717591 0.12844531 0.0050118943 0.053980738
-0.15931064 0.11762094 0.025849523 0.037673067 0.29263285 -0.12216789 -0.10391131 -0.170523
-0.015513642 0.019359544 -0.13641591 -0.013534292 -0.10660918 -0.11872378 0.1256601 0.040214743
0.1989059 0.0630777 0.05240193 0.04875677 -0.08731163 -0.02480226 -0.01655261 0.02965855
0.11614363 -0.046642076 0.14831327 -0.010312226 0.047418542 -0.15522389 0.17211181 -0.09546218
0.09763231 -0.16106713 0.19298333 -0.15254411 -0.07656275 0.17493035 0.084513985 0.0690125
-0.118773274 0.0027595381 0.042522073 0.10390059 -0.00469432 -0.045262344 0.19326282 0.06408047
-0.040074185 0.1605378 -0.13741937 0.13833408 0.14741395 0.087372206 0.026500206 0.05231906
0.15427639 0.023847664 0.12360289 0.159585 0.0222497 0.09562737 0.1807497 0.012273413
0.15520717 -0.1372489 0.023331106 -0.114721924 0.08759414 0.03254397 0.18174888 0.3681182
-0.12615058 -0.030600453 -0.13126838 -0.015150174 -0.053618103 0.11238144 -0.16993561 -0.002147348
-0.008024585 -0.10450196 0.00034372506 0.059056424 0.118004695 -0.08158935 0.13876198 -0.07513034
-0.081727706 0.09720229 -0.09799178 0.07344351 -0.070527755 0.014437984 -0.002311678 0.030425815
-0.13597953 0.052376103 0.08455162 -0.16258602 0.26984304 -0.05860694 -0.054980256 0.28017196
-1.750532e-05 0.093405545 -0.09606697 0.09488724 0.026969371 -0.0009711874 0.08186404 0.09970506
-0.027147578 -0.01385028 0.14588615 0.09323278 -0.15388931 -0.06681872 0.19425625 -0.19825459
-0.0014484712 0.10917667 0.012341353 -0.004430895 0.19345368 -0.08477071 0.0967242 -0.07430745
-0.08819741 0.1290917 -0.2512469 0.18992728 -0.18326733 -0.11026498 0.011626391 0.0073407483
0.023006171 -0.004510166 0.07977956 -0.10368122 -0.046305057 0.019434277 0.1801659 -0.0024203414
0.016717335 -0.030809015 -0.0125400815 -0.1427769 -0.10609446 -0.20160379 0.09614878 0.015188569
0.23354211 0.10671099 0.08424443 0.1103648 -0.13398038 0.01578289 -0.056437023 -0.0859389

Classification.2.conv.bias f4 [10]
00000000: dff7 11b8 686a abb6 c4a5 c7b8 ad21 e0b7
00000010: 0660 8736 15c7 12b9 920a 7eb6 5192 c9b2
00000020: f4ae 0835 23c5 a4b3
-3.4801542e-05 -5.1085844e-06 -9.519936e-05 -2.6718562e-05 4.034492e-06 -0.00013997809 -3.7855102e-06 -2.3466017e-08
5.091854e-07 -7.672704e-08

Classification.2.bn.weight f4 [10]
00000000: 398f 843f 46ad 853f 4978 843f 36f1 803f
00000010: 4d51 893f 0adf 833f 1796 8e3f ee22 823f
00000020: 51ad 803f 0bfe 833f
1.0356208 1.0443504 1.0349208 1.0073612 1.0727936 1.0302441 1.1139554 1.016691
1.0052892 1.0311903

Classification.2.bn.bias f4 [10]
00000000: 9e7d d7bc 345d f6bc 3a30 70bd b840 e2bc
00000010: 53a2 5c3d 3a99 253c d08e 3dbc a0a2 8fbd
00000020: 1fd4 c1bd 0041 5a3c
-0.026305016 -0.03007374 -0.058639742 -0.02761875 0.053865742 0.010107333 -0.011569694 -0.0701344
-0.09464287 0.013321161

Classification.2.bn.running_mean f4 [10]
00000000: a404 e0bc 00dd 133d a1ce 4abc fc2a e03c
00000010: 3838 9d3d 2067 553d 2897 923d 1f1c c2bd
00000020: 3363 e5bc 6800 f2bb
-0.027345963 0.036099434 -0.012378366 0.027364247 0.076767385 0.0521003 0.07157737 -0.0947802
-0.028001403 -0.0073853023

Classification.2.bn.running_var f4 [10]
00000000: df24 063c cfeb 9c3b 2210 e73b b1e7 e53b
00000010: 31ca bd3b 9348 aa3b 2535 183c 12bc d73b
00000020: 41db 0f3c 8a0f c63b
0.008187502 0.0047888528 0.0070514837 0.007016145 0.0057919254 0.00519664 0.009290014 0.006583699
0.008780302 0.006044333

ClassificationCat.0.weight f4 [1, 250]
00000000: ac53 0abd 77a5 803d 7051 043d 9654 ac3d
00000010: 15f7 e4bc 8c2a a1ba 16d6 133e 16db 25bd
00000020: 0c00 3e3e 6e1c 09bd 4e96 ac3b 8903 a8bd
00000030: 55cd a4bd f575 e63d ce73 a83d 863d 25ba
00000040: b666 0b3e b33a 23be 5815 f3bc 41de 043e
00000050: 6ebc 48bd 1f05 393d 5dec 073d 1ca8 663d
00000060: e389 043c e580 55bb c096 023b 0bf2 82bd
00000070: 0a1d 82bb 5f85 8d3d d3de 14bd 9268 f9bc
00000080: 202d 1c3d b4a5 dabc cb36 df3d d6aa 373e
00000090: 781f ed3d 44a5 3fbe ea7b 0f3e 626e 79bc
000000a0: d7d9 00bd 4045 f1bb 86ef 29bd 19bb 883d
000000b0: 7e80 e43d 7c63 72bd 5a15 f13c cb61 95bd
000000c0: 12c6 a7bd 98ab 953d 1876 653d 18c9 d0bc
000000d0: f4f0 713d fd4a 48bd e5f5 e8bd dab4 22bd
000000e0: 3a5b 8ebd b035 f33d b7e2 193e eeea 0bbd
000000f0: 750a 2e3d f3fc 853d 4e5f 19be 474e 2cbd
00000100: 7b94 a9bd e1ac 013d 8920 943d 7bbb 0b3d
00000110: 631b e53d 4dff fbbb ade0 b5bd 1664 a63d
00000120: 3fb9 e1bc 8ab1 45bd 515d b63c 0205 ff3c
00000130: 262d 1fbc b27c aebc 0a8e 1bbe a486 cabc
00000140: 2881 243d a0d4 08bd 1120 c13d 40fb 17bc
00000150: c2f5 2b3d 3491 dabc 607c 32bd 076b 0fbb
00000160: f270 17be 0ef3 af3d be80 5d3d 7994 973d
00000170: 12e1 9b3c 5c9c c3bd 2247 04bd b327 19bd
00000180: f455 2dbe 6ac9 5a3d 8d14 fc3c 49cc c5bd
00000190: 9599 c93d 5cea 6c3d 2fd2 113d 5b1a 253e
000001a0: dcdf 893c f4db 84bd da50 fa3c 61b9 03bc
000001b0: 16fc 3b3e c1de 853d 39e9 fdbd 061e a3bd
000001c0: 63a6 1fbd 685f 163e 4287 1b3e 8fd7 80bc
000001d0: 4b95 75bd ada4 40bd 7cbb 34bd 6a7e 483c
000001e0: 4baa 84bd c550 8a3d d5b4 e33d d2d1 cd3c
000001f0: 7acc 38bd 89ba 80bd 15ea 803c 3947 b03c
00000200: 2689 c33d 4720 36bc f109 41bc c7e4 44bd
00000210: 7317 1dbe 3d9d 033e 51ca 1c3e af18 f73c
00000220: 211d e43d e221 d0bd e2f7 a63d 3f07 9bbc
00000230: 3822 89bd adf6 18bd 8c57 fc3d 17aa 09be
00000240: 95a5 833d 9bd8 5e3d 7f19 573d a32d 333d
00000250: 2e09 34bd ac96 453d 037e 75bc 326f 133c
00000260: 9fb2 443c c546 fb3d ac03 59bd f7c4 123d
00000270: ec08 073c 149b fdbd 476e aa3d abc0 c23d
00000280: 4870 22bd cf05 423c 31f2 dabc b9f3 6fbe
00000290: a560 2a3d baf2 6ebd 85c6 9c3c b131 693d
000002a0: 2d37 9bbc f1ff 773d 405b 1bbd bbc8 69be
000002b0: 217e 383e e670 093d 1e9b 61bd bed4 213d
000002c0: 53f3 ab3d dda5 60bd a4a1 25bd a795 ea3c
000002d0: 105a 943c fba9 013e 1f9e 0f3e 7ab2 18be
000002e0: f6f3 b33c 2c46 a73d 84ac 61bd 0509 a0bd
000002f0: 75c1 ecbd 3cad 1ebd 6675 8a3d 06d1 253e
00000300: c3c1 26bb ca89 243c 850a 4abc 5055 1c3e
00000310: 120d 6d3d 77e9 61bd 0958 0c3b 2958 ba3d
00000320: b721 c93d 0d66 d6bc 2659 ad3c 635e cfbd
00000330: c883 093d ffb9 b03d 2d2c c53a ae6f a23b
00000340: 274c 70be a746 923d 0565 293d 8444 aabc
00000350: a92a 3ebd 37cc 15be ca5c d13d 9e3d 9d3d
00000360: 0a04 c4bb 17d2 01bd 0df9 efbd a490 bf3d
00000370: 9f18 0d3c 3988 1d3d c6c9 da3d 4724 463c
00000380: 4dd5 b83c 50b6 1e3d 743b 9bbd d4d3 c8bc
00000390: b0fb 9d3d 6bf8 70bb ba07 de3c bbdb 313d
000003a0: 6753 e0bd e919 12be d032 fcbc c232 30bd
000003b0: ae5e 883c 99f8 e93d d1a5 553d e3b4 38be
000003c0: 8934 efbc df1a 1dbe ddf2 cfbc bc7b f939
000003d0: 04c8 07bc e876 cc3d 87a8 0fbd a13d 05be
000003e0: 918e 993d 1160 5d3d
-0.033771202 0.0628156 0.032304227 0.08414571 -0.02794985 -0.0012296005 0.14437136 -0.04049214
0.18554705 -0.03347438 0.005266941 -0.08203799 -0.080469765 0.11252967 0.08225213 -0.0006303418
0.136134 -0.1594036 -0.029673263 0.12975408 -0.049007826 0.0451709 0.033184398 0.056312665
0.008089515 -0.0032578048 0.001992628 -0.06393822 -0.003970747 0.06910204 -0.036345314 -0.03044537
0.038128972 -0.026690342 0.10899123 0.17936262 0.11578268 -0.18715388 0.14012113 -0.015224071
-0.03145775 -0.0073629916 -0.041488193 0.06676311 0.111573204 -0.059176907 0.029429127 -0.07294043
-0.08192076 0.073081195 0.056020826 -0.025486514 0.05906768 -0.04889964 -0.11375026 -0.039723255
-0.06950994 0.118754745 0.15027891 -0.034159593 0.04249044 0.06542387 -0.14977762 -0.04206684
-0.082802735 0.03165901 0.07232768 0.034114342 0.11186864 -0.0076903463 -0.08880744 0.08124559
-0.027554153 -0.048265018 0.022261294 0.031130318 -0.009715354 -0.021299694 -0.15190902 -0.024722405
0.040162235 -0.0334059 0.09429944 -0.009276211 0.04198242 -0.026680566 -0.043575644 -0.0021883862
-0.14789179 0.08591281 0.054077856 0.07401366 0.01902822 -0.095513076 -0.0322944 -0.037391376
-0.1692732 0.05341474 0.030771518 -0.09658105 0.098437466 0.05784069 0.035600837 0.16123335
0.016830377 -0.06487265 0.030556131 -0.008039803 0.18357882 0.065366276 -0.12397999 -0.07964711
-0.038977038 0.14684832 0.15188316 -0.015727786 -0.05995683 -0.047032047 -0.04412411 0.012237171
-0.06477793 0.06753687 0.11118475 0.025124464 -0.04511688 -0.06285579 0.015736619 0.021518337
0.09547643 -0.011116094 -0.011782155 -0.04806974 -0.15340976 0.1285295 0.15311553 0.030163137
0.111383684 -0.10162713 0.08152749 -0.018924354 -0.0669598 -0.037344623 0.12321386 -0.1344379
0.06428067 0.05440579 0.05251455 0.043744694 -0.043954067 0.048239395 -0.014983657 0.008998679
0.012005477 0.122693576 -0.052982017 0.03583237 0.008241873 -0.123830944 0.08321815 0.09509405
-0.03965786 0.011842205 -0.026726814 -0.23432817 0.041596074 -0.05833695 0.01913763 0.056932155
-0.018947208 0.06054682 -0.03792882 -0.22830479 0.18016864 0.033554934 -0.055079572 0.039509527
0.0839602 -0.05484568 -0.040437356 0.028635813 0.018109351 0.12662499 0.14025162 -0.14911833
0.021966916 0.08167681 -0.055096164 -0.0781422 -0.115603365 -0.038739428 0.06760673 0.16193017
-0.002544508 0.010042617 -0.01233161 0.15266919 0.057873793 -0.05515429 0.0021414778 0.090988465
0.09820884 -0.026171708 0.021160673 -0.10125425 0.033572942 0.08629226 0.0015043073 0.004957161
-0.2346655 0.07142382 0.041356105 -0.020784624 -0.046427403 -0.14628683 0.10222776 0.07677768
-0.005981927 -0.031694498 -0.117174245 0.0935376 0.008611827 0.03845999 0.106830165 0.01209361
0.022562647 0.038748085 -0.07579699 -0.02451507 0.07714021 -0.0036769162 0.027103294 0.043422442
-0.10953408 -0.14267696 -0.030785948 -0.043017156 0.01664671 0.11424369 0.052160088 -0.18037753
-0.029199855 -0.15342282 -0.02538436 0.0004758517 -0.008287434 0.09983617 -0.03507283 -0.13011791
0.074978955 0.054046694
