models/2023-05-18_22-22/3/pytorch/E-4_VA-0.6875_VL-77.52_TA-0.6083_TL-86.56.pt (torch, 5327 bytes, 9 tensors)

SILSTM.weight_ih_l0 f4 [40, 1]
0.19874147 0.033897053 0.13462187 0.26577652 0.13903607 0.014741116 0.3124682 -0.043208946
-0.12812711 0.10661463 0.14752218 0.14525308 -0.21272202 0.02645513 0.094687395 0.036740735
-0.028155103 0.011200639 0.29033646 -0.04930464 -0.30113432 -0.21058522 -0.1078624 -0.08007122
0.01535721 -0.11776663 -0.07281985 0.31092313 -0.09889647 -0.24907441 -0.25295678 0.1559036
-0.31771982 0.29924878 -0.31771648 -0.08159709 0.12674452 -0.31827953 0.10812731 -0.31463635
00000000: e282 4b3e a3d7 0a3d 51da 093e dc13 883e
00000010: 795f 0e3e b984 713c d5fb 9f3e ddfb 30bd
00000020: c133 03be c558 da3d 0e10 173e 39bd 143e
00000030: cdd3 59be 6eb8 d83c 77eb c13d 747d 163d
00000040: 88a5 e6bc e382 373c fba6 943e aaf3 49bd
00000050: 472e 9abe a7a3 57be f6e6 dcbd 61fc a3bd
00000060: cf9c 7b3c a22f f1bd 9322 95bd 5131 9f3e
00000070: 3c8a cabd 5d0d 7fbe 8d83 81be 31a5 1f3e
00000080: 2cac a2be 2337 993e bcab a2be 601c a7bd
00000090: 51c9 013e 89f5 a2be da71 dd3d 0418 a1be

SILSTM.weight_hh_l0 f4 [40, 10]
0.16214617 -0.107581444 0.0010987752 -0.16323523 0.02670867 -0.1482548 -0.13917153 0.05296926
0.120982274 -0.09566465 -0.2718781 0.30153337 -0.14929684 0.3538494 0.24724163 -0.10770271
-0.13431603 -0.19167674 -0.19002666 0.37697157 0.0051260414 0.3062824 -0.32777563 0.18434215
-0.16658804 -0.016367463 -0.218749 0.050480872 -0.23412107 -0.034990426 0.28378856 0.25457734
-0.26803163 0.3049198 0.18165027 0.071658485 0.26833326 -0.0023465632 0.2543981 -0.2669387
0.281004 -0.006869765 0.15525159 0.30565697 -0.03268355 0.15921208 0.049550228 -0.3273398
0.02502981 0.10876143 -0.31408942 0.2505791 -0.21294422 0.10602104 -0.31320584 0.11596713
-0.22403078 0.14072964 0.04017444 0.04320435 -0.046513736 -0.13593562 0.17102829 -0.12014849
0.27467653 -0.22564474 0.08258661 0.06652737 0.045153055 -0.11985197 0.035398006 -0.13769783
0.21679305 -0.21115275 -0.057157047 0.27837944 0.16006935 0.05139675 0.06533266 -0.1206675
0.28087765 -0.015899707 0.08082055 0.238908 0.25586388 -0.12913306 -0.18845259 -0.26424116
0.08345547 0.1627827 -0.34701645 -0.063423455 -0.27231646 0.11880477 0.1539891 -0.36112788
-0.2241503 0.2965495 0.19901451 0.0529435 -0.37585485 -0.22264124 -0.025183162 0.120849624
0.37627906 0.05888836 0.22661898 0.2832579 0.085956946 0.09806837 -0.10495734 0.28816578
-0.10631073 -0.2642448 0.2440991 -0.13497175 -0.18286215 0.12998953 0.1658385 0.28719908
0.19081631 0.24791026 -0.34795684 0.1844163 0.12272126 -0.2954788 -0.2971594 0.05605326
-0.10642199 0.23414312 -0.14526013 0.04440217 0.04243082 0.3826633 0.17442474 -0.15303637
0.09956035 -0.033158675 -0.075890556 0.2153755 0.16154833 0.2355466 -0.2120158 -0.17048633
0.07679332 -0.1277809 0.27425498 -0.15391509 -0.104870856 -0.039569866 -0.23899837 0.25837222
0.11177834 0.26035574 -0.05322665 -0.04674399 -0.1745289 -0.04121006 0.13321695 -0.068840995
-0.118284054 0.113160335 0.15948972 0.20653908 -0.06886736 -0.3252857 0.38989595 0.15591441
-0.2944208 -0.035389844 0.13616858 0.112529494 -0.14556597 -0.013256162 -0.011423439 0.28246143
-0.028928898 0.12993655 -0.1571954 -0.10703485 0.1667457 -0.013672489 -0.13462564 -0.15146288
-0.22201128 0.2045776 0.06275907 0.061171878 -0.12930335 -0.25158805 0.19595517 0.117930576
0.08597671 0.26169285 -0.10984361 -0.14255877 0.02378028 0.22279148 -0.17182067 -0.2475715
0.12366007 0.017605886 -0.22628894 -0.06459346 0.2910458 0.3365577 0.027675861 0.013567326
0.34138548 0.29845595 -0.14392278 0.13815604 0.10871535 -0.088896506 0.15448894 -0.23000683
-0.07795699 0.085348845 -0.1414248 0.04753122 -0.048155885 0.07923325 0.0034226002 -0.31581768
-0.3341724 -0.23631202 -0.07132979 -0.2573683 -0.005030033 -0.06559943 0.02609789 -0.038398273
-0.08498751 0.1600537 0.32288703 0.19401349 0.20393366 0.17277776 -0.12312399 0.23280036
-0.13272679 0.17928301 0.10860381 -0.0360595 0.05887409 -0.17349276 -0.19094633 -0.16208145
0.26186344 0.10606987 0.3079051 -0.2161907 0.28764147 -0.19597003 -0.2583922 0.079210036
00000000: a509 263e a953 dcbd c704 903a 2327 27be
00000010: 24cc da3c 1bd0 17be fb82 0ebe 4bf6 583d
00000020: 8ec5 f73d d4eb c3bd 9b33 8bbe 9562 9a3e
00000030: 45e1 18be c02b b53e e92c 7d3e 3d93 dcbd
00000040: 248a 09be e846 44be 5996 42be 6b02 c13e
00000050: 5af8 a73b 0cd1 9c3e 35d2 a7be 30c4 3c3e
00000060: 0e96 2abe 0f15 86bc bdff 5fbe 08c5 4e3d
00000070: 6fbd 6fbe 1f52 0fbd bc4c 913e f657 823e
00000080: 713b 89be 731e 9c3e 8702 3a3e afc1 923d
00000090: fa62 893e ccc8 19bb 7840 823e 30ac 88be
000000a0: c2df 8f3e c41b e1bb 46fa 1e3e 127f 9c3e
000000b0: 30df 05bd 7e08 233e 2ef5 4a3d 1599 a7be
000000c0: 510b cd3c 50be de3d 54d0 a0be e74b 803e
000000d0: 0d0e 5abe 8f21 d93d 845c a0be 2d80 ed3d
000000e0: 5368 65be 6e1b 103e f48d 243d 0bf7 303d
000000f0: 3085 3ebd b532 0bbe 0a22 2f3e 6910 f6bd
00000100: 67a2 8c3e 6a0f 67be 2b23 a93d 803f 883d
00000110: 69f2 383d f374 f5bd 80fd 103d a900 0dbe
00000120: fffe 5d3e 6d38 58be 821d 6abd c087 8e3e
00000130: 38e9 233e 6685 523d 21cd 853d 8620 f7bd
00000140: 32cf 8f3e 1a40 82bc 3f85 a53d 4ca4 743e
00000150: 9700 833e 753b 04be b7f9 40be 9e4a 87be
00000160: b4ea aa3d 82b0 263e 24ac b1be 28e4 81bd
00000170: 106d 8bbe ea4f f33d 52af 1d3e c1e5 b8be
00000180: a887 65be 56d5 973e 76ca 4b3e 49db 583d
00000190: 0c70 c0be 11fc 63be eb4c cebc 0280 f73d
000001a0: a6a7 c03e ec34 713d ce0e 683e 2e07 913e
000001b0: 320a b03d 12d8 c83d e0f3 d6bd 778a 933e
000001c0: 71b9 d9bd 184b 87be 1df5 793e 0936 0abe
000001d0: 3740 3bbe fa1b 053e 91d1 293e c20b 933e
000001e0: 5a65 433e 30dc 7d3e 6627 b2be a0d7 3c3e
000001f0: 4955 fb3d ff48 97be 4725 98be 1a98 653d
00000200: c6f3 d9bd 37c3 6f3e 12bf 14be 0ddf 353d
00000210: f1cb 2d3d 72ec c33e 669c 323e 91b5 1cbe
00000220: 4ce6 cb3d 64d1 07bd 826c 9bbd 658b 5c3e
00000230: ed6c 253e 2133 713e ab1a 59be f893 2ebe
00000240: d145 9d3d ffd8 02be 266b 8c3e eb9b 1dbe
00000250: 88c6 d6bd 0314 22bd fdbb 74be 5d49 843e
00000260: 0bec e43d 594d 853e 3004 5abd a076 3fbd
00000270: b4b7 32be e1cb 28bd 066a 083e 82fc 8cbd
00000280: e93e f2bd 9bc0 e73d 4651 233e fb7e 533e
00000290: 550a 8dbd d98b a6be 71a0 c73e 07a8 1f3e
000002a0: 53be 96be f1f4 10bd c76f 0b3e dd75 e63d
000002b0: 3f0f 15be 6030 59bc 6029 3bbc c99e 903e
000002c0: 4cfc ecbc 160e 053e d5f7 20be 1635 dbbd
000002d0: 63bf 2a3e 9302 60bc 4edb 09be 1619 1bbe
000002e0: ed56 63be ca7c 513e d487 803d 5d8f 7a3d
000002f0: 1968 04be 26d0 80be 79a8 483e 9685 f13d
00000300: 8f14 b03d 9bfc 853e b0f5 e0bd edfa 11be
00000310: ddce c23c 7323 643e c2f1 2fbe 6283 7dbe
00000320: 7e41 fd3d 383a 903c 4ab8 67be 9349 84bd
00000330: f503 953e 4a51 ac3e 7db8 e23c 7d49 5e3c
00000340: 14ca ae3e 38cf 983e 7e60 13be c778 0d3e
00000350: 27a6 de3d 5f0f b6bd 5932 1e3e e986 6bbe
00000360: eaa7 9fbd 60cb ae3d aad1 10be 19b0 423d
00000370: 1b3f 45bd 0b45 a23d b44d 603b dbb2 a1be
00000380: a518 abbe c7fb 71be 5a15 92bd c7c5 83be
00000390: fad2 a4bb fe58 86bd 3ecb d53c 8247 1dbd
000003a0: ef0d aebd 1ee5 233e 7351 a53e 79ab 463e
000003b0: fcd3 503e a7ec 303e 6e28 fcbd 3863 6e3e
000003c0: 88e9 07be f795 373e ad6b de3d 20b3 13bd
000003d0: f525 713d 16a8 31be 6f87 43be aef8 25be
000003e0: f712 863e 293b d93d bda5 9d3e 1861 5dbe
000003f0: be45 933e 5eac 48be fc4b 84be df38 a23d

SILSTM.bias_ih_l0 f4 [40]
-0.057063807 -0.17080492 0.11346406 0.20991108 -0.098480776 0.20481914 0.090966 -0.16904889
-0.04652578 0.06006592 0.29335716 -0.25710234 -0.12712246 0.09810781 0.15872893 -0.17930453
-0.15536506 -0.269581 0.106357455 0.21776894 0.036031973 0.061871544 -0.3836798 0.23741697
0.26952618 -0.23117362 -0.043316606 -0.20357454 0.15729704 0.2592827 0.3392437 -0.024184551
0.054682773 -0.09978693 0.024162585 -0.20799904 -0.24447699 0.2350416 0.30223888 0.18350549
00000000: bdbb 69bd 7ce7 2ebe d85f e83d eef2 563e
00000010: 4ab0 c9bd 1cbc 513e 624c ba3d 271b 2dbe
00000020: d191 3ebd af07 763d e932 963e eba2 83be
00000030: 642c 02be bfec c83d d689 223e 9b9b 37be
00000040: 0518 1fbe 8506 8abe f0d1 d93d d2fe 5e3e
00000050: 4396 133d 046d 7d3d ae71 c4be 6f1d 733e
00000060: 56ff 893e c7b8 6cbe c16c 31bd d875 50be
00000070: 7a12 213e b4c0 843e 5ab1 ad3e ae1e c6bc
00000080: 0bfb 5f3d 175d ccbd 9df0 c53c b3fd 54be
00000090: 2d58 7abe bfae 703e 0ebf 9a3e dde8 3b3e

SILSTM.bias_hh_l0 f4 [40]
0.27661088 -0.19110818 -0.1623825 -0.20385863 0.28804994 -0.23991537 -0.032225385 -0.16476674
0.29183206 0.08814342 0.09881125 -0.026481045 0.04426147 0.320375 0.3243733 -0.18895343
0.32141355 -0.21233192 -0.13531305 0.1306057 -0.01811376 -0.02288006 -0.25496846 0.20812103
0.12406827 -0.25146225 0.21431434 -0.020096319 -0.25014827 -0.107520744 -0.15549496 0.14349484
-0.13624427 -0.09297011 -0.091872305 -0.08042594 -0.03719241 -0.06678039 0.1681423 -0.017741747
00000000: f19f 8d3e ddb1 43be 9947 26be 51c0 50be
00000010: 487b 933e 60ac 75be c4fe 03bd 9db8 28be
00000020: 036b 953e 8a84 b43d 8d5d ca3d c7ee d8bc
00000030: 844b 353d 3108 a43e 4214 a63e 027d 41be
00000040: 5190 a43e 8a6d 59be 818f 0abe 80bd 053e
00000050: 4f63 94bc f76e bbbc 3a8b 82be ae1d 553e
00000060: 8117 fe3d a9bf 80be 3875 5b3e 09a1 a4bc
00000070: 6f13 80be d633 dcbd 123a 1fbe 50f0 123e
00000080: 9e83 0bbe 1d67 bebd 8c27 bcbd 5bb6 a4bd
00000090: 1257 18bd 28c4 88bd 7f2d 2c3e 2457 91bc

ClassificationSI.0.weight f4 [10]
0.93192667 1.1397665 1.0471469 1.0995859 1.0316024 0.93190366 0.939084 0.9029495
1.0880665 1.1227628
00000000: bf92 6e3f dee3 913f e908 863f 3bbf 8c3f
00000010: 8c0b 843f 3d91 6e3f cf67 703f b327 673f
00000020: c345 8b3f b1b6 8f3f

ClassificationSI.0.bias f4 [10]
-0.01695574 0.07525743 0.058438845 0.09960515 0.0144728515 -0.055389617 -0.04376241 -0.09903899
0.057415836 0.072568744
00000000: c4e6 8abc 9120 9a3d 925d 6f3d c9fd cb3d
00000010: 8a1f 6d3c 39e0 62bd 3640 33bd f4d4 cabd
00000020: de2c 6b3d ec9e 943d

ClassificationSI.0.running_mean f4 [10]
-0.028646627 0.01792727 -0.27884603 0.3434974 0.24372144 -0.19145997 0.12139013 -0.024029445
-0.095676176 0.22886752
00000000: 55ac eabc 36dc 923c e8c4 8ebe e4de af3e
00000010: 1d92 793e 150e 44be 639b f83d 66d9 c4bc
00000020: dff1 c3bd 3f5c 6a3e

ClassificationSI.0.running_var f4 [10]
0.004385047 0.00015960506 0.00012228821 7.748624e-05 3.391023e-05 0.00014531314 0.00050137297 0.00024802936
0.00029274967 0.00031454558
00000000: 71b0 8f3b a85b 2739 7e3a 0039 1c80 a238
00000010: d53a 0e38 335f 1839 926e 033a f009 8239
00000020: 327c 9939 98e9 a439

ClassificationCat.0.weight f4 [1, 10]
-0.018114245 -0.27245048 0.16658767 0.3348484 -0.3294206 0.22997883 0.23929462 -0.1277628
-0.105312966 -0.41758963
00000000: 5364 94bc a17e 8bbe f595 2a3e 4071 ab3e
00000010: d1a9 a8be 927f 6b3e a609 753e 40d4 02be
00000020: 53ae d7bd 4fce d5be
