models/2023-05-18_22-22/3/pytorch/E-66_VA-0.7946_VL-54.79_TA-0.7250_TL-69.24.pt (torch, 5327 bytes, 9 tensors)

SILSTM.weight_ih_l0 f4 [40, 1]
000000 30 ca 57 3e e9 6b f2 bd 1e eb 48 3e 96 10 85 3e
       0.21073222 -0.118369885 0.1962094 0.25989217
000010 63 73 97 3d ff c6 d0 3c 19 43 ad 3e f5 26 9c bd
       0.07395055 0.025485514 0.33840254 -0.07624618
000020 23 1b 32 bd b5 f4 6e 3c eb 69 cf 3d 38 93 8e 3d
       -0.04348291 0.01458471 0.10127624 0.069616735
000030 71 eb 3c bd ad 06 14 3e 63 3c 48 3d 0c 0e 25 3d
       -0.046122972 0.14455672 0.048885714 0.0402966
000040 5c 73 e4 3d 2f dd 51 bd a7 97 b1 3e df 33 ab bd
       0.111548156 -0.051236328 0.34686014 -0.08359503
000050 ad 33 8f be 1f 0f 38 be fc 68 3d be 5f 8d c8 bd
       -0.27969113 -0.17974518 -0.1849708 -0.097925894
000060 68 d2 8d bc 37 71 ec bd ef 09 a6 bd 87 d1 a6 3e
       -0.017312244 -0.115450315 -0.081073634 0.32581732
000070 cf 2d 40 be 2c 83 84 be c1 cd 4c be 24 4b 6e 3c
       -0.18767475 -0.25881326 -0.20000364 0.014544282
000080 8d da 44 be fe 0d 54 3e f5 db ab be 87 8a ce bd
       -0.19223996 0.20708463 -0.3356625 -0.10085016
000090 9a 0e 5a 3e 22 cf 0a be af 65 28 3e a0 81 be be
       0.21294633 -0.13555577 0.16445039 -0.3720827

SILSTM.weight_hh_l0 f4 [40, 10]
000000 69 6a 4d 3e bb 30 3c be 41 71 3d 3b cb 9a 6b be
       0.20060124 -0.18377964 0.0028906616 -0.23008268
000010 fe 03 5d bc 40 d8 f2 bd 9e 82 53 be 3a 0c 0d 3d
       -0.013489721 -0.11857653 -0.20655295 0.03443549
000020 ad c1 27 3e 7b 98 1d be 14 fe 90 be 94 20 83 3e
       0.16382475 -0.15390198 -0.28318846 0.25610793
000030 97 ce dc bd 64 32 79 3e 1f a0 50 3e 5a ea bb bd
       -0.107815914 0.24335629 0.20373581 -0.091755584
000040 fd 1a b2 bd 10 72 af bd 7b 6c 46 be 00 93 bf 3e
       -0.08696554 -0.085666776 -0.1937732 0.3741684
000050 f5 0b 4b 3d a3 7f 9a 3e 63 da 8f be 42 e0 17 3a
       0.04957195 0.30175504 -0.28096303 0.000579361
000060 32 17 ae bc 39 03 32 bd c9 d2 4c be 23 5b 93 3d
       -0.021251295 -0.043460105 -0.20002283 0.07195117
000070 f1 12 98 be ea 93 f0 bc 6f c4 67 3e 9c 31 dc 3c
       -0.2970195 -0.029367406 0.22633527 0.026879124
000080 80 42 b9 3c 1f f9 a7 3e 4c f0 53 be 20 59 59 3e
       0.022614717 0.32807252 -0.20697135 0.21225405
000090 98 df 3f 3e 74 84 b1 3d bd a0 9c 3e 0b bc cb be
       0.18737638 0.086678416 0.30591384 -0.39791903
0000a0 21 17 90 3e c9 11 83 3d 9c dc a2 3d 44 8d a9 3e
       0.28142646 0.063998766 0.07952234 0.3311559
0000b0 e2 9e 47 3d ad 26 f5 3d 43 4d 26 3e 69 ac 83 be
       0.048735507 0.119702674 0.1624041 -0.25717476
0000c0 5e 52 4a bd 9c d0 85 3e dc a4 93 be 94 34 81 3e
       -0.049394958 0.2613572 -0.28836715 0.25235426
0000d0 82 ce 90 be 5c 21 8f bd 9c 3e d3 bd ff 5d 61 3c
       -0.28282553 -0.06988785 -0.10314676 0.013755321
0000e0 26 82 22 be e9 d5 13 3e 57 60 b8 bd c5 76 d0 3d
       -0.1586996 0.14437069 -0.0900275 0.101789035
0000f0 a7 58 56 bd 7c f9 51 be 28 69 2d 3e 79 e1 9f 3d
       -0.05233064 -0.20505327 0.16934645 0.07806677
000100 ca 11 40 3e 31 e2 ef bd 89 bb 91 3e 8a 54 aa 3d
       0.18756786 -0.117130645 0.2846339 0.08316906
000110 4e 04 af bb dc 79 ba bd d1 60 94 bd 5e e0 2e 3c
       -0.0053410893 -0.09105274 -0.07245029 0.0106736105
000120 4d c1 1a 3e 5a 5a 14 be ef 7f d5 bc cf 64 19 3e
       0.15112801 -0.14487591 -0.02606198 0.14979862
000130 97 04 12 3e e1 c3 ef 3c 5c d4 99 bd fa 4c 2b bd
       0.14259563 0.029268207 -0.075112075 -0.041821457
000140 c9 65 82 3e 68 55 31 3e 7d fd d4 bd 4c a3 5c 3e
       0.2546828 0.17317736 -0.103999116 0.21546668
000150 3d b8 c2 3e 6b 5f 7f be 76 29 ba bb fd 68 59 be
       0.38031188 -0.24938743 -0.005681212 -0.21231456
000160 2d fd c9 bd 62 17 a6 3e d3 35 b5 be 34 2f 3d 3d
       -0.098627426 0.32439715 -0.35392627 0.046187595
000170 90 ae ac be 9a 54 5c 3c c2 4c 5d 3e 3a 0e e8 be
       -0.3372693 0.013447905 0.21611312 -0.45323354
000180 1f 4f 88 be 4a cd 54 3e 77 b0 da 3d 54 79 fc 3d
       -0.26622865 0.20781437 0.10678189 0.12327829
000190 98 67 8d be 75 f3 4e be f9 a8 2e bd 87 4e 81 3c
       -0.27618098 -0.20210059 -0.042641614 0.015784515
0001a0 8b 6c b0 3e 50 8c 57 3d 9c 3e 21 3e 2a b7 18 3e
       0.34457812 0.052624047 0.1574654 0.14913622
0001b0 e2 3a c8 3d 24 3e 84 3d 44 0a 85 bd 79 ba b6 3e
       0.09776856 0.06457165 -0.06496099 0.35689142
0001c0 a0 9c 14 be d2 d3 51 be 2a 0f 94 3e 15 1d 3b be
       -0.14512873 -0.2049096 0.2891782 -0.18272813
0001d0 59 45 a1 bd 90 26 0a bc 82 2a 86 3d fa a4 c0 3e
       -0.07874555 -0.008432046 0.065510765 0.37625867
0001e0 5a 96 5f 3e fe f6 9c 3e eb 58 d0 be 8e ce c2 3c
       0.21834698 0.3065719 -0.4069284 0.023780134
0001f0 ca 66 91 3e 24 03 b0 be bd d9 4b be df 78 68 3d
       0.28398734 -0.34377396 -0.1990728 0.056755897
000200 ba 0a 79 be 15 13 78 3e fc 69 73 be e4 d5 c5 bd
       -0.24320498 0.24226029 -0.23770899 -0.09659937
000210 90 aa 48 be a3 f4 39 3f c0 72 d2 3e a1 63 82 be
       -0.19596314 0.7263891 0.41103172 -0.25466636
000220 e7 ac c7 3e 60 f5 64 3d e3 46 2a be 88 c5 ae 3e
       0.38999102 0.05589807 -0.16628604 0.3413508
000230 64 6c 42 3e c9 15 90 3e ab 63 99 be 0c 48 ae bd
       0.1898666 0.2814162 -0.29958853 -0.085098356
000240 70 b2 61 3e ea a0 42 be 56 8a df 3e 37 cb 26 be
       0.22040725 -0.19006696 0.4366023 -0.16288458
000250 b9 13 49 be 61 f0 87 3e 23 8c 56 be 1c 28 85 3e
       -0.1963643 0.26550582 -0.20951895 0.26007164
000260 01 35 55 bd ec e0 89 3d 67 b6 89 3d b3 9b d4 bd
       -0.0520525 0.067323536 0.067242436 -0.1038126
000270 85 62 ff bd c9 d6 cf bb 9c 06 fb 3a 91 3c 12 3c
       -0.12469963 -0.006342743 0.001915175 0.008925573
000280 97 a0 1e be 23 20 10 bd 22 82 cf bd d1 c4 f2 3e
       -0.15490948 -0.035186898 -0.10132243 0.47415784
000290 d0 69 41 3e d0 9e e3 be 99 a6 33 3f e2 2b 14 3e
       0.1888802 -0.44457102 0.7017608 0.14469865
0002a0 01 45 c4 be 50 b6 6a 3e b9 90 a6 bc a3 92 93 3c
       -0.38333896 0.22921109 -0.020332681 0.018014258
0002b0 8b f4 2f bd 43 3a db bc 8b 63 3c bd 64 fb 36 3e
       -0.042957824 -0.02676118 -0.04599337 0.17869335
0002c0 b8 aa 65 bd 69 a9 3d 3d f9 90 7a bd c8 7d aa bd
       -0.056071013 0.04630414 -0.061173413 -0.08324772
0002d0 0c b5 60 3e cc 71 29 3e 7b 87 b6 be 88 51 27 be
       0.21944064 0.16547316 -0.35650238 -0.16339695
0002e0 76 91 84 3c 9a f9 c1 bc 18 67 37 3e 75 b5 db bd
       0.016182642 -0.02367859 0.17910421 -0.107279696
0002f0 bc a4 6c be ff 89 02 bd e7 d8 2a 3e 89 5a 39 3e
       -0.23109716 -0.031869885 0.16684304 0.18100943
000300 5a 5a 92 3c 4f 3e 06 3e 4f b6 96 bd c7 e5 87 be
       0.017865349 0.13109706 -0.07358991 -0.26542494
000310 52 80 99 bd 26 9e 2e 3e 4b 94 55 be 80 04 5a be
       -0.07495178 0.17052516 -0.2085735 -0.21290779
000320 58 f4 de 3d 3c 28 b1 ba 79 a3 6b be 32 32 93 3d
       0.108864486 -0.0013516019 -0.23011579 0.07187308
000330 71 e0 a7 3e 91 fd 96 3e 18 24 a0 3d 14 e3 f4 bc
       0.32788423 0.2949033 0.07819384 -0.029893436
000340 4e fd d4 3e 19 92 a4 3e 5b cf 45 be e5 6b 2e 3e
       0.41599506 0.32142714 -0.19317381 0.17033346
000350 78 82 0c 3e bc 14 18 be 10 d5 08 3e 5a 6d 74 be
       0.13721645 -0.1485166 0.13362527 -0.2386984
000360 cf fe 0f be 4c 00 27 3e 19 79 51 be 90 f5 bb 3d
       -0.14062046 0.16308707 -0.20456351 0.09177697
000370 3d 00 aa bd 9a 57 6f bc 8d f8 6f 3d 1a ce 2e be
       -0.08300827 -0.014608288 0.058586646 -0.17070809
000380 76 4c c5 be 21 f1 1e be 8e 94 d4 bd 0e ff 85 be
       -0.38534898 -0.15521671 -0.10379897 -0.26171154
000390 0d f7 9d 3d 96 b1 85 bd 88 bd 7e bc 75 80 18 be
       0.07713137 -0.065280125 -0.015548117 -0.14892752
0003a0 3a 7d 33 3e 60 8e 47 3e ce 49 8d 3d b9 de 8d 3e
       0.17528239 0.19487906 0.06898843 0.27708986
0003b0 d9 ad 4c 3e fc aa 6a 3e d2 03 f3 bd b8 cf b6 3d
       0.19988193 0.22916788 -0.11865963 0.08926338
0003c0 4e d9 eb bd 92 e3 6e 3e 8a d2 2f 3d 50 46 a9 3d
       -0.11516057 0.23328999 0.042925395 0.08265364
0003d0 dc b1 1c 3e 18 9a 5f be d7 a9 53 bd 5e 5a 18 be
       0.15302223 -0.21836126 -0.051675644 -0.14878222
0003e0 a3 0a 2d 3e 5b 06 92 3e b0 db 97 3e 9f 24 75 be
       0.16898589 0.28520474 0.29659796 -0.23939751
0003f0 25 07 93 3e 9e 48 42 bd a0 cb 98 be 9f b0 1a 3e
       0.28716388 -0.047432534 -0.29842854 0.15106438

SILSTM.bias_ih_l0 f4 [40]
000000 19 32 85 bd 5c 1a 04 be 0e 7f 0f 3d ab c4 74 bd
       -0.06503696 -0.1290068 0.03503328 -0.05975787
000010 26 e8 c3 bd 5b 79 80 3e 61 9b 82 3c c7 5d e2 bd
       -0.09565763 0.25092587 0.015943231 -0.11053043
000020 9f 56 aa 3d 0d a1 20 3e 9b 37 8f 3e a7 a5 32 be
       0.08317303 0.15686436 0.2797211 -0.17446004
000030 e2 5b 41 3d 3e eb a8 3e ec b3 69 3e 00 a5 60 bd
       0.047206767 0.32991976 0.22822541 -0.054844856
000040 08 dd 52 3d 17 9a 50 be e5 6e 95 3e 82 58 7d 3e
       0.051480323 -0.2037128 0.29186168 0.24740794
000050 bf 47 37 3d e4 43 aa 3d 21 59 8b be 16 12 ad 3d
       0.044746157 0.0831373 -0.27216437 0.08450715
000060 a1 5a 8d 3e fa df 67 be e6 d1 af bd f7 2c 73 be
       0.27608207 -0.22644034 -0.08584957 -0.23747621
000070 97 af 54 3e 65 48 70 3e 93 8e a3 3e aa c7 04 3c
       0.20770107 0.23465116 0.31944713 0.008104244
000080 a4 0a a3 3d c8 f4 6d 3e 5e 5e 97 3b e3 14 02 be
       0.07961014 0.23237908 0.0046194037 -0.1270328
000090 55 32 9d bd da 01 21 3e ce 51 ca 3e 96 ec 45 3e
       -0.07675616 0.15723363 0.39515537 0.19328532

SILSTM.bias_hh_l0 f4 [40]
000000 4d 26 7a 3e c8 50 13 be 92 06 15 be 56 20 d6 be
       0.24428673 -0.14386284 -0.14553288 -0.41821545
000010 74 a0 61 3e 9a fc 78 bd 2a e8 ab bd 11 8e df bd
       0.22033864 -0.060787775 -0.08393891 -0.10915769
000020 6b c1 bb 3e 55 95 37 3e dd e5 c2 3d ee b4 9a 3c
       0.36671004 0.1792806 0.09516499 0.018885102
000030 8b db 25 3e 54 92 08 3f 29 93 bd 3e 00 55 80 bd
       0.1619703 0.5334828 0.37026337 -0.062662125
000040 53 bc f8 3e f1 4d 30 be 08 d2 a5 3d da 92 31 3e
       0.4858118 -0.17217232 0.08096701 0.17341176
000050 c9 b6 ff bb 99 2d d9 3a c7 a8 2b be fa cc 63 3d
       -0.007803772 0.0016569375 -0.16763602 0.055615403
000060 7f 90 0c 3e 57 bc 7b be c0 7c 2b 3e d4 09 95 bd
       0.13726996 -0.24583565 0.16746807 -0.07277265
000070 3a 38 38 be e5 1d fc bd 24 15 10 be 71 8a e8 3d
       -0.17990199 -0.123103894 -0.14070565 0.113545306
000080 c4 c5 70 bd 31 59 75 3e b6 d4 c4 bd a2 35 84 bc
       -0.058782354 0.23959805 -0.09610884 -0.016138855
000090 d1 fb d6 3d b8 ca 0b bd 73 6c 94 3e f2 17 47 3d
       0.10497249 -0.034128875 0.2898899 0.04860682

ClassificationSI.0.weight f4 [10]
000000 59 73 92 3e f9 1d a7 3f fb 2f 90 3f 76 9d ae 3f
       0.28603628 1.3056022 1.1264642 1.3641803
000010 1c 09 92 3f 75 b8 7c 3f 4f 26 80 3f b8 85 4c 3f
       1.140903 0.9871896 1.0011691 0.7989154
000020 69 7f 5e 3f 13 15 a4 3f
       0.8691316 1.2818931

ClassificationSI.0.bias f4 [10]
000000 4a 25 fe bb d2 cb 61 3d 6a df b3 3d f7 0e 87 3e
       -0.00775591 0.05512602 0.08782847 0.26378605
000010 4c d6 d1 3d 02 e5 30 bc 63 a4 9b 3b 89 d9 ea 3a
       0.10245952 -0.010796787 0.004749821 0.0017917614
000020 7e ff d8 3b e3 75 fc 3d
       0.006622254 0.123271726

ClassificationSI.0.running_mean f4 [10]
000000 8c 48 c7 3c 6c c0 db 3d a4 7e ca be 9e ff cd 3e
       0.024326585 0.10730061 -0.39549744 0.40234083
000010 17 8c f1 3e 6f 6f 8e be 89 53 13 3f 2d 9a 53 bd
       0.47177193 -0.27819392 0.5754934 -0.051660705
000020 a1 cb 20 bf 6d 2b e6 3e
       -0.62810713 0.44955006

ClassificationSI.0.running_var f4 [10]
000000 37 ed 48 3b 66 f6 97 3a 49 70 bf 38 1c 92 5c 3c
       0.003065897 0.0011593818 9.1285045e-05 0.01346257
000010 20 5b bb 39 e4 94 91 39 db f1 a6 3a 57 08 09 3a
       0.00035735313 0.00027767487 0.0012736873 0.0005227378
000020 37 2a f0 3a 6d 81 e8 39
       0.0018323128 0.00044346918

ClassificationCat.0.weight f4 [1, 10]
000000 4a 36 7c 3b 72 a4 e8 be 80 24 9e 3e 6e 01 19 3f
       0.0038484507 -0.45437962 0.30887222 0.59767807
000010 cb 0c ee be 74 3f a5 3e 59 8e a8 3e 65 8f fe bd
       -0.46494135 0.32274973 0.32921103 -0.12429694
000020 02 9e 8c 3d 74 79 15 bf
       0.06866075 -0.5838845
