models/2023-05-18_22-22/3/pytorch/E-7_VA-0.7143_VL-76.74_TA-0.6167_TL-86.82.pt (torch, 5327 bytes, 9 tensors)

SILSTM.weight_ih_l0 f4 [40, 1]
000000 3e 77 5c 3e 7b 58 b7 bc bb f6 05 3e b0 5e 88 3e
       0.21529862 -0.022381058 0.13082401 0.2663474
000010 01 b6 06 3e 44 2e d1 bb a5 56 b7 3e 28 f3 5a bd
       0.13155366 -0.006383689 0.35808292 -0.053454548
000020 35 39 e6 bd 9e 7a cd 3d 3d 37 18 3e 59 77 cf 3d
       -0.1124138 0.10033153 0.14864822 0.10130186
000030 13 7f 58 be 02 61 02 3d aa b9 b3 3d f0 42 75 3c
       -0.21142225 0.031830795 0.08775647 0.014969572
000040 9d 82 b3 3c 0b 86 f7 3a 75 6c 99 3e ff cc 4a bd
       0.021912867 0.0018884552 0.2996556 -0.049511906
000050 ca c4 9a be 87 14 53 be a2 16 d6 bd 95 79 a4 bd
       -0.30228263 -0.206133 -0.104535356 -0.080310024
000060 34 be 27 3c 78 b8 ba bd a0 d6 27 bd bc 1a a1 3e
       0.010238219 -0.09117216 -0.040976167 0.3146571
000070 bd 6e ed bd fb 95 75 be 6f 47 72 be d9 c9 da 3d
       -0.11593387 -0.23982994 -0.23660062 0.10683031
000080 1a c3 a2 be 50 ad 97 3e 02 61 a5 be 7b de d7 bd
       -0.31789476 0.29624414 -0.32300574 -0.10540482
000090 af b9 37 3e 6a fa 99 be 2c 6b f6 3d 4a 4e 9e be
       0.17941926 -0.30073863 0.1203216 -0.30919105

SILSTM.weight_hh_l0 f4 [40, 10]
000000 59 e7 26 3e 53 e4 09 be 02 d7 a7 ba b8 d8 21 be
       0.1629919 -0.13466005 -0.0012805166 -0.15805328
000010 d2 d9 e6 3c 3c ba 17 be e1 8f fe bd 2f c2 87 3d
       0.028180037 -0.14817137 -0.124297865 0.066288345
000020 0e 2c e7 3d 29 7e c8 bd 04 56 81 be 68 9d 94 3e
       0.112877 -0.09789688 -0.25260937 0.2902634
000030 0a 45 27 be 0b 8a b1 3e 7c 29 81 3e 22 7c ec bd
       -0.1633493 0.3467563 0.25226963 -0.11547114
000040 9d 6e eb bd be f9 49 be b3 05 2f be d1 68 c6 3e
       -0.11495707 -0.19724175 -0.17092018 0.38751844
000050 fc c6 95 bb e1 18 99 3e 2e 1a 9e be d4 19 3a 3e
       -0.00457084 0.29901794 -0.3087935 0.18173915
000060 73 9d 1e be 5d e5 d8 bc e3 65 6a be 70 3a 4c 3d
       -0.1548975 -0.026476556 -0.22890429 0.049860418
000070 94 e3 6a be 01 5a 08 bd 79 7e 8e 3e 25 38 78 3e
       -0.22938377 -0.03328896 0.27830866 0.24240167
000080 f8 0d 81 be fa 8a a1 3e fa 72 23 3e 0d 5d 8e 3d
       -0.2520597 0.31551343 0.15961829 0.06951342
000090 4d a7 89 3e 39 cc ad 3b 32 26 7d 3e 33 37 87 be
       0.26885453 0.0053038863 0.24721602 -0.264093
0000a0 8d 04 90 3e 36 d1 9d bb 17 99 0b 3e eb d1 a0 3e
       0.28128472 -0.0048161997 0.13632618 0.31410155
0000b0 ba 89 dc bc 79 30 1f 3e 24 c2 5e 3d f1 82 a7 be
       -0.026921142 0.15545835 0.054384366 -0.32717088
0000c0 70 90 be 3c cc ff f7 3d 16 17 9f be 83 66 83 3e
       0.023262233 0.12109336 -0.310723 0.25664148
0000d0 47 18 62 be a0 14 cd 3d 2c d1 92 be ef 46 df 3d
       -0.22079574 0.100136995 -0.2867521 0.109022014
0000e0 01 a5 59 be 8a d3 01 3e a5 b6 1f 3d 53 94 82 3d
       -0.2125435 0.12678352 0.038992543 0.06375947
0000f0 f7 85 3d bd 52 07 41 be ea 08 37 3e 56 2b d5 bd
       -0.046270337 -0.18850449 0.17874494 -0.10408656
000100 aa 53 7a 3e ed c0 3c be 38 87 bf 3d ee 37 cb 3d
       0.24445978 -0.1843297 0.09351963 0.09922777
000110 98 4c d2 3c b1 f1 1b be 82 cd d5 3c 7a e8 bf bd
       0.025671288 -0.15228917 0.02609897 -0.09370513
000120 cb a2 52 3e 2d 97 4f be 7e 46 52 bd b2 c4 84 3e
       0.20569913 -0.20272513 -0.051336758 0.25931317
000130 f1 1b 1b 3e f3 95 2f 3d da 79 6c 3d bc 8d df bd
       0.15147378 0.042867612 0.057733394 -0.109157056
000140 98 87 8d 3e 6f 44 0c bd 77 e6 6a 3d be 8e 81 3e
       0.27642512 -0.03424495 0.057348695 0.25304216
000150 ba cf 86 3e 44 60 0a be 34 43 0a be 55 d2 73 be
       0.26330358 -0.13513285 -0.13502198 -0.23810704
000160 1c 39 8e 3d b0 fc 2a 3e 83 ae b6 be 18 52 75 bd
       0.069444865 0.16697955 -0.35680017 -0.059892744
000170 99 a2 87 be 34 b5 09 3e f8 35 13 3e b2 8f bb be
       -0.2649124 0.1344803 0.14376056 -0.36633068
000180 af 52 6b be a8 f2 97 3e bc 21 41 3e 2a 16 69 3d
       -0.2298076 0.2967732 0.18860525 0.056905903
000190 1b 1d be be 8f a8 6f be 8d 99 f0 bc 3c 06 ff 3d
       -0.3713158 -0.23404144 -0.029370094 0.12452361
0001a0 bd 6d c1 3e 8a c7 67 3d de ae 73 3e 3a 24 8d 3e
       0.37779036 0.05658678 0.23797175 0.275667
0001b0 3a d9 a4 3d 4a ba cb 3d db 4e 7f bd a6 14 9e 3e
       0.08049245 0.09947641 -0.06233106 0.30875129
0001c0 96 db d3 bd c1 76 8a be e9 08 73 3e 83 89 00 be
       -0.10344617 -0.27043727 0.23733868 -0.12552457
0001d0 38 0e 3a be 53 f1 90 3d 1f 09 38 3e aa 79 92 3e
       -0.18169487 0.07077279 0.1797223 0.28608447
0001e0 56 ed 37 3e 40 fc 78 3e 63 a3 aa be 98 72 3f 3e
       0.1796163 0.24314976 -0.3332778 0.18696058
0001f0 5a 25 fe 3d 34 32 98 be d8 73 9c be ec e6 61 3d
       0.12409468 -0.29725802 -0.30557132 0.055151865
000200 9b 0e d8 bd 6c 9a 6c 3e 58 22 1a be ae ad 0a 3d
       -0.10549661 0.23105782 -0.15052164 0.03385704
000210 96 40 43 3c 9b 3e d2 3e 03 b3 4a 3e b9 e5 24 be
       0.011917254 0.4106339 0.1979485 -0.16103257
000220 bd 6f de 3d 5e 0c c6 bc 77 b8 ac bd cd 52 63 3e
       0.10861156 -0.024175819 -0.084336214 0.22199555
000230 24 de 25 3e 70 5d 6f 3e dd 18 5b be 75 10 29 be
       0.16198021 0.23375487 -0.21396203 -0.16510184
000240 6a ac 82 3d 88 7d 00 be 7e 3b 8d 3e 15 19 1e be
       0.063805416 -0.12547886 0.2758445 -0.15439256
000250 b7 e9 d7 bd d6 71 05 bd 96 52 70 be 27 b1 86 3e
       -0.105426244 -0.032579266 -0.23469004 0.26307032
000260 86 e4 b0 3d 92 94 82 3e 68 10 2d bd 49 fe 49 bd
       0.086373374 0.25503975 -0.042251974 -0.04931477
000270 f1 93 22 be b4 fa 55 bd 39 59 05 3e a3 83 2e bd
       -0.15876748 -0.052241042 0.13022317 -0.042606007
000280 f3 6e ed bd 8d db 42 3d 1d 19 0f 3e 14 cb 6c 3e
       -0.115934275 0.04757266 0.13974424 0.23124343
000290 72 d0 52 bd b1 eb a5 be b9 d4 cf 3e 79 2a 33 3e
       -0.05146832 -0.3240638 0.40591982 0.17496671
0002a0 94 37 9e be 28 5b 08 bd cd a8 e8 3d 3c 4e ad 3d
       -0.30901778 -0.03329006 0.11360321 0.08462188
0002b0 f8 02 0d be e7 a3 75 bc b8 de 45 bc d8 9a 87 3e
       -0.13770664 -0.014992691 -0.012077026 0.26485324
0002c0 82 72 04 bd a5 df da 3d 7b 2b 12 be c3 37 ce bd
       -0.032335766 0.10687188 -0.14274399 -0.100692295
0002d0 1c 49 29 3e 2f 21 05 bd 23 e9 15 be f4 07 0a be
       0.16531795 -0.03250235 -0.14639716 -0.13479596
0002e0 78 db 50 be 74 74 46 3e cf 09 cc 3d 66 f5 8a 3d
       -0.2039622 0.19380361 0.09962808 0.06785087
0002f0 b2 73 0c be 8b dc 6f be 59 57 3d 3e ab 3b f6 3d
       -0.1371601 -0.23423974 0.18490352 0.120230995
000300 f4 d3 b3 3d 3b 2f 87 3e 49 8d e6 bd 89 1c 1f be
       0.08780661 0.2640322 -0.11257417 -0.15538229
000310 af 32 84 3c 2a 1c 65 3e 30 bf 36 be 9c 05 78 be
       0.01613745 0.22374025 -0.1784637 -0.2422089
000320 35 38 02 3e ff b2 1e 3d 71 fb 6e be 3f d7 73 bd
       0.12716754 0.038744923 -0.23338105 -0.059531447
000330 52 76 9e 3e 80 62 a7 3e 5c fb 78 3c a0 c0 5b 3b
       0.30949646 0.32692337 0.0151966475 0.0033531561
000340 48 f3 b5 3e 93 f6 9e 3e 2f 39 20 be 3f 4d 06 3e
       0.3553717 0.31047496 -0.15646814 0.13115405
000350 e5 16 ea 3d 28 0a 99 bd ea 42 0c 3e 97 ef 73 be
       0.11430148 -0.0747264 0.136974 -0.23821865
000360 bf cf a6 bd eb 9a c1 3d e0 5f 1d be 2f 8d 4a 3d
       -0.08145093 0.094533764 -0.15368605 0.04945105
000370 0c 25 24 bd a6 15 99 3d 89 42 93 3b b4 33 a2 be
       -0.040074393 0.07474832 0.0044940156 -0.3168007
000380 8f 81 aa be 3a 8d 63 be dc e7 76 bd 41 3a 82 be
       -0.3330197 -0.22221842 -0.060279712 -0.2543507
000390 e4 06 86 bb e2 d2 89 bd 46 2a c0 3c db d4 34 bd
       -0.004090177 -0.06729676 0.023457658 -0.044148307
0003a0 1d 23 a7 bd d5 33 29 3e 2a 0b a1 3e b9 7f 46 3e
       -0.08160994 0.16523679 0.3145383 0.1938466
0003b0 8a 8d 52 3e 12 ad 36 3e 9c 08 00 be e2 1d 6b 3e
       0.20561805 0.17839459 -0.12503284 0.22960618
0003c0 14 a7 07 be 28 04 37 3e 7c d7 c8 3d 67 5d 29 bc
       -0.13247329 0.17872679 0.098067254 -0.01033721
0003d0 de 3f 81 3d 0e e7 36 be 97 6a 3d be 66 bb 26 be
       0.0631101 -0.17861578 -0.18497692 -0.16282424
0003e0 92 08 84 3e 11 e4 ed 3d e3 46 9c 3e 84 b9 6c be
       0.2578779 0.11615766 0.30522832 -0.23117644
0003f0 4f 52 99 3e af 9a 53 be 64 27 89 be 93 11 cd 3d
       0.2994561 -0.20664476 -0.26787865 0.10013118

SILSTM.bias_ih_l0 f4 [40]
000000 b2 f3 57 bd f8 36 19 be 3e 5e d9 3d 20 34 4e 3e
       -0.05272264 -0.14962375 0.106136784 0.20137072
000010 b1 55 ac bd 77 b0 4d 3e 26 ca a7 3d db 5e 25 be
       -0.08414782 0.20086847 0.08192854 -0.16149466
000020 db b5 e2 bc be 2c 72 3d 4c fb 97 3e 55 53 84 be
       -0.027674606 0.0591247 0.29683912 -0.25844827
000030 66 f7 f1 bd 5e 72 ff 3d 92 01 1b 3e 97 f4 2a be
       -0.11814766 0.12472986 0.15137318 -0.16694866
000040 25 5d 09 be f0 f8 85 be c4 8f f2 3d 93 d9 5b 3e
       -0.13414438 -0.26166487 0.11843827 0.21469717
000050 e3 f3 2b 3d 02 4a 88 3d 10 e8 c2 be fa ef 6f 3e
       0.041980635 0.06654741 -0.38067675 0.23431388
000060 e3 79 90 3e 68 ec 76 be 7d 02 96 bc 1c 36 53 be
       0.28217992 -0.2411362 -0.018311733 -0.2062611
000070 60 b1 25 3e ce e9 86 3e ea 12 b0 3e 57 3f d9 bb
       0.16180944 0.26350254 0.3438943 -0.006629865
000080 db 5d 58 3d b6 bf 80 bd aa 93 b5 3c e6 91 52 be
       0.052823883 -0.06286566 0.022165138 -0.20563468
000090 fe 18 6e be fd 7e 68 3e e4 4a a0 3e bc 96 44 3e
       -0.23251721 0.22704692 0.31307137 0.19198126

SILSTM.bias_hh_l0 f4 [40]
000000 0c de 8e 3e 8d d1 2c be cf b1 1e be 2a ef 4a be
       0.27903783 -0.16876812 -0.15497516 -0.19817796
000010 55 c9 95 3e 3a 60 62 be d2 14 13 bd d2 e2 20 be
       0.29255167 -0.2210702 -0.035908528 -0.15711525
000020 a5 14 9b 3e bd fd af 3d 2f aa d2 3d 23 5f 00 bd
       0.30289188 0.085933186 0.10286366 -0.03134073
000030 91 81 3a 3d 83 72 af 3e 30 60 a0 3e 2c 49 34 be
       0.04553372 0.34267053 0.31323385 -0.17606038
000040 c8 5e aa 3e 07 11 53 be 35 5c f3 bd 13 87 03 3e
       0.33275437 -0.20611964 -0.118828215 0.12844495
000050 e2 e9 43 bc 91 cb 90 bc 54 cc 81 be 5b 01 52 3e
       -0.0119576175 -0.017675193 -0.25351202 0.2050833
000060 43 77 0c 3e 0c 97 85 be 11 a8 73 3e 23 fc ce bc
       0.1371737 -0.26091802 0.23794581 -0.025266713
000070 36 d9 76 be df 7c d1 bd 79 f2 17 be 16 19 1c 3e
       -0.24106297 -0.102288954 -0.1483859 0.15243945
000080 e3 5b 06 be 69 37 66 bd 08 52 bb bd 43 b8 a4 bd
       -0.1312099 -0.056205187 -0.091465056 -0.08042958
000090 23 5a 00 bd 74 f7 7e bd 25 30 3b 3e cd 92 47 3a
       -0.03133596 -0.06224771 0.18280084 0.00076131226

ClassificationSI.0.weight f4 [10]
000000 5b a6 66 3f 82 ed 93 3f b3 0c 86 3f 41 64 8d 3f
       0.9009759 1.1556857 1.0472625 1.104622
000010 eb 11 85 3f ae 3f 70 3f bc cd 73 3f 22 4c 65 3f
       1.0396093 0.9384717 0.952358 0.89569294
000020 2e 8f 8b 3f 64 58 91 3f
       1.090307 1.13551

ClassificationSI.0.bias f4 [10]
000000 4f 23 9f bc cb 23 9b 3d ea a0 9d 3d 32 04 00 3e
       -0.019426016 0.07575186 0.076967075 0.125016
000010 fb 11 32 3c 17 89 29 bd aa c3 91 bc 54 9e d7 bd
       0.010868545 -0.041390505 -0.017793495 -0.105282456
000020 10 29 37 3d 00 d1 80 3d
       0.044716895 0.062898636

ClassificationSI.0.running_mean f4 [10]
000000 ff 88 d5 3b 4b b0 85 3c 71 23 91 be 92 ae c4 3e
       0.0065165753 0.016319415 -0.28347352 0.38414437
000010 48 c3 85 3e 4e 8e 43 be 5e ef 3f 3e cd 32 e8 bc
       0.2612555 -0.19097254 0.18743655 -0.028344536
000020 97 10 b1 bd 5c 41 7e 3e
       -0.086457424 0.2482962

ClassificationSI.0.running_var f4 [10]
000000 f6 c5 a7 3b 17 09 41 39 f1 fb 0d 39 33 bf 0f 39
       0.0051200343 0.000184093 0.00013540663 0.0001370877
000010 1a 63 79 38 6a aa dc 38 54 74 1e 39 b5 52 aa 39
       5.945852e-05 0.000105221596 0.0001511139 0.00032486548
000020 20 bc 11 3a 75 0f 83 39
       0.0005559344 0.00024997783

ClassificationCat.0.weight f4 [1, 10]
000000 8a b1 8f bc 52 7f 93 be ad fd 2f 3e 7b b8 af 3e
       -0.017540712 -0.28808075 0.17186613 0.34320435
000010 6e 52 ad be 61 52 74 3e 82 45 82 3e 61 cf fd bd
       -0.3385195 0.2385955 0.25443655 -0.1239307
000020 c4 86 e8 bd 0e a6 db be
       -0.113538295 -0.42900127
