models/2023-05-03_17-28/pytorch/1-46-0.2019517570734024-0.8611111044883728.pt (torch, 451002 bytes, 55 tensors)

TSA.conv.weight f4 [3, 3, 3, 3]
00000000: 7480 94bd cd03 4abd b427 f6bd 1fd3 6dbd
00000010: a1c7 573f b196 2cbd 2bbd adbd af92 893b
00000020: 5695 62bc 0ade 04bd 8d8c 1bbd dc1e 20be
00000030: 3f4c 89bb 08ac 5e3f f975 65bd 5ac7 27bd
00000040: 935c 533d f588 0abc ea56 e939 8ec3 e8bc
00000050: 04c3 18be 6f74 bf3c fc14 633f fd1f 1abd
00000060: 653a a9bc 03d4 a43d 4e47 8d3c 2d09 2abd
00000070: 479c 733d bd14 083e 1872 613d af15 7e3f
00000080: c87d 553e 844a dd3c d0ee d13d 2a96 3a3e
00000090: 4214 f0bd 0dcb d93c 722e 273e c0fd 57bd
000000a0: c029 6d3f 9a8f 673e 4150 b0bd 68df 0a3d
000000b0: 540d 483e 04ac 10be b894 72bb 1308 f83d
000000c0: 41ac 91bd 21f4 643f 0c00 3c3e 0813 c7bd
000000d0: ed90 6c3c 65f3 233e ebd0 b1bd a49f 083c
000000e0: bfe5 a13d cd04 9dbc ff54 683f edce 033e
000000f0: 00d7 1abd 6256 40bb 0cf1 693d e497 f4bd
00000100: b645 fcbb b2b9 973d 6b55 99bd 0c9b 573f
00000110: cdd8 ba3d 2a4f ddbd 1842 acbd cb7f 31ba
00000120: 1050 1ebe edf1 27bd ef05 2d3d 54a7 dbbd
00000130: d29a 503f 9376 903d a7e9 08be 61b9 b0bd
00000140: 42bd 06bc
-0.07251063 -0.04932003 -0.120192915 -0.05806267 0.84288985 -0.042135898 -0.084833466 0.0041983943
-0.01382955 -0.032438315 -0.037975837 -0.15636772 -0.0041899974 0.8698125 -0.05602071 -0.0409616
0.051601958 -0.008455505 0.0004450598 -0.02841356 -0.14918143 0.02337095 0.88703895 -0.037628163
-0.020657727 0.080482505 0.017245915 -0.041512657 0.05947521 0.13289161 0.05504045 0.99251837
0.20848763 0.02701307 0.10250628 0.18221346 -0.11722614 0.02658608 0.16326311 -0.05273223
0.9264183 0.22613373 -0.08609057 0.033904463 0.19536334 -0.14128119 -0.0037014913 0.12110915
-0.07112933 0.8943501 0.18359393 -0.09720427 0.01443885 0.16010816 -0.08682426 0.008338843
0.07905149 -0.019167328 0.90754694 0.12871905 -0.037802696 -0.0029348363 0.057114646 -0.11943033
-0.00769874 0.074084654 -0.07486995 0.8422096 0.09123383 -0.10806115 -0.08411044 -0.0006771057
-0.15460229 -0.041002203 0.042241987 -0.10725275 0.8148624 0.07053866 -0.13370381 -0.08629108
-0.0082238335

TSA.conv.bias f4 [3]
00000000: 8264 57bd 163a 14bd 64f4 c0bc
-0.052586086 -0.036188208 -0.023554035

FPN.0.weight f4 [3]
00000000: cba4 573f 5d4d 803f 4fa8 593f
0.8423583 1.0023609 0.85022444

FPN.0.bias f4 [3]
00000000: ee83 83bc a667 32bd 6168 a3bc
-0.01605412 -0.043555878 -0.019947233

FPN.0.running_mean f4 [3]
00000000: cdcf f33e e041 d93e d8f1 c23e
0.47619477 0.4243307 0.38075137

FPN.0.running_var f4 [3]
00000000: e1b3 333d 485d 873d 6b9f 233d
0.043872718 0.06609589 0.039946955

FPN.1.conv.weight f4 [4, 3, 3, 3]
00000000: 3114 acbd 56ad 473d 5772 1fbe b67a 0f3e
00000010: 236a 92bd 9204 f73d 3c48 1ebd 4711 b13d
00000020: 86fb ab3d 3cb3 8abd deb3 4cbe 6971 bebd
00000030: 0992 04bc 13ae 0f3d 2489 35be 18fd 5b3e
00000040: fd8a 823e ce7b 0a3e 059d 95bd 94b2 81be
00000050: 74c9 85bc 16f0 a2bd 65be 02bd 227a 473d
00000060: b246 24bc 6373 5a3e 9419 c1bd 37a6 303d
00000070: ce1d 37be 0687 083e 7b3d 0abe 74d6 dcbb
00000080: 3d9f 0cbe 52ab 14bd 608d 13be 7d4e 243e
00000090: 8e49 dbbd 3dde 55be 6961 3dbe b7c4 38be
000000a0: eac7 e8bd 3f29 85be 6dd9 dd3d aff9 4abd
000000b0: 4ccc 03be 059f 4d3c ecfa 13be 48ca 933c
000000c0: 1e29 303e 88b0 aa3d 1962 503e e0c0 203e
000000d0: c7a8 cc3d 054c aa3c d827 d53d f97e b33d
000000e0: 6afe afbd 08ca c93c 7d69 2f3e ea61 ecbd
000000f0: d611 173d 63e4 ac3d ada0 fd3d 263b dcbd
00000100: d3ca e23d 8455 b83c b68b b9bc 1370 ecbd
00000110: 1506 cebc e455 393d 6e35 cb3d ee26 b1bd
00000120: f4ca 36be fae2 1bbe 98f6 c1bd e6ba 16be
00000130: 9fa5 60be 5038 0dbd c469 13be 06b4 e0b9
00000140: 7bf9 93be fde2 8f3d 954a 0dbe 4cee a23d
00000150: 869f fe3d f98a b3bd 405e 96bd 88f1 243e
00000160: f0d6 25be bd95 6bbe ab53 8f3d 5123 abbd
00000170: 4ffb 1c3e a52f c93d 9acc 913d fa47 7a3e
00000180: a776 9f3d 4029 c73d eece 223e fa3a 84be
00000190: bc2a ee3d 72d6 c53c c9fa a23d 852e 8f3c
000001a0: 4f4d 103c 932c f33d 801b 063d fef5 dcbb
-0.08402289 0.04874929 -0.15570961 0.14011654 -0.0714915 0.120614186 -0.038643107 0.086458735
0.08397584 -0.067724675 -0.19990489 -0.09298975 -0.008091458 0.03507812 -0.17728096 0.21483266
0.25496665 0.1352379 -0.0730534 -0.25331557 -0.016331412 -0.07955949 -0.031919856 0.04870046
-0.010026621 0.21333079 -0.09428707 0.043127265 -0.17882463 0.13332757 -0.13500015 -0.006739432
-0.1373262 -0.036296196 -0.14409399 0.16045566 -0.10707389 -0.20885558 -0.1849419 -0.18043791
-0.113662556 -0.2600803 0.10832486 -0.049554523 -0.12870902 0.01255012 -0.14451188 0.018040791
0.17203185 0.08334452 0.20349921 0.15698576 0.09993129 0.020788202 0.1040799 0.087644525
-0.085934475 0.024632469 0.17130084 -0.11542113 0.036882244 0.08441999 0.12384162 -0.10753469
0.11073842 0.022501715 -0.022649627 -0.11544814 -0.025149385 0.045247927 0.099223 -0.086500034
-0.17850858 -0.15223303 -0.09470862 -0.14719734 -0.2193818 -0.034477532 -0.14395815 -0.00042858737
-0.28901276 0.070257165 -0.13797982 0.07955608 0.124327704 -0.08766741 -0.073421955 0.16107762
-0.16195273 -0.2300634 0.0699838 -0.083563454 0.15330242 0.098235406 0.07119103 0.2444152
0.07786303 0.09724665 0.1589925 -0.25826246 0.11629245 0.024150107 0.0795799 0.017478237
0.008807494 0.11873736 0.03274107 -0.0067431917

FPN.1.conv.bias f4 [4]
00000000: 2824 df38 5b68 3e33 a259 8d30 8db4 bbb3
0.00010640203 4.4332733e-08 1.0284575e-09 -8.740708e-08

FPN.1.bn.weight f4 [4]
00000000: 0a51 603f d98a 683f 1c8b 663f aa60 823f
0.87623656 0.90836865 0.90056014 1.018575

FPN.1.bn.bias f4 [4]
00000000: 756f 0dbd 5fab 97bd aa32 e3bd 75d0 8dbd
-0.03453012 -0.07405733 -0.11093648 -0.06924526

FPN.1.bn.running_mean f4 [4]
00000000: 9b03 4d3b f8b0 113d da98 823c b408 e9bc
0.0031282667 0.03556916 0.015942026 -0.028446533

FPN.1.bn.running_var f4 [4]
00000000: 7111 4d3e 4d29 373f 009c 1e3f 818e 003f
0.20026185 0.71547395 0.6195679 0.50217444

FPN.3.conv.weight f4 [6, 4, 3, 3]
00000000: 6b4b 94bd f9b8 7ebc afc6 fe3d a241 a23c
00000010: 7dea 1d3d 7c90 dcbd 03f9 a53d cc42 833e
00000020: a2e9 453e 8326 e93b b328 ad3d 90bb 31be
00000030: 4cee adbd 546f 06be bbd4 903d 840f 743c
00000040: 474c ed3b ff4c 0d3e 06c1 6f3d e04b 343d
00000050: 7402 27bd dfdf f7bd a358 91bd 7250 09be
00000060: 6dc1 053e 2f4f 463e d47a 27be 218e 8abd
00000070: 16c9 0bbd 541e 683e 84bd 5cbe 6329 dbbd
00000080: 68c8 423e f286 353d c875 f5bc 3038 4c3e
00000090: 80c1 993d b025 d1bd 343c f63c 192e d93d
000000a0: 252b 073d 732e 67bc 09a6 17be 3d9a 1dbe
000000b0: b52f fe3d 30ca 3d3e dcf6 1a3e 6865 8a3d
000000c0: 61cf 9f3d 57df f3bd a1da 313e 8a97 4f3d
000000d0: 3f4c 3fbe 2622 fa3d d83d d23c c21c e3bd
000000e0: 7e91 44bb de92 12be 1c85 27be b983 04be
000000f0: 2854 44bd 410b e5bd efa0 013e 0911 8fbb
00000100: 595b 3a3e 18cf cb3d fe4f 48bd f64a ed3d
00000110: b377 d13d 73af 2dbe 4c7c 37be d868 01be
00000120: 4045 6a3e 88ed 59bd ab2e b53d d16f 843c
00000130: 6616 5b3d 27b1 123e 5d66 92bd 1931 12be
00000140: 7484 babd 3a39 3bbd 30b4 853d 4d6e 18bd
00000150: 56fe 7ebd fc2e 03be 95a0 1c3c 5bbd fa3c
00000160: fcfa 04be c180 bb3d 74bf bf3d dcb8 a9bd
00000170: d63a 5abc 8707 113d 1316 c53c 980c 50be
00000180: 75e0 4e3e bb36 b9bd e02a 0d3d 26f5 533e
00000190: f10d 2b3e aedf f7bc 5665 0d3d 44f1 04be
000001a0: 15ed a43d c562 33be 3ea9 2cbe 4b4b d8bd
000001b0: f3b9 8d3d 0ac7 6c3d 5177 62bd 2d30 f0bc
000001c0: 47a6 143e 965d 723d 3da1 dc3b f838 f73c
000001d0: 4972 9bbd 4568 023e 9c4c f53d d98c f4bc
000001e0: c0f7 803d 3153 a03d 673e 433e caa8 e83b
000001f0: 6340 a13d 6439 1e3d 38e7 99bd 80c8 043e
00000200: 9b99 e3bd 0058 e23d c9c7 073e 4f2e 33be
00000210: 0ba3 f93b c433 6dbd 1c4f 32bd 9dc9 e03c
00000220: d188 2fbd 5788 b7bd 01b4 01be 1f76 a6bd
00000230: 12cb 3c3e 8336 cebd bf0f 413e 464b 663e
00000240: 6e6c 513d 9c5b 6e3d 4d30 1c3d e3e3 0f3a
00000250: c2a4 3c3e 6ef5 283d 5337 dbbd a72f 813d
00000260: c85c efbc 5c70 323e 364f 083e c502 9a3d
00000270: 2ce0 193e b63e 2d3e 8c1f ca3b e782 5d3d
00000280: 6f97 16bd 1cc0 e43d b505 013e 3119 193e
00000290: d33c f83c ef75 3c3e 4b7f 543d e73c 9b3d
000002a0: f5dc bfbd 118f 333e 4646 b13d 69a7 9bba
000002b0: 9755 d83c 30d4 81bd 0015 ae3d 00ab 333e
000002c0: 2c61 893d 9abe 113e 5992 5b3e e24c 9abc
000002d0: 051f 003c 8874 1fbe e787 a0be f330 85bc
000002e0: e040 783d 71a4 68bd 9ef6 da3c cb87 0a3e
000002f0: 0cf1 903d 99c2 713d ec54 c7bc edd0 5dbe
00000300: 37bb 3c3e db6e b7bd 8369 0dbe 46ce 7fbc
00000310: b3e2 b13d d407 bfbd 4b37 5b3e b456 ce3d
00000320: 0fae dfbd e2bd 06be 9e71 883d 6d8a d93c
00000330: a99d dc3c 149e cdbd a4ae cabd 6175 08be
00000340: c067 95bd efd0 84bd 447c fbbd 2363 19be
00000350: 4931 f13a 1d30 aabd f8f7 d4bd 05f9 4ebd
-0.07240947 -0.015547031 0.1244024 0.019806687 0.038553704 -0.10769746 0.08104136 0.256369
0.19327405 0.0071151867 0.084550284 -0.17356706 -0.08492717 -0.13128406 0.07071825 0.014896277
0.007241759 0.13798903 0.05853369 0.044017673 -0.040773824 -0.12103247 -0.07096984 -0.13409594
0.13062067 0.19366144 -0.16355449 -0.0676539 -0.034127317 0.2266782 -0.2155667 -0.10701253
0.19021761 0.044318147 -0.029963389 0.19943309 0.0750761 -0.102122664 0.030058004 0.106044956
0.03300013 -0.014110195 -0.14809431 -0.15390868 0.12411443 0.1853416 0.15133232 0.06757623
0.07803226 -0.11907833 0.17368557 0.05068163 -0.1868143 0.122135445 0.025664255 -0.110894695
-0.0029993947 -0.14313838 -0.16359371 -0.12940873 -0.04793182 -0.11183787 0.12659048 -0.0043660444
0.18198909 0.099516094 -0.04890441 0.11586563 0.10227909 -0.1696146 -0.17918509 -0.12637651
0.2287798 -0.053205043 0.08846792 0.0161666 0.053488158 0.14325391 -0.071484305 -0.14276542
-0.09107295 -0.045708872 0.06528509 -0.037214566 -0.062254272 -0.12810892 0.00955977 0.03060787
-0.12986368 0.09155417 0.09362689 -0.08287212 -0.013319692 0.03540757 0.024058377 -0.20317304
0.20202811 -0.09043642 0.034464717 0.20698985 0.16704537 -0.030258026 0.03452047 -0.1298266
0.08053032 -0.17518146 -0.16861436 -0.10561236 0.069202326 0.057807006 -0.05528957 -0.029319847
0.14516555 0.05917128 0.0067330883 0.030178532 -0.075901575 0.12735088 0.11977503 -0.029852318
0.062972546 0.078283675 0.19066773 0.0071001993 0.07873609 0.03862895 -0.075148046 0.1296711
-0.11113282 0.11051941 0.13259806 -0.17498134 0.007618313 -0.057910696 -0.043532476 0.027439887
-0.042855088 -0.08961552 -0.12666322 -0.081279986 0.1843684 -0.10068991 0.18853663 0.22489652
0.051128797 0.058192834 0.038132 0.0005488975 0.18422225 0.041249685 -0.10703912 0.06307917
-0.029219046 0.17425674 0.13311467 0.075200595 0.15026921 0.16918454 0.0061683115 0.054079916
-0.036765512 0.111694545 0.12599833 0.14951016 0.03030244 0.18404363 0.05187921 0.075799756
-0.09368316 0.17535044 0.08655982 -0.0011875454 0.026408 -0.063393 0.08500099 0.175457
0.06707987 0.14232865 0.21442546 -0.018835489 0.007819896 -0.15571797 -0.31353685 -0.016258692
0.060608745 -0.05679745 0.026728924 0.13528363 0.07077226 0.059023473 -0.024332486 -0.2166173
0.18430792 -0.08956691 -0.13809781 -0.015613144 0.086858176 -0.09327665 0.21407811 0.10075131
-0.10921871 -0.13158372 0.06662296 0.026555264 0.026930647 -0.10039917 -0.09896591 -0.13326026
-0.07295179 -0.064851634 -0.12279561 -0.14979224 0.0018401529 -0.08309958 -0.10398859 -0.050530452

FPN.3.conv.bias f4 [6]
00000000: 33c6 bd38 6273 f5b3 b7cf 79b1 71e4 ad38
00000010: 5ef1 01b0 8496 3733
9.04914e-05 -1.14296896e-07 -3.6352341e-09 8.2918334e-05 -4.727293e-10 4.27449e-08

FPN.3.bn.weight f4 [6]
00000000: b5df 813f 3749 913f aeeb 6f3f 23b5 8a3f
00000010: 923b 793f 6c4b 813f
1.0146395 1.1350468 0.93718994 1.0836529 0.9735652 1.0101142

FPN.3.bn.bias f4 [6]
00000000: 0b68 01be 67d9 2bbd d8d6 14bd 8a92 9abd
00000010: 4140 9fbd 2005 1e3d
-0.12637345 -0.041955378 -0.036337703 -0.07547481 -0.07775927 0.038579106

FPN.3.bn.running_mean f4 [6]
00000000: 6e41 1c3e b6b0 71bd 527b 45bd 7d39 793e
00000010: 0892 263f 47dd a9be
0.15259334 -0.059006415 -0.04821331 0.24338336 0.65066576 -0.33176634

FPN.3.bn.running_var f4 [6]
00000000: 1f33 e63d a472 893d b87a 873d 2d87 d73d
00000010: 2b66 da3e 5d98 c53e
0.11240219 0.06711319 0.066152036 0.105238296 0.42656073 0.38592806

ConvLSTMLayer.cell.conv.weight f4 [32, 14, 3, 3]
00000000: 61d9 54bd 913a b3bd 0bf2 263e 4e43 83bd
00000010: 1257 883c ba64 3c3e 56ec 2cbd a49c 913d
00000020: 48e4 003d b485 b1bd bfa2 a0bb 5663 6c3c
00000030: 0a26 d1bd 16f6 aabc 160f b83d 8952 03be
00000040: af71 763d 8a2d 893d 6ec8 47bd 472e 783d
00000050: b255 aa3c 90d6 d4bc a2d4 4bbd 2d13 be3c
00000060: 4f6b 7fbd 5a34 da3c 6bdb 8c3d 6b71 23bd
00000070: 8933 9dbd c557 63bd 63f3 01bd d7b1 8f39
00000080: 85f9 e1bc 8bdd 9a3d e956 f0bd 9cae ddbc
00000090: 6ec1 cabc c1d5 99bd 78fe 19bd 5507 31bc
000000a0: 5abb 7fbd 1021 0bbe 80aa 6d3d 274a 903c
000000b0: b2f0 c5bd 00a6 4d3d 8cb8 d1bc bb3d 26bc
000000c0: 216a 9e3d 8d14 c43d c20e b53d 8ef0 6b3d
000000d0: ae8d 9738 8350 193c 8b3d 743c 4405 4cbc
000000e0: f30a f03b d125 983d 4ca9 c43c 6ff9 abbd
000000f0: 3e6e 5e3b 6c6a 25bb c7c4 8bbc 0ac2 4cbd
00000100: 8197 66bd 8165 69bd bb98 523d 403b ee3c
00000110: bf8d 003d 4424 71bd 4488 e0bd f9ff 9b3d
00000120: d8f8 e93a 441e bfbd 38ad a4bd 1ca5 323b
00000130: 91b4 6b3d 1ac2 a23d 786e 14be 97f0 17bd
00000140: 8baa 01be 2304 b1bd e7cc a43c 12ad 0abc
00000150: fdc2 173c dd09 203d ec85 57bc ed56 603e
00000160: fae6 2c3e f1b1 963e 5eee f93c 1652 703d
00000170: caf1 e33c ab80 3a3e e61e 023e 51f6 003d
00000180: cdaf a83e 5960 783e c443 3e3e d6b7 dc3c
00000190: ef0f a93d b54d a63d 018c 043c d85a 47bd
000001a0: 3fe6 443b 823c abbc 2ca4 71bd c6cf 3e3c
000001b0: 6997 9ebc cd3a a1bc fe3a 88bc b4a7 fa3c
000001c0: dd40 ccbd 0359 c3bd 85db a0bd 645d 19be
000001d0: a5b7 0cbd 9706 a8bb 8f2c b43b c764 4d3d
000001e0: 96f2 d0bd 48b6 1c3c 8f8c 3e3d 4944 06be
000001f0: 3919 94bd 9aad 8f3d 5f16 ee3d bfcb c23d
00000200: af55 e1bc dd79 f3bc 25e0 ec3d 6d68 813d
00000210: e5e6 30bc 6566 c93d aac3 7b3e ea35 1f3e
00000220: 9708 e2bc ff70 173d d427 b4bd edb1 1d3e
00000230: ff33 213d 2b6a 3abb a52a f93d 77cc 683d
00000240: d78e 4f3e 5060 803d 2416 223e 663c 99bd
00000250: e8ba 763d 5868 a8bd 196d 33bd e451 a9bd
00000260: 8601 0dbd a0c7 90bc 24d0 153e 3314 aa3d
00000270: b864 373d ad01 0d3e 3c7e bc3d 6a57 2fbd
00000280: 5845 053e cba8 073e cfa5 bb3b 588f cf3d
00000290: 9f11 41bd ad47 95bd d6b8 833c dd60 20bc
000002a0: 132f a1bd cfd2 cbbd 1596 a63c 43a2 a0bd
000002b0: a40e f9bc 09e5 75bd f537 ca3c 47f9 67bb
000002c0: c3c6 923d 913a 97bc 1507 3e3b 62ac b0bd
000002d0: 931a eb3c ca3b 9fbc eb3b aa3c 72d8 5d3d
000002e0: 87ef 933d 3eca ff3d ef3c e83d 4da0 6d3e
000002f0: bf1b 4b3d 2a2c fe3d 027c 663c 7b8f fabd
00000300: 1067 5cbc 4d70 c4bd bde6 8e3c 81db e8bd
00000310: 9114 0ebe ed4f 18bc 484a bf3d c046 82bc
00000320: c2c3 7bbe 09f7 f3bd 6bfc cc3a 93de d1bd
00000330: b2d1 a83b 3a15 a1bd 18ff 2bbc 4b39 523d
00000340: 4679 1abc 1faf fc3d 85e0 1f3e 0b4c a33b
00000350: 1a74 013d 6012 593b d14e 24bc c058 a63c
00000360: d672 a5bd 6fd5 1f3e 7ece e4bd fea7 69bd
00000370: f4b2 d93c 1f89 3a3d 9d11 83bd a467 10be
00000380: 6073 be3b 74e2 e4bd a767 373d eb4c ae3c
00000390: cb9b cbbd 500b 84bd a301 02bd 0522 ae3c
000003a0: 4758 d13d 8b63 733c d842 82bd 1a56 02bc
000003b0: 9c6e 313d 7fbb 123e 7bd8 5e3d 26e7 aa3c
000003c0: f8d2 023e 2b75 51bd cadc e23c 8feb 64be
000003d0: 2537 173c 6700 5e3e a283 043d 6d2c d7bd
000003e0: 3cf2 01be 33fd 373c fd86 58bd ffb3 49be
000003f0: 0020 003e c856 3f3d e1b0 263e 812b ad3d
-0.05196512 -0.08751405 0.1630327 -0.06409322 0.01664308 0.18397799 -0.042217575 0.07109955
0.031467706 -0.0866808 -0.0049022133 0.01442798 -0.102123335 -0.020869296 0.089872524 -0.12824453
0.06016701 0.06698139 -0.04877513 0.06059101 0.020792816 -0.025981218 -0.04976333 0.023202503
-0.062358197 0.026636291 0.06877788 -0.039903086 -0.07675845 -0.055503625 -0.031726252 0.00027407586
-0.0275848 0.07561787 -0.11735327 -0.0270608 -0.024750438 -0.075114734 -0.037596196 -0.010804971
-0.06243453 -0.13586831 0.05802393 0.017613484 -0.096650496 0.050207138 -0.025600694 -0.010146554
0.07735086 0.09574232 0.088407055 0.057602458 7.226631e-05 0.009357574 0.014907251 -0.012452427
0.007325524 0.07429088 0.024006508 -0.08397185 0.0033940221 -0.0025240434 -0.017061604 -0.049989738
-0.05629683 -0.056981567 0.051415186 0.029080987 0.03138518 -0.058872476 -0.109634906 0.07617182
0.001785065 -0.093319446 -0.08040851 0.0027259057 0.05754525 0.07947178 -0.14495265 -0.03709468
-0.12662713 -0.08643367 0.020117236 -0.008464115 0.009262797 0.039071906 -0.013154488 0.2190816
0.16884986 0.29432634 0.03050917 0.058672033 0.027825255 0.18213145 0.127071 0.031484906
0.32946625 0.24255504 0.18580538 0.026943129 0.08254992 0.0812029 0.00809002 -0.04867062
0.0030044464 -0.020902876 -0.058994457 0.011646217 -0.019359307 -0.019681359 -0.016629692 0.030597545
-0.09973309 -0.09538462 -0.0785437 -0.14977032 -0.034354825 -0.0051277387 0.005498476 0.050144937
-0.102025196 0.009564944 0.046520766 -0.13111986 -0.07231373 0.07015534 0.11625361 0.09511518
-0.027506677 -0.029721195 0.1156619 0.06318746 -0.010797237 0.09833983 0.24586359 0.1554791
-0.027591987 0.036972996 -0.08796659 0.15399905 0.039356228 -0.0028444629 0.12166337 0.056835618
0.20269333 0.0626837 0.15828758 -0.07482223 0.06023684 -0.08223027 -0.043805216 -0.082675725
-0.03442528 -0.017673314 0.1463018 0.08304634 0.044773787 0.1377017 0.09203765 -0.042807974
0.13014734 0.13247983 0.005726553 0.101347625 -0.047135945 -0.07289062 0.016079348 -0.009788719
-0.07870307 -0.09952318 0.020335237 -0.07843449 -0.030402489 -0.060032878 0.024684886 -0.0035396384
0.07166817 -0.018460544 0.002899592 -0.086266294 0.028699195 -0.01943769 0.020780524 0.054161496
0.072234206 0.124897465 0.11339747 0.23205681 0.049587008 0.124107674 0.014067652 -0.12234398
-0.013452306 -0.09591732 0.017444009 -0.11369992 -0.13875033 -0.0092964 0.0934034 -0.015902877
-0.24586394 -0.119123526 0.0015639191 -0.10247531 0.0051519508 -0.07865377 -0.010497831 0.05132417
-0.009428328 0.12338089 0.15612991 0.0049834303 0.031604864 0.0033122525 -0.010028557 0.020305991
-0.08078544 0.15608762 -0.11172198 -0.057044975 0.02657459 0.045540925 -0.06399844 -0.14102036
0.0058120936 -0.11176005 0.044776585 0.021276912 -0.099418245 -0.0644747 -0.031739842 0.021256456
0.10221916 0.014855276 -0.06360406 -0.0079550985 0.043318376 0.14329337 0.05440567 0.020862173
0.1277579 -0.05113713 0.027693171 -0.22355483 0.009229456 0.21679841 0.032352097 -0.105065204
-0.12690061 0.011229801 -0.05286311 -0.1969757 0.12512207 0.04671362 0.16278411 0.08455563

ConvLSTMLayer.cell.conv.bias f4 [32]
00000000: e130 9c3c c8ad d7bc f090 7c3d 8b03 c33c
00000010: 89dd 3e3d 64cc cc3c eef2 a63a 2ef5 9a3d
00000020: cdd6 4d3d 1560 b13d 1e0c 133e 31bd 8a3d
00000030: 8d61 fc3d 9786 983d 430b 1e3d cae3 e63d
00000040: d2f3 9d3c ccf4 a6b8 1f69 9e3d 20b5 953d
00000050: dd56 373d a772 173d db90 163d 1470 6a3d
00000060: df13 02bd 21d7 14bd 4490 a53b 8df2 683c
00000070: 4d54 163d 1d6a 893c 3dc8 34bc 3562 3c3c
0.019066276 -0.026327983 0.06166166 0.0238054 0.04659799 0.024999805 0.0012737194 0.075662956
0.050253678 0.08660904 0.14360091 0.06774367 0.12323294 0.07447546 0.03858496 0.11273916
0.019281302 -7.961094e-05 0.07734894 0.073099375 0.044760574 0.036974575 0.03675924 0.057235792
-0.03175723 -0.036337975 0.005052598 0.014217985 0.03670149 0.016774232 -0.011034069 0.011498024

Classification.0.g.0.weight f4 [4, 8, 1, 1]
00000000: 9002 bc36 bddf 40b1 5577 99b0 7803 2937
00000010: cf9b 10b8 1d45 a5b8 17de 9f2f a3f7 5234
00000020: 5581 c428 b368 34b9 d2c8 4da9 939a 3bb4
00000030: 78d2 f134 c0e2 5936 917d 9d2f 234a 8a33
00000040: 8ce9 ef2c d50f 44b0 f81c b193 d1fb fcb2
00000050: 11c2 01b4 8f89 2030 ee11 c72c 0f3e ae29
00000060: 7af3 bc36 219d 1eb5 a7c6 022e f3b7 1138
00000070: 4722 3539 83f9 9ab6 82c9 db38 74d8 70b1
5.603135e-06 -2.8066858e-09 -1.1166131e-09 1.0073993e-05 -3.4477383e-05 -7.8806865e-05 2.9079736e-10 1.9647864e-07
2.181646e-14 -0.00017205141 -4.5693328e-14 -1.7471966e-07 4.5042884e-07 3.2467506e-06 2.8647354e-10 6.439611e-08
6.8187175e-12 -7.1326883e-10 -4.4709647e-27 -2.9451174e-08 -1.2084662e-07 5.8403143e-10 5.6579108e-12 7.737918e-14
5.631181e-06 -5.908824e-07 2.9735017e-11 3.474201e-05 0.00017274274 -4.6186046e-06 0.000104802675 -3.5047636e-09

Classification.0.g.0.bias f4 [4]
00000000: f92e 85b8 0600 b3ae 892d ef92 d9fe 14a7
-6.3506835e-05 -8.139982e-11 -1.5094246e-27 -2.067728e-15

Classification.0.W.0.weight f4 [8, 4, 1, 1]
00000000: e874 dc28 5268 c029 70af 8793 a128 e40d
00000010: 3af9 89b7 d48e a734 5a08 3ab5 b6eb 5030
00000020: 6316 6cb5 53c0 aab8 5172 ed27 e199 14a8
00000030: a20d 9235 a1d5 8833 69f6 ec26 4291 5026
00000040: a35a c8b5 3b6a 9eb8 7863 01b7 a9f4 52b4
00000050: b804 f9b2 a7f2 1838 66d3 ac35 3eaf 14b9
00000060: 970e b830 76b7 00b3 2b3e c635 bcbf 04b8
00000070: 427b 0db8 000f fab8 247f dcaf 0003 f736
2.4475607e-14 8.5446095e-14 -3.4251786e-27 1.4061366e-30 -1.6447728e-05 3.1210095e-07 -6.930255e-07 7.6004925e-10
-8.794943e-07 -8.142055e-05 6.5904656e-15 -8.2490176e-15 1.0881815e-06 6.3718524e-08 1.6442579e-15 7.236136e-16
-1.492754e-06 -7.553814e-05 -7.712159e-06 -1.9646781e-07 -2.8989561e-08 3.646561e-05 1.2876524e-06 -0.00014179663
1.3391909e-09 -2.996918e-08 1.4770243e-06 -3.164982e-05 -3.3731812e-05 -0.00011923723 -4.0108106e-10 7.361523e-06

Classification.0.W.0.bias f4 [8]
00000000: 84a3 9836 3cb4 5935 d6f9 b637 4fe2 1b39
00000010: e67e 5cb8 019b ccb7 eebd 20b9 5b33 3ab9
4.5489887e-06 8.1101075e-07 2.181243e-05 0.00014866258 -5.257027e-05 -2.4390874e-05 -0.00015329543 -0.00017757474

Classification.0.W.1.weight f4 [8]
00000000: 51ef ab9f f7ed 1a1e 85ed 199e bbf5 cb36
00000010: 26c6 651d ca03 2220 bf8b 67a0 6655 8f21
-7.281723e-20 8.201902e-21 -8.1488704e-21 6.0784782e-06 3.0410338e-21 1.3723187e-19 -1.9612699e-19 9.712662e-19

Classification.0.W.1.bias f4 [8]
00000000: 410e d936 45c2 8438 d204 b237 9569 29b6
00000010: 5a27 39b3 2314 92b4 136d 43b9 3ca2 1534
6.4687633e-06 6.330436e-05 2.1221498e-05 -2.524442e-06 -4.310946e-08 -2.720927e-07 -0.00018637282 1.3935727e-07

Classification.0.W.1.running_mean f4 [8]
00000000: 4bc3 fab4 76de 82b4 9c0a f5b5 3e0f 32b7
00000010: e83a ae36 4386 8a35 f4e5 9b37 3843 ae37
-4.6708223e-07 -2.4376249e-07 -1.825701e-06 -1.0613176e-05 5.1924617e-06 1.0320877e-06 1.858452e-05 2.0773718e-05

Classification.0.W.1.running_var f4 [8]
00000000: 1899 9e15 e4cd 0316 989f 8017 f662 d119
00000010: 6726 a517 4b08 5618 1006 ab17 36d8 e119
6.405723e-26 1.0647063e-25 8.312093e-25 2.1650064e-23 1.0672569e-24 2.7663039e-24 1.1052146e-24 2.3351782e-23

Classification.0.theta.weight f4 [4, 8, 1, 1]
00000000: 123a b02f c394 75b8 1bdc fab4 a7ca b8ae
00000010: 55e9 6b38 3753 b0b6 3ac0 7e31 78e4 5338
00000020: 1e51 662e 07ac 58b6 61fe e529 e7fb 7036
00000030: 1b4c f6a7 adfc 892a 4abe 522d ffd3 baa7
00000040: 87b3 d436 ec91 1435 c652 3033 80c2 adb6
00000050: 0416 9738 d0b2 08b8 0d22 b9b7 d848 6c2e
00000060: a38e 1db0 28cf 16b6 8672 a327 9d10 a9b6
00000070: 82da 0837 2eac cab6 8164 9bb2 f91a 68b1
3.2055475e-10 -5.8551097e-05 -4.6726277e-07 -8.4033495e-11 5.6245673e-05 -5.254896e-06 3.7071133e-09 5.05191e-05
5.2367992e-11 -3.2286641e-06 1.02137706e-13 3.5909413e-06 -6.836123e-15 2.4511418e-13 1.1979371e-11 -5.1855217e-15
6.338992e-06 5.534664e-07 4.1053475e-08 -5.1784446e-06 7.204342e-05 -3.259146e-05 -2.2069575e-05 5.3724886e-11
-5.7318966e-10 -2.2472323e-06 4.5365755e-15 -5.0385265e-06 8.157107e-06 -6.0401135e-06 -1.8090079e-08 -3.3775776e-09

Classification.0.theta.bias f4 [4]
00000000: a0ca 332a 68ed 98aa d867 9bb8 bd4c 1ab9
1.5968693e-13 -2.7165358e-13 -7.410318e-05 -0.00014715172

Classification.0.phi.0.weight f4 [4, 8, 1, 1]
00000000: fc4e f4b0 9607 a1b0 6370 4c35 a511 06b7
00000010: ef0a 83b6 09c9 8038 9c4e f4b3 9785 4032
00000020: 70fc c5b7 b300 ef31 b873 2fb7 5f51 02b9
00000030: da7b 09b6 f30f 1d37 b4b3 b6b9 0e72 1fb6
00000040: bbce ddb5 cd6e 9838 19dd 9437 9a0c 0436
00000050: 09e5 cf34 5212 3937 d561 33b6 b580 0a2f
00000060: 0123 6733 ce19 1533 28f6 e832 c535 3eb6
00000070: 5d0c 83b6 d5fe a937 ccae 2eb8 b9d3 1eb5
-1.7775785e-09 -1.1716448e-09 7.6159466e-07 -7.991131e-06 -3.905377e-06 6.140961e-05 -1.13764344e-07 1.1206246e-08
-2.360178e-05 6.955895e-09 -1.0457756e-05 -0.00012428079 -2.0486682e-06 9.361643e-06 -0.00034847634 -2.3759235e-06
-1.652595e-06 7.268563e-05 1.7745931e-05 1.9676868e-06 3.87234e-07 1.1031125e-05 -2.6730024e-06 1.2596753e-10
5.3815715e-08 3.4715235e-08 2.7120294e-08 -2.8343504e-06 -3.9055435e-06 2.0265035e-05 -4.1647625e-05 -5.9167684e-07

Classification.0.phi.0.bias f4 [4]
00000000: 0737 e82d a2b0 0428 72c4 c838 2687 aca1
2.6399783e-11 7.365773e-15 9.573334e-05 -1.1690947e-18

Classification.2.conv.weight f4 [10, 8, 2, 2]
00000000: 5909 163d ce00 013e 7430 423e 8ee3 15bd
00000010: 6929 d93c 5a21 5f3e 2cdb d5bd 4736 bc3d
00000020: 4afe 92bd a522 3c3d 2d08 fd3d 3bc5 46bd
00000030: 8af1 7d3c 5435 83bd 95dd c8bd f2dc dabb
00000040: eb0b cbbd d1f6 e03b 1bb1 303e 94d6 03be
00000050: 34bb 14be 5c1b b0bd 07b2 1e3e 26e3 bf3d
00000060: 6032 3cbe 21e9 4c3c 1f3d d73b 8656 24bd
00000070: 81ae 0b3e 9b09 39bd 5b3d 053e 472b 58be
00000080: 1228 8e3d 542a 14bd cd76 d53d 74e3 573a
00000090: 18e2 dc3b 94cc 903d 92ba 6cbc f1b8 70bd
000000a0: 5e4a 58be 61c9 87bd f785 eb3d d06c 6a3b
000000b0: 845c 823d 6d9f b43c 5967 9cbc e50c 3bbe
000000c0: 8d25 d3bd c280 dabd 6689 373e 6558 9b3d
000000d0: 7eae 123e cad3 b73d 7eb6 19be aff2 ad3d
000000e0: 7db3 f03d f147 46be 53f7 253e c96b 2ebd
000000f0: 9e87 a2bd 8e57 573e ffa1 d4bc 602d 81bd
00000100: 6cfa fabd 084b 513e 9017 d13d 66f2 5cbd
00000110: 25fc 0b3d 6e74 653e 6dbc 5cbe 4a07 9b3d
00000120: 6467 d2bd faeb 02bd cee5 bd3d f9b3 d73d
00000130: 52f7 5cb8 6a68 923d 8804 cfbd 7b68 123d
00000140: 5517 3bbe 0b6c 053e 1043 a63d 4a3e d2bc
00000150: 3129 b9bd b4eb a3bc 8bf2 b1bc 7acd 3c3c
00000160: d099 1fbe 9303 16be 88d7 93bd cf05 cf3c
00000170: 3092 5a3e e254 89bd bc61 32be ad99 6b3d
00000180: 1aa7 53bc 930e b43d 42eb 7f3d ae12 53bd
00000190: aeec d03d dd77 4e3d 8581 913d ddce 44be
000001a0: 83c1 91bd ff76 223e cf02 4bbd fa98 303d
000001b0: 9f8c 3d3e b3a9 babc 3970 23be 79f7 99bd
000001c0: c53f 29be 309a 0e3e e17d 293e 03b9 68be
000001d0: 7533 2fbc f43e 21be c676 723d 1190 b2bd
000001e0: 78f1 5fbe ced2 c03c a596 18bb c04a 0fbe
000001f0: f9f1 313e abc2 15bd 829c 78bd 61a1 43bd
00000200: d69a 62be e263 d4bb ebc0 60be 66ff 8fbd
00000210: 0916 3e3d f0e8 11bd 80ea 143c 3ef1 ab3d
00000220: 9382 213d 749e b5bb 80d4 203e 616f 5cbe
00000230: a224 163e d317 083e 92d2 1abd aaeb 0c3e
00000240: 191b 7d3d 8655 1a3e dc00 313c e267 8fba
00000250: 14d7 4d3d eea7 073c 9164 023d 4261 583d
00000260: bcf5 a63c 4a90 e0bd 02da 403d 8fe7 b5bd
00000270: a879 4bbe 34bd ecbb b76e 6a3d 0f8f 0b3d
00000280: a1d2 7dbc 9319 623d dc84 67bb 5f37 9d3c
00000290: 20e3 c03c dae6 b9bd 2500 e33c 1510 c9bd
000002a0: 8985 0abe 9b9d 90bd 7774 a13d 8495 85bd
000002b0: 54e0 1c3e fc44 a0bd 6215 e23d fe34 0dbe
000002c0: edb0 4abe ee10 99bd e7be fc3d cac5 32bd
000002d0: eeb6 143e b2d8 c9bd a315 8a3c 05cf 14be
000002e0: d94a e03d 84c3 68be cd81 5c3d 1a3d 283d
000002f0: 5b0e fdbd 1af1 4d3e c2a5 e4bd 4c63 c2bd
00000300: 25a8 5bbd e602 b6bc 806c dabd b288 a23d
00000310: 0f96 a93d 6634 073d 6217 253e 063e 01be
00000320: 8196 953b 5633 e03d 2a76 a43d 887d 4a3d
00000330: c8a8 813c e333 4dbd 97ab 22be 28cd 3b3e
00000340: 193a 13be 5018 51be d86e 113e 5501 3d3e
00000350: ab38 443c c858 a1bd e645 823e c518 f63c
00000360: f79a 1d3e 5b43 793b c867 723d efe7 283c
00000370: 4f3f f5bc 3149 4f3e 8368 88bd 6a8f 46bd
00000380: 9ca6 4fba f84d 7fb9 da97 953c 7ec3 703c
00000390: 2572 85bd cf61 09be 8b7c d7bd 5a11 193d
000003a0: 1d54 813c 66b0 7bbd dc6b f5bd 32c1 4e3e
000003b0: 90a1 dfbd 1f6a e3bc b897 5f3e b674 23be
000003c0: e712 0fbd 5809 713d 3731 23be 5410 cc3d
000003d0: 5ad1 ec3d d0d8 74bd 380a e6bd 25c4 17bc
000003e0: 6cf0 e9bd d408 26bd 9d41 303d 75a6 c5bd
000003f0: 5797 e8bc 0601 6d3d 958d 5c3e 1b95 ebbd
0.03663001 0.12597963 0.18963796 -0.036593966 0.026509004 0.21790066 -0.10442194 0.0919004
-0.07177408 0.045931477 0.12355075 -0.048527937 0.015499482 -0.06406656 -0.098078884 -0.0066791708
-0.099143825 0.0068653603 0.1725506 -0.12874824 -0.14524537 -0.085989684 0.154976 0.09369497
-0.18378592 0.012506754 0.0065685655 -0.040121578 0.13640787 -0.045175176 0.13011687 -0.21110259
0.069412366 -0.03617318 0.1042305 0.0008235492 0.0067408197 0.0707027 -0.014448779 -0.058770124
-0.21122119 -0.06630207 0.11500161 0.0035770424 0.06365302 0.022048676 -0.019092249 -0.18266638
-0.103098966 -0.1066909 0.17923507 0.07585219 0.14324376 0.089759424 -0.15011021 0.08493554
0.11752985 -0.19363381 0.16207628 -0.04258326 -0.07936023 0.21029493 -0.025956152 -0.06307483
-0.122547954 0.20438778 0.10209572 -0.053942107 0.03417601 0.22407696 -0.21556254 0.0756975
-0.102736264 -0.031963326 0.092723474 0.10532374 -5.2682422e-05 0.07148822 -0.10108286 0.03574417
-0.18270619 0.13029496 0.0811826 -0.025664467 -0.0904106 -0.020009853 -0.021722099 0.011523599
-0.15586019 -0.14649801 -0.07218844 0.025271324 0.21344829 -0.06705643 -0.17420095 0.057519604
-0.012918258 0.08791842 0.06248022 -0.051531486 0.10201393 0.05040728 0.07104782 -0.19219537
-0.071169876 0.15865706 -0.049563225 0.04311464 0.18510674 -0.022785997 -0.15960778 -0.07517905
-0.16528232 0.13926005 0.16551925 -0.22726826 -0.010693421 -0.15746671 0.059195302 -0.08718885
-0.21869457 0.02353802 -0.002328315 -0.13993359 0.17377461 -0.036562603 -0.060696132 -0.047761325
-0.22129378 -0.0064816335 -0.21948592 -0.07031135 0.046407733 -0.035622537 0.009089112 0.08395623
0.039431166 -0.0055425707 0.15706062 -0.21526863 0.14662412 0.13290338 -0.03779847 0.13761774
0.06179342 0.15071687 0.010803428 -0.0010940994 0.050253943 0.008279784 0.03183419 0.052827127
0.020380847 -0.10965021 0.04708291 -0.08882057 -0.19870627 -0.007224703 0.057234492 0.03407198
-0.015492112 0.05520017 -0.0035326993 0.019191442 0.023545802 -0.090772346 0.02771003 -0.098175205
-0.13527502 -0.07061311 0.07883542 -0.065226585 0.1531995 -0.07825658 0.11039235 -0.13789746
-0.19794054 -0.07473932 0.12341099 -0.043645658 0.14522907 -0.098557845 0.01685602 -0.14532097
0.10951776 -0.22730833 0.053834725 0.041073896 -0.12356254 0.20111504 -0.11164428 -0.094915956
-0.053627152 -0.022218179 -0.10665226 0.07936229 0.082805745 0.033008955 0.16122201 -0.12621316
0.0045650606 0.109472916 0.080303505 0.049436122 0.015827551 -0.05009831 -0.15885769 0.1833998
-0.14377631 -0.2041943 0.1420244 0.1845754 0.011976401 -0.07878262 0.25443953 0.030041108
0.15391146 0.0038034532 0.059181005 0.0103092035 -0.029937414 0.20242764 -0.06660559 -0.048476614
-0.000792125 -0.0002434774 0.018260885 0.0146950465 -0.06515912 -0.13416217 -0.105218016 0.037370063
0.015787179 -0.061447524 -0.11983463 0.20190886 -0.109194875 -0.027760563 0.2183522 -0.1596249
-0.034930136 0.0588468 -0.15936743 0.09964052 0.11563368 -0.05977708 -0.11232418 -0.009263073
-0.1142281 -0.040535763 0.043031324 -0.0965089 -0.028392477 0.057862304 0.21538384 -0.11503049

Classification.2.conv.bias f4 [10]
00000000: 1836 2d34 6ccd 00b6 e2d9 d935 141e d1b2
00000010: 0946 49b4 1464 c6b5 a206 d932 4809 14b9
00000020: 42dc 8cb3 adfd fcb1
1.613156e-07 -1.9193058e-06 1.6231172e-06 -2.434448e-08 -1.8745062e-07 -1.4781276e-06 2.5265141e-08 -0.00014117837
-6.559323e-08 -7.363005e-09

Classification.2.bn.weight f4 [10]
00000000: 736f 8a3f 6aa9 893f fb78 893f d78f 8e3f
00000010: 3729 5d3f 140e 893f ec06 7c3f f40c 863f
00000020: 18aa 8a3f ef90 6f3f
1.0815262 1.0754826 1.0740045 1.1137646 0.86391014 1.0707421 0.9844806 1.0472703
1.0833158 0.93580526

Classification.2.bn.bias f4 [10]
00000000: bff3 1d3b 4933 45bd 53f0 b4bc 29d7 46bd
00000010: 3db0 f13c 004a 2fbc 4b5f e4bc bbd6 9f3c
00000020: a3b8 18bc f8c9 723b
0.0024101583 -0.048144612 -0.022087252 -0.048545036 0.029502982 -0.010698795 -0.02787747 0.019511571
-0.009321365 0.0037046652

Classification.2.bn.running_mean f4 [10]
00000000: f57d 21bd 38df 3fbc 7c67 32bd 6e3c 3dbd
00000010: 599b 863d 9280 e7bc eaa5 3a3d dceb 31bd
00000020: d7e2 2cbd d43c 553d
-0.039426763 -0.011710934 -0.04355572 -0.04620021 0.06572599 -0.02825955 0.045568384 -0.043437824
-0.04220852 0.052059963

Classification.2.bn.running_var f4 [10]
00000000: 9f44 0a3c f532 113c f9d6 403c b17f 283c
00000010: 2c18 123c 43f1 143c bd3a 253c fcde 553c
00000020: 46dd 303c 2539 0b3c
0.008439212 0.008862247 0.0117700035 0.01028435 0.008916896 0.009090724 0.010084805 0.013053652
0.010794943 0.008497511

AUsLSTM.weight_ih_l0 f4 [600, 17]
00000000: ba75 063c 9032 133d 5a8d c23d 2902 debd
00000010: 9c29 113c fa39 91bd bf79 e03d e9c2 6dbd
00000020: 3457 0fbd d9aa 34bc 2b21 00bd 6b69 a8bd
00000030: 0d80 8c3d e4f7 0dbd 3773 993c 3a25 dabd
00000040: dff9 893a cd7b 4cbc b197 d43c 29f2 9bbd
00000050: 88ce f5bb c42a 8dbc f376 513d 132a 7b3b
00000060: f953 baba 7211 fc3c bf4b ed3b 2ddb 9b3c
00000070: e3ee c1bc eced 5f3d 6762 353d 1c03 013d
00000080: 8ded 27bd 67ec 69bd 5922 04ba 1ecf 98bd
00000090: ce56 a8bc 4ca6 91bd 33aa 28bd 6ea6 84bd
000000a0: 2b33 e1bc 9e3f 90bd 8713 20bd fd94 49bb
000000b0: c7db 58bd 79dc bb3c 0160 57bc ba2c 15bd
000000c0: 7eca 72bd 8cfd 483c c9cd 9c3c dfb6 c2bd
000000d0: 1f2c 773c ef67 e93d 8d00 14be dc62 99bd
000000e0: 5804 86bd 52d8 863d 614a 71bd 35cb f8bd
000000f0: 8eef 6d3d f3e7 b4bb 32a9 413d 648a a63c
00000100: fa86 c93c f5df 3fbd 0632 a8bd de1c 9abd
00000110: f446 8dbb 83ef 2a3d 689f d3bd 3787 9c3d
00000120: 0b41 9dbd 5117 28bc 2af8 69bd 66eb f9bd
00000130: dfdb 83bd 5b4e c7bd 22a7 5c3d 2e29 92bd
00000140: 482b 973c a032 bf3a 05ef a1ba 8e57 9ebd
00000150: c4f5 4cbe d9ed 8bbd 5810 34bb 908e 96bd
00000160: ff32 533a cc60 623c 3e12 bfbb 2f82 55bd
00000170: c19b 783c 99a1 463d 9ecf aabb 2333 20b8
00000180: f7e7 bdbc 7a1a b8bc 9074 e63b 335a 1238
00000190: 12b9 62bd 1b5c 94bd 7d71 11bd 3cd1 73bd
000001a0: 5f86 e2bc 016e d6ba e5b4 10be c5df 46bd
000001b0: 6e2e 45be 9444 08be 8877 e0bd 8c2e b2bd
000001c0: c014 86be 95f4 16bd 687c 253e 3093 653c
000001d0: bc69 a9be 9efd 31be 166a 8a3e 9487 6cbc
000001e0: e4e8 82bc 27dc 9abc cdcd adbd 7577 dfbd
000001f0: 4259 a6bd cda1 84bd def9 76bd 1cff 92bd
00000200: ef04 1fbc 7e34 c03c b0e6 3cbd 6d94 e0bc
00000210: ad18 76bd 09b5 1abc 04dc 3fbd a4f1 32bc
00000220: 8a44 263d 11a0 b53c f3fc 083d 2e65 07be
00000230: b1f7 0a3e 1e12 71bc b93c 34be fae8 bc3d
00000240: aaef da3d 6603 fcbd b75e 0dbe 7e14 b73c
00000250: d267 fa3d 2eff eebc 0e56 f43c 86c7 b2bd
00000260: 7782 5a3e 39b8 1d3d 0133 a3bc 4906 cdbd
00000270: a78c 2d3d 462f 553d 0019 283a 59f2 a3bd
00000280: 9648 69bd dc6d 84bb 055c c9bb 9389 90bd
00000290: 2722 50bd a605 58bd 5e0f 63bd db3f 8f3d
000002a0: 2cd7 bcbc 1700 e5bb 329a d13d 8a38 0c3e
000002b0: eb77 123e 5d3a b63c a466 8ebd 23b5 7f3d
000002c0: e0a1 923d 39c4 19be 3b2d 14be c07c 61be
000002d0: 810c 5f3b 7e2b 793d c023 7ebd e710 3dbd
000002e0: e029 e03c 82f4 623e e6ae 01bc ff1d 71bd
000002f0: 2350 68bd 2776 63bd 0773 98bd f0ea b23d
00000300: 947c f83c 25d4 bdbc 7db0 353d 1e7d d0bc
00000310: d6ef d8bd c672 f73c 1224 ccbd 0608 7dbd
00000320: f4c9 02be 48b7 3d3d ea28 17be ad56 b3bd
00000330: 7585 89bd 9492 ab3b 9c80 30bd fbb9 0ebd
00000340: ac7e 2abc c1a3 babc 0c8a 64bd 3ed8 81bc
00000350: ae60 c6bc dbba a6bc 699d 54bc 0fde 63bc
00000360: 6fad cfbc 187f 793b e28f 3ebd 7f00 11bd
00000370: 7321 78bc a9d6 2a3c 1644 d6bd 9fed 75bd
00000380: e234 463d 9463 a0bc 5191 093e b186 b4bd
00000390: 1fea 43be fd16 6ebd 4e11 3fbe 7aa0 0cbe
000003a0: 0133 d9bd 36a9 98ba e7fc 84bd 76e0 8abd
000003b0: 9b26 603b 117b ac3d 2c76 243c cb2c 563d
000003c0: 684a d03c 8bb7 c4bd 0051 8d3d 57a1 903b
000003d0: f10c 973d d5a2 c93c 96ac 28bc d5ef aabd
000003e0: 55a2 35bd bf9d 6c3a 3171 22bd 2765 453c
000003f0: 82bc 093d e5c7 2a3b d47b 9e3d fa42 a8bc
0.008206779 0.035936892 0.09499617 -0.10840256 0.008860018 -0.07091136 0.10960721 -0.05804721
-0.034995273 -0.011027061 -0.03128163 -0.08223232 0.06860361 -0.034660235 0.018731697 -0.10651632
0.0010526738 -0.012480688 0.025951238 -0.07614548 -0.007501427 -0.017232306 0.05113883 0.0038324639
-0.00142157 0.030770037 0.0072416957 0.01902541 -0.02367348 0.05467026 0.044283297 0.031497106
-0.04099803 -0.057110216 -0.00050405186 -0.074613795 -0.020549204 -0.07111797 -0.04117794 -0.064770564
-0.02749022 -0.07043384 -0.039081123 -0.003075897 -0.05294397 0.022932278 -0.013145448 -0.036419608
-0.059275143 0.012267482 0.019141095 -0.09507536 0.015086203 0.11396777 -0.14453335 -0.07489559
-0.06543797 0.065842286 -0.058908824 -0.12148134 0.058089785 -0.0055208146 0.047280498 0.020329662
0.024600495 -0.04684444 -0.08212666 -0.07525037 -0.004311437 0.041732322 -0.10333139 0.07642978
-0.076784216 -0.010259465 -0.057121433 -0.12203102 -0.064384215 -0.09731742 0.053870328 -0.07136761
0.018453255 0.0014587231 -0.0012354559 -0.077315435 -0.20015627 -0.06832475 -0.0027475562 -0.073514104
0.000805661 0.0138170235 -0.005831032 -0.052126106 0.015173853 0.048493955 -0.005212738 -3.8194597e-05
-0.023181899 -0.022473563 0.0070329383 3.4893117e-05 -0.055352278 -0.0724413 -0.03550862 -0.059525713
-0.027651964 -0.0016359688 -0.14131506 -0.048553247 -0.19255993 -0.1330741 -0.10960299 -0.08700284
-0.26187706 -0.036854345 0.16160738 0.014012143 -0.3308848 -0.17381904 0.27034062 -0.014436621
-0.015980192 -0.018903805 -0.08486519 -0.109114565 -0.08122493 -0.064761735 -0.060296886 -0.071775645
-0.009705766 0.02346253 -0.04611844 -0.027414525 -0.060082126 -0.009442576 -0.046840683 -0.010921869
0.040592708 0.022171052 0.033444356 -0.1322219 0.1357105 -0.014713792 -0.17601289 0.09224124
0.106902435 -0.12305336 -0.13805662 0.022348639 0.122268334 -0.029174414 0.02982619 -0.08729462
0.21338831 0.038505767 -0.019921781 -0.100109644 0.042370465 0.052047037 0.00064124167 -0.080052085
-0.05695399 -0.0040414166 -0.006145003 -0.0705749 -0.05081382 -0.05273976 -0.055434577 0.06994601
-0.02305182 -0.006988536 0.102344885 0.13693443 0.14303558 0.022244627 -0.06953171 0.062428605
0.071597815 -0.15016259 -0.14470379 -0.22020245 0.0034034553 0.060832493 -0.062045813 -0.046158697
0.027363718 0.22163585 -0.007915234 -0.058866497 -0.05671705 -0.0555326 -0.07443815 0.08736217
0.030332841 -0.023172447 0.044357765 -0.025450286 -0.1059262 0.030206095 -0.09967817 -0.06177523
-0.12772352 0.04631737 -0.14761701 -0.087567665 -0.06714908 0.0052359793 -0.0430914 -0.034845334
-0.0104061775 -0.022783162 -0.055795714 -0.015850183 -0.024216022 -0.020352772 -0.012976983 -0.013907923
-0.025351254 0.0038070139 -0.046523936 -0.035400864 -0.015144694 0.0104271555 -0.10462205 -0.060041066
0.048390277 -0.019578733 0.1343434 -0.08814753 -0.19132279 -0.058127392 -0.18658945 -0.13733092
-0.10605431 -0.0011647108 -0.0649355 -0.06781094 0.0034202698 0.084219106 0.01003794 0.05228881
0.025426105 -0.096053205 0.06900215 0.0044137645 0.07375515 0.024613777 -0.010295054 -0.083465256
-0.044344265 0.00090261915 -0.03965873 0.012048042 0.03362704 0.0026059088 0.07738462 -0.02053975

AUsLSTM.weight_hh_l0 f4 [600, 150]
00000000: 5268 c1bb ce3a 70bd 4964 8fba 7f88 7dbc
00000010: 279e e9bc 4302 043d 8a67 3c3c 712e d8bb
00000020: eecf e33c d0ea 45bc 3e71 e23c 97cd 04bd
00000030: 3854 3bbc d773 b3bc b404 ca3b f240 f0bb
00000040: cfb6 0a3d 8efb 8cba dde6 7e3c 0e0a 1bbc
00000050: 92cf 233c 4627 8fbc 8128 55bc 0589 02bd
00000060: 0479 6dbb 2151 a53c 10e8 c43b 9880 fcb8
00000070: 2c2d 9a3c 8499 aa3b ba09 41bd eb4c 8cbc
00000080: 61fa 4fbb 295b 95bb 3496 6dbb 260b ae3c
00000090: 4dcc 1cbc 4b35 763d db31 34bc d6d6 313d
000000a0: d52e b83c 45e7 893d 4389 d03c 2113 203c
000000b0: 53bc 253d c1f9 523b a3e8 b5bc b5c2 12bd
000000c0: 6fce 263c 552e fb3a 8dde fb3b 1d55 02bc
000000d0: b19f 2e3d bccb 003b 7533 e0bb 87c7 e73c
000000e0: 25d0 ed3b a473 c13c 51dc 863c 53bc 1bbc
000000f0: 8159 34bd 64e4 4a3b 76d8 2bbc 5929 b2ba
00000100: 5ed3 a83b ca98 27b9 d1dd 98bb 6403 7e3c
00000110: ae1e 22bc 3405 a7bb e162 4a3c 4b65 b1bb
00000120: d8cd 4c3c 4b98 d9bb 8898 fc3c e5b0 ecbb
00000130: 509d 87bc 78fb 25bc 1fd4 18bb 4898 96bb
00000140: 742f 073b 6d85 84bd f52f 21bc 6e2b 063a
00000150: d191 f0ba 71bf 03bc 1fbb 7fbc 0aac 15bb
00000160: bf6e 2e3c 18ed e0bb d4d2 443c c33e 1bbd
00000170: d6bc ac3c b7ea 033d 37c9 3ebc c429 34bc
00000180: c0fb 8f3b 6fdd a5bb ee4c a9bc cf17 20bc
00000190: 8fd9 043c 6001 0dbb 1471 08bd f757 ba3c
000001a0: 2312 f3bc acca 2c3c 8e3d b23c 75f6 caba
000001b0: 3837 043c af75 bebc 3718 c73b 31d9 bbbb
000001c0: 8e3d 0d3d 4f7e 89bc 41d9 bb3a 1862 debc
000001d0: 6c25 bc39 b60c a13c 73bf 38bc 3c35 983c
000001e0: 2ee3 4d3d 36fe 8a3b 34ca 083d ec33 a6bb
000001f0: 19e0 e03b 5fcf 5a3d ca05 31bb 321e 6fbb
00000200: 5b65 ff3b 3580 233b d47e 85bb 3ee0 7f3a
00000210: 2ef4 32bb 00fc ccbb ce8d 2abb f81e 95bb
00000220: 9f22 0a3c a799 5f3c dba1 bdbc c4e3 adbc
00000230: 446e 37bb 40f4 ad3b 74cd bb3d c5d5 debc
00000240: a4e3 fd3b 63cc 47bc bcff 183d b60a 8fbd
00000250: 2d7f 2ebc 0fac 53bc e9f9 973b 6ba7 f9bc
00000260: aa8b 393c 21ac e1b9 b1e4 3e3c 8c94 b23b
00000270: 2dd7 e5ba a0ce 84b9 5be5 61bb bfc7 c23b
00000280: 9812 303c bcf8 b23c a871 52bc 7601 f6bb
00000290: 9c61 3d3c 0349 f3ba 4cb3 3cbc 000b b93b
000002a0: b40e d1b9 6aaf 3cbb 2fd9 31b9 29c2 033c
000002b0: 489a 36bd 5758 fdbc a4d9 863b 3ffc 3a3c
000002c0: 25be efbb d9d1 45bb 71a9 fabb 774c 3b3d
000002d0: 5044 10bd 263d 2fbc 3cb1 2abd 5778 8c3b
000002e0: e318 01bc 6250 443d 8ee0 14bb b784 1d3d
000002f0: d46d 93bb 7533 42bc 7f68 6abb 53ec 58bb
00000300: 166d 69bc dae9 94bc c2a9 df3c 12a1 513b
00000310: 1efd da3c 179e e8bc 7ce7 07bb 56e0 d53b
00000320: 4644 67bb 8682 2c3b 9dc8 5d3b 71cc 46bc
00000330: 1691 6b3a cca6 6a3c 7772 45bb ec6f 9bbc
00000340: 841f 783c e813 11bb 570a 3b3c f2a5 a4bb
00000350: fc53 35bc cfd6 e0ba 77ff ad3c 6c05 2a3b
00000360: 15d0 d6bb 8485 ae3c d140 dc3c 0e39 a73c
00000370: 0af5 053c 1552 e9bb cf02 803b 0994 69bb
00000380: f352 ff3c 1d8e 963b ca5a 0a3d b597 8fb9
00000390: 1ac9 dc3c 1179 023c 69f8 d33b 1f7f 7abc
000003a0: 4683 57ba 8f04 1cbb 27ef d13a 311c 2cbb
000003b0: 2b24 a5bc 367b ed3b 1da3 fd3c cd2a 6abc
000003c0: dc93 cb3b b4df 9bbc f6f0 b23c 5890 433c
000003d0: 0b7a c23b eddb 9a3c 5b2d 7b3b 88be 8e3a
000003e0: b618 17bc 4db1 0b3d 927e ee38 1e23 26bb
000003f0: 8790 20bd 321e 1a3d b5f8 12bc da71 e53c
-0.0059023285 -0.05864983 -0.0010939921 -0.015474438 -0.028517796 0.03222872 0.011499295 -0.006597333
0.02780911 -0.012079909 0.027641889 -0.03242263 -0.0114336535 -0.021905823 0.0061651114 -0.007331961
0.033865746 -0.0010756121 0.015557972 -0.009462846 0.009998219 -0.017474782 -0.013010145 -0.031868953
-0.003623546 0.020180287 0.0060091093 -0.00012040249 0.018820368 0.005206289 -0.047128417 -0.017126521
-0.003173493 -0.0045579863 -0.0036252858 0.02124555 -0.0095701935 0.060109418 -0.010998215 0.043417774
0.022483269 0.06733564 0.025456076 0.009770186 0.040462803 0.0032192322 -0.022205656 -0.03583022
0.010181054 0.0019163588 0.007686442 -0.007954863 0.042632762 0.0019652685 -0.0068420717 0.028293384
0.007257479 0.023614712 0.016462477 -0.009505349 -0.04403067 0.0030958885 -0.01048862 -0.0013592645
0.00515215 -0.0001598328 -0.0046651145 0.015503738 -0.00989501 -0.005097056 0.012352676 -0.0054136864
0.012500249 -0.006640469 0.030834451 -0.007223236 -0.016554505 -0.010130756 -0.0023319793 -0.00459579
0.002062765 -0.064707614 -0.009838094 0.0005118166 -0.0018354004 -0.008041249 -0.015608578 -0.002283814
0.010646521 -0.0068642013 0.012013156 -0.03790165 0.021086138 0.032206263 -0.011644653 -0.010996286
0.0043940246 -0.0050617973 -0.020666566 -0.009771301 0.008108511 -0.0021515712 -0.033310965 0.022747023
-0.029671734 0.010546368 0.021757867 -0.0015484827 0.008069806 -0.023249475 0.0060758847 -0.0057326783
0.03448253 -0.016783861 0.0014331714 -0.027146384 0.00035886036 0.019659381 -0.011276114 0.018580072
0.050265484 0.00424173 0.03339596 -0.0050721075 0.006862652 0.05342042 -0.0027011507 -0.0036486504
0.007794065 0.0024948244 -0.004073957 0.0009760893 -0.0027306187 -0.0062556267 -0.0026024464 -0.004550811
0.008431106 0.013647473 -0.023148468 -0.021226771 -0.0027989307 0.005308658 0.091700464 -0.027201543
0.007748084 -0.012194726 0.037353262 -0.06984465 -0.010650438 -0.01291944 0.004637946 -0.030475339
0.011324802 -0.0004304359 0.011651204 0.005449837 -0.0017535441 -0.0002533095 -0.0034468982 0.0059442217
0.010746621 0.021847121 -0.012844481 -0.0075074984 0.011558916 -0.0018561188 -0.011517357 0.0056470633
-0.0003987454 -0.0028791078 -0.00016960943 0.008041897 -0.044580728 -0.030925913 0.0041153003 0.011412679
-0.007316368 -0.0030184893 -0.0076495935 0.04572722 -0.035221398 -0.010695731 -0.04167293 0.0042868066
-0.007879469 0.04792822 -0.0022716853 0.038456645 -0.0044991765 -0.011853089 -0.003576785 -0.0033099845
-0.0142471995 -0.018177915 0.027302627 0.0031986875 0.026732024 -0.028395696 -0.002073734 0.006526987
-0.0035288497 0.0026322915 0.0033841499 -0.012133704 0.0008986158 0.014321994 -0.003012804 -0.018974267
0.015144233 -0.002213711 0.011416039 -0.005024665 -0.011067387 -0.0017153862 0.02123998 0.0025943173
-0.006555567 0.0213039 0.026886376 0.020412948 0.008176098 -0.0071203806 0.003906585 -0.0035641214
0.031167483 0.004594578 0.03377799 -0.00027388116 0.026951361 0.007963435 0.006468822 -0.015289097
-0.00082211604 -0.0023806428 0.0016016708 -0.002626192 -0.020158848 0.007247354 0.030961568 -0.014292431
0.0062126946 -0.019027568 0.021843415 0.01193627 0.005934959 0.018903697 0.0038326595 0.0010890523
-0.0092222 0.034104634 0.000113723 -0.0025350521 -0.039200332 0.037626453 -0.008970429 0.02800839
