models/2023-05-11_22-54/pytorch/1-F_3-E_2.pt (torch, 411791 bytes, 9 tensors)

AUsLSTM.weight_ih_l0 f4 [600, 17]
000000 96 95 91 3c 31 9f 17 bd 7a 76 dc 3c 07 95 06 3d
       0.017771523 -0.03701705 0.026911963 0.032856967
000010 ae 4e 91 bc c4 7e 54 3d 39 db ca bd 6e 86 6e 3d
       -0.017737713 0.051878706 -0.09905095 0.05823367
000020 83 9a 6e 3c fd 70 97 bd 62 07 47 3c fd 83 17 3d
       0.014563206 -0.07394598 0.012147756 0.03699111
000030 e5 3a c5 3d 87 f6 ff bc 2f ac c0 bd 5c ca d0 3c
       0.09630374 -0.031245483 -0.094078414 0.025487117
000040 d0 ac d5 bd 42 50 12 3d 6d 2b a6 bd 60 bf 7e bd
       -0.10433352 0.03572107 -0.081137516 -0.06219423
000050 93 0d 04 bd 0b 2b a4 3c fe 95 9a 3c 63 94 2f 3c
       -0.032239508 0.020040056 0.01887035 0.0107165305
000060 54 d7 86 bc ab c9 25 bd db c8 47 bd 06 89 96 3c
       -0.016460098 -0.04047553 -0.048775535 0.018375885
000070 96 2e a4 bd 62 99 19 bc 22 2b 65 bd f4 96 3e bd
       -0.08016698 -0.009374948 -0.055949338 -0.04653068
000080 30 eb a7 3d 4f 7a c0 bc c9 d6 ba bc 61 30 a9 bd
       0.08199155 -0.023495821 -0.022807496 -0.08261181
000090 6d 94 dd 3c be 05 96 bc e2 0c 5f 3c 27 e0 8a 3d
       0.027048314 -0.018313285 0.013613911 0.06781035
0000a0 4e 26 3b bc 18 69 5c 3a 70 a3 00 3d 4f 21 33 3d
       -0.011422707 0.0008407994 0.031405866 0.043732937
0000b0 23 43 b7 3c 0b ad 8a bd 3b e1 52 bd 0d 1a 88 3c
       0.02237088 -0.067712866 -0.051484328 0.016613984
0000c0 b0 d5 77 bc b1 51 47 bd 49 e7 f3 bb 73 3c cb bc
       -0.015126631 -0.04866189 -0.007443343 -0.024809098
0000d0 4b 6a 6e bd 4d fa dd bd c0 6d 90 bb 35 4b 87 bd
       -0.058206838 -0.10838757 -0.0044076145 -0.066061415
0000e0 43 f3 f5 3c 3d f3 aa bc ff 4f 4b 3c 61 cc 43 bd
       0.030023223 -0.020867938 0.012409209 -0.047802333
0000f0 50 f6 03 3d c1 50 0a bd bf ba 89 bc 66 3c 71 3d
       0.032217324 -0.03376842 -0.01681268 0.05889549
000100 59 c0 cd bd 4b ba 8b bd 77 d1 13 bc d0 01 90 bd
       -0.10046453 -0.06822642 -0.009022108 -0.07031596
000110 3d 7d ec bd 0a 6b 58 bd de 07 23 bd cc fe 4b bd
       -0.11547325 -0.052836455 -0.039802425 -0.04980354
000120 5d 5d 6a 3c de f7 67 bc a2 82 46 bd 96 6d 02 3d
       0.014304486 -0.014158217 -0.048464425 0.03184279
000130 fb 7a a5 3d 8f 52 36 bd c4 5d f5 bc a9 3e cc 3d
       0.08080097 -0.044512328 -0.029951937 0.09972889
000140 1a 37 84 bb e3 6a 6d bc 55 40 b6 bd 01 d8 ae 3d
       -0.004034889 -0.014490816 -0.08898989 0.08537293
000150 d3 21 a4 bc 09 b2 42 3d 3b 04 86 bd 43 18 20 bd
       -0.02003566 0.04753307 -0.06543776 -0.039085638
000160 4c fa 39 bc 4b 8a c9 3b 58 15 e7 bd 8e 4a 2f bd
       -0.011351179 0.006150519 -0.11283368 -0.04279571
000170 93 24 a0 bd 33 46 02 be 99 ac c9 bd 8b 85 dd bd
       -0.07819476 -0.12722091 -0.098473735 -0.10816487
000180 0c 71 ab bd c2 ad 7d 3b 14 63 f9 bd eb ce df bc
       -0.08371171 0.0038708304 -0.12177101 -0.027320346
000190 85 e1 be bd 42 82 1c 3e f1 72 6d bd 0f cd 85 3d
       -0.09320358 0.15284064 -0.057970945 0.065332524
0001a0 a1 ef b3 3c c6 dc cd bc 29 aa 2c 3c f8 38 36 bd
       0.02196485 -0.025129687 0.010538616 -0.044487923
0001b0 b0 1f 90 b9 ea 52 64 bd 15 74 e8 bc 37 7b 5f 3d
       -0.0002748943 -0.055743136 -0.028375665 0.054560866
0001c0 62 ee a0 3d fd 5f ba bd c7 2c 28 3d ec 84 41 bc
       0.07857968 -0.091003396 0.041058328 -0.011811476
0001d0 73 76 97 bd c9 a6 f0 bd 07 d9 86 3d 84 cc a7 3d
       -0.07395639 -0.11750562 0.065843634 0.08193305
0001e0 52 8d 2d bd f1 0e 0b bd dc e8 b1 3c a3 22 10 bd
       -0.0423711 -0.033949796 0.021717481 -0.035189282
0001f0 03 49 85 bd 9e 65 9c bd a0 fa f4 bc a8 4b 57 3d
       -0.065080665 -0.076365694 -0.029904664 0.052562386
000200 e6 1d 09 bd 13 3c d2 3b 86 8c 0e 3d 7a 17 08 3d
       -0.03347578 0.006415853 0.034801982 0.033225514
000210 b4 18 dc bc c3 3f a0 bd e0 99 7b bd 77 a4 00 bd
       -0.026867248 -0.078246616 -0.061426044 -0.031406846
000220 41 94 0f bc 59 68 ab 3c ac 10 6e 3c ca fd 38 3d
       -0.008763374 0.02092378 0.014530342 0.045163907
000230 4d 11 d6 bb ee 9c d3 bd 76 58 21 3b a1 db 03 bd
       -0.006532824 -0.10332666 0.0024619377 -0.032191876
000240 23 56 a1 3c c2 e4 a2 bc 4a 7d 3a 3d 9a c9 a9 3d
       0.019694394 -0.01988447 0.04552964 0.082904056
000250 f5 f1 89 bb 6e 02 c5 3d 69 41 c3 3c bd 5f 03 3c
       -0.0042097517 0.09619604 0.0238349 0.008018431
000260 dd 14 b7 bd 0c 83 4e bc 82 40 93 3c 6d 33 0c 3c
       -0.08939526 -0.012604486 0.017975096 0.008557183
000270 41 e1 1c 3d 32 c6 a5 bc 53 f7 a2 bd 10 65 b0 bc
       0.038300756 -0.020236108 -0.079573296 -0.021532565
000280 61 26 85 bd 6f 44 18 be 41 17 54 bc 71 a2 50 3d
       -0.06501461 -0.14869855 -0.012944997 0.050936166
000290 cd e0 24 bd 0e af fd ba 05 22 91 3d 0f cc ce 3a
       -0.04025345 -0.0019354539 0.07086567 0.0015777367
0002a0 6b 8f 80 bd 83 a5 07 3d e3 45 1d bc e5 e6 3b 3c
       -0.06277355 0.03311683 -0.009599182 0.011468624
0002b0 7b 63 ad bd fd 63 f2 39 c1 73 81 3d 13 eb c0 bd
       -0.0846624 0.00046232334 0.063209064 -0.09419837
0002c0 6f b3 b8 bd bf 3a d0 bc 21 39 ce bc cd 53 4f bd
       -0.09018599 -0.025418637 -0.025173726 -0.050617028
0002d0 60 19 6b bd 3c 9f b3 bd 62 75 71 3d b2 c1 bf bc
       -0.057397246 -0.08770606 0.058949836 -0.02340779
0002e0 c6 b0 ae bd 09 81 b5 bd 49 9d 56 bb 51 84 94 bb
       -0.085298106 -0.08862502 -0.0032747558 -0.004532375
0002f0 1e 66 9f bc 92 4f 3b 3d be 37 ba bb e6 a8 43 3a
       -0.019457873 0.04573018 -0.0056829145 0.00074638275
000300 f6 a3 f9 3c 73 a4 ab bd d4 6f 2b 3d 9f ba a6 bc
       0.03047369 -0.083809756 0.041854694 -0.02035266
000310 02 4e cd bc fc de 9a bc 98 ea 40 3c c5 09 39 bd
       -0.025061611 -0.018905155 0.0117746815 -0.045175333
000320 50 c5 6a 3d 58 c6 eb 3c 29 80 04 3d 14 2e 87 3d
       0.057317078 0.028781101 0.032348786 0.066005856
000330 4c a7 99 3d c5 d0 fd bc 98 8e 8c bd da 83 f5 3d
       0.075026125 -0.030983338 -0.06863135 0.11988039
000340 3d d3 86 3d 83 6d d2 3c f5 95 09 3d 1e 37 72 bd
       0.06583259 0.025686985 0.033590276 -0.059134595
000350 3e 10 90 bb bc c0 ab bb 15 bd 7c 3d bc 1d 94 bd
       -0.0043964675 -0.0052414816 0.06170376 -0.07232234
000360 96 45 12 3d e1 a5 cf 3d de e4 c8 3d ee 67 cd bc
       0.035710894 0.10139061 0.09809278 -0.025073972
000370 58 89 91 bd 0e ed 5f bd 60 4d 8d 3c d5 6b 89 39
       -0.07106274 -0.054669432 0.01724881 0.00026211017
000380 c3 b8 3b bc f1 b1 35 bd 8d a7 3c bd fa d8 7b bc
       -0.011457625 -0.04435915 -0.046058226 -0.015371555
000390 30 7f 7a 3d 02 c3 68 bd 33 4a cd 3b 0b 1e be bd
       0.06115645 -0.0568266 0.0062649488 -0.09283074
0003a0 88 35 af bd 9e a9 45 3d 80 ab c1 bd 11 ac 63 3d
       -0.08555132 0.048257463 -0.09456539 0.055584017
0003b0 4c 87 f9 3c 3c 30 da bb c5 2d 99 bd 9e d2 fc bc
       0.030460022 -0.006658582 -0.07479433 -0.030862149
0003c0 6e fd f3 3c 39 ad bb bd 15 c0 40 3d a2 28 17 3d
       0.02978393 -0.09163899 0.047058184 0.036903985
0003d0 9d 98 9e bd 5d af f5 bc 1c cc fa bd e7 27 2e bd
       -0.077439524 -0.029990846 -0.12245962 -0.042518523
0003e0 23 0a cf bd ea 45 d8 bd 43 28 92 3d d4 68 26 3d
       -0.10109355 -0.1056021 0.071365856 0.040627316
0003f0 33 40 76 bc 35 14 28 bd a5 fe 5a 3d 83 35 82 bd
       -0.015029955 -0.041034896 0.053465504 -0.06357863

AUsLSTM.weight_hh_l0 f4 [600, 150]
000000 b5 65 33 bd a1 6a 50 3d 54 55 e3 3c f0 98 84 3b
       -0.043798167 0.05088294 0.027750649 0.004046552
000010 91 c4 fa bb a1 1a a1 3c b3 2a 35 3c 9c 90 bf 3c
       -0.007652827 0.019666018 0.011057544 0.023384385
000020 33 44 29 bd ca b2 13 bb 01 9a 25 3d a7 ee 70 3d
       -0.041324805 -0.0022536987 0.040430073 0.058821347
000030 22 37 d9 3d 1f 99 0f 3d 76 97 4e 3d c8 e2 3a bc
       0.10606219 0.035058137 0.050437413 -0.011406608
000040 5d 85 21 bd 7b b8 3e bc 55 d8 d0 3d 93 43 a5 bc
       -0.039433826 -0.011640663 0.10197512 -0.020173823
000050 dc 31 81 bc 41 70 8a 3d 0d 60 d2 bd 48 6a 70 bd
       -0.015770845 0.06759692 -0.102722265 -0.058695108
000060 fa 14 13 3d b6 b7 ad bc 57 f8 1f 3d ab d9 a9 3c
       0.035908677 -0.021205764 0.039055195 0.020733675
000070 01 d6 83 3d eb 36 34 3d 23 e3 77 bc e9 b9 a7 bc
       0.064373024 0.043997686 -0.015129837 -0.020474391
000080 6a 14 62 3d 3e 8a 1a 3d f4 5d 88 3d 60 00 ad 3c
       0.05519525 0.037729494 0.06658545 0.021118343
000090 fd 19 97 bd 45 b5 02 bd d7 76 16 3d b2 3c 00 3d
       -0.07378004 -0.031911153 0.03673443 0.031307884
0000a0 78 da d5 3d cc 4f 6e 3c 6b 04 0a 3c 7c 7f 5a bd
       0.1044206 0.014545392 0.008423905 -0.053344235
0000b0 c8 bb 0f 3c 41 ca ca 3d ab dd 4b bc f0 14 fb bc
       0.008772798 0.09901858 -0.0124429865 -0.030649632
0000c0 e1 f1 f2 b9 5a 1e f7 bc 02 dc b8 bb 02 9b 05 bd
       -0.0004633805 -0.03016584 -0.0056414614 -0.03261853
0000d0 80 f9 4d bd 6d d0 56 3d 10 f9 03 bd 09 ee 44 3c
       -0.05028677 0.052444864 -0.032219946 0.012019643
0000e0 4f 97 3b bd 97 4f c1 38 03 21 6d 3d 1d bd a9 3d
       -0.045798596 9.217782e-05 0.05789281 0.082880236
0000f0 48 cf 89 bd ca 27 88 3d a2 2d 3b bd 36 52 6c bd
       -0.06728989 0.06648214 -0.045697816 -0.05769559
000100 43 8c 82 bd 37 36 bc bc ce df 74 bd f9 39 d2 bc
       -0.06374409 -0.02297507 -0.05978375 -0.02566241
000110 2a 44 8b 3c 37 20 aa 3c ed 95 82 bc 34 8e 90 3d
       0.017000277 0.020767314 -0.01594063 0.07058373
000120 0b 9b c9 bb 79 b8 ee 3c ae 14 1f 3d ab ba 5c bb
       -0.0061525158 0.029140698 0.03883808 -0.0033680599
000130 c7 ca 39 bd 1e 0f 9a 3d e8 30 27 bd ab e8 09 3d
       -0.0453594 0.075224146 -0.040818125 0.033669155
000140 03 a6 d4 3b 31 e5 1b bd 32 d5 70 3c d2 48 f3 3d
       0.0064895167 -0.03806037 0.014699267 0.11879124
000150 d2 bc 34 3d cd 13 d2 3a 95 dd 3e 3c 01 24 19 bd
       0.044125386 0.001602763 0.011649509 -0.03738785
000160 67 d3 91 3d db 0d 29 3b e2 f3 a6 bd 1c 51 21 3c
       0.071204 0.0025795612 -0.08151986 0.009845998
000170 ec 78 fc 3c 93 12 91 bc a7 45 25 3b 73 26 2e 3d
       0.030819379 -0.017709052 0.0025218518 0.042517137
000180 15 b2 c8 bc 80 ca 8c bb 28 fb 24 3d 73 57 92 bd
       -0.024498979 -0.004296601 0.040278584 -0.07145586
000190 70 09 3e bd 0c c8 78 3c c2 9f 01 bd 0e 90 ca 3c
       -0.04639572 0.015184414 -0.031646498 0.024726894
0001a0 ba ce 8f bc 10 ab 8e bb 2a ec 67 3c af 4c ae 3b
       -0.01755463 -0.0043538883 0.014155427 0.0053192
0001b0 8f 5d e9 3c 90 0f f2 3b 3d 1c 87 bd de 2f 2f bd
       0.028486995 0.007387109 -0.06597183 -0.04277026
0001c0 41 c4 cd 3c 45 fb 63 bc 1e e9 d0 bd 29 90 13 3d
       0.025117995 -0.013914888 -0.102007136 0.036026154
0001d0 04 11 cc bb 3a 8c fa 3c a8 e5 2d bd 2f d5 e9 3c
       -0.0062276144 0.030584443 -0.042455345 0.028544037
0001e0 1c 50 4e 3d 62 8f 80 3d 53 bf 82 3c 57 03 e6 bd
       0.050369367 0.06277348 0.015960371 -0.11231106
0001f0 e2 78 07 bd 6d 24 31 3c 26 fa 2c bd 18 0f 3b bc
       -0.033074267 0.010811907 -0.042230748 -0.011417173
000200 3b db 99 bd 7e 32 da 3c 29 bf 5f 3c 79 9a 50 bc
       -0.07512518 0.026635405 0.013656416 -0.012732142
000210 ae 60 9e bd a6 d0 6f 3d da 23 0a 3e bd 89 2d 3c
       -0.07733284 0.058548592 0.13490239 0.010591921
000220 f9 f1 f2 bc 94 78 0b bd a8 95 a5 3d 7b 61 88 3c
       -0.029656397 -0.03405054 0.08085185 0.016648045
000230 98 e9 07 bd 5a ca 42 3d 00 9e 95 bb 70 d6 93 3d
       -0.033181757 0.04755626 -0.004565954 0.07218635
000240 0f 1e ff bd 31 d6 3f 3d c3 e0 4f bd f8 ec d3 bb
       -0.12456905 0.04683513 -0.05075146 -0.006467458
000250 d3 6a 11 bd da 76 7f 3d 21 07 44 bd 9a 4c 0d 3d
       -0.035502266 0.062369205 -0.04785836 0.03449688
000260 b5 b1 6a 3c 05 80 cc bc 17 4c 68 bd 30 31 9b 3b
       0.014324595 -0.024963388 -0.05671319 0.004736088
000270 70 60 4e 3c 4c 6b 3a 3c f3 50 a2 bb ee 7a 18 3c
       0.012596235 0.011378121 -0.0049534976 0.0093066525
000280 7b 3f 1e bd a0 80 3d 3d c7 09 37 3d f3 6f e4 3c
       -0.03863476 0.046265244 0.04468706 0.027885413
000290 91 fe 4f bc 5f d0 48 bb db 03 04 bc 8d de 9c 3a
       -0.012694971 -0.0030641777 -0.00805756 0.0011968181
0002a0 c3 b6 8d bd d2 d8 cc 3b 5b 6e 9c bc b2 37 ad 3a
       -0.06919625 0.006251433 -0.01909559 0.0013215451
0002b0 6f aa 42 bd 64 e6 e8 bb 88 53 11 3d 04 69 4a 3c
       -0.04752582 -0.007107543 0.035480052 0.012354139
0002c0 09 d0 a8 3b 48 95 38 bd df 51 68 bc f0 bb 38 3c
       0.005151753 -0.04506424 -0.014179676 0.011275277
0002d0 62 b3 36 3c b1 3f 0f bd 05 c5 54 bb ef 27 40 bc
       0.011151167 -0.03497285 -0.0032466066 -0.011728271
0002e0 bc 27 d1 3b 43 1b 18 bb fe de 3c 3c 74 69 5e bb
       0.0063829105 -0.0023209609 0.011527775 -0.0033937367
0002f0 1f d5 16 bd ca 4e b2 3b ee ae 97 3d 4a 7d 4a bc
       -0.036824342 0.0054415213 0.07406412 -0.012358973
000300 f6 97 40 3d 94 19 76 3d e0 05 dc bb f9 fb 94 b9
       0.04701992 0.060082987 -0.0067145675 -0.00028416494
000310 76 a6 88 bd 9c 34 d9 b9 fa 06 0d bd 1c d3 4e bd
       -0.06672375 -0.00041428662 -0.03443048 -0.0504943
000320 65 34 5d bd 01 5e 3a bc ec 94 e8 3c 01 95 32 3d
       -0.054005045 -0.011374951 0.028391324 0.043599132
000330 f4 92 a8 3c ff ee 25 3d 32 07 bc 3c 08 9d b4 3c
       0.020577885 0.040511128 0.02295265 0.022047535
000340 3f 39 3c bb 66 1f 32 3d b8 15 2e 3c 22 17 2e 3c
       -0.0028720645 0.043486975 0.010625295 0.0106256325
000350 84 05 e4 3b 34 e4 a6 bc f7 c7 92 bd 91 70 eb bc
       0.0069586653 -0.020372488 -0.071670465 -0.0287402
000360 06 ed e7 bc fc 53 42 bc 6a 76 81 3b ee 60 8d bd
       -0.028311264 -0.011860844 0.0039508836 -0.069032535
000370 2a 03 41 3d 86 a4 92 3c 74 8b 71 3b dd dc 77 bd
       0.047122158 0.017900717 0.0036856802 -0.060513366
000380 e4 42 6b b9 79 09 3e 3d c7 52 cf bc 82 46 4d b9
       -0.00022436265 0.046395753 -0.025308026 -0.0001957659
000390 7f f1 c3 bc ab da f3 bc 53 39 65 3c cf de 35 bc
       -0.023918865 -0.029767355 0.013990718 -0.011100485
0003a0 35 0a 14 3c 39 68 ef bc 6d 72 b0 bc b4 37 c0 bc
       0.009035637 -0.029224502 -0.021538937 -0.023464061
0003b0 8b f1 91 bc f0 28 69 bc 07 86 76 3d 02 aa 60 bc
       -0.017815372 -0.014230952 0.060186412 -0.013712408
0003c0 17 d3 ed 3c 32 d5 7d 3c 8f d3 b9 bc 58 ad b1 bb
       0.02903132 0.015492724 -0.022683887 -0.0054222755
0003d0 94 e9 a0 bb af 18 6f bc 8c ab b0 3b 21 63 29 bb
       -0.004910657 -0.014593287 0.0053915437 -0.002584644
0003e0 9c 59 5f ba 51 e5 e6 3c 31 51 96 bc d2 49 14 bb
       -0.0008520128 0.028185518 -0.018349262 -0.0022627008
0003f0 66 ab 34 bd 1f 59 a2 3c 2e 09 a1 bc e0 62 0c bd
       -0.04410877 0.019817887 -0.019657698 -0.034273982

AUsLSTM.bias_ih_l0 f4 [600]
000000 47 0a 55 bc 05 3c d1 ba 58 a0 37 bb 28 97 ab bc
       -0.013002939 -0.0015963322 -0.0028019156 -0.0209461
000010 70 1d f3 bc 2f 05 1b bd d1 b2 12 bd f3 c7 ce bc
       -0.029677123 -0.03784674 -0.035815064 -0.025241828
000020 1d 12 86 3c ea ab 8c bc 7e ca 07 bd 0b 0d c4 bc
       0.016366059 -0.017171819 -0.033152096 -0.023932
000030 57 67 95 bc 2e f7 47 3c 88 7b 21 bd 7d 2b f7 bc
       -0.018237753 0.012204928 -0.03942445 -0.030172104
000040 e7 d6 79 bd b7 41 ce bb d5 b7 66 bc dd 36 b9 bc
       -0.060995962 -0.006294455 -0.014081915 -0.022609169
000050 fc 0e f8 bc b7 58 f0 bc 74 88 3d bd c5 fc 6e bd
       -0.030280583 -0.029339178 -0.04627271 -0.05834653
000060 fd 0b a5 bd d3 a5 b3 bc d3 a2 73 bb 5e 8e b3 bc
       -0.08058927 -0.021929657 -0.0037175908 -0.021918472
000070 24 9b c7 ba 64 e7 96 bb 11 9a ec bc 16 3c 4b bc
       -0.0015228731 -0.0046052206 -0.028882058 -0.012404462
000080 ce 02 93 bc c8 72 f8 bb 23 97 e4 bc 1f dc 91 bb
       -0.017945673 -0.0075820424 -0.027904099 -0.0044512893
000090 e6 95 b0 3a e9 bd 0b bd 47 25 53 bc 7b fe 2d 3b
       0.0013472408 -0.03411666 -0.012887306 0.0026549387
0000a0 e9 94 25 bd 67 77 19 bb 9c 41 31 bd 6b eb a5 bc
       -0.040425215 -0.0023417117 -0.04327546 -0.020253858
0000b0 b6 af 37 bc 74 99 34 bc f5 f4 e8 bc 7c 0c c5 bc
       -0.011211326 -0.011022914 -0.028437117 -0.024053805
0000c0 66 a2 07 bc e1 56 e1 bc b4 0d 28 bd 38 56 9d bc
       -0.008278465 -0.027507247 -0.041028693 -0.019206151
0000d0 c2 a7 d6 bc 05 11 88 3b d8 b5 1e 3b 63 10 3b bd
       -0.02620304 0.0041524195 0.0024217274 -0.045669924
0000e0 e1 18 2a bd 53 7a c1 bc f9 ba b0 3b d5 f1 2a 3d
       -0.041527633 -0.023617899 0.0053933826 0.041734535
0000f0 88 43 d9 bc 93 52 69 bc 8d 26 d7 bc ad 59 88 bc
       -0.02652146 -0.014240879 -0.0262635 -0.016644323
000100 3e 75 dd bd 61 d9 85 bc 9b 6e 2f bc c3 b6 47 bc
       -0.10813378 -0.016339006 -0.010707523 -0.01218957
000110 44 f2 e9 bc 33 00 6c bd 04 b2 22 bd c0 57 12 bc
       -0.028557904 -0.057617377 -0.03972055 -0.008932054
000120 1a bf 1a bd 7a d0 a1 bc 93 6b 03 3c 76 1e 72 bc
       -0.037779905 -0.01975273 0.008021253 -0.01477777
000130 e3 47 3f 3b b8 8f 25 bc 02 f7 c2 bb 77 42 34 bd
       0.0029187135 -0.010105066 -0.005949856 -0.0440087
000140 87 4d f1 bb 24 3b 9e bc a4 99 09 bd 0d f3 65 bd
       -0.0073639783 -0.01931531 -0.03359379 -0.056139994
000150 07 1e a7 bc e8 83 fe bc ee b4 0a 39 0b f0 2e bc
       -0.02040006 -0.031068757 0.00013228107 -0.010677348
000160 32 c8 64 3b d2 93 d6 bb fa a9 ae 3a c5 ba d3 bc
       0.0034909365 -0.0065483833 0.0013325803 -0.025845895
000170 80 76 a6 bc 72 60 1e bc 5e 6a 03 bd 0e 88 99 bc
       -0.020320177 -0.009666549 -0.03208386 -0.018741634
000180 a0 9f d4 bc 89 48 45 bc 61 23 37 bc 5a 21 44 bd
       -0.025955021 -0.0120412195 -0.011177869 -0.04788337
000190 a9 63 a0 bc 28 f0 cc 3b fa 6f 09 bc e7 9f 5a bc
       -0.019578772 0.006254215 -0.008388514 -0.013343788
0001a0 46 8f cb 3a 62 49 ca bc 47 09 aa bc 9a 66 e7 3a
       0.001553037 -0.024693195 -0.020756377 0.0017654479
0001b0 70 c0 11 bb 4a 2d 2d bb 33 3a 12 bd a9 26 ef bc
       -0.0022239946 -0.00264247 -0.035700034 -0.02919324
0001c0 7f 5b 0a 3d 2a 11 86 bb 55 52 e2 bc af e8 9c bb
       0.033778664 -0.0040914016 -0.02762715 -0.0047884802
0001d0 e6 91 83 bb 98 c1 ff bc 47 87 ff bc 5d f5 68 3c
       -0.004015195 -0.031220242 -0.031192435 0.014218655
0001e0 a2 71 16 bd 27 d3 81 bd 7f 0a 2e bc 09 37 91 bb
       -0.036729462 -0.06339102 -0.01062262 -0.0044316095
0001f0 93 a9 9d bc 38 5a bc bc c6 b0 58 bb 8a 64 06 bc
       -0.019245898 -0.022992238 -0.003306435 -0.008202681
000200 a8 d3 ec bb 04 9f 66 bc 9c a0 31 ba ce e2 f7 bb
       -0.00722738 -0.014075998 -0.0006775947 -0.007564879
000210 db ec 62 bd f0 97 a1 bb e3 46 f4 3b dc 92 ae bc
       -0.055401664 -0.0049314424 0.0074547394 -0.021310262
000220 1d a6 c3 bb 5d 70 a3 bc 34 fe 0c be ce 5e 56 3c
       -0.00597073 -0.01995104 -0.13768846 0.013084127
000230 5f 45 a4 bc 55 66 fa bb 74 6b 8f b9 34 75 f9 bc
       -0.02005261 -0.0076415935 -0.00027355144 -0.030451395
000240 3b ad 1f bc a1 90 ac bc a5 28 68 bc 4f 12 72 3b
       -0.009745891 -0.021065058 -0.014169847 0.0036937182
000250 d8 fc b9 bb 16 0e 4b bc dc 23 7b 39 3e 35 eb bc
       -0.0056758933 -0.012393495 0.00023950584 -0.028711911
000260 98 09 f7 bc 79 3b 37 bc 65 65 de bc 7a 1d e5 bc
       -0.030155942 -0.011183613 -0.027147958 -0.027968157
000270 1d 8a c8 3d ec a0 98 3c fc f8 47 bd 33 7f c5 3b
       0.09791968 0.018631421 -0.048821434 0.006027126
000280 97 69 49 bc 5e 79 a6 bc a1 a3 f3 bb 2c 5d 4c 3d
       -0.012293241 -0.020321544 -0.0074352776 0.049893543
000290 24 01 b6 3c 25 71 82 bc b4 94 c5 3c 84 0a 25 3d
       0.02221734 -0.015923092 0.024118759 0.04029323
0002a0 2b 33 39 3b 85 20 51 ba a5 5d 6d 3b 40 a5 2b 3a
       0.0028259258 -0.0007977563 0.0036219147 0.00065477565
0002b0 88 f5 23 3d 52 84 35 3d fc 16 66 3d 68 7b ed 3d
       0.04002908 0.044315644 0.056174263 0.115958035
0002c0 5a 1b 4d 3d 8c 22 96 3b 3b 04 a0 bc c2 cb 74 bc
       0.050074913 0.004581755 -0.019533267 -0.014941158
0002d0 6e 98 ce 3c 4e dc df bb 00 e1 91 bc cc 88 c6 3c
       0.025219169 -0.0068316823 -0.017807484 0.024235152
0002e0 6e 3c ff 3c a6 67 27 bd 99 25 a1 bc 85 70 06 bc
       0.031156745 -0.04087033 -0.019671248 -0.008205538
0002f0 2a b3 be bc 49 66 ad bc 44 0c fb 3c f4 4e 9d bc
       -0.023278791 -0.021166937 0.030645497 -0.019202687
000300 9a 7d 2d 3d 4a 3d 22 3c d2 7b 00 bd 0d cf 44 bc
       0.04235611 0.009902308 -0.031368084 -0.012012255
000310 66 6d 68 3d 8d b0 d5 bc 5c 1c f9 ba 9e 25 9c bb
       0.056744955 -0.026085163 -0.0019005644 -0.0047652265
000320 e5 e9 54 3c 6b 7e 28 3a 9c e1 b7 bc 4f be 29 3d
       0.012995218 0.0006427529 -0.022446446 0.041441258
000330 0a 44 23 3b 6f b4 57 bd 81 99 fa 3c bc 1d 4b 3d
       0.002491238 -0.05266231 0.030590774 0.049588904
000340 b5 a9 af bc ec fd 4b 3d 25 be 3c bc 62 9b 1b bc
       -0.021443227 0.049802706 -0.011519943 -0.009497495
000350 fc 6e 8f 3c 2a 3f b2 3b 1e 4a 1f 3e 53 b8 15 bc
       0.017508976 0.0054396586 0.15555617 -0.009138185
000360 30 f7 3a bd 71 03 ef bb 36 d8 b0 3c 45 7f 1d 3e
       -0.045645893 -0.0072941114 0.021587472 0.1538058
000370 44 28 04 bc 6c dc 34 3c b2 ed d3 bb 99 98 11 3c
       -0.008066241 0.011038881 -0.0064675445 0.00888648
000380 53 41 10 bd 31 31 34 bd 85 53 15 3d 4b 60 ad bc
       -0.035218548 -0.043992225 0.036456604 -0.02116408
000390 19 ac 50 bc 00 b3 27 bc 0b 20 88 3c 87 f1 25 3c
       -0.012736344 -0.010235548 0.016616842 0.010128385
0003a0 95 ab e9 bc b9 7b d0 3d a5 0e 98 bc 3c 0e 32 3d
       -0.0285242 0.10179848 -0.01856167 0.043470606
0003b0 22 cc 21 b9 48 d1 af 3b ac 98 4f 3d 19 46 93 3d
       -0.00015430202 0.0053655244 0.05068271 0.071911044
0003c0 70 5a a9 3d cc 0e 82 bc a6 43 0c bd 1d a0 f8 bb
       0.08269203 -0.015876196 -0.034244202 -0.0075874464
0003d0 1f 99 21 bc 3f 73 66 bc a2 bb ac ba 2e 19 13 bd
       -0.009863167 -0.014065563 -0.0013178478 -0.035912685
0003e0 84 97 cb bc b6 39 d7 bc 20 9d dd 3d 89 da ec bc
       -0.024852522 -0.026272636 0.10820985 -0.0289128
0003f0 eb c8 77 3c cd 7b d3 bc ef 6d 33 3c 3e 6a 54 bb
       0.015123586 -0.025815869 0.010951503 -0.0032411958

AUsLSTM.bias_hh_l0 f4 [600]
000000 7d 61 16 bc 19 0e 8a bb f1 84 0c bc ff f0 94 bc
       -0.009178516 -0.0042131064 -0.008576618 -0.018181322
000010 f5 48 ef bc f0 82 e1 bc e5 df fc bc 6d 49 14 bd
       -0.029209593 -0.027528256 -0.03086848 -0.036202837
000020 0b d7 8c 3c 10 d9 1e 3b a6 3c 3e bd 99 52 b5 bc
       0.017192384 0.0024238266 -0.046444558 -0.022134112
000030 55 3d 27 bd 41 40 bf 3b a8 9d 8e bc 54 4d 1b bd
       -0.040829975 0.005836517 -0.01740916 -0.037915543
000040 af c2 b4 bc 0e ec e1 ba 10 97 2d bd 5d 23 f2 bc
       -0.022065489 -0.0017236487 -0.042380393 -0.029557878
000050 e4 a0 dd bc d2 d4 64 3b 63 ca 44 bd b5 10 2e bd
       -0.027054258 0.003491689 -0.048044574 -0.0424964
000060 c2 69 95 bc b5 d5 b1 bd 1f f3 fa bc 56 cd 23 bd
       -0.018238906 -0.086833395 -0.030633507 -0.039990745
000070 a0 95 ad 3c 24 3b f7 b9 23 90 f2 bc 46 cb 35 bd
       0.02118951 -0.00047155574 -0.029609745 -0.04438331
000080 cc 89 65 bc 97 2f 99 bc c5 5a 18 bc a8 52 6a 3b
       -0.014009904 -0.01869945 -0.009298985 0.0035754833
000090 3b 6a dd bc d2 be 45 3b c6 8a 42 bc 5a 3c 15 bc
       -0.027028194 0.0030173552 -0.0118739065 -0.009108627
0000a0 ec bf 8a bd dc 49 90 bb 96 74 4f bd ef dc 83 bd
       -0.067748874 -0.004403336 -0.050648294 -0.06438624
0000b0 3c dc bf bb 31 84 07 bc fa 79 6e bd 16 3e 10 bd
       -0.0058551114 -0.008271263 -0.058221795 -0.03521546
0000c0 d5 f7 88 bc 6d 19 63 bc a4 1e 07 bd 75 38 b9 bc
       -0.016719738 -0.013861042 -0.032988206 -0.022609929
0000d0 f7 a2 e5 bc f8 f8 82 bd 32 9c 67 3b 1d 3b 09 bd
       -0.02803181 -0.06395143 0.0035340902 -0.03350364
0000e0 0e 23 c6 bc 66 2b 5a bd 09 bf 91 3b 7d 66 df bb
       -0.024186637 -0.053264044 0.004447822 -0.0068176375
0000f0 71 43 99 bb ee 3e 29 bb cc ff 8d bc c8 62 a4 bc
       -0.004677229 -0.0025824863 -0.017333888 -0.020066634
000100 ff df b0 bd d9 17 7f bc 9e 20 ab bc 1d 07 86 bc
       -0.08636474 -0.015569651 -0.020889577 -0.016360814
000110 04 64 28 bd e6 f4 34 3d 62 d8 c1 bc f3 a3 1f bd
       -0.041111007 0.044178866 -0.02366275 -0.038974714
000120 ae 6b 07 bd 9e 46 8c bc 0f 99 85 3c dd 29 d8 bc
       -0.033061676 -0.017123517 0.016308336 -0.02638715
000130 b0 a2 43 3c dc 1f aa bc 67 69 13 bd c3 e6 40 bd
       0.011940643 -0.020767145 -0.03598919 -0.04709507
000140 26 c4 f7 bb d6 a8 9f bc ec 1b 1b bd a2 c4 57 bd
       -0.0075612245 -0.019489687 -0.037868425 -0.052677758
000150 1e 56 e7 bc 99 7b 56 bd ab b7 0e 3c 52 38 11 bc
       -0.028239306 -0.052363966 0.008710782 -0.008863525
000160 2e 15 92 b9 21 19 2f bd a4 7c 24 3c 69 2e 7e bc
       -0.0002786307 -0.042748574 0.010039482 -0.015513995
000170 9a dd c8 bc a7 06 18 bc ed b3 f3 bc 73 17 18 bc
       -0.02451973 -0.00927893 -0.029748881 -0.0092829345
000180 8e b8 f1 bc c5 e3 29 bd aa 21 28 bc 98 cc 40 bd
       -0.029506948 -0.041476984 -0.010261932 -0.047070116
000190 4f 85 2d bc 11 c3 3c bc 5f b5 0b 3c c5 44 3c bc
       -0.010590865 -0.011521117 0.008527129 -0.011491005
0001a0 a7 5b 89 3b e3 0c 05 bd 61 1c f2 bc 91 1d c6 bc
       0.004191834 -0.032482993 -0.029554548 -0.02418402
0001b0 81 0f b0 bb b4 a0 bb ba 0a ef 15 bd 41 3b f9 bc
       -0.005372942 -0.0014314861 -0.03660492 -0.030423762
0001c0 0c d8 e9 3c a3 c4 6c bc 30 c9 24 bd 5b 81 82 3a
       0.028545402 -0.014451179 -0.04023093 0.0009956764
0001d0 ce 84 1f 3c c7 5a cd bc e7 3a 9e bc 22 c7 a6 3c
       0.009736253 -0.0250677 -0.019315196 0.020358626
0001e0 0c b5 d4 bc 81 e4 b3 bd 5f ca 51 bc 90 db 5b bb
       -0.025965236 -0.08783818 -0.012804597 -0.0033547617
0001f0 7a e5 fa 3b e6 39 2e bd 86 ae 77 bc 0d bf 1b bc
       0.0076567503 -0.042535685 -0.015117293 -0.009505999
000200 55 90 d3 3c 4a 44 ab bc f2 0f 17 bd 09 66 fb bb
       0.025825659 -0.020906586 -0.03688044 -0.0076720756
000210 ce 94 ac bd e5 fc 91 3b 34 e6 ec bc 0a 05 1d bd
       -0.0842682 0.004455196 -0.028918363 -0.038334884
000220 f1 de d7 3a 31 48 a9 bc b5 8c 7a bd 70 92 1b 3b
       0.001646964 -0.020664306 -0.061169345 0.0023738407
000230 a2 0b cb bc 66 c3 8a bb 5e ad 73 bd a4 9f e4 bc
       -0.02478582 -0.004234719 -0.059491508 -0.027908154
000240 93 51 7e bc 56 3e 4d bc a3 8f 75 bc c8 89 3e b9
       -0.0155223785 -0.012527069 -0.014987859 -0.0001817114
000250 f7 01 35 bd a7 2c 74 bc 23 37 a8 3c 7e 40 80 bc
       -0.044191327 -0.014903224 0.020534104 -0.015655752
000260 c0 32 93 bc 4a 2f 3f bc 91 50 1d bd 41 c7 c0 bc
       -0.017968535 -0.011668989 -0.038406912 -0.023532512
000270 b5 8a a0 3d 94 83 4b bb 5d 62 41 bd c4 60 57 3c
       0.07838956 -0.0031053768 -0.047212947 0.013145629
000280 24 d5 d3 3a f9 c2 f0 39 98 53 41 bb 25 b9 d3 3c
       0.0016161543 0.00045921633 -0.0029499289 0.02584512
000290 cd 32 3a 3c e7 cd 93 bc 46 37 c3 3c ae fd b2 3c
       0.011364651 -0.018042518 0.023830067 0.02184948
0002a0 d7 5b 0f 3c 5e a2 66 bb e2 27 43 3c c3 16 89 3d
       0.008749924 -0.0035191993 0.011911364 0.066937946
0002b0 11 c3 9f 3c 58 15 84 3d 84 bb b6 3d da a7 c4 3d
       0.019502195 0.064493835 0.089224845 0.09602328
0002c0 3b 38 a6 3c 93 15 fb bc b2 fd 58 bd 5b 2c 38 bc
       0.020290485 -0.030649936 -0.052976318 -0.011241044
0002d0 f3 dc 88 3d bc ae 9f bc 41 8a 8c 3b 6d be 4e 3c
       0.06682768 -0.0194925 0.004288942 0.012618643
0002e0 b1 d0 56 3d b5 51 d6 bc e8 bc 4d bc ec e7 20 3c
       0.052445117 -0.026162008 -0.012557246 0.0098209195
0002f0 b0 db f3 bc 5e 22 88 3c 2e a3 8e 3d 9c 82 85 bc
       -0.029767841 0.01661795 0.06964718 -0.016297631
000300 e2 ea 24 3d 55 48 4b 3d a2 1a c2 bc e1 00 48 bc
       0.040263064 0.049629528 -0.02369434 -0.012207241
000310 d5 4d 1a 3c 49 55 03 bd 5b f1 06 3d da ae 70 bc
       0.009417971 -0.032063756 0.03294502 -0.014690125
000320 df aa ab 3d b8 ea a4 ba 5c 70 bd bc fb 11 f9 3c
       0.083822004 -0.0012582159 -0.023124866 0.030404082
000330 b5 09 15 3a 70 90 10 bd 01 af 32 3d 27 bd 6c 3d
       0.00056853454 -0.035293996 0.043623928 0.057797577
000340 7a 69 b5 bc 2b 94 af 3d 4c a8 88 3b 79 08 9d bc
       -0.022145022 0.08573183 0.004170453 -0.01916908
000350 e8 3d 1f 3d 27 b5 03 3b c7 67 0f 3e 55 67 2c bc
       0.038877398 0.002009699 0.14004432 -0.010522683
000360 e3 1d 4b bd 9e f8 0a bc 27 11 81 3c 8e 09 21 3e
       -0.04958905 -0.0084821265 0.01575525 0.15726301
000370 96 5f b3 bc d3 7d f0 3c 15 c4 27 bc 3d 5a 85 3c
       -0.021896165 0.029356873 -0.010239621 0.01627838
000380 09 7d 04 bd 5b 04 2d bd de e9 03 bc d1 37 fb bb
       -0.032345805 -0.04224048 -0.008051364 -0.007666566
000390 54 ee e0 bc 7a e2 fe bc 0a 3c 92 3c 1c d3 84 3c
       -0.027457394 -0.031113852 0.017850894 0.016213946
0003a0 86 55 76 bc 5d 35 f5 3d 73 eb e3 bb aa be 83 3d
       -0.015035039 0.11973069 -0.006955558 0.06432851
0003b0 a7 60 a0 3b 50 b3 5f 3b 09 97 34 3d f2 a8 a9 3d
       0.0048943344 0.0034133978 0.04408935 0.08284177
0003c0 9b ee be 3d 82 4c 68 3a 30 a6 2e bd 74 01 b3 bb
       0.09322854 0.0008861498 -0.042638958 -0.0054628197
0003d0 bf b4 b5 bc 55 71 11 bb 96 2d 52 ba 8f ad d9 bc
       -0.022180913 -0.0022192795 -0.0008017657 -0.026572017
0003e0 4f e2 16 bc 72 15 90 bc f2 c5 ce 3c f4 c9 f6 bc
       -0.00920923 -0.01758835 0.025240872 -0.030125596
0003f0 01 72 8c 3b 40 0d b6 bc 49 93 27 3b f1 a1 ed bb
       0.0042860513 -0.022223115 0.0025569967 -0.007251971

ClassificationAUs.0.weight f4 [150]
000000 07 fe 84 3f 73 ea 84 3f 55 df 83 3f bf b3 7d 3f
       1.0390023 1.0384048 1.030253 0.99102396
000010 50 5e 8d 3f d8 df 85 3f 0e bf 7f 3f 1c ce 7b 3f
       1.1044407 1.0458937 0.999009 0.9836137
000020 cb 28 89 3f ae 06 84 3f aa 36 80 3f af c3 83 3f
       1.0715574 1.0314538 1.0016682 1.0294093
000030 24 9e 86 3f de db 6c 3f fb ab 77 3f 87 97 7d 3f
       1.0517011 0.9252299 0.96746796 0.9905934
000040 a1 76 85 3f c0 7b 84 3f 85 91 8a 3f b4 f3 7d 3f
       1.0426828 1.0350266 1.0825659 0.99199986
000050 87 dd 82 3f 80 8d 81 3f 96 5c 4a 3f 76 b0 81 3f
       1.0223855 1.0121307 0.79047525 1.0131977
000060 84 aa 78 3f 23 2e 15 3f 09 df 61 3f 41 b2 80 3f
       0.97135186 0.58273524 0.8823095 1.0054399
000070 eb f6 85 3f 63 28 87 3f 50 51 80 3f a5 61 71 3f
       1.0465978 1.05592 1.0024815 0.9428962
000080 b4 79 8b 3f 9a 67 86 3f 7e 8a 85 3f 54 2d 8d 3f
       1.0896516 1.0500367 1.043289 1.1029458
000090 79 24 23 3f 91 99 79 3f d7 ce 8e 3f 78 db 45 3f
       0.6372753 0.9749995 1.1156873 0.7728801
0000a0 bd 8b 71 3f 5b f8 82 3f 13 fc 45 3f 0b a1 45 3f
       0.9435385 1.0232042 0.7733776 0.7719886
0000b0 1e 3b 84 3f 72 72 39 3f cc b9 7b 3f 2a 04 7e 3f
       1.0330541 0.72440255 0.9833038 0.99225104
0000c0 e2 ff 80 3f 6f bd 7b 3f 05 72 45 3f d6 c7 7e 3f
       1.0078089 0.9833593 0.77127105 0.99523675
0000d0 fd 26 62 3f 07 12 81 3f 97 88 7e 3f db 54 21 3f
       0.8834074 1.0083627 0.9942717 0.63020104
0000e0 e1 18 7f 3f 0e a5 7c 3f f4 8d 86 3f 23 4d 87 3f
       0.9964734 0.98689353 1.0512071 1.0570415
0000f0 67 44 7b 3f ec 62 45 3f 93 9a 76 3f 27 74 7a 3f
       0.9815125 0.7710407 0.9632961 0.97833484
000100 a6 41 29 3f 09 7e 5a 3f a4 28 8a 3f 3c d5 36 3f
       0.66115797 0.85348564 1.0793653 0.7141912
000110 3b 95 5b 3f 6d 08 46 3f 3c 48 7e 3f 62 18 82 3f
       0.8577458 0.77356607 0.9932897 1.0163691
000120 11 93 81 3f c0 38 6c 3f e8 0a 87 3f b3 03 87 3f
       1.0123006 0.92274094 1.0550203 1.0548004
000130 58 75 7e 3f 8f 1c 84 3f f9 a9 86 3f 0d 9a 81 3f
       0.993978 1.0321215 1.0520622 1.0125138
000140 25 7e 7a 3f 69 85 86 3f ba 3f 7e 3f ed 60 80 3f
       0.9784873 1.0509464 0.9931599 1.0029579
000150 d1 d8 84 3f 36 48 3f 3f f2 79 6c 3f 50 e9 53 3f
       1.0378667 0.7471956 0.92373574 0.8277788
000160 48 ec 8e 3f 6d e8 7f 3f b2 b1 74 3f 45 14 86 3f
       1.1165857 0.9996403 0.9558364 1.0474936
000170 45 f1 88 3f 44 77 2a 3f b4 b4 33 3f b0 b3 54 3f
       1.069863 0.66588235 0.70197606 0.8308668
000180 87 36 7e 3f c7 68 77 3f 10 64 87 3f 9d 56 86 3f
       0.9930195 0.9664425 1.0577412 1.0495182
000190 72 fe 72 3f 9e 7c 89 3f 34 30 80 3f 87 f2 81 3f
       0.949195 1.0741155 1.001471 1.0152138
0001a0 38 e4 84 3f cb a7 81 3f 67 98 10 3f 14 c7 84 3f
       1.0382147 1.0129331 0.5648255 1.0373254
0001b0 bd 97 84 3f a6 78 8f 3f 68 33 7f 3f 02 0b 7a 3f
       1.0358807 1.1208694 0.99687815 0.97673047
0001c0 03 4d 85 3f c9 58 81 3f 81 2d 85 3f 59 3a 87 3f
       1.0414127 1.010522 1.0404512 1.0564681
0001d0 7f a7 62 3f 9e b7 70 3f be 66 86 3f fd 1d 85 3f
       0.8853683 0.9403018 1.0500104 1.0399777
0001e0 c7 3e 7c 3f a5 fa 67 3f 4f 61 84 3f 7e 32 86 3f
       0.9853329 0.9061683 1.0342196 1.0484159
0001f0 54 ec 85 3f b9 a4 84 3f 61 25 89 3f e5 9a 81 3f
       1.0462747 1.0362769 1.0714532 1.0125395
000200 28 97 7f 3f 59 be 87 3f 30 cd 6d 3f cd 08 d5 3e
       0.9984002 1.0604964 0.92891216 0.41608277
000210 14 18 7b 3f 12 b8 83 3f 47 76 87 3f f1 41 85 3f
       0.98083615 1.0290549 1.058297 1.0410749
000220 b0 b2 82 3f 68 1a 82 3f 45 e5 78 3f 93 2f 83 3f
       1.0210781 1.0164309 0.9722484 1.0248893
000230 5d 2e 7d 3f a2 26 77 3f aa 14 86 3f 30 f0 73 3f
       0.9889887 0.96543324 1.0475056 0.9528837
000240 de 5c 86 3f a4 49 59 3f a5 b1 41 3f 7c e3 86 3f
       1.0497091 0.8487799 0.7566169 1.0538173
000250 cb d6 83 3f 60 da 76 3f
       1.0299925 0.96426964

ClassificationAUs.0.bias f4 [150]
000000 67 56 30 3c d1 01 2d 3b 25 ae 47 3c 9d d2 0d bc
       0.010762787 0.0026398788 0.012187515 -0.008656171
000010 f8 db 98 bc 60 9c 9d bc 96 09 17 3c 78 82 36 bc
       -0.018659577 -0.019239604 0.009218594 -0.011139505
000020 45 b4 93 bc 07 84 93 3c 81 9f 9d bb a2 d0 67 bb
       -0.018030295 0.018007291 -0.004810274 -0.0035372158
000030 46 43 6b bc 3a f0 c7 3b 09 9d 86 3b e8 df 1f bd
       -0.014359301 0.0061016353 0.0041080755 -0.039031893
000040 f5 eb 04 bb 92 ce 9a 3b 5f 30 f3 bc af 5d b2 b7
       -0.0020282243 0.004724332 -0.029686151 -2.1262878e-05
000050 f9 8f f8 bb 7e 1a 09 bc 58 6c e7 bb 66 9d 07 3b
       -0.0075855223 -0.008368133 -0.007062476 0.0020693182
000060 9d 50 66 3b b6 bf 05 bc 47 a7 05 bc 0b 22 55 bb
       0.0035143264 -0.008163383 -0.008157558 -0.0032521512
000070 de 7a 3f bc 13 b4 66 bc bc e9 16 bb fa 81 5c bc
       -0.011687009 -0.014081019 -0.00230275 -0.013458723
000080 5e 43 ae bc ea d9 8c 3c a8 17 2b 3c 50 55 05 bc
       -0.021272358 0.017193753 0.010442652 -0.008138016
000090 0c 27 26 bc fd e0 fb 3b d7 67 fd bb 24 2c 26 bc
       -0.010141145 0.007686733 -0.007733326 -0.01014236
0000a0 f3 d1 7a 3c 18 ea a9 bb c0 2a b7 bb 15 79 31 bc
       0.015308845 -0.005185377 -0.005589813 -0.010832091
0000b0 c4 9b ad bc 20 55 5e bc 09 44 da bb 88 3a ed 3c
       -0.021192439 -0.0135701 -0.0066609425 0.028958574
0000c0 3c 50 52 3c 14 e3 b5 bc 8b a7 f8 bb f8 5f bd 3a
       0.012836512 -0.022203006 -0.007588332 0.0014448157
0000d0 3a 75 59 3c c1 08 9e 39 fd 94 2a bc 8a d0 99 ba
       0.013272578 0.0003014263 -0.010411498 -0.0011735123
0000e0 22 57 ae 3b 9a e7 6c 3c 24 8c f7 bc 33 08 d0 3c
       0.0053204456 0.014459515 -0.030218191 0.025394535
0000f0 6b c3 bd bc 60 23 28 3c 22 07 74 bc 7c 23 e3 ba
       -0.023164472 0.01026234 -0.014894279 -0.0017329301
000100 b4 fe 1c bb 25 23 21 bc 6b 92 0d bc 57 89 90 bb
       -0.0023955526 -0.009835039 -0.008640866 -0.0044109034
000110 67 53 bc 3a 03 6b 15 bc 0a 8a ee 3c c8 fd b4 bb
       0.0014368118 -0.009119752 0.029118557 -0.005523417
000120 79 2f 84 3c a8 0d ff 3b ac 45 9f bb 2c 13 d2 bb
       0.016135918 0.0077836104 -0.0048606005 -0.006410977
000130 6c 60 06 3d 47 92 06 bc f6 a7 57 bc c2 61 a7 bc
       0.0328068 -0.008213586 -0.013162604 -0.020432357
000140 72 c4 ed 3b 6d d7 52 3d 81 0e 24 3b 8e 2b 56 3c
       0.007256084 0.051474977 0.002503306 0.013071908
000150 0e 6c fe bb de b4 b3 bb 91 b1 d0 bc 7c 07 fd ba
       -0.007764346 -0.0054842075 -0.025475295 -0.0019304599
000160 ec 94 bf bc 37 d2 50 3c 23 d5 25 bc 6f e6 bb bc
       -0.023386441 0.012745432 -0.010121617 -0.022937028
000170 c8 02 32 3c 4d bf 93 3c 1a 1e ad ba 5a 00 b5 39
       0.010864921 0.018035555 -0.0013207824 0.00034523272
000180 a8 db 53 3c a6 29 10 bc 61 1c c3 bc 4d 6d 0a bc
       0.012930788 -0.008798992 -0.023817243 -0.008448911
000190 f9 e6 2b bc 9d 8d 1c bc 4f 0d 21 3d 31 ed a8 3b
       -0.01049208 -0.009555248 0.039319333 0.0051552285
0001a0 1a f6 47 3d e5 c6 0d bd e0 69 b3 3a 6f 64 82 b7
       0.048818685 -0.03461351 0.001368817 -1.5543976e-05
0001b0 c7 be 47 bb 05 f3 fd bc d7 5c 16 3c 35 01 3e bb
       -0.0030478702 -0.03099967 0.009177408 -0.0028992419
0001c0 9b 21 79 bb 3c 9d 42 bd 27 0d 08 3c c8 59 49 bb
       -0.0038014415 -0.04751323 0.008303917 -0.003072368
0001d0 6b 55 94 bb 06 31 8a bb c4 36 3c bc f4 08 c8 bc
       -0.004526784 -0.00421727 -0.0114876665 -0.024418332
0001e0 72 b7 87 bc e7 79 63 3a 45 30 7d bc 4d fd d1 bb
       -0.016566966 0.00086775277 -0.015453403 -0.0064083696
0001f0 00 62 35 3c 9c d9 d1 3b 9d b5 27 3d 6c 85 71 bc
       0.011070728 0.006404115 0.040944684 -0.014741283
000200 c5 a8 b9 3c 14 0f 1a bc 43 ea 16 3c f1 ae a7 ba
       0.022663483 -0.009403009 0.009211126 -0.0012793225
000210 44 f5 10 bd cb bc 18 bd db 04 91 bc e1 b5 89 bc
       -0.035390154 -0.037289422 -0.01770251 -0.01681036
000220 fa f9 9a 3c 98 23 0e bd e7 e7 06 39 08 2a 5d bc
       0.018918026 -0.034701914 0.00012865626 -0.013498791
000230 1d 8f 9e 3c 54 74 22 bc ac 64 0f 3c 41 b3 7e ba
       0.019355351 -0.00991543 0.008752029 -0.0009716042
000240 de d5 bd 3c 8f 54 db 3b 23 d9 a0 bc db ff b3 3c
       0.023173269 0.00669343 -0.019634789 0.021972587
000250 23 bb ce 3b fb 42 71 bc
       0.0063089295 -0.014725442

ClassificationAUs.0.running_mean f4 [150]
000000 92 80 ca 3d d9 48 eb b9 80 78 ca bb 48 5a 83 bc
       0.09887804 -0.0004487697 -0.0061789155 -0.01603426
000010 de 44 98 3b aa 91 e2 3c d0 40 cd bd c0 dc 33 3c
       0.0046468815 0.027657349 -0.10022128 0.010977924
000020 fb 36 e5 ba 4d 28 57 ba 18 13 26 3c a4 60 95 bd
       -0.0017487699 -0.00082076044 0.010136388 -0.07293823
000030 07 f8 2e bd e1 f3 1f 3e 64 12 48 3d bf 8b e7 3c
       -0.042717006 0.15620376 0.048845664 0.028264878
000040 ad eb 84 3d 30 2d 7b bc 38 87 3c be 71 86 a0 bc
       0.06490264 -0.015330598 -0.18410957 -0.019595357
000050 39 45 bd 3c 5b dd 2d be 64 86 8e 3d f4 f4 2f 3e
       0.023104297 -0.16978972 0.06959227 0.17183286
000060 91 40 1e be 26 9f 09 bc 3c 66 ac 3d ab c6 c3 3c
       -0.15454318 -0.00839976 0.08417937 0.023898443
000070 0f fc 95 bd 9d c0 8a 3c da ff 76 3e 26 7b 52 3d
       -0.07323467 0.016937548 0.24121037 0.051386975
000080 c8 3e db 3a a3 9d 30 3c 4d a5 00 bd b6 51 3f 3c
       0.0016727084 0.010779771 -0.031407643 0.011677196
000090 58 0e d9 3d 4a a3 43 bd fc ec 3d 3c 55 32 2e be
       0.10598439 -0.047763146 0.011592146 -0.17011388
0000a0 34 0f b6 be b0 a7 73 bb d5 81 99 bd c3 8d 98 3e
       -0.35558474 -0.0037178807 -0.074954666 0.29795656
0000b0 cd 5d 63 bd 02 a7 db bc ec f7 18 3e 2f 97 d3 bd
       -0.055509377 -0.026813034 0.14938325 -0.1033157
0000c0 28 eb 88 3c 9a 16 a2 3d 80 e0 a8 be 69 5d c1 3c
       0.016713694 0.07914467 -0.3298378 0.023604112
0000d0 30 57 f5 3a f0 df 32 bc 2b 0f 41 3b 77 e1 9d bd
       0.0018718 -0.010917649 0.0029458504 -0.0770902
0000e0 76 b9 6c 3d 0c 12 a2 bb dd 81 28 bb f7 9e 88 be
       0.057794057 -0.004945999 -0.002571217 -0.2668378
0000f0 d0 d5 1c 3c e8 9e 7a 3b 0e 3f c2 3d 94 67 1c bc
       0.009572461 0.0038241688 0.09484683 -0.009546179
000100 47 a6 48 be 1c e2 05 3d 50 d7 bb 3d 71 2d 8b bb
       -0.1959468 0.032686338 0.09171927 -0.0042473604
000110 07 c1 3e bd a0 8c 1b 3f 37 29 09 bd 1e 88 17 3e
       -0.046570804 0.6076145 -0.03348657 0.14798018
000120 c0 95 57 bb 0a 3b ae 3c 9d 38 2d 3c 01 39 d1 bc
       -0.0032895654 0.021268386 0.01057258 -0.025539877
000130 fd 77 0f 3e f4 90 78 bc 01 85 6d 3d 0a 7a 88 bd
       0.14010616 -0.015171278 0.05798817 -0.06663902
000140 ac fc 64 3a 27 25 4f 3b fe 7a 86 bd ec 2d 8d be
       0.0008735161 0.0031607838 -0.06566428 -0.27574098
000150 a1 cb cb bc 38 00 49 be 56 f3 43 3c 95 7b 06 bc
       -0.024877371 -0.1962899 0.011959871 -0.008208175
000160 6b 6a a2 be 28 03 0e bd 39 83 b2 3e 72 61 53 bc
       -0.31721815 -0.03467098 0.3486574 -0.012901651
000170 c7 d6 7d bb 64 d8 8a 3c ab 91 2d bc 43 d1 9c bd
       -0.0038732754 0.016948886 -0.010593812 -0.07657101
000180 42 2b a0 bc 16 f5 de 3c ba 2d 6d 3a 23 ef 34 3c
       -0.019551877 0.027216475 0.00090476463 0.011043343
000190 d2 07 5a be 96 e5 9a bc 89 8b 09 3c ab 37 4d bb
       -0.21292046 -0.018908303 0.008395084 -0.0031313698
0001a0 e4 5b 5f 3c e9 27 65 3d 4a e3 5f 3d da 83 c8 bd
       0.013632748 0.055946264 0.05466012 -0.09790774
0001b0 8c cc f8 bc 75 ae 46 bd 78 ea 90 3d 0d cb 45 3c
       -0.030370973 -0.04850622 0.07075971 0.012072337
0001c0 6e 97 bb 3c f7 62 d7 3d 50 70 8f 3d 4a 37 95 3c
       0.022899356 0.10516923 0.07003844 0.01821484
0001d0 b2 96 e0 be f2 4f a6 3c 81 22 27 3c c9 21 8e bd
       -0.4386497 0.020301793 0.0102010975 -0.06940038
0001e0 fc c4 4a bc e5 23 cb be 41 e8 f2 bc 98 f1 27 bb
       -0.012376066 -0.39675823 -0.029651763 -0.0025626179
0001f0 6a 09 57 3d fc da ce 3c f7 08 05 bd ad 35 81 3b
       0.052499212 0.025250904 -0.032479253 0.003943166
000200 fb f6 88 3e a7 67 35 bc 2d 5a f0 be 40 0d b6 bc
       0.2675093 -0.011072076 -0.469438 -0.022223115
000210 b5 a7 ce 3d 40 52 9d bb 58 e7 c5 bc 20 9e 00 3d
       0.10090581 -0.0048010647 -0.024158165 0.0314008
000220 c4 72 17 3d ed 68 92 3b 24 01 02 3b a6 d8 60 bd
       0.036974683 0.0044680745 0.0019837106 -0.054894112
000230 4b d1 04 3b 48 f8 30 bb 2b 09 00 bc 7c 0a 09 3d
       0.002026635 -0.0027003456 -0.007814686 0.033457264
000240 1f ca ef 3d a1 3e 45 bc 7c d6 bc bb 65 ef fa 3b
       0.117084734 -0.012038858 -0.005762873 0.0076579326
000250 51 8c d4 3c 2a f7 1b 3c
       0.025945814 0.009519378

ClassificationAUs.0.running_var f4 [150]
000000 ad c3 0b 3a 65 62 04 3a 78 63 2f 39 b3 f1 c8 38
       0.0005331587 0.00050500623 0.00016726356 9.581763e-05
000010 97 fd 61 39 dc bb 0a 39 70 8d 9d 3c 63 59 0d 3a
       0.00021552142 0.00013230689 0.019232482 0.0005392043
000020 15 66 5c 39 20 ad ae 39 ec 9f aa 39 7a ab 1e 3a
       0.00021018863 0.00033316854 0.00032544078 0.00060527737
000030 d2 9c 06 3a c8 31 08 3b 10 91 e7 39 f0 fd 28 39
       0.00051350624 0.0020781625 0.00044167833 0.00016116328
000040 23 d5 42 3a 5e 4d 6e 3a 57 86 a4 3a a0 07 6c 39
       0.00074322725 0.0009090508 0.0012552243 0.00022509554
000050 48 b6 0c 39 3f a9 9b 3b 5c 87 57 3a dd 5c 8d 3b
       0.00013419345 0.0047504003 0.0008221769 0.0043140487
000060 13 9b 50 3b 72 a0 9d 3b 41 9c 4d 3a be ea 23 39
       0.0031830713 0.0048103863 0.0007843413 0.0001563234
000070 e1 0c d8 39 50 f4 11 3a b6 96 a9 3a f6 54 59 39
       0.00041208326 0.00055677164 0.0012938592 0.00020726383
000080 27 25 a2 39 6b a2 96 39 d2 61 db 39 99 ab 78 39
       0.00030926729 0.0002873124 0.00041843817 0.00023715048
000090 93 e0 df 39 f8 b6 a0 39 21 09 5d 39 8c c8 02 3a
       0.00042701195 0.000306539 0.00021079603 0.000498899
0000a0 c2 c8 10 3c 87 74 a1 39 0f b1 af 3a 7c cf fb 3b
       0.008836927 0.00030795133 0.0013404208 0.007684646
0000b0 58 6b a0 39 b6 3e 12 39 4e c9 f8 3a 99 16 5e 3a
       0.00030597555 0.00013947007 0.0018980892 0.0008471995
0000c0 f3 61 37 3a ba 38 28 39 f7 44 a4 3c 10 b1 be 39
       0.00069954916 0.00016042861 0.020052416 0.00036371546
0000d0 46 b2 ef 38 0f 58 14 3a bf e9 8f 39 38 ed 19 3a
       0.00011429614 0.00056588737 0.0002744924 0.0005871835
0000e0 f2 35 35 3a 56 3c 4d 3a de 7e e3 38 99 80 79 3b
       0.00069126405 0.000782912 0.00010847834 0.0038071035
0000f0 09 c1 a5 39 bc 57 81 39 16 5d e4 3a 86 a5 f6 38
       0.00031615075 0.00024670165 0.0017422761 0.00011761025
000100 fd bd 58 3d b8 c5 c4 38 2a c6 14 3a b0 36 df 38
       0.052915562 9.382836e-05 0.00056752807 0.00010643655
000110 59 10 cc 3a ed db 48 3c 02 24 ca 39 5b 7f be 3a
       0.0015568837 0.012259466 0.0003855527 0.0014533804
000120 d4 1a 86 39 b1 09 dd 39 82 c3 ce 39 c0 87 50 39
       0.0002557846 0.00042159625 0.00039437047 0.00019886997
000130 a9 d0 c8 3a 3b 64 78 39 21 12 a4 3a d7 0e 00 3a
       0.0015320975 0.00023688462 0.001251761 0.0004885024
000140 8f 57 2c 39 cb b3 90 39 8d a6 c7 39 0b f4 23 3c
       0.00016435816 0.00027599777 0.00038080328 0.010006915
000150 d7 39 6f 39 e0 ec 07 3b 49 bb 7a 39 a4 22 6f 39
       0.00022814363 0.0020740554 0.00023911627 0.00022805721
000160 aa 28 fc 3a 9e 0f 51 3b bd df 3b 3b fc 8e c0 39
       0.0019238193 0.0031900178 0.0028667294 0.00036727625
000170 ae f4 c8 38 f7 bf 3c 39 dc 03 bf 38 23 a3 96 39
       9.582318e-05 0.0001800059 9.1083086e-05 0.00028731776
000180 a3 a9 22 39 96 d2 e7 38 73 fa bf 39 04 51 dd 39
       0.00015512719 0.00011054163 0.00036616958 0.00042212766
000190 78 1d 30 3b e0 32 a0 39 6c 13 6d 3a bf b2 1b 39
       0.0026873033 0.00030555483 0.00090437266 0.0001484854
0001a0 ca 16 a4 39 9e 0e 55 39 d5 40 8b 39 64 77 01 3a
       0.00031297497 0.00020318708 0.0002656045 0.000493875
0001b0 56 fa d4 39 5d 20 9d 39 89 e1 85 3a a0 91 4b 3a
       0.00040622306 0.00029969486 0.001021431 0.0007765535
0001c0 45 5b 61 3a d0 17 c9 39 62 db da 39 2a 3f 6a 39
       0.0008596669 0.0003835545 0.00041743653 0.0002233951
0001d0 ea a7 1b 3c 2b 37 37 39 38 0a 97 39 99 00 3b 3a
       0.009500483 0.00017472792 0.00028808578 0.0007133573
0001e0 00 0f d3 38 f3 71 51 3c 16 fd 5a 39 9f 7a 81 39
       0.00010064058 0.012783515 0.00020884382 0.00024696157
0001f0 b6 79 c5 39 ad 21 93 39 8f cf 5a 39 cc cf 91 38
       0.0003766545 0.00028063115 0.00020867422 6.952844e-05
000200 b6 42 93 3b 14 49 c8 39 eb 0b e1 3b 00 97 37 38
       0.0044940365 0.0003820142 0.006867876 4.377123e-05
000210 3e 4a 5c 3a 11 b3 8f 39 a3 a8 e3 39 56 4f 4e 39
       0.0008403397 0.000274085 0.00043422458 0.00019675246
000220 d6 51 99 39 49 26 18 39 24 23 e4 3c 5f 0f d0 3a
       0.00029243407 0.00014510112 0.027848788 0.0015873722
000230 60 c4 46 39 25 4c 52 39 e1 5d 8e 39 f3 24 44 39
       0.00018955907 0.00020055527 0.00027154296 0.00018705781
000240 5b 5a 45 3a 2b d9 29 38 2b 00 56 38 44 48 5a 39
       0.00075284176 4.0494993e-05 5.1021732e-05 0.00020817021
000250 60 53 0b 3a d4 68 11 39
       0.0005314853 0.00013867329

ClassificationCat.0.weight f4 [1, 150]
000000 16 52 07 3e 92 17 e5 bd 51 f2 ba 3d 69 ef 84 bd
       0.13214907 -0.11186136 0.091282494 -0.06490976
000010 94 fb 0e 3e b6 c5 c5 bd 60 f5 80 3d 8b 5b 91 3d
       0.13963157 -0.09656851 0.062968016 0.070975386
000020 ff c6 1a be 77 23 01 be f5 d9 a3 bd 46 ca c6 3d
       -0.15114973 -0.12611185 -0.080005564 0.09706549
000030 bc 9c 0c be d3 d9 10 3d 82 d9 83 bd 00 2e c0 bd
       -0.13731664 0.035363983 -0.06437971 -0.09383774
000040 cb 07 f9 3d 02 b7 e5 3d 1d 67 0a be 27 dd 82 3d
       0.121596895 0.112165466 -0.13515897 0.06389838
000050 ca 01 ba bd 96 af c3 3d 78 1a 89 bc a9 5f ad bd
       -0.090823725 0.09554975 -0.016736254 -0.08465511
000060 3b 68 7e 3d e5 bd fd ba f1 78 1c 3d ea 27 bd bd
       0.06211112 -0.0019358961 0.038201276 -0.09236129
000070 f8 4c 01 be f2 94 0a be 9c be a7 bd b5 ff 41 bd
       -0.12627017 -0.1353338 -0.08190653 -0.047363
000080 9f df fc bd 17 07 fb 3d 3a 43 05 3e 6c 7e 0c be
       -0.1234734 0.12257212 0.13013926 -0.13720101
000090 46 a9 e3 bb 8c 61 88 3d b1 93 39 be 89 b1 e0 bb
       -0.006947669 0.066592306 -0.18122746 -0.0068571013
0000a0 3e e3 42 3d 13 d9 c7 3d 63 45 03 3c 06 e4 b8 bb
       0.047579996 0.097582005 0.008012149 -0.005642417
0000b0 c0 48 af bd 40 c4 b9 bc 76 2d 94 bd f5 45 9e 3d
       -0.08558798 -0.022676587 -0.072352335 0.07728187
0000c0 b6 47 ab 3d 0d 82 8c 3d 00 cf 96 3c 79 54 cb bd
       0.08363287 0.06860743 0.018409252 -0.09928221
0000d0 e7 65 62 3d 32 c9 a1 3d f9 a2 8b bd 4a d9 08 3c
       0.055272963 0.07899703 -0.06818194 0.008352587
0000e0 35 e5 aa 3d 62 8e a3 3d a1 dd cf bd 26 5a e9 3d
       0.08344499 0.07986142 -0.10149694 0.113941476
0000f0 80 8c 7f 3d bb 30 3b 3d 16 76 7d bd fd f2 64 3d
       0.06238985 0.04570077 -0.061880194 0.055895794
000100 e0 47 a4 3b e1 03 42 3d 94 60 24 3e 0a 3b e7 3b
       0.005013451 0.04736698 0.16052467 0.0070565986
000110 5f 28 98 bc 91 0f 62 bc f2 f6 a1 3d c0 20 e5 bd
       -0.018573938 -0.013797657 0.07908429 -0.11187887
000120 92 9f c4 3d 1f 89 01 3d fb a7 cd bd 12 44 d1 bd
       0.09600748 0.03162491 -0.10041805 -0.102180615
000130 0d ad a0 3d a7 8c 04 be 5e 3a 0e be 9f dd c1 bd
       0.07845507 -0.1294428 -0.13889453 -0.09466099
000140 75 11 87 bd ca c9 e1 3d 17 4e a4 3d 7c 7d d5 3d
       -0.065951265 0.11024816 0.08022707 0.10424325
000150 93 82 ee 3d e6 e5 04 3c 4b fd 4f bd b3 11 32 3d
       0.11645999 0.008111453 -0.05077867 0.04347391
000160 c8 39 37 be 1a ab a9 bd 1c b2 58 bd e7 09 09 be
       -0.17893136 -0.08284588 -0.052904233 -0.13382684
000170 c2 16 23 be e3 81 06 3d 1f 2c 9c 3c c1 0c 0e bd
       -0.1592665 0.032838713 0.019064007 -0.03468013
000180 a4 71 97 3d 78 b2 56 bd 1e 07 ea bd 64 c7 01 3e
       0.07394722 -0.052416295 -0.11427139 0.12673718
000190 78 23 3b bd c6 15 f0 bd 33 53 ae 3d bb 75 a8 bd
       -0.045688123 -0.11722903 0.08511963 -0.0822558
0001a0 28 ef fb 3d d0 16 c9 bd eb 4d 01 3c 14 7c df 3d
       0.12301475 -0.09818804 0.007892112 0.10912338
0001b0 7a fb b9 bd 0a 7f 18 be e5 22 c6 3d e2 9b 8f 3d
       -0.090811685 -0.14892212 0.09674624 0.07012154
0001c0 fc 79 f9 bd fd b7 dd bd 1e 0b d4 3d 61 c7 f2 bd
       -0.1218147 -0.108261086 0.10353683 -0.11854435
0001d0 e9 23 81 bb 50 b7 18 3d aa f5 c5 3d 8a 70 ee bd
       -0.0039410484 0.037284195 0.09665997 -0.11642559
0001e0 36 72 b8 3d c3 04 0d 3d 1b b6 b9 3d 20 ef 10 3e
       0.09006159 0.03442837 0.09067937 0.14153719
0001f0 81 48 02 3e 74 b3 f7 3d 6b f3 1e 3e c7 52 aa bd
       0.1272297 0.12094775 0.15522544 -0.0831657
000200 7b 45 c6 3d e9 c3 d2 bd 08 5d 2a 3d 32 8d 3e 3a
       0.09681221 -0.10291273 0.041592628 0.00072689645
000210 72 db 88 bd 4f e7 fe bd a7 24 fe bd 3f 85 e2 3d
       -0.06682481 -0.12446462 -0.12409335 0.11060571
000220 0c 56 be 3d 8e af b7 bd d8 e0 6a bd cb b5 c5 3d
       0.09293756 -0.08969031 -0.057343334 0.09653815
000230 b2 71 93 3d 7c 51 4f bd 99 8e be 3d 6a 65 64 3d
       0.0719942 -0.05061482 0.09304542 0.05576078
000240 f0 16 da 3d f4 3a 93 bc a1 1c 9b bc f2 0e 01 be
       0.10648906 -0.017972447 -0.01893455 -0.12603357
000250 48 6b d3 3d 7f dc 64 bd
       0.10323197 -0.055874344
