models/2023-05-18_23-09/2/pytorch/E-14_VA-0.5714_VL-125.27_TA-0.5250_TL-160.51.pt (torch, 862056 bytes, 63 tensors)

TSA.conv.weight f4 [3, 3, 3, 3]
000000 c4 0f 0e 3d 40 c1 32 3d e8 9a 41 3d ea bb 22 3d
       0.034683004 0.04364133 0.04726687 0.03972999
000010 b9 ad 81 3f 95 54 28 3d c8 63 38 3d 65 7c 35 3d
       1.0131141 0.04109629 0.045017034 0.044308085
000020 92 ee ff 3c df 09 d6 3c bc 2c 26 3d 81 d7 44 3d
       0.031241689 0.026127754 0.040570006 0.048057083
000030 53 fe e8 3c 0d 8f 80 3f 2b 1c 23 3d 3e 9b 09 3d
       0.028441584 1.0043656 0.039821785 0.033595316
000040 1a 47 18 3d be 86 df 3c 55 67 ed 3c 27 7a 28 3d
       0.037177183 0.02728593 0.028979937 0.04113212
000050 ca 76 3e 3d b0 8c ea 3c 68 d6 7f 3f b8 b8 0b 3d
       0.046500005 0.028631538 0.9993653 0.03411171
000060 6c 24 00 3d 98 32 02 3d 8d 88 9a 3c 24 ff 94 bb
       0.031284735 0.03178653 0.01886394 -0.0045470167
000070 ce 5e 8b 3c 84 cb 15 3c 34 7c c9 bb f9 a5 79 3f
       0.01701298 0.00914276 -0.0061488394 0.9751888
000080 03 f3 be 3c 28 7f a3 bc bb 4e 92 3c 79 3e c5 3c
       0.023309236 -0.019958094 0.017859807 0.02407764
000090 04 bf 8f bc fd 7e 1b 3c 30 89 f8 3b 88 5f a0 bc
       -0.017547138 0.009490726 0.0075847134 -0.019576803
0000a0 f0 69 77 3f 46 d8 e4 3c fd f9 06 bd aa 92 85 3c
       0.9664602 0.027935158 -0.03295325 0.016305286
0000b0 7a c8 0f 3d b1 76 88 bc 58 e9 24 3c d7 b4 b7 3b
       0.0351033 -0.016658159 0.010065399 0.0056062746
0000c0 2a 25 af bc ce f6 76 3f 2a 1c c5 3c f2 0f 08 bd
       -0.021380026 0.96470344 0.024061281 -0.03321833
0000d0 28 cd 6c 3c 8d 10 e7 3c 47 12 b4 3c f8 4b 43 3d
       0.01445321 0.028206134 0.021981372 0.04767987
0000e0 f2 80 66 3d 23 c8 3e 3d 1e 29 7d 3f 4f 13 8e 3d
       0.056275316 0.046577584 0.98890865 0.069372766
0000f0 31 21 27 3d 72 b1 81 3d 10 fb 8d 3d cb 72 b5 3c
       0.04080314 0.06332673 0.06932652 0.022149464
000100 31 58 43 3d ab 27 66 3d a1 47 3c 3d 11 bc 7a 3f
       0.047691528 0.056190174 0.04596675 0.97943217
000110 f2 81 92 3d d7 c9 14 3d 9c f3 7e 3d a3 4d 96 3d
       0.07153691 0.036325302 0.062244043 0.07339027
000120 3b 8d c6 3c 57 a3 5f 3d 36 8d 77 3d 43 73 40 3d
       0.024237266 0.054599132 0.060437404 0.046984922
000130 a6 54 7b 3f 53 d0 98 3d 10 e7 10 3d c9 92 84 3d
       0.9817604 0.0746161 0.03537661 0.064733095
000140 8b 8d 93 3d
       0.072047316

TSA.conv.bias f4 [3]
000000 26 96 cd bc c5 c1 5c bc 69 6b c7 bc
       -0.02509601 -0.013473933 -0.02434321

FPN.0.weight f4 [3]
000000 83 a1 78 3f 0d 06 7b 3f 36 34 75 3f
       0.9712145 0.9805611 0.9578279

FPN.0.bias f4 [3]
000000 af 74 39 bb da e8 d9 3b 95 48 98 3b
       -0.0028298309 0.0066500725 0.0046473243

FPN.0.running_mean f4 [3]
000000 c8 24 02 3f 4c bb dc 3e 95 66 cc 3e
       0.50837374 0.43111646 0.39922014

FPN.0.running_var f4 [3]
000000 fb 47 a9 3d 4f 16 5b 3d dd 27 87 3d
       0.08265682 0.053488072 0.065994

FPN.1.conv.weight f4 [4, 3, 3, 3]
000000 c8 bc 00 be 41 65 1e bd c8 1f aa 3d 59 37 c9 bd
       -0.12572014 -0.038670782 0.08306843 -0.0982501
000010 99 b7 b3 bd 95 12 41 3d d8 2c 46 bd 14 3e 48 3d
       -0.08775253 0.04713686 -0.04838261 0.048887327
000020 de a2 d7 3c 96 ef dc 3d a5 19 08 be af fa 08 be
       0.026322778 0.10787885 -0.13291033 -0.13376878
000030 de 45 19 3e 69 90 a3 3d b6 8b 4c be 9e 16 6d 3c
       0.14968058 0.079865284 -0.1997517 0.014470724
000040 9b b0 06 3e eb bd 29 bc 43 15 85 3d ca 7e 31 3e
       0.13153307 -0.010360221 0.06498196 0.17333522
000050 67 09 39 3d ed c5 d5 3d f7 35 5a 3d c7 bc 8d 3d
       0.045174982 0.10438142 0.05327412 0.06920772
000060 6c 8b 2f 3e 77 18 45 bd 8d 7a 76 3d ee 8e a0 3d
       0.17143029 -0.048119035 0.060175467 0.07839762
000070 d4 87 37 3e 24 6b 1e 3e 37 8d 02 be 13 20 0f 3e
       0.17922908 0.15470558 -0.12749182 0.13977079
000080 4d 1c 18 3e 5d ce 3e 3e 4a 9a 18 3e 05 ee 17 be
       0.14854546 0.18633409 0.14902607 -0.14836891
000090 eb ba 15 be 98 89 d9 bc 74 9b c0 3d 15 ee b9 3d
       -0.14622085 -0.026554868 0.0940465 0.09078614
0000a0 9a 62 e5 bd 03 4d b5 bc 3b 66 61 3d 71 b3 12 be
       -0.112004474 -0.022131449 0.055029135 -0.14326264
0000b0 a7 24 1d bc 03 48 c9 3d 78 4f 03 3d 51 6e 6f bc
       -0.009591258 0.09828188 0.03205821 -0.014613704
0000c0 05 dd 43 be ba 31 2c be ed 6f 40 be e1 5a 0e 3e
       -0.19127281 -0.16815844 -0.18792696 0.13901855
0000d0 f3 08 80 3d 48 e6 30 3e f9 5b ee 3b a3 e4 69 bd
       0.06251707 0.17275345 0.0072741476 -0.05710281
0000e0 2c 71 8a bd 3b e3 62 bd 3d ec 8b 3d e6 59 4d bd
       -0.06759867 -0.055392485 0.06832168 -0.050134562
0000f0 b8 2a 2d be 31 61 1c 3d 89 cd fa bd e5 d1 fe 3d
       -0.16910827 0.038178626 -0.12246234 0.12442378
000100 42 6c c7 3c d9 c1 77 3d 17 7b 11 3e 89 fd 36 3e
       0.024343614 0.060487602 0.14207111 0.17870153
000110 b9 23 22 3e 6a d8 19 3e d4 78 1a be 16 d8 04 be
       0.1583394 0.15023962 -0.15085155 -0.12973055
000120 fc fc 32 3e ce 16 82 bd b7 80 28 3e 69 1a 24 bd
       0.17479318 -0.06352006 0.16455351 -0.04006425
000130 67 d3 11 be c7 2f 86 bc 10 40 1d be e9 1c bf bd
       -0.142408 -0.016380204 -0.15356469 -0.09331686
000140 32 8f 06 3d fd aa 2b 3d cc bc 45 bc 63 8f 3f 3e
       0.032851405 0.041911114 -0.012068938 0.18707041
000150 6a 89 e9 3d 77 e7 10 3e 96 cc 82 bc 2e 5d e9 3d
       0.11403163 0.14150797 -0.015966695 0.11394726
000160 c8 75 9a bd f5 38 8d 3d 1c e7 a7 3d 65 1b 68 3e
       -0.07541996 0.06895629 0.081983775 0.226667
000170 15 75 a0 bd c3 a3 a8 bd a8 49 b6 3d e6 d7 c4 bd
       -0.078348316 -0.0823436 0.089007676 -0.09611492
000180 e8 0a c9 3d 31 0f 76 bc c0 3d b8 bd 86 97 0d 3e
       0.09816533 -0.01501827 -0.08996153 0.13827333
000190 3d f3 33 3e 5e fc 09 be 9f c1 d4 bd ce f5 64 bc
       0.17573257 -0.13475177 -0.10388493 -0.01397462
0001a0 aa e0 4b 3d 7d 4e 1c be f8 a6 32 3e 67 57 77 bd
       0.049774803 -0.15264316 0.17446506 -0.060386088

FPN.1.conv.bias f4 [4]
000000 8f a1 0a 39 4b 22 94 35 2d e9 20 b7 00 2f e0 32
       0.00013220891 1.103684e-06 -9.591034e-06 2.6098405e-08

FPN.1.bn.weight f4 [4]
000000 b7 ec 71 3f bc 90 76 3f 73 c5 78 3f 2f 82 79 3f
       0.94501823 0.963146 0.97176284 0.9746427

FPN.1.bn.bias f4 [4]
000000 ba 36 ba bc f0 8a 99 bc 80 19 34 bb b4 89 dc bc
       -0.022731174 -0.018743008 -0.002748102 -0.02692113

FPN.1.bn.running_mean f4 [4]
000000 6d 3c 4d 3c 1b 3c 50 3c 36 68 c8 ba 11 36 4f 3c
       0.012526614 0.012709643 -0.0015289846 0.012647168

FPN.1.bn.running_var f4 [4]
000000 7a bf 82 3e 1a b7 38 3e d8 b2 8e 3d 67 9d ff 3e
       0.2553671 0.18038598 0.069677055 0.49924776

FPN.3.conv.weight f4 [6, 4, 3, 3]
000000 1e 7e b4 3d bb da c6 bd 51 0d df 3d e0 36 b6 bd
       0.088131174 -0.09709688 0.10891212 -0.08897185
000010 52 12 d5 3c 8b e6 08 be d3 4a b2 bc 68 aa 05 be
       0.026009712 -0.13369195 -0.021764195 -0.13053286
000020 be 1d 0e bd 9e bb da 3d 6a c6 2f 3c c9 c2 d4 bd
       -0.034696333 0.106803164 0.010728458 -0.10388715
000030 37 fd da 3b df cf 1f bd 63 31 09 3d c0 a9 69 3d
       0.0066830176 -0.0390166 0.033494364 0.05704665
000040 d2 90 f5 bd 45 b4 db bd 78 f6 e3 bc aa 6f 41 3c
       -0.11990513 -0.10727743 -0.027827486 0.011806408
000050 aa eb c9 3c 7c ea bc bc 8e 3d 95 bd 91 a7 06 bd
       0.024648506 -0.02306103 -0.07287131 -0.032874648
000060 d8 b5 24 3d 0f ab fa bd e5 8c 85 bd 0a f0 13 be
       0.040212482 -0.12239658 -0.06521014 -0.14447036
000070 89 01 2c bd 52 79 c3 3d 16 ac 17 be 40 95 dd bd
       -0.04199365 0.095446244 -0.1481174 -0.10819483
000080 84 ba 06 be f9 cf 40 bd d6 ee fb bd f7 27 01 be
       -0.13157088 -0.04707334 -0.12301414 -0.12612902
000090 83 4e 12 be 89 43 73 3d b7 72 6b 3d bb 58 c5 3d
       -0.14287762 0.05939058 0.057482447 0.096360646
0000a0 0a bc 14 be 92 27 8a 3d f8 f8 63 3d 60 99 3c bd
       -0.14524856 0.06745829 0.055657357 -0.046044707
0000b0 49 a7 f3 bd 41 4c 5a 3d 94 4d 19 be 8b 70 cc 3d
       -0.118971415 0.053295378 -0.14971 0.09982403
0000c0 fd c7 17 be 94 5d ad 3d 19 5d f4 3d 18 bb 0c 3e
       -0.14822383 0.08465114 0.119318195 0.13743246
0000d0 77 a8 db bd a7 3f fe 3d 4d 4a fa 3c aa 60 e5 bd
       -0.107254915 0.124144845 0.030553007 -0.11200078
0000e0 84 bb 52 3d fb b2 0b 3e 5f d2 3f 3d d1 b6 cd bb
       0.05144836 0.13642494 0.046831485 -0.006277897
0000f0 a1 cd d0 bd 93 b9 11 3e 3c 45 e8 bd 9b 5e fe 3c
       -0.101954706 0.14230947 -0.113413304 0.03105097
000100 29 5f 19 3c 3c 34 8f bc bc 79 8a bd 52 36 7d 3d
       0.009361067 -0.017480962 -0.067615 0.061819382
000110 e4 04 82 bc 7a b9 08 be 95 cf c0 3d b3 2f d8 3d
       -0.015871473 -0.13352004 0.09414593 0.10555973
000120 e8 c1 7f bd 98 d2 27 3d 46 17 1a 3e 20 04 e1 3d
       -0.062440783 0.040972322 0.1504794 0.10987115
000130 e8 50 99 bd d7 36 f4 bd 25 18 a3 bc 02 41 e1 3d
       -0.07486135 -0.11924522 -0.019908974 0.109987274
000140 20 6e 9a 3d c0 ad fb 3d 2d 20 a6 3d ee 13 1b be
       0.07540536 0.122889996 0.08111606 -0.15144321
000150 fd 15 cd bc 64 c2 86 3d 41 2f 84 3d 63 e3 10 be
       -0.025034899 0.06580046 0.064543255 -0.14149241
000160 81 03 9d bd 8c e0 b8 bd e9 f1 dc 3d 71 35 ef 3d
       -0.07666684 -0.09027204 0.10788328 0.11680115
000170 76 fa 46 bd 70 02 17 3c 1c 88 17 be cb c2 10 bb
       -0.048578702 0.00921689 -0.14798015 -0.0022088762
000180 8b 04 b1 3d 50 21 99 bd 4d 43 11 3e 4c 25 1a 3e
       0.08643445 -0.07477057 0.1418583 0.1505329
000190 1c 2b fb 3d 85 9e 7f 3d d4 32 06 3e b9 8b 28 be
       0.12264082 0.062407035 0.13105327 -0.1645955
0001a0 5f a2 53 3d d6 5b c1 bd de 04 aa bc 5b 47 9e bd
       0.05166852 -0.094413444 -0.020754274 -0.07728454
0001b0 b4 0d c3 3d 0c ff bb 3d 82 2c 1a be 30 a6 fc 3d
       0.09524098 0.09179506 -0.15056041 0.12336385
0001c0 2d 03 48 bd ea 98 04 3e a5 01 4f bd 67 81 1f bd
       -0.048831154 0.12948957 -0.050538678 -0.038941767
0001d0 92 da 77 bc bd 35 15 3e 72 1d a5 bd 8b d1 98 3d
       -0.015127795 0.14571281 -0.08062257 0.07461842
0001e0 06 2d a6 bc 17 21 15 be 13 8d 9e bd d4 ae 36 3e
       -0.02028514 -0.14563404 -0.077417515 0.17840129
0001f0 af d6 f8 bd 1c 62 2e 3c b9 5c 7f 3c a7 4f d1 bc
       -0.12150323 0.010643508 0.015586072 -0.025550677
000200 5f 14 4d 3b 39 20 12 be 4a 19 bc bc ce e0 29 be
       0.003129266 -0.14270104 -0.022961278 -0.16589662
000210 ee 30 32 be 80 b5 14 be 53 5c 46 3c 68 22 fb bd
       -0.17401478 -0.14522362 0.012106973 -0.12262422
000220 b1 b6 a4 bd f2 6a b7 3d 9d 35 17 be 74 79 d3 bd
       -0.08042658 0.08955945 -0.14766546 -0.103259
000230 5c 47 bd bd fa c3 58 3d 83 15 62 bc 3b 23 2e 3d
       -0.09242126 0.052921273 -0.013799074 0.042514067
000240 98 cb e2 3c fc ac 10 be b9 98 e7 bd 5c 04 0e 3d
       0.027684972 -0.14128488 -0.113084264 0.034672126
000250 43 37 99 bc 71 0b 9f 3d b6 dd e8 bd 47 a8 0e 3e
       -0.018703109 0.07765854 -0.11370413 0.1393138
000260 34 f2 e1 3d 75 7c a8 3d 51 ab 2f be 99 0e 27 bd
       0.11032525 0.08226863 -0.17155196 -0.040785406
000270 d8 9d ed 3d a5 44 3f 3d 9e f0 cb 3c 19 07 07 be
       0.11602372 0.046696324 0.024895009 -0.13186301
000280 32 32 bd 3d 63 76 9b 3d 3e 05 99 3c 0c 5f a2 bd
       0.092380896 0.0759094 0.018679257 -0.07928285
000290 51 ec 24 3e ca 1b a5 bd 01 dd 26 37 71 48 31 3e
       0.16105773 -0.08061941 9.9458275e-06 0.1731279
0002a0 4a cd 0d be 13 fa 6f 3c c4 41 8b 3d 80 ba 9a bd
       -0.13847843 0.014647025 0.06799653 -0.07555103
0002b0 12 37 21 be ae 36 cf 39 fb 3a 16 bd ca 26 39 3d
       -0.15743664 0.00039522856 -0.036677342 0.045203008
0002c0 30 c0 ff 3d 85 6c cd bd fa 37 8a bd 2f 4e fe 3d
       0.12487829 -0.10030464 -0.06748958 0.12417256
0002d0 13 47 37 be f7 95 f1 3d ae 55 04 be 83 b3 6d bd
       -0.17898206 0.11796182 -0.12923309 -0.058032524
0002e0 c7 cb 87 bb 51 56 49 bd c9 7b c2 3d fe ea 62 3d
       -0.004144165 -0.049154583 0.094962664 0.055399887
0002f0 af ea 2d bd c4 c1 9d bd 15 a7 63 3c e3 09 30 bd
       -0.04246014 -0.077029735 0.013894816 -0.04297818
000300 8b 41 2c 3e e3 8e db 3c 13 0e d8 3d 62 60 5b 3c
       0.16821878 0.026801532 0.105495594 0.013389679
000310 73 ea 40 3e f5 c7 a0 bd ee 66 c8 bd da e4 77 bd
       0.18839435 -0.07850639 -0.09785257 -0.060520984
000320 71 9d 6f bc d2 21 a5 3c 1a fc a7 bd 1e bf 23 3e
       -0.014624939 0.020157728 -0.082023814 0.15990874
000330 a8 da 02 3e 01 dc 5d bd df 2d 13 3e d6 ef af bd
       0.12778723 -0.05416489 0.14372967 -0.08590667
000340 84 cd 3f 3e 37 9c ad 3c 39 73 c4 3d 05 c1 ef 3d
       0.18730742 0.021192653 0.095922895 0.117067374
000350 48 5e 58 3d 0c d8 82 3d b7 8f 7a bd 7b ab 17 3d
       0.05282429 0.06388864 -0.061172213 0.03702877

FPN.3.conv.bias f4 [6]
000000 0b 8d 04 b2 fd 73 01 33 64 ce 8c 31 bd b0 bf 38
       -7.715481e-09 3.0140644e-08 4.098e-09 9.14051e-05
000010 f1 9b 88 33 b5 87 9a 31
       6.361359e-08 4.497418e-09

FPN.3.bn.weight f4 [6]
000000 8e 32 70 3f b7 9d 76 3f 31 b7 74 3f 94 9b 75 3f
       0.9382714 0.96334404 0.9559203 0.9594052
000010 7b 56 81 3f 07 e3 76 3f
       1.0104517 0.96440166

FPN.3.bn.bias f4 [6]
000000 39 f3 ba bb f6 c4 c5 bc ac a3 37 bd f0 c1 d8 bb
       -0.005705264 -0.02414177 -0.044833824 -0.006614916
000010 15 f4 84 bc a0 14 e3 bc
       -0.016229669 -0.027719796

FPN.3.bn.running_mean f4 [6]
000000 ee 75 e4 be da d7 93 3d 93 33 f3 3d 46 1f 95 be
       -0.44621223 0.07218905 0.118750714 -0.29125422
000010 24 fa 28 3d fe 0e 4b 3e
       0.041254178 0.19829938

FPN.3.bn.running_var f4 [6]
000000 e5 e0 20 3f b3 de 18 3d 2a 19 82 3d 90 c4 02 3e
       0.6284316 0.037321758 0.06352456 0.12770295
000010 3d 97 58 3d 1c c4 3f 3e
       0.052878607 0.18727154

ConvLSTMLayer.cell.conv.weight f4 [32, 14, 3, 3]
000000 35 22 b9 3d 22 83 d1 3c 8c 35 ee bb 4d 9e f6 3c
       0.090397276 0.025575224 -0.007269567 0.03010478
000010 c9 27 83 3d c5 93 d4 bc 83 87 b4 bc 8b ec 21 bd
       0.06404073 -0.025949368 -0.022037273 -0.039532226
000020 03 6d aa bd 60 96 ab bd a2 3b 81 bd d7 1f 87 bc
       -0.083215736 -0.08378291 -0.06310202 -0.016494675
000030 3b 80 9c bc e1 f6 81 bd 7d 74 2a bd 76 a7 ae bd
       -0.019104114 -0.063459165 -0.041614998 -0.085280344
000040 a7 8a dc 3a ca 7c 1f bd ff 76 cd bb e4 65 83 39
       0.001682599 -0.038937367 -0.006270289 0.00025062182
000050 c1 63 9b 3d 90 c1 7e bd 14 f8 85 bd 50 21 cb bc
       0.07587386 -0.062196314 -0.06541458 -0.024796158
000060 d1 f4 89 3c 9b b8 06 bd 7f 4c 92 3d 3f aa 5f bb
       0.01684037 -0.032890897 0.07143497 -0.0034128574
000070 8c 03 d7 3b 75 e6 64 3d e1 f8 96 3c 16 89 69 bc
       0.006561702 0.055883843 0.018429222 -0.014253875
000080 ef 2b ab bc 44 f4 d8 3d 3b e9 b5 3d cc 78 36 3d
       -0.020894973 0.10593465 0.08882376 0.044548795
000090 0d 0f 35 bd 69 84 66 bd fb ff 87 bb ec a3 08 bd
       -0.044203807 -0.05627862 -0.0041503883 -0.033359453
0000a0 fb 42 24 bd 3d e5 ff 3d 4a af fe bd 5b 34 4f 3d
       -0.04010294 0.124948956 -0.124357775 0.05058704
0000b0 bc 9c d5 b9 e4 87 af bd bb ef 4e 3b 34 12 3e bd
       -0.00040743302 -0.08570841 0.0031575996 -0.04640408
0000c0 f7 a3 c1 bc e9 41 f2 bc 4e a3 dd 3d 68 60 60 bd
       -0.023637755 -0.029572444 0.108221635 -0.05477944
0000d0 ca 12 8b 3b 3f 24 68 bc 90 49 c5 bc a2 e9 c8 bc
       0.004244183 -0.014168798 -0.024082929 -0.024525467
0000e0 52 d1 52 bd d1 f4 53 bc f1 63 68 3c 37 64 1a 3d
       -0.051469155 -0.012936787 0.014183984 0.03769323
0000f0 e7 3e 98 bc 71 82 39 3c fa df 78 3d f9 bf 7d 3c
       -0.018584682 0.011322604 0.060760476 0.015487664
000100 10 ba 67 bc d4 af 2a 3d f8 86 17 3d ac c2 b0 b9
       -0.014143482 0.04167159 0.03699395 -0.00033714378
000110 9a fb 70 3b 8c 5e af 3b 49 e4 38 3d 33 e1 6a 39
       0.003677106 0.005351847 0.045139585 0.00022399872
000120 74 8f 0e 3d fe 0a 64 3d 80 c0 fb 3b b3 09 3a 3d
       0.034804776 0.055674545 0.00768286 0.045419406
000130 20 a0 87 3d e9 cb 8f 3d de 31 8a 3c df a2 d0 3c
       0.06622338 0.07021315 0.016869482 0.025468288
000140 5b 4d 55 3b c8 14 53 bc af d7 ca bc 1d dd 4d bd
       0.0032547328 -0.012883373 -0.02476105 -0.0502597
000150 22 86 72 bd 0f 80 87 bd 00 ed 14 bd 45 e9 d1 bc
       -0.05920995 -0.06616222 -0.036358833 -0.025623927
000160 32 58 38 bc 7f f8 59 bc 57 2c 77 3d 05 7e 42 bc
       -0.011251496 -0.013303875 0.06034502 -0.011870866
000170 15 d6 98 bb 3d 97 35 3d 97 c1 21 3c 2a 8c b3 3b
       -0.0046641924 0.044333685 0.009872816 0.0054793553
000180 0d 2c 00 3d 8d dc 46 3d 81 20 a8 3c 0d 9f 80 3c
       0.03129201 0.048550177 0.020523312 0.015700841
000190 6c 4f 06 bc 89 f8 e4 bc 22 81 2a bd ad 7e db 3c
       -0.008197647 -0.027950542 -0.041627057 0.026793802
0001a0 66 64 5e bc 5c cc ca bc 91 fd f6 3b 87 5d 97 bc
       -0.013573742 -0.02475565 0.0075375517 -0.018477215
0001b0 da c5 11 3d f4 77 9a 3d 77 d6 8f 3d cc 6c a5 3c
       0.035589077 0.075424105 0.07023328 0.02019348
0001c0 98 b7 a6 3b 7f 58 d9 3c 04 c9 e6 3c 60 ef 81 3d
       0.005087804 0.026531456 0.028172024 0.06344485
0001d0 ea f5 39 3d 60 c4 25 bc 31 bf c8 3c b2 27 8b 3d
       0.045400538 -0.01011762 0.02450523 0.06794681
0001e0 a1 70 f5 bc 30 ce 6d 3d 69 8e a6 3d f6 2e ea 3a
       -0.029960932 0.058057964 0.08132631 0.0017866779
0001f0 7d dd 81 3b 69 f1 b7 3c 07 3a 81 3b 45 d7 93 3c
       0.003963171 0.02245398 0.003943685 0.018046984
000200 49 01 6b 3d c3 c2 95 3d e0 70 36 3d fc c1 04 3d
       0.057374272 0.073125385 0.04454124 0.03241156
000210 e5 6b 3e bd 33 27 c5 bc 21 78 1b bd 0b 51 34 bd
       -0.046489615 -0.024066543 -0.03795636 -0.0440226
000220 1e a6 d3 3d 2f 1a 03 3c fc 6f 20 bc 3b 0f 32 bd
       0.10334419 0.008001848 -0.009792324 -0.043471556
000230 3d ef e6 bd c9 fb 4e bc 85 c7 18 3d 89 3b 73 bd
       -0.112761 -0.012633272 0.03729965 -0.05938295
000240 1c f4 24 bd a0 ae 77 bd 70 62 b9 3c a2 4f b7 bd
       -0.040271863 -0.06046927 0.022629946 -0.08950736
000250 f1 34 1e 3d 98 73 84 3d f7 89 70 bd 37 be 8c bc
       0.038624708 0.0646736 -0.058725324 -0.017180545
000260 81 67 ac 3c bc 54 85 3d 3d 39 6e 3d e6 ea cd 3c
       0.021045448 0.065103024 0.058160055 0.025136422
000270 2f e9 82 3b 97 63 de 3c 4a a2 87 3c 67 2d 5d 3d
       0.003995083 0.027147098 0.016556878 0.053998377
000280 9f b6 59 bd d3 38 3d bd 3a c0 ba 3d 37 05 ee bc
       -0.053152677 -0.04619677 0.091186956 -0.029055221
000290 3c d1 8a bc 78 23 84 bd 76 f8 09 3d cf 98 ac bb
       -0.016945474 -0.064520776 0.033684216 -0.0052672396
0002a0 af 0b 81 bc 1f 3b 68 3d a4 ec aa 3d fb a8 82 bc
       -0.015752641 0.056697007 0.08345917 -0.015949717
0002b0 91 4c 53 3b d3 84 29 bc 24 4e 96 3c 9e 88 eb 3b
       0.0032241682 -0.010346609 0.018347807 0.007187917
0002c0 0b 38 04 bd 44 2c 91 bc 57 61 70 3c 18 5f ed 3c
       -0.03228001 -0.017721303 0.014671645 0.028976008
0002d0 f3 5c 77 bc e6 80 77 3d 65 18 a4 bc 60 06 98 bb
       -0.015097844 0.06042566 -0.020031163 -0.004639432
0002e0 49 24 2a bd 4e 2e 6f 3c 94 32 0e bd f6 4d 36 bd
       -0.04153851 0.014598442 -0.034716204 -0.044507943
0002f0 94 6a b4 bc f1 75 82 bd 6f 6e f9 3c 1f 4e 17 bd
       -0.022023477 -0.06370152 0.030448167 -0.036939736
000300 ee d8 8d bd 36 02 be 3c 17 da ff bc b1 66 29 3d
       -0.06926142 0.023194414 -0.031231923 0.0413577
000310 4a 60 a7 3d bc d8 44 bc a7 b2 91 bb 32 a0 af 3c
       0.081726626 -0.012014564 -0.004446346 0.021438692
000320 8c 6a 64 3c ad 12 44 bc 77 ac 81 bb a3 57 3d 3d
       0.013941418 -0.011967343 -0.003957327 0.046226155
000330 ec a8 8e 3b bc bd 6b 3d fa fb d2 bc b1 e6 57 3d
       0.004353633 0.05755399 -0.025754917 0.05271024
000340 f6 8b da bc cd 41 1c 3c 05 95 08 3c 45 db f0 bc
       -0.026678067 0.0095371725 0.00833631 -0.02940143
000350 43 31 9d bb d8 00 2c bb 82 63 07 bd dd e7 5a bc
       -0.004797132 -0.002624562 -0.033053882 -0.013360945
000360 ce dc 72 3d 64 82 aa 3c 8c 05 8d bc 40 82 f9 3b
       0.059292607 0.020814128 -0.017214559 0.007614404
000370 4e 1e 1a 3d e3 77 55 3d 44 e6 19 bd 95 12 9b bd
       0.037626557 0.052116286 -0.037573114 -0.075719036
000380 db 30 a4 bd b3 e9 33 3c c9 d9 80 bd 10 19 00 bd
       -0.08017131 0.010981011 -0.06291539 -0.0312739
000390 0d 0e 58 bd 93 f8 78 bd fb 3e c2 3b 45 cd 19 3c
       -0.052747775 -0.060783934 0.005927918 0.009387319
0003a0 70 6d 2a bc df 71 78 bb 04 87 44 3d f3 67 1c bd
       -0.0104020685 -0.003790967 0.047980323 -0.03818507
0003b0 4c 32 24 3d 7e af 38 3c d9 63 d8 3c 67 99 15 3d
       0.04008703 0.011272309 0.026414799 0.03652325
0003c0 5d 66 03 bd bb 79 09 3d 25 64 82 bc a9 b9 96 3c
       -0.032080043 0.033563357 -0.015916893 0.018399077
0003d0 12 44 ef 39 68 05 00 3d c2 f0 21 bb 89 4f 58 bd
       0.0004563635 0.031255156 -0.0024710153 -0.052810226
0003e0 3e cb 80 bd 6f cb 42 3c 0e 3f 21 bd c0 ed da ba
       -0.06288765 0.011889323 -0.039366774 -0.0016702935
0003f0 b8 0d fb bb ad 35 2d bd 8f 3d 7e 3d 89 b8 ea bc
       -0.0076615475 -0.042287517 0.062070426 -0.028652446

ConvLSTMLayer.cell.conv.bias f4 [32]
000000 03 af d4 3c 1f 7a 00 3d 57 62 a2 bb a2 51 57 bc
       0.025962358 0.031366464 -0.0049555707 -0.013142021
000010 80 00 b7 3b 17 61 09 3d 7c 7d 9b bb 3d 2b a1 3c
       0.0055847764 0.033539858 -0.0047451835 0.019673938
000020 ea a1 dc 3c 5c e6 ea 3c 7e b9 87 3c 58 f9 fb 3b
       0.026932675 0.028674297 0.016567942 0.007689636
000030 3f 6f 72 3c a7 d4 87 bc 84 b6 5f bc 2a e9 af 39
       0.014797031 -0.016580893 -0.013654355 0.00033552322
000040 af 74 38 3c ed 61 50 bc f0 67 6f 3c 71 82 ea bc
       0.011258288 -0.01271866 0.014612183 -0.028626652
000050 12 42 aa 3c eb ce 98 3c 8a 22 76 bc ae 90 78 3c
       0.020783458 0.018653354 -0.015022883 0.015171213
000060 a5 0c 76 bc 92 79 38 bd 23 1c 60 bd f6 a2 07 3d
       -0.015017663 -0.045037813 -0.054714333 0.033114396
000070 a7 42 ea bc 4e e9 d9 bc 27 d3 80 3c 4d 0e 38 bd
       -0.028596235 -0.026600506 0.015725685 -0.044935513

Classification.0.g.0.weight f4 [4, 8, 1, 1]
000000 e4 39 89 32 23 52 38 39 22 1a ca 33 24 93 3c 36
       1.5975225e-08 0.00017578206 9.4111115e-08 2.809983e-06
000010 c6 96 9b b6 ec 9c 39 b5 8f ba c3 35 2a 15 2b b6
       -4.6369123e-06 -6.914622e-07 1.4582928e-06 -2.5493305e-06
000020 94 5f 53 37 21 63 ad 35 49 bc 38 35 77 3b fc b7
       1.2598834e-05 1.2918355e-06 6.881933e-07 -3.0068431e-05
000030 78 f9 2f b5 7c 5b 91 34 bc 6a db 34 c6 27 87 b8
       -6.5555605e-07 2.7074918e-07 4.0869588e-07 -6.44471e-05
000040 c4 29 0b 39 3c 38 1b 38 07 cb f8 b3 e1 cd c6 37
       0.00013271632 3.7007252e-05 -1.15853304e-07 2.369931e-05
000050 1c 74 ff 36 64 a2 16 b4 ed 8f a1 2c d5 e2 bf 35
       7.613109e-06 -1.4028916e-07 4.591874e-12 1.4296626e-06
000060 9f cd 11 b7 89 b3 06 38 d1 13 44 b5 45 8a 27 32
       -8.690548e-06 3.2115295e-05 -7.3044527e-07 9.752118e-09
000070 c0 dd f6 b8 53 e5 17 35 39 10 52 b4 d3 41 23 38
       -0.00011771498 5.6585594e-07 -1.9563676e-07 3.8923532e-05

Classification.0.g.0.bias f4 [4]
000000 ab 40 99 38 3a 71 b0 b0 19 02 10 b3 a1 f4 e2 b2
       7.307654e-05 -1.2837866e-09 -3.352952e-08 -2.6421107e-08

Classification.0.W.0.weight f4 [8, 4, 1, 1]
000000 b8 d8 28 39 9e e5 31 b4 f7 f2 7e b1 a3 f5 5f b3
       0.00016102463 -1.6567944e-07 -3.7099974e-09 -5.214464e-08
000010 83 d8 b4 b7 10 5d 5f b4 16 bf 7d 33 0e 52 6b 36
       -2.1558493e-05 -2.080235e-07 5.9079944e-08 3.506549e-06
000020 23 5b 58 38 c5 98 d3 37 fb 35 5e b6 77 4c 57 36
       5.158329e-05 2.5224299e-05 -3.3111999e-06 3.2082005e-06
000030 f6 c2 a8 b9 e6 91 2b 37 21 10 18 38 ba 1d 6b 38
       -0.00032188714 1.0226364e-05 3.6254645e-05 5.605605e-05
000040 6c e1 7a b9 fe e5 db 38 f0 0c 7b 34 5c cd 11 39
       -0.00023925834 0.00010485573 2.3380903e-07 0.0001390478
000050 a5 92 57 35 65 3f 53 b6 32 24 54 b5 37 5d 78 b3
       8.030714e-07 -3.147835e-06 -7.9028825e-07 -5.7826778e-08
000060 76 ff 03 b8 ad bb 0d 38 87 f7 97 38 13 72 71 39
       -3.147075e-05 3.3791806e-05 7.246347e-05 0.00023026047
000070 64 ce b3 37 88 ca 84 b7 f9 ca 95 38 a2 87 4f 38
       2.1434571e-05 -1.5829937e-05 7.14268e-05 4.9478964e-05

Classification.0.W.0.bias f4 [8]
000000 83 f4 65 b5 cb 95 6d 31 98 2a a9 ae a1 a0 cd 36
       -8.566496e-07 3.4573187e-09 -7.6927964e-11 6.1281758e-06
000010 71 dc 05 36 0c 71 51 b5 a5 e6 12 39 90 bd 31 b5
       1.9946858e-06 -7.802307e-07 0.00014009567 -6.621349e-07

Classification.0.W.1.weight f4 [8]
000000 d1 a2 51 2c f7 48 99 2b 7c 1f 79 b7 02 aa 91 aa
       2.9791068e-12 1.0891556e-12 -1.4848887e-05 -2.587514e-13
000010 44 7c d7 ab 85 a1 a8 2b 87 ac 5a a8 76 d7 67 ab
       -1.531116e-12 1.1981949e-12 -1.2138842e-14 -8.23667e-13

Classification.0.W.1.bias f4 [8]
000000 b0 96 00 b5 6d c2 af b7 4a 47 f1 37 02 e0 ac 38
       -4.7902995e-07 -2.0952162e-05 2.8762635e-05 8.243324e-05
000010 51 4d 89 b7 4b c0 ef b4 d1 de a7 b6 a1 cb 59 38
       -1.6367676e-05 -4.465713e-07 -5.002927e-06 5.1926476e-05

Classification.0.W.1.running_mean f4 [8]
000000 4b 25 ad 33 0b b5 b0 2f a7 59 b4 ac 3c ac 92 b4
       8.062724e-08 3.2142852e-10 -5.125861e-12 -2.7319936e-07
000010 64 01 9b b3 19 5c 51 33 69 78 51 b7 0b fd 16 33
       -7.218003e-08 4.8745367e-08 -1.2485406e-05 3.5154738e-08

Classification.0.W.1.running_var f4 [8]
000000 a6 ee 92 17 e7 64 ea 16 fd 72 c0 13 8c 76 88 16
       9.495272e-25 3.7868417e-25 4.8581e-27 2.2046799e-25
000010 04 18 d2 14 ba d5 1a 14 a7 ac 3e 19 48 8f 3e 14
       2.1214054e-26 7.817163e-27 9.857637e-24 9.620806e-27

Classification.0.theta.weight f4 [4, 8, 1, 1]
000000 da 23 23 37 03 a9 23 b8 98 05 10 b7 43 0f 82 b4
       9.723904e-06 -3.9019633e-05 -8.584371e-06 -2.422549e-07
000010 d5 1a af 35 92 66 2f b5 d4 99 15 36 77 ba 48 b3
       1.3046325e-06 -6.534184e-07 2.229227e-06 -4.6735718e-08
000020 c5 f7 86 37 4f 64 8b 34 8f 8d e6 b7 41 cd c1 b6
       1.6089421e-05 2.5963752e-07 -2.7484055e-05 -5.775743e-06
000030 6f 04 50 35 2d 26 d4 35 89 ba 02 b2 5d b4 41 b4
       7.749249e-07 1.5806341e-06 -7.609409e-09 -1.8040141e-07
000040 e4 40 47 b4 4a d7 a6 35 44 09 68 36 67 37 24 b5
       -1.8556926e-07 1.2430621e-06 3.4576087e-06 -6.117538e-07
000050 d3 be c1 36 2f d6 16 35 77 d5 8a b6 4a b0 8d 35
       5.774063e-06 5.619103e-07 -4.137571e-06 1.0556626e-06
000060 03 d4 aa 37 53 e6 3a 37 34 f7 e9 37 3d f4 e0 b6
       2.0364305e-05 1.11400905e-05 2.7890877e-05 -6.7041533e-06
000070 02 c6 21 39 d1 9c e9 37 09 36 0c 35 b2 ad bd b6
       0.0001542792 2.7848788e-05 5.2232696e-07 -5.6528597e-06

Classification.0.theta.bias f4 [4]
000000 6d 53 8a 32 a2 b9 16 b8 6f 79 cf b6 11 a5 84 b8
       1.6103252e-08 -3.593567e-05 -6.1832175e-06 -6.3249965e-05

Classification.0.phi.0.weight f4 [4, 8, 1, 1]
000000 91 c6 25 b6 19 20 de 34 0b e6 c1 b0 83 63 f5 37
       -2.4702497e-06 4.1374076e-07 -1.410798e-09 2.9252615e-05
000010 a1 75 0f 37 b0 66 ce b7 a9 95 73 b6 43 c4 dc b6
       8.550852e-06 -2.4604931e-05 -3.6296935e-06 -6.579359e-06
000020 9b 98 13 b7 81 45 0d 2e 0e 55 ba 30 dd cf 1e b8
       -8.797414e-06 3.212142e-11 1.3557455e-09 -3.7863723e-05
000030 dd 69 63 34 48 fd bb b3 71 ab 71 b4 ef 57 6a b5
       2.1179535e-07 -8.753938e-08 -2.2507244e-07 -8.7299753e-07
000040 b8 38 98 b4 88 82 be b1 1f d6 87 37 d4 ff c1 35
       -2.8353475e-07 -5.5445675e-09 1.6192962e-05 1.4454076e-06
000050 b0 78 19 36 4c 7c 42 b7 46 c2 27 b9 8c 7a ac 35
       2.2869026e-06 -1.1592241e-05 -0.00015998734 1.2850664e-06
000060 75 26 00 38 fc 61 d5 2d f3 74 b8 b4 7f ee 21 32
       3.0553394e-05 2.425881e-11 -3.4357763e-07 9.425661e-09
000070 da c5 15 b6 f6 28 a0 34 2f 85 d8 34 e2 cc fe b5
       -2.2317895e-06 2.9832125e-07 4.033004e-07 -1.8984103e-06

Classification.0.phi.0.bias f4 [4]
000000 07 d8 6d b8 5d b8 ff 37 38 f5 90 b8 22 47 eb 37
       -5.6706394e-05 3.048422e-05 -6.9121306e-05 2.8047307e-05

Classification.2.conv.weight f4 [10, 8, 2, 2]
000000 05 1d 9d 3d f8 0d 3d 3d fe 39 db bd 22 7a b3 bd
       0.07671551 0.0461559 -0.107044205 -0.08763529
000010 80 36 3d be ac 71 54 bd 62 fd 04 bd c1 02 62 bd
       -0.18477821 -0.05186622 -0.032468207 -0.055178408
000020 ab c9 a7 3d 94 8d 9f bd 93 46 fb 3d cd ea d8 bc
       0.08192762 -0.07790676 0.1226932 -0.02647915
000030 9a f9 91 3c d7 3d 29 3e 02 dc 1a bd 56 3c 00 3e
       0.017819215 0.16527496 -0.037807472 0.12523016
000040 b5 88 23 be 34 5b b3 3d 1a ab 07 3d 58 e7 af bd
       -0.15970118 0.0875763 0.03312216 -0.08589047
000050 ba 86 28 bd 2a c8 33 3d 93 74 b7 3c da dc 9e 3b
       -0.04114411 0.043892063 0.022394454 0.004848105
000060 52 48 13 be a3 aa e4 bd a3 af 32 3d 64 15 84 bd
       -0.14383057 -0.11165359 0.04362453 -0.064493924
000070 05 76 fc 3c fa e6 2a be 03 a5 48 bd 22 b5 01 be
       0.030817995 -0.16689673 -0.048985492 -0.12666753
000080 26 d6 45 3c e5 26 27 be 2e 08 11 be 8b 8b 92 3d
       0.012074983 -0.16323431 -0.14163277 0.07155522
000090 0b 41 9d bd b2 3e 0d be 80 91 e2 3d da ee 1b 3c
       -0.076784216 -0.13793448 0.11062908 0.009517396
0000a0 d3 b9 9d 3d 42 90 e4 bb c7 a6 9e 3d e7 99 06 3e
       0.07701459 -0.0069752047 0.07746654 0.13144647
0000b0 26 82 b4 bd 63 00 14 3e b6 e2 a7 bd 2e 52 2f 3e
       -0.08813886 0.14453273 -0.081975386 0.17121193
0000c0 c3 01 f8 bd 40 9a 3c bc aa 6d c6 bd cc 6f e2 3d
       -0.12109711 -0.011511385 -0.096888855 0.1105648
0000d0 a5 ff 8d 3d 9b b6 06 be 29 eb 49 3c c9 55 5d 3d
       0.06933526 -0.13155596 0.012324133 0.05403689
0000e0 b1 2a fa 3d be c6 b7 3d 46 f6 ed bd 2c b2 89 3c
       0.12215174 0.08973454 -0.116192386 0.016808592
0000f0 58 b1 4a be 11 95 c4 3c e7 5c 3f 3d 26 1d 3d be
       -0.19794214 0.023996862 0.046719458 -0.1846815
000100 19 2d 07 be d9 d8 2f 3e 08 a9 d1 bd c6 93 b5 3a
       -0.13200797 0.17172565 -0.10237318 0.0013853244
000110 90 b9 20 be 4f 05 19 be 3a 0d b2 bd 9e d8 0f 3e
       -0.15695786 -0.14943431 -0.08693929 0.14047477
000120 fa 6b ef 3d 74 58 ce 3d 5a 4c 6c bd ec fd 1b be
       0.11690517 0.10075465 -0.057690002 -0.15233582
000130 46 c3 12 3e 5f 5d df bd 0e dc de bd 22 19 c5 bd
       0.14332303 -0.10906481 -0.10881816 -0.09623934
000140 aa ce 0c 3d ea b2 a8 3d c0 e4 11 3e 30 70 02 be
       0.034376778 0.0823725 0.14247417 -0.12738109
000150 cd 44 32 3d 70 7a 90 bd e1 1a a8 3c 43 d8 00 3e
       0.043522645 -0.07054603 0.02052063 0.12582497
000160 9a 91 41 3e 11 dc 6f 3d c4 4b 9c bd cd d9 58 3d
       0.18903199 0.05855948 -0.07631639 0.052942086
000170 11 87 02 be c9 6d 0d be c5 0b 04 3d 5d 58 cc 3d
       -0.12746836 -0.13811411 0.032237787 0.099777915
000180 bc 74 91 3d 6f fd de bc 40 61 57 3c c9 15 ef 3b
       0.071023434 -0.027220456 0.013145745 0.007296298
000190 bc b1 41 be 24 9d 17 bd 7f 76 04 be d1 42 18 3e
       -0.18915457 -0.037015095 -0.12935828 0.14869238
0001a0 47 bc 2b 3d 21 af 25 be 72 11 82 bd b5 12 f9 bd
       0.041927602 -0.16180088 -0.06350984 -0.12161771
0001b0 79 7e 1a be 3e 19 18 3d 73 3c c4 bc a4 ff 9f 3d
       -0.15087308 0.037133448 -0.023954606 0.078124315
0001c0 f1 78 06 bd 27 36 a8 ba 13 8c 16 be b3 0a 15 be
       -0.032830182 -0.0012833521 -0.14701872 -0.14554863
0001d0 64 c2 55 bd f7 8a bb 3d c3 18 49 3d ea 07 4e 3d
       -0.05218734 0.09157365 0.04909588 0.050300516
0001e0 15 5c 12 3e 8b 8f dd bd ac 99 8c 3c 82 af 32 be
       0.14292939 -0.10818394 0.01716312 -0.17449763
0001f0 5d 22 66 bd 2b db ce 3d 1b 13 06 3d 24 fa a4 bc
       -0.056185115 0.10100397 0.032733064 -0.020138808
000200 ed 2e 25 3c b9 88 b4 bc ce 9c b1 bc 68 1f 98 3d
       0.010081989 -0.02203785 -0.021681216 0.07427865
000210 4f 61 01 3e 38 a8 34 be 8b b2 05 be f5 b3 2f be
       0.12634777 -0.17642295 -0.1305639 -0.17158492
000220 15 2f 90 3c 9e 5a 6f 3c 4a 3c 6e bd 5c 59 69 3d
       0.017600575 0.014609007 -0.058162965 0.056969985
000230 60 21 81 bd 80 6a 17 bb 9f 5a d9 3d 00 20 5b 3d
       -0.06305194 -0.002310425 0.10612988 0.053497314
000240 b8 99 f1 bd e3 cb 0f 3e 7d 7a 91 b9 71 2b e8 bd
       -0.11796898 0.1404262 -0.00027747816 -0.11336411
000250 bb fe 1c be 8a 04 dc 3d b3 19 7f 3d fc c7 0b 3e
       -0.15331547 0.10743053 0.062280368 0.13650507
000260 2d bb ab 3d ef e0 a8 bd 2e c9 fc ba a8 41 28 3e
       0.0838531 -0.08246028 -0.001928603 0.16431296
000270 54 a3 37 be 88 8f e6 3d 1c 4e 4a bc cc 78 fb 3d
       -0.17933398 0.11257845 -0.012347724 0.122788996
000280 18 bb 98 bd e2 18 eb bd da 8b 4b 3e 01 79 55 be
       -0.0745756 -0.114793554 0.19877568 -0.2084694
000290 c9 ca dd 3c c7 95 14 3c 7c 19 08 3e 45 02 c2 3d
       0.027074235 0.009068913 0.13290972 0.09473089
0002a0 08 83 60 bd 34 73 a1 bc be 6e 0b 3d 8c 39 0b bd
       -0.05481246 -0.019708253 0.03404116 -0.033990428
0002b0 d7 45 94 bd dd 20 21 3e 72 d4 94 bd ac 7f 5c bc
       -0.072398834 0.15735193 -0.07267083 -0.013458174
0002c0 01 ab ef 3d 41 06 04 3e fd 7f 93 bd c3 f2 17 bd
       0.11702538 0.1289301 -0.07202146 -0.03709675
0002d0 9a 6f 13 be 9b b4 f7 bd 76 52 f5 3d 76 f1 c8 3d
       -0.14398041 -0.12094995 0.11978619 0.0981168
0002e0 c7 a7 a9 bd b0 22 9a 3d cb 60 f8 bd 70 76 23 be
       -0.08283954 0.07526147 -0.12127837 -0.15963149
0002f0 ab 9e 0d bd a1 99 26 3e 6e bc 03 be 7f 08 43 3e
       -0.034575146 0.16269542 -0.12864849 0.1904621
000300 23 be 3a 3e 6f 4a 2f 3e 7e ca 23 be 4a 24 eb bd
       0.18236594 0.17118238 -0.15995213 -0.11481531
000310 d2 d5 c2 bc b8 5e a4 3d da 16 07 3e e2 22 98 bc
       -0.023783598 0.08025879 0.13192311 -0.01857132
000320 b2 27 bd 3d f8 51 e4 3d f4 5e 02 3e 5d d3 8f bc
       0.09236087 0.11148447 0.12731534 -0.01755684
000330 56 ed 27 3e 14 91 70 bd bb ad e6 bd 69 92 05 be
       0.1639913 -0.058732107 -0.11263605 -0.13044132
000340 38 50 0f be 9c 04 ab bd 96 64 27 3d b9 e7 66 3d
       -0.13995445 -0.083504885 0.04086741 0.05637333
000350 a1 65 10 be 02 fd 04 be 14 ca 06 3e f9 cd 80 bb
       -0.14101268 -0.1298714 0.13163024 -0.003930804
000360 96 0a ad 3c 42 d3 7e bd 2d c0 d4 bd 98 33 d9 bd
       0.021123212 -0.06221319 -0.10388217 -0.10605544
000370 7f 00 b6 3d 3e 29 08 bd 1a 10 66 3c 0d eb 0a 3e
       0.08886813 -0.033242457 0.014041925 0.13566227
000380 e0 dc 2a 3e d8 47 a7 bd a5 94 07 3c 91 aa 4e bd
       0.1668582 -0.08168 0.008275186 -0.050455634
000390 55 5a e2 bd 6f 9e a8 bd 33 31 af 3d 3f 20 97 3d
       -0.11052386 -0.08233344 0.08554306 0.07379197
0003a0 5b c3 b6 bd 31 0b bb bd d2 2c 0f 3c b8 eb c1 bc
       -0.0892398 -0.09132994 0.008738713 -0.02367197
0003b0 a8 7a f9 3d 7b e7 80 3d eb ff e4 bd 50 1c 3d be
       0.12181598 0.062941514 -0.11181625 -0.18467832
0003c0 c5 84 ce 3d cc 75 b8 3d 60 e5 17 3d ad b7 ca bd
       0.100839175 0.09006843 0.037083983 -0.098983146
0003d0 b5 a1 0b 3d 82 7d d8 3d e0 20 7c bc 75 44 4f 3e
       0.034089763 0.10570814 -0.015388697 0.20240958
0003e0 83 67 ca bd 0c d0 02 3e 70 9b 02 be 61 74 d8 bd
       -0.098830245 0.12774676 -0.12754607 -0.105690725
0003f0 4f 5f 95 3d 7d 5a 3a 3d 14 c2 92 bd 66 d7 56 bd
       0.07293569 0.045496453 -0.07165924 -0.052451514

Classification.2.conv.bias f4 [10]
000000 67 a8 1c b8 e3 8d e1 b4 aa a7 25 b7 73 ca ba 37
       -3.7350135e-05 -4.2012752e-07 -9.873804e-06 2.22672e-05
000010 17 8f 18 b7 5d 46 f0 36 58 ee e9 38 4f 44 90 b5
       -9.093222e-06 7.1607487e-06 0.00011154701 -1.0748716e-06
000020 31 29 d7 32 a3 58 91 b6
       2.5048026e-08 -4.3316554e-06

Classification.2.bn.weight f4 [10]
000000 77 7d 6a 3f 7f bf 77 3f ed 2d 7a 3f 3a 71 6d 3f
       0.91597694 0.96776575 0.9772633 0.92750895
000010 5a 42 66 3f be 27 71 3f a4 9b 68 3f 90 f2 6f 3f
       0.89944994 0.94201267 0.9086249 0.93729496
000020 a9 a2 6b 3f 48 27 6d 3f
       0.92045075 0.92638063

Classification.2.bn.bias f4 [10]
000000 b0 db bc bc 9a 2e 0f 3c f7 e9 be bc 10 ea 97 bc
       -0.023053974 0.008739138 -0.023304923 -0.018544227
000010 d5 85 81 bd af be 8c bc e2 ae 2b bd 8e 37 43 bd
       -0.063243546 -0.017180769 -0.041914828 -0.047660403
000020 ab db 04 bd 87 93 c9 bc
       -0.032436054 -0.02460648

Classification.2.bn.running_mean f4 [10]
000000 be f9 09 bd 2e 36 9b bc d2 fb 0d bc 70 a9 db bc
       -0.03368544 -0.018946733 -0.008665996 -0.026814193
000010 fb 7a 9f bc 9f 10 d9 3b ea 48 1a 3b 36 98 c0 bb
       -0.019467821 0.006624296 0.0023541995 -0.00587752
000020 f9 5e 0a bc 1c 75 64 b9
       -0.008445495 -0.00021787401

Classification.2.bn.running_var f4 [10]
000000 95 20 a0 3a c5 3a 3f 3a e6 65 4b 3a c2 0a 21 3a
       0.0012216741 0.0007294829 0.00077590195 0.00061432656
000010 31 a3 57 3a 5a c1 08 3b 8c e8 7f 3a 62 7b 7c 3a
       0.00082259165 0.00208672 0.000976213 0.00096314226
000020 96 a6 25 3b e8 65 74 3a
       0.0025276295 0.00093230465

AUsLSTM.weight_ih_l0 f4 [600, 17]
000000 81 c7 fd bd d6 80 d4 bd 25 09 55 ba ee b9 59 3c
       -0.12391568 -0.10376136 -0.0008126668 0.013288958
000010 61 af 41 bd 1e 03 2b bc c2 82 09 3d 1a 97 ab bd
       -0.047286395 -0.010437755 0.033571966 -0.0837843
000020 8e 87 c5 bc 68 f0 26 3d af ba 03 3d 3f 95 d9 3d
       -0.02411249 0.040756613 0.032160457 0.106241696
000030 19 b7 d4 bc ed f5 84 bd 9a d3 9c bd 54 3a 44 3d
       -0.025966214 -0.06492219 -0.07657547 0.04790719
000040 d7 7b 9f 3c 73 1f cd 3c 1b 36 c2 bc bf 1f 32 ba
       0.019468231 0.02503941 -0.02370744 -0.00067948917
000050 f6 30 4d 3d 87 67 b7 bc 8a ff 12 3d f9 9a ff bc
       0.05009552 -0.022388233 0.035888232 -0.031201826
000060 d6 c1 8c bc ed 32 f6 3c 58 54 a7 3c 71 c3 ab 3c
       -0.017182272 0.03005358 0.02042596 0.020967217
000070 bd 31 79 bd 70 13 3a bd f3 73 31 bd 82 d6 5e bb
       -0.06083845 -0.045428693 -0.04332347 -0.0034002368
000080 a5 77 b6 bc 69 21 1f 3d fc ad 11 3d 61 38 bf bc
       -0.022273848 0.03885022 0.035566315 -0.023342313
000090 39 ee 2a 3c 47 c0 ea 3b e0 e7 93 3d 10 e4 d2 3a
       0.010432773 0.0071640345 0.07221961 0.0016089696
0000a0 71 e3 d9 ba af d5 a5 bc b6 d3 49 3d ac 7e f0 3c
       -0.0016623569 -0.020243494 0.04927417 0.029357277
0000b0 7f f1 a1 3d a1 ec 84 b9 1f a9 b9 3c a6 80 72 bd
       0.0790739 -0.00025353304 0.022663651 -0.05920472
0000c0 1c 37 59 bd bb fa 50 3d 38 75 a1 bd b9 b9 5f bc
       -0.053031072 0.051020365 -0.07883686 -0.01365512
0000d0 87 91 c7 3b 3f 59 55 3d 12 9e 42 bb e4 52 a7 3a
       0.0060903463 0.052087065 -0.0029696268 0.0012765792
0000e0 cc 52 91 bb a8 d6 bc bd f5 32 72 bd 71 4b af bd
       -0.004434919 -0.0922063 -0.059130628 -0.08559311
0000f0 9c 89 b0 bd f5 dc 6d 3c ba 52 54 3d 83 2b 39 3d
       -0.08619997 0.014518012 0.051836707 0.04520751
000100 75 d6 78 3d df 90 98 bd fb b1 65 bd 40 9a 8a 3b
       0.060751397 -0.07449507 -0.05607794 0.004229814
000110 56 48 a6 3c 0a 5b 1d 3d e9 29 0e 3d 03 ab 21 bd
       0.020298164 0.0384169 0.034707937 -0.03946973
000120 ae c6 77 3d a0 7b 22 bd 59 08 5d 3c 81 bd 51 bc
       0.06049221 -0.03966868 0.01349076 -0.012801529
000130 83 f5 6f 3c 4e f7 b6 bd 21 6e c6 bb 1b 06 e2 bd
       0.014645937 -0.089338884 -0.006055609 -0.11036321
000140 67 d7 65 3c 7d 50 82 bd 40 e9 d4 3c 37 47 12 bc
       0.014028407 -0.06363008 0.025990129 -0.008928112
000150 60 a6 73 3c 65 ff ae bd 78 18 5b 3d d5 57 68 bb
       0.01487121 -0.085448064 0.053490132 -0.0035452743
000160 37 2b db bd 4b 7f 0b 3d f7 d6 30 bd 22 9a 9f bd
       -0.10701602 0.034056943 -0.043173756 -0.077930704
000170 27 b6 64 3c c3 28 99 bd ae 0c 13 bd f4 db e7 3c
       0.013959444 -0.07478478 -0.035900764 0.028303124
000180 e1 da b3 3c 76 81 4f bd 97 df 19 3d 6b b6 ca 3c
       0.021954956 -0.050660573 0.037566748 0.024745187
000190 6f 04 40 3d b5 64 81 3c 3a 5f 1d bc a2 7a aa 3b
       0.04687923 0.015795091 -0.009605223 0.0052026073
0001a0 2f 5c 49 bd 42 da 5c bd 18 b0 cf bd 0c 41 12 3c
       -0.04916018 -0.053919084 -0.10141009 0.008926641
0001b0 9b 16 c3 3b ec ad 9c bd 90 5a 31 bd bd df c6 3c
       0.0059536225 -0.076503605 -0.043299258 0.024276609
0001c0 fd 66 d4 bd f6 25 73 bd e5 6e bc 3c 4d ac b2 bc
       -0.10371206 -0.059362374 0.023002097 -0.021810675
0001d0 52 c1 e7 bd bd 2a 33 bd 24 1a 07 bd 50 d1 05 3c
       -0.1131617 -0.04374193 -0.032983914 0.00816758
0001e0 8a e0 39 3d ab b9 07 bd 5e 30 85 bc 4a 89 bc 3d
       0.045380153 -0.03313605 -0.016258415 0.09205873
0001f0 19 ca e3 3c 4d 4f 2c 3b d0 0c 73 bd c9 9e 04 3c
       0.027806329 0.0026292384 -0.05933839 0.008094498
000200 e7 e5 6b bc fd d7 c6 3d 7e 21 14 bb 7b 37 7d bc
       -0.014398075 0.09709165 -0.002260297 -0.015455122
000210 59 d5 ef 3c 84 b1 61 bd 74 dc cc 3c 6c 1b dd bd
       0.029276537 -0.055100933 0.025007464 -0.10796246
000220 64 e3 86 3c 3d 79 8e bd 3a 32 5c bd 01 aa e2 3c
       0.01646585 -0.06956718 -0.053758837 0.027668955
000230 1d 83 54 3b b2 d2 b0 3c 05 cc 2c bd fb 0b 29 bd
       0.0032426782 0.021584842 -0.042186756 -0.04127119
000240 39 cb 46 3d 29 8f 44 3d 03 92 3f bc cc ac d3 3c
       0.048533652 0.04798809 -0.011692527 0.025839232
000250 22 83 69 bd f7 0d 20 bc ca f8 5c bb d5 67 9a 3d
       -0.057009824 -0.0097689545 -0.0033717626 0.07539336
000260 2c 03 dc 3c ae bd 85 bc ee 19 2d bd cd 19 ce bb
       0.026856981 -0.016325798 -0.042261057 -0.006289697
000270 e4 ef 83 3d d9 32 cd 3c 19 3f 6e bd b5 a5 31 bd
       0.0644224 0.02504866 -0.058165643 -0.04337092
000280 30 92 81 bd 05 3e 86 3d 46 25 7a bc 5c f1 84 bd
       -0.06326711 0.06554798 -0.015267676 -0.06491348
000290 f3 17 8c bd 2d 3d fa 3c 1a 1a 52 3d 35 75 f6 3c
       -0.068405055 0.030546749 0.051294424 0.030085186
0002a0 36 77 c2 3c 47 78 84 bd e3 07 33 bc f4 5e e9 3d
       0.023738485 -0.064682536 -0.010927173 0.11395064
0002b0 2e 1e 42 bd 72 73 8d 3c 99 af da bc 25 c8 d0 3c
       -0.047392063 0.017266963 -0.02669506 0.025486061
0002c0 c3 ad cc bc 47 0d 25 bd 6b c2 27 3d 95 f6 57 3d
       -0.0249852 -0.040295865 0.040956896 0.052725393
0002d0 5c 37 64 bc 45 cf 93 bc ee 5a 1e bc 4f 07 93 3d
       -0.013929214 -0.01804317 -0.009665234 0.071791284
0002e0 6f 41 31 bb fe 0b 59 bd cb ce 44 3c 85 2a ca 3c
       -0.0027047058 -0.052989952 0.012012194 0.024678478
0002f0 f8 63 11 bc 01 01 3a bd 06 01 85 3d ed 4d ea 3d
       -0.008873932 -0.045411114 0.06494336 0.114406444
000300 a7 80 68 3b 7d 3f e3 bc 44 46 a5 bd ea 5a a9 3d
       0.0035477073 -0.027740235 -0.08070043 0.082692936
000310 24 8d 51 bd bc 1a 32 bd 0a 06 ac 3c 71 5f 0d bd
       -0.051159993 -0.043482527 0.020998973 -0.03451485
000320 04 45 4e 3d 02 a7 22 3d b1 5d 82 bd b8 23 0b be
       0.050358787 0.039710052 -0.063655265 -0.13587844
000330 78 b6 9e 3c d2 d3 24 3d 9a 09 f3 3b 72 e6 1d 3c
       0.019374117 0.04024107 0.007416916 0.009637462
000340 9d f2 0a bb 16 7b 4f bd da 15 39 ba f9 24 55 bd
       -0.0021201738 -0.050654493 -0.0007060446 -0.052037213
000350 ab 2b c4 3c 37 30 2a bd 4b d1 1e 3d 11 c9 33 3d
       0.023946604 -0.041549888 0.038773816 0.043892924
000360 7e 83 af bd 3c 19 1b bd 55 52 0e 3d a8 4f 3f 3b
       -0.08570002 -0.037865862 0.034746487 0.0029191766
000370 90 14 3e bd 94 b7 93 bc c0 83 7c bd f9 8a 89 3c
       -0.04640633 -0.018031873 -0.061649084 0.0167899
000380 c1 b7 5c 3d 18 05 2d bd db 5b 3c bc 4c 76 c5 bd
       0.05388618 -0.042241186 -0.011496509 -0.09641704
000390 6a 60 9e bd 7a cb a4 bc 55 9a e3 bc e9 c0 18 bd
       -0.07733233 -0.020116556 -0.027783552 -0.03729335
0003a0 44 43 94 bd e7 10 07 bd 01 b0 12 3c 10 e6 b7 bd
       -0.072393924 -0.032975104 0.008953095 -0.08979428
0003b0 7f be 05 bd bf c0 3c bc 75 a7 a9 3c 4b a0 da bb
       -0.032652374 -0.011520564 0.020709733 -0.0066719404
0003c0 d6 41 ec bc 71 ec 05 3d eb a6 b1 3c 86 30 5a bd
       -0.028839987 0.03269619 0.021686038 -0.05326893
0003d0 01 94 ec 3b dd 97 e0 3c 77 06 fa bc bb e4 2f bd
       0.007219792 0.027416164 -0.03052066 -0.042942744
0003e0 43 26 29 3c fd d2 14 3d 98 00 76 bd 43 57 da bd
       0.010324064 0.036334027 -0.06005916 -0.10661175
0003f0 b2 b6 f2 bb cb bb 6c bc a2 a0 0e bd 79 f8 36 bd
       -0.007407033 -0.01444907 -0.03482116 -0.044670556

AUsLSTM.weight_hh_l0 f4 [600, 150]
000000 3b 2a 26 3c 7c 87 b5 3b 4e 9b 1e 3c 4e 4f a0 3c
       0.0101419045 0.0055398326 0.009680582 0.019569065
000010 61 01 08 3d ed be f8 3c e1 73 48 bc c9 77 ce 3c
       0.03320444 0.030364478 -0.012234659 0.025203602
000020 8a 55 c7 bd 08 4c 7c 3a fe 90 7e bd fd b8 28 bd
       -0.09733112 0.00096243666 -0.062149994 -0.041192044
000030 df 1f e0 ba 53 af 1d bd 5d 0a 1c bc 88 27 b0 3c
       -0.0017099342 -0.03849728 -0.009523955 0.021503225
000040 22 89 fc bc e6 0d 3d 3c ed aa 09 3c 82 30 2c 3b
       -0.030827109 0.011538958 0.008402568 0.002627403
000050 14 52 49 3d f5 68 11 3d 6b 68 77 bc 85 01 26 bc
       0.04915054 0.035500485 -0.015100579 -0.010132198
000060 7d 04 38 bd 69 bc 01 3d 3d 90 c6 bb 1a 48 d0 3b
       -0.044926155 0.031673823 -0.006059675 0.0063562514
000070 df 3b 80 3b cb ab 48 3d 53 7a 33 bb 5a 85 60 bc
       0.003913387 0.04899196 -0.0027386143 -0.0137036685
000080 79 97 7c 3c 51 35 e9 3d 09 e3 96 bd b5 e6 77 3b
       0.015416973 0.113871224 -0.07367522 0.003782672
000090 62 04 c6 b8 36 da c9 bb f9 4a 35 bd c2 27 d1 3b
       -9.442192e-05 -0.006160046 -0.044260953 0.0063829133
0000a0 1f b3 4e bc 1c 35 d0 b9 dd 6e f8 bc 8c 49 21 3c
       -0.012615948 -0.0003971242 -0.030326301 0.009844195
0000b0 a6 d5 7a 3c 01 ca 04 3d 60 7a 03 3d b7 37 25 3d
       0.015309727 0.03241921 0.032099128 0.040336337
0000c0 d3 59 09 3d 0e 9c c5 3b 1e b2 c4 bb 86 bd 90 bc
       0.03353293 0.006030566 -0.0060026785 -0.017668497
0000d0 d6 1d 9b bb 59 8d 17 bd a4 df 32 bd 13 97 9b bd
       -0.0047337813 -0.037000034 -0.04367031 -0.075971745
0000e0 c0 8e 47 bd 96 8e 0d 3d b3 58 1b 3d 05 6c 08 bd
       -0.04872012 0.03455981 0.037926387 -0.03330614
0000f0 69 f6 86 bb 89 14 33 3c 92 c7 c9 bb 48 62 06 bd
       -0.00411873 0.010930189 -0.006157824 -0.032808572
000100 8b 53 d9 b9 4f bb 24 bd 7b 60 ab 3c 87 4b 27 bc
       -0.0004145171 -0.040217694 0.020920029 -0.010210878
000110 89 62 9a bb 71 d8 03 bd 76 b2 62 3b d1 b3 77 3c
       -0.0047114533 -0.032188836 0.0034591234 0.015118555
000120 1f 67 f9 3c dc a2 ce bc 3d 18 97 3d ec 37 b8 bc
       0.03044468 -0.025224142 0.0737767 -0.022487603
000130 0d d7 4e bd 93 d7 ba bb 15 a6 02 bd c3 ea 4d 3c
       -0.050498057 -0.005701968 -0.03189667 0.012568179
000140 c4 dd f8 3c 89 48 67 3c a5 0d b2 3c 8f 64 48 bc
       0.030379184 0.014116415 0.021735022 -0.012231006
000150 18 91 f1 3c d0 ac 2e bc 2e 61 cc 3b 10 d5 eb bb
       0.029488131 -0.010661319 0.0062371707 -0.00719703
000160 eb df a8 3c ab 8b 72 bc a0 a2 bc 3b 7f 36 16 ba
       0.020614585 -0.014803807 0.005756691 -0.00057301664
000170 1d 79 16 bd 47 4a 2b 3d 60 91 f5 bb e6 f0 8e 3d
       -0.036736596 0.041818883 -0.0074941367 0.069795415
000180 90 8a 14 bc 6c c7 00 3a 90 21 bc bc 19 1e b9 3c
       -0.009066239 0.00049125287 -0.022965223 0.02259736
000190 66 80 cb 3c 3a 02 cd bb ae 8a e7 bc 91 12 6a bc
       0.024841499 -0.006256369 -0.02826437 -0.014286653
0001a0 af e9 20 3c a2 9d 4b bc 1e 62 07 3d 86 e5 ab 3c
       0.0098213395 -0.012427719 0.033052556 0.020983469
0001b0 dd 8d 1a bd 2d 05 04 3d 6f 92 10 3d e6 cf 7c bd
       -0.037732948 0.0322315 0.0352959 -0.061721705
0001c0 08 a5 03 bc da 5c fd ba 19 d2 02 3d 74 ad 89 bb
       -0.008034952 -0.001933004 0.031938646 -0.0042015854
0001d0 27 20 b2 bc 4f 67 98 3c a5 4a da bc 8a f3 87 3c
       -0.021743847 0.018603949 -0.026646921 0.01659562
0001e0 de 00 05 3d 46 8a 15 bd 02 2a ec bd ba f3 ee bc
       0.03247153 -0.03650882 -0.1153145 -0.029168952
0001f0 cc 15 83 bd 2d 44 e9 3b 93 18 1c bd c9 d9 02 bd
       -0.06400642 0.007118723 -0.038109373 -0.031945977
000200 db d1 ce bc 7f 4f c7 bb 1b f7 9b bc 0e 19 9e bb
       -0.025246551 -0.0060824747 -0.019038728 -0.004824764
000210 97 ef ee 3c 8b 3b 8f bc 64 f7 62 3d 9e b9 0b bd
       0.02916698 -0.017484447 0.05541171 -0.034112565
000220 4b be 85 3a 6b e0 66 bd f0 ed 07 bc 87 7a 47 bc
       0.0010203806 -0.056366365 -0.008296475 -0.012175209
000230 53 13 12 3d 5f 1b f0 3c 77 db 86 3b 96 54 7b bd
       0.03566296 0.029309927 0.0041155177 -0.061359964
000240 6a 9d 82 3d d1 1d 05 bd e4 a4 cd bc 0c f4 42 bb
       0.063776806 -0.03249914 -0.02510304 -0.0029747514
000250 fc 85 e3 bc a8 02 59 bc 42 77 da 3c 50 7c 35 3d
       -0.02777385 -0.013245262 0.026668195 0.044308007
000260 5c 7d 6a 3c 2e 7e 04 bc 45 ec af 3c a1 52 7a 3c
       0.014312115 -0.008086724 0.021474967 0.015278489
000270 5e 10 a3 bb 04 00 8e 38 2f 35 1a 3c 55 be 0e bd
       -0.0049763164 6.7710906e-05 0.009412094 -0.034849484
000280 98 35 02 3d ad 39 88 3a 69 45 85 3c 71 19 4e 3c
       0.031789392 0.0010393165 0.016268449 0.012579308
000290 1e a3 8a bc 3a 25 78 bc dc 8f c4 3c 1a c1 28 3d
       -0.016923483 -0.015145594 0.023994379 0.04119978
0002a0 ec 06 50 3c 51 78 81 3c 56 8c 28 bd 72 2e 91 bd
       0.012696963 0.015804442 -0.04114946 -0.07088937
0002b0 e6 93 d2 3c 89 1a 6a bc 34 b3 f9 3c 41 5d de bc
       0.02570529 -0.014288553 0.030480959 -0.027144076
0002c0 cc 4e 16 3d 7a 79 25 bc 6f 94 7e 3c 42 e5 91 bc
       0.03669624 -0.010099763 0.015538319 -0.017809514
0002d0 59 d4 d8 bc ff 89 17 bc cc 7e eb bc 6e 70 2f 3d
       -0.026468443 -0.009249209 -0.028746985 0.04283183
0002e0 81 6a bc 3c 46 52 13 bd d9 f2 58 bc 7b 99 bb 3c
       0.023000004 -0.035967134 -0.013241493 0.022900334
0002f0 89 21 41 bd 90 f4 d4 bc 3a 63 87 bb e2 b9 9a b7
       -0.047151122 -0.025995523 -0.004131702 -1.8444789e-05
000300 6c 33 b6 3c 5a 20 b9 3b 02 78 47 bc 2f ef dc bc
       0.022241317 0.0056496086 -0.012174608 -0.02696952
000310 6d 15 9d 3c de a2 b0 3a 3f e3 e3 bc 80 55 82 3c
       0.019175256 0.0013476273 -0.02781832 0.01590991
000320 77 de ac bb d0 37 0b 3c 7b db 97 bc 8e 3d 1a 3b
       -0.0052755433 0.008497193 -0.018537274 0.0023535225
000330 98 86 69 bc 2c 64 ce 3c 61 35 df ba 8d e7 2f 3d
       -0.014253281 0.02519425 -0.0017029458 0.042945433
000340 9b af 1c bb 14 cc 0b bd b6 69 b3 bc 35 3c 36 bc
       -0.002390838 -0.03413017 -0.021900993 -0.011122753
000350 57 9c 1f bd 1a be a6 3b 27 75 f3 3c 6e be d4 3b
       -0.038967457 0.00508858 0.029718949 0.0064924276
000360 0b 45 4b bd 60 8a ea bc a7 d1 a7 3b fc b6 87 bc
       -0.04962639 -0.028630435 0.005121428 -0.016566746
000370 35 2e f4 3a 7f 06 1c 3d 20 f3 9f bd 47 ab e3 3c
       0.0018629493 0.038092133 -0.07810044 0.027791632
000380 f8 12 b2 bc 37 2d d0 bb a4 91 02 3d 6d 88 0d bd
       -0.02173756 -0.0063530463 0.031877175 -0.034553934
000390 7f 6f 17 bd bc 9a 18 bd 18 25 76 bd 68 4e da bb
       -0.036971565 -0.03725694 -0.06009397 -0.006662179
0003a0 da 1a b5 bc fe 6d 54 bc e1 d9 ab bc 59 fe e6 bb
       -0.02210753 -0.012965677 -0.020977916 -0.0070493636
0003b0 af 4a 98 bc b9 26 96 bc 4f df 54 bb 7a 92 13 3b
       -0.0185903 -0.018329011 -0.0032481735 0.0022517727
0003c0 77 fb d4 3c 23 8e 87 3c f4 25 fc 3b 00 51 f5 bc
       0.025998814 0.016547268 0.007694954 -0.02994585
0003d0 3f 95 c7 3c 5c 7b d6 bc 3d 63 34 bd 29 e8 2e bd
       0.024363158 -0.02618187 -0.044039954 -0.042701874
0003e0 70 c3 bd 3c 90 b8 81 bc 33 7c d1 bc 1a 1c 4c bc
       0.02316448 -0.015835077 -0.025571918 -0.012457872
0003f0 a8 77 d5 bb 7c a4 de 3c 33 94 0c bb 84 ed 64 3c
       -0.0065145083 0.027178042 -0.0021450638 0.013972644
