models/simple validation/videos/pytorch/1-116-0.05751901492476463-0.8194444179534912.pt (torch, 35806 bytes, 39 tensors)

TSA.conv.weight f4 [3, 3, 3, 3]
0	0xbd12f228	-0.03587547
1	0x3a25fdd1	0.0006332072
2	0x3d0881e7	0.03332701
3	0x3b0ad2c7	0.0021182762
4	0x3f7f7060	0.99780846
5	0x3df310f6	0.118684694
6	0x3e1a12fb	0.15046303
7	0x3e029676	0.12752709
8	0x3df5f084	0.12008765
9	0xbdbf3e81	-0.093380935
10	0xbd78730e	-0.0606566
11	0x3c0063ef	0.007836326
12	0xbd509445	-0.05092265
13	0x3f6f5ee8	0.9350419
14	0x3ddb1f0e	0.106992826
15	0x3e017b9e	0.12644812
16	0x3d99b482	0.07505132
17	0x3df1d0c7	0.11807399
18	0xbdd27ffd	-0.10278318
19	0xbd9f5e8b	-0.077817045
20	0xbd58e23d	-0.052950133
21	0xbd1a590e	-0.037682585
22	0x3f6d80ac	0.9277446
23	0x3d9cee85	0.076626815
24	0x3e26e37e	0.16297719
25	0x3da1282c	0.0786899
26	0x3db0061f	0.085949175
27	0x3d90ccbf	0.07070302
28	0x3d4a770b	0.049429934
29	0x3d70ebc5	0.058818597
30	0x3dc2c7f6	0.09510796
31	0x3f84dc27	1.0379685
32	0x3dc8cda2	0.09804846
33	0x3d45b6a7	0.048269894
34	0x3c41cc19	0.011828446
35	0x3ca6b5b1	0.02035031
36	0xbc362e63	-0.011119458
37	0xbc1c6bdc	-0.0095472
38	0x3d8c31b6	0.06845419
39	0xbc583865	-0.013197039
40	0x3f78a268	0.9712281
41	0x3e0117e0	0.12606764
42	0xbdcffe4d	-0.10155926
43	0xbd94fb0c	-0.07274446
44	0x3d5e43cd	0.05426388
45	0x3e0585a7	0.13039266
46	0x3dc8651c	0.0978491
47	0x3e084b7d	0.13310046
48	0x3dbe642e	0.092964515
49	0x3f8766fc	1.0578303
50	0x3e365bd6	0.1780847
51	0xbcf93a73	-0.030423379
52	0xbc2aeb70	-0.010432109
53	0x3dac09da	0.084003165
54	0x3da545fc	0.08069989
55	0x3e1d4965	0.15360029
56	0x3e308640	0.17238712
57	0x3e04ff54	0.12988025
58	0x3f836499	1.0265075
59	0x3dae09e7	0.084979825
60	0xbceb228e	-0.028703
61	0xbdde1ac2	-0.108449474
62	0xbe5efb56	-0.21775565
63	0x3d3f2e95	0.046675283
64	0x3e1080a2	0.1411157
65	0x3df915c9	0.12162358
66	0x3df6ad55	0.12044779
67	0x3f857713	1.0426964
68	0x3dd2619c	0.10272524
69	0xbd16b03e	-0.03678917
70	0xbdc3af89	-0.09554965
71	0xbe408ae7	-0.18802987
72	0x3d178678	0.036993474
73	0x3e2f2225	0.17102869
74	0x3e170269	0.14747013
75	0x3dca5f56	0.09881465
76	0x3f88bce6	1.0682647
77	0x3dedf077	0.11618131
78	0xbdb03929	-0.086046524
79	0xbdc07f3b	-0.09399267
80	0xbe4b8e55	-0.19878514

TSA.conv.bias f4 [3]
0	0xbc618905	-0.013765578
1	0xbd34cc99	-0.044140432
2	0xbded5c52	-0.11589874

FPN.0.weight f4 [3]
0	0x3f72de48	0.94870424
1	0x3f88883a	1.0666573
2	0x3f564c39	0.83710057

FPN.0.bias f4 [3]
0	0x3d65ec26	0.05613341
1	0xbe3165eb	-0.17324035
2	0xbe21102c	-0.15728825

FPN.0.running_mean f4 [3]
0	0x3f0175a9	0.5057016
1	0x3ed6d67c	0.41960514
2	0x3eb54864	0.35406792

FPN.0.running_var f4 [3]
0	0x3da4039b	0.080085
1	0x3d8cc7d5	0.068740524
2	0x3d66e6b9	0.056372378

FPN.1.conv.weight f4 [4, 3, 3, 3]
0	0x3db04d13	0.08608451
1	0x3adfb715	0.0017068113
2	0xbda645a9	-0.08118755
3	0x3dd9e2bd	0.1063895
4	0x3d4ecab8	0.050486296
5	0xbe5ca5a0	-0.21547556
6	0xbdff7369	-0.124731846
7	0xbe1ab1cb	-0.15106885
8	0xbda16ba8	-0.07881862
9	0x3e249e71	0.16076066
10	0x3e256259	0.16150798
11	0x3e008213	0.1254962
12	0x3e7c7579	0.24654187
13	0x3e3b8eb9	0.18316163
14	0xbd053428	-0.032520443
15	0xbe06941a	-0.13142434
16	0xbdfce182	-0.123477
17	0xbe5b9479	-0.21443357
18	0x3d92e086	0.07171731
19	0x3e78ad55	0.24284871
20	0x3ddcc6de	0.107801184
21	0x3de55b0a	0.11199005
22	0xbd7dbea1	-0.061949376
23	0x3df72374	0.12067309
24	0x3dc86dcb	0.09786566
25	0xbe4692f9	-0.19392003
26	0xbe26db8c	-0.16294688
27	0xbdfd0b69	-0.12355692
28	0xbe36e536	-0.17860875
29	0x3e14547e	0.14485356
30	0xbc03dcbb	-0.008048232
31	0xbdc24067	-0.0948494
32	0x3c0fe461	0.008782477
33	0x3d77a170	0.060456693
34	0xbe103ef6	-0.14086518
35	0xbe4118db	-0.18857138
36	0xbd857970	-0.06517303
37	0xbdc3f3a2	-0.09567954
38	0x3ccf092a	0.025272924
39	0x3cfc5b34	0.030805208
40	0x3e7b828e	0.24561521
41	0xbd763baf	-0.060115512
42	0x3e1ab3d3	0.1510766
43	0x3e83b585	0.25724426
44	0x3e9f6066	0.31128234
45	0xbe3ee53f	-0.18642138
46	0xbe6dae99	-0.23211135
47	0xbe48b5b6	-0.19600567
48	0xbcfc537f	-0.030801533
49	0x3d752724	0.05985178
50	0x3e2224e7	0.1583439
51	0x3daca781	0.08430386
52	0x3e24a977	0.1608027
53	0xbe13d44a	-0.1443645
54	0xbe2dbf34	-0.1696747
55	0xbd9b32a1	-0.07578016
56	0xbe1c01f0	-0.15235114
57	0xbd949774	-0.0725545
58	0x3e27a469	0.16371311
59	0x3e1af119	0.15131034
60	0xbe0a7672	-0.13521746
61	0x3da6023c	0.08105895
62	0x3e708fe6	0.23492393
63	0xbe4ce799	-0.20010222
64	0xbe749a35	-0.2388695
65	0xbe016a30	-0.12638164
66	0xbe190204	-0.14942175
67	0xbe3acbcb	-0.18241803
68	0x3d6ee558	0.058324188
69	0xbda25dd9	-0.07928056
70	0x3e4d0dd9	0.20024814
71	0xbce3c043	-0.027801638
72	0x3d88daf6	0.066823885
73	0x3e6a72c5	0.22895344
74	0xbe02b3b3	-0.12763862
75	0xbd852171	-0.06500519
76	0x3c6082d2	0.013703065
77	0xbdac63f7	-0.08417504
78	0x3e3c56ea	0.1839253
79	0xbc27c598	-0.010239981
80	0x3ddaf46c	0.10691151
81	0x3d0994d7	0.03358921
82	0x3ce122dd	0.027482444
83	0x3ded38ed	0.11583123
84	0x3c503c4a	0.0127096865
85	0x3e75c8e0	0.24002409
86	0x3d957777	0.07298177
87	0x3e5b6de9	0.21428646
88	0x3ea15668	0.31511235
89	0x3e12c4e8	0.14332926
90	0xbe4d337d	-0.20039172
91	0xbe1cf726	-0.15328655
92	0xbe169c2e	-0.14708015
93	0xbe2b5daa	-0.16734949
94	0xbdacfcfe	-0.08446692
95	0xbdecf073	-0.115692995
96	0x3d87d498	0.06632346
97	0x3e11c298	0.14234388
98	0x3debce2c	0.115139335
99	0xbe1c0c24	-0.15239006
100	0x3d499ffd	0.049224842
101	0x3cc77e8e	0.024352338
102	0x3d470491	0.04858834
103	0xbcc2106c	-0.023689471
104	0xbd8fc3c9	-0.07019765
105	0x3daca91d	0.08430693
106	0x3d1fb3b0	0.038989723
107	0x3dfad48f	0.122475736

FPN.1.conv.bias f4 [4]
0	0xb5c799aa	-1.4871378e-06
1	0xb52a8ce8	-6.353498e-07
2	0xb6355fc1	-2.7026838e-06
3	0xb8ea37bf	-0.00011168373

FPN.1.bn.weight f4 [4]
0	0x3f81594e	1.0105379
1	0x3f86b125	1.052281
2	0x3f6256a2	0.8841344
3	0x3f48426b	0.78226346

FPN.1.bn.bias f4 [4]
0	0x3e431c03	0.19053654
1	0x3da419e1	0.080127485
2	0x3d488401	0.048954014
3	0xbdca49a4	-0.09877327

FPN.1.bn.running_mean f4 [4]
0	0xbe12f10c	-0.14349765
1	0xbdf574f8	-0.11985201
2	0x3d8c6d8e	0.068568334
3	0x3e1b86bc	0.15188116

FPN.1.bn.running_var f4 [4]
0	0x3ee53695	0.44768205
1	0x3e28a736	0.16470036
2	0x3eb9cbd8	0.36288333
3	0x3f1828ce	0.59437263

FPN.3.conv.weight f4 [6, 4, 3, 3]
0	0x3bd23073	0.006414467
1	0x3c78386c	0.015150171
2	0xbd9b0f53	-0.07571282
3	0xbe021dbf	-0.1270666
4	0x3c5bb2a6	0.013409292
5	0x3e51cd89	0.20488562
6	0xbe568c12	-0.2095187
7	0x3d667789	0.05626634
8	0xbd7a3dc1	-0.06109405
9	0xbed6b716	-0.41936558
10	0xbe5edf62	-0.21764901
11	0xbe04bc87	-0.12962542
12	0xbddd2be6	-0.107993886
13	0x3de6e54d	0.112742044
14	0xbcadefe8	-0.02123256
15	0x3d629f3a	0.05532763
16	0x3db7a658	0.089672744
17	0x3db7dfbf	0.08978223
18	0xbd15f5bf	-0.036611315
19	0x3d9a50ff	0.0753498
20	0xbd172545	-0.036900777
21	0xbd8da1d1	-0.0691563
22	0xbe2361b5	-0.15955241
23	0xbe8eb89b	-0.27875218
24	0xbe642558	-0.2227987
25	0x3e05f996	0.1308349
26	0xbd17e1e7	-0.03708067
27	0xbe0f5540	-0.13997364
28	0x3c892a36	0.01674376
29	0xbe291abf	-0.16514109
30	0xbc8aa332	-0.01692352
31	0x38a6861e	7.940478e-05
32	0xbc5251b5	-0.012836863
33	0xbdca2840	-0.09870958
34	0x3cffb811	0.0312157
35	0xbcf6b8c5	-0.030117402
36	0x3e8407ee	0.257873
37	0xbb0700e2	-0.0020599891
38	0xbc9c99b0	-0.019116253
39	0x3e235441	0.15950109
40	0xbe3c107d	-0.18365665
41	0xbcca5ed7	-0.024703426
42	0xbcc38c8e	-0.023870733
43	0xbd193ee5	-0.037413497
44	0xbe1d408c	-0.15356654
45	0x3df18cae	0.11794411
46	0xbdb3190b	-0.08745011
47	0xbcb3e8b2	-0.021961544
48	0x3dadb6ba	0.08482118
49	0xbe0160aa	-0.1263453
50	0xbda0ba1f	-0.07848
51	0x3d265ab8	0.04061386
52	0x3ceb67c4	0.028736003
53	0xbda38a4b	-0.07985362
54	0xbe3af31c	-0.18256801
55	0xbc4de29b	-0.012566234
56	0x3daeb58a	0.085307196
57	0xbd657e75	-0.056028802
58	0x3e53a27c	0.20667452
59	0xbdc18b20	-0.09450364
60	0xbd613e28	-0.054990917
61	0xbc9f2afa	-0.019429673
62	0xbe1dd58b	-0.15413491
63	0x3e4fb327	0.20283185
64	0x3e6965f3	0.22792797
65	0xbe988fcc	-0.29797208
66	0x3da6d497	0.08146017
67	0x3ca84b26	0.020543646
68	0xbe6384e0	-0.22218657
69	0x3d8c8823	0.068619035
70	0x3e2ad790	0.16683793
71	0xbcfb07ff	-0.030643461
72	0xbe4df256	-0.20111975
73	0xbe633500	-0.22188187
74	0xbd96db6c	-0.0736607
75	0xbdca9a44	-0.09892705
76	0x3d7771f5	0.060411412
77	0x3dd97348	0.10617691
78	0x3e2bd350	0.16779828
79	0xba5c6d23	-0.00084085966
80	0xbd9ba62c	-0.07600054
81	0xbe5827ed	-0.2110898
82	0xbe036895	-0.12832864
83	0xb956d8b0	-0.00020489353
84	0x3d399fb8	0.045318335
85	0xbe81bde2	-0.25340182
86	0xbe23b845	-0.15988262
87	0x3b9c3d0f	0.004768021
88	0x3d25fe77	0.04052588
89	0x3eadd51e	0.33951658
90	0x3df6612e	0.12030254
91	0x3dd3e288	0.10345942
92	0x3e1e3c13	0.15452604
93	0x3c1399b1	0.009008811
94	0xbe2beb69	-0.1678902
95	0xbd55cc4f	-0.052196797
96	0xbe6997b4	-0.22811776
97	0xbbef8bda	-0.007310373
98	0xbb37b17e	-0.0028029378
99	0x3baf534d	0.0053505064
100	0x3e3b518f	0.18292831
101	0xbdaaaaee	-0.083333835
102	0x3d294881	0.04132891
103	0x3e38749a	0.1801323
104	0xbda00ada	-0.0781457
105	0x3d8eadd7	0.06966751
106	0x3e0b91f9	0.13629903
107	0x3d9e34d0	0.07724917
108	0x3c9500a1	0.018188776
109	0xbcbb0ab3	-0.02283225
110	0xbdcc7635	-0.09983484
111	0xbdbc8cf4	-0.09206572
112	0xbe73aa09	-0.23795332
113	0xbdea0329	-0.11426384
114	0x3c9c3ff2	0.01907346
115	0x3e73f92c	0.2382552
116	0x3d4dbada	0.050227024
117	0xbe416e09	-0.18889631
118	0xbe74a6a9	-0.23891701
119	0xbd9dd3dc	-0.077064246
120	0xbdc694f6	-0.09696381
121	0x3d0dd86e	0.03463023
122	0x3ec8aa27	0.39192316
123	0xbdb1cab0	-0.08681238
124	0x3e89a19f	0.2688112
125	0x3e4ed302	0.2019768
126	0xbdb2156f	-0.086954944
127	0x3d70cf02	0.058791168
128	0x3d9ddbbd	0.077079274
129	0x3e2fee65	0.17180784
130	0x3d6f6c23	0.058452737
131	0x3e74c2f5	0.23902495
132	0xbd756f9d	-0.059920896
133	0x3b5244dd	0.0032084503
134	0xbcebcbb4	-0.028783657
135	0xbd806314	-0.06268898
136	0x3d2e8007	0.042602565
137	0xbca738c4	-0.02041281
138	0x3cabdb5d	0.020978624
139	0x3ddb0292	0.106938496
140	0x3d40302a	0.046920933
141	0xbd932a3c	-0.0718579
142	0xbcf4cbb7	-0.029882295
143	0xbde779a6	-0.113024995
144	0xbe89be17	-0.2690284
145	0x3b9e6db8	0.004834857
146	0xbcb25af1	-0.02177188
147	0xbe3a6d92	-0.1820586
148	0x3c1a9174	0.009434093
149	0xbe52a4d7	-0.20570694
150	0x3d7143d6	0.058902584
151	0x3a17335c	0.0005767846
152	0x3e88a8d6	0.26691312
153	0x3cac5ee9	0.02104135
154	0xbc0b110b	-0.00848795
155	0xbbc029cf	-0.005864359
156	0x3d40a9ea	0.047037043
157	0x3d97e999	0.07417602
158	0x3e7ec484	0.24879652
159	0xbddd283a	-0.10798688
160	0x3cc36b76	0.023854952
161	0xbd0bc584	-0.034123912
162	0x3e592c1c	0.21208233
163	0x3e8bb5e9	0.27287224
164	0xbd5418bc	-0.0517814
165	0x3d31826d	0.043337274
166	0xbe0f77dc	-0.14010566
167	0xbc9660b4	-0.018356659
168	0xbd8c8d6d	-0.06862912
169	0xbe488fc2	-0.19586089
170	0xbd9ab0da	-0.07553263
171	0xbd0ba09c	-0.034088716
172	0x3e8f3d02	0.27976233
173	0x3d30218e	0.04300075
174	0x3db9ff15	0.09081856
175	0x3cdb6a01	0.026783945
176	0x3d8fa4b2	0.07013835
177	0xbe214201	-0.15747835
178	0x3d7761df	0.06039607
179	0x3cd2fee6	0.02575631
180	0xbe1b247c	-0.15150636
181	0x3dd21599	0.10258026
182	0xbd2e9bad	-0.042628933
183	0x3e05a9ff	0.1305313
184	0x3dacc6e7	0.08436375
185	0xbe2e1ef9	-0.17004003
186	0xbd550ca1	-0.052013997
187	0x3eabd009	0.33557156
188	0xbe2f9daa	-0.17149988
189	0xbc5ffbc4	-0.013670865
190	0x3e5967d5	0.21231015
191	0xbe414fc2	-0.18878081
192	0xbc808481	-0.015688183
193	0x3e58b7da	0.21163884
194	0xbe25954c	-0.16170233
195	0xbd82f73e	-0.06394814
196	0x3e1a6f4b	0.15081517
197	0xbe1c1d04	-0.15245444
198	0xbe1598b6	-0.14609036
199	0xbd77abb8	-0.060466498
200	0x3db1f46f	0.086892
201	0xbe00ca8e	-0.12577268
202	0xbc4c9e7f	-0.01248896
203	0x3e21cb5f	0.15800236
204	0xbd43894e	-0.047738366
205	0x3d82160f	0.063518636
206	0x3e0f5187	0.13995944
207	0x3e105dff	0.14098357
208	0xbd2bd4b9	-0.041950915
209	0x3d67d9a3	0.05660404
210	0x3d68ef9c	0.056869134
211	0xbc090811	-0.00836374
212	0xbc320a01	-0.010866643
213	0x3b48358a	0.003054949
214	0xbdce6cde	-0.100793585
215	0x3db8ddb4	0.090266615

FPN.3.conv.bias f4 [6]
0	0x38ebe8d2	0.000112490394
1	0xb45d7929	-2.0626307e-07
2	0xb40b82d8	-1.2992984e-07
3	0x34894cf7	2.5574238e-07
4	0x34242f01	1.529079e-07
5	0xb32ed2c5	-4.0704226e-08

FPN.3.bn.weight f4 [6]
0	0x3f8484ef	1.0353068
1	0x3f8600a5	1.0468947
2	0x3f8ef4dc	1.1168475
3	0x3fa176bc	1.261436
4	0x3f8bfbf5	1.0936266
5	0x3f8550f6	1.0415332

FPN.3.bn.bias f4 [6]
0	0xbd85d117	-0.06534021
1	0xbe0ace99	-0.13555373
2	0xbe2be5a1	-0.16786815
3	0xbd94f69d	-0.072736
4	0xbe220bd0	-0.15824819
5	0xbd449d76	-0.04800173

FPN.3.bn.running_mean f4 [6]
0	0xbf033f3a	-0.5126835
1	0xbdb26d32	-0.087122336
2	0xbe23fd9b	-0.16014712
3	0x3dcf5758	0.101240814
4	0x3cb3ebc5	0.02196301
5	0x3da22c4b	0.079186045

FPN.3.bn.running_var f4 [6]
0	0x3ead251a	0.3381737
1	0x3dc8688c	0.09785566
2	0x3e17c887	0.14822589
3	0x3eb6462f	0.3560042
4	0x3eaac6bb	0.33354744
5	0x3dc3c92d	0.095598556

ConvLSTMLayer.cell.conv.weight f4 [32, 14, 3, 3]
0	0x3aa9ed9b	0.0012964489
1	0x3de6f190	0.11276543
2	0x3e2d87f1	0.16946389
3	0xbe0c7b96	-0.1371902
4	0xbe5b0a03	-0.21390538
5	0xbe10f401	-0.1415558
6	0xbcb88029	-0.022522049
7	0x3dfbe0d7	0.12298744
8	0xbddd5b94	-0.10808483
9	0xbedebc10	-0.43502855
10	0x3e0905e9	0.13381161
11	0x3dabe726	0.083936974
12	0xbe54962f	-0.20760415
13	0x3d139db2	0.03603906
14	0xbdfd8321	-0.123785265
15	0x3e1479a6	0.1449953
16	0x3dc9af25	0.09847859
17	0xbd1b79a3	-0.0379578
18	0x3ea15049	0.31506565
19	0xbd7cc6b2	-0.061712928
20	0x3e1b1c5d	0.15147538
21	0xbd7f4b5a	-0.06232772
22	0xbda84aaa	-0.08217366
23	0x3cd39320	0.02582699
24	0x3dd5f49f	0.104470484
25	0x3dbc6189	0.09198291
26	0x3d91fba1	0.071280725
27	0x3da89041	0.08230639
28	0xbb408d45	-0.0029381078
29	0x3af31519	0.0018545716
30	0x3d833240	0.06406069
31	0x3de73430	0.11289251
32	0xbe24c3c7	-0.16090308
33	0x3d4e25e3	0.0503291
34	0xbc85ec28	-0.01634796
35	0xbeba6b62	-0.36410052
36	0x3d66941b	0.056293588
37	0x3d15cd2d	0.036572624
38	0xbe8f8400	-0.28030396
39	0x3d771ce7	0.060330298
40	0x3e04e76e	0.12978908
41	0x3d642138	0.055695742
42	0xbe9f03ac	-0.3105749
43	0x3d207d89	0.03918222
44	0xbdb5457f	-0.08851146
45	0xbed260e3	-0.41089544
46	0xbca56389	-0.020189064
47	0xbdae20c6	-0.08502345
48	0x3d64b118	0.055832952
49	0xb9ca1ead	-0.00038551298
50	0xbd48d81f	-0.049034234
51	0xbc8510a3	-0.016243285
52	0xbe074993	-0.1321166
53	0xbd48d20e	-0.04902845
54	0xbdff224d	-0.12457714
55	0x3e2f5140	0.17120838
56	0xbc63dc76	-0.013907542
57	0xbe22f5ac	-0.15914029
58	0x3c59b59c	0.013287928
59	0xbdaa154b	-0.083048426
60	0xbcd3c073	-0.025848603
61	0xbd0e522a	-0.034746327
62	0xbe299df7	-0.16564165
63	0x3d7704e5	0.060307402
64	0x3e0cc49d	0.13746877
65	0xbdab2914	-0.083574444
66	0xbdfd19ae	-0.12358414
67	0x3c9ec88b	0.019382736
68	0xbe468828	-0.19387877
69	0xbdc7003a	-0.0971684
70	0xbdcf6b8a	-0.10127933
71	0xba50e913	-0.0007969301
72	0x3dce328a	0.10068233
73	0xbde41efd	-0.11138723
74	0x3e5e55d0	0.21712422
75	0xbdde1072	-0.108429804
76	0xbd4ae5d5	-0.04953559
77	0x3eb5434b	0.35402903
78	0xbe653bb5	-0.22386058
79	0x3e58c87f	0.21170233
80	0x3edc0535	0.42972723
81	0xbe251caa	-0.16124216
82	0xbe859e21	-0.26097205
83	0xbe721f97	-0.23644863
84	0x3e4ee2bf	0.20203684
85	0x3dbd427b	0.09241196
86	0xbd868143	-0.065676235
87	0x3e443eb1	0.1916454
88	0x3d422d42	0.047406442
89	0x3eb4cbb1	0.35311654
90	0xbd0f9857	-0.035057392
91	0x3e78b872	0.2428911
92	0x3ea2bb9a	0.31783754
93	0xbdb06ac2	-0.086141124
94	0xbd1ccc6b	-0.038280886
95	0x3e456e32	0.19280317
96	0xbd3c380d	-0.04595189
97	0xbdd356f8	-0.10319322
98	0x3d114387	0.03546479
99	0xbcfd2af5	-0.030904273
100	0x3dbe1d1a	0.092828944
101	0xbdcd9f52	-0.100401536
102	0xbd04b899	-0.03240261
103	0xbe0879b9	-0.13327684
104	0xbe05fba7	-0.13084279
105	0xbd89f0f2	-0.0673541
106	0xbe0c416c	-0.13696831
107	0xbd446746	-0.04795005
108	0xbe725837	-0.23666464
109	0xbcbe4de0	-0.023230493
110	0xbd2fa3be	-0.042880766
111	0x3d027dff	0.03185844
112	0x3e5685e5	0.20949514
113	0xba99e700	-0.0011741817
114	0xbe84667f	-0.25859448
115	0x3dea31c6	0.11435275
116	0x3e29f7d8	0.16598451
117	0xbe673ff7	-0.22582994
118	0x3c89761d	0.016779954
119	0xbd9bac08	-0.07601172
120	0x3e05316c	0.13007134
121	0x3d139816	0.036033712
122	0x3e334e2a	0.17510286
123	0x3e0cac52	0.1373761
124	0x3c80451b	0.015657952
125	0xbe088bc1	-0.13334562
126	0x3b4cbd3d	0.0031240724
127	0xbe28d734	-0.16488343
128	0x3d793a2c	0.060846493
129	0xbb4f4428	-0.0031626318
130	0xbe6fbf36	-0.23412785
131	0xbe66256b	-0.22475211
132	0xbd8103f8	-0.06299585
133	0xbd998639	-0.07496304
134	0xbd87bb54	-0.06627527
135	0x3bc27e80	0.00593549
136	0x3c46e24a	0.012138912
137	0xbed6ef22	-0.4197932
138	0x3de64287	0.11243158
139	0x3dde224b	0.108463846
140	0xbdff2050	-0.12457335
141	0x3e45c2ad	0.19312544
142	0x3e5fa3cd	0.21839829
143	0x3d148e78	0.03626868
144	0xbdb8bcae	-0.09020363
145	0xbd50f356	-0.051013313
146	0xbdb5f042	-0.08883716
147	0xbd84304c	-0.064545244
148	0x3c856a8d	0.016286159
149	0xbc58d1ee	-0.013233645
150	0xbd819809	-0.063278265
151	0x3df4c1a5	0.11950997
152	0xbd69489f	-0.056954022
153	0x3e72c818	0.23709142
154	0x3e393e6b	0.18090217
155	0x3e044625	0.12917383
156	0x3dc1d339	0.09464116
157	0x3e4a71fb	0.19770043
158	0xbc914dfc	-0.017737381
159	0xbd78b48f	-0.06071907
160	0xbe2f45cc	-0.17116469
161	0x3b12b103	0.002238334
162	0xbdde0f7c	-0.10842797
163	0xbe26e25d	-0.16297288
164	0x3e050943	0.12991814
165	0x3e3a1c8a	0.1817495
166	0x3e6fd4b7	0.23420988
167	0x3da99c66	0.08281784
168	0x3de71aef	0.11284434
169	0xbd5fc285	-0.054628868
170	0xbaf18a70	-0.0018428098
171	0xbdb84518	-0.089975536
172	0x3d8462e0	0.064641714
173	0xbe575eac	-0.21032208
174	0x3a8f5c9a	0.0010937632
175	0x3cf30c93	0.029669082
176	0x3d02b930	0.03191489
177	0x3e1c0780	0.15237236
178	0xbcf452d7	-0.029824657
179	0x3dc70401	0.097175606
180	0xbe6553e2	-0.2239528
181	0xbdf740f3	-0.12072935
182	0xbedfd7a6	-0.43719214
183	0x3d507acf	0.05089837
184	0xbdf4a224	-0.11944988
185	0xbd9da08b	-0.07696637
186	0xbd9689c2	-0.07350494
187	0xbd74043b	-0.059574347
188	0x3c662e40	0.014049113
189	0xbe011ac4	-0.12607867
190	0xbe56a48d	-0.20961209
191	0xbe3416cf	-0.17586826
192	0xbe4fa029	-0.2027594
193	0x3ca23c7d	0.019804234
194	0xbd16ceb5	-0.036818225
195	0xbdd33536	-0.103128836
196	0xbe7b09cc	-0.24515456
197	0x3e0c58fd	0.13705821
198	0x3d32adcd	0.04362278
199	0x3df8ebc3	0.12154343
200	0x3c01e2cf	0.007927611
201	0xbc35bdd9	-0.0110926265
202	0x3d3af3a9	0.04564253
203	0xbcd83614	-0.026392974
204	0xbe644728	-0.22292769
205	0xbdba06f0	-0.090833545
206	0x3e291201	0.16510774
207	0x3e0a19bc	0.1348638
208	0x3e18adc2	0.14910033
209	0x3e58e268	0.21180117
210	0x3e5aa4a6	0.21351871
211	0x3dadc0cc	0.08484039
212	0xbdf99120	-0.121858835
213	0xbdf2293a	-0.118242696
214	0xbea217b2	-0.31658703
215	0xbd735895	-0.05941065
216	0xbdf0c1c8	-0.11755711
217	0x3cb03cf3	0.021513438
218	0x3a3583b2	0.0006924226
219	0x3ddb1585	0.10697464
220	0x3d3ae64f	0.045629796
221	0xbe1c6d71	-0.15276124
222	0x3dd872f6	0.10568802
223	0x3d19fc9b	0.03759442
224	0x3d6d8eeb	0.057997625
225	0xbe588ef5	-0.21148284
226	0xbbd67633	-0.006544852
227	0xbdf76da2	-0.12081458
228	0xbd9fcc0b	-0.0780259
229	0xbd86e1e8	-0.06586057
230	0x3db35b4c	0.08757648
231	0xbe852d74	-0.2601124
232	0xbdcd2b6c	-0.10018048
233	0x3ce8a3c8	0.02839841
234	0x3e52d513	0.20589094
235	0xbe50738d	-0.20356579
236	0xbc895842	-0.016765717
237	0x3e3fc3b6	0.18727002
238	0xbde22b80	-0.11043453
239	0xbe97553a	-0.2955721
240	0xbe1caa74	-0.15299398
241	0xbe8e0082	-0.27734762
242	0x3d9096f1	0.0706004
243	0xbca0ac96	-0.019613545
244	0x3e472c06	0.19450387
245	0x3ccb79b8	0.024838313
246	0x3da6aff9	0.08139033
247	0xbe06169d	-0.13094564
248	0xbd84eaca	-0.06490095
249	0xbd68b117	-0.05680951
250	0xbe1f5dd1	-0.15563132
251	0x3e5fd979	0.21860303
252	0xbe7a5cd4	-0.24449474
253	0xbe51f79a	-0.20504609
254	0x3d8820bf	0.06646871
255	0xbd292d17	-0.041302767

ConvLSTMLayer.cell.conv.bias f4 [32]
0	0xbd9dd94f	-0.07707464
1	0xbcdb254e	-0.026751187
2	0x3c812ac4	0.015767463
3	0xbddc2cfd	-0.10750768
4	0x3da2c93d	0.079485394
5	0x39efa54b	0.00045708785
6	0x3c521f96	0.0128249135
7	0x3d97dca3	0.0741513
8	0x3e1b3eda	0.15160695
9	0x3da9a764	0.0828388
10	0x3e2dd185	0.16974457
11	0x3e755641	0.23958685
12	0x3e82f7b7	0.25579616
13	0x3e128f70	0.1431253
14	0x3e41f7ff	0.18942259
15	0x3e2e88ad	0.17044325
16	0x3c2e2526	0.010628974
17	0x3d9bc2f8	0.07605547
18	0x3de1cc6f	0.11025321
19	0x3db7d5fd	0.08976362
20	0x3dec2b18	0.11531657
21	0x3d9ac3cc	0.075568765
22	0x3d79586f	0.060875352
23	0x3db96096	0.090516254
24	0x3df53762	0.11973454
25	0x3d0debb0	0.034648597
26	0xbd81e469	-0.06342394
27	0xbde28449	-0.11060388
28	0xbc52aa00	-0.012857914
29	0x3d3af39f	0.04564249
30	0x3dd375f5	0.10325233
31	0xbcc023d6	-0.023454588

Classification.0.g.0.weight f4 [4, 8, 1, 1]
0	0x3c9d61db	0.0192117
1	0x3c1b70ea	0.00948737
2	0xbaad2442	-0.0013209658
3	0xbb98dee2	-0.0046652416
4	0xbdb22a1e	-0.086994395
5	0x3ca7ce94	0.020484246
6	0x3ae8b0d2	0.0017752892
7	0x3e00de17	0.1258472
8	0x3d42f4b3	0.047596645
9	0xbb93d398	-0.004511308
10	0x3cff6f08	0.031180874
11	0xbc04b934	-0.0081007965
12	0xbda8f534	-0.08249894
13	0x3d837553	0.06418862
14	0x3d7b1b0e	0.0613051
15	0x3e399187	0.1812192
16	0x3d67356b	0.056447428
17	0xbc0b292d	-0.008493704
18	0x3cef9167	0.029244138
19	0x3baed355	0.0053352513
20	0xbd41da0b	-0.047327083
21	0x3d7efd79	0.06225345
22	0x3d8584cd	0.0651947
23	0x3e21e999	0.15811767
24	0x3c78d569	0.0151876
25	0x3c2d9135	0.010593702
26	0x3d23cf32	0.03999252
27	0x3bcff1c6	0.0063459603
28	0xbd88123b	-0.06644102
29	0x3d96a210	0.0735513
30	0x3c001fe7	0.007820106
31	0x3e0b1d4c	0.13585395

Classification.0.g.0.bias f4 [4]
0	0x3e07c65a	0.13259259
1	0x3e30ba89	0.17258658
2	0x3e05224d	0.13001366
3	0x3e4c0ed9	0.19927539

Classification.0.W.0.weight f4 [8, 4, 1, 1]
0	0xbc234fd3	-0.009967762
1	0xbc264f0b	-0.010150681
2	0xbc232e76	-0.009959808
3	0xbc1eb783	-0.009687307
4	0x3e06346a	0.13105932
5	0x3dd257d5	0.10270659
6	0x3dfb1bf4	0.12261191
7	0x3e3b7046	0.18304548
8	0xbd8190a9	-0.0632642
9	0xbdf7faff	-0.121084206
10	0xbd8bf813	-0.06834426
11	0xbde29e61	-0.11065365
12	0xbd9005a5	-0.070323266
13	0xbdbc2b11	-0.09187902
14	0xbda6aa0f	-0.08137905
15	0xbddfdd36	-0.109308645
16	0x3de2f3d3	0.11081662
17	0x3e567776	0.20944008
18	0x3e2e0f82	0.16998103
19	0x3e224f29	0.1585051
20	0x3733b878	1.0712181e-05
21	0xb910936a	-0.00013787826
22	0x39063c07	0.00012801598
23	0x37f037e4	2.8636256e-05
24	0xbdfc99b3	-0.12334003
25	0xbe32ff35	-0.17480166
26	0xbe04609b	-0.12927477
27	0xbde95e48	-0.11394936
28	0xb9702618	-0.00022902375
29	0xb9cfc900	-0.00039631873
30	0xb9fca2fd	-0.0004818662
31	0xba0103dc	-0.00049215346

Classification.0.W.0.bias f4 [8]
0	0x31fc360f	7.340311e-09
1	0x340aa317	1.2911583e-07
2	0x339e5589	7.373007e-08
3	0xb9145406	-0.00014145681
4	0x363ea0a7	2.8405718e-06
5	0xb5a832b1	-1.2531729e-06
6	0x341315cc	1.3698372e-07
7	0xb81ae0d7	-3.692586e-05

Classification.0.W.1.weight f4 [8]
0	0x3be41272	0.0069602067
1	0xbe23e862	-0.16006616
2	0x3dc96657	0.09833973
3	0x3dc9d9b9	0.098559804
4	0xbe5e333f	-0.21699236
5	0x35566087	7.986168e-07
6	0x3e27abe5	0.16374166
7	0x38926da4	6.982245e-05

Classification.0.W.1.bias f4 [8]
0	0xb82d9c54	-4.1392006e-05
1	0xb6c23eb7	-5.7889515e-06
2	0xb5f3d195	-1.8165907e-06
3	0x385b5432	5.229208e-05
4	0xb5782e5a	-9.245465e-07
5	0x376ff7b0	1.4303179e-05
6	0xb8b62e6c	-8.687083e-05
7	0x3402c81e	1.2179996e-07

Classification.0.W.1.running_mean f4 [8]
0	0x39a47fc3	0.00031375707
1	0xbbaf4473	-0.005348736
2	0x3b6f0ef8	0.0036477428
3	0x3b697419	0.0035622178
4	0xbbd230f6	-0.006414528
5	0x32b554b2	2.1109688e-08
6	0x3bac3e9e	0.005256488
7	0x37b6d278	2.1794098e-05

Classification.0.W.1.running_var f4 [8]
0	0x33797b1d	5.80868e-08
1	0x37811ce1	1.5391446e-05
2	0x36f08501	7.168041e-06
3	0x36e4f706	6.823687e-06
4	0x37b9ffc0	2.2172811e-05
5	0x259aaafc	2.6830605e-16
6	0x37796764	1.4865629e-05
7	0x2f88b886	2.4869368e-10

Classification.0.theta.weight f4 [4, 8, 1, 1]
0	0x3d382d05	0.04496481
1	0xbb9cae71	-0.004781537
2	0xbe81e889	-0.25372723
3	0x3df94ee7	0.121732526
4	0x3dc08510	0.0940038
5	0x3dc3830a	0.09546478
6	0xbcd6f212	-0.026238475
7	0xbd9d4b72	-0.07680406
8	0x3e133453	0.14375429
9	0x3d85c14a	0.065310076
10	0xbdf2c116	-0.118532345
11	0x3d298073	0.041382264
12	0x3e23f934	0.16013032
13	0xbde53b50	-0.111929536
14	0x3e46812a	0.1938521
15	0xbdf51991	-0.11967767
16	0x3e1a1a65	0.15049131
17	0x3b303e20	0.0026892498
18	0xbe6de6ef	-0.23232625
19	0xbde4150e	-0.11136828
20	0xbc99f1dd	-0.018792087
21	0xbd7a53f9	-0.06111524
22	0xbd0e5de6	-0.034757517
23	0xbe7394ce	-0.23787233
24	0x3ba4536d	0.005014828
25	0xbe1601a6	-0.14649066
26	0x3d2518b1	0.04030675
27	0x3e8b174f	0.2716622
28	0xbe5085d3	-0.2036355
29	0x3e507b5c	0.20359558
30	0x3c6dc2a0	0.014511734
31	0x3e8489f2	0.25886494

Classification.0.theta.bias f4 [4]
0	0x3e8a0c8c	0.26962698
1	0x3e1e3892	0.15451267
2	0x3e222ec3	0.1583815
3	0xbe23aead	-0.15984602

Classification.0.phi.0.weight f4 [4, 8, 1, 1]
0	0xbe06ce0f	-0.13164543
1	0xbe4238ba	-0.18966952
2	0x3dfa1e7c	0.12212846
3	0x3c17bb78	0.009261005
4	0x3ea188bd	0.31549636
5	0xbe882b87	-0.2659571
6	0x3df0452b	0.11731943
7	0xbe03ab49	-0.12858309
8	0x3dbacfae	0.09121643
9	0x3d74e930	0.059792697
10	0x3c4495f4	0.011998642
11	0x3d588705	0.05286314
12	0x3e91169a	0.28337556
13	0xbbf7b676	-0.007559593
14	0x3e26ede8	0.16301692
15	0xbe09be0f	-0.13451408
16	0x3d51a6f6	0.051184617
17	0xbc975dbc	-0.018477313
18	0x3dad04cf	0.08448183
19	0x3e883027	0.26599237
20	0x3dba5951	0.09099067
21	0xbd9939fe	-0.07481764
22	0x3df3ca1f	0.11903786
23	0x3c1c3f6c	0.009536605
24	0xbcf86e5a	-0.030326057
25	0xbd922ad7	-0.07137077
26	0x3d338364	0.043826476
27	0x3ca54c34	0.020177938
28	0xbe2c1d1e	-0.16807982
29	0xbca08a1c	-0.019597106
30	0x3e35a28b	0.17737786
31	0x3c0b53d4	0.008503873

Classification.0.phi.0.bias f4 [4]
0	0xbd1a552e	-0.03767889
1	0xbe1d7963	-0.15378337
2	0xbda6bdd1	-0.08141673
3	0x3e63ce20	0.22246599

Classification.2.conv.weight f4 [10, 8, 2, 2]
0	0x3e0c96a8	0.13729346
1	0xbb219597	-0.0024655813
2	0x3dba29e8	0.09090024
3	0xbcbf6590	-0.023363858
4	0x3d4e86b5	0.050421435
5	0xbe93fae0	-0.2890234
6	0xbb8f8644	-0.0043800194
7	0xbe32056d	-0.17384882
8	0xbdad3618	-0.08457583
9	0xbc6ecb2c	-0.014574807
10	0xbd1f03e0	-0.038822055
11	0x3d5155da	0.051107265
12	0xbca8cd0a	-0.020605583
13	0x3cd0039e	0.02539235
14	0xbd355bc1	-0.044276956
15	0xbc4fdf6e	-0.012687547
16	0x3e4eee9c	0.2020821
17	0xbe6cd950	-0.23129773
18	0x3d94f8b8	0.07274002
19	0xbe7087fb	-0.23489372
20	0xbdc460f5	-0.095888056
21	0x3e82fd7e	0.25584024
22	0xbd18bfcc	-0.037292287
23	0x3d9db5d7	0.07700699
24	0xbd15fa57	-0.036615696
25	0xbe108da3	-0.1411653
26	0x3cd80bbb	0.026372781
27	0xbe58d6f2	-0.21175745
28	0xbd0018da	-0.0312737
29	0x3d16535f	0.036700603
30	0xbd4e3d3b	-0.050351363
31	0x3e18468b	0.1487066
32	0x3e3f99e0	0.18711042
33	0xbcfceaf6	-0.030873757
34	0x3de6749c	0.1125271
35	0x3d0ddda6	0.03463521
36	0xbb669f3f	-0.0035190133
37	0x3e125f45	0.14294155
38	0x3e296d89	0.1654569
39	0xbe41f4da	-0.1894106
40	0x3d93b056	0.07211368
41	0xbe33ab71	-0.17545868
42	0x3cede7fe	0.029041287
43	0x3dc54746	0.09632735
44	0xbe03116d	-0.12799616
45	0x3bafac7d	0.0053611384
46	0xbdb9d127	-0.09073096
47	0xbe0689d5	-0.13138516
48	0x3e1a2a3a	0.1505517
49	0xbe015d59	-0.12633266
50	0x3e2c9f10	0.16857553
51	0x3dc81d51	0.09771217
52	0xbe3d7040	-0.18499851
53	0xbc9bd162	-0.01902074
54	0x3c6d699c	0.014490511
55	0xbb3254c7	-0.0027211176
56	0x3d1afd12	0.037839003
57	0x3cc0beca	0.023528475
58	0x3d6c0852	0.057625122
59	0x3e851b6f	0.25997493
60	0xbe1b73bd	-0.1518087
61	0xbcb35adb	-0.02189391
62	0xbe5422f9	-0.20716466
63	0x3e09e2fb	0.13465492
64	0x3d7b7a0e	0.061395697
65	0x3dcc4e8f	0.09975921
66	0x3e4868f7	0.19571291
67	0xbe06cc55	-0.13163884
68	0xbe3f7089	-0.18695273
69	0xbdbb1486	-0.09134774
70	0xbdf0a52e	-0.117502555
71	0x3d4bbb7a	0.04973934
72	0x3bc8b25d	0.006124778
73	0xbe353a1d	-0.1769795
74	0xbced1f00	-0.028945446
75	0xbcc25df6	-0.023726445
76	0xbe01a292	-0.12659672
77	0xbe30b06c	-0.172548
78	0x3d129883	0.035789978
79	0xbdbb138c	-0.09134588
80	0xbe33cafb	-0.175579
81	0xbbf515ef	-0.0074794213
82	0xbd9d0d81	-0.07668591
83	0xbe4c3594	-0.19942313
84	0x3d9d25d6	0.07673232
85	0x3e7ee65d	0.24892564
86	0xbd2355b1	-0.039876644
87	0xbe404963	-0.18777995
88	0xbe73d705	-0.23812492
89	0xbe3f343b	-0.18672268
90	0xbdabfb14	-0.08397499
91	0xbdbc23e9	-0.09186537
92	0x3d36997c	0.044579968
93	0x3d58fee4	0.052977458
94	0x3d88563f	0.06657075
95	0x3da59bc9	0.08086354
96	0xbe3702be	-0.1787214
97	0x3e4c14d7	0.19929825
98	0x3e987f37	0.29784557
99	0xbeb6172f	-0.35564563
100	0x3c196ace	0.009363843
101	0x3d9b066c	0.07569584
102	0x3c336ed5	0.010951717
103	0xbcdc2cc4	-0.026876815
104	0xbe87c7a0	-0.2651949
105	0x3b4f8d7b	0.0031670022
106	0xbd03f6c2	-0.03221775
107	0x3e03ef8a	0.12884346
108	0x3d92952e	0.0715736
109	0xbd6f7813	-0.05846412
110	0xbd66ee70	-0.056379735
111	0x3e2c52d6	0.16828474
112	0xbdd35eea	-0.10320838
113	0x3d6bb6e1	0.057547454
114	0x3e46dc79	0.19420041
115	0xbdddb3d6	-0.108253166
116	0xbe5ea67e	-0.21743199
117	0x3e7bbaf0	0.2458303
118	0x3d5b0b5c	0.05347763
119	0xbcfbd430	-0.030740827
120	0xbcbc5d09	-0.022993581
121	0x3ba0c777	0.0049065906
122	0x3e1f4b68	0.15556109
123	0xbcc7eceb	-0.024404963
124	0x3c162926	0.009165084
125	0xbca8cd6a	-0.020605762
126	0x3d655d24	0.05599703
127	0xbc52c8fa	-0.012865299
128	0x3d9428e4	0.07234362
129	0xbdda4a4f	-0.106587045
130	0xbdcb602d	-0.099304534
131	0x3dca2877	0.09870999
132	0xbe4444f5	-0.1916693
133	0x3e001cb0	0.12510943
134	0xbcc963a5	-0.024583647
135	0x3ddca9cf	0.10774576
136	0xbe000120	-0.12500429
137	0x3d823d99	0.06359405
138	0xbd8c89c8	-0.06862217
139	0xbddd48a2	-0.10804869
140	0xbd403aa4	-0.046930924
141	0x3c49ae93	0.012309688
142	0x3d80a59a	0.06281586
143	0x3d5e8433	0.054325294
144	0xbe4dea7d	-0.20108981
145	0x3e1cf70c	0.15328616
146	0xbe863aaa	-0.26216632
147	0x3dfd7965	0.1237667
148	0x3e8369de	0.25666708
149	0xbe3333aa	-0.17500177
150	0x3ca64c11	0.020299943
151	0xbe647901	-0.22311784
152	0xbde1d487	-0.110268645
153	0x3dd8b36f	0.10581099
154	0xbddd91bb	-0.108188115
155	0x3e065cf3	0.13121395
156	0x3bfd0b69	0.0077223075
157	0xbd030612	-0.03198821
158	0x3e3358b8	0.17514312
159	0xbd7f6c1e	-0.062358968
160	0x3db6ddf8	0.08929056
161	0xbe3ae191	-0.1825011
162	0x3d0700be	0.032959692
163	0x3ce2f90b	0.027706644
164	0x3d4af715	0.049552042
165	0xbd5cddbb	-0.053922396
166	0xbbb21bdf	-0.0054354514
167	0xbdaccf8b	-0.08438023
168	0x3de2a5f9	0.11066813
169	0x3df8c61e	0.12147163
170	0x3d2c68ef	0.04209226
171	0x3c54b850	0.012983397
172	0x3d6617f1	0.056175176
173	0x3de6dd88	0.112727225
174	0x3e1327c2	0.14370635
175	0x3dc14321	0.09436632
176	0x3e7b816e	0.24561092
177	0xbdbad01d	-0.09121726
178	0x3dee200e	0.11627208
179	0x3d9fb654	0.07798448
180	0x3d770508	0.060307533
181	0x3cc9e9ae	0.02464756
182	0xbdfec453	-0.124397896
183	0x3e6e30dc	0.23260826
184	0x3e88fdac	0.26756036
185	0xbdba8fd6	-0.09109466
186	0x3e174334	0.1477173
187	0xbd71eb31	-0.059062187
188	0xbdca00cc	-0.09863433
189	0x3de48acc	0.11159286
190	0xbe789aed	-0.2427785
191	0x3e3eba68	0.18625796
192	0x3e79b698	0.2438606
193	0xbd9ab7ba	-0.07554574
194	0x3e2bc2f4	0.16773587
195	0x3d85a5b9	0.0652575
196	0x3e6ef266	0.23334655
197	0x3d206b84	0.039165035
198	0x3e4e6307	0.20154963
199	0xbe670489	-0.22560324
200	0x3d4c9ed9	0.049956176
201	0xbd890341	-0.06690074
202	0x3dba2ea3	0.090909265
203	0x3dd74ca0	0.10512662
204	0xbd3a96e8	-0.04555407
205	0x3dc537b5	0.09629766
206	0xbd61f951	-0.055169407
207	0xbd1a08ec	-0.037606165
208	0x3db61e5f	0.088925116
209	0xbdf4366a	-0.11924441
210	0x3e406f47	0.18792449
211	0x3c9d6e8c	0.019217752
212	0xbe21b6c5	-0.15792377
213	0xbde39cbe	-0.111138806
214	0xbd50f593	-0.051015448
215	0x3d88e152	0.066836014
216	0x3e363a2e	0.17795631
217	0xbc3875be	-0.011258541
218	0x3d08c32a	0.033389248
219	0x3e52a539	0.2057084
220	0xbce00d3f	-0.027350066
221	0xbe0a8074	-0.13525563
222	0xbd5e459b	-0.0542656
223	0x3e85a079	0.26098993
224	0xbc59e783	-0.013299826
225	0x3d66c5eb	0.056341093
226	0x3d085b41	0.03329015
227	0x3dc7a4bd	0.09748218
228	0xbe213112	-0.15741375
229	0xbe19bce9	-0.1501347
230	0xbdee8081	-0.11645604
231	0x3d2652d0	0.04060632
232	0xbc8bc52d	-0.017061794
233	0xbe54f20e	-0.20795462
234	0xbd45e9db	-0.048318725
235	0xbce186b2	-0.027530048
236	0x3e1261ff	0.14295195
237	0xbe28bbc9	-0.16477884
238	0xbccc748c	-0.024957918
239	0xbda2d617	-0.07950991
240	0xbe286e01	-0.16448213
241	0xbc26f5be	-0.010190425
242	0x3c9b0ed5	0.01892797
243	0xbe869e81	-0.26292804
244	0xbe57ee72	-0.21087053
245	0x3e2d5b1b	0.16929285
246	0x3dbacd65	0.09121207
247	0xbdc3c6a1	-0.0955937
248	0xbda6cb80	-0.08144283
249	0xbd55148b	-0.052021544
250	0x3cafdd0d	0.02146771
251	0xbe58a42f	-0.21156381
252	0x3dd01cc8	0.101617396
253	0x3d8558eb	0.065111004
254	0x3e117064	0.1420303
255	0x3db7ba13	0.08971038

Classification.2.conv.bias f4 [10]
0	0xb56cf4e3	-8.827321e-07
1	0xb7848e05	-1.580176e-05
2	0xb7e1c025	-2.6911564e-05
3	0x326fe8d1	1.3964567e-08
4	0x3689df7d	4.1089356e-06
5	0xb2cbee92	-2.37408e-08
6	0xb60a4d3b	-2.0608556e-06
7	0xb8bd126c	-9.0156536e-05
8	0xb8274ac7	-3.9885545e-05
9	0xb6941fd3	-4.4144485e-06

Classification.2.bn.weight f4 [10]
0	0x3faee650	1.3664036
1	0x3f9be5b5	1.2179476
2	0x3fa07317	1.2535123
3	0x3fa6373d	1.2985607
4	0x3fa8e4fe	1.3194883
5	0x3f9e52fb	1.2369074
6	0x3f907a29	1.128728
7	0x3fa009f0	1.2503033
8	0x3faeeb1a	1.3665497
9	0x3f959986	1.1687477

Classification.2.bn.bias f4 [10]
0	0x3de0b593	0.109721325
1	0xbe0c09bf	-0.13675593
2	0x3dfc677d	0.12324426
3	0xbc0cb4d0	-0.008588031
4	0x3e252737	0.1612824
5	0x3ab2b7e5	0.0013635127
6	0xbde85ebb	-0.113461934
7	0x3ddf6833	0.10908546
8	0x3e0bf4f6	0.13667664
9	0xbc06494d	-0.008196187

Classification.2.bn.running_mean f4 [10]
0	0xbc83f65b	-0.016108682
1	0xbcdc0381	-0.02685714
2	0x3bcd1e33	0.0062597035
3	0x3bd202fa	0.0064090462
4	0x3c9f868c	0.019473337
5	0xbc508c13	-0.012728709
6	0xbca25e9d	-0.019820506
7	0xbc80c7fe	-0.015720364
8	0x3b48ae61	0.0030621516
9	0xbccfa55c	-0.025347404

Classification.2.bn.running_var f4 [10]
0	0x3cce7c19	0.025205659
1	0x3c802556	0.015642803
2	0x3c96df1e	0.018416937
3	0x3c5b4271	0.01338254
4	0x3cccdf5a	0.025008846
5	0x3c975837	0.018474681
6	0x3c9463dc	0.018114023
7	0x3c8652ee	0.016396966
8	0x3cd758c3	0.026287442
9	0x3c8b8137	0.017029388

ClassificationCat.0.weight f4 [1, 250]
0	0xbd3dfbaf	-0.046382602
1	0x3b7cccfb	0.0038574326
2	0x3dc396f5	0.09550277
3	0xbe1883e4	-0.14894062
4	0x3e4285ac	0.18996304
5	0x3cfc1f95	0.030776778
6	0xbdfac153	-0.12243905
7	0xbd804946	-0.06263976
8	0xbcc0846c	-0.023500644
9	0xbd79cdef	-0.06098741
10	0x3da2a645	0.0794187
11	0xbe14210e	-0.14465734
12	0x3e6a174c	0.2286045
13	0x3e41c931	0.18924405
14	0xbd80c616	-0.06287782
15	0x3d411b87	0.047145393
16	0xbe5b59fd	-0.21421047
17	0x3edcd311	0.4312978
18	0x3dedc0e6	0.11609058
19	0x3d2dc7bf	0.04242682
20	0x3e104f56	0.14092764
21	0xbe23e27b	-0.16004364
22	0x3ec0a4ad	0.37625638
23	0x3c4215aa	0.011845985
24	0xbc7a85a0	-0.015290648
25	0x3db5afaf	0.088713996
26	0x3e6c055e	0.23048922
27	0x3cff0aed	0.03113314
28	0x3ccd90cc	0.025093459
29	0x3de8a537	0.11359637
30	0x3ce92f8c	0.028465055
31	0x3d136581	0.035985474
32	0x3e128623	0.14308982
33	0xbe59746d	-0.21235819
34	0xbd9b5b22	-0.075857416
35	0xbc498422	-0.012299569
36	0x3e020187	0.12695895
37	0x3e48b6f2	0.19601038
38	0xbd1e2782	-0.038611896
39	0xbe4b3e5f	-0.19848011
40	0xbd56c587	-0.05243447
41	0x3dff993d	0.124804
42	0xbd112caf	-0.035443004
43	0xbe2a6a6a	-0.16642156
44	0x3a85426e	0.0010166892
45	0x3c511b4a	0.012762854
46	0xbe535ff8	-0.20642078
47	0x3e8e1bd0	0.27755594
48	0xbe1f5c2c	-0.15562505
49	0xbc2b79ac	-0.010466021
50	0x3ac9c427	0.0015393541
51	0xbb77a1c5	-0.003778563
52	0x3c18b76a	0.009321073
53	0xbd3aaa97	-0.045572843
54	0xbdcda4b6	-0.10041182
55	0xba5675cc	-0.0008181005
56	0xbe42b9e0	-0.19016218
57	0xbe0ef504	-0.13960654
58	0x3d8da100	0.06915474
59	0xbb266d24	-0.0025394643
60	0xbc2f7efa	-0.010711426
61	0x3d5e128e	0.054216914
62	0xbe40479c	-0.18777317
63	0x3e0df988	0.1386472
64	0x3e6d768b	0.23189752
65	0x3dfeace1	0.12435318
66	0xbd47accf	-0.048748787
67	0x3db037a4	0.086043626
68	0x3ecb5005	0.39709488
69	0x3e654a13	0.22391538
70	0x3ca94d1d	0.020666653
71	0xbdc00d94	-0.0937759
72	0x3d552608	0.052038223
73	0x3e9acd04	0.3023454
74	0x3dff7c00	0.12474823
75	0xbcf882a1	-0.030335726
76	0x3e2acdb0	0.16680026
77	0xbbc20c4f	-0.0059218775
78	0xbdfef049	-0.124481745
79	0x3d9b5e07	0.07586294
80	0x3dc8d663	0.09806516
81	0xbe46fd83	-0.19432645
82	0x3e35226d	0.17688914
83	0x3de196fd	0.11015127
84	0xbe766fd0	-0.2406609
85	0xbd910e9e	-0.07082866
86	0x3dd5ee68	0.10445863
87	0xbd3f3b5f	-0.04668748
88	0xbb090088	-0.0020904858
89	0x3dada5b1	0.08478869
90	0x3e19972e	0.14999077
91	0xbe31b88c	-0.17355555
92	0x3e866b94	0.2625395
93	0xbe7c1f61	-0.24621345
94	0x3ac7f800	0.0015256405
95	0x3d2c0668	0.041998297
96	0xbd2bb591	-0.041921202
97	0xbe06c3c5	-0.13160618
98	0x3e45845c	0.19288772
99	0x3e4203cf	0.18946765
100	0x3e427256	0.18988928
101	0xbd3705c2	-0.044683225
102	0xbd33cbc2	-0.04389549
103	0x3e191593	0.14949636
104	0xbdd590ec	-0.10428032
105	0x39287f47	0.00016069143
106	0x3dbabe90	0.09118378
107	0xbdca64de	-0.0988252
108	0xbe227520	-0.15864992
109	0x3c8b5804	0.017009743
110	0x3c4538f5	0.012037505
111	0x3e1c46cf	0.15261386
112	0xbe15e993	-0.14639883
113	0xbe0a350f	-0.13496803
114	0x3df13baa	0.11778958
115	0x3d49e10a	0.04928688
116	0x3e1cb984	0.15305144
117	0xbec7b20a	-0.3900302
118	0x3e5029eb	0.2032849
119	0x3e8f3a74	0.27974284
120	0xbd5b16fc	-0.053488716
121	0x3dd06a19	0.101764865
122	0xbe6ddedd	-0.23229547
123	0x3e091101	0.13385393
124	0x3dae0a9c	0.08498117
125	0xbc5d8bda	-0.013522113
126	0x3ba62782	0.0050706277
127	0x3e04913d	0.12946029
128	0xbdcd9ff9	-0.10040278
129	0xbc65dd2c	-0.014029782
130	0xbbf54a0a	-0.007485633
131	0x3d642264	0.05569686
132	0x3dd8afc4	0.105804
133	0xbd01a119	-0.031647775
134	0xbc0740ce	-0.008255197
135	0xbd655a85	-0.05599453
136	0xbdf35ae1	-0.11882568
137	0x3e8511cf	0.2599015
138	0xbd4108e6	-0.047127627
139	0xbe97bda4	-0.29636872
140	0xbbb51052	-0.005525627
141	0x3d5c12b9	0.053728793
142	0x3e339704	0.17538077
143	0xbe576634	-0.21035081
144	0xbda3b968	-0.07994348
145	0x3de649e9	0.11244566
146	0xbdef57e8	-0.11686689
147	0x3ddffac5	0.10936502
148	0xbe591447	-0.21199141
149	0xbd2f9bba	-0.04287312
150	0x3d0a8cb0	0.033825576
151	0x3e0c383f	0.13693331
152	0xbc868d11	-0.016424688
153	0x3d366bff	0.044536587
154	0x3e01ef2b	0.12688892
155	0x3c847ab6	0.016171794
156	0x3d9af511	0.07566274
157	0x3d14ffa1	0.0363766
158	0xbdef2662	-0.11677243
159	0xbddc58f2	-0.107591525
160	0xbb085144	-0.0020800391
161	0x3c58fc7a	0.013243789
162	0x3e95674d	0.29180375
163	0x3d0a5433	0.033771705
164	0xbe85f0b4	-0.26160204
165	0xbd39b017	-0.045333948
166	0xbc36efec	-0.0111656
167	0xbcb86a44	-0.022511609
168	0xbe47994a	-0.19492069
169	0xbd3e5ff9	-0.046478245
170	0xbad6a2db	-0.0016375439
171	0xbe454223	-0.1926351
172	0x3e126d71	0.14299561
173	0xbe4cda77	-0.20005213
174	0x3bc2bca0	0.005942896
175	0xbdae7b8f	-0.08519661
176	0xbd6ea151	-0.058259312
177	0x3d316316	0.043307386
178	0xbdab51fe	-0.08365248
179	0x3ccb14eb	0.024790248
180	0xbca07747	-0.019588126
181	0xbe226f28	-0.15862715
182	0xbdd33c0c	-0.103141874
183	0x3e05f00c	0.13079852
184	0xbe2b8c8b	-0.16752832
185	0x3d9b29ee	0.07576357
186	0x3cb6bbb8	0.022306308
187	0xbe4fcda1	-0.20293285
188	0x3e73348f	0.23750518
189	0x3e8230f2	0.25427967
190	0x3cbb67d1	0.022876652
191	0xbe2fed2a	-0.17180315
192	0x3e269bd9	0.16270389
193	0x3eb33490	0.3500104
194	0x3da2f96e	0.07957731
195	0x3c5bbe4e	0.013412071
196	0x3bd9920a	0.0066397237
197	0x3e082ace	0.13297579
198	0x3e1bcb13	0.15214185
199	0xbd1495c1	-0.03627563
200	0x3df934c5	0.12168268
201	0xbcb1bc21	-0.021696152
202	0xbc83140e	-0.016000774
203	0x3dc79e19	0.097469516
204	0xbdcf5134	-0.1012291
205	0x3d33fcfb	0.043942433
206	0x3ce28384	0.027650602
207	0xbdfa4d46	-0.1222177
208	0xbc17485f	-0.009233563
209	0xbc821344	-0.015878327
210	0x3ab93d46	0.0014132641
211	0x3e37e9a3	0.17960219
212	0xbdde2ee7	-0.1084879
213	0xbe5b89aa	-0.21439233
214	0x3e36f33d	0.17866226
215	0x3dfffe8e	0.12499724
216	0x3dc1038f	0.09424507
217	0xbe8cca79	-0.27498224
218	0x3e959771	0.29217103
219	0x3e9abb4e	0.30221027
220	0xbd1f826d	-0.038942743
221	0x3dde86b6	0.10865538
222	0xbe693944	-0.22775751
223	0x3e74a165	0.23889692
224	0x3e09f2e7	0.13471566
225	0x3dd40d72	0.10354127
226	0x3e1b56ac	0.15169781
227	0xbd094882	-0.033516414
228	0xbd90a6d2	-0.070630684
229	0x3d0ee1bc	0.034883246
230	0x3caad1f6	0.02085207
231	0x3e10224c	0.14075583
232	0x3c8f89be	0.017521735
233	0xb9aba457	-0.00032738104
234	0xbdf70ac4	-0.120626
235	0xbd0ec5c4	-0.034856573
236	0x3e72c6d2	0.23708656
237	0xbdae0a78	-0.084980905
238	0xbe7f90dd	-0.24957605
239	0xbc4c2ca0	-0.012461811
240	0x3dc91dc1	0.09820128
241	0x3dcdac12	0.100425854
242	0xbe41f296	-0.18940195
243	0xbe483de9	-0.19554867
244	0xbd979f6f	-0.074034564
245	0xbd9ede9d	-0.07757304
246	0x3cb901ab	0.022583803
247	0xbe80d93e	-0.25165743
248	0xbd83df53	-0.0643908
249	0x3d7af0d2	0.06126482
