models/2023-05-18_16-46/1/pytorch/E-39_VA-0.7946_VL-67.06_TA-0.6417_TL-88.08.pt (torch, 35806 bytes, 39 tensors)

TSA.conv.weight f4 [3, 3, 3, 3]
000000 bb c0 56 3e aa 8f 07 3e 50 13 16 3e ab 39 46 3e
       0.20971958 0.13238397 0.14655805 0.19357936
000010 23 da 8c 3f c5 72 33 3e a5 aa 05 3e 1a b3 04 3e
       1.100407 0.1752425 0.13053377 0.12958947
000020 32 c1 41 3e e7 50 dc 3d d0 b4 93 3d 0f 64 e7 3d
       0.18921354 0.107576184 0.072122216 0.112983815
000030 6b a4 ce 3d d1 01 85 3f b4 e6 09 3e 5f 18 0a 3d
       0.10089954 1.0391179 0.13466913 0.03371465
000040 fa 38 86 3d d9 b5 16 3e 73 5d 14 3e fc 2d bd 3d
       0.06553836 0.14717807 0.14488773 0.092372864
000050 12 4d bb 3d ca f5 0d 3e 88 41 86 3f 8d 6d cf 3d
       0.09145559 0.13863292 1.0488749 0.10128317
000060 4e 93 97 3d 6f 3c 82 3d 6d b5 bf 3d c5 bb a0 3d
       0.07401143 0.06359183 0.09360776 0.07848314
000070 d9 0c 92 3b 59 00 0e 3d da 2a 01 3e 73 81 80 3f
       0.004457098 0.0346683 0.12614003 1.0039505
000080 6a 2b 9e 3d 59 3f 02 3e e5 a0 02 3d 22 98 94 3d
       0.07723124 0.12719478 0.031891722 0.072555795
000090 43 db 94 3d ea 9d 30 3c 63 f4 6a 3d 99 90 f9 3d
       0.07268383 0.010779837 0.05736197 0.12185783
0000a0 90 43 80 3f 96 06 b3 3d 75 a0 de 3d b5 b4 60 3c
       1.0020618 0.087414905 0.108704485 0.013714959
0000b0 6e 83 80 3d aa 57 61 3d 79 96 e8 38 82 1b 3a 3d
       0.06275068 0.055015244 0.0001109065 0.04543639
0000c0 07 6a cc 3d 71 b6 7b 3f a2 9a 8d 3d 29 71 b3 3d
       0.099811606 0.9832526 0.069142595 0.08761818
0000d0 40 84 44 bc 4f c6 fb 3c 0c ee 8f bd 8c bb 66 bc
       -0.0119944215 0.03073421 -0.07027826 -0.014082801
0000e0 e8 01 62 bb 7b ee 81 bd bd 2a 6f 3f ce 18 f8 bc
       -0.0034486 -0.06344315 0.9342459 -0.030285265
0000f0 c3 02 e3 bc 5f d9 7d 3c de 80 76 bd 3a d8 8b bd
       -0.027711278 0.01549372 -0.06018149 -0.06828351
000100 3d 40 ec 3a 3e 21 b2 3c e1 1f 38 bd 58 67 72 3f
       0.0018024516 0.021744367 -0.044952277 0.9468894
000110 65 fc 82 bc 69 b0 77 3b 38 18 ff 3c f7 01 47 bd
       -0.015989492 0.0037794358 0.031139478 -0.04858586
000120 05 4b ea bc 12 54 63 3c 51 be 18 3d 6b 3b 32 bb
       -0.028600225 0.013875024 0.037290875 -0.002719606
000130 15 99 77 3f 80 80 e6 3b 61 2d 1e 3d ca 9e 4e 3d
       0.9671796 0.0070343614 0.038617495 0.0504444
000140 bd 1b df bc
       -0.027234906

TSA.conv.bias f4 [3]
000000 cb f2 ec bd 2e 5a 1c bd 8a 5d 61 bc
       -0.115697466 -0.03817194 -0.013755212

FPN.0.weight f4 [3]
000000 f4 94 81 3f 28 f9 72 3f bb 3b 72 3f
       1.0123582 0.9491143 0.9462239

FPN.0.bias f4 [3]
000000 6e 68 30 be e2 f2 2e be 60 9e f1 3d
       -0.17227337 -0.1708484 0.11797786

FPN.0.running_mean f4 [3]
000000 2e 49 f4 3e f3 fb da 3e b2 75 c6 3e
       0.47712082 0.42770347 0.3876167

FPN.0.running_var f4 [3]
000000 44 0f 0a 3e 9e 90 98 3d 22 b4 3c 3d
       0.13482386 0.074494585 0.046070226

FPN.1.conv.weight f4 [4, 3, 3, 3]
000000 f0 2a f1 bd 45 8a 94 3d d6 19 ea 3d 77 47 b5 3d
       -0.11775768 0.07252935 0.11430709 0.088515215
000010 53 50 cd 3c 78 8c 36 be eb 28 c1 3d c6 90 e4 bd
       0.025062716 -0.17827022 0.094316326 -0.11160426
000020 52 e2 27 be f0 93 a0 bd 7c 42 81 bd 21 af 96 bc
       -0.16394928 -0.07840717 -0.06311509 -0.018394055
000030 2e 5e 42 bc 27 47 a5 bc 9e 82 42 be 59 51 0c bd
       -0.0118632745 -0.02017553 -0.18995139 -0.034257267
000040 91 ae 13 bc c0 c6 7c be 0e 9b 00 be c0 df 84 bc
       -0.009013788 -0.24685192 -0.12559149 -0.016219974
000050 73 67 d5 bd 8f 3a d4 3d 35 48 1e bb fb 25 7a bd
       -0.10420122 0.10362732 -0.0024151925 -0.061071377
000060 3c f9 0b 3e 70 3d 1b 3e 21 00 6c 3d 92 04 e2 bd
       0.13669294 0.15160155 0.05761731 -0.11036028
000070 25 dd 37 3e 92 c2 0b 3e af be 21 3e 94 ca f2 3d
       0.17955454 0.13648441 0.15795396 0.11855045
000080 34 bf a7 3d d0 85 5a 3d b7 89 0f 3e ae 2a 88 3e
       0.08190766 0.05335027 0.14017378 0.26595062
000090 5d ee 21 3e a7 40 38 3d 27 24 d9 bd 41 2f bd 3d
       0.15813585 0.044983532 -0.10602599 0.092375286
0000a0 43 ea 64 bd 70 9a b2 bd ff 68 e5 3d c6 40 e6 bc
       -0.055887472 -0.08720863 0.11201667 -0.028107058
0000b0 1a f1 a6 3d d3 a0 23 be bf fe 1c bc 40 9f 00 3e
       0.08151455 -0.15979318 -0.009582221 0.12560749
0000c0 a1 cf b3 bd 46 b8 62 bd 56 71 28 3d 07 18 40 be
       -0.087798364 -0.055351518 0.04112371 -0.18759166
0000d0 6c e3 b0 bd fb c6 14 3d 90 e8 da bd 0d 62 25 be
       -0.08637127 0.036322575 -0.10688889 -0.16150685
0000e0 3d fc 20 be 59 70 38 3e 1a 1f 1b 3e 79 cb 94 3d
       -0.15721221 0.18011607 0.15148583 0.07265372
0000f0 bd 94 cb 3d 6f 33 3f 3d 5d 16 4a be 75 48 82 bd
       0.09940479 0.04667991 -0.19735093 -0.06361476
000100 ed bf 44 be e8 6d dd 3d e3 ec 4a 3e 37 0d 16 3e
       -0.19213839 0.108119786 0.19816928 0.14653479
000110 93 11 98 3d ce 27 71 3e 34 c9 2c bd 92 3b 07 bd
       0.07425227 0.2355034 -0.04218407 -0.033015795
000120 8b 8a e9 bd f5 32 fb bc cd 3a dd 3d cf a2 2f be
       -0.11403378 -0.030663947 0.10802231 -0.1715195
000130 d1 c4 34 3e 94 84 81 3d 7e 9c 46 3d a3 ab 64 bd
       0.17653205 0.063241154 0.048489086 -0.055827748
000140 22 b2 30 be 37 b6 76 bd 81 e4 be 3d 29 89 2c 3d
       -0.17255452 -0.060232367 0.093209274 0.042122994
000150 53 46 74 3e 5a a5 3e 3c a7 2d 3f 3e 5a ba 1b 3e
       0.23854952 0.011636103 0.18669759 0.15207806
000160 95 bc 39 3e d0 8f 2c be d9 33 62 3c 90 b2 ad bd
       0.18138345 -0.16851735 0.013806307 -0.08481324
000170 5e 52 a5 3d 34 cd 03 3c 8a 30 0c bd b0 4d fe bd
       0.08072351 0.00804453 -0.034225978 -0.124171615
000180 cf 61 86 bd f3 c7 35 3e 96 41 b7 bd 3d c3 4f 3c
       -0.06561624 0.17752056 -0.089480564 0.012680826
000190 fc c4 f5 bc 45 6e f8 3a fd e7 a5 3d e5 9b 62 3e
       -0.030001156 0.0018953761 0.08100889 0.22129782
0001a0 06 dc 16 bc 82 cb a0 3d e8 b5 0f 3e 4e ff 4e be
       -0.009207731 0.07851316 0.14034235 -0.20214579

FPN.1.conv.bias f4 [4]
000000 42 4c a8 38 44 24 b3 b4 b3 83 52 35 d1 ee 74 32
       8.0250684e-05 -3.3367735e-07 7.8422744e-07 1.425697e-08

FPN.1.bn.weight f4 [4]
000000 b3 35 82 3f 36 f4 7a 3f 2b d8 7a 3f 29 b1 59 3f
       1.0172638 0.98028886 0.97986096 0.8503595

FPN.1.bn.bias f4 [4]
000000 09 6a 21 bd 65 5a a7 bd 6c 76 57 bd 3d c6 9f 3d
       -0.039407764 -0.08171538 -0.05260317 0.07801483

FPN.1.bn.running_mean f4 [4]
000000 08 3b 11 3e cb cd 79 be c6 65 a9 bd 7a c0 57 bd
       0.14182675 -0.2439491 -0.08271365 -0.052673794

FPN.1.bn.running_var f4 [4]
000000 75 1d c2 3e 57 39 59 3f a8 53 ce 3d b4 85 2d 3f
       0.379131 0.8485312 0.1007455 0.6778214

FPN.3.conv.weight f4 [6, 4, 3, 3]
000000 a2 e7 5c bd 64 97 44 be f6 c9 9e bd 63 40 00 be
       -0.05393184 -0.19198376 -0.07753365 -0.12524562
000010 2b aa 8e 3d 03 58 01 be fd c0 43 3e e9 e4 07 be
       0.06966051 -0.1263123 0.19116588 -0.13270916
000020 38 d8 11 3e 97 d2 83 3e 9b 41 dd bc 9c 9c 67 bd
       0.14242637 0.25746605 -0.027008822 -0.05654584
000030 74 91 87 3e ae 85 64 bd 6d 85 46 bd ea 6d 81 bd
       0.2647816 -0.05579155 -0.04846709 -0.063197926
000040 96 e0 b8 3c 90 7f 96 3d fd 12 92 3e ca a6 68 3d
       0.022568028 0.07348549 0.28530112 0.056799687
000050 17 8b 2d bd 15 ad 6d 3d 46 1a 10 3d f5 18 5d bd
       -0.042368975 0.058026392 0.035181306 -0.05397888
000060 ab b4 2e bc 02 a9 43 3d 1b c3 0b be e4 50 13 3d
       -0.010663192 0.0477686 -0.13648646 0.035965815
000070 f0 94 09 3e dc 9a d8 bd d2 a5 e4 3c f4 70 6d bd
       0.13435721 -0.10576412 0.0279111 -0.05796905
000080 05 c7 00 3e 70 57 fe 3c 0d 7d d7 bd ee b1 f3 bd
       0.1257592 0.031047553 -0.105218984 -0.11899172
000090 b1 6c 48 3d 92 9a 67 be 62 bf ba 3d 56 fd 3b 3e
       0.04893178 -0.22617558 0.091185346 0.18358359
0000a0 a6 a0 c5 3d 7f 40 f3 bd 53 fd 99 3d 89 ee 1b 3e
       0.09649782 -0.11877536 0.07519021 0.15227713
0000b0 82 17 8d 3d 29 a1 03 be ab ac e2 bc 87 03 c0 3d
       0.068892494 -0.12854446 -0.027670225 0.09375673
0000c0 bd e7 07 be 9a 3b c8 3c 47 da b0 3d c5 b7 f0 3c
       -0.13271995 0.024442483 0.08635383 0.029384503
0000d0 2b a4 21 3d bf 37 62 3e 59 5c 9b 3d 49 68 20 3e
       0.039463203 0.22091578 0.07585973 0.15664782
0000e0 a6 40 51 3d e5 8e 1e 3e ff 67 a9 bd c5 8c 0e be
       0.051087044 0.15484197 -0.08271789 -0.13920887
0000f0 9b 01 47 be a1 a1 41 3c 3b 58 c5 bc ff 9a bd bd
       -0.19434206 0.0118183205 -0.024089923 -0.09258079
000100 39 d8 68 3d b9 9d 26 3d be 76 96 bd bc a1 b4 bd
       0.05684683 0.04067776 -0.07346867 -0.08819911
000110 dd 11 bc 3c cc b5 d5 3b e3 b4 a2 bd 12 11 c3 3d
       0.022957737 0.006521916 -0.07944658 0.0952474
000120 45 e1 ef bd 69 a0 07 be 64 c0 19 be e6 51 2e be
       -0.11712889 -0.13244785 -0.15014797 -0.1702343
000130 fa 3d a1 3c c2 eb 7c bd 1b 9b 71 3d 2c e7 3e 3e
       0.019682873 -0.061748274 0.05898581 0.18642873
000140 7a c8 48 bd 74 cc 80 bc 08 89 c0 bd b2 db 40 bd
       -0.049019314 -0.01572249 -0.09401137 -0.047084518
000150 8a 79 11 be 80 45 cc bd 0a 92 53 3d d5 ee c4 bd
       -0.1420652 -0.099741936 0.051652946 -0.09615866
000160 fc aa 90 bd 1c db d6 3d 60 ba 08 3d f4 b7 08 be
       -0.07063863 0.104910105 0.033380866 -0.13351423
000170 76 22 3c 3d 52 7c 87 bc 6d cf 3e 3d ac 55 15 3e
       0.045931302 -0.016538773 0.046584535 0.14583462
000180 4d ec c6 bd 91 4b aa 3d fe 4c 6c 3d 82 f0 ab bd
       -0.097130395 0.083151944 0.057690613 -0.083954826
000190 5c 21 cc bb 39 da 65 3c 7b 28 f8 bd 2c 10 7b 3b
       -0.0062295627 0.014029079 -0.12117096 0.00383092
0001a0 05 71 c2 bd 9f 4a 75 be 7d 8a 67 be f9 f5 68 bd
       -0.09494213 -0.23954247 -0.22611423 -0.056875203
0001b0 31 34 09 3d 5b 74 f6 3c 2c 40 fc bc 2d 7b 08 bd
       0.03349704 0.03008478 -0.030792318 -0.033320595
0001c0 8c e2 ca 3c 1e d7 bd bd 86 97 2b 3e 88 6e fc bd
       0.02476623 -0.09269546 0.1675702 -0.1232577
0001d0 dc a4 2f be 27 7c 9a 3e 90 75 16 3d c9 ae f6 bc
       -0.17152733 0.30172846 0.03673321 -0.030112641
0001e0 5d a1 6b 3d 17 22 b7 bd 3e fe 56 be 27 4f 29 3e
       0.057526935 -0.08942049 -0.20995423 0.165341
0001f0 ec b7 08 bd 79 04 01 bd fe 43 19 3e 8e fc f9 3c
       -0.033378527 -0.031498406 0.14967343 0.030515935
000200 21 cd 7b bd 95 80 c3 3d 24 9d 7c 3c 84 90 eb bd
       -0.061474923 0.095460095 0.015418325 -0.115021735
000210 88 b2 a7 3d 42 d6 5f 3d 9a ad 17 be 59 de 60 3d
       0.08188349 0.05464769 -0.14812317 0.054899547
000220 eb cd 2d bc fa 47 09 bd 31 c0 26 3e 27 46 83 3b
       -0.010608177 -0.033515908 0.16284253 0.0040061655
000230 33 fa 9c 3c fa 8b 1c 3c 65 ed ac 3d 00 bb 8d bd
       0.019162273 0.009554857 0.08443717 -0.06920433
000240 93 cd 0b bc 7f 2c 9f bd 4a 4f 33 be 90 4e 8c bd
       -0.008532899 -0.07772159 -0.17510715 -0.06850922
000250 93 6e 2b 3e d9 78 21 be a0 34 24 be d0 af 0b 3e
       0.167414 -0.15768756 -0.160357 0.13641286
000260 cc 82 88 3d fe 02 0e 3e 66 87 95 3c b7 23 98 bd
       0.066655725 0.13868329 0.01825304 -0.07428687
000270 c3 d8 9c bd eb 88 d7 bd 72 fc b1 3c 78 b4 ea bd
       -0.076585315 -0.10524162 0.02172682 -0.11460203
000280 b7 3d 8e 3d b9 a6 b9 3d a2 db 96 bd 7c 8c 14 be
       0.06945365 0.09065003 -0.073661104 -0.14506716
000290 77 6b 04 be 48 43 48 3e 4c c0 85 3d de 35 d3 bd
       -0.1293162 0.19556916 0.06530818 -0.10313009
0002a0 ff de a2 3d 88 3f 9f 3d 23 a7 37 be 18 ba 37 3e
       0.079526894 0.077757895 -0.17934851 0.17942083
0002b0 d3 90 d4 bd 03 a5 17 bd 79 4f d7 3d 9b ea d1 bd
       -0.103791855 -0.0370226 0.10513205 -0.102498256
0002c0 e2 de c9 bd 2e 12 e3 3d e3 9f 46 3d 48 23 23 be
       -0.09856965 0.11087452 0.048492324 -0.15931427
0002d0 a9 1d 60 bd da 98 b5 3d d8 e5 50 3e 2b e2 4a be
       -0.054715786 0.08867045 0.20400178 -0.19812839
0002e0 fb dc e7 bd 30 be f6 3d a1 6d 17 be ec 53 9c bd
       -0.113214456 0.12047994 -0.14787914 -0.07633194
0002f0 75 46 63 3d 94 b9 ef bc 62 24 16 3e b4 11 47 be
       0.055487115 -0.029263295 0.14662316 -0.19440347
000300 36 fa c1 3d 98 b2 19 3e a4 87 d2 bd fe 83 af bd
       0.09471552 0.15009534 -0.10279778 -0.085700974
000310 c7 6b 1c 3e 06 4c 96 3d f5 3d 58 3c f9 b5 58 bc
       0.15275489 0.07338719 0.013198365 -0.013226979
000320 d6 45 af 3d 3d 64 48 bd b7 b1 38 bd 5f 76 e8 bd
       0.08558242 -0.04892372 -0.045091357 -0.113507025
000330 15 d1 a8 bd 06 c1 ce 3c d7 a7 d2 bd db 21 75 3b
       -0.08243004 0.025238525 -0.10285919 0.0037404213
000340 1c 77 ca bd d9 f6 f2 3c 71 a5 24 bd 2f 6b 28 3b
       -0.098859996 0.029658722 -0.04019684 0.0025698652
000350 4c dd 01 be 19 c8 ab bd 93 ab 16 3e b2 b0 f8 bd
       -0.12682074 -0.08387775 0.14713888 -0.12143077

FPN.3.conv.bias f4 [6]
000000 c4 01 19 32 03 a2 e4 38 7b e9 6c 33 14 a0 b0 33
       8.906174e-09 0.00010902064 5.516038e-08 8.224757e-08
000010 62 b2 14 b3 e5 13 75 b3
       -3.4621173e-08 -5.70616e-08

FPN.3.bn.weight f4 [6]
000000 49 3b 8b 3f d4 d0 81 3f 8b 63 85 3f 30 25 80 3f
       1.0877467 1.0141854 1.0421003 1.0011349
000010 2c 6b 8c 3f 64 9a 81 3f
       1.0970206 1.0125241

FPN.3.bn.bias f4 [6]
000000 02 6b cc bc 32 89 d3 bd e4 60 8e 3c 2a 9d 13 bd
       -0.024953369 -0.10328902 0.017380185 -0.036038555
000010 24 05 e3 bc d6 4f 49 bd
       -0.027712412 -0.049148403

FPN.3.bn.running_mean f4 [6]
000000 b3 e4 bc 3c 94 ea c0 3d 29 a1 c8 be a2 85 73 3d
       0.023058271 0.09419742 -0.39185455 0.059453614
000010 66 83 18 be bd 08 17 be
       -0.14893875 -0.14749427

FPN.3.bn.running_var f4 [6]
000000 4d 5b 5b 3e e8 19 9a 3d cf c6 10 3f 26 f6 46 3e
       0.21421547 0.075244725 0.5655336 0.19429836
000010 cb 08 f5 3d c8 ed 5c 3d
       0.11964568 0.053937703

ConvLSTMLayer.cell.conv.weight f4 [32, 14, 3, 3]
000000 4c 3d 8f 3d fb a9 b8 3d 24 60 c2 bd 8b 46 cc 3d
       0.06994113 0.09016796 -0.094909936 0.099743925
000010 36 47 dd 3c 8f a5 23 3d 36 a9 c0 bc ec 27 ef bb
       0.027011495 0.03995281 -0.023518186 -0.00729846
000020 17 8b b7 3d ac f0 18 3d d2 94 33 3e 12 d5 ce 3d
       0.08962076 0.037338898 0.17537239 0.10099234
000030 2f 40 a6 bd 2e e4 f0 3d 0c 8e c3 bd d4 64 4d bd
       -0.08117711 0.11762272 -0.09548578 -0.050144985
000040 5e fb 9f bd 40 17 56 bd 61 a6 57 bd 15 9a 73 3d
       -0.07811616 -0.052268267 -0.052648906 0.059473116
000050 58 b6 71 bd 81 01 2e bd 46 18 80 3d 34 23 bb bd
       -0.059011787 -0.042481903 0.0625463 -0.09137574
000060 5f 30 79 bd 84 63 04 bc 2e e5 43 3d 98 76 60 bc
       -0.060837146 -0.008080367 0.047825985 -0.01370015
000070 f8 2b 27 3e 06 1d 78 bd 9d 49 91 3d d1 62 f6 3d
       0.16325366 -0.060574554 0.07094119 0.120305665
000080 86 ec 43 bd 0d c8 5b bd cd d0 a0 3d fe 2e ad 3d
       -0.04783299 -0.05365758 0.078523256 0.08456229
000090 ac 59 a7 bd dd db 59 3c 69 66 39 be c7 e0 1d be
       -0.081714004 0.013297048 -0.18105473 -0.15417777
0000a0 b7 a2 0b bd 0b cc 8c bc d3 31 95 bd bf cf 8f 3d
       -0.034090724 -0.017187139 -0.07284894 0.07022046
0000b0 ed 7a 28 bd 4a fc bf bb 4f a0 f9 bc d8 3d 92 3d
       -0.041132856 -0.0058589326 -0.030471949 0.07140702
0000c0 ce ea 3e bd fd 05 39 bd f4 e8 4e 3e 43 1b b3 3d
       -0.046610646 -0.045171726 0.20206052 0.08745434
0000d0 19 4a 89 3c 0d 86 1b 3e cd b3 9e bd 9e 12 6a bd
       0.016758965 0.15187855 -0.07749138 -0.05714666
0000e0 93 cd 9e 3d c2 5a dd bd 09 e0 29 bd 5a af 86 bc
       0.07754054 -0.10808326 -0.041473422 -0.016441036
0000f0 6d 2e bf bd 28 27 85 ba 6a 2c 9a 3c ab 78 4b bd
       -0.09335027 -0.0010158764 0.018820006 -0.049675625
000100 4a 5f 10 3d 72 a7 13 3e 34 a0 b3 bd 5b 67 76 3c
       0.035247125 0.14419344 -0.08770791 0.01503929
000110 68 40 7f 3d a8 9f 80 3d ed 49 4a 3d ab ce 5e 3d
       0.062317282 0.06280452 0.049386907 0.054396313
000120 87 bc 3e 3a 12 66 de 3b 48 b5 c9 3c c7 c9 a2 bd
       0.00072760176 0.00678707 0.024622574 -0.07948642
000130 56 cd c8 bb 14 bf 36 bc bb 9f 68 be 6d 4f 3f be
       -0.0061279936 -0.011153955 -0.22717182 -0.18682642
000140 bc 38 0b bd c0 12 1c 3e 53 0e 2d 3d 4d 2d a4 ba
       -0.033989653 0.15241528 0.04224999 -0.0012525708
000150 f2 20 c1 bc d1 91 2f 3d 46 51 bd 3d 8f 5e 02 be
       -0.02357528 0.04286367 0.09244017 -0.12731384
000160 5b 47 b0 3d 9b b0 e3 3d 0e f8 5a 3d 29 17 5d bb
       0.0860736 0.11117669 0.05345922 -0.0033735728
000170 d8 2b 48 bd 05 54 13 3e 29 8e af bd 3c c4 0d bd
       -0.048869938 0.1438752 -0.08572037 -0.03461097
000180 67 99 73 3e e6 c6 c8 bd cd 0a b9 bd 93 ae 42 bd
       0.23788987 -0.09803562 -0.09035263 -0.04752977
000190 c7 26 11 be 6c bc 0a 3e 54 ee c4 bc 47 9b f8 bd
       -0.14174949 0.1354844 -0.024039425 -0.12138992
0001a0 28 77 e4 3d 5a b5 d2 bd 18 1a 40 bd 2e f5 40 3e
       0.1115554 -0.10288496 -0.046899885 0.18843529
0001b0 2d e4 33 be 7f 0a 67 bd 8c 10 0e 3d 30 01 a3 bd
       -0.17567511 -0.056406494 0.03468375 -0.07959211
0001c0 ce be 7d bd 05 26 e3 3c 50 6a b7 bd ec 5c ac 3d
       -0.061949544 0.02772809 -0.089558244 0.08416161
0001d0 8c 41 01 bd b0 17 98 3d 8d d2 92 3c ee 79 ab bc
       -0.03155665 0.07426393 0.017922664 -0.020932164
0001e0 cb 97 13 3e bd 26 91 3d 54 e9 a9 3d af 30 2d 3e
       0.14413373 0.07087467 0.08296457 0.16913103
0001f0 52 cb fb 3d a8 34 d4 3d 3d f5 19 3d c9 49 65 3d
       0.1229464 0.10361606 0.037587393 0.05597857
000200 ec 57 bc 3d 38 b4 ab 3d af 6b 67 bb e6 13 80 3d
       0.09196457 0.083839834 -0.0035311987 0.06253795
000210 b3 42 08 3e 3d 41 02 3b 89 16 0e 3d 90 8c 4c 3d
       0.13306694 0.001987531 0.03468946 0.04993874
000220 04 4a 00 3e 02 d6 c7 3c 9a 54 3a bd 08 e7 3a 3e
       0.12528235 0.024394039 -0.04549084 0.18252194
000230 ba 6a f0 bd 51 a5 09 3e f7 13 3a bb 6e 49 16 be
       -0.117391065 0.1344197 -0.0028393248 -0.14676449
000240 06 14 c2 bc 46 de 60 bd 7b 19 12 bd ad 8b ac bd
       -0.023691189 -0.054899476 -0.03566883 -0.084250785
000250 39 91 39 be 45 cc a5 bd f4 a8 7e be 56 e9 c9 bd
       -0.18121804 -0.08095602 -0.24869138 -0.098589584
000260 50 8f 78 bc 06 4f df bc 51 d0 8a 3c ab 93 5c 3d
       -0.015170887 -0.027259361 0.016945036 0.053851765
000270 1f 0c 87 3d fc ff d5 3c ef 9c 2d 3c fa 54 f4 3d
       0.06594109 0.02612304 0.010596498 0.119302705
000280 ef b4 a4 3b 23 3c 18 bc 28 ea 80 3d 03 3f 1f 3d
       0.005026452 -0.009291681 0.06294662 0.038878452
000290 10 f4 6c 3a 73 0b 18 3e e8 bf 55 bd e0 7f 6c bd
       0.00090390537 0.14848118 -0.05218497 -0.05773914
0002a0 c9 8b a3 bc ba 01 13 be 0a fb 4b 3d f3 9c f0 3c
       -0.019964116 -0.14356127 0.049799956 0.029371714
0002b0 b6 21 bd bd 2c f9 e4 bd 37 89 c4 3d d2 84 2d be
       -0.092349455 -0.11180338 0.09596484 -0.16945198
0002c0 72 a5 37 be 32 de cf 3d 6d 4d 35 bd 1d 29 e9 bd
       -0.17934206 0.10149802 -0.044263292 -0.11384795
0002d0 bb 29 03 3e 1c eb a2 3d 10 72 b4 bc 0c f4 64 3e
       0.12808888 0.07955 -0.022027045 0.22358721
0002e0 d7 e2 18 3e 9e ab 94 bd 41 b1 0d 3e 71 73 6a 3b
       0.14930283 -0.07259296 0.13837148 0.0035774375
0002f0 3a 4b e7 3d 5a 4b 62 3b 0b 53 ae bd 4c 01 ea 3c
       0.11293645 0.0034529776 -0.08511933 0.028565072
000300 5f bb e9 bc 46 ee cc 3c 32 04 c2 3d 37 5e 7a bc
       -0.028531728 0.025015961 0.094734564 -0.015281252
000310 ba d5 0c 3e 52 10 3d 3d 6f 1d 11 be de 71 8d bb
       0.13753405 0.046158142 -0.14171384 -0.0043165525
000320 44 d8 45 bd 0f 69 5d be 43 c2 6b 3d 2f cb 2f be
       -0.04830195 -0.21622108 0.05755831 -0.17167352
000330 36 4a 1f be d2 6b f2 3b b3 cc a6 be 9d 96 aa bd
       -0.15555653 0.007398107 -0.32578048 -0.083295085
000340 73 57 07 bd 4d d4 07 3c 46 ab 54 bd 69 2e d7 bd
       -0.033042382 0.008290363 -0.05192115 -0.10506899
000350 7d 24 46 bc 33 a3 4f 3e 6c 90 e0 bd b4 3f 8a 3c
       -0.01209366 0.202771 -0.10965046 0.01687608
000360 c3 f7 84 3c 62 fb a3 bc 5d 0b 7a 3d 02 32 27 3e
       0.016231423 -0.02001733 0.061045993 0.1632767
000370 be b3 01 bd 07 17 d3 3d 65 cc 89 3e 9b 89 01 3e
       -0.031665556 0.103071265 0.26913753 0.12650149
000380 97 a9 1e 3d ec 1b a8 bb 8f 69 85 bd a1 a3 74 bd
       0.038735952 -0.0051302817 -0.06514274 -0.05972636
000390 a1 2e 20 3d b7 6a f4 bc 7e f3 92 bd 3f 76 82 3d
       0.03910697 -0.029836042 -0.07175349 0.0637021
0003a0 ba 10 11 be b6 74 f4 3d a4 4e a5 3d 68 ef bd bd
       -0.14166537 0.11936323 0.0807164 -0.09274179
0003b0 00 a8 0c 3a 22 8f fa 3d 6e 4b 8e bc d1 9b 30 3e
       0.000536561 0.12234332 -0.017369952 0.17246939
0003c0 37 2d 75 bd 2c 21 40 bd b2 c5 74 3e 7c de 56 3d
       -0.059857573 -0.046906635 0.2390354 0.05245827
0003d0 93 63 3e 3d c1 92 a3 3d fc d1 0e 3e fc bc 26 3e
       0.04648168 0.079869755 0.1394729 0.1628303
0003e0 90 0a 11 3e 41 5f 28 3e 66 65 87 3d 3e a2 08 3e
       0.14164186 0.16442586 0.06611137 0.1334314
0003f0 5d b4 14 bd 50 1f 7d bb 34 18 c4 bc 0f 15 b3 bd
       -0.03630482 -0.00386234 -0.023937322 -0.08744251

ConvLSTMLayer.cell.conv.bias f4 [32]
000000 9c 86 12 3c db eb 1b bd c6 d2 41 3c 7b c8 7a 3d
       0.008943226 -0.038066726 0.011830037 0.06122635
000010 05 30 e2 3c d3 e0 91 3b ac cf ad 3a 7c b8 0e 3d
       0.027610788 0.00445185 0.0013260744 0.034843907
000020 9b 77 44 3d 6b e0 a6 3d b5 8c c2 3d 2e ae a0 3d
       0.047965627 0.08148273 0.09499494 0.07845722
000030 7d 0a 0e 3e 8c aa ad 3d 4d ff ed 3d 27 de 3f 3e
       0.13871188 0.08479795 0.116209604 0.18737088
000040 30 c0 d6 3c b1 6b e5 3c 70 50 74 38 b6 d5 f8 3c
       0.026214689 0.028005453 5.8249047e-05 0.030375343
000050 c7 6a 32 3d d9 f8 69 3d ee 38 da 3d c8 a7 0c 3c
       0.043558862 0.057122085 0.1065539 0.008584924
000060 27 9e b3 bd 03 3d 5c 3d fe ba 82 bd 31 03 1c bd
       -0.087703995 0.053769123 -0.06383322 -0.03808898
000070 90 f8 ed 3d e1 cc d6 bd 4c 1b 10 bc 55 bc 4d 3b
       0.11619675 -0.10488296 -0.008795571 0.0031392772

Classification.0.g.0.weight f4 [4, 8, 1, 1]
000000 f0 82 9f 36 2e fa 86 b9 fc 74 5c b6 cb 53 e3 b6
       4.7538124e-06 -0.0002574487 -3.2850648e-06 -6.774882e-06
000010 af e0 30 b7 17 39 9f 38 b4 50 d6 b5 a7 cc 0e b2
       -1.0542731e-05 7.5923446e-05 -1.596773e-06 -8.31202e-09
000020 a3 9b 2f 33 c5 89 d4 b7 ab e0 32 ae b8 af 8d 31
       4.0886913e-08 -2.5336523e-05 -4.067206e-11 4.123617e-09
000030 d4 6c 47 36 3e e7 59 ad 1c 36 f3 aa 60 98 40 38
       2.9716657e-06 -1.2386368e-11 -4.3203017e-13 4.5918277e-05
000040 34 be 45 b5 ff 09 09 b7 97 59 48 37 92 bc 6e 34
       -7.3665e-07 -8.168164e-06 1.1941788e-05 2.2234079e-07
000050 13 58 cb b5 4e 1b 20 35 68 97 b1 af 53 b7 2e 33
       -1.5150312e-06 5.964438e-07 -3.2303693e-10 4.0679264e-08
000060 a9 ce 83 b5 e3 fe fb 37 55 53 48 38 0e 9b c9 34
       -9.820407e-07 3.0040223e-05 4.7761325e-05 3.7551985e-07
000070 ec 68 a2 b6 12 7c 74 37 3d 5b 3c 33 e9 3f 5c b7
       -4.8401907e-06 1.4572421e-05 4.385514e-08 -1.3127902e-05

Classification.0.g.0.bias f4 [4]
000000 13 e3 0f b8 50 d1 e8 af 6c 87 8a 2f 6a 01 7d 2f
       -3.4305336e-05 -4.234928e-10 2.5198277e-10 2.3010718e-10

Classification.0.W.0.weight f4 [8, 4, 1, 1]
000000 6d f8 a2 2b a7 0c 97 b1 b1 02 c3 ae c5 06 af b3
       1.1579744e-12 -4.396117e-09 -8.8680514e-11 -8.150304e-08
000010 dd dc 88 b8 2b 6d 3c bc a4 fa 37 ba 51 be d2 ba
       -6.526124e-05 -0.011500637 -0.00070182444 -0.0016078447
000020 4c ab 7a 35 49 51 56 b9 7b 5b 2f 36 57 c8 41 3a
       9.338153e-07 -0.00020438911 2.613028e-06 0.00073922187
000030 c2 5f 1c 27 aa 79 c1 30 8d 34 a4 aa ec 5c 3d 30
       2.170126e-15 1.4077177e-09 -2.9168717e-13 6.888985e-10
000040 92 b5 e5 2e 80 aa b5 34 83 c5 57 31 b1 eb b9 34
       1.0445968e-10 3.3837932e-07 3.139889e-09 3.4630423e-07
000050 3f d0 d0 34 9b ad af b9 64 c7 8b 30 67 67 ac b9
       3.8894538e-07 -0.00033507947 1.0170251e-09 -0.00032883437
000060 f8 10 0a b9 8f 39 9c 3c d1 16 12 3c c7 3f ab 3c
       -0.00013167027 0.019070415 0.008916573 0.020904435
000070 29 0f 9c 35 2c de df ba dc 82 21 37 82 06 6e 3a
       1.1627318e-06 -0.0017079762 9.626816e-06 0.0009079949

Classification.0.W.0.bias f4 [8]
000000 84 39 b3 2e 46 2b 04 b6 8e 93 9f b6 7f fd ae 34
       8.1501944e-11 -1.9694721e-06 -4.755747e-06 3.2594468e-07
000010 1c f9 5d b3 0b 78 b1 b4 04 03 55 38 b9 10 16 39
       -5.1682136e-08 -3.3056162e-07 5.0785966e-05 0.00014311344

Classification.0.W.1.weight f4 [8]
000000 c9 cb 0c af 23 0f a8 3a a7 42 41 29 cc 48 37 3a
       -1.2805325e-10 0.0012821894 4.291242e-14 0.00069917436
000010 84 38 94 ba b7 85 8a 3a c0 db 6d 37 aa da d7 3a
       -0.0011308347 0.0010568415 1.4177465e-05 0.0016468365

Classification.0.W.1.bias f4 [8]
000000 56 1a 07 35 d3 fb 01 39 5c 65 13 33 4a d0 30 b6
       5.0329743e-07 0.0001239621 3.431829e-08 -2.6347284e-06
000010 3e 40 b2 35 09 6e 2d 35 80 ee 17 33 75 32 99 32
       1.328073e-06 6.4607644e-07 3.537434e-08 1.783449e-08

Classification.0.W.1.running_mean f4 [8]
000000 e1 87 03 ac 43 88 88 34 b3 07 61 34 e4 d1 2e b2
       -1.8691648e-12 2.5431117e-07 2.0957559e-07 -1.0175857e-08
000010 30 e6 3a b2 e9 0a 05 34 e5 10 4b b6 12 bd 80 b7
       -1.08789635e-08 1.239056e-07 -3.025919e-06 -1.5346832e-05

Classification.0.W.1.running_var f4 [8]
000000 1f 80 17 07 58 9c 7c 15 a2 4a 41 16 73 73 91 12
       1.1397629e-34 5.1014328e-26 1.5613966e-25 9.179247e-28
000010 24 5d a4 10 85 3f f2 13 fd aa 58 18 6a d2 84 1a
       6.48301e-29 6.1152024e-27 2.8003673e-24 5.493386e-23

Classification.0.theta.weight f4 [4, 8, 1, 1]
000000 0f d5 41 36 7a b3 39 b4 6b ea 0b 35 7b 3b f4 b4
       2.8883258e-06 -1.7294761e-07 5.212266e-07 -4.549182e-07
000010 28 48 16 b5 02 18 f3 b2 6f b1 61 34 26 d6 23 b7
       -5.5984356e-07 -2.829984e-08 2.1019308e-07 -9.765417e-06
000020 6c 46 04 37 12 b2 f7 38 60 5f 0d b4 ff 17 f7 b2
       7.8842095e-06 0.00011811046 -1.3166346e-07 -2.8765497e-08
000030 7d 20 5b b7 e7 71 d8 33 6a d2 a4 33 b3 00 43 b6
       -1.30609815e-05 1.00790025e-07 7.675119e-08 -2.9057671e-06
000040 9d 70 36 36 24 75 8a 34 f8 27 b6 b4 60 ae 95 b5
       2.7185663e-06 2.5789734e-07 -3.3929223e-07 -1.1152115e-06
000050 d3 37 a8 b3 e1 3e ad b4 71 b2 19 b7 b2 52 25 b5
       -7.833264e-08 -3.2269512e-07 -9.161057e-06 -6.158763e-07
000060 36 01 c9 33 91 2b 8d 35 48 4d 20 b6 8f ea 96 35
       9.360012e-08 1.0517998e-06 -2.3886842e-06 1.1244136e-06
000070 22 3f e1 b6 04 a9 78 34 cb ff ef 34 78 2e 2b b6
       -6.712872e-06 2.3158287e-07 4.4703333e-07 -2.5508034e-06

Classification.0.theta.bias f4 [4]
000000 37 d6 16 a3 5c 64 22 a4 0d 7d ee a7 9d 57 14 38
       -8.176878e-18 -3.5213158e-17 -6.619385e-15 3.5367546e-05

Classification.0.phi.0.weight f4 [4, 8, 1, 1]
000000 4c 78 00 2c 21 5b cd ab e5 2e 53 33 06 61 1d af
       1.8256672e-12 -1.4591419e-12 4.9169916e-08 -1.4313536e-10
000010 73 8e 0b 30 ac 2b a4 2d f0 12 ae ab 1b 7d 94 2d
       5.077034e-10 1.8664036e-11 -1.23687e-12 1.688121e-11
000020 ea 72 07 30 ff 1a e8 b0 0a 35 83 aa 62 d2 e7 29
       4.9276017e-10 -1.6887894e-09 -2.3307078e-13 1.02949563e-13
000030 1e 26 7a 32 23 c6 37 2d bc 11 a1 a9 5d 68 55 30
       1.4560582e-08 1.0446341e-11 -7.152913e-14 7.763726e-10
000040 9b a8 a0 ae 6d fa b6 aa 3d 1f f2 30 9a e2 d1 33
       -7.305908e-11 -3.2503462e-13 1.7616696e-09 9.7735395e-08
000050 df a7 cf ae 03 8b 92 b2 2e 05 92 b1 6d c6 c6 38
       -9.44309e-11 -1.7059852e-08 -4.249748e-09 9.4783354e-05
000060 6c cb c3 30 13 3f 17 2e 68 f1 cb 30 26 bf 58 2e
       1.4245933e-09 3.4389446e-11 1.4838806e-09 4.9282488e-11
000070 f9 ad 1a 2c 40 31 01 ae 6d 7d 62 b2 d1 3e 33 33
       2.198129e-12 -2.9374947e-11 -1.318345e-08 4.1733816e-08

Classification.0.phi.0.bias f4 [4]
000000 42 be 99 aa a1 de 87 ac b9 5a 80 37 6c fe 28 b4
       -2.7310278e-13 -3.8616475e-12 1.5301035e-05 -1.5738777e-07

Classification.2.conv.weight f4 [10, 8, 2, 2]
000000 64 61 ed bd 59 eb 14 3d c5 64 f6 3d 18 e4 3a 3c
       -0.115908414 0.036357258 0.12030939 0.011406921
000010 f0 9f 5a bc b1 7f 50 bd ac 88 b5 bb 50 46 d8 bd
       -0.013343796 -0.050903026 -0.005539974 -0.10560286
000020 ce ee 75 bd 86 f3 fb bd a5 2d 83 bd 08 54 9f 3d
       -0.060042195 -0.12302308 -0.064051904 0.077796996
000030 8b 91 8f bc ff d4 18 3e 25 96 a1 3d e2 e2 13 3e
       -0.017525455 0.14925002 0.07889966 0.14442018
000040 24 f0 bf 3d c0 c6 21 be 1a 18 17 bc 5d ea 26 bd
       0.09371975 -0.15798473 -0.009222055 -0.04075085
000050 27 e1 d8 3d e9 ec 04 bd a4 ba 88 3d 16 b6 48 bc
       0.105898194 -0.032452498 0.06676224 -0.012250444
000060 22 b9 de 3c 01 ac 92 3d cd 93 9b 3e e2 a8 3e be
       0.027187888 0.071617134 0.303862 -0.18619111
000070 63 df ee bd 84 6f 4d 3e 02 e0 61 3d 43 84 02 be
       -0.116637014 0.20062071 0.05514527 -0.12745766
000080 2a 05 92 3d ac da ca bd db c5 02 be e7 f1 31 3d
       0.07129891 -0.099049896 -0.12770788 0.043443587
000090 15 02 97 3d 33 db b7 bb 39 30 e2 3d 32 42 f1 3d
       0.07373444 -0.0056108474 0.11044354 0.11780204
0000a0 d6 e6 2f 3d 23 9d 9a 3d fd c4 7a be c1 60 dc bd
       0.04294475 0.07549503 -0.24489208 -0.10760642
0000b0 8c 19 32 3e 87 ac ba 3d 41 cf a0 3d a0 cb d9 bc
       0.17392558 0.09114938 0.078520305 -0.026586354
0000c0 bc 5a 08 be c4 77 aa 3d 11 08 82 3d 55 1d d0 3c
       -0.13315862 0.08323625 0.06349195 0.025404612
0000d0 4f ea c4 3d 0b 9f 40 3d ee 61 f4 3d 07 af 44 be
       0.09615003 0.047026675 0.11932741 -0.19207393
0000e0 86 85 a5 bd cd a6 f5 bd 24 1e 0d 3e 74 a4 fc bd
       -0.08082108 -0.11994705 0.13781029 -0.123360544
0000f0 78 87 34 bc 95 f4 0c be 2e db 03 3d dc d0 7d bc
       -0.011018626 -0.13765176 0.032191448 -0.0154916905
000100 2f 61 21 bd 6f bd 02 3e ae 50 6c 3d ab 65 a0 3d
       -0.039399322 0.12767576 0.05769413 0.078318916
000110 6e 50 ad bb 6f 0b 36 be b2 ca 1f bd 4e 75 49 3c
       -0.005289129 -0.17777799 -0.039011665 0.012296034
000120 d4 84 16 bd 9f 05 ef 3c 1a fb 58 3d d8 c0 ec ba
       -0.03674777 0.029177485 0.052973844 -0.0018062843
000130 5b 78 05 be 42 c1 11 3d 65 8d bd 3c 20 8d 1f 3e
       -0.13034193 0.035584696 0.023138711 0.15581179
000140 75 0c 3b 3e b7 ab 31 be e1 c8 ad 3d 42 20 0d be
       0.1826647 -0.1735066 0.0848558 -0.13781837
000150 d0 3c 6a 3d c2 48 e7 3d 20 20 1f 3e 84 ed 67 be
       0.0571869 0.11293174 0.15539598 -0.22649199
000160 68 41 6e 3d e7 c4 a1 3d 2a 4f c1 3d a6 1d 96 bd
       0.058167845 0.07898884 0.094389275 -0.07329874
000170 16 a4 0b be e2 8c 43 3e 80 d8 d0 3d 51 50 33 be
       -0.13636813 0.19096711 0.10197544 -0.17511107
000180 3c 5b 64 3d cd 46 2b bd 99 0c 14 3d b9 2c e0 bd
       0.05575107 -0.041815568 0.036144827 -0.1094603
000190 14 3a 0e 3d c8 16 b7 3d 4d d7 d3 bc 4f e5 3d be
       0.034723356 0.08939892 -0.0258595 -0.18544506
0001a0 92 0c 5c bd b5 13 2b 3d db 56 1c be 34 f8 b5 3d
       -0.053722925 0.04176684 -0.15267508 0.088852316
0001b0 16 88 db 3d 93 b4 01 3e 2c 9d 08 be 29 ee 18 be
       0.10719316 0.1266654 -0.13341206 -0.14934601
0001c0 f7 9b 9c bd 68 1d 32 3e 77 d0 ef 3c cf fa 51 be
       -0.076469354 0.1739403 0.029274208 -0.20505832
0001d0 e2 7b 23 3e 4c d3 d4 bd 1f ae 9e bd ee 5f 1b be
       0.15965226 -0.10391864 -0.07748055 -0.15173313
0001e0 f7 88 60 3c ff 89 5f 3d a3 08 80 3e 94 81 68 bd
       0.01370453 0.054574963 0.2500659 -0.0567642
0001f0 ed 6b 23 3e 7e 86 b2 bc 6b c6 e7 bd 5b 1f bd 3d
       0.15959139 -0.021792646 -0.11317142 0.09234496
000200 7a 57 2e be f6 f8 8f 3e f3 6e 4a bc 22 7d c3 bc
       -0.17025557 0.2811963 -0.012355554 -0.023863379
000210 85 af d0 bc f4 4b a1 3e b4 8b d9 3c 53 82 88 bd
       -0.02547432 0.3150326 0.026555873 -0.06665482
000220 07 8f 4a bd 14 3b cf 3c e1 ea c6 3d b2 0e 32 bd
       -0.049452808 0.025296725 0.09712768 -0.043471046
000230 da fb 73 3d a1 12 36 be 53 a4 e1 bd f9 32 a9 bb
       0.059566356 -0.17780544 -0.110176705 -0.005163547
000240 45 82 fa 3c a2 29 b6 3d c6 44 1a bc 67 ae bf bd
       0.030579695 0.088946596 -0.009415811 -0.093594365
000250 3b 5a 7c bc 3b 49 7d 3c 0e b6 82 bc 7e 5a 07 3e
       -0.015402372 0.015459354 -0.015955951 0.13218114
000260 d2 18 82 3d 03 35 1a 3e a9 a2 b5 3d ac 45 25 be
       0.0635239 0.15059285 0.088689156 -0.16139859
000270 f5 c6 a9 bd d1 7f 7e 3d 8d fe 9d 3d 14 da 18 bd
       -0.08289901 0.062133614 0.07714567 -0.03731735
000280 fb 58 bd 3d bb 3c b2 bd f6 36 bf bd 88 b4 2e be
       0.09245487 -0.0870299 -0.09336655 -0.17061055
000290 2f d9 aa bd 1e 2d 08 bd ba 99 10 3c 79 b7 12 bd
       -0.08342206 -0.033246152 0.008825714 -0.035819504
0002a0 90 69 e6 bd 3c 24 88 bd 1b 2f ec bd dd 6c 33 3e
       -0.11250603 -0.06647536 -0.11532422 0.17521997
0002b0 e3 27 64 be 26 2a b0 3d d1 b5 a6 3d e6 cf 34 3d
       -0.2228084 0.08601789 0.081401475 0.04414358
0002c0 30 d4 f8 3c 13 56 84 3d 94 df 86 3c 8c f9 27 bd
       0.030374616 0.0646173 0.016464032 -0.04100947
0002d0 08 59 23 3d 3f ff 0a 3e 72 b5 6b 3e 69 17 55 be
       0.03987983 0.13573931 0.23018435 -0.20809712
0002e0 dc 97 f3 3c 05 59 b7 bd 38 e8 0e 3d 89 32 00 be
       0.029735498 -0.08952526 0.03488943 -0.12519278
0002f0 6b 5f 48 bb 05 29 2b 3d 8e aa b4 bd 89 9d 1e 3e
       -0.0030574452 0.041787166 -0.08821593 0.15489782
000300 99 bf 97 3c cd e0 bb 3d 48 e6 d3 3d c2 52 44 bd
       0.018523978 0.09173737 0.10346657 -0.047930487
000310 47 9f 0d 3d 6d c0 c7 bd e7 0e 27 3e f3 4b 60 bc
       0.034575727 -0.09753499 0.16314279 -0.013689983
000320 b3 1d b8 bd 19 3a 59 bd 21 0c 1b 3d 61 56 d3 bc
       -0.0899004 -0.053033922 0.037853364 -0.025798025
000330 28 bd 97 bd 24 e9 f6 3d 3a b5 11 be de 95 08 be
       -0.074091256 0.12056187 -0.14229289 -0.1333842
000340 37 d5 b7 bd 18 4a 56 3e 7b b4 23 3d 42 fa 38 be
       -0.089762144 0.20926702 0.03996704 -0.18064216
000350 e1 01 16 bd 2e dd 18 bd f2 9e e4 3d bd 03 1d bd
       -0.036622886 -0.03732031 0.11163129 -0.038333643
000360 be 23 56 bd 78 73 a7 3b ec 63 63 3e ae 9f 41 be
       -0.05228018 0.0051102005 0.22206086 -0.18908569
000370 03 0b 05 3e d0 af 05 bc 2c 24 74 bd 17 7e ad 3d
       0.12992482 -0.008159593 -0.05960481 0.08471315
000380 6f 64 36 be 3f 8a a8 3d 3e 19 31 3e 65 d2 71 bc
       -0.1781175 0.08229493 0.17294785 -0.014759635
000390 5d 58 17 bd 3c 9b 4b 3d 3b 42 13 3e b4 81 18 3d
       -0.036949504 0.04970859 0.14380734 0.03723307
0003a0 fc 4c 82 bc 6a f0 72 3d 57 a8 22 be 51 32 c0 3d
       -0.01590585 0.059311308 -0.15884529 0.09384597
0003b0 73 32 c3 3d 0a 8f 5b 3c 28 ca da bb 43 29 94 be
       0.09531107 0.013400802 -0.006676931 -0.2893773
0003c0 8a cd f5 bc 5e 0a b7 3d 7a 15 d6 bd 0b 61 f2 bc
       -0.030005235 0.08937524 -0.10453315 -0.02958729
0003d0 dd eb 0e 3c 8a 12 11 be 62 b7 68 3d a2 16 8f 3c
       0.008723226 -0.14167228 0.056815512 0.017466847
0003e0 82 4d ee 3d d1 d6 99 3d 5d 72 5a 3e 5e e6 15 be
       0.11635877 0.07511676 0.21332689 -0.1463866
0003f0 c9 3c 95 3d c9 bb 02 bc ad d1 9a 3d 77 77 cd bd
       0.072869845 -0.007979342 0.07559524 -0.10032552

Classification.2.conv.bias f4 [10]
000000 f4 e8 7a 37 07 1d 56 b8 ef 1d 98 b8 ad 89 07 b8
       1.49554e-05 -5.104861e-05 -7.2535004e-05 -3.231473e-05
000010 df 08 9e 35 23 c3 ad b7 fa c6 05 b8 4a 89 c8 b5
       1.1774499e-06 -2.0714075e-05 -3.1894982e-05 -1.4941118e-06
000020 81 c5 d9 b6 03 e8 99 34
       -6.4900964e-06 2.8667282e-07

Classification.2.bn.weight f4 [10]
000000 5c 3e 82 3f bc b3 83 3f d4 5b 79 3f 04 0e 89 3f
       1.017528 1.0289226 0.97405744 1.0707402
000010 85 ce 81 3f 99 10 8d 3f 4d a5 8c 3f 54 0c 85 3f
       1.014115 1.102069 1.0987946 1.0394387
000020 b7 25 85 3f e2 cd 83 3f
       1.0402135 1.0297205

Classification.2.bn.bias f4 [10]
000000 25 79 be bd 79 47 eb 3b 33 a9 93 bd 6b 06 a7 3c
       -0.0930045 0.007180151 -0.072100066 0.020388803
000010 b0 48 9d bd 5f f2 3a bd 72 a3 28 bc c5 17 66 bd
       -0.0767988 -0.0456413 -0.010292875 -0.056175012
000020 73 c4 36 bd 33 14 f8 bc
       -0.044620942 -0.03028307

Classification.2.bn.running_mean f4 [10]
000000 97 ee a7 bc 32 03 85 3c d7 b7 64 bc 1e bf 98 bc
       -0.02049951 0.016236875 -0.013959846 -0.01864582
000010 a4 9e 3c 3b 3e 44 53 bc 2a 09 90 bc e8 1e 43 3b
       0.002878108 -0.012894688 -0.017582495 0.002977306
000020 e3 9a ef 3c 1b 47 a2 bc
       0.02924866 -0.019809296

Classification.2.bn.running_var f4 [10]
000000 b7 4e f0 3b 26 b5 93 3b 08 7d 95 3b 8a bd a9 3b
       0.0073336023 0.0045076786 0.004562024 0.0051800655
000010 98 fe af 3b c2 f0 12 3c 4c 53 b5 3b 57 1d 9b 3b
       0.005370926 0.008968534 0.0055336114 0.004733722
000020 48 47 43 3c 8a cc af 3b
       0.01191885 0.005364959

ClassificationCat.0.weight f4 [1, 250]
000000 4c d3 16 3d 5d c1 79 bd da 9d a7 3d 1e 33 b5 bd
       0.036822602 -0.06097542 0.08184405 -0.088476405
000010 1e ed c0 3d 58 5b 8e 3d f6 38 b8 bd 18 e1 1c 3b
       0.094202265 0.06951016 -0.089952394 0.0023937877
000020 a1 81 b3 bd aa e8 c9 3d 2f 21 21 bd b7 15 ce 3d
       -0.08764959 0.0985883 -0.039338287 0.100627355
000030 d2 31 63 3d 8c d0 93 bd 0c c1 7b 3c 0a 5e cf bc
       0.055467434 -0.072175115 0.01536585 -0.025313396
000040 e1 b7 6b bc 7d 94 e0 3c 83 46 7a bd c5 ea 00 3d
       -0.014387102 0.027414555 -0.0611024 0.031473894
000050 9a 1b f9 3d 13 f5 68 3d e2 80 0b 3e fe b6 05 bd
       0.12163468 0.056874346 0.13623384 -0.032645218
000060 fb 7b e3 bc af b5 d1 3b 45 8f 2b 3e 11 43 02 3e
       -0.02776908 0.006399832 0.16753872 0.12720896
000070 eb 40 90 bd 25 9f 0f 3d b4 fa c1 3c 09 80 98 bd
       -0.07043632 0.03506388 0.023679115 -0.07446296
000080 7e e1 44 3e 2f 57 85 bc 6b 46 82 bd 9a 76 d6 3c
       0.19226643 -0.016276924 -0.063610874 0.0261796
000090 d4 9b 05 3e 9f 5d 2d 3c 2f 54 89 bd 75 b6 22 be
       0.13047725 0.010581403 -0.0670551 -0.15889914
0000a0 55 43 b7 3c 70 c8 fa 3c 78 92 2d 3e 74 48 2d bd
       0.022370974 0.030613154 0.16950405 -0.042305425
0000b0 07 a7 08 be 3d ab 27 bb 07 b6 45 3c 0a 3c 9b 3c
       -0.13344966 -0.0025584244 0.0120673245 0.018949527
0000c0 ac fe c9 bd 1c a3 90 bd 12 f8 da 3c b9 53 91 3b
       -0.09863028 -0.07062361 0.026729617 0.0044350293
0000d0 7c 5d 6c bc 04 36 c1 bb 84 2e 63 3d 9a ad 9b 3c
       -0.014426585 -0.0058963317 0.055464283 0.019003678
0000e0 27 fa 35 bd 97 e9 f1 3c ae e7 2f be fa 18 b2 3d
       -0.044428017 0.02953033 -0.17178223 0.0869617
0000f0 83 a5 8b bd 60 5f a1 3d ff 83 92 bd a5 98 e1 3c
       -0.06818678 0.078795195 -0.071540825 0.027538607
000100 31 21 d7 3c f1 5d 63 bd 3a c3 f8 bc 72 0d 1e 3d
       0.026260944 -0.05550951 -0.030366529 0.03858704
000110 45 1d 82 bc c6 4b d8 3d 8e 0c ff bb 57 de c5 3c
       -0.015883097 0.10561328 -0.007783479 0.024153871
000120 85 12 fd 3d 09 63 31 3c c3 b3 36 3e b1 7c 3e bd
       0.12357048 0.0108268345 0.17842011 -0.046505634
000130 d5 39 77 ba d8 c4 64 3d 3e ff e3 bd e2 73 3c 3d
       -0.000943092 0.055851787 -0.11132668 0.046008952
000140 26 c1 69 3c 40 c3 1e be 6e 20 ef 3b 3b fe 71 3d
       0.014267242 -0.1550417 0.007297567 0.059080344
000150 2d 54 5d 3c b5 9d 6b bd 92 4a 04 3d b2 34 f7 3d
       0.013508839 -0.057523448 0.03229768 0.12070598
000160 2f 1f 93 bd 58 03 12 3e 66 55 18 bd 12 ab 54 bd
       -0.07183682 0.14259088 -0.037190817 -0.051920958
000170 b8 75 16 bc de 7e 61 3d 89 71 e0 3d a4 7a 6a 3a
       -0.00918334 0.05505263 0.10959155 0.00089446665
000180 b1 03 78 bc 4f ef 0f 3e 4f 7d 8b bd be 40 dd bd
       -0.015137599 0.14056133 -0.0681101 -0.10803364
000190 83 9c cf 3d f7 a3 ae bd 02 dc 92 3c 8b 0b 05 bd
       0.10137274 -0.085273676 0.017927174 -0.03248171
0001a0 f6 e9 0f bd dd 05 a0 3d 6a a2 02 bc e5 ae 74 bd
       -0.035135232 0.07813618 -0.007973293 -0.059737105
0001b0 1f 1a 24 bb df 38 8e 3d 22 d6 dd bc 72 e6 51 3d
       -0.0025039983 0.06944441 -0.027079646 0.05124516
0001c0 bb 51 22 3e 61 3f 05 3c 34 b1 d4 bd d2 bc 06 bd
       0.1585149 0.0081327865 -0.10385361 -0.032894917
0001d0 ea bc 98 bc d0 75 15 be 41 16 0c 3e 7e 32 ab 3d
       -0.018644769 -0.14595723 0.13680364 0.0835924
0001e0 06 73 6c bc 66 1a 01 3d e0 ac c9 bb bc 3c 88 3d
       -0.014431721 0.031519316 -0.0061546415 0.06652209
0001f0 52 83 95 bd c4 56 9e 3c 36 ce e6 bc c6 e7 98 3d
       -0.07300438 0.019328482 -0.0281745 0.07466082
000200 12 76 28 bd 11 65 19 3c 74 41 01 3d 49 52 40 be
       -0.041128226 0.009362475 0.03155656 -0.1878139
000210 ee 99 cb 3d e5 64 5e bd 9b bd a0 3d e0 99 17 3d
       0.09941469 -0.05429544 0.078486644 0.03701198
000220 77 c0 76 3b 21 8b e5 bc 4f bc 9e bb 38 b1 b9 3d
       0.003765134 -0.028020443 -0.0048442255 0.09067005
000230 72 b8 d2 bb 73 c3 7e bd 78 99 af 3d d1 14 1b be
       -0.006430679 -0.062198114 0.08574194 -0.1514466
000240 dc bd fc 3d a2 7c 0b 3d 2e 6b f8 3b aa e9 8c 3d
       0.123409 0.034054406 0.007581136 0.068805054
000250 52 a7 19 be bf 4b 0f 3e c6 39 3a 3c 4b 5b 5e 3d
       -0.15005234 0.13993739 0.011366313 0.054286283
000260 5e 16 a8 3d 1a 31 f9 bd 6c 48 ea 3c f1 66 ac 3d
       0.08207391 -0.121675685 0.028598987 0.08418072
000270 24 01 00 be 7d 08 9b 3d 2f 89 b4 3d e4 7b 5f 3d
       -0.12500435 0.075699784 0.08815228 0.05456151
000280 88 1b d2 bc 02 98 42 3d 68 70 ee bb 86 49 94 bd
       -0.025647894 0.047508247 -0.0072765835 -0.07240586
000290 c1 75 0b 3e a3 c0 96 3c 04 31 8d bd 2d 86 69 bc
       0.13619138 0.018402403 -0.068941146 -0.014253181
0002a0 df 2a 7b bd ff 32 0c 3e 2e 01 96 3c a5 a7 6e bd
       -0.061320182 0.13691328 0.01831111 -0.058265347
0002b0 23 f7 30 3e f8 44 1a 3d e6 ba 84 bd 3d 2f 37 bd
       0.17281775 0.03766343 -0.064809605 -0.044722784
0002c0 97 bc c5 bc c4 80 4b 3e 16 51 1f bd d6 76 9a 3b
       -0.024137778 0.19873339 -0.03889569 0.0047138734
0002d0 45 35 46 3d 29 8a 69 bd 20 c2 9f 3d 6d b4 64 bc
       0.048390646 -0.057016525 0.07800698 -0.0139590325
0002e0 da 7b 89 3d 42 64 3d bc d0 1a a9 3d 51 12 60 3d
       0.06713076 -0.011559548 0.08257067 0.054704968
0002f0 cf 50 2d bd ac a1 8e bd 41 30 14 bd 2a 73 96 3d
       -0.042313393 -0.0696443 -0.03617883 0.073461846
000300 b6 eb 84 3c 20 4f e8 3d 74 5f b7 3d aa ef 51 bd
       0.016225677 0.11343217 0.08953753 -0.051253952
000310 aa 4b 32 bd dd b5 1f 3e 33 e4 10 bd a9 3d e4 bd
       -0.04352919 0.15596719 -0.035373878 -0.11144573
000320 48 76 c6 3a 83 fa 14 3c 0c f9 c7 bd ef a3 e9 3c
       0.0015141452 0.00909293 -0.09764299 0.028520552
000330 8b e1 0e bd 24 0c 1a 3c b1 f7 91 3d 45 4a 33 bd
       -0.034883063 0.009402309 0.071273215 -0.043772
000340 25 cd 10 3d 10 b7 ab bd 3a 9b 8b bc 4b c5 bb 3d
       0.03535189 -0.08384526 -0.017041791 0.0916849
000350 f4 9d 68 bd f8 d8 23 3e b5 c5 c0 bd 5d 01 ac 3c
       -0.05679126 0.16000736 -0.094127096 0.020996744
000360 55 94 b4 3b 0e 83 ad bd a2 f2 ae 3d 59 f0 0b be
       0.0055108466 -0.08472262 0.08542372 -0.13665904
000370 c7 c6 62 bc 08 d4 d3 3d 2d 8f 84 bd eb bf 7b 3d
       -0.0138413375 0.10343176 -0.06472621 0.061462324
000380 d1 2d 0d be 2c 27 83 3d 36 71 22 bd 77 57 6c 3d
       -0.13787009 0.06403956 -0.039658748 0.0577006
000390 5f 86 9f bd 51 b2 2c 3d 61 dd e5 3d 12 6e a2 bd
       -0.07789301 0.042162243 0.11223865 -0.079311505
0003a0 0f 92 e7 3c 3f 84 7e 3d 4e 5c 51 3d 5f f1 29 3d
       0.028267888 0.06213784 0.05111342 0.041489955
0003b0 fe f9 40 3c c9 cf 8e bd f7 60 4c bd 77 63 d6 3d
       0.011778353 -0.069732256 -0.04989716 0.1046819
0003c0 a0 d3 60 bd 69 02 61 bd b3 77 ed bc a2 16 b0 bd
       -0.05488932 -0.05493394 -0.028987741 -0.08598067
0003d0 d7 5c bb 3d 0e 52 b4 3d 76 92 cb bc 59 55 fc 3d
       0.09148567 0.08804713 -0.024850111 0.12320966
0003e0 ab 1a f9 3d 4c ae a0 3c
       0.1216329 0.019614361
