models/2023-05-18_16-46/1/pytorch/E-53_VA-0.7589_VL-77.42_TA-0.6333_TL-113.02.pt (torch, 35806 bytes, 39 tensors)

TSA.conv.weight f4 [3, 3, 3, 3]
000000 32 c8 60 3e 5c 04 d7 3d 72 d2 f9 3d 3c 9f 5d 3e
       0.21951368 0.10498878 0.121983424 0.21642774
000010 ae 43 8b 3f 97 af 37 3e 14 ed 06 3e 3d 9f e4 3d
       1.0880029 0.17938076 0.13176376 0.11163185
000020 fb 33 46 3e e9 9d ff 3d 8d 71 4f 3d 49 5c c2 3d
       0.19355766 0.12481291 0.0506454 0.09490258
000030 e1 99 02 3e 6f 87 83 3f e9 80 0e 3e af dd 14 3d
       0.12754013 1.0275706 0.13916363 0.036344226
000040 b8 78 37 3d 9c 70 1b 3e 75 c5 1d 3e c8 ce 9f 3d
       0.04479286 0.15179676 0.15407355 0.07803112
000050 bc e9 9f 3d c7 44 23 3e dc 29 85 3f 1e 90 da 3d
       0.07808253 0.15944205 1.04034 0.106720194
000060 70 1d 8d 3d e9 99 15 3d d7 7e b7 3d 65 c8 d5 3d
       0.068903804 0.036523733 0.0895974 0.10438613
000070 ae 87 0b bc 76 b8 9e 3c ec 3b 1e 3e 00 91 7e 3f
       -0.008516235 0.019375067 0.15452546 0.9944
000080 97 3b 9d 3d da c4 0d 3e 95 d2 68 3c ba 2e 8b 3d
       0.076773815 0.13844624 0.014210363 0.06796022
000090 5f a4 c8 3d a5 44 87 3a fc f7 4e 3d e7 00 19 3e
       0.09796976 0.001032014 0.050529465 0.1494175
0000a0 78 30 7e 3f e5 b2 b9 3d 61 c7 ee 3d 3a 7f 1d bc
       0.9929271 0.090673245 0.11659122 -0.009612853
0000b0 73 50 64 3d 15 6d 9c 3d a5 67 87 bb e8 ea 33 3d
       0.055740785 0.07637993 -0.0041322284 0.043925196
0000c0 a5 8d fd 3d 50 02 7a 3f 27 48 9d 3d a4 a3 b5 3d
       0.12380532 0.9765978 0.076797776 0.088691026
0000d0 31 bb 24 bd 51 fd b5 3c e1 8e a4 bd 98 e2 02 bd
       -0.040217582 0.022215517 -0.080350645 -0.031954378
0000e0 2b a2 4b ba b3 37 8c bd f5 79 6c 3f 94 f5 28 bc
       -0.00077680004 -0.06846561 0.9237359 -0.010312457
0000f0 1b b4 01 bd 61 d1 e6 3c 76 f5 2d bd 1d a0 a4 bd
       -0.031665903 0.028176012 -0.042470418 -0.08038352
000100 55 1a f6 bc 6c 67 8e 3c 2a 39 43 bd ea 3a 6d 3f
       -0.030041853 0.0173833 -0.047661938 0.9266802
000110 68 d5 e9 b9 0c 2c 16 3b 9c bd 06 3d 22 cb 18 bd
       -0.00044600223 0.0022914438 0.03289567 -0.037303098
000120 c9 db b9 bc b7 4a 1c bc 7b fe 13 3d be 26 96 3c
       -0.02268781 -0.009539298 0.036131363 0.01832902
000130 ce 21 74 3f 0b 66 ae 3c 38 21 7a 3d 65 1d 66 3d
       0.9536408 0.021288892 0.061066836 0.056180377
000140 e4 67 b6 bc
       -0.022266336

TSA.conv.bias f4 [3]
000000 92 28 e0 bd d4 59 1a bd c3 4e 3f bc
       -0.10945238 -0.037683323 -0.011676493

FPN.0.weight f4 [3]
000000 d7 4c 82 3f 31 d1 72 3f 62 c1 6e 3f
       1.01797 0.9485045 0.9326383

FPN.0.bias f4 [3]
000000 64 77 01 be 49 cb 1b be a9 2e ef 3d
       -0.126432 -0.15214266 0.116788216

FPN.0.running_mean f4 [3]
000000 9c 57 f3 3e 26 7d d9 3e 1f 4e c6 3e
       0.47527778 0.42478293 0.38731477

FPN.0.running_var f4 [3]
000000 6b 62 fd 3d f8 2c 90 3d 65 8b 33 3d
       0.12372287 0.07039827 0.04383411

FPN.1.conv.weight f4 [4, 3, 3, 3]
000000 82 46 e6 bd a7 f8 8a 3d 78 40 f6 3d 7a cd d9 3d
       -0.11243917 0.06785708 0.12024015 0.10634895
000010 b9 f7 0b 3d 9f 51 37 be 41 f8 ef 3d 42 4b ce bd
       0.034171794 -0.1790223 0.117172725 -0.10072948
000020 c0 6a 1e be 0b 3a af bd 5b 87 9d bd b0 24 c6 bc
       -0.1547041 -0.08555993 -0.07691833 -0.024187416
000030 83 11 3b bc 6d 75 f2 bc 04 e1 58 be bd bb 03 bd
       -0.011417749 -0.029597009 -0.21179587 -0.032161463
000040 eb ea b1 bc c9 04 81 be a0 39 ff bd d9 10 a1 bc
       -0.021718463 -0.25198963 -0.12462163 -0.019661354
000050 c0 b8 ce bd 55 4a ef 3d 57 90 aa 3b a8 79 6e bd
       -0.10093832 0.116840996 0.005205195 -0.05822149
000060 91 63 1f 3e 9e 96 26 3e b3 52 a6 3d db 15 ea bd
       0.15565325 0.16268393 0.081212424 -0.1142995
000070 9c 5a 31 3e 96 5a 14 3e 5d c3 2b 3e ad 11 0d 3e
       0.17319721 0.14487681 0.16773744 0.13776274
000080 2c 62 ed 3d 7a c6 87 3d 56 16 26 3e 36 b2 9a 3e
       0.115909904 0.06629653 0.16219458 0.3021409
000090 42 78 17 3e 62 33 04 3d 6c 2b 02 be cc 0f bc 3d
       0.14791968 0.032275565 -0.12711877 0.091827005
0000a0 1c f5 72 bd a6 34 d2 bd c1 51 d5 3d aa 52 22 bd
       -0.059315786 -0.10263948 0.10415984 -0.039629616
0000b0 2f e1 81 3d 20 b1 22 be b8 95 c5 bb f1 36 00 3e
       0.063417785 -0.1588788 -0.0060298108 0.12520958
0000c0 e3 dc a9 bd 93 e9 4a bd 43 31 23 3d 1d f1 43 be
       -0.08294084 -0.04953916 0.0398419 -0.19134946
0000d0 ae ee b5 bd 15 6a fb 3c 63 46 04 be f7 20 3b be
       -0.08883415 0.030690232 -0.12917475 -0.18274294
0000e0 80 d6 21 be aa 57 33 3e de 1f 14 3e 68 4b 90 3d
       -0.15804482 0.1751391 0.14465281 0.070456326
0000f0 80 d5 b7 3d 0c b2 0c 3d 48 58 59 be e7 b2 9f bd
       0.08976269 0.034349486 -0.21225083 -0.07797795
000100 e8 f3 4f be f9 75 e6 3d 86 19 55 3e 2d 0c 1e 3e
       -0.20307887 0.1125297 0.20810518 0.15434332
000110 23 be a4 3d a0 9c 7b 3e c8 6e 22 bd a4 d2 2c bd
       0.08044078 0.24571466 -0.03965643 -0.04219307
000120 40 c5 fa bd e6 51 14 bd d8 9b e0 3d 6a db 1d be
       -0.12244654 -0.036210917 0.10967225 -0.15415731
000130 e0 b2 41 3e b8 0e 87 3d 99 e2 85 3d f0 0f 44 bd
       0.18915892 0.06594604 0.06537361 -0.04786676
000140 8d 26 3c be c5 1f 59 bd bd 74 8a 3d 85 a7 fd 3c
       -0.18374081 -0.053008813 0.06760547 0.030963669
000150 7a 28 8c 3e bf 54 d1 3b 02 cb 3c 3e c9 cb 37 3e
       0.2737463 0.0063882763 0.18436816 0.17948832
000160 76 db 29 3e 11 e3 33 be 4b c9 ec 3b 4e 86 d2 bd
       0.16587624 -0.17567088 0.0072261444 -0.10279523
000170 2e e4 84 3d 58 74 15 3d 53 ec 18 bd 6e c2 03 be
       0.06488834 0.036487907 -0.03733475 -0.12867138
000180 72 16 0e bd aa d4 29 3e 14 68 cc bd 3c 7f 15 3c
       -0.034689374 0.16585031 -0.09980789 0.009124573
000190 ad 02 13 bd ad f7 5a bb 9e 0d c9 3d 4f 0f 64 3e
       -0.035891224 -0.0033411786 0.098170504 0.22271465
0001a0 48 1a 07 bc 7d 5d d1 3d 90 6e 0c 3e 25 1f 53 be
       -0.008246012 0.102229096 0.13714051 -0.2061735

FPN.1.conv.bias f4 [4]
000000 17 3f be 34 76 f1 96 38 69 13 07 b4 4b b4 a5 b4
       3.5436162e-07 7.197533e-05 -1.2579916e-07 -3.0864825e-07

FPN.1.bn.weight f4 [4]
000000 88 74 7f 3f 05 29 7b 3f 56 6c 7e 3f c5 94 57 3f
       0.9978719 0.98109466 0.9938406 0.8421138

FPN.1.bn.bias f4 [4]
000000 99 08 36 bd 0c 6f 8c bd f1 0d 11 bd 21 bd b3 3d
       -0.044441793 -0.06857118 -0.035413686 0.08776308

FPN.1.bn.running_mean f4 [4]
000000 58 ea 13 3e b0 cd 47 be ac 73 8b bd 17 ab cd bc
       0.14444864 -0.19512057 -0.06809172 -0.025105996

FPN.1.bn.running_var f4 [4]
000000 e6 1d c5 3e d9 93 6a 3f 75 8f db 3d ad 74 4d 3f
       0.38499373 0.9163185 0.10720722 0.8025616

FPN.3.conv.weight f4 [6, 4, 3, 3]
000000 69 3b 18 bd 73 a4 33 be 5c 10 ac bd 42 5f fd bd
       -0.037166033 -0.17543201 -0.08401558 -0.123716846
000010 47 72 98 3d 58 7d f8 bd 5a 6f 47 3e 45 52 04 be
       0.07443672 -0.121332824 0.19476071 -0.12922008
000020 75 b4 10 3e ef 61 87 3e 13 2d f7 bc a8 91 81 bd
       0.14131339 0.26441905 -0.03017286 -0.0632661
000030 c9 c0 8d 3e 0e b4 4d bd f9 ae 3a bd b8 87 5b bd
       0.27686146 -0.05022054 -0.045577023 -0.05359623
000040 33 a8 01 3d 9b 68 aa 3d 6b a2 a4 3e a0 a3 71 3d
       0.031654548 0.08320733 0.32155165 0.058993936
000050 4b a3 8e bd 31 d1 9d 3d 0f 77 12 3d 9f 7d 51 bd
       -0.069647394 0.07705916 0.035758074 -0.051145192
000060 4a d1 90 bc 94 37 e4 3c da 1c 14 be 57 a3 ba 3c
       -0.017677922 0.027858533 -0.14464131 0.022782965
000070 f8 8e 0a 3e c9 28 f9 bd b4 11 a9 3c 9b 4f 80 bd
       0.13531101 -0.12165982 0.020638324 -0.062651835
000080 8b 03 f7 3d ed aa 3c 3c 64 05 f2 bd 6a 4e f2 bd
       0.12061223 0.011515361 -0.118174344 -0.118313625
000090 96 69 cd 3c f0 ff 7a be c3 80 a5 3d 13 71 31 3e
       0.025074761 -0.24511695 0.080812 0.1732829
0000a0 9a 8c aa 3d 8e ed 05 be 40 71 b1 3d 2d 4e 2b 3e
       0.08327599 -0.13078901 0.08664179 0.1672904
0000b0 f5 60 95 3d 24 91 11 be 47 98 38 bd 14 ed bb 3d
       0.07293884 -0.14215523 -0.045067098 0.091760784
0000c0 d0 50 28 be b1 15 98 3b a2 d2 c6 3d 53 e4 86 3b
       -0.16437078 0.0046412577 0.09708144 0.004116574
0000d0 ce 21 fe 3c ce b2 7c 3e 1c 6e 4a 3d f7 e0 16 3e
       0.031021979 0.24677584 0.049421415 0.14734255
0000e0 26 c7 4c 3d 1f af 36 3e 6c 91 ee bd a8 ed 14 be
       0.04999461 0.17840241 -0.11648831 -0.14543784
0000f0 66 48 45 be 52 5d 2d 3b 62 38 7a 3c 6b 03 97 bd
       -0.19265899 0.0026453328 0.015272232 -0.07373699
000100 c1 a9 48 3d a2 cc eb 3c d7 9e 43 bd ff 5c f9 bd
       0.048990015 0.0287841 -0.047758903 -0.12175941
000110 27 eb 0c 3c c4 ee 03 3d a8 17 ab bd a0 f9 ec 3d
       0.008600987 0.032210127 -0.083541214 0.1157105
000120 c7 79 fd bd 1b b4 1e be b9 12 10 be 04 4c 39 be
       -0.12376743 -0.15498392 -0.14069642 -0.18095404
000130 b6 80 26 bc f5 c0 7d bd 13 2e 26 3d 61 1f 25 3e
       -0.010162523 -0.061951596 0.040571284 0.16125251
000140 b0 30 06 bd 91 56 db bc 0c ea c1 bd f5 4b 34 bd
       -0.032761276 -0.026774677 -0.09468469 -0.04401775
000150 6b 13 15 be bf 17 ca bd 69 98 08 3d 9c 15 a9 bd
       -0.14558189 -0.098678105 0.033348475 -0.08256075
000160 65 c8 6a bd 5e 76 b5 3d f0 c0 ba 3c c0 87 23 be
       -0.057320017 0.088604674 0.022797078 -0.15969753
000170 4e ca 13 3d d2 d2 c6 bc 68 7b 05 3d ca b8 1d 3e
       0.036081605 -0.024270449 0.032588392 0.15402523
000180 2d 0c b1 bd b8 ec 09 3e 99 4a e8 3d fc 60 be bd
       -0.086449005 0.13469207 0.113423534 -0.09295842
000190 7c 7a ae bc 33 a7 1f 3d 06 51 24 be c7 98 2c bd
       -0.02129864 0.038977813 -0.16046533 -0.042137887
0001a0 6a 1c ca bd b2 bd 82 be be b5 72 be 8c ca 5d bd
       -0.09868701 -0.2553535 -0.23702142 -0.054148242
0001b0 2e 69 29 3d 69 92 69 3d f1 92 59 bd e9 93 5d bc
       0.041360073 0.057024393 -0.05311865 -0.013524034
0001c0 70 49 53 3d 85 f2 df bd b9 69 30 3e 6f d8 f3 bd
       0.051583707 -0.10934929 0.1722783 -0.11906516
0001d0 79 f6 45 be 2b 14 9f 3e f9 da 16 3d 3a 83 13 bd
       -0.19332303 0.31070074 0.036829922 -0.03601382
0001e0 93 be 8d 3d 22 63 bd bd 6f e4 60 be 64 5e 2d 3e
       0.06921115 -0.09247424 -0.2196214 0.16930538
0001f0 9c a9 14 bd 43 c0 1f bd 97 f6 ee 3d 9d 3b 84 bc
       -0.036294565 -0.039001714 0.11668127 -0.016141707
000200 76 f1 d1 bd a0 0b a0 3d f2 45 b8 3c 35 50 14 be
       -0.10251133 0.07814717 0.02249429 -0.14483722
000210 a1 1e 6f 3d 99 ee 5f 3d 06 ca 16 be da c3 a0 3d
       0.05837882 0.054670904 -0.14725503 0.07849856
000220 de 35 61 ba 63 22 4c bd 2e 6f 3d 3e 8b d7 e1 3b
       -0.00085910957 -0.04983748 0.18499443 0.00689215
000230 76 05 16 bb 71 d3 e4 3b 47 cd 8f 3d 27 56 8f bd
       -0.0022891439 0.0069832136 0.070215754 -0.06998854
000240 f5 fe 40 ba 2d fc a7 bd c0 b5 2b be 05 36 8f bd
       -0.00073622103 -0.082023956 -0.16768551 -0.06992725
000250 68 78 2b 3e ad 35 1b be 39 e9 27 be b4 3f e7 3d
       0.1674515 -0.15157194 -0.16397561 0.11291447
000260 e4 81 a0 3d a7 e5 02 3e 40 42 3c 3c 94 48 8f bd
       0.07837275 0.12782918 0.011490405 -0.06996265
000270 bc 00 ab bd 41 00 e0 bd db 76 01 3c 2e 73 e9 bd
       -0.083497494 -0.109375484 0.0079018725 -0.11398922
000280 fe 22 9d 3d 0b 8b d0 3d 4b 22 98 bd 5e 05 47 be
       0.0767269 0.1018277 -0.07428416 -0.19435641
000290 5c 0e 19 be a5 40 59 3e ad ce 8f 3d b5 40 db bd
       -0.14946884 0.21216066 0.07021842 -0.10705701
0002a0 ef 52 80 3d 7c 34 60 3d 7f 43 3f be 94 52 40 3e
       0.06265818 0.054737553 -0.18678091 0.18781501
0002b0 e4 e3 d4 bd 0a 2f aa bc 24 4c 03 3e 40 f6 d6 bd
       -0.10395029 -0.020774383 0.12822014 -0.10496187
0002c0 cc cf d2 bd 5f 8e ff 3d 66 84 2e 3d ff a5 36 be
       -0.1029354 0.12478327 0.042606734 -0.1783676
0002d0 e3 3d bd bd 15 31 bc 3d 08 db 52 3e 21 e9 64 be
       -0.092403196 0.09189049 0.20591366 -0.22354557
0002e0 9e f8 c8 bd 6c fe 14 3e 95 6f 06 be 96 61 23 bd
       -0.09813045 0.14550179 -0.13128503 -0.039887987
0002f0 ea 64 b3 3d e1 1f 31 bd 8b af 1f 3e 47 0a 4a be
       0.08759482 -0.043243293 0.15594308 -0.19730483
000300 d7 95 bb 3d 79 cc 2b 3e c1 73 c8 bd 6a 3f 90 bd
       0.09159439 0.16777219 -0.09787703 -0.07043345
000310 06 4e 31 3e 3c dd 98 3d ee ac ea bb aa bf ab bc
       0.1731492 0.07464072 -0.007161728 -0.020965416
000320 ea 4a cb 3d f6 be 5c bd dc 3d 37 bd 76 cf cd bd
       0.09926398 -0.053893052 -0.044736728 -0.10049336
000330 cc 0b af bd 74 c8 0d 3c e0 83 ed bd 20 39 13 bb
       -0.08547172 0.008653749 -0.11597419 -0.002246447
000340 a9 89 ce bd 10 72 e5 3c e2 35 38 bd 7d bd 55 bb
       -0.1008485 0.02800849 -0.04497326 -0.0032614165
000350 62 58 0c be 14 95 a8 bd ff 57 10 3e 29 8e 12 be
       -0.1370559 -0.082315594 0.14096068 -0.14312042

FPN.3.conv.bias f4 [6]
000000 cc f5 2b 37 60 49 c5 b5 59 a5 9f b7 4e 7e 27 35
       1.0249623e-05 -1.4698999e-06 -1.9031273e-05 6.2396145e-07
000010 36 a5 94 37 34 9e 84 b8
       1.7719907e-05 -6.323718e-05

FPN.3.bn.weight f4 [6]
000000 0c 12 8c 3f aa da 83 3f f2 49 88 3f bd b2 7f 3f
       1.0943007 1.0301106 1.0647566 0.9988211
000010 50 04 91 3f a1 c2 85 3f
       1.1329441 1.0450021

FPN.3.bn.bias f4 [6]
000000 ae 17 44 bd 9b 05 fe bd 40 47 0d 3d 0c 4b 81 bd
       -0.047874145 -0.12403413 0.034491777 -0.06313142
000010 65 fc 19 bd 21 85 50 bd
       -0.037594218 -0.05090821

FPN.3.bn.running_mean f4 [6]
000000 47 bc 22 3d 3b fd 96 3d 13 c8 e0 be b0 5d 02 3d
       0.039730337 0.07372519 -0.43902645 0.03182763
000010 f0 70 38 be d7 1e 20 be
       -0.18011832 -0.15636764

FPN.3.bn.running_var f4 [6]
000000 d1 ac 4f 3e 9b 0c b0 3d 57 27 28 3f d3 0b 3a 3e
       0.20280768 0.08596154 0.6568503 0.18168573
000010 32 98 12 3e ba dc 65 3d
       0.1431587 0.056118704

ConvLSTMLayer.cell.conv.weight f4 [32, 14, 3, 3]
000000 7b 0e a5 3d 6b 9e d7 3d 43 56 a3 bd 20 cb f2 3d
       0.080594026 0.10528263 -0.079754375 0.11855149
000010 df 36 bb 3c 2e 85 3f 3d c6 04 40 bd d2 a7 bc ba
       0.022853313 0.04675787 -0.046879552 -0.0014393276
000020 ed 7a 01 3e 92 9a 7d 3d 6a b2 44 3e 7c cc 82 3d
       0.12644549 0.061914988 0.19208685 0.063866585
000030 96 ff 9e bd a3 8d 13 3e f5 8e 84 be 0e 21 11 bd
       -0.07763593 0.14409499 -0.25890318 -0.035431914
000040 4b 9a 82 bd 14 8f 58 be ac db 0c bd bc bc 9c 3d
       -0.06377085 -0.2114833 -0.034389183 0.07653186
000050 7b af af bd b2 2f 68 bd e1 f1 a3 3d 22 cc 08 be
       -0.08578392 -0.05668611 0.08005119 -0.1335912
000060 87 3a a5 bd d7 33 91 3c 62 25 2d 3d b5 09 85 bb
       -0.08067804 0.017724914 0.04227198 -0.004059995
000070 3d df 31 3e cf c1 c9 bd 6f b8 bb 3d 00 1c f8 3d
       0.17370315 -0.09851419 0.09166037 0.121147156
000080 38 a9 41 bd 45 53 d9 bc 3f 9e 8d 3d 5e 1d e3 3d
       -0.04728052 -0.026528964 0.06914949 0.11089586
000090 d7 7d ce bd 64 2d b4 bc 21 77 55 be f3 6a 0b be
       -0.10082596 -0.0219943 -0.20846225 -0.13615017
0000a0 c6 d9 80 bd 36 97 16 bd fc 4f 34 bd 50 71 b4 3d
       -0.06291537 -0.0367653 -0.04402159 0.08810675
0000b0 11 7e 48 bd 07 20 61 3c 5c 24 00 be 44 d1 cc 3d
       -0.04894835 0.013740546 -0.1251387 0.10000852
0000c0 dd d0 2e 3b 25 73 f3 bd 80 ec 97 3e a9 28 c7 3d
       0.0026674785 -0.118871965 0.29672623 0.09724552
0000d0 bc cf 95 bd 75 bc 56 3e f7 7c 99 bd ce 62 d3 3b
       -0.07315013 0.20970328 -0.07494538 0.0064509874
0000e0 fb 3f fb 3d 2e 57 d1 bd 37 36 d5 bc 6c 84 84 bc
       0.12268063 -0.10221706 -0.026026828 -0.016176425
0000f0 0f 5c 08 bd f5 4e 3f 3d 6e 9e d1 3c 98 09 87 bc
       -0.03329092 0.04670616 0.02558824 -0.016484067
000100 fe d1 eb 3c 1c 2b 47 3e 54 8d f1 bd f0 09 3d bc
       0.028786656 0.19450039 -0.11794534 -0.011538014
000110 54 c7 d0 3d 60 67 bb 3d 64 a9 58 3c 1a 37 f4 3d
       0.10194269 0.091505766 0.01322398 0.11924572
000120 e8 53 5a 3d fb 22 17 bc 37 3e 8e bb 60 48 41 bd
       0.053302675 -0.009224649 -0.0043409127 -0.047188163
000130 ad 6d c9 3c 76 d0 bb 3c 0f 1c a1 be 62 58 2e be
       0.02458843 0.02292655 -0.3146672 -0.17025903
000140 08 32 c3 bc 9b fa 4e 3e 00 5e e4 3b 1f 97 0b 3d
       -0.023827568 0.20212786 0.0069692135 0.034079667
000150 f8 a4 e6 bc eb c9 e4 3c b6 d2 fb 3d 7b 95 09 be
       -0.028154835 0.027928313 0.12296049 -0.13435929
000160 38 ce c8 3d 34 72 31 3e 4d d6 98 3c d4 b5 ac 3c
       0.09804958 0.17328721 0.018656874 0.021082796
000170 27 67 fe bd ca c8 c6 3d 6f 27 38 bd 29 dd 49 bd
       -0.124220185 0.09706266 -0.04495948 -0.04928318
000180 f5 0a 38 3e 9c 47 0f be b8 5e 12 be ba e0 c4 bd
       0.1797293 -0.1399216 -0.14293945 -0.09613176
000190 36 c9 26 be 18 23 12 3e 92 50 b6 3b 48 1f 3c be
       -0.16287693 0.142712 0.005563804 -0.18371308
0001a0 78 a8 1d 3e e1 01 91 bd 37 72 c8 bd 38 ba 8b 3e
       0.15396297 -0.070804365 -0.0978741 0.2729051
0001b0 35 ab 3f be 34 7b 0f be 07 f2 7c 3d a7 b7 97 bd
       -0.18717654 -0.14011842 0.061754253 -0.07408076
0001c0 a7 15 6c bd c4 ee 6e 3b c4 27 b4 bd 91 f5 c8 3d
       -0.057637837 0.0036458233 -0.08796647 0.09812463
0001d0 df f4 93 bd 7e c0 8b 3d 31 01 24 3d 2b 11 50 3c
       -0.0722444 0.06823824 0.0400402 0.012699406
0001e0 e4 7f b5 3d 6b 38 96 3d b6 db d8 3d b3 e3 27 3e
       0.08862284 0.073349796 0.105887815 0.16395454
0001f0 31 11 36 3e c2 ac 13 3e f5 19 9d 3c 2f bf 40 3d
       0.17779996 0.1442137 0.019177416 0.047057327
000200 27 28 8f 3d 6f 71 55 3d 24 a8 bd 3b 51 47 1b 3c
       0.0699008 0.05211013 0.005787866 0.009477452
000210 f5 c7 9a 3d 6a ca bc bb e8 2c 4b 3c 5c 33 25 3d
       0.0755767 -0.0057614343 0.012400843 0.040332183
000220 b7 92 d5 3d 0c a2 73 bc 42 21 0d bd c6 e7 2f 3e
       0.10428374 -0.014870178 -0.034455545 0.17178258
000230 00 ee af bd a3 f9 37 3e 9d 32 3d bd 36 7a 0b be
       -0.08590317 0.17966323 -0.046190847 -0.13620839
000240 9f 8a f0 bc ff e1 08 bd b9 d8 fe bb 07 d1 d7 bd
       -0.029362975 -0.03341865 -0.0077773 -0.10537916
000250 27 50 44 be 7d 57 7c bd 04 9c 96 be 9e 21 f1 bd
       -0.191712 -0.061606873 -0.29415905 -0.1177399
000260 ee cf 78 bc f7 ea a3 bc 02 30 a9 3c bf 45 5b 3d
       -0.015186293 -0.0200095 0.020652775 0.053533312
000270 33 d5 6d 3d f5 2a f4 3c 4b 1a b8 bc 00 0c c0 3d
       0.05806465 0.02980564 -0.022473475 0.09377289
000280 b0 91 72 3b 9f 81 56 bd 08 2e fa 3d 97 cc 24 3d
       0.0037013106 -0.05236971 0.12215811 0.040234175
000290 ad f2 e6 3b 3f c5 40 3e 4d df de bc 13 3a 9d bd
       0.007047972 0.18825243 -0.027206087 -0.076770924
0002a0 4c 5e 7e bd 2a dd 1d be 98 3a 01 3d 10 e0 42 3d
       -0.062101647 -0.15416399 0.03155002 0.047576964
0002b0 24 ef 9b bd 78 3f 0b be 93 a9 02 3e d1 4a 3a be
       -0.07613972 -0.1359843 0.1276 -0.18192603
0002c0 65 27 80 be 88 8b 02 3e d5 68 21 bd 16 f5 46 be
       -0.25030056 0.1274854 -0.039406616 -0.1942943
0002d0 1c f7 36 3e 93 d6 21 3e 9f b5 9c bd 64 f3 c4 3e
       0.17867702 0.1580451 -0.07651829 0.38466942
0002e0 c9 02 79 3e 62 5c 0d be 04 08 4d 3e 31 e2 2f 3c
       0.24317469 -0.13804772 0.20022589 0.010735081
0002f0 3a e4 1f 3e 9b a9 9b bd a3 d5 b9 bd 30 de 7b 3c
       0.15614405 -0.07600709 -0.09073951 0.015372798
000300 2c 6c 50 bd 9a de ab 3c cb 00 32 3d 8d 97 41 3c
       -0.05088441 0.020980168 0.043457787 0.011815918
000310 b4 3d 24 3e 5c a2 aa bc d0 3c 3d be 40 6f 2d bd
       0.16039163 -0.020829372 -0.1848023 -0.042342424
000320 8f f9 08 bc ad e8 67 be ca bd 80 3d 16 4d 20 be
       -0.008360281 -0.22647353 0.062861994 -0.15654406
000330 c9 9d 0b be 3d 3a d1 3c fc 36 c6 be a0 cc e8 bd
       -0.13634409 0.025540465 -0.38713825 -0.11367154
000340 d7 8f 55 bd 51 f0 83 3c 8c de b1 bd 5c d0 14 be
       -0.05213913 0.016105803 -0.086850256 -0.14532608
000350 b2 29 3d 3c 72 b4 39 3e a3 e5 0e be 44 fe 88 bb
       0.0115455855 0.1813524 -0.13954787 -0.0041807014
000360 a1 5a a4 bc 54 13 a9 bc 40 39 26 3d 2d d6 2e 3e
       -0.020062746 -0.0206391 0.04058194 0.17073889
000370 f0 6d 59 bc 6d ab 1b 3e a8 e3 ae 3e 43 7a 02 3e
       -0.01327084 0.15202112 0.34158063 0.12741952
000380 a8 b0 46 3d 1d 83 74 bc 1a ca 64 bd c9 9a dd bd
       0.048508316 -0.014923838 -0.0558568 -0.108205386
000390 b6 19 13 bb a9 7e 04 bd ba 13 02 be 24 73 92 3d
       -0.0022445745 -0.032347355 -0.12702838 0.071508676
0003a0 f1 41 31 be 5a 51 93 3d a8 33 ab 3d 6a 18 44 bd
       -0.17310311 0.07193251 0.08359462 -0.047874846
0003b0 9f 86 83 bd fc b0 14 3e 0d 51 10 bd d2 68 f3 3d
       -0.06422161 0.14520639 -0.035233546 0.11885227
0003c0 24 08 3c bd 81 5d 24 bc aa 48 80 3e 07 a2 13 3d
       -0.0459062 -0.010032059 0.25055438 0.036043193
0003d0 39 a7 ae 3c 7c 82 9c 3d 42 7e 12 3e 49 f0 0d 3e
       0.021319972 0.076420754 0.14305976 0.13861193
0003e0 7e a3 28 3e 70 05 14 3e 1e 1d 2f 3d b9 7b 1e 3e
       0.16468617 0.14455199 0.042752378 0.15476884
0003f0 df c3 c4 bd 34 30 7b 3c 8e aa 0f bc db 80 13 be
       -0.09607672 0.015331317 -0.008768691 -0.14404623

ConvLSTMLayer.cell.conv.bias f4 [32]
000000 fa 8d 22 3c 42 ae 4c bd 58 8e 88 bb fd 9a 65 3d
       0.009921545 -0.049970873 -0.0041673593 0.05605601
000010 0e 18 4f 3c 4d dd 9a ba 3b 58 ef bc 3e e6 28 3d
       0.012640012 -0.001181522 -0.029216876 0.0412352
000020 3f d1 92 3d 35 bc ac 3d f9 96 d2 3d 1d d1 b2 3d
       0.07168817 0.08434335 0.10282702 0.087312914
000030 87 a0 31 3e 63 f4 d2 3d c2 0d ff 3d 7c 60 57 3e
       0.17346393 0.10300519 0.12453796 0.210329
000040 e7 15 06 3d 45 78 cc 3c 83 0f d6 ba ef 1d eb 3c
       0.03273573 0.024959693 -0.0016331527 0.028700797
000050 32 c2 64 3d 35 6a a8 3d 25 d6 c8 3d f8 55 9c 3c
       0.05584926 0.082233824 0.0980647 0.019083962
000060 94 99 c9 bd 1c 84 43 3d 86 fe 94 bd 04 2b 30 bd
       -0.09843746 0.04773341 -0.07275109 -0.043009773
000070 99 10 2c 3e 93 95 ef bd 87 3f b7 bc cd 19 a7 ba
       0.16803207 -0.11698451 -0.02236916 -0.0012748778

Classification.0.g.0.weight f4 [4, 8, 1, 1]
000000 f9 8d 4f b5 c0 7c 9b af 2f bc 2e b5 25 52 93 32
       -7.7320107e-07 -2.8282976e-10 -6.5093894e-07 1.7150407e-08
000010 a8 d8 ff 2f 59 b3 1b 36 a5 a8 bc 2e 86 2c 26 b9
       4.6538173e-10 2.3201194e-06 8.5792075e-11 -0.0001584758
000020 bc c6 2d b1 5e d4 89 b8 0d 6f e9 a8 dd 8e 8a b0
       -2.528778e-09 -6.5722255e-05 -2.5916357e-14 -1.0081426e-09
000030 1e 90 87 af 62 50 33 2b b6 66 1d 95 ff cc 75 35
       -2.4658758e-10 6.370513e-13 -3.1786922e-26 9.156792e-07
000040 3f 2b 83 ac 67 55 63 b0 72 f1 56 b4 6f 2a e6 2e
       -3.728045e-12 -8.2703483e-10 -2.001814e-07 1.0466727e-10
000050 2f d0 75 b2 a2 cc 9b b1 55 f8 4a a8 c3 cc e1 2b
       -1.4308212e-08 -4.534358e-09 -1.1267101e-14 1.6044044e-12
000060 67 f8 40 36 16 0c 08 b4 12 78 43 32 2b a4 6c 2c
       2.8754819e-06 -1.2670384e-07 1.1377795e-08 3.3628749e-12
000070 ba 46 8b ae 81 81 74 2e 50 be cb 2c 21 63 90 36
       -6.333552e-11 5.55942e-11 5.790736e-12 4.3030745e-06

Classification.0.g.0.bias f4 [4]
000000 61 3c 25 38 b4 20 ac 14 f4 5e c5 9c fb c5 09 94
       3.9395298e-05 1.7380461e-26 -1.3060911e-21 -6.955777e-27

Classification.0.W.0.weight f4 [8, 4, 1, 1]
000000 cd 2c 4f b9 7a b5 ae b4 cc 79 8c 34 aa da 76 b9
       -0.00019757748 -3.2542067e-07 2.616565e-07 -0.00023541847
000010 62 e6 81 a8 48 fa cd 1d c4 77 06 23 3e ce 7d 9d
       -1.442179e-14 5.4521833e-21 7.289516e-18 -3.3590896e-21
000020 80 7a 63 b8 41 6d b3 2a d4 90 5c b2 23 e7 3c 22
       -5.4235104e-05 3.1872598e-13 -1.28386155e-08 2.5601114e-18
000030 73 a3 cb b1 56 c9 fe 30 1a e5 ca b2 9e 14 c2 33
       -5.9266596e-09 1.8538155e-09 -2.3620078e-08 9.037579e-08
000040 f4 3c 8d 34 9f da db 2f 80 41 c6 b3 c9 3c 4a af
       2.6307646e-07 3.9991208e-10 -9.232008e-08 -1.8393388e-10
000050 3b 1c 15 34 39 b2 f3 a9 3b 3f 22 b4 43 1b ce a5
       1.3886977e-07 -1.08222845e-13 -1.5110429e-07 -3.5753777e-16
000060 e6 ec 24 9b e5 42 0d 1c 6d 60 72 9d 12 18 e7 1e
       -1.3642308e-22 4.6739446e-22 -3.2078284e-21 2.4468032e-20
000070 1d c8 a9 35 e7 22 e8 a2 51 d3 4e 32 3c ca c6 a0
       1.2649722e-06 -6.292068e-18 1.2038826e-08 -3.3676332e-19

Classification.0.W.0.bias f4 [8]
000000 56 a3 4b b8 0e 0c 93 35 6a a8 d5 b7 e1 e9 2d b8
       -4.855109e-05 1.0955862e-06 -2.5470003e-05 -4.146423e-05
000010 70 1f da 35 31 2c a0 b2 f8 5a 03 39 c2 e5 01 b8
       1.6251415e-06 -1.8646547e-08 0.00012527022 -3.0969975e-05

Classification.0.W.1.weight f4 [8]
000000 6b 06 5d 21 8d 0e 0e 1e 78 90 9f 37 0d 36 24 20
       7.4886207e-19 7.5204264e-21 1.902155e-05 1.3909224e-19
000010 7e 66 79 9d 45 3b f3 1b a6 1a b2 a1 41 45 38 20
       -3.3007863e-21 4.023928e-22 -1.2068803e-18 1.560832e-19

Classification.0.W.1.bias f4 [8]
000000 5c b0 4c b2 61 b9 e9 31 88 01 0b 39 6c 60 93 33
       -1.1914462e-08 6.8022676e-09 0.00013256643 6.86276e-08
000010 0c ce df 32 56 11 e7 b4 85 70 20 33 13 51 7c 34
       2.6054316e-08 -4.3039717e-07 3.735524e-08 2.3498824e-07

Classification.0.W.1.running_mean f4 [8]
000000 56 5e 3f 37 30 2d f3 b2 50 76 1d 35 03 bc 71 37
       1.1406451e-05 -2.8309472e-08 5.8659225e-07 1.4408494e-05
000010 ed 09 11 34 8a 14 31 32 2e a2 30 b7 68 71 80 b4
       1.3507788e-07 1.0307426e-08 -1.0528178e-05 -2.3924372e-07

Classification.0.W.1.running_var f4 [8]
000000 b4 85 4d 19 86 a5 80 13 e4 47 4f 17 b6 95 40 18
       1.0625253e-23 3.247496e-27 6.6976046e-25 2.4891003e-24
000010 2f d6 19 14 18 7c 73 0e 06 c6 0e 19 30 24 8a 19
       7.766766e-27 3.0011811e-30 7.3812185e-24 1.4283482e-23

Classification.0.theta.weight f4 [4, 8, 1, 1]
000000 3b 88 a1 a4 21 10 ac a5 71 7f 53 24 88 0f fc a5
       -7.00534e-17 -2.9848173e-16 4.586128e-17 -4.3725556e-16
000010 cd 65 d6 a5 48 43 eb a4 e9 1f 2e 23 ce 2a 01 25
       -3.7192065e-16 -1.0202898e-16 9.439316e-18 1.1203469e-16
000020 cc 78 8f a9 a2 9e 04 2e a7 7f 3d 9c ea 40 87 1c
       -6.3714306e-14 3.015422e-11 -6.269984e-22 8.950331e-22
000030 ae c4 fd 38 33 02 0a 1f 75 b4 0e 1a ab c1 11 b9
       0.000121006145 2.9224456e-20 2.9510684e-23 -0.00013900425
000040 b1 cd 2b 25 ec d8 30 24 ea c7 10 24 67 f0 19 a3
       1.4901577e-16 3.8347656e-17 3.1394356e-17 -8.345054e-18
000050 2b 61 0a 23 d5 9a e5 24 49 7c 25 23 51 7b 34 25
       7.501571e-18 9.9575215e-17 8.970986e-18 1.5654293e-16
000060 df 4f 7d 22 54 3e 7c 25 ae 75 fd 24 66 d0 43 24
       3.4330177e-18 2.1878633e-16 1.0992062e-16 4.2460405e-17
000070 26 8c fb a3 e7 6b 45 24 70 f8 0f a4 da d9 a8 a3
       -2.727283e-17 4.2808962e-17 -3.1218617e-17 -1.830686e-17

Classification.0.theta.bias f4 [4]
000000 14 a2 fe 22 db 07 b6 19 2c ab a3 24 e2 ab 20 b8
       6.9018445e-18 1.8821532e-23 7.097996e-17 -3.830705e-05

Classification.0.phi.0.weight f4 [4, 8, 1, 1]
000000 d2 14 22 b9 ed 19 6f a8 4a 2b 24 b6 9b a2 c0 b4
       -0.0001545728 -1.3272787e-14 -2.4463102e-06 -3.5881098e-07
000010 9f 64 95 36 40 11 63 b5 05 d5 2d 2a 63 ee c5 b8
       4.45226e-06 -8.458919e-07 1.5439393e-13 -9.438095e-05
000020 c7 b9 44 a9 a3 49 81 2b bd 44 f4 23 b4 69 29 a6
       -4.368188e-14 9.18644e-13 2.6483645e-17 -5.877691e-16
000030 b2 d0 b2 2f 9b 5b 41 2b 45 c6 ec a2 9c b5 ad ac
       3.2526298e-10 6.86945e-13 -6.4177854e-18 -4.9371184e-12
000040 d8 a8 1f a8 38 04 70 b8 f2 d4 13 35 11 d1 01 ab
       -8.862885e-15 -5.7224388e-05 5.5071644e-07 -4.6120144e-13
000050 bd 2c 02 af 2e 26 a7 36 b3 2d ae 2a d8 8a a6 37
       -1.1839325e-10 4.9814325e-06 3.094032e-13 1.9853396e-05
000060 ea a3 7e 34 40 64 07 39 fc 7d a6 32 db 1d 0d 2b
       2.3715225e-07 0.0001291195 1.9382234e-08 5.0134696e-13
000070 4a 39 f2 2b 0f f7 3d b3 f9 a5 e6 36 f1 53 3d 35
       1.7211035e-12 -4.422969e-08 6.873856e-06 7.053014e-07

Classification.0.phi.0.bias f4 [4]
000000 4a 02 ad 90 9e d2 4c 23 8a 4d b1 b7 5f 8b bb a2
       -6.8239995e-29 1.1103462e-17 -2.1136151e-05 -5.0834016e-18

Classification.2.conv.weight f4 [10, 8, 2, 2]
000000 b0 32 b3 bd 64 37 37 3d dc 99 bb 3d d4 b4 0f 3d
       -0.08749902 0.04473056 0.09160206 0.03508456
000010 59 00 22 3d 61 6a 4c bd a0 9d 7a bb b5 0e c7 bd
       0.039551113 -0.04990614 -0.0038240924 -0.09719602
000020 e7 98 3f bd 82 b7 13 be 9a 1f 5d bd 6d 36 d6 3c
       -0.04677668 -0.14425471 -0.053985216 0.026149
000030 a8 9a 80 bc ff 18 40 3e 1a 92 35 3d 0f a7 1a 3e
       -0.015698746 0.18759535 0.044328786 0.1510279
000040 0a 4a c3 3d f8 03 b4 bd a3 da 04 bd ed 4c 44 bd
       0.09535606 -0.087898195 -0.03243507 -0.047924925
000050 43 49 d6 3d 44 a5 04 bd 73 4c c0 3d c9 37 b9 bd
       0.10463192 -0.032384172 0.093895815 -0.09043843
000060 2e 7b 46 3d 43 27 20 3d 76 ab a5 3e d3 16 59 be
       0.048457317 0.039099943 0.32357377 -0.21200113
000070 4d 6e e8 bd dd c8 4e 3e e1 27 01 3d cd d4 01 be
       -0.11349163 0.20193811 0.031532172 -0.12678833
000080 6f 2c d2 3d 2e c2 93 bd c7 6b ee bd 00 f5 03 3d
       0.10262381 -0.07214771 -0.11641651 0.032216072
000090 7f ba 4e 3d 3d 1c 4f 3c f7 45 cc 3d ec 0e cb 3d
       0.050470825 0.01264101 0.09974282 0.099149555
0000a0 49 67 95 3c ff 32 90 3d d9 54 8a be 37 f9 09 be
       0.018237727 0.07040977 -0.2701786 -0.13473974
0000b0 c9 bc 44 3e a0 7d 0f 3e e2 3e bf 3d 11 72 b9 3c
       0.19212641 0.14012766 0.09338166 0.022637399
0000c0 dd 5f b9 bd 06 05 ea 3d 2b 1a 1c 3d 33 38 11 3d
       -0.090514876 0.114267394 0.038110893 0.035453986
0000d0 ac 8d 5a 3d 40 a9 6d 3d c8 17 e7 3d f6 bc 56 be
       0.053357765 0.058022738 0.11283833 -0.2097052
0000e0 c6 71 8d bd dd c2 02 be ce e9 07 3e 82 14 19 be
       -0.06906466 -0.12769647 0.13272783 -0.1494923
0000f0 91 71 83 bb 75 dc e1 bd 2b 34 dd 3c 81 22 94 bc
       -0.004011341 -0.11028377 0.027002415 -0.018082859
000100 11 ee 6e b8 21 26 06 3e c0 54 ac 3c cb d6 7d 3b
       -5.696534e-05 0.13100483 0.021036506 0.0038732763
000110 39 b9 52 ba 1f ee 4e be 80 b3 84 bd 58 a9 18 ba
       -0.00080384646 -0.20208023 -0.064795494 -0.0005823574
000120 c6 90 b5 bd 48 db 63 3d 86 d4 7c 3c f2 20 99 bb
       -0.08865504 0.055629045 0.015431529 -0.004673117
000130 38 e3 0c be 91 78 35 3d e3 db 0c 3d 19 c0 ee 3d
       -0.13758552 0.044304434 0.034389388 0.116577335
000140 e2 8d 45 3e c0 67 2e be a7 b8 b3 3d 98 40 e2 bd
       0.19292405 -0.17031765 0.08775454 -0.110474765
000150 da 99 f2 3d a3 6f 02 3e 19 d3 4e 3e d1 ea 7e be
       0.11845751 0.12737899 0.20197715 -0.24894263
000160 9f 78 bf 3d 0c a9 50 3d 8a 65 02 3e 47 7f b9 bd
       0.093491785 0.050942466 0.12734047 -0.09057479
000170 64 a7 b6 bd d9 ff 44 3e ff 3d 95 3d 53 a9 3a be
       -0.08918646 0.19238223 0.072872154 -0.18228655
000180 0d 72 81 3d 6d b4 20 bd 16 b8 a6 3d 58 fe da bd
       0.063205816 -0.039234567 0.0814058 -0.106930435
000190 d5 15 c0 3c ea 5f 05 3d 6c 3d 30 3d ff b3 40 be
       0.02344791 0.032562174 0.043027326 -0.18818663
0001a0 46 c4 8d bd 38 c1 4f 3c 9e 67 11 be 7d 53 9e 3d
       -0.06922202 0.012680344 -0.14199683 0.07730768
0001b0 9b 48 10 3e c4 3a 09 3e 5d 6b 04 be cd 03 3f be
       0.14090197 0.13401324 -0.12931581 -0.18653794
0001c0 38 50 62 bd b4 79 39 3e 7f fc df 3c 2a d2 69 be
       -0.055252284 0.18112832 0.02734208 -0.22834077
0001d0 6a 87 f4 3d b7 1a 9a bd 2b ac 35 bd b4 3a 2a be
       0.11939891 -0.07524627 -0.044353645 -0.16623956
0001e0 e4 35 04 bb 7a ab 65 3d 80 59 79 3e 9a f6 9d bd
       -0.0020173723 0.056071736 0.24350548 -0.07713051
0001f0 76 8b 3f 3e 82 be 2b 3c 10 85 dc bd c0 9c d1 3d
       0.18705544 0.010482432 -0.10767567 0.10234976
000200 07 b4 28 be 31 8d 88 3e f9 99 ea bc 9e f1 e9 3b
       -0.16474925 0.2667022 -0.028637873 0.0071393987
000210 cf 8d b7 bd 3c 06 9e 3e 87 e3 33 3c 49 4a 89 bd
       -0.08962595 0.3086413 0.01097954 -0.06703622
000220 f5 e7 40 bd e0 1e 7d 3c da b0 c4 3d e7 c3 bb bc
       -0.04709621 0.015449256 0.09604044 -0.022920562
000230 c4 71 8e 3d cd ba 67 be 15 c3 fc bd 43 94 73 3c
       0.06955293 -0.22629853 -0.123418964 0.014866891
000240 34 ec 5e 3d 11 1f db 3d ac 01 2d bc 97 0d 7d bd
       0.05442448 0.10699285 -0.010559481 -0.06178054
000250 92 97 6a 3c 9f a1 08 bd 6f fb 3b 3c 49 5a 2c 3e
       0.014318364 -0.03335726 0.011473521 0.16831316
000260 a5 90 f6 3c 06 46 20 3e f3 c4 de 3d fb e2 2d be
       0.030098269 0.15651712 0.10877409 -0.16981117
000270 c2 9c 85 bd 5b fd 06 3d 0b 99 7e 3c e3 74 3c bd
       -0.0652404 0.032956462 0.015539418 -0.04600991
000280 83 63 03 3e ec e6 66 bd 5f a0 1c bd a9 0f 45 be
       0.1283093 -0.056372568 -0.03823888 -0.19244255
000290 64 6d 72 bd fc 33 37 bc 29 53 90 bb a1 9b 00 bc
       -0.059186354 -0.011181828 -0.0044044447 -0.007849605
0002a0 36 90 ef bd f6 85 58 bc 59 5a 0a be d2 87 2f 3e
       -0.11697428 -0.0132155325 -0.13511027 0.17141655
0002b0 0b 21 4c be e8 36 f1 3d e6 69 99 3d ba d4 37 3d
       -0.1993448 0.11778051 0.07490902 0.044880606
0002c0 94 93 50 3d 07 53 33 3d 51 e0 79 3d 91 c1 82 bd
       0.05092199 0.043780353 0.06100494 -0.06384576
0002d0 f2 6a a8 3c d6 81 28 3e 74 de 82 3e 5d a8 7d be
       0.020558808 0.16455778 0.25560343 -0.24771257
0002e0 8c 98 50 3d f2 69 92 bd 53 60 85 3d 76 1b dc bd
       0.05092673 -0.07149114 0.06512513 -0.10747425
0002f0 04 78 09 3d 4e c9 0e 3d d5 cd c3 bd 42 29 01 3e
       0.03356172 0.034859948 -0.09560744 0.12613395
000300 53 14 e2 bb 59 c0 81 3d e8 21 df 3d cb 0f 2d bd
       -0.0068993955 0.063355155 0.10895139 -0.04225139
000310 51 81 90 3d 95 08 cc bd 82 c1 41 3e 4f 15 c6 bc
       0.07055915 -0.099625744 0.18921474 -0.024180083
000320 74 bd c5 bd 37 19 4c bd 48 05 e1 3c 4c 66 14 39
       -0.09655276 -0.049828734 0.027468339 0.00014152488
000330 90 10 32 bd 8c 8c 07 3e ef 19 0d be 14 f4 0e be
       -0.043472826 0.13237208 -0.13779424 -0.13960296
000340 f7 7d 74 bd 89 f5 68 3e 26 9e 97 3d 41 f4 60 be
       -0.059690442 0.22749914 0.07403211 -0.21968175
000350 ce ef 67 bd 26 4d 93 bd 90 19 06 3e 8a 87 a7 bd
       -0.05662518 -0.07192449 0.13095689 -0.08180149
000360 7f 31 04 bd c6 a4 6d bb 62 8e 55 3e b4 0e 3a be
       -0.032273766 -0.0036261543 0.20855096 -0.18169671
000370 4e 04 e5 3d 29 d6 12 bd e3 cc 54 bd 11 af 8a 3d
       0.11182462 -0.03584877 -0.051953208 0.067716725
000380 b1 de 18 be 4c d8 0f 3e b1 52 2b 3e 36 a7 f2 bc
       -0.149287 0.14047354 0.16730763 -0.029620748
000390 6d 35 c6 bd f5 74 4a 3d cb 81 d6 3d e1 ee 82 3d
       -0.09678159 0.049427945 0.10473975 0.06393219
0003a0 55 52 9a bd 50 dc 04 3d bc 91 20 be 7f 86 a4 3d
       -0.07535235 0.03243667 -0.15680593 0.080334656
0003b0 c3 73 e6 3d 3e 18 cf bc bb 64 7c bc 09 01 87 be
       0.112525485 -0.025280114 -0.015404875 -0.26367977
0003c0 b3 de f3 bc 23 29 cf 3d d9 5a f4 bd 5e 7a cc bd
       -0.029769277 0.10115268 -0.1193139 -0.09984277
0003d0 ca d3 c8 3c 82 2c 36 be dc 3f 91 3d a3 89 b0 3c
       0.024515051 -0.17790416 0.07092258 0.021550005
0003e0 47 e8 1a 3e 70 5b 8f 3d 4c 88 48 3e 8b 38 0c be
       0.1512767 0.06999862 0.19583243 -0.13693444
0003f0 e7 d2 d5 3d 19 08 2c bd a9 5f 8c 3d 77 27 f2 bd
       0.10440617 -0.04199991 0.06854183 -0.118239336

Classification.2.conv.bias f4 [10]
000000 01 74 b8 b2 7e 38 f8 b3 c9 8f 2c b9 fc 66 98 b3
       -2.1473172e-08 -1.1558676e-07 -0.00016456762 -7.096784e-08
000010 58 16 e1 32 3f 13 b0 33 8e 73 19 b4 24 d4 7b b1
       2.6203608e-08 8.1991395e-08 -1.4291274e-07 -3.6645895e-09
000020 e0 5a 98 b8 6b 0b 2c 34
       -7.2648516e-05 1.6022902e-07

Classification.2.bn.weight f4 [10]
000000 77 3d 88 3f cb 64 8c 3f 79 02 85 3f be f9 91 3f
       1.0643758 1.096826 1.039138 1.140434
000010 93 84 8c 3f 5a 43 94 3f b3 7d 91 3f 46 bd 8a 3f
       1.0977958 1.1583054 1.1366485 1.0839012
000020 2e 8c 8e 3f a4 5a 8f 3f
       1.113653 1.1199536

Classification.2.bn.bias f4 [10]
000000 d7 e3 dc bc 84 1b ec bb 05 32 a6 bd 40 cb 54 ba
       -0.026964111 -0.0072054286 -0.08115009 -0.0008117445
000010 e5 6a 62 bd 34 e5 90 bd 53 2c e2 bc 33 0e ab bd
       -0.055277724 -0.07074967 -0.027609026 -0.08352318
000020 8b 85 4a 3b db 0b 87 3b
       0.0030902352 0.0041212863

Classification.2.bn.running_mean f4 [10]
000000 8f b2 e6 bc 0e 21 e1 3c f2 f8 18 bd 68 64 cc bc
       -0.028161315 0.027481582 -0.037346788 -0.024950221
000010 d0 e4 85 bc b3 b6 1d bc ac ba 74 bc 2d a0 ad bc
       -0.016344458 -0.009626078 -0.014937084 -0.021194542
000020 f0 bf 57 3d ff 03 a6 bc
       0.05267328 -0.020265577

Classification.2.bn.running_var f4 [10]
000000 13 36 4c 3c 3c d6 fd 3b 23 a1 0c 3c 8b be 0e 3c
       0.012464064 0.007746486 0.00858334 0.008712421
000010 23 b6 04 3c 9d ff 59 3c 8e d4 08 3c f9 e2 0e 3c
       0.008100065 0.013305572 0.008351458 0.008721107
000020 69 f1 99 3c d7 16 13 3c
       0.018791871 0.008977613

ClassificationCat.0.weight f4 [1, 250]
000000 27 53 12 3d b6 02 7d bd 0c 71 a8 3d b7 1f fa bd
       0.03572383 -0.061770163 0.08224687 -0.122130804
000010 9e 1c f8 3d a4 47 b2 3d 09 a6 07 be 93 b9 4d 3d
       0.12114833 0.087050706 -0.13246931 0.050225805
000020 6a 3a ba bd 1d 4d e9 3d 69 f9 d4 bc de 28 cf 3d
       -0.09093173 0.11391661 -0.025997834 0.10115217
000030 38 47 0f 3d ac 3a c0 bd 25 5b 14 3d 71 78 c5 bc
       0.03498003 -0.09386191 0.036219735 -0.024105283
000040 ff 7b d5 bc 9c 81 8f 3c 25 12 6b bd 70 62 6c 3d
       -0.026060103 0.017517857 -0.05739035 0.057711065
000050 2a c8 9a 3d f6 fa 5c 3d c0 8b 4e 3e 1b f5 90 bd
       0.075577095 0.053950273 0.20170498 -0.07078
000060 3c d2 fd bc aa 3e a3 bb 6f f3 3c 3e 92 fa c2 3d
       -0.030984037 -0.0049818354 0.18452238 0.09520449
000070 05 a2 05 be 77 5c 51 3d 49 65 b1 3c aa 07 a7 bd
       -0.13050087 0.051113572 0.021654742 -0.08155759
000080 70 3b 57 3e 85 b7 08 bd 09 91 9b bd 78 17 95 3d
       0.21018767 -0.033378143 -0.07596023 0.07279867
000090 ee 2f 13 3e 26 3b 9a 3c 7f a9 8b bd 41 2b 3d be
       0.14373752 0.018827032 -0.06819438 -0.18473531
0000a0 38 98 e1 3c 2e 54 b9 3c 51 6f 75 3e a3 1a 54 bd
       0.027538404 0.022623148 0.23968245 -0.051783215
0000b0 57 3c 15 be ca 86 79 3c 1d b1 bd bc 71 8d 68 3c
       -0.14573799 0.01522989 -0.023155743 0.0141938785
0000c0 39 82 06 be aa 24 ca bd 45 ac 31 3d f6 36 0c bb
       -0.13135614 -0.09870274 0.04337718 -0.0021395064
0000d0 e6 13 a7 bc de ee 9d bc ed 0f a8 3d d1 ce 8e 3c
       -0.02039523 -0.01927894 0.082061626 0.017432602
0000e0 b2 85 1b bd 66 a1 9d 3d 39 d8 31 be b1 c3 d5 3d
       -0.0379693 0.076968 -0.17367639 0.10437716
0000f0 d9 db 93 bd 7e 4c a0 3d ab a8 a1 bd bc 71 85 3d
       -0.07219667 0.0782709 -0.07893499 0.06515834
000100 f4 55 34 3d c7 dd c4 bd 27 21 b3 3b f7 2c a7 3d
       0.044027284 -0.09612613 0.0054665986 0.08162873
000110 c8 fc 4d bd 85 16 20 3e 11 7b 1a bd bb 4d 05 3d
       -0.0502899 0.1563359 -0.03771502 0.032544833
000120 97 57 16 3e 1c 97 62 bd 7a e9 65 3e a4 89 83 bd
       0.1468185 -0.05531989 0.22452345 -0.06422737
000130 8e ba f0 bb 2b 25 b2 3d c6 64 19 be 64 60 51 3d
       -0.007346458 0.086984955 -0.14979848 0.051117316
000140 bd 11 1c 3d d7 14 34 be ff 44 2e 3d 91 46 98 3d
       0.038102854 -0.17586075 0.04254627 0.074353345
000150 f3 b0 27 3c eb 96 89 bd 44 2e 82 3d 35 f6 09 3e
       0.010235059 -0.067182384 0.06356481 0.13472827
000160 19 21 b0 bd 48 63 2f 3e 22 55 9f bb 6e c5 3a bd
       -0.08600063 0.17127717 -0.0048624435 -0.04559844
000170 36 38 78 bc 1a 52 3c 3d ba 86 18 3e ea 3f 8a bc
       -0.0151501205 0.045976736 0.14895144 -0.01687618
000180 07 58 ef bc 1d 0f 28 3e 76 ae 7d bd 66 e3 17 be
       -0.02921678 0.16412015 -0.061933957 -0.1483284
000190 a0 34 92 3d 7c 5d c5 bd e1 60 11 3d 4d d6 94 bd
       0.07138944 -0.09636971 0.03549278 -0.07267437
0001a0 97 2e 03 bd 02 2d 07 3e f0 4b 37 3c db dd d4 bd
       -0.032026853 0.13200763 0.0111875385 -0.10393878
0001b0 2f 6c 1e 3d 74 b5 a1 3d da b1 54 bd ec ae b0 3d
       0.03867739 0.078959376 -0.051927425 0.08627114
0001c0 38 e6 38 3e 1e a2 ae bc 76 fd 8e bd 15 da 6f bd
       0.18056571 -0.021317538 -0.069819376 -0.05855759
0001d0 f6 27 52 bd 08 c5 34 be ef 4e 28 3e e7 98 02 3e
       -0.05130764 -0.17653286 0.16436361 0.1275364
0001e0 61 ac 0d bd 9a c1 96 3c dd e4 9b bc bf f8 f3 3d
       -0.03458822 0.018402863 -0.019030029 0.11912679
0001f0 6d 8a cf bd 08 34 27 3d 90 83 e3 bc b2 39 ad 3d
       -0.101338245 0.040821105 -0.027772695 0.0845827
000200 2b 95 c8 bd 12 ca 09 3c 64 03 54 3d ea c8 4b be
       -0.097940765 0.008409994 0.051761046 -0.19900861
000210 04 2b 06 3e 44 40 92 bd dc d6 dc 3d bd e8 36 3d
       0.13102347 -0.07141164 0.10783169 0.04465555
000220 aa 85 46 3b 0d d9 93 3b f3 55 e1 3c 9c 3e a5 3d
       0.0030292072 0.0045119585 0.027506804 0.080685824
000230 a9 d0 f5 bb 8e 8a 6f bd 8f 5b f1 3d da 3b 3f be
       -0.007501681 -0.058481745 0.117850415 -0.18675175
000240 e7 a8 0c 3e 9e 4f 35 3c 51 3c 98 bc cc dd b7 3d
       0.13736306 0.0110663455 -0.018583449 0.08977851
000250 27 c5 29 be bf b6 29 3e 9c 68 ad 3c 2e 67 07 3d
       -0.16579114 0.16573618 0.021168046 0.033057384
000260 ec 5c fa 3d 01 95 16 be 00 ea 56 3d 30 f8 e2 3d
       0.12224755 -0.14705278 0.052469254 0.11082494
000270 64 28 0a be e9 f3 d2 3d c2 41 a4 3d d0 6a d4 3d
       -0.1349197 0.103004284 0.08020355 0.10371935
000280 ef f2 37 bc 3a 7d 8c 3d 9b f7 65 3c 41 8f ac bd
       -0.0112273535 0.068598226 0.0140360845 -0.08425761
000290 c9 3a 2b 3e 19 ee 81 3c fe 19 d6 bc 0c 9a c5 bb
       0.16721644 0.015860604 -0.02613544 -0.0060303267
0002a0 1d 5d 9f bd 1e 4b 00 3e 4a e0 8e 3c b0 8c 25 bd
       -0.07781432 0.12528655 0.017440934 -0.040417373
0002b0 42 a4 66 3e 1a 40 4f 3d 79 84 50 bd 04 73 90 bd
       0.22523597 0.05059824 -0.050907586 -0.070531875
0002c0 2b 1e 8e bc 72 d4 6a 3e fb 4e 27 bd 9a 8e 3e 3c
       -0.01734837 0.22932604 -0.040846806 0.011630679
0002d0 2d 86 e8 3c 02 d7 ba bd 1e fc f9 3d f6 9a 4a 3d
       0.028384292 -0.09123041 0.12206291 0.04946419
0002e0 10 d8 77 3d 50 c7 f0 bb d5 fe 89 3d 19 9b d3 3d
       0.060508788 -0.0073479787 0.067380585 0.10332317
0002f0 0c 55 2e bd 14 49 91 bd f9 33 4e bd 75 fe 86 3d
       -0.042561576 -0.07094017 -0.050342534 0.065915026
000300 0e 34 d0 bb 27 86 0d 3e 8b 63 e5 3d c9 b2 69 bd
       -0.0063538617 0.13820706 0.11200627 -0.05705527
000310 00 b6 c8 bc e6 f2 3d 3e e9 96 60 bd c3 7a 0e be
       -0.024500847 0.1854969 -0.05483142 -0.13914017
000320 48 df 15 bd 9a 42 09 3d 6b 0f e0 bd 22 9d 14 3d
       -0.03658989 0.03351078 -0.10940441 0.036282666
000330 3a 50 c0 3a 60 d3 4a bc e2 03 d2 3d 31 8f 78 bd
       0.0014672347 -0.012379497 0.10254647 -0.060683433
000340 08 85 ad 3d b1 94 03 be 13 32 38 3c 76 c2 90 3d
       0.08472639 -0.1284969 0.011242407 0.070683405
000350 1e 55 a3 bc 61 2c 4b 3e 5e b2 e8 bd d9 a2 55 3d
       -0.019938048 0.19841148 -0.11362146 0.052157257
000360 32 a6 a3 3c 1f 47 eb bd 25 6d 01 3e 49 d8 28 be
       0.019976709 -0.11488175 0.12639292 -0.16488756
000370 52 d3 0b bc f9 f0 19 3e b1 91 a1 bd dd 47 0f 3e
       -0.008534269 0.1503333 -0.078891166 0.13992257
000380 f5 51 42 be cd 07 a9 3d ac c0 97 bb 17 59 9f 3d
       -0.18976577 0.08253441 -0.0046311226 0.077806644
000390 2d 5a 00 be ad 79 d7 3d 22 56 01 3e 2e 67 72 bd
       -0.125344 0.10521255 0.12630513 -0.05918043
0003a0 35 5a 20 3c 46 b3 c1 3d 6c f9 68 3d 52 4b 01 3d
       0.009787132 0.09458022 0.056878492 0.03156597
0003b0 81 7b 4a 3d 0c a8 8f bd 12 29 a9 bd 2c 82 21 3e
       0.04943419 -0.07014474 -0.08259787 0.15772313
0003c0 be c3 70 bd 87 cd 54 bd 7e ac b4 bc 33 5c 2a be
       -0.058780424 -0.05195382 -0.022054907 -0.16636734
0003d0 c7 35 dc 3d 3b de ad 3d cc de d1 bc c6 30 23 3e
       0.10752445 0.08489653 -0.025618933 0.15936574
0003e0 ac 5d 0e 3e b0 6a 0e 3b
       0.1390292 0.0021731071
