models/2023-05-18_16-46/2/pytorch/E-63_VA-0.8393_VL-56.34_TA-0.6583_TL-112.37.pt (torch, 35806 bytes, 39 tensors)

TSA.conv.weight f4 [3, 3, 3, 3]
00000000: 9610 813e 464c 8f3e 4cbf 5f3e ab39 843e
00000010: aa7d 983f 2ad1 593e 7f08 503e 3f9a 6b3e
00000020: 17f8 213e 3757 393e 61f8 8d3e ebaa 943e
00000030: 71d9 423e 5bcb 983f b557 943e 7bee 083e
00000040: a955 733e 9a28 6a3e 29f7 5e3e bb4c 8e3e
00000050: 8ded 863e 704a 5a3e fa8d 973f 5948 893e
00000060: 23c9 0e3e 0fde 6b3e c7d9 593e f56c 203d
00000070: a9c6 733e da9f dd3e e719 d83c bb4d 8a3f
00000080: 5f4c fd3e 9a19 4abd 4fa1 493e 7e05 cf3e
00000090: 28b5 92bd 48c7 7f3d 3976 aa3e 502d a8bd
000000a0: 6d96 693f f2a3 d73e 0f4d 20be a157 523d
000000b0: f88a ab3e b86c 1c3d 9d1d 0c3e a9b7 a73e
000000c0: 227c c6ba 6c6e 753f 87c7 d53e 2102 e5bd
000000d0: b271 bc3d 1101 b43e cd0f c73d a9d1 703e
000000e0: 1cb0 873e fa30 053e a94e 863f 526f 873e
000000f0: 54cb 0d3e 573d 583e d436 733e b479 253d
00000100: b68c 423e 8036 813e 98a9 be3d 3b96 7b3f
00000110: 31f4 683e 4343 c83d 986c 093e 7e73 343e
00000120: 3af0 683d 4dde 3f3e e686 733e ac13 cd3d
00000130: 1dd6 7b3f a713 6a3e 6573 eb3d 68e3 233e
00000140: 2384 483e
0.25207967 0.2798788 0.21850318 0.25825247 1.191335 0.21271196 0.20315741 0.23008059
0.15817295 0.18099676 0.2772856 0.2903665 0.1902826 1.1937059 0.28973165 0.13372223
0.23763146 0.22867051 0.21773972 0.27792916 0.26353112 0.21317458 1.1840203 0.2681301
0.13943915 0.23033927 0.21274482 0.03916641 0.23806252 0.4328602 0.026379539 1.0804971
0.4947233 -0.04934082 0.1969044 0.40433878 -0.07163459 0.06244591 0.33293322 -0.08211768
0.91245157 0.42117268 -0.15654396 0.0513531 0.33504462 0.03818962 0.13683172 0.3275731
-0.0015143196 0.95871615 0.4175379 -0.11182047 0.09201373 0.35157064 0.09719811 0.23517479
0.26501548 0.13006964 1.0492755 0.26452118 0.13847095 0.2111715 0.23751384 0.04039927
0.1899899 0.25236893 0.09309691 0.9827611 0.22749402 0.09778454 0.13420331 0.17622182
0.056869723 0.18737145 0.23781928 0.10013518 0.98373586 0.2285906 0.11496619 0.16004717
0.19581656

TSA.conv.bias f4 [3]
00000000: 94d5 8fbe 264f 99be a15a 52be
-0.28092635 -0.29943198 -0.20542385

FPN.0.weight f4 [3]
00000000: 3b9c 793f 1734 753f 9c65 4e3f
0.97504014 0.9578261 0.80623794

FPN.0.bias f4 [3]
00000000: 9276 483c 3d54 81bc d25c ac3c
0.012235301 -0.015787238 0.021040354

FPN.0.running_mean f4 [3]
00000000: 73b1 d43e 18b1 aa3e 2592 af3e
0.41541633 0.33338237 0.34291187

FPN.0.running_var f4 [3]
00000000: cf65 6d3e b9fd ea3d 1df3 de3d
0.23183368 0.11474175 0.10886214

FPN.1.conv.weight f4 [4, 3, 3, 3]
00000000: 2805 a2bc 81b4 863b 62ea 263e 81c5 ab3d
00000010: 0f08 46be e101 7abe 0d0d a03c b127 22be
00000020: bf44 fcbb 1467 65bd e355 fb3d 6122 513d
00000030: aa21 77bd c832 74be 91ad cc3d f860 1dbe
00000040: 8257 9f3d 1e8d c7bd 9139 8fbd 8d9e 573e
00000050: 0716 113c 8334 1fbe d200 07be ce2a 1f3b
00000060: b9e5 4e3d b351 e8bd 5409 11be ed46 883c
00000070: 1980 873d 2edb bbbc 40e8 90bd cdd8 95bd
00000080: e155 c3bc 7b05 263e 12a5 933d dcfb ddbd
00000090: 3e2c 1fbe d163 f53c 25ec 82bd 4d9b 6bbd
000000a0: 30bd aebe baec 9dbd 21c4 103e c871 8bbd
000000b0: 6ca8 ae3c 2f6c 143d 6c8a fcbd b292 41bc
000000c0: 407c 26be 4a2b c3bc 3afe 6a3e f7ba f33d
000000d0: 1b7b 7d3d 3cae 963d fc16 453e 9178 6c3d
000000e0: 57a5 57be c2f0 163e 390b 993d a11e e33c
000000f0: 867a 38bd 97fa 31bd 6b78 5d3e 3db3 343e
00000100: b2ac 2abe 4bdf 28be 8d4b 28be 1f62 5c3d
00000110: 0a20 91ba e2c1 39be ce07 133c c9fa 0c3d
00000120: c7df fc3d 43ef 113e c026 9bbd 6275 4dbd
00000130: 3093 07be ed74 14be 4146 00be bd50 bdbc
00000140: 014f 8bbd f49f 10bd a974 843c 5eaa 413e
00000150: cc81 583e 39ae 6f3e f408 c83c 39ee c83d
00000160: 9e45 393e d534 e43d 7b18 c2bd 7976 953d
00000170: 634a ffbc 8fd4 823e 70b3 093e 793e f0bc
00000180: 223c 583e 7440 ea3c 7203 19be d73c a33d
00000190: 326b a63c 2b90 063d 8f3d a33d 706e 843c
000001a0: 225e 16be da44 bebd 912a b0bc e78a 17bb
-0.01977785 0.004110873 0.16300347 0.0838728 -0.19339012 -0.24414779 0.019537473 -0.15835454
-0.007698625 -0.056006506 0.12272241 0.051058177 -0.06033484 -0.23847497 0.09994043 -0.15369022
0.07780363 -0.09743713 -0.06993402 0.21056576 0.008855349 -0.15547375 -0.13183907 0.0024286988
0.05051205 -0.11343708 -0.14163715 0.016635383 0.066162296 -0.022931661 -0.07075548 -0.07316742
-0.023844661 0.16213028 0.07209219 -0.10839054 -0.15544221 0.029954823 -0.06392697 -0.057521153
-0.34128714 -0.07711168 0.14137317 -0.068088114 0.021320544 0.036235984 -0.123310894 -0.01181476
-0.16258335 -0.023824353 0.22948542 0.11900895 0.06188498 0.07357451 0.19247049 0.05773217
-0.21059166 0.1474028 0.07472844 0.027724566 -0.045038722 -0.04345187 0.21627967 0.17646499
-0.1666744 -0.1649143 -0.1643507 0.053804513 -0.001107217 -0.18140367 0.008974029 0.034418855
0.1234737 0.14251427 -0.0757575 -0.050160773 -0.13239741 -0.14497729 -0.125268 -0.023109788
-0.06802178 -0.035308793 0.01616891 0.18912646 0.21143264 0.23406304 0.024418332 0.09811062
0.18092963 0.111428894 -0.094773255 0.072979875 -0.0311634 0.25552794 0.13447356 -0.029326664
0.21116689 0.028595187 -0.1494272 0.07970589 0.020314787 0.032852333 0.07970726 0.016165942
-0.14684346 -0.09290476 -0.021504672 -0.0023123564

FPN.1.conv.bias f4 [4]
00000000: d386 5cb8 071e 8bb9 5bc3 4636 ed8a 13b9
-5.2577652e-05 -0.00026534518 2.961801e-06 -0.00014070766

FPN.1.bn.weight f4 [4]
00000000: e9d5 6a3f 1f36 783f c2f1 733f 118b 763f
0.9173265 0.9695758 0.9529077 0.9630595

FPN.1.bn.bias f4 [4]
00000000: 76f9 d33c 36dc 913d 703f 86bd bddb 16bc
0.025875788 0.0712208 -0.065550685 -0.009207663

FPN.1.bn.running_mean f4 [4]
00000000: 9494 24bc 863e 793c df20 55b9 c6ee 283c
-0.010045189 0.015212661 -0.00020325508 0.010310834

FPN.1.bn.running_var f4 [4]
00000000: 21d5 413f 240a 2e3e ebef e83d ca35 d93f
0.75715834 0.16996056 0.11373886 1.696954

FPN.3.conv.weight f4 [6, 4, 3, 3]
00000000: 6dec f23d 91e2 183e 241f aabc ec3a 523e
00000010: 9bbc 8fbc 0884 6f3e 3737 083e fb8d a9bc
00000020: e219 df3c 35bc 07bc cd69 6bbd 9916 2ebe
00000030: 38c3 25bd 3cd7 a13d 0401 0b3d d21c e83d
00000040: 8155 d93d 107f dc3d 3f1a 613e f851 d73d
00000050: 24e9 1ebe a555 6b3e 462e 203d 253d 8fbd
00000060: 2b83 eb3d fd02 433e fa3e bdbd 3699 dbbd
00000070: f7ab 303c 8813 eb3d 6b65 9f3a 8dd9 dbbc
00000080: 9d3f bebd 6d43 8abd da54 a2bc d547 863d
00000090: 9ec8 6dbd 06f2 3abd 82c9 0bbd 0b40 8dbd
000000a0: f633 c4bd e6fa 56bd 44cc c63d 3d8c 5a3c
000000b0: 5ff4 05be 7ced 1c3e 69a2 14be 97af cf3d
000000c0: 0e0b 833c c7d6 adbd b8be 533e 48c5 d7bd
000000d0: 3c9f 0cbe d2ee 923d b47c 07be 070c fd3d
000000e0: 1fad b33d 5fee 853d 0a76 12bd bd1e 77bd
000000f0: 6b5b 803d 2188 6e3c c7e9 433e 59f8 4ebc
00000100: bf4e cc3d 67a2 773d 4be7 253e 7d15 7d3e
00000110: 2eb5 493d ebbc 24be 30f0 323b 3e21 b53d
00000120: 163d e8bd 4390 4d3d 525a 81bd 971f 293e
00000130: a4e1 1fbe 1e6d f73d 5f16 fc3d 13c6 573e
00000140: 8128 5c3d 8f33 fe3d f7d9 1dbe e9b2 febc
00000150: 6d58 e43d 7c03 c03d b6ae 04be 8686 68bd
00000160: 8ffa 5e3e c415 05be 4d1e 32be 2fc1 67be
00000170: af99 19be a649 b5bd bdd9 823d 4d67 6d3c
00000180: f8aa d1bc 4a28 e1bd f900 87bc 9662 edbd
00000190: ebca 11be 0678 023e bc70 103e 76e9 363e
000001a0: 671c 683e db09 083e f6dc 82bd f078 c73d
000001b0: 5062 c4bd a141 0a3e 36b3 1d3c 63a7 26be
000001c0: 8515 4ebe 141d c0bc 75bd 43bd 76fa fb3d
000001d0: 5266 2d3e 6284 853e 0cc7 f63a 9f46 e93d
000001e0: 8b25 34be 473e 4c3c c3f5 4bbd 4f9d 2bbe
000001f0: 4243 d9bd 59fe 2b3e f87a b4bd 1db6 a9bb
00000200: 0610 793d eec3 aa3d 561c 15bd 2b5c fabc
00000210: 8b11 0dbe f2d7 a5bd f4b0 833e 558b afbd
00000220: 4fd1 f9bc f67e 0d3e 894b 523d 1eb1 863e
00000230: 7603 363d d36a ca3b 0ac2 f43c 2806 0bbe
00000240: 3e12 12bd 386f 113e 7bf6 fbbd d30c 033e
00000250: 3cea eebc 9bba 993e fc9b d9bd d9c3 f23d
00000260: 05ed 193e 42b1 953d f1b4 113d de66 24be
00000270: 5f5c a13d 2c26 48bd be1b 203e 622d 4abd
00000280: 6242 823e 1913 423e c521 24be 220d 3d3c
00000290: 7512 5bbd 5306 ecbd 2ebb 49be 3739 043e
000002a0: 7970 c7bd aac9 6bbd feea ea3c 4e27 f33b
000002b0: 16a2 82bc f622 aebd 7522 9f3d e202 713d
000002c0: 2aeb 943d 1211 9dbd fc87 0bbe fe19 f23d
000002d0: 5fe2 e2bd 250e e93b be7f 60be 57a9 e6bd
000002e0: 6c8a 00be 1858 c0bd f6da 94bd 457b 24bd
000002f0: 33e5 18be 3e4f 3b3d a935 953c dcbd 10be
00000300: c310 b23d 1023 003e 62e1 e5bc b113 00bd
00000310: 321e 0b3e 383b 31bd df37 e43a cc22 26bc
00000320: 12ef 83bc 4931 f0bc 0250 0fbe 5be1 fabd
00000330: ca8f 2f3e fc13 65bd badb a1bd c324 c8bd
00000340: 3279 87bd 0896 9d3d 451f 893e 8517 f23d
00000350: aa78 f63d 7333 143e c3c3 fa3d e881 133e
0.11861501 0.14930178 -0.020766802 0.2053029 -0.017545989 0.2339021 0.13302313 -0.020697584
0.027234022 -0.008284618 -0.057473946 -0.17000808 -0.04046938 0.07902381 0.033936515 0.11333622
0.10612012 0.10766423 0.21982668 0.10513681 -0.15518624 0.2298189 0.03910663 -0.06994084
0.11499628 0.19044109 -0.092405275 -0.10722582 0.010783187 0.11478335 0.0012160962 -0.026837135
-0.09289477 -0.06751142 -0.019815851 0.065566696 -0.05805265 -0.045640968 -0.03412772 -0.06896981
-0.09580223 -0.05248537 0.09706929 0.0133390995 -0.13081501 0.15324968 -0.1451508 0.10140913
0.015996482 -0.08488231 0.20678222 -0.10535675 -0.13732618 0.071744576 -0.13231164 0.1235581
0.087732546 0.06539606 -0.035757102 -0.06033205 0.062674366 0.014558823 0.19132148 -0.012632453
0.09975957 0.060457613 0.16201513 0.24715228 0.049245052 -0.16087691 0.0027303807 0.08844231
-0.11339776 0.050186407 -0.06316055 0.16515957 -0.15613419 0.12081359 0.123089544 0.21071653
0.053749565 0.12412178 -0.15415178 -0.03109117 0.111496784 0.093756646 -0.12957272 -0.056768917
0.21775268 -0.12996584 -0.17394371 -0.22632287 -0.15000032 -0.08851938 0.063891865 0.014489961
-0.02559422 -0.10994013 -0.016479956 -0.115910694 -0.14237563 0.12741098 0.14105505 0.17862496
0.22667085 0.1328501 -0.06389801 0.09739864 -0.09589064 0.13501598 0.009625247 -0.1627479
-0.20125397 -0.023451366 -0.047788102 0.12303631 0.16933563 0.26077563 0.0018827631 0.11390423
-0.17592447 0.01246602 -0.049794924 -0.16759227 -0.106085315 0.16796245 -0.08812517 -0.0051791803
0.060806297 0.08338152 -0.036403976 -0.030561527 -0.13776223 -0.08097829 0.25720942 -0.08571497
-0.030495314 0.13817963 0.051341567 0.26307005 0.044436894 0.006177285 0.029877681 -0.13576567
-0.03566193 0.14202583 -0.12302872 0.12797861 -0.029164426 0.3002518 -0.10625455 0.11853761
0.15031822 0.073092 0.03557295 -0.16054866 0.078789465 -0.04886453 0.15635583 -0.049359687
0.2544127 0.18952598 -0.16028507 0.011538776 -0.0534844 -0.11524644 -0.1970031 0.1291245
-0.09738249 -0.05756537 0.028676506 0.007420457 -0.01594643 -0.08502762 0.07770244 0.05884064
0.072714165 -0.076692715 -0.13626093 0.11821364 -0.11078333 0.007112282 -0.2192373 -0.11262768
-0.12552804 -0.093918025 -0.07268326 -0.04015662 -0.14931183 0.045729868 0.018214064 -0.14134926
0.08694603 0.12513375 -0.028061572 -0.03126878 0.13585737 -0.043269366 0.001741167 -0.010140132
-0.016105209 -0.029320376 -0.13995364 -0.122500144 0.17144695 -0.05592726 -0.07903238 -0.09772637
-0.06614913 0.07694632 0.2678167 0.11820892 0.120347336 0.14472751 0.1224437 0.14405024

FPN.3.conv.bias f4 [6]
00000000: 0e2e 78b5 5687 32b4 1acc 0f39 236e 09b5
00000010: f9df 3cb6 1a1a 51b5
-9.245422e-07 -1.6626777e-07 0.00013713576 -5.1196747e-07 -2.8144552e-06 -7.789655e-07

FPN.3.bn.weight f4 [6]
00000000: 32b8 843f 8680 8b3f da6a 8c3f 97ae 993f
00000010: 5eb3 883f b2fa 683f
1.0368712 1.0898597 1.0970109 1.2006406 1.0679739 0.9100753

FPN.3.bn.bias f4 [6]
00000000: 360c 72bc ed35 87bd 202b aebd 7ae8 603c
00000010: 7d9d 11be b327 04bd
-0.014773419 -0.066020824 -0.08504319 0.013727302 -0.14220233 -0.032264423

FPN.3.bn.running_mean f4 [6]
00000000: 9271 ac3e ed2d 003e 3484 7f3d c7f1 113d
00000010: 7bff 123e fa43 4abd
0.33680397 0.1251752 0.062381938 0.035630967 0.1435527 -0.049381234

FPN.3.bn.running_var f4 [6]
00000000: eee6 653e c4c3 683e f01a 783e 982e f73d
00000010: cf3c 663d 9624 063f
0.22451374 0.22730929 0.24229026 0.12069434 0.056210335 0.52399576

ConvLSTMLayer.cell.conv.weight f4 [32, 14, 3, 3]
00000000: 3bc5 a93d bfb2 8fbc 8cdf 05be 60f5 98bd
00000010: 0431 863c 2040 1f3d 6402 18bd e4b1 4e3a
00000020: d3cd df3d ef60 813b ec3d 843d c20d 1c3e
00000030: 17ca 683d 91d9 cf3c 9b65 763d dc05 f2ba
00000040: 0567 db3d e8d7 873e 1b80 f13c b821 bd3c
00000050: 74a1 a03d 1eb0 27bd eee0 053e b14b 033d
00000060: 774b 193e ef8e 653e a07c 813d 7e89 babd
00000070: ec41 b1bd 9866 d93d bbf4 4cbd ecac 4fbd
00000080: 1c4a a23d 412c 7ebc 9302 d03d 4d71 8a3e
00000090: b8dc bfbd 98a2 27be 6a79 193e 3ca8 9cbd
000000a0: a8a1 b33d 3421 093e 664f 163d 1112 c3bd
000000b0: 58ed f03c 790a 053e d081 a43d 9eb0 fd3d
000000c0: 4265 3bbd ef3b b43d 9c4f 7a3c 03ec 17bc
000000d0: 5900 b53d 69bf 153e c093 163a d5da ab3d
000000e0: fb6c 52bd 12e2 563d a472 de3d 4296 0d3e
000000f0: 7531 b63d 98a9 bb3d c2fa 463e 5011 88be
00000100: e2d8 4abe 5361 923c c16a 1cbe 90e1 42be
00000110: 1c44 5c3d d6c1 96bc 8e6c e7bd 3aef 83bc
00000120: 667a 303d 3d5b 5d3e 13a9 3d3b 493f a4bd
00000130: 504a c4bb 511f 44bb 4d93 2b3d df1c 933d
00000140: fad3 463d 1885 ca3d 0e91 2ebe 9718 96bd
00000150: 833c 9a3d 4e41 06be 667d 18be bf3a ef3d
00000160: 227e 133e 89d7 b0bb 0e60 05be 6afa f83c
00000170: 7c18 9c3d 9dc7 90bd f712 aebd 2e49 923c
00000180: 8f1d 55bd 61d4 2fbd 735e 44bd 6b0b 5b3c
00000190: 84ad 743d f315 473b 050b 543e 738b e43d
000001a0: 727c 19be 1021 343d 2afd c93d b027 2cbe
000001b0: 99f5 68bd 513d b7bd e7fa 68bc cc82 92bc
000001c0: dc08 6abe f120 d0bd 2190 87bc 1a69 46be
000001d0: d767 15be 19eb 64bc 5fb5 36bd d086 6f3b
000001e0: 2631 543d 019c f03c fc52 d5bd 9b20 fb3d
000001f0: 3646 eebc 5dc4 87bd 13e7 7bbe 20de bfbd
00000200: 4dce d2bd e33d 97be 2ec6 90bc fdcd 23bd
00000210: 1d72 49be e550 8b3c 4580 1fbe cd16 c43d
00000220: d7c5 b73d 48ee b3bd c9d4 f33d 85d0 9dbc
00000230: e616 073d 3c46 5b3e 62cc 373b af52 3c3d
00000240: d2ab fc3d 0c36 66bd a20a 703d f9a4 683c
00000250: 70a1 d33b d20e 0a3b ac77 ae38 435f 373d
00000260: 60ac da3d 44a4 343e 67fc 9d3d f29e 3fbe
00000270: 2b04 0a3e 0798 ee3d 82f3 36bc 7dd0 843d
00000280: b2c9 97bd bb31 35bd 7fe1 2abe ef43 6bbc
00000290: cc75 31be 7dd6 b2bd 694b 24be bf44 f8bd
000002a0: ee5c 76bc 0def b9bd a92f 17be c275 a93d
000002b0: f1da 1a3d fd46 8a3d c9a5 583e db97 a9bd
000002c0: 7609 073e 7175 9b3d c71e cf3b 5dfb c53d
000002d0: 73d2 683e b96a d33d 8b57 ac3e d13f 493e
000002e0: 99b3 9c3d 29bd 8f3e addd 1e3e 00e6 a53d
000002f0: d6c0 7d3e 6ed5 ad3d 7b05 dc3d 6037 abbc
00000300: 31d4 c5bd 0a7f e83d 520c 393d f000 8fbd
00000310: 18b0 003e 4313 b53d e5c9 b13d 3529 ed3d
00000320: 2c13 f4bc 84c7 6f3e 0045 0b3e c1cb 2d3d
00000330: d8bb 823e 4d5f a03d 3c2b 56bd 04b8 92bd
00000340: 9365 013e a20a 103e 02d1 173d 1fde 063e
00000350: 3f82 2f3e 4228 21bd d77b cf3d 190a f93d
00000360: 7d78 95be eb8e 30be 65eb a7be 17ad 38be
00000370: 63f3 e8bd dbb9 a5be 6d11 23be 7f3d 90bd
00000380: f83b 28be 06b1 163e 9cf2 123e 3b04 523e
00000390: 28d5 813d 9f35 ef3c 9d74 1f3e 50fa 0d3e
000003a0: ed14 883d bde3 f33d e519 32bd 0184 483d
000003b0: 0a54 4bbe a288 f8bc af7a e7bc 3de3 e6bd
000003c0: 9325 ffbc ccf0 2b3d a99f 9ebd 790e 83bd
000003d0: 14f8 073d 7df5 e1bc 5c17 18be b410 123e
000003e0: 077a 7d3c c94b 0ebe ac83 1a3e 64f3 b33d
000003f0: 5f89 a7bd 69c1 f43c cda8 793b 1667 ddbc
0.08289572 -0.017541287 -0.13073558 -0.074686766 0.016380794 0.038879514 -0.037111655 0.0007884784
0.1092793 0.003948323 0.06457123 0.15239623 0.056833353 0.025372298 0.060155492 -0.0018464881
0.10713009 0.2653191 0.02948003 0.023087367 0.07843295 -0.040939443 0.13074085 0.032054607
0.14970194 0.22417806 0.063225985 -0.09108256 -0.08655152 0.10615271 -0.05003808 -0.05070202
0.079242915 -0.015513481 0.10156741 0.27039567 -0.09368271 -0.16370618 0.14987722 -0.07649276
0.08771068 0.13391572 0.036696814 -0.0952493 0.02941005 0.12992276 0.08032572 0.12387203
-0.045750864 0.08800494 0.015277769 -0.009272578 0.08837957 0.14623798 0.00057440624 0.08391348
-0.051373463 0.05246169 0.1086171 0.1382685 0.08896152 0.09163207 0.19431594 -0.26575708
-0.19809297 0.017868673 -0.15275098 -0.19031358 0.05377589 -0.018402975 -0.11300002 -0.016105283
0.04308548 0.21616836 0.0028939887 -0.08019883 -0.005990304 -0.0029925893 0.041888524 0.07183241
0.048542 0.09888667 -0.17047521 -0.07328909 0.07531073 -0.1311085 -0.14891586 0.11681127
0.14403585 -0.0053967875 -0.13024923 0.030392844 0.076218575 -0.07069323 -0.08499711 0.01785716
-0.052030142 -0.04292715 -0.047941636 0.0133694215 0.05973579 0.0030378073 0.20707329 0.1115941
-0.14988878 0.043976843 0.0986274 -0.16812015 -0.056874845 -0.08947242 -0.014219976 -0.017884634
-0.22854942 -0.10162533 -0.016548218 -0.1937603 -0.14590393 -0.013972067 -0.044606563 0.003654886
0.051804684 0.029371263 -0.10416219 0.122620784 -0.029086214 -0.0662925 -0.24599867 -0.09368539
-0.10293255 -0.29539403 -0.017672624 -0.039991368 -0.19672437 0.017006347 -0.15576275 0.095746614
0.08973282 -0.08785683 0.1190582 -0.019264469 0.032980822 0.21413511 0.0028045406 0.04597729
0.123374596 -0.056203887 0.05860389 0.014199489 0.006458454 0.0021065963 8.319257e-05 0.044768583
0.10677409 0.17640787 0.077141576 -0.18712977 0.13478152 0.11650091 -0.011166455 0.064850785
-0.07411517 -0.04423688 -0.16687582 -0.014359458 -0.17330092 -0.08732317 -0.16044392 -0.12122487
-0.015036805 -0.090787984 -0.14764275 0.08274414 0.037806455 0.06751821 0.21156992 -0.08280917
0.13187203 0.075907595 0.0063208076 0.09667084 0.2273653 0.1032309 0.3366054 0.1965325
0.07651443 0.28074005 0.1551425 0.0810051 0.24780592 0.08487974 0.10743233 -0.020900428
-0.09659613 0.11352356 0.045177765 -0.06982601 0.12567174 0.088415645 0.086810865 0.11580125
-0.029794298 0.23415953 0.1360054 0.042430643 0.25533938 0.07830677 -0.052287325 -0.071640044
0.12636404 0.14066556 0.03706456 0.1317067 0.17139529 -0.039345033 0.101310425 0.12160129
-0.29193488 -0.17242019 -0.3279678 -0.18034779 -0.11374547 -0.3236836 -0.15924616 -0.070429794
-0.16429126 0.14715967 0.1435036 0.20509426 0.063394845 0.029200373 0.15571828 0.13865018
0.06644616 0.11908672 -0.043481726 0.048954014 -0.19856277 -0.03033859 -0.028256742 -0.11273811
-0.031145846 0.04197769 -0.077452965 -0.06399245 0.03319557 -0.027582878 -0.14852661 0.14264184
0.015470988 -0.13896097 0.15089291 0.087866575 -0.08180498 0.029877381 0.0038094998 -0.027026694

ConvLSTMLayer.cell.conv.bias f4 [32]
00000000: 42d7 85bd 1b60 8dbd a2e3 f23d efdd ff3c
00000010: 00f2 80bd c454 83bd 7bd6 a9bd 4321 d6bc
00000020: 3cf8 e93d 61d3 5b3e 02d9 de3d 69ed 233e
00000030: 34b4 973d 8dff 693e 9c6f 4d3d 69fd 823e
00000040: 5fb3 3d3d 48f1 84bd e72c 833d a2e0 59bc
00000050: 26fe 90bd 9303 a43d d17b abbc a230 70bc
00000060: 176c 9b3d 5a11 643d 4509 68bd 415d 343c
00000070: a1f6 62bd 6d44 dcbd f946 8f3d a3dd b53d
-0.06535198 -0.06903096 0.11859824 0.031233756 -0.06296158 -0.06412652 -0.08292862 -0.026138907
0.114243 0.21467353 0.10881235 0.16008534 0.07407418 0.22851391 0.050155267 0.25583962
0.04631364 -0.06491333 0.06405049 -0.013298186 -0.07079725 0.08008494 -0.020933064 -0.0146600325
0.07588976 0.05568061 -0.056649465 0.011008562 -0.055410985 -0.10755239 0.06995959 0.088801645

Classification.0.g.0.weight f4 [4, 8, 1, 1]
00000000: 2cf4 a438 82ee 32b8 4520 3934 981b 87b9
00000010: d62d b4b1 3110 ec29 b06b 46b7 bfea aeb8
00000020: 1069 67b3 cb9b 99b2 03b6 9639 3722 81b0
00000030: b429 28b6 715b 9436 cfaf 0cb2 4f6a 46b5
00000040: 22fa 39b9 c13b 23b8 b24a b035 2509 dbb6
00000050: 3d9f ed38 0638 dd35 6415 9232 84d2 742e
00000060: 3f61 ff33 b67b 372b 11f3 4738 138b 41b8
00000070: 5a57 c2ab 534f 6339 e17f 1631 c322 c530
7.86561e-05 -4.2660635e-05 1.7241207e-07 -0.00025769765 -5.2439004e-09 1.0483314e-13 -1.1826793e-05 -8.3406914e-05
-5.3879432e-08 -1.788239e-08 0.0002874584 -9.39571e-10 -2.5058225e-06 4.421389e-06 -8.189047e-09 -7.391545e-07
-0.00017736157 -3.891788e-05 1.3134761e-06 -6.527773e-06 0.00011330701 1.6482088e-06 1.7006364e-08 5.5666152e-11
1.1892052e-07 6.5186344e-13 4.767167e-05 -4.614431e-05 -1.3808774e-12 0.00021677958 2.1900564e-09 1.4343516e-09

Classification.0.g.0.bias f4 [4]
00000000: 1383 b628 1a9c 6839 2aad 6233 e529 eb24
2.0262903e-14 0.00022183397 5.2777217e-08 1.01985976e-16

Classification.0.W.0.weight f4 [8, 4, 1, 1]
00000000: d2b4 1b0f 6069 0116 9e8b 011d 5ec4 9d0e
00000010: 6c05 e432 d0d7 202e 63a4 b4b6 8522 04b6
00000020: 7739 02b8 ea64 5c39 0f80 58b9 1bf5 5339
00000030: f815 e136 20b7 c7b4 d81e 582f da97 29b6
00000040: 5b47 93b6 f8cb 90b7 6314 2eb6 9616 41b2
00000050: 70cb 1d34 e5b9 d435 ebb5 e631 1e99 502b
00000060: 356d 0d23 caae 29ad 4d62 fa36 f97a e22f
00000070: b045 d62d fa6b 8635 4491 aaaf b71a c5af
7.676915e-30 1.0453788e-25 1.7145188e-21 3.8892583e-30 2.6545159e-08 3.6571468e-11 -5.383555e-06 -1.9689626e-06
-3.1047934e-05 0.00021018428 -0.00020647071 0.00020213837 6.70808e-06 -3.719988e-07 1.9656043e-10 -2.5271352e-06
-4.3892483e-06 -1.7261118e-05 -2.5939887e-06 -1.1239214e-08 1.4695775e-07 1.5849333e-06 6.7145627e-09 7.410894e-13
7.666751e-18 -9.645349e-12 7.4620243e-06 4.1196538e-10 2.435993e-11 1.0015203e-06 -3.1026037e-10 -3.5853073e-10

Classification.0.W.0.bias f4 [8]
00000000: 6e0d c235 bc13 7fb4 b2fe ff29 ac2c 2339
00000010: 5065 1c38 23c0 1c37 bc7a 92b4 a204 8f39
1.4458035e-06 -2.3755905e-07 1.13684574e-13 0.00015561533 3.7287653e-05 9.34306e-06 -2.728392e-07 0.00027278537

Classification.0.W.1.weight f4 [8]
00000000: c81c 7a9e bb8e 0e1e 4c81 9c24 6b1b 94a2
00000010: 76a1 1b1f 4311 b5b7 3aaa 77a3 8c5f b422
-1.3240842e-20 7.546933e-21 6.787325e-17 -4.014451e-18 3.2956084e-20 -2.158492e-05 -1.3425944e-17 4.889026e-18

Classification.0.W.1.bias f4 [8]
00000000: fc54 2236 ed80 43b5 a54f ccb4 c0d9 7d35
00000010: fb03 2a39 0a9d 23b4 6dfe b4b6 9950 27b5
2.4189349e-06 -7.283077e-07 -3.805591e-07 9.456671e-07 0.00016213946 -1.5237688e-07 -5.394037e-06 -6.2329633e-07

Classification.0.W.1.running_mean f4 [8]
00000000: 127d b534 4901 41b2 3302 9b2a 8ff3 13b7
00000010: f8fd a7b6 637d dfb5 47e2 a4b2 79c2 29b8
3.3804878e-07 -1.1234371e-08 2.7535057e-13 -8.818591e-06 -5.0065537e-06 -1.6651287e-06 -1.9195012e-08 -4.0473857e-05

Classification.0.W.1.running_var f4 [8]
00000000: 60da 5f13 6c23 c211 fe2f 4109 65f6 e319
00000010: 1a00 b018 3ace 5213 8672 d212 47c1 991a
2.8254224e-27 3.0629634e-28 2.3254096e-33 2.3570768e-23 4.5495036e-24 2.6607404e-27 1.3281095e-27 6.3591573e-23

Classification.0.theta.weight f4 [4, 8, 1, 1]
00000000: 7c9c 57b6 5d06 aab6 5e47 8a36 4faf e12d
00000010: 3baf 8cb2 bee6 aeb7 d3e5 cb37 e7d6 c9b7
00000020: 1d26 8730 e9b4 3a2f 2a19 a7a7 04eb fcaa
00000030: 56ab 092a 4816 85ae d023 f0ae 1ed7 d9a7
00000040: 08b6 02b8 ada6 66b6 abca 8931 0de9 7537
00000050: edbf 84b5 9dfe fd30 d775 89b8 730e c32c
00000060: f654 e738 96f2 4eb6 dc78 2c38 64cb 1234
00000070: 6830 e52f b04c 28b8 f34b 4d34 95dd 8b34
-3.2128582e-06 -5.0671356e-06 4.1210287e-06 2.5657391e-11 -1.637783e-08 -2.0849864e-05 2.4306506e-05 -2.4061139e-05
9.833375e-10 1.6980874e-10 -4.6379094e-15 -4.4927267e-13 1.2227488e-13 -6.052098e-11 -1.0920298e-10 -6.046283e-15
-3.1163945e-05 -3.4369689e-06 4.0102655e-09 1.4657399e-05 -9.890624e-07 1.8480538e-09 -6.5546184e-05 5.5438375e-12
0.000110307636 -3.0837596e-06 4.1120555e-05 1.3671303e-07 4.1689252e-10 -4.0125742e-05 1.9119743e-07 2.605199e-07

Classification.0.theta.bias f4 [4]
00000000: ba95 bdb8 e627 c52c 42fe 1430 250c d421
-9.040111e-05 5.6035064e-12 5.420341e-10 1.4368893e-18

Classification.0.phi.0.weight f4 [4, 8, 1, 1]
00000000: e216 21b3 b1f1 1834 7d33 0cb6 3b28 4a39
00000010: 2d58 30b8 21e4 4fb2 d9a1 4635 1add 53b0
00000020: 7159 bdb8 42fb 3a31 1078 6c2e 57cc 6635
00000030: 1a5e 6c33 247f beb6 f82a c733 704e a2b8
00000040: 4c17 9cb4 b13e ebb6 d436 df34 5877 30b5
00000050: ee34 0b38 cf89 a530 ee2c 2239 16b1 2f37
00000060: 6960 72b4 e42e c738 eb6b 0d37 58ee a232
00000070: f426 adb4 0c97 9bb1 7dda 4f31 cf7c 71b1
-3.7506545e-08 1.424403e-07 -2.0891596e-06 0.00019279208 -4.204379e-05 -1.2100856e-08 7.399627e-07 -7.7075557e-10
-9.028882e-05 2.7209386e-09 5.3766824e-11 8.597903e-07 5.5033617e-08 -5.6772424e-06 9.2744756e-08 -7.739372e-05
-2.9074215e-07 -7.010844e-06 4.157688e-07 -6.573878e-07 3.3189477e-05 1.2044498e-09 0.00015466262 1.0472044e-05
-2.257308e-07 9.4977935e-05 8.4293815e-06 1.8967668e-08 -3.2252103e-07 -4.5282658e-09 3.024666e-09 -3.5141061e-09

Classification.0.phi.0.bias f4 [4]
00000000: 6125 53a2 491a 4f1c 260b b138 c274 c4aa
-2.861562e-18 6.852453e-22 8.442094e-05 -3.489761e-13

Classification.2.conv.weight f4 [10, 8, 2, 2]
00000000: ed87 653d 9019 c5bd 986b 00bc bb8b 8c3c
00000010: 14f8 8abe 4c97 8d3c 5631 10be 37f4 213e
00000020: 454c c0bd e205 d2bd 9fc6 fe3c a620 47be
00000030: 6a73 b83c 8240 263d 09a0 e1ba f36c 853d
00000040: 74f4 80be 5015 db3c 0b64 323e 9734 323e
00000050: a981 033d d799 543e f4b5 a43d 8885 ddbd
00000060: 5e86 5c3d 5bef d1ba c1f7 84bd c517 0c3c
00000070: 4e07 273e 9f57 0ebe 9e65 65bd 83e3 8b3d
00000080: 2dc6 3b3d 3e26 b43d e155 2bbe ecae d63d
00000090: d5aa e1bd f23a 37bc 0673 283e 3d0b 0bbe
000000a0: aa26 41be 92f2 ca3d c724 edbd 73af 183e
000000b0: b55c 0fbe 966b 703d 932c a4bd 930e a23d
000000c0: f444 d23d 0b56 26bc 2ef1 6c3d e045 45bd
000000d0: 8851 e83d 7eb6 f4bd c8d1 7fbc b93c bcbb
000000e0: 9f26 8fbb 4946 e03d c03d 873d 0117 253e
000000f0: baff 133c 63f2 9ebd c3c3 59be 2996 02bc
00000100: a5c4 a93d 3e05 b8bd 5fd5 1fbe 0a8a 313e
00000110: 5bb4 363d 8122 ccbd 94a0 e8bd 435a a93c
00000120: 9297 88bd 2638 453d 45e2 94ba 5c83 903d
00000130: 0741 b4bc d346 833c a571 8ebd ab8f 41be
00000140: a064 edbd e9e5 2e3b 7157 5dbc f597 eabd
00000150: bcef 333e fd0b 93be df0e 5c3d bd87 2a3c
00000160: eda9 2f3e d8d3 ad3d 2210 8a3d 4d28 fabd
00000170: 0872 0b3e b149 523d 01fa 10be a898 ec3d
00000180: 5673 7dbe 7874 943d 0cf2 ffbd 2a41 993b
00000190: 1de4 da3d dfbf 1cbd 0862 d43d a76a db3d
000001a0: 2627 8a3d 93fd b13c 8d7c 7b3e 4196 95bb
000001b0: 7427 9cbd a1c4 47be da45 583e 7a4b 0a3e
000001c0: 5120 e0bd fc35 303c 6278 a0bd fd7c 40bd
000001d0: dd64 e1bd 5a4e 8a3e 4a6e 2c3e 8bfa 893d
000001e0: 6c40 99bd a7cc 123e bf05 d8bd 1b91 9c3d
000001f0: fd08 843d c37e bd3b 1163 c7ba 6f39 34be
00000200: cc9c 9c3c 329c 14bd 3c9c a0bc b35e 983d
00000210: 7ee6 653d 6b9b f9bc 297f c8bd b805 2f3d
00000220: f651 b9bd edd6 043d 75f0 943e 70b7 54be
00000230: 58dd 13be 2f35 1abe d9f2 a43d 70cb 183e
00000240: ba77 e9bc 3dda 683c 5625 22be 4aeb 2f3e
00000250: 5b64 12be fac1 bc3d c693 de3d 34f4 17be
00000260: ffb1 dbbd 6f94 423c 191f 54be 2a29 473c
00000270: 726a 47bc 5eaf 0e3c 3da6 c13d df9e 35be
00000280: 1a9d 383c 0ee2 903d 6f2c f8bc 0d85 953d
00000290: af19 0e3d 1440 3f3e 9746 013e 5b16 3dbe
000002a0: 9ca8 37be 44f4 c23c 076f c6bd 3895 b63e
000002b0: f16a 00be 8364 0fbd 76c0 023d 12ba 4a3e
000002c0: c04d 8d3d e6d0 acbd b60d 1d3d a042 be3c
000002d0: 5924 253e 6fe3 bebd 456f b2bb a03c 09be
000002e0: 7cff 37be 5818 1d3e 0545 903c a177 1bbe
000002f0: 3323 b5bc 1938 5f3d 6554 f1bd 15cd 8abd
00000300: 6cfa a4bb ed4b 403c 7a8e fdbd 4bbf 1f3e
00000310: 9f51 fbbd f39a 2f3e cafc ce3d 2e0a 7abd
00000320: 97d8 55bd 58da 5c3d 751c 4c3b 185e 60bd
00000330: f65e 68bd 88d3 e93d 0c92 07be 01fb 4a3d
00000340: db2a 9cbc f5c1 793c 5c14 993d ef9b cabc
00000350: abcd 19be 3bb0 69bc 0a2d e6bd df49 7bbb
00000360: f730 983d 03ca d33d d625 ca3d 69a4 423e
00000370: 0ce6 52be 77c1 883c 6342 05be e29e 253e
00000380: e1e9 b23d ff41 533d b3c1 36be de1f 8bbc
00000390: 5120 dc3c d28b df3d bc99 03be 00ef 9e3c
000003a0: 7bb9 dd3d adbf cebc 469a 1e3b 485d a3bb
000003b0: b03f 433e 1e4c b6bd 5005 9fbe 2d1f 073e
000003c0: d226 80bc bc1d 1d3d f7d7 4c3d 63eb f6bd
000003d0: 6a01 c23d 51a9 a4bd b607 c4bd 6b05 803e
000003e0: b534 163d e715 8a3c 2ac2 19be 591e 36be
000003f0: 0a77 66be b4f7 ca3c 54d6 cf3d 042e bf3b
0.056037832 -0.09624016 -0.007838152 0.017156472 -0.27142394 0.017284058 -0.1408132 0.15815817
-0.09389547 -0.10255028 0.03110057 -0.19446048 0.022515971 0.040588863 -0.0017213832 0.06514921
-0.25186503 0.026743561 0.17420976 0.17402874 0.032106075 0.2076181 0.08042517 -0.10816485
0.05383908 -0.0016016768 -0.06492568 0.008550589 0.1631138 -0.13900612 -0.056005113 0.06830504
0.045843292 0.087963566 -0.16731979 0.104825824 -0.11018912 -0.011183487 0.16450128 -0.13578506
-0.18862405 0.09909548 -0.1157928 0.14910679 -0.14000209 0.058696352 -0.08016314 0.07912936
0.10267058 -0.01015235 0.057847194 -0.04816234 0.11343676 -0.1194887 -0.015613981 -0.0057445434
-0.0043686177 0.10950906 0.06603575 0.16122057 0.009033138 -0.07761075 -0.21266083 -0.007970371
0.0828946 -0.08985375 -0.15608738 0.17337814 0.044605594 -0.099675186 -0.11358753 0.020672923
-0.06669535 0.04814925 -0.0011358937 0.07056305 -0.022003664 0.016024983 -0.0695527 -0.18902461
-0.11591458 0.002668733 -0.013509617 -0.11454765 0.1757192 -0.28720084 0.05372512 0.010408339
0.17154665 0.084876716 0.06741358 -0.12214718 0.13617718 0.05133981 -0.14157869 0.11552554
-0.24751028 0.07248777 -0.12497339 0.0046769576 0.106880404 -0.03826892 0.103702605 0.10713702
0.06745748 0.021727359 0.24559231 -0.004565031 -0.076247126 -0.19508602 0.21120396 0.13505355
-0.10943664 0.010755058 -0.07835461 -0.046994198 -0.11005566 0.27012902 0.16838947 0.067372404
-0.074829906 0.14335881 -0.10547971 0.07644864 0.06447027 0.0057829334 -0.0015212019 -0.17600034
0.019117735 -0.036281772 -0.019605748 0.074399374 0.056128018 -0.030469617 -0.09789879 0.042730063
-0.09048836 0.03243153 0.29089704 -0.20773101 -0.14439905 -0.1505935 0.08054132 0.14921355
-0.028499473 0.014212188 -0.15834555 0.171796 -0.14296095 0.092166856 0.10868029 -0.1483925
-0.107273094 0.01187621 -0.20714988 0.01215581 -0.012171375 0.008708803 0.094555356 -0.17736386
0.011267925 0.070743665 -0.030294625 0.07300768 0.034692463 0.18676788 0.12624584 -0.18465559
-0.17935413 0.023798116 -0.096891455 0.3566072 -0.12540795 -0.035007965 0.031921826 0.19797543
0.06899595 -0.08438282 0.038343154 0.023225129 0.16127147 -0.09320723 -0.0054453933 -0.13402033
-0.17968553 0.15341318 0.017611036 -0.15182354 -0.02211151 0.05449686 -0.11783675 -0.067773975
-0.0050347354 0.011736852 -0.12380691 0.15600316 -0.12271427 0.17148952 0.101068094 -0.061044864
-0.05220851 0.053919166 0.0031144891 -0.054777235 -0.056731187 0.114172995 -0.13239306 0.049555782
-0.019063404 0.015243997 0.07474586 -0.024732558 -0.15019862 -0.014263208 -0.11239059 -0.003834359
0.07431214 0.10341265 0.09870498 0.1900803 -0.20595568 0.016693814 -0.13013606 0.1617389
0.08736015 0.05157661 -0.17847328 -0.016982969 0.026870878 0.109153405 -0.12851614 0.019401073
0.10826393 -0.025237883 0.002420084 -0.004985485 0.19067264 -0.08901237 -0.3105874 0.13195486
-0.015643511 0.038358435 0.050010648 -0.12056615 0.09472926 -0.08040107 -0.09571783 0.25004134
0.03667136 0.016856147 -0.15015474 -0.17785014 -0.22506347 0.024776317 0.10148302 0.005834343

Classification.2.conv.bias f4 [10]
00000000: 14ec aab3 ace4 7d38 c2c8 3fb3 3e8a 04b6
00000010: d0f3 2a33 6c01 8cb5 25c7 8ab9 289d 3db1
00000020: 22ae 8a35 75d4 1d34
-7.959184e-08 6.0532868e-05 -4.465324e-08 -1.975e-06 3.9802956e-08 -1.0431227e-06 -0.00026469785 -2.7592453e-09
1.033248e-06 1.4699056e-07

Classification.2.bn.weight f4 [10]
00000000: 1ce2 8a3f e79b 7e3f 24c4 783f 0ff4 8c3f
00000010: 4de1 973f 22f1 943f f5bb 843f 7d0f 903f
00000020: 4782 893f cc78 8c3f
1.0850253 0.9945664 0.97174287 1.1011981 1.1865631 1.1636088 1.036986 1.1254727
1.0742882 1.0974364

Classification.2.bn.bias f4 [10]
00000000: 31df 723c b8ad 0abe 158b 05be 73b4 b23c
00000010: fa36 1f3d c791 8bbd 0fd2 09bd 211e 81bc
00000020: a8d4 aabd 7902 75bd
0.014823721 -0.13542831 -0.13041337 0.02181456 0.03887079 -0.06814914 -0.033647593 -0.015761437
-0.08341342 -0.05981681

Classification.2.bn.running_mean f4 [10]
00000000: 9db7 eebc 1ff1 78bd d1ba f13b 3ebd 90bc
00000010: 1e1b ddbc 435e 09bb ebf7 293d d9e8 5bbd
00000020: 49ad 833d 3859 503d
-0.029140288 -0.060776826 0.0073770066 -0.017668363 -0.02699047 -0.0020960725 0.0414962 -0.053688858
0.06429536 0.050866336

Classification.2.bn.running_var f4 [10]
00000000: 2a24 d23b 7eb2 bf3b a429 943b c386 083c
00000010: 379d d83b 405b 323c e062 e73b dd6d 193c
00000020: b1b1 813c 9ddb 373c
0.0064130025 0.0058501353 0.0045215655 0.008332911 0.0066105383 0.0108860135 0.0070613474 0.009364572
0.0158318 0.0112217935

ClassificationCat.0.weight f4 [1, 250]
00000000: 8092 d4bb 2c1e 0ebd 5b2f 02bd c3c1 afbd
00000010: a834 f63d 99e3 b5bd 03f9 debb cd0a 523d
00000020: 3f41 c0bd 4620 e63b 832b 86bd e2ec f23d
00000030: 6546 e3bd 02ef 393e 4f82 5b3e 401e bbbc
00000040: 9e17 713c 8dc5 1cbd 4334 88bd 0bda a83d
00000050: c034 693d 3f4f 403d 42f1 ff3d 87fd 063e
00000060: 1efb df3c 1d8f aa3d f89f abbd 88cd 453d
00000070: f73e cdbd 24c2 83bd d7b8 a13d 86bf 8bbd
00000080: c945 d33c a883 41be bab9 563c bb45 fb3d
00000090: 2cf9 a03c 7554 6e3d bef8 afbd 5a78 0b3d
000000a0: 72d6 5a3b a5b8 d0bd 2e5a 5ebd d91d 94bd
000000b0: 03c2 9d3d ed9d 91bd c5c5 b7bc f942 a1bc
000000c0: 7224 2b3c 3c24 643d 388e 3b3d e8ce 4ebd
000000d0: 4e21 323d e3df 23bd 8a40 223e 5dea 593d
000000e0: a938 8e3c 40c5 063d eeea 1fbe 126b da3d
000000f0: db5e 053d 8843 643d c508 c63c cbab 7f3d
00000100: c1bd 9b3d 2d4c 2f3d a40a 2fbc 67d1 ddbc
00000110: 3865 383c 9e4a db3d ab2a 613e af9a f43d
00000120: 4a7f c3bd 14ac 12bd e04e 903d 00ba ce3d
00000130: f6c7 3a3e a63f e03c 5b72 603e 0497 dc3d
00000140: bbf0 9cbd 9211 033c b804 fbbc ef45 bb3c
00000150: 39ea 9fbd f1d3 343e d6af 8eba 1f18 633d
00000160: 2d56 2a3e a155 a5bd 89dc 913c 0c32 a3bd
00000170: 57f2 e0bd 1d85 f53d 3071 e1bc 5fdc 35bd
00000180: a0c9 f8bd 5c4a aa3d 19c7 e63d 5364 39bd
00000190: 3227 24bd 2745 ef3c 27ce 81bb b013 863e
000001a0: 1827 213d 085f 08be f8ce 463c a0a8 e0bd
000001b0: 1509 5d3e 5781 8fbd f65b cd3d ff7c 163d
000001c0: 72e0 cbbd 588f a43e e9b0 293d 4dbe 613c
000001d0: 8bce 3cbd 6eae e2bd 619e a83b e7ac 433e
000001e0: d43e 08be 0d26 76b9 8ecd e73d c6d3 d53c
000001f0: 5752 48bd 960d babd 2186 fc3d a2b0 393e
00000200: 6410 c7bd 36a3 a0bd 9c14 3a3e 973f 49bd
00000210: 65d9 cebc e0f7 43be fca5 e53d 370b 993d
00000220: 7ed4 c13d de58 e23d c6e1 cdbd 3e63 213d
00000230: 5faa 23bd 4579 2fbd 25b4 d6bd 6d60 dbbd
00000240: b5ba 0f3e bff0 d7bd 90f4 ddbc bb95 e23b
00000250: 2aaf 99bc 372f 093d 8984 1d3e e6a2 0bbd
00000260: 7e9d 2bbd 9ffb 1ebe e2ab 9c3d f24c 923d
00000270: 56d0 923c 2d51 d13d 857d 19be 5e6c b23c
00000280: a1b2 ef3c 51b8 573b 243c 823d 7eba a9bd
00000290: 9ab1 993d 4ca1 d23c 53fd f2bc b1c2 8d3d
000002a0: ff42 9ebd afd1 553b c52d 7c3b 70a0 05be
000002b0: ccc2 c53d ee85 27be 6107 963d 8603 453e
000002c0: e867 1cbd 78ad 3c3d c263 af3d f575 81bd
000002d0: 6557 733d 6737 703e e136 61bc 2030 1c3c
000002e0: ea8c ae3d e31d c8bb 7cc9 b4bd ed4b 863d
000002f0: fe72 47be ffe1 bc3d bd79 f83d 75f3 39bd
00000300: f28a a53d ab50 6d3e 4ae1 dfbd 5b92 21bc
00000310: 5341 c63d 5753 2a3c 3347 c5bd 92f1 aa3d
00000320: f922 15bd fe89 ab3d 5a35 253d 7e6b 1e3c
00000330: 49b8 2fbd 81a1 0a3e a748 613e ebbe 7b3d
00000340: b5c0 f8bd b321 323c a2df 923d 0b7e 26bd
00000350: f5d5 5c3e 752e b93c ed61 93bd ec0e d73b
00000360: 1a7d 163c 926e 14be 72a9 453e 4134 ecbc
00000370: df44 213d eebd e53d 35a6 ddbb 6469 253d
00000380: 98f4 103d 83aa ea3d 5efd a13b 467e 01bd
00000390: f6bd c73b 7c4a 90bd 1a72 aa3d d804 4f3e
000003a0: 22c6 1f3a 5182 b8bd d2b6 e53d c0f2 863c
000003b0: 9f60 0ebd 68dc b33d c1fa 3cbe 082f 5c3d
000003c0: 6150 413e df87 ddba 6139 bf3d dfeb 5a3d
000003d0: 40c4 e6bb ffcd 50bc f2e0 5b3d 6f1a 4b3e
000003e0: dce0 ecbd 4103 40bd
-0.0064871907 -0.034696743 -0.031783443 -0.08581879 0.12021762 -0.088813014 -0.006804587 0.05127983
-0.09387445 0.0070228903 -0.06551268 0.11861588 -0.11097411 0.1815758 0.21436428 -0.022841573
0.014715103 -0.038274337 -0.06650593 0.082447134 0.056935072 0.046950575 0.12497188 0.1318265
0.027341422 0.08328078 -0.08380121 0.048291713 -0.10021775 -0.06433514 0.078965835 -0.068236396
0.025790112 -0.18897879 0.013105804 0.122691594 0.019650064 0.058186013 -0.08592366 0.034050323
0.003339198 -0.10191468 -0.05428522 -0.072322555 0.077030204 -0.071102 -0.022433171 -0.019685255
0.010445701 0.05569862 0.045789927 -0.05049029 0.043488793 -0.040008437 0.15844932 0.053202022
0.017361002 0.032902956 -0.15616962 0.10664953 0.032561164 0.055728465 0.024174104 0.062419694
0.07604552 0.042797256 -0.010683689 -0.02707739 0.011254601 0.107075915 0.21988933 0.11943566
-0.09545763 -0.035808638 0.07046294 0.100940704 0.18240342 0.0273741 0.21918623 0.107709914
-0.07663103 0.007999795 -0.030641899 0.022860495 -0.07808346 0.17658974 -0.0010886143 0.055442926
0.16634436 -0.08072973 0.017805355 -0.0796853 -0.10983723 0.1198828 -0.027519792 -0.044399615
-0.12147832 0.08314964 0.112684436 -0.045261692 -0.040076442 0.02920778 -0.003961343 0.26186895
0.039343923 -0.13317502 0.012134306 -0.10969663 0.21585496 -0.070070915 0.10027306 0.0367403
-0.09954919 0.32140613 0.04142848 0.013778281 -0.046095412 -0.11068426 0.0051458334 0.19108926
-0.13305217 -0.00023474563 0.11318503 0.026101958 -0.04890665 -0.090846226 0.123302706 0.18133786
-0.09719923 -0.0784363 0.18171924 -0.04913291 -0.025250146 -0.19137526 0.112133 0.07472842
0.09464358 0.11052106 -0.100528285 0.039401285 -0.0399574 -0.04284026 -0.104835786 -0.10711751
0.14036067 -0.105439655 -0.027094156 0.006914822 -0.018760283 0.033492293 0.1538259 -0.0340909
-0.041898243 -0.15525673 0.076499715 0.071435824 0.017921608 0.10220561 -0.14989288 0.02178019
0.029259982 0.0032916258 0.06359127 -0.08287524 0.07504578 0.025711678 -0.02966181 0.069219
-0.07727622 0.0032626202 0.003847943 -0.13049483 0.09656295 -0.16359684 0.07325626 0.19239625
-0.03818503 0.04606387 0.08563949 -0.06321327 0.059409518 0.23458634 -0.013745994 0.009532958
0.08522971 -0.0061070784 -0.088274926 0.065574504 -0.1947746 0.09222793 0.12132595 -0.045398194
0.08083142 0.23175304 -0.10931642 -0.009861554 0.09680428 0.010395846 -0.09632721 0.08346857
-0.036410306 0.08375929 0.040334083 0.009669183 -0.042900357 0.13538171 0.22000371 0.06146137
-0.12146131 0.010872292 0.07171561 -0.040647548 0.21565993 0.02260516 -0.07196412 0.006563058
0.0091851 -0.14495304 0.1930292 -0.02883351 0.03937232 0.11217867 -0.006764198 0.04038371
0.035389513 0.11458304 0.004943534 -0.031614564 0.006095643 -0.07045457 0.083225444 0.20216691
0.0006094893 -0.09009231 0.11216511 0.016473174 -0.034760114 0.087822735 -0.1845503 0.05375579
0.18878318 -0.0016901455 0.09337116 0.0534476 -0.007042438 -0.012744426 0.05368132 0.19834302
-0.11566326 -0.046878103
