models/2023-05-18_22-42/1/pytorch/E-31_VA-0.5179_VL-169.22_TA-0.5750_TL-146.79.pt (torch, 411855 bytes, 9 tensors)

Fd2da27LSTM.weight_ih_l0 f4 [600, 17]
0.046506476 0.060109615 0.0018078882 0.007095415 0.034047104 0.07249548 -0.00051617157 0.0021375148
0.042953495 0.16321595 0.15699802 -0.038318202 0.07925372 0.023682922 0.0011367288 0.09608411
0.031802576 0.018331481 -0.06550024 -0.0032450054 0.028730743 0.04567234 -0.03307232 -0.039379057
-0.01136559 0.11835504 0.038476232 0.044488862 -0.09025365 0.04087816 0.13808525 0.014535345
-0.043309722 -0.10934708 0.016210305 0.0027279442 0.010542898 -0.01044765 0.040476248 0.07929759
0.0029848919 -0.06435552 0.0016332046 -0.045502722 0.07191211 0.06397298 0.057345152 -0.06676538
0.075777225 -0.08147732 -0.034854677 0.0733356 0.06764387 -0.03219503 0.030620169 0.0989495
0.00849582 -0.14522512 0.035722576 0.101244904 0.030916769 0.061265066 0.008110623 -0.013190453
-0.04390185 0.012125236 -0.059027858 0.0902201 -0.02338895 0.07813626 0.041453548 0.06297238
0.050670646 0.10996898 0.03686159 -0.014504221 0.030126035 -0.0006917355 -0.0045918673 -0.013960654
-0.005514597 0.04906791 0.044881504 -0.028672945 -0.028903008 -0.0027950339 0.04669738 -0.011086154
0.025689293 0.07287755 0.063215524 0.040479243 0.042596877 0.055958636 -0.0148558505 0.043699525
0.018907549 -0.033393297 0.028439282 0.08119137 -0.019541623 0.009461983 0.10916683 0.060349576
-0.120196454 0.094772376 -0.01991394 0.11897088 -0.07644371 0.022209773 0.016252363 -0.09878868
0.0061460724 0.026647996 0.08902098 0.012603148 0.07413408 0.1475706 -0.08758184 -0.06704186
0.033663623 0.0049178516 -0.023544002 -0.055207916 -0.11568488 0.059701137 0.07029386 0.0010324977
0.083360754 -0.04816669 -0.07673071 0.07920615 -0.015618061 -0.08731453 -0.0026998057 0.0030251227
0.058788426 0.009384912 -0.07085262 0.121048644 -0.04595235 0.052954547 -0.050822597 -0.059185665
0.11114941 -0.018677229 -0.001651446 0.07084329 -0.008806968 -0.028620899 0.0008321853 -0.04316639
-0.0021008463 0.01618507 -0.087334506 0.035971154 0.02958508 0.0070314747 0.08613208 0.004288392
-0.026129514 -0.07324574 -0.059272654 0.043443557 -0.017763523 -0.0011301044 -0.035361737 0.018311728
-0.036777202 -0.027622525 0.00023437459 0.011588535 0.06036347 0.03253718 0.04653399 0.016474733
0.03764457 0.02614432 -0.04250975 -0.022807974 0.058366187 0.047686577 0.01099031 0.07834596
-0.013881822 0.061013088 0.033585537 -0.053502504 -0.049522515 -0.0035257998 -0.019287964 -0.0075784754
0.0039027557 -0.030161846 -0.00048733715 0.0072635473 0.0043101213 -0.0031474442 -0.02496095 -0.009441349
-0.025188396 0.019069912 0.002511967 0.0018512834 -0.034831535 -0.08804836 -0.008397582 -0.06465062
-0.0137953665 0.033245463 -0.09292885 0.004454347 0.023300806 -0.06656144 -0.0006857905 -0.13026924
-0.047119517 -0.059848655 0.013825138 0.106122926 -0.04419278 -2.0433099e-05 0.01089575 0.008133699
0.0017717057 -0.0028101734 0.032215957 0.008016865 -0.0043597836 -0.02963169 0.020598285 0.009516771
0.0124223 0.014067724 0.023593487 -0.0141326515 0.014446631 -0.0035828024 0.033408567 -0.013538962
-0.00014636717 0.009996651 -0.027329301 0.0421831 0.029915603 -0.07949977 -0.045064583 0.001002241
0.0093731005 0.004734155 -0.028276678 -0.03157075 0.05774521 0.0012015926 -0.01260514 0.02231122
00000000: 937d 3e3d 8035 763d a9f6 ec3a a880 e83b
00000010: fa74 0b3d 8378 943d b04f 07ba 8c15 0c3b
00000020: 01f0 2f3d 1522 273e 17c4 203e 8cf3 1cbd
00000030: c64f a23d b002 c23c 4afe 943a bfc7 c43d
00000040: 6b43 023d e72b 963c fd24 86bd 28aa 54bb
00000050: bc5c eb3c eb12 3b3d d776 07bd ef4b 21bd
00000060: bd36 3abc 2164 f23d 4199 1d3d f439 363d
00000070: e8d6 b8bd dc6f 273d 3866 0d3e a825 6e3c
00000080: 8965 31bd 5df1 dfbd 79cb 843c 4fc7 323b
00000090: 1fbc 2c3c 9f2c 2bbc 6cca 253d c666 a23d
000000a0: 2d9e 433b d4cc 83bd 4111 d63a 1061 3abd
000000b0: a846 933d 4404 833d c0e2 6a3d 4abc 88bd
000000c0: 1731 9b3d 95dd a6bd c7c3 0ebd fa30 963d
000000d0: df88 8a3d f0de 03bd 26d7 fa3c 09a6 ca3d
000000e0: 0d32 0b3c e5b5 14be d651 123d 7d59 cf3d
000000f0: 2a45 fd3c 14f1 7a3d 6be2 043c c51c 58bc
00000100: 6dd2 33bd eda8 463c 32c7 71bd 51c5 b83d
00000110: 2f9a bfbc e705 a03d 32cb 293d aaf7 803d
00000120: 068c 4f3d 6b37 e13d 2efc 163d 1da3 6dbc
00000130: e0ca f63c 9555 35ba 6077 96bb 3abb 64bc
00000140: cbb3 b4bb 6ffb 483d abd5 373d 86e3 eabc
00000150: 00c6 ecbc e32c 37bb c045 3f3d b3a2 35bc
00000160: 5a72 d23c d340 953d 2477 813d 90cd 253d
00000170: 107a 2e3d e234 653d f465 73bc 46fe 323d
00000180: 01e4 9a3c 69c7 08bd 7ff9 e83c a947 a63d
00000190: c115 a0bc 6f06 1b3c dc92 df3d 1e31 773d
000001a0: 8f29 f6bd 0518 c23d 8f22 a3bc 01a7 f33d
000001b0: 858e 9cbd 45f1 b53c ad23 853c b851 cabd
000001c0: fe64 c93b e64c da3c a250 b63d 6f7d 4e3c
000001d0: 9cd3 973d bf1c 173e 1c5e b3bd 3e4d 89bd
000001e0: dee2 093d ee25 a13b 5adf c0bc b221 62bd
000001f0: 32ec ecbd 2e89 743d 3af6 8f3d e054 873a
00000200: 0bb9 aa3d 6f4a 45bd fe24 9dbd d536 a23d
00000210: e5e2 7fbc f6d1 b2bd 39ef 30bb 2341 463b
00000220: 22cc 703d 2dc3 193c 2e1b 91bd 5ae8 f73d
00000230: 8838 3cbd dee6 583d 5b2b 50bd ab6c 72bd
00000240: 4da2 e33d fd00 99bc 5575 d8ba 4916 913d
00000250: 1a4b 10bc 6076 eabc 0327 5a3a 3ecf 30bd
00000260: 5aae 09bb 8d96 843c 6fdc b2bd 7d56 133d
00000270: 695c f23c 4968 e63b 0466 b03d a485 8c3b
00000280: 900d d6bc dd01 96bd e2c7 72bd dff1 313d
00000290: cf84 91bc 0320 94ba 78d7 10bd 7a02 963c
000002a0: b1a3 16bd a248 e2bc 73c2 7539 d7dd 3d3c
000002b0: b03f 773d b545 053d 6d9a 3e3d 05f6 863c
000002c0: 3131 1a3d 9d2c d63c b41e 2ebd cad7 babc
000002d0: 6211 6f3d 0053 433d b410 343c d973 a03d
000002e0: 9570 63bc dce8 793d fd90 093d 7125 5bbd
000002f0: 1fd8 4abd 1b11 67bb cb01 9ebc dc54 f8bb
00000300: 60c5 7f3b fa15 f7bc 4981 ffb9 0d03 ee3b
00000310: eb3b 8d3b 5a45 4ebb e87a ccbc e3af 1abc
00000320: e557 cebc 8138 9c3c d09f 243b c3a6 f23a
00000330: 83ab 0ebd b352 b4bd 0396 09bc 8b67 84bd
00000340: f605 62bc 652c 083d 7b51 bebd c5f5 913b
00000350: 55e1 be3c 5d51 88bd 9fc6 33ba 4d65 05be
00000360: 6500 41bd dd23 75bd d582 623c fa56 d93d
00000370: 7d03 35bd bf67 abb7 1684 323c 3543 053c
00000380: 9438 e83a e32a 38bb e1f4 033d 2b59 033c
00000390: 84dc 8ebb 28be f2bc bcbd a83c 3bec 1b3c
000003a0: e786 4b3c 507c 663c 2147 c13c a38c 67bc
000003b0: 90b1 6c3c 73cd 6abb 6cd7 083d 86d2 5dbc
000003c0: 237a 19b9 fec8 233c b3e1 dfbc 30c8 2c3d
000003d0: 9111 f53c c7d0 a2bd a495 38bd a15d 833a
000003e0: a291 193c f820 9b3b 7ea4 e7bc 5550 01bd
000003f0: 3e86 6c3d c27e 9d3a ca85 4ebc 05c6 b63c

Fd2da27LSTM.weight_hh_l0 f4 [600, 150]
0.046437483 -0.0052578826 0.04234733 0.03920621 -0.08317265 0.046551447 0.010631208 -0.028698158
-0.0031604813 0.035035945 0.04243927 0.03370387 -0.006876833 0.009490058 0.08990202 0.1097546
0.01911524 0.079968266 -0.03531223 0.03138719 -0.066220306 0.0016264766 0.058504675 0.050788388
-0.0081915045 0.007849475 0.006000263 0.026038995 -0.009013767 0.04753177 0.059773386 -0.0027669782
0.011581816 0.0571593 -0.031037332 0.026981281 0.005392894 0.010621532 -0.055779498 -0.04159797
-0.025466599 0.058533035 0.026688559 -0.012026585 -0.094913736 -0.0112719955 0.011962931 0.07531345
-0.027464233 0.005510729 -0.018488599 0.01169243 0.038205884 0.068253405 -0.0016810428 -0.03205584
0.011021681 0.010132599 -0.03141906 -0.055172462 -0.082217984 -0.009045252 0.0024140468 -0.06464069
-0.06490708 -0.056148857 -0.040945966 -0.04824997 -0.013453129 -0.042512488 0.006831779 -0.009223225
0.027794717 0.016715243 0.01839781 0.0026220675 -0.020977918 0.05551187 -0.04839529 -0.015682446
-0.05568087 -0.06266267 0.008786446 0.01603908 -0.017234057 0.073143475 0.017895274 -0.06707246
0.0027396663 -0.014715486 -0.05320524 -0.045919634 -0.0156119615 0.06802287 0.019915713 -0.008904208
0.04598553 -0.02770301 0.05242939 0.04426446 -0.048233826 -0.008331449 0.011433932 -0.00931846
0.04852185 -0.04226297 -0.030025749 0.014465513 0.0009860755 0.04274728 0.027916068 0.020956043
0.06580574 -0.017085858 0.0265677 0.021489909 -0.000577871 -0.010383346 0.091593154 -0.016815072
-0.021298386 0.0329038 0.048125155 0.008647649 0.03131105 -0.02255088 0.0035507272 0.015294536
-0.03115431 0.008931455 0.032890733 0.009234447 0.050090265 0.044582915 -0.0033625292 -0.028432686
-0.0803625 0.023908608 0.025206685 0.042654127 0.0200629 -0.027565394 -0.004319344 0.06414478
-0.020817455 0.058562614 -0.001676863 -0.0334811 0.030262211 0.040908083 0.015238676 -0.03536535
0.010948422 0.025021244 -0.012517881 0.023808068 0.005618691 0.0071316147 -0.028869363 -0.07302429
-0.059178192 -0.055966545 -0.040325765 0.035845015 -0.068935975 0.018107437 -0.0015543534 0.036324054
-0.0035086346 -0.018155212 0.018378345 0.04935311 0.014538943 0.03742829 0.011832746 -0.007954006
0.053742222 0.05410141 0.036852773 -0.03725777 -0.023986021 -0.04358363 -0.038159706 0.03108241
0.014939011 0.006216778 0.03652896 -0.013103686 -0.010799125 0.07857301 0.0035157376 -0.019828614
0.007919462 0.04283008 -0.047461372 0.0475819 0.055603284 0.02271382 -0.047755998 0.024248652
-0.057998758 0.027538609 -0.057273444 -0.058694188 0.03809801 0.04030595 0.00026582077 -0.004792972
0.01085227 -0.028520307 0.013515507 0.07244003 0.008422864 -0.07158303 0.017494516 0.03585926
-0.037771527 -0.028699975 0.016509611 0.021626383 0.040979832 -0.01907624 -0.019194998 -0.07347398
0.016892975 0.0690785 0.06409976 -0.03808016 0.06580614 -0.031521868 0.0057069925 0.05365006
0.014983683 -0.08797189 0.103789 -0.003566376 -0.066009365 -0.03782683 0.038432747 0.06296864
-0.08822215 0.051208157 -0.011617668 0.06389235 -0.017948838 0.026230061 0.015146036 -0.099454544
0.0042983913 -0.06591852 -0.06687225 -0.07024678 0.06851163 -0.018324282 0.09718949 -0.010130187
00000000: 3b35 3e3d 514a acbb 6574 2d3d b196 203d
00000010: 6c56 aabd bbac 3e3d 852e 2e3c 6618 ebbc
00000020: 1420 4fbb da81 0f3d cdd4 2d3d 120d 0a3d
00000030: 0e57 e1bb 307c 1b3c 8d1e b83d 05c7 e03d
00000040: 9097 9c3c 67c6 a33d 8fa3 10bd db8f 003d
00000050: 839e 87bd 802f d53a 99a2 6f3d 7c07 503d
00000060: a935 06bc 169b 003c db9d c43b bb4f d53c
00000070: 7bae 13bc acb0 423d f0d4 743d 3156 35bb
00000080: a8c1 3d3c df1f 6a3d 0142 febc d907 dd3c
00000090: e0b6 b03b ef05 2e3c 0b79 64bd a262 2abd
000000a0: 549f d0bc 56c0 6f3d f7a1 da3c 270b 45bc
000000b0: 2262 c2bd 2dae 38bc 2b00 443c f03d 9a3d
000000c0: acfc e0bc 5893 b43b 6775 97bc 9b91 3f3c
000000d0: c67d 1c3d 71c8 8b3d 7056 dcba fc4c 03bd
000000e0: 4894 343c 3303 263c 46b1 00bd 85fc 61bd
000000f0: e761 a8bd 8932 14bc fc34 1e3b 5762 84bd
00000100: 01ee 84bd 58fc 65bd f5b6 27bd c3a1 45bd
00000110: 836a 5cbc 9321 2ebd 1edd df3b 021d 17bc
00000120: bfb1 e33c 68ee 883c 01b7 963c fed6 2b3b
00000130: e2d9 abbc 6a60 633d 243a 46bd 7978 80bc
00000140: a011 64bd 4955 80bd 07f5 0f3c 6464 833c
00000150: 702e 8dbc 3fcc 953d 1c99 923c 495d 89bd
00000160: f98b 333b 3919 71bc bded 59bd 3a16 3cbd
00000170: 50c9 7fbc 934f 8b3d 4726 a33c f5e2 11bc
00000180: 535b 3c3d 6cf1 e2bc 33c0 563d a74e 353d
00000190: d590 45bd a180 08bc 6355 3b3c 74ac 18bc
000001a0: d9be 463d f01b 2dbd 8ff8 f5bc c200 6d3c
000001b0: 343f 813a c617 2f3d 3db0 e43c 02ac ab3c
000001c0: 29c5 863d a4f7 8bbc 81a4 d93c 9b0b b03c
000001d0: 447c 17ba e91e 2abc 3195 bb3d c3bf 89bc
000001e0: f479 aebc 23c6 063d e21e 453d deae 0d3c
000001f0: 0440 003d a0bc b8bc 51b3 683b ef95 7a3c
00000200: 5337 ffbc 3d55 123c 6fb8 063d 144c 173c
00000210: 732b 4d3d 939c 363d e15d 5cbb aaeb e8bc
00000220: 1895 a4bd fcdb c33c 407e ce3c 18b6 2e3d
00000230: f35a a43c d2d0 e1bc 4989 8dbb 575e 833d
00000240: 5e89 aabc 5adf 6f3d 2fca dbba 7a23 09bd
00000250: 75e8 f73c 3c8f 273d a4ab 793c 42db 10bd
00000260: 0361 333c 5af9 cc3c cc17 4dbc 2309 c33c
00000270: ff1c b83b 52b0 e93b 717f ecbc c28d 95bd
00000280: d564 72bd 2d3d 65bd a12c 25bd 39d2 123d
00000290: 4e2e 8dbd 0c56 943c 72bb cbba 88c8 143d
000002a0: 1ff1 65bb 3dba 94bc 2f8e 963c 7d26 4a3d
000002b0: bf34 6e3c 684e 193d 22de 413c 8551 02bc
000002c0: ce20 5c3d 7199 5d3d eff2 163d 9a9b 18bd
000002d0: 557e c4bc c084 32bd 5a4d 1cbd 8aa0 fe3c
000002e0: c1c2 743c 1db6 cb3b 649f 153d d8b0 56bc
000002f0: d0ee 30bc e3ea a03d 4a68 663b 9e6f a2bc
00000300: a2c0 013c 986e 2f3d db66 42bd 3de5 423d
00000310: 45c0 633d 5512 ba3c cb9b 43bd 1ca5 c63c
00000320: 1b90 6dbd a698 e13c 8f97 6abd 5169 70bd
00000330: a90c 1c3d da17 253d dc5d 8b39 5d0e 9dbb
00000340: b8cd 313c 6ba3 e9bc 2570 5d3c 705b 943d
00000350: 0d00 0a3c 209a 92bd a950 8f3c 29e1 123d
00000360: 51b6 1abd 361c ebbc 2a3f 873c d029 b13c
00000370: 78da 273d c645 9cbc d43e 9dbc 8779 96bd
00000380: 2363 8a3c 0779 8d3d bc46 833d f1f9 1bbd
00000390: 5fc5 863d 131d 01bd b901 bb3b 2ac0 5b3d
000003a0: 1f7e 753c 9b2a b4bd 548f d43d dcb9 69bb
000003b0: eb2f 87bd 4ef0 1abd a86b 1d3d b4f5 803d
000003c0: d1ad b4bd a5bf 513d 0858 3ebc fed9 823d
000003d0: 7109 93bc 6de0 d63c 1427 783c d3ae cbbd
000003e0: 85d9 8c3b 4a00 87bd 51f4 88bd 8bdd 8fbd
000003f0: d34f 8c3d ce1c 96bc 490b c73d 15f9 25bc

Fd2da27LSTM.bias_ih_l0 f4 [600]
0.007017644 -0.016443778 0.005607198 -0.0038553043 -0.005557571 0.0023606233 -0.021731623 -0.0060178
-0.002449552 0.01126805 -0.011064332 -0.0068766824 -0.006204105 0.005835353 -0.0045860317 -0.012846692
0.012952533 0.03572445 0.0027769846 0.022037132 0.012833773 0.014404355 0.023537418 -0.0050081583
0.005537779 -0.007955902 -0.0063576596 0.015199075 0.0135905715 0.026583757 -0.012141526 0.0013355666
-0.001494482 0.0075960713 0.005340568 -0.0038807183 -0.00882716 0.009136722 0.0057064774 0.016367706
0.0061850282 0.0024906397 0.015918339 -0.016042732 -0.010068749 0.0045348145 -0.007637266 0.010858046
-0.012015416 0.01964018 0.003486923 -0.0038250003 -0.0022638328 0.0018146576 0.018061154 0.025204245
-0.004622567 -0.012777847 -0.008812956 0.030844579 0.034789324 0.020140745 -0.004454665 -0.0116218515
0.010965349 -0.017656304 -0.0073818984 -0.0067110616 -0.005548064 0.0070489533 0.026763247 0.024550714
0.026505603 0.010852717 -0.0042339847 -0.00040130818 0.02094906 0.018677933 -0.017816255 0.00434468
0.023632279 -0.004778088 0.030326305 0.018309278 0.011842314 0.022604903 3.339207e-05 0.027974274
-0.0020817216 0.031371824 -0.03958887 -0.0016705592 -0.012278477 -0.014745951 0.018994316 -0.011509774
0.03114161 0.019203877 0.013165955 0.020506421 -0.0072250506 0.022778615 -0.0029276258 0.00023796846
-0.0012214303 0.003972729 -0.004260664 0.023516709 0.019377455 -0.010853179 0.02623819 0.00434082
0.033377424 0.0041767526 0.002691585 0.028527796 0.0029308272 0.0051867734 -0.012687923 -0.0005685358
0.015627071 -0.009026754 -0.0018754357 -0.0015487408 -0.0036225233 -0.0057006762 -0.0060272403 0.006150603
0.02116281 -0.0085681295 0.025958722 -0.0034000594 0.0003015742 0.011262574 -0.025102632 0.0024721327
0.02388843 0.007356326 0.0047824867 -0.011745718 0.013522743 0.00011713912 0.015230623 0.009409873
-0.00968212 -0.011441956 0.0180996 0.025908481 -0.0033573643 0.017861618 -0.027134318 0.03814748
0.016940948 -0.0028878625 0.004907779 0.010906226 0.033592176 -0.0025502015 0.033120424 -0.005290406
0.02884266 0.004468079 0.0055720373 -0.0070241326 0.005505258 -0.008130923 0.0063965167 0.047831777
-0.00330563 -0.009653023 0.020708285 -0.0022584917 0.0033974529 0.010405937 0.022976052 0.005023341
0.009705411 0.0016230734 -0.00507462 0.029842004 0.066332795 0.05749569 0.010313771 -0.005530415
-0.0053422926 0.008090946 -0.005993784 -0.008013945 0.04458414 0.014502056 0.0008813085 0.0037994247
-0.022001468 -0.022961935 -0.011118177 0.00623333 -0.0033732164 0.02414532 0.030718917 0.022685602
-0.00015889764 0.005226677 0.020744706 -0.010104702 0.068840384 -0.014693344 -0.008583601 -0.007444816
0.081194 0.009768485 -0.026729546 0.016867591 -0.0018819144 0.04824706 0.037417553 0.007861806
0.0016333476 -0.0056706937 0.011739861 -0.0038132283 0.02748765 -0.020262666 -0.03894557 0.029889641
-0.0022985542 0.0031825027 0.030021321 -0.004175402 -0.0064677247 -0.02028827 -0.002183543 0.015468517
-0.01274423 -0.0069287657 0.039790656 -0.010507283 0.00094073603 -0.00096202927 0.0067073377 -0.028387303
0.087363966 0.011819368 -0.0009922021 -0.0044512134 0.012824797 -0.0038280445 0.03494502 -0.01612224
-0.0017610859 -0.021590404 -0.00070224423 -0.029842736 0.0058944332 -0.002776563 0.010529976 -0.010890578
00000000: 44f4 e53b 1ab5 86bc 96bc b73b 46a9 7cbb
00000010: 491c b6bb b0b4 1a3b 8406 b2bc f730 c5bb
00000020: aa88 20bb a19d 383c 2c47 35bc cb55 e1bb
00000030: ce4b cbbb 7d36 bf3b 6c46 96bb ef7a 52bc
00000040: dc36 543c cd53 123d 12fe 353b 3787 b43c
00000050: bf44 523c 3e00 6c3c 8bd1 c03c 7a1b a4bb
00000060: 4276 b53b 7959 02bc ea53 d0bb 8b05 793c
00000070: fdaa 5e3c 2ec6 d93c 40ed 46bc 2e0e af3a
00000080: 7fe2 c3ba 77e8 f83b eeff ae3b a653 7ebb
00000090: cb9f 10bc 31b2 153c 67fd ba3b 9115 863c
000000a0: c7ab ca3b 003a 233b 2d67 823c 0c6c 83bc
000000b0: 65f7 24bc c898 943b 0842 fabb f2e5 313c
000000c0: 4fdc 44bc 71e4 a03c dc84 643b dbac 7abb
000000d0: d05c 14bb ced9 ed3a fcf4 933c 2279 ce3c
000000e0: e778 97bb 2d5a 51bc 3764 10bc c5ad fc3c
000000f0: 407f 0e3d 34fe a43c 70f8 91bb 9469 3ebc
00000100: 02a8 333c f4a3 90bc dae3 f1bb 77e8 dbbb
00000110: 89cc b5bb e8fa e63b 993e db3c 941e c93c
00000120: 4722 d93c 98cf 313c 3dbd 8abb ac66 d2b9
00000130: 5d9d ab3c 7702 993c 65f3 91bc d15d 8e3b
00000140: 7b98 c13c 8291 9cbb df6e f83c 57fd 953c
00000150: 4406 423c eb2d b93c 760e 0c38 4e2a e53c
00000160: 7e6d 08bb be7f 003d f027 22bd aaf6 daba
00000170: aa2b 49bc 0099 71bc f899 9b3c 7e93 3cbc
00000180: b11c ff3c 7351 9d3c 05b6 573c 15fd a73c
00000190: 1ec0 ecbb 389a ba3c 69dd 3fbb 2c87 7939
000001a0: 6618 a0ba ab2d 823b 0a9d 8bbb 1da6 c03c
000001b0: 78bd 9e3c 88d1 31bc 79f1 d63c 703d 8e3b
000001c0: c4b6 083d 24dd 883b 4e65 303b 20b3 e93c
000001d0: 1f13 403b cff5 a93b 02e1 4fbc cb09 15ba
000001e0: 5804 803c f3e4 13bc 2ed1 f5ba 1eff caba
000001f0: db67 6dbb bdcc babb 2880 c5bb ff8a c93b
00000200: a15d ad3c 5761 0cbc 63a7 d43c 88d3 5ebb
00000210: 9b1c 9e39 a986 383c 09a4 cdbc 8103 223b
00000220: abb1 c33c 560d f13b 68b6 9c3b 1d71 40bc
00000230: 7f8e 5d3c 96a8 f538 dd89 793c de2b 1a3c
00000240: c1a1 1ebc 0b77 3bbc 9d45 943c 063e d43c
00000250: 3a07 5cbb 8752 923c ca48 debc 8840 1c3d
00000260: bec7 8a3c 4b42 3dbb 6fd1 a03b 07b0 323c
00000270: f397 093d 4821 27bb 48a9 073d 245b adbb
00000280: 7147 ec3c f768 923b a395 b63b b22a e6bb
00000290: 7465 b43b 9037 05bc df99 d13b 41eb 433d
000002a0: 45a3 58bb b727 1ebc 6ca4 a93c 3403 14bb
000002b0: cda7 5e3b aa7d 2a3c 4638 bc3c d79a a43b
000002c0: 7203 1f3c 4ebd d43a ff48 a6bb 3877 f43c
000002d0: 7dd9 873d 9a80 6b3d 17fb 283c 7c38 b5bb
000002e0: 660e afbb e38f 043c 8167 c4bb ec4c 03bc
000002f0: dc9d 363d 089a 6d3c 9d07 673a c5ff 783b
00000300: 6c3c b4bc ab1a bcbc 0429 36bc f640 cc3b
00000310: 2e11 5dbb 68cc c53c 3da6 fb3c 28d7 b93c
00000320: c39d 26b9 8b44 ab3b cdf0 a93c 318e 25bc
00000330: 30fc 8c3d 5abc 70bc 3ba2 0cbc a5f3 f3bb
00000340: 0a49 a63d ff0b 203c ecf7 dabc e72d 8a3c
00000350: 92aa f6ba b69e 453d 2643 193d cece 003c
00000360: 0d16 d63a 3ad1 b9bb 8c58 403c 5be7 79bb
00000370: c82d e13c e4fd a5bc 6485 1fbd 1fdb f43c
00000380: 57a3 16bb 8991 503b 46ef f53c d0d1 88bb
00000390: 35ef d3bb 9633 a6bc c619 0fbb aa6f 7d3c
000003a0: 2dcd 50bc b30a e3bb 87fb 223d bd26 2cbc
000003b0: ba9b 763a b130 7cba 3ac9 db3b 7d8c e8bc
000003c0: e1eb b23d 06a6 413c c70c 82ba 7cdb 91bb
000003d0: 191f 523c eedf 7abb 8222 0f3d ca12 84bc
000003e0: 3dd4 e6ba 5cde b0bc d016 38ba c178 f4bc
000003f0: 1726 c13b fff6 35bb ec85 2c3c 656e 32bc

Fd2da27LSTM.bias_hh_l0 f4 [600]
0.023033625 -0.033417102 0.011559178 0.003203599 -0.0005920554 0.025141882 -0.0050367257 -0.011072857
-0.0518536 0.008591208 0.008364043 -0.0071053896 -0.0056418735 0.008772755 -0.0024959573 -0.006017763
0.013631886 0.04043864 -0.003940348 0.02687083 0.013070922 0.017919298 0.030936973 0.00490482
-0.0050481725 -0.016330428 -0.0029220544 0.014251352 0.012549585 0.028129024 -0.005562261 -0.009471845
0.002935604 0.0093876505 0.0060008294 -0.0065226345 -0.009170996 -0.010596096 0.019123552 0.01379347
0.005178314 0.0003123085 0.019612886 -0.032562338 0.0006836149 0.0040849214 0.009126528 0.014948477
-0.011111008 0.020838697 0.002789469 -0.003783017 0.00032866703 0.003993318 0.002205282 0.027566483
-0.005201492 -0.0027333894 0.017694779 0.018700143 0.025861712 0.0044521694 -0.0056957793 0.0142322965
0.0163996 -0.013915854 -0.007362496 -0.00042184207 -0.00500979 0.0048129824 0.011286452 0.030156992
0.026823016 0.001879309 -0.0044576796 -0.0040436517 0.0030382231 -0.0020224114 -0.018162189 0.004695358
0.012333834 -0.015813468 0.022555608 0.019302988 0.014882023 0.0050716368 0.0029689486 0.025085473
0.000868848 -0.007950299 -0.10779157 -0.0076128687 -0.017557906 -0.008006645 0.030990444 -0.008311007
0.024756854 0.021567548 0.013197742 0.018031782 -0.007381183 0.021752952 0.010851242 0.0017706875
0.0073555848 0.0076861735 0.0027690462 0.034228235 0.016261145 -0.011096265 0.022983093 0.0056264214
0.037492555 0.0040512406 -0.018474028 0.019821046 0.0011717337 -0.005480903 0.01862841 0.0069589727
0.01542355 -0.009193376 0.0007454758 -0.019347357 -0.0034066883 0.0004034304 -0.010103902 0.0058802427
0.016357275 -0.009015336 -0.00015343049 0.00067207095 -0.024136068 0.012908829 0.01721353 0.0016325063
0.022469198 0.010293134 -0.015039736 -0.012712467 0.040336054 -0.0015878486 0.015349858 -0.016095808
-0.009479241 -0.0027217432 0.008129634 0.006154043 -0.0095505705 0.01731672 -0.008959972 0.040499214
0.029512977 -0.0028925429 0.021282434 0.024575938 0.017371252 -0.007818422 0.06497918 0.051581796
0.057011478 0.0034028874 0.022936432 -0.007454255 -0.0011299503 -0.00014581213 0.0062055243 0.017210476
0.0011481092 -0.009650882 0.019788856 -0.00306306 -0.0033191137 0.007968097 -0.0045170444 -0.008778597
0.0047478797 0.0026963 -0.0050049233 0.045667317 0.013327598 0.014178033 -0.0016769165 -0.004558893
-0.0040346202 0.008911895 -0.0018489364 0.00528671 0.0409037 0.00693304 0.0104347365 0.002898576
-0.0050972635 0.014065038 0.061779033 0.0044630137 0.014965033 -0.008234375 0.0218099 0.00019609812
-0.0013479311 0.0054050237 0.018653153 -0.012646028 0.07089044 -0.017964704 -0.008743324 0.019586483
0.010160058 -0.013385649 -0.030190289 0.010265567 -0.0072383317 0.040839944 0.012717472 0.001966575
0.006943064 0.0035129695 0.013419095 -0.019317858 0.0039437786 0.018739162 -0.026405964 0.052422356
-0.003284658 -0.029349595 0.040593807 -0.02028332 -0.0066955676 0.07775936 0.009223863 0.010442791
0.025967062 1.55306e-05 0.03417278 0.011961235 -0.0020194761 0.038049705 0.006449515 0.05265753
0.13971145 0.018231489 -0.0033830612 0.0375253 0.06160567 -0.0039677625 0.016610848 -0.013165042
-0.014977462 0.01770023 -0.0006789667 -0.02068977 0.005368288 -0.001618601 0.06785717 -0.015963713
00000000: 03b1 bc3c 5fe0 08bd b562 3d3c 79f3 513b
00000010: 2a34 1bba 59f6 cd3c 1e0b a5bb ee6a 35bc
00000020: 7164 54bd 23c2 0c3c 5709 093c 54d4 e8bb
00000030: 77df b8bb 9abb 0f3c 3793 23bb a830 c5bb
00000040: 4658 5f3c fda2 253d 091e 81bb 3720 dc3c
00000050: 6c27 563c 7ecb 923c 896f fd3c 9db8 a03b
00000060: 246b a5bb 64c7 85bc f07f 3fbb 817e 693c
00000070: c69c 4d3c d76e e63c a143 b6bb cc2f 1bbc
00000080: 4363 403b a9ce 193c 9ba2 c43b d3bb d5bb
00000090: f241 16bc 3f9b 2dbc ffa8 9c3c 02fe 613c
000000a0: d9ae a93b 56bd a339 34ab a03c 1660 05bd
000000b0: 9f34 333a ceda 853b 6f87 153c 75ea 743c
000000c0: f20a 36bc eab5 aa3c 86cf 363b 7eec 77bb
000000d0: f150 ac39 61da 823b 7e86 103b 1bd3 e13c
000000e0: 4771 aabb aa22 33bb a4f4 903c 0b31 993c
000000f0: f1db d33c 81e3 913b a9a3 babb 942e 693c
00000100: 7458 863c 52ff 63bc 1841 f1bb af2a ddb9
00000110: 2a29 a4bb 39b6 9d3b d0ea 383c cc0b f73c
00000120: f1bb db3c 2553 f63a ba11 92bb 9c80 84bb
00000130: ed1c 473b 6f8a 04bb dfc8 94bc 85db 993b
00000140: d913 4a3c 3f8b 81bc 8ac6 b83c 4d21 9e3c
00000150: bbd3 733c f92f a63b b192 423b 0d80 cd3c
00000160: 67c3 633a f941 02bc d4c1 dcbd 5f75 f9bb
00000170: 99d5 8fbc 4e2e 03bc acdf fd3c e42a 08bc
00000180: e3ce ca3c 6dae b03c 583b 583c 63b7 933c
00000190: dadd f1bb 3f33 b23c 68c9 313c 6a16 e83a
000001a0: 1e07 f13b 4cdc fb3b e378 353b e832 0c3d
000001b0: 1836 853c 1ccd 35bc 0a47 bc3c d85d b83b
000001c0: cb91 193d 45c0 843b d856 97bc bf5f a23c
000001d0: dc94 993a 2699 b3bb 9b9a 983c 1808 e43b
000001e0: 0fb3 7c3c d09f 16bc 096c 433a 597e 9ebc
000001f0: bf42 5fbb 8383 d339 d68a 25bc 0daf c03b
00000200: b1ff 853c 0fb5 13bc 2fe2 20b9 eb2d 303a
00000210: 01b9 c5bc 8e7f 533c 6403 8d3c d2f9 d53a
00000220: 5311 b83c 88a4 283c 3a69 76bc f447 50bc
00000230: 6b37 253d 5c1f d0ba f97d 7b3c 5bdb 83bc
00000240: d24e 1bbc 465f 32bb 2832 053c dba7 c93b
00000250: ff79 1cbc cbdb 8d3c d9cc 12bc 81e2 253d
00000260: 33c5 f13c d190 3dbb 8058 ae3c 7a53 c93c
00000270: 284e 8e3c d718 00bc ce13 853d 6f47 533d
00000280: de84 693d fa02 5f3b 2fe5 bb3c d342 f4bb
00000290: d71a 94ba 25e5 18b9 b657 cb3b fcfc 8c3c
000002a0: 277c 963a bc1e 1ebc 3d1c a23c 9fbd 48bb
000002b0: 7d85 59bb 9f8c 023c b703 94bb 1bd4 0fbc
000002c0: 1a94 9b3b 68b4 303b 5700 a4bb a70d 3b3d
000002d0: ff5b 5a3c fb4a 683c fbcb dbba c462 95bb
000002e0: d934 84bb 3203 123c 0358 f2ba 233c ad3b
000002f0: a38a 273d 8e2e e33b 75f6 2a3c 09f6 3d3b
00000300: f206 a7bb 0c71 663c 030c 7d3d 793e 923b
00000310: e62f 753c 79e9 06bc adaa b23c b09f 4d39
00000320: 10ad b0ba a01c b13b 7fce 983c 4931 4fbc
00000330: 022f 913d b72a 93bc 2940 0fbc d573 a03c
00000340: 5f76 263c 7b4f 5bbc a051 f7bc e930 283c
00000350: 872f edbb c947 273d f25c 503c a7e1 003b
00000360: a482 e33b d939 663b c4db 5b3c 7c40 9ebc
00000370: d03a 813b df82 993c 5251 d8bc d3b8 563d
00000380: 6b43 57bb 906e f0bc b145 263d 3529 a6bc
00000390: 7e66 dbbb 4d40 9f3d af1f 173c 3d18 2b3c
000003a0: e0b8 d43c b647 8237 c2f8 0b3d 0ef9 433c
000003b0: 3059 04bb 02da 1b3d 7456 d33b 6caf 573d
000003c0: 8510 0f3e 345a 953c 59b6 5dbb 21b4 193d
000003d0: 3a56 7c3d 0104 82bb 7913 883c 30b2 57bc
000003e0: 0764 75bc 1300 913c affc 31ba 987d a9bc
000003f0: 77e8 af3b 3d27 d4ba b3f8 8a3d 55c6 82bc

ClassificationFd2da27.0.weight f4 [150]
1.1310023 1.1112932 1.0203063 1.1017923 0.9505372 1.00824 1.0774316 0.9808755
1.1000375 1.0781758 0.9651619 0.7011016 1.0089084 0.92598766 0.95700043 0.9865722
0.9520831 0.9807276 0.8481849 1.0746406 0.93417895 0.97113085 1.1482035 1.0161333
1.0209988 0.9965009 0.8538333 1.1168804 0.9353179 0.581939 0.9019595 1.0818052
1.0430723 0.95974946 0.9533758 0.911836 0.8901873 0.9793697 0.96295774 1.0101842
0.98450214 1.0518459 1.0890429 1.0810359 0.8886164 0.88501567 1.0418913 1.0722224
1.0608683 1.025606 0.9100929 0.39618737 1.0214146 0.9984261 0.8023268 1.0471857
0.9059505 0.7902907 1.0910711 1.0802718 1.1157558 0.99404204 0.79141533 0.8208942
1.0295177 0.976796 0.9393449 0.9834064 0.282547 1.0953774 1.0497649 1.0906526
1.1392326 1.0228109 0.6298536 1.0899346 1.0572037 1.0351971 0.54526407 1.0412304
1.0035709 0.76011574 1.1305625 1.0248054 1.0059006 0.9823212 0.96347207 1.0575634
0.8546542 1.092496 1.0686783 0.9958023 0.92145693 1.049315 0.47603267 0.68403834
1.2272338 1.0503892 0.9341694 1.1149749 0.13316423 1.1213913 1.0967363 0.15851721
1.0945256 1.0586455 0.9584155 1.1556315 0.9740661 0.54733956 1.1167246 1.0448363
1.145573 0.7908806 1.0630229 1.1018003 0.72314763 1.0902765 1.0320802 1.0514494
1.0925806 0.62709475 1.0617944 0.9601566 0.86542344 1.0640354 0.75581753 0.7360395
1.1662657 1.0470266 1.0717767 0.9780566 1.0602305 1.016502 0.9691337 0.9879599
1.0870582 1.0120949 1.0533615 0.78468806 0.9932349 1.0410336 0.98628736 1.1167209
1.0275215 0.99440384 0.981606 1.0173024 0.89954466 0.94873
00000000: afc4 903f db3e 8e3f 6699 823f 8807 8d3f
00000010: 6856 733f 020e 813f 47e9 893f a81a 7b3f
00000020: 07ce 8c3f aa01 8a3f da14 773f 657b 333f
00000030: e923 813f 870d 6d3f fbfd 743f ff8f 7c3f
00000040: b8bb 733f f710 7b3f a522 593f d38d 893f
00000050: 5a26 6f3f 089c 783f 55f8 923f a810 823f
00000060: 17b0 823f af1a 7f3f d294 5a3f f0f5 8e3f
00000070: fe70 6f3f f4f9 143f d1e6 663f 9878 8a3f
00000080: 6583 853f 24b2 753f 7010 743f 166e 693f
00000090: 51e3 633f f9b7 7a3f 6684 763f b74d 813f
000000a0: 5508 7c3f e3a2 863f c265 8b3f 625f 8a3f
000000b0: 5d7c 633f 6390 623f b25c 853f 953e 893f
000000c0: 88ca 873f 0f47 833f d9fb 683f 12d9 ca3e
000000d0: b7bd 823f da98 7f3f 4a65 4d3f 2e0a 863f
000000e0: 5fec 673f 7e50 4a3f 38a8 8b3f 5946 8a3f
000000f0: 16d1 8e3f 8a79 7e3f 329a 4a3f 1f26 523f
00000100: 3cc7 833f 4d0f 7a3f e878 703f 86c0 7b3f
00000110: 00aa 903e 5435 8c3f b25e 863f 819a 8b3f
00000120: 60d2 913f 78eb 823f 163e 213f fa82 8b3f
00000130: 7352 873f 5781 843f 6d96 0b3f 0a47 853f
00000140: 0375 803f f296 423f 46b6 903f d32c 833f
00000150: 5ac1 803f 6779 7b3f 1ba6 763f 3d5e 873f
00000160: 9eca 5a3f e9d6 8b3f 73ca 883f e6ec 7e3f
00000170: 9ae4 6b3f f44f 863f 8eba f33e 231d 2f3f
00000180: ff15 9d3f 2773 863f ba25 6f3f 7fb7 8e3f
00000190: 345c 083e c089 8f3f db61 8c3f 5652 223e
000001a0: 6a19 8c3f b281 873f b85a 753f bceb 933f
000001b0: 655c 793f 721e 0c3f d5f0 8e3f 32bd 853f
000001c0: 23a2 923f 2777 4a3f 2211 883f cb07 8d3f
000001d0: 3420 393f 2e8e 8b3f 341b 843f e595 863f
000001e0: aed9 8b3f 4889 203f e1e8 873f d3cc 753f
000001f0: 648c 5d3f 5032 883f 427d 413f 166d 3c3f
00000200: 3248 953f f804 863f fb2f 893f eb61 7a3f
00000210: a2b5 873f bd1c 823f 2519 783f f1ea 7c3f
00000220: b924 8b3f 538c 813f 8dd4 863f 51e1 483f
00000230: a444 7e3f 9740 853f 547d 7c3f b6f0 8e3f
00000240: d385 833f 4091 7e3f 884a 7b3f f736 823f
00000250: 8f48 663f f8df 723f

ClassificationFd2da27.0.bias f4 [150]
0.0025731458 0.011111403 -0.031318195 0.0464888 -0.00060099707 0.041242793 0.015097011 0.010547075
0.02668937 0.06267855 -0.015304353 -0.0027158838 0.03835723 0.001772481 0.028788524 -0.0011723529
0.027396165 0.017342618 -0.02831344 0.021513417 0.015933687 0.005325826 0.04233361 0.03140844
0.03667474 0.024375672 0.010496561 0.033538423 0.02743353 0.005289883 0.039240044 -0.0012366603
-0.019740919 0.0062343674 0.02314711 -0.030572202 0.011851409 0.025544507 -0.0023625668 0.0024504387
-0.029245844 0.022484839 0.0008357708 -0.0041966084 -0.0092361225 -0.0051936335 0.03810838 0.055718116
-0.025287308 0.0033785854 -0.008920381 0.0032953792 -0.035470985 0.0009919812 -0.019560348 0.021350414
-0.006164885 0.018347465 0.016994793 -0.032153018 0.019288624 0.036860824 -0.00026797777 0.040104702
-0.041561075 0.05907311 0.0085286 0.016234811 0.0013977825 0.048373718 -0.006823465 -0.047731787
0.052358195 0.023298185 -0.030389903 -0.015096274 -0.028886067 0.015907213 -0.017888784 0.080962196
-0.038825512 -0.017899975 -0.013123273 -0.035212524 -0.008663667 0.049780197 0.05653436 -0.051446404
-0.013954736 -0.0411193 0.08227967 0.049424373 -0.063397616 0.019736303 -0.0118642375 -0.009874376
-0.042540375 0.025321586 -0.0037209347 0.056464653 -0.0034747468 0.07635807 0.013908782 -0.0036326514
0.0010710431 -0.015135376 0.015966762 0.03373944 0.024117585 0.012229786 0.083572716 -0.033818774
0.04484656 -0.017657612 0.05430661 -0.012638629 0.00014841389 -0.010803936 0.006531211 -0.04715707
-0.042725153 -0.012359318 0.026929293 0.019595413 -0.015406665 0.035081204 -0.0014857105 -0.012674284
0.008005814 0.06290599 0.06247373 -0.052625965 -0.028038587 0.049398854 0.021160226 -0.00015858407
0.042728122 -0.006043831 -0.014447146 0.018276006 0.015387872 -0.006773652 0.055072844 -0.051126726
0.037710406 0.04052268 0.0002774099 -0.020575028 0.022485996 -0.01506055
00000000: 39a2 283b 9a0c 363c 8247 00bd 0a6b 3e3d
00000010: 3b8c 1dba 34ee 283d 7459 773c a4cd 2c3c
00000020: aaa3 da3c 9d5d 803d 1cbf 7abc f8fc 31bb
00000030: 791c 1d3d 9852 e83a e9d5 eb3c a3a9 99ba
00000040: ec6d e03c 1b12 8e3c 96f1 e7bc e83c b03c
00000050: 5d87 823c 4484 ae3b 0266 2d3d 23a6 003d
00000060: 4138 163d 7daf c73c c5f9 2b3c 965f 093d
00000070: 48bc e03c c156 ad3b 2bba 203d 6f17 a2ba
00000080: b5b7 a1bc aa49 cc3b 029f bd3c 8e72 fabc
00000090: 6a2c 423c b742 d13c 4bd5 1abb 8a97 203b
000000a0: fb94 efbc 2032 b83c a117 5b3a b483 89bb
000000b0: 1b53 17bc 5b2f aabb 8817 1c3d ae38 643d
000000c0: 5427 cfbc 426b 5d3b ca26 12bc 4af7 573b
000000d0: 064a 11bd 5e05 823a 063d a0bc 10e7 ae3c
000000e0: ce02 cabb 6c4d 963c aa38 8b3c e2b2 03bd
000000f0: 2d03 9e3c 60fb 163d 5e7f 8cb9 d444 243d
00000100: f23b 2abd a5f6 713d 8bbb 0b3c defe 843c
00000110: cc35 b73a 8523 463d 6097 dfbb 6882 43bd
00000120: 8c75 563d d6db be3c 3ff4 f8bc 5d56 77bc
00000130: 79a2 ecbc d84f 823c 808b 92bc 82cf a53d
00000140: 8007 1fbd f8a2 92bc ff02 57bc 023b 10bd
00000150: 0ef2 0dbc 52e6 4b3d 9390 673d 77b9 52bd
00000160: 68a2 64bc b66c 28bd 3e82 a83d 3671 4a3d
00000170: 9cd6 81bd 07ae a13c 3862 42bc 22c8 21bc
00000180: d13e 2ebd 376f cf3c edda 73bb 7b47 673d
00000190: 94b8 63bb 9f61 9c3d a9e1 633c c711 6ebb
000001a0: 3e62 8c3a 5efa 77bc bacc 823c 5e32 0a3d
000001b0: 3e92 c53c 715f 483c 2c28 ab3d 8e85 0abd
000001c0: 07b1 373d b2a6 90bc 9c70 5e3d 4112 4fbc
000001d0: 8d9f 1b39 fe02 31bc c503 d63b c627 41bd
000001e0: 9200 2fbd bd7e 4abc d29a dc3c 8f86 a03c
000001f0: 3d6c 7cbc 4fb1 0f3d 2cbc c2ba cda7 4fbc
00000200: d12a 033c dbd4 803d 74e4 7f3d 538e 57bd
00000210: 2eb1 e5bc 7456 4a3d 3658 ad3c 9649 26b9
00000220: af03 2f3d 540b c6bb b9b3 6cbc 90b7 953c
00000230: 6a1d 7c3c 83f5 ddbb 1094 613d 426a 51bd
00000240: 3a76 1a3d 1cfb 253d 5471 9139 f68c a8bc
00000250: 8d34 b83c 86c0 76bc

ClassificationFd2da27.0.running_mean f4 [150]
0.13551219 0.26372817 -0.12009965 0.2764401 -0.29404488 0.3425001 -0.4631509 -0.09195538
0.34924006 0.30718616 0.5240709 0.027122842 0.08075316 -0.008795811 0.16582987 0.36757085
0.100679986 -0.07237364 -0.022537425 -0.15697072 -0.07292207 0.015728697 0.09232642 0.22827817
0.193287 0.10817054 -0.2215641 -0.14152582 0.059379082 0.25928286 0.34279996 -0.34139383
-0.037236273 -0.033168714 -0.081036314 0.03951892 0.082087114 -0.20514977 -0.3684751 -0.032104827
-0.010999535 0.09122961 0.10665774 -0.3088575 -0.46955213 0.04966249 0.0038518338 0.35579234
-0.32600942 -0.2756226 0.03552954 0.0063559385 0.22212036 0.099893175 -0.41823867 0.02196257
-0.0002513627 -0.04378617 0.22519061 0.10018952 -0.16963305 -0.29360676 0.031090705 0.5040406
0.1528793 0.063015334 -0.04396729 0.039988875 -0.1337068 0.22033231 -0.34983787 0.14821748
-0.023787284 0.14322166 0.14323564 0.2341441 -0.55847687 0.060329136 -0.018124834 0.059869803
0.02696157 -0.18819158 0.40708163 -0.04510483 0.054734357 0.36979872 -0.102507405 -0.021426402
0.023739155 -0.006052697 0.40512592 0.12520415 -0.08745337 0.23068538 -0.22494514 -0.021785136
0.3233032 0.13161166 -0.21454476 0.035626173 -0.013472879 0.17692536 0.17212324 -0.031945117
0.2518629 -0.21404538 -0.15443479 0.11107966 0.37912512 -0.009987011 0.12217927 0.20834912
-0.14898635 0.026994133 0.026356706 -0.046388526 -0.105347075 0.046496328 0.5229428 -0.22964926
0.070587836 0.030618515 -0.00035253592 -0.01686362 0.024919568 0.22730242 -0.031964142 0.0021983893
0.26821837 0.31691384 0.079533465 0.11812408 -0.2088076 0.3732053 0.41454732 0.036217056
-0.22414753 0.022131218 0.25609654 0.09683407 0.550377 -0.31992358 -0.09200066 0.22398818
0.33512524 0.12073841 -0.34754035 -0.036223896 -0.019711584 0.0011173135
00000000: b5c3 0a3e 6107 873e cef6 f5bd 8f89 8d3e
00000010: 0d8d 96be 2c5c af3e 1d22 edbe 1a53 bcbd
00000020: 98cf b23e 8147 9d3e 8329 063f b930 de3c
00000030: ea61 a53d 4e1c 10bc 4ecf 293e 3f32 bc3e
00000040: 4f31 ce3d a238 94bd 68a0 b8bc efbc 20be
00000050: 2b58 95bd 78d9 803c a215 bd3d c1c1 693e
00000060: 07ed 453e 8488 dd3d b3e1 62be 25ec 10be
00000070: 7b37 733d b9c0 843e 7a83 af3e 2ccb aebe
00000080: 1085 18bd ebdb 07bd 5ef6 a5bd 97de 213d
00000090: 4a1d a83d c812 52be c5a8 bcbe 5a80 03bd
000000a0: 6537 34bc 97d6 ba3d 606f da3d 9222 9ebe
000000b0: 2369 f0be e56a 4b3d 0c6f 7c3b 6a2a b63e
000000c0: b5ea a6be 681e 8dbe 6c87 113d 7a45 d03b
000000d0: 8573 633e cb94 cc3d 6123 d6be d9ea b33c
000000e0: 55c9 83b9 2159 33bd 5e98 663e 2a30 cd3d
000000f0: 49b4 2dbe a053 96be efb1 fe3c ce08 013f
00000100: 648c 1c3e 2f0e 813d 0c17 34bd 60cb 233d
00000110: 6fea 08be cb9e 613e f31d b3be 53c6 173e
00000120: 8ddd c2bc b3a8 123e 5dac 123e 79c3 6f3e
00000130: 57f8 0ebf af1b 773d 887a 94bc 0a3a 753d
00000140: 83de dc3c 4bb5 40be 016d d03e d8bf 38bd
00000150: 2231 603d 4256 bd3e 67ef d1bd 6c86 afbc
00000160: 9e78 c23c b455 c6bb aa6c cf3e 8435 003e
00000170: c11a b3bd ca38 6c3e 0558 66be be76 b2bc
00000180: ff87 a53e 35c5 063e 9fb1 5bbe c0ec 113d
00000190: 5abd 5cbc ec2b 353e 1341 303e e2d8 02bd
000001a0: 2df4 803e b62e 5bbe 2724 1ebe bc7d e33d
000001b0: b01c c23e 8fa0 23bc 2039 fa3d 7959 553e
000001c0: e18f 18be cd22 dd3c 05ea d73c e501 3ebd
000001d0: 35c0 d7bd ef72 3e3d 94df 053f 2d29 6bbe
000001e0: 5b90 903d aed3 fa3c 92d4 b8b9 9325 8abc
000001f0: 1f24 cc3c f7c1 683e d5ec 02bd da12 103b
00000200: eb53 893e 8842 a23e 71e2 a23d 0aeb f13d
00000210: a9d1 55be c414 bf3e 8c3f d43e 5658 143d
00000220: ee86 65be 874c b53c 161f 833e f150 c63d
00000230: 82e5 0c3f 06cd a3be d86a bcbd 285d 653e
00000240: 8995 ab3e b345 f73d cff0 b1be 825f 14bd
00000250: 307a a1bc d272 923a

ClassificationFd2da27.0.running_var f4 [150]
3.8033766e-05 2.4621095e-05 4.2204196e-05 3.430585e-05 7.1775935e-06 8.230628e-06 2.3287379e-05 3.3365113e-06
2.3894714e-05 2.8671491e-05 6.2890235e-06 2.1454691e-06 1.1415236e-05 4.2328957e-06 8.233027e-06 9.87104e-06
9.211271e-06 2.3015727e-05 3.238469e-06 4.098598e-05 8.670295e-05 1.2183537e-05 5.7665467e-05 1.1690686e-05
2.426304e-05 1.06282205e-05 1.617363e-06 5.6340195e-05 9.1200955e-06 2.255549e-06 3.461064e-06 0.00010128343
1.469121e-05 6.532668e-06 8.289065e-06 8.189716e-07 1.8524901e-06 1.0156387e-05 1.1770518e-05 4.0343977e-05
1.4573134e-05 2.5937774e-05 2.3908158e-05 1.7910197e-05 3.5618964e-06 3.617486e-06 3.443534e-05 8.662958e-06
1.5001742e-05 7.346099e-06 1.0067539e-05 4.3387314e-07 2.1788297e-05 9.76696e-06 2.630682e-06 2.9975887e-05
9.3633207e-07 2.3256575e-06 5.0165025e-05 6.919289e-05 4.2187006e-05 1.2905491e-05 1.0309974e-06 5.6506683e-06
2.5519445e-05 1.0150524e-05 2.105891e-06 1.51374525e-05 8.518801e-06 2.9508861e-05 5.664486e-06 0.00023158606
3.3927263e-05 2.9954243e-05 2.0269313e-06 2.1065856e-05 5.4502807e-06 1.6472444e-05 5.019154e-07 3.7768314e-05
2.3865183e-05 1.9217093e-06 1.2088229e-05 3.985013e-05 3.846767e-05 1.0565142e-05 2.429743e-05 2.946834e-05
2.4136764e-06 3.027228e-05 0.0020338097 1.1696214e-05 6.8595346e-06 2.1441918e-05 1.6415852e-06 1.69708e-06
2.3308663e-05 4.749925e-05 2.6947164e-06 3.3920922e-05 1.9400668e-06 2.2319888e-05 0.00016073162 3.2129068e-07
3.8291804e-05 3.003305e-05 4.502968e-06 5.758811e-05 1.1967247e-05 4.4608626e-07 0.00021224057 8.422668e-06
7.967335e-05 4.87252e-06 1.738412e-05 3.9912127e-05 2.3970093e-05 1.7959137e-05 3.5264206e-05 1.0117072e-05
9.967056e-05 4.9910227e-06 2.763876e-05 8.595095e-06 3.477034e-06 1.8493109e-05 1.1397378e-06 4.8187876e-06
2.4191984e-05 1.9906065e-05 2.8735181e-05 5.0149342e-06 2.822084e-05 1.3949593e-05 7.124056e-06 6.4857813e-06
5.9164176e-05 2.4519859e-05 1.8456889e-05 5.0191525e-06 1.22381025e-05 1.17474365e-05 2.6229045e-05 4.491872e-05
1.7762533e-05 1.1540097e-05 3.496997e-06 2.1310212e-05 6.641983e-07 6.2640676e-05
00000000: 7286 1f38 6689 ce37 6904 3138 a0e3 0f38
00000010: 0fd7 f036 4716 0a37 4459 c337 d4e8 5f36
00000020: 8271 c837 8f83 f037 4d06 d336 e1fa 0f36
00000030: 1184 3f37 4c08 8e36 9520 0a37 cb9b 2537
00000040: 1c8a 1a37 e611 c137 7954 5936 5ce8 2b38
00000050: 4bd4 b538 e567 4c37 d3dd 7138 1d23 4437
00000060: 7b88 cb37 dc4f 3237 2b14 d935 d34e 6c38
00000070: 8302 1937 095e 1736 a044 6836 2168 d438
00000080: 447a 7637 3133 db36 4311 0b37 4dd7 5b35
00000090: 13a3 f835 5a65 2a37 fd79 4537 0437 2938
000000a0: 227f 7437 f294 d937 618e c837 db3d 9637
000000b0: ea08 6f36 f0c3 7236 aa6e 1038 1f57 1137
000000c0: feaf 7b37 837e f636 c0e7 2837 12ef e834
000000d0: 03c6 b637 c6dc 2337 c68a 3036 ba74 fb37
000000e0: 4058 7b35 7e12 1c36 4968 5238 a61b 9138
000000f0: f4f1 3038 a984 5837 cd60 8a35 df9a bd36
00000100: 9712 d637 2b4c 2a37 ef52 0d36 ddf6 7d37
00000110: f9eb 0e37 cc89 f737 9011 be36 e9d5 7239
00000120: 1f4d 0e38 3f46 fb37 6a06 0836 95b6 b037
00000130: 8ee1 b636 4e2e 8a37 5dbb 0635 6b69 1e38
00000140: 1732 c837 b7f6 0036 8cce 4a37 c024 2738
00000150: 5958 2138 f040 3137 55d2 cb37 c732 f737
00000160: a5fa 2136 3af1 fd37 aa49 053b db3a 4437
00000170: f42a e636 2bde b337 7054 dc35 3ac7 e335
00000180: f986 c337 ee39 4738 e0d6 3436 5046 0e38
00000190: 1832 0236 983b bb37 118a 2839 db7d ac34
000001a0: 839b 2038 7cef fb37 3318 9736 c38a 7138
000001b0: efc6 4837 a17d ef34 e58c 5e39 154f 0d37
000001c0: 4e16 a738 a17e a336 1dd4 9137 5267 2738
000001d0: 6213 c937 f4a6 9637 a7e8 1338 7ebc 2937
000001e0: 3906 d138 8f78 a736 c9d9 e737 a733 1037
000001f0: fd56 6936 a621 9b37 18f9 9835 12b1 a136
00000200: e4ef ca37 f3fb a637 550c f137 f545 a836
00000210: cbbb ec37 0c09 6a37 2d0b ef36 70a0 d936
00000220: 0d27 7838 ffaf cd37 ded3 9a37 316a a836
00000230: 4052 4d37 db16 4537 7206 dc37 1c67 3c38
00000240: c000 9537 579c 4137 f3ad 6a36 55c3 b237
00000250: 5c4b 3235 f55d 8338

ClassificationCat.0.weight f4 [1, 150]
-0.20029584 -0.19549955 0.11247478 -0.16264313 -0.081722274 0.11264208 0.15046492 0.10379912
-0.18809809 0.17500271 0.108239934 0.02589086 0.11937727 -0.08221653 0.09152353 0.122142546
-0.1180772 -0.08264558 -0.044082522 0.16216984 0.113080315 -0.11381649 -0.22904208 0.13383837
0.10957519 0.099519886 0.073665366 -0.17741014 -0.08426309 -0.042761076 0.071279176 0.16452053
0.13073936 0.108786434 -0.08639435 0.077022135 0.0776321 -0.08564501 -0.08349858 -0.09722793
-0.091307685 0.1372313 -0.16655275 0.15357924 0.07966919 -0.0660631 -0.14825842 0.17435323
0.1508063 -0.1315142 0.06541427 -0.009715198 0.14216405 0.110143214 -0.026017334 -0.13738486
0.082178935 -0.0393609 -0.14288542 -0.15326454 -0.21007638 -0.11131901 -0.05151529 0.10496006
-0.14423181 0.09127911 -0.075915955 0.10173101 -0.009502807 -0.17102093 0.15267248 -0.17644143
0.20969537 0.13370778 -0.05366795 -0.1653291 0.13164371 -0.12962724 -0.036102343 0.1350991
-0.12935646 -0.020753844 -0.19156137 -0.12399098 -0.10416425 0.09528249 0.10377724 -0.15386942
0.047172282 -0.17810963 0.16954337 0.094224975 0.08736055 -0.13125473 0.0067570484 -0.01550512
-0.26429537 -0.17848134 -0.058487907 -0.18468688 0.0010372231 -0.19058473 -0.16501439 -0.0025521887
-0.15504402 0.14931844 -0.062543005 -0.19326106 0.09866803 0.026819728 0.20012118 0.14381589
0.23181757 -0.071719214 0.17098121 0.19356047 -0.05316175 0.18897912 -0.12681311 0.1615876
0.16762298 0.035554312 -0.14070608 0.10221865 0.055885307 -0.1482559 -0.01301401 -0.037962157
-0.2397918 0.15428515 0.14254704 0.12029338 0.15878442 0.1347481 0.091588326 0.09489942
0.16997819 -0.1235043 -0.1391742 0.054816626 0.099350214 0.13259345 -0.15915772 -0.18226026
-0.12924165 0.10900096 0.09644291 -0.1386106 -0.047459997 0.09058358
00000000: 5a1a 4dbe 0931 48be 2d59 e63d ec8b 26be
00000010: 025e a7bd e4b0 e63d 7a13 1a3e a294 d43d
00000020: c99c 40be e933 333e e6ac dd3d 1219 d43c
00000030: 127c f43d 2461 a8bd b070 bb3d df25 fa3d
00000040: 76d2 f1bd 1642 a9bd e08f 34bd da0f 263e
00000050: a796 e73d 9f18 e9bd 028a 6abe ed0c 093e
00000060: f568 e03d 15d1 cb3d dedd 963d 01ab 35be
00000070: 2092 acbd 3d26 2fbd d1fa 913d 1278 283e
00000080: 8ae0 053e 6ccb de3d 85ef b0bd c8bd 9d3d
00000090: 94fd 9e3d a766 afbd 4e01 abbd 701f c7bd
000000a0: 86ff babd 5d86 0c3e ce8c 2abe e043 1d3e
000000b0: 9a29 a33d 174c 87bd 0ed1 17be a789 323e
000000c0: f76c 1a3e a9ab 06be ebf7 853d 7e2c 1fbc
000000d0: 7493 113e c492 e13d 4e22 d5bc 9eae 0cbe
000000e0: 6e4d a83d e538 21bd 8e50 12be 61f1 1cbe
000000f0: 431e 57be 39fb e3bd b201 53bd 4df5 d63d
00000100: 81b1 13be 8bf0 ba3d d379 9bbd 5958 d03d
00000110: a9b1 1bbc 1c20 2fbe 2d56 1c3e 10ad 34be
00000120: 62ba 563e b1ea 083e edd2 5bbd 084c 29be
00000130: 9ccd 063e 01bd 04be 0de0 13bd 6b57 0a3e
00000140: 0576 04be f703 aabc aa28 44be fcee fdbd
00000150: 1154 d5bd 7723 c33d 2989 d43d f28f 1dbe
00000160: b937 413d 5f62 36be c79c 2d3e 06f9 c03d
00000170: 17ea b23d a467 06be 3b6a dd3b 3009 7ebc
00000180: b951 87be d0c3 36be 0491 6fbd 8f1e 3dbe
00000190: 6ff3 873a a528 43be 88f9 28be 9f42 27bb
000001a0: dcc3 1ebe efe6 183e 8c16 80bd 3ae6 45be
000001b0: 7712 ca3d 0cb5 db3c 91ec 4c3e 7944 133e
000001c0: 9661 6d3e 86e1 92bd b315 2f3e b734 463e
000001d0: 23c0 59bd be83 413e 4cdb 01be 3877 253e
000001e0: 5ca5 2b3e 66a1 113d 4115 10be 0358 d13d
000001f0: fee7 643d 65d0 17be b738 55bc 357e 1bbd
00000200: fb8b 75be edfc 1d3e daf7 113e 605c f63d
00000210: 6298 223e 68fb 093e a992 bb3d a15a c23d
00000220: c30e 2e3e d3ef fcbd ae83 0ebe 6687 603d
00000230: 2078 cb3d 94c6 073e 3efa 22be 6fa2 3abe
00000240: ec57 04be e53b df3d dc83 c53d f0ef 0dbe
00000250: 6a65 42bd e283 b93d
