models/2023-05-18_22-42/1/pytorch/E-45_VA-0.5000_VL-421.59_TA-0.4583_TL-483.62.pt (torch, 411855 bytes, 9 tensors)

Fd2da27LSTM.weight_ih_l0 f4 [600, 17]
00000000: 6412 5e3d d09a 9b3d c16d 033c ab23 283c
00000010: ee4b b73c 586d a73d 8e89 e33a 2156 bdbc
00000020: a9ca f13c 0ce0 2d3e 992d 0f3e da5b afbc
00000030: 3c39 bc3d eba0 dc3c 7000 3cbc 991a dc3d
00000040: 3c6e 7d3d c237 b93c 8fd7 aabd 69e8 c2bc
00000050: 09ff 503c 9361 243d 38cd 50bd e766 9fbd
00000060: 111b 703c fa9a de3d ccc4 9c3c fdc6 313d
00000070: 82da 14be f155 b63c 8e60 323e 7500 18bc
00000080: 5b4c 82bd e263 fdbd be73 f83c 192a 6a3c
00000090: 33d5 24bc 1e43 58bc ac80 233d a187 9e3d
000000a0: 4e8d 323c d6ac 89bd 8c2f 923c 636f 33bd
000000b0: 4864 a63d 2ca8 823d bef6 813d 6643 79bd
000000c0: 56a1 993d 887f afbd cb40 f9bc 6ba3 e03c
000000d0: 49c4 a93d 442d 23bd aad4 7d3d 15e3 983d
000000e0: 9381 af3a f9bf 1abe 4291 253d 5804 dd3d
000000f0: e529 263d f72e 823d 6f3c 35bb 666c dbb9
00000100: ec19 8dbd ce36 5f3b 7e31 8ebd c200 d33d
00000110: 3f14 07bd de3b 9a3d 3347 0b3d 8055 3d3d
00000120: edba b83d 8b20 f23d 6ee5 d23c bb10 05bd
00000130: 9e59 d43c 21d2 243c 5741 41bd dcf6 d3bc
00000140: 51d0 a1bc de3c 6b3d 7882 903d f90e 1cbd
00000150: 1602 8ebd 51b2 c1bb 0df6 b73c 12e4 53bb
00000160: 0a7d c83c 2e96 913d 1b9e 913d eb32 593d
00000170: 3301 343d 202c 4a3d 5c9b 25bc c55f 6f3d
00000180: d360 273d 7880 bcbc 07f6 fb3c 8f79 ae3d
00000190: a9ee a73b 4f5b 813b 5b93 fe3d 5236 a23d
000001a0: 5843 2abe 653d dd3d 87a2 2d3c a834 0d3e
000001b0: 4a39 e0bd df70 5e3d c276 223d 8325 a0bd
000001c0: b35e c03c f311 673c a436 d03d 37eb 45bc
000001d0: 5f9a c53d adfa 273e 6d39 a3bd a41e 63bd
000001e0: d2b9 c83c d967 663c bcfd b4bb 1081 58bd
000001f0: 4e96 f9bd fd36 8e3d 5e4d bf3d 3ebf ac3b
00000200: 8f8c dd3d 8557 8bbd 3d54 60bd 8e04 9d3d
00000210: 3d1e 14bd 3495 99bd 3337 d8ba cd4a 7f3c
00000220: 2706 533d 5ed8 cbbc 9c16 b6bd 3d0f 203e
00000230: b8d5 84bd b151 5f3d c83a c8bd 55b5 92bd
00000240: 5357 c83d a109 39bd f772 c53c e0a9 513d
00000250: 0f50 9cbb 236f 1dbd 9e96 eebc 6dc4 07bd
00000260: c5a5 893c 3e98 a83c cafe dabd 979f b73b
00000270: 012b 233d 7b49 e13b ef69 973d 2e41 6cba
00000280: 4bb4 22bd 718b aabd c354 2dbd 64e2 423d
00000290: 6c26 f4bc 5181 e5bc 8f62 1fbd ff33 9b3c
000002a0: 98ca 25bd bd4a 37bd 89d4 e1bc 42a6 c8bc
000002b0: 7700 773d 9792 823c 7c2e e23c a802 a93c
000002c0: bc08 073d 4d43 893c 87e3 5ebd 7fe1 c0bc
000002d0: d385 7a3d 03ba 123d 1dd3 b83b 52dc 903d
000002e0: 35ba 4dbc 8dcc 933d 8237 bd3c a660 afbc
000002f0: 26c1 a3bc 6990 2abc 1ca3 d9bc 6220 153b
00000300: 1d66 003c 60e4 79bc 48fd a13c fc29 423c
00000310: 4491 a8bb fbe3 1dbc 9293 06bd 7788 17bc
00000320: 35e1 1cbd 3c7c 103d 9aa2 c4bb 9f91 c4bb
00000330: 49b8 8bbc 5094 6ebd 4be5 5cbb bc82 92bd
00000340: 8ce0 47bc 7ccd 813d 0020 adbd 04ac 173c
00000350: 28fd e13c 9f17 6abd 1f85 70bc 618a 0dbe
00000360: 4cb4 19bd c2aa 61bd 69f2 d23c dbaa f93d
00000370: 5d60 7bbd 59c2 62bc 939e afbb 84fb 55bb
00000380: 4c3b e3bc 2821 283b 7bcb eb3c 79a6 ca38
00000390: 595d 703b a669 2fbc 9d48 5d3c b65b 133b
000003a0: bfcb a4bb 9693 d6bb 1579 9f3c 3655 913b
000003b0: cb87 1cbb b0e3 323b 41d0 84bb 0d25 edbc
000003c0: bf21 953b 0a54 603d 2888 03bd 23b3 473d
000003d0: 4eab 103d b5cf e1bd 5188 16bd 077c ed3c
000003e0: 1e09 2e3c 747f e43b 3633 4ebd 1dbf 15bd
000003f0: 916e 233d 1a4a 5abb 855c b4bc a414 ae3d
0.054216757 0.075978875 0.008021773 0.01026241 0.022375073 0.081751525 0.001735972 -0.023112359
0.029515581 0.16979998 0.13982238 -0.021406103 0.09190604 0.0269322 -0.011474714 0.107472606
0.061872706 0.022609595 -0.08341896 -0.023792462 0.012756118 0.040132117 -0.05097696 -0.07783299
0.014654891 0.10869403 0.019136809 0.04340266 -0.14536479 0.022257777 0.17419645 -0.009277453
-0.0636222 -0.12372567 0.030328628 0.014292263 -0.010060596 -0.013199596 0.039917633 0.07740713
0.0108979475 -0.06722419 0.017844938 -0.0438074 0.08124596 0.063797325 0.063458905 -0.06085529
0.075014755 -0.085692465 -0.030426404 0.027421674 0.082893915 -0.03983809 0.06197039 0.074651875
0.0013390057 -0.15112294 0.04042173 0.10791844 0.040567297 0.06356614 -0.002765443 -0.00041851698
-0.0688971 0.0034059766 -0.06943034 0.10302879 -0.032978293 0.0753095 0.034003448 0.046224117
0.09020028 0.11822613 0.025744166 -0.03248666 0.025921639 0.010059864 -0.047181454 -0.025874548
-0.019752653 0.057431094 0.07056135 -0.038100217 -0.069339916 -0.0059111496 0.022456193 -0.0032331985
0.024473686 0.071087226 0.07110234 0.053027075 0.043946456 0.049358487 -0.010107841 0.058440942
0.040863823 -0.023010477 0.030756963 0.08519279 0.005124886 0.0039476524 0.124304496 0.07920517
-0.16627252 0.10802726 0.010597832 0.13789618 -0.10948427 0.05430686 0.039664038 -0.07819655
0.023482656 0.0141034005 0.10166672 -0.012080005 0.096485846 0.16404219 -0.079699375 -0.055449143
0.024502669 0.014062845 -0.0055234116 -0.05285746 -0.121868715 0.06944082 0.093409285 0.0052718213
0.10817825 -0.068038024 -0.054767836 0.07666884 -0.03616165 -0.07499161 -0.0016495943 0.015581799
0.05151954 -0.024883445 -0.08891031 0.15630813 -0.06486076 0.054521266 -0.09776837 -0.071634926
0.09782281 -0.0451752 0.024102671 0.051187396 -0.004770286 -0.038436066 -0.029124554 -0.03314631
0.016802678 0.020580407 -0.106931284 0.0056037414 0.039835934 0.0068752146 0.07393252 -0.0009012398
-0.039722722 -0.083273776 -0.042317163 0.047579184 -0.029803477 -0.028015764 -0.038912352 0.018945692
-0.04047641 -0.04474901 -0.027567165 -0.02449334 0.060303178 0.01593904 0.027610056 0.02063115
0.032967314 0.016755724 -0.054416206 -0.023545025 0.06116278 0.035821926 0.005640401 0.07073273
-0.012556602 0.07216749 0.023097757 -0.02140839 -0.019989561 -0.010410407 -0.026567034 0.0022754897
0.007836846 -0.015252203 0.019774094 0.01185083 -0.00514427 -0.009636874 -0.032855578 -0.009248844
-0.03830071 0.03527473 -0.006000829 -0.0059988047 -0.017055647 -0.05824691 -0.0033706005 -0.07153842
-0.012199532 0.06338021 -0.08453369 0.00925732 0.027586535 -0.057151433 -0.014680176 -0.13822319
-0.03752546 -0.055094488 0.025750356 0.12190791 -0.061371196 -0.013840281 -0.0053594797 -0.0032651136
-0.027738236 0.0025654528 0.02878355 9.6631185e-05 0.0036676733 -0.010706341 0.013506082 0.0022485084
-0.0050291712 -0.0065483553 0.019466916 0.0044352068 -0.002388465 0.0027296357 -0.004053146 -0.028948331
0.004551142 0.054767646 -0.03211227 0.048754822 0.03531962 -0.11025945 -0.036751095 0.028989805
0.010622291 0.0069732014 -0.050341807 -0.036559213 0.039900366 -0.0033308328 -0.022016773 0.08500031

Fd2da27LSTM.weight_hh_l0 f4 [600, 150]
00000000: 46fa 3a3d 418a f13b a956 493d 6bad 043d
00000010: 858e a5bd df73 503d d3d3 963b e60c 17bd
00000020: 323d cd3b 14ce 113d c668 3e3d ed7d d03c
00000030: 9da9 b0bc dc6b b4bb 4f34 ad3d 9b07 dc3d
00000040: 50de e33c 48e6 953d cea1 8ebc 6d8d d53c
00000050: 7bb7 54bd 98f5 6cbb 1331 3f3d 1ddd 4e3d
00000060: 9e2d 5039 1b2c d03b 0ec9 9fbb df0a 813c
00000070: 3af2 ac3b b3fa 403d 4d58 813d 3fc4 0b3a
00000080: b371 7f3c 222f 083d 20c8 c7bc 80e3 a93c
00000090: 8ab4 bc3b 6099 463c 9d05 64bd dfd0 03bd
000000a0: a0a7 03bc c527 1c3d e8af 4d3c e803 0abc
000000b0: bc33 c3bd 5d47 c7bb 503a 8d3c b392 9d3d
000000c0: f838 fabc d702 7abb c517 39bb 0e99 b13b
000000d0: 75f2 413d 230e 813d ff51 01bc ecb3 d3bc
000000e0: 455e 2cbc 80f7 c03b 4d07 21bc 3d20 05bd
000000f0: adbd 84bd 1d86 78bc 4895 4fbb b1d7 69bd
00000100: c61a 3abd 6a1e 41bd e7e6 efbc 1289 09bd
00000110: 71fd 2cbc 840e 04bd 9212 4f3a 810f 56bc
00000120: 7dce 253c 5751 cc3c 617e e03c 9059 313c
00000130: b68e c6bc 503a 443d 9efc a2bc 095e 13bb
00000140: 054c 0abd efe7 70bd 9273 6b3c 9028 b23b
00000150: 9deb 6cbc 5363 973d a7ca 6f3a bb3e 29bd
00000160: d23c 07bb cb70 c93c ad90 45bd 056b 18bd
00000170: 50a5 12bc 4efd 8f3d 5185 663c 7e34 f2b8
00000180: 764c 5d3d 172f 76bc 4bf5 2f3d 4475 733d
00000190: 84cc 51bd 4806 f1bb 481e ad3c 91d4 8cbb
000001a0: f579 653d 588c 1ebd 769a efbc c451 f43c
000001b0: 75eb a23b 081b 0a3d 61f9 ee3c bb9f b13c
000001c0: c3a6 9d3d fb25 80bd 201a fb3c 1529 fc3c
000001d0: 9f8b edbc f33a 37bd 9360 c23d e121 c4bc
000001e0: 7dd0 4bbb 66a0 6f3c 2e53 433d 44dd 14bc
000001f0: cb53 fa3c b155 a2bc 223d 593b dbba 6b3c
00000200: c157 c1bc e71f a13c 5309 0e3d c31f 983c
00000210: 0bdf 493d 2e47 533d 3247 92b9 c579 35bd
00000220: e951 bcbd c7f4 503c b7e3 ee3c 77b6 023d
00000230: 815e c13c c94c 1bbd c11c 9abb 2415 7e3d
00000240: 8db7 26bc 4f5e 6c3d ac2c ebbb 4830 eabc
00000250: f028 833c 320f 443d 68b1 eb3c 4af9 dfbc
00000260: 2f6c ed3c 5213 4d3c cd29 e13c 849b 703c
00000270: 0400 b13c e95f a83b 1466 a5bc 5b1a 8cbd
00000280: 8111 92bd b482 09bd 90d8 27bd 1ae3 2e3d
00000290: 5c8e 9bbd 48af 13bc ff51 093d dfac 303d
000002a0: abc9 dc3b c935 25bd f593 a33c 5599 0d3d
000002b0: c3f8 7f3d aace 903c e0b6 9b3c a6a0 973b
000002c0: e885 8d3d 477b 303d ab37 cf3c fbe9 e1bc
000002d0: 1ebc 06bd f13c 03bd d18d 2bbc ebe4 bebb
000002e0: 3b0f 29bb 0fd2 72bb 4fa8 183c 88f2 d6bc
000002f0: cd87 133d a7ba c43d f187 0f3d 541c 76bc
00000300: 2c6f 543b a9ff a53d 11e7 fabb f955 633b
00000310: 0c6b 903d 0fbc 353b 72bd eabc 652c 433d
00000320: b5ae d5bd bef1 ef3a e519 81bd a6c3 6fbd
00000330: 9f1c 803d bfac bd3c 6b20 793b b8b7 643b
00000340: a6ff 0c3d ec49 e4bc 3824 053d c29c d03d
00000350: 5f9f b93c a507 b9bd b439 543d 8bed f63c
00000360: 4b41 e5bc 294a 91bc 563a 903c 5d01 3b3d
00000370: 42c6 563d 97ed 0ebd 7461 24bc 983e 86bd
00000380: b4d5 8ebc 7995 753d e704 b23d a861 84bd
00000390: 618e 643d 6edc 39bd e727 9dba bfcc a73d
000003a0: 9604 95bb 9cf9 a8bd 3709 d13d a2a3 92bc
000003b0: 8bc0 5fbd 1a44 e33b a405 503d 2f35 bd3d
000003c0: f9bb adbd 8c08 053d 1936 0bbc 830f c73d
000003d0: 5ec1 c7bb 63d1 2f3d 7747 c13c 0067 c9bd
000003e0: bf7f 15bc 2776 b4bd e237 acbd b338 debd
000003f0: ee54 3b3d 5920 ae3b a233 003e f24b deba
0.045648836 0.0073712175 0.04915491 0.032391947 -0.08083824 0.050891753 0.004602888 -0.036877535
0.0062633986 0.035596922 0.04648664 0.025450671 -0.021565253 -0.005506022 0.08457243 0.10743638
0.027815968 0.07319313 -0.017411139 0.026068414 -0.051932793 -0.0036157127 0.04667766 0.05050384
0.0001985342 0.006352914 -0.0048762625 0.015752254 0.005277899 0.047114085 0.0631567 0.0005331672
0.015591073 0.033248074 -0.02438742 0.020738363 0.0057588266 0.012121528 -0.055669416 -0.032181617
-0.00803557 0.038123865 0.012554146 -0.008423783 -0.09531352 -0.006081505 0.01723972 0.07693996
-0.030544743 -0.0038148665 -0.0028242928 0.005419857 0.047350366 0.063015245 -0.007893085 -0.02584263
-0.0105205225 0.0058888793 -0.009828401 -0.032501448 -0.0648149 -0.015168694 -0.0031674672 -0.057090465
-0.04543569 -0.047148146 -0.029284908 -0.033577986 -0.010558472 -0.032240406 0.00078991905 -0.01306522
0.010120031 0.02494113 0.027404012 0.010824576 -0.024237972 0.047907174 -0.019895848 -0.002248647
-0.033763904 -0.05881494 0.014370816 0.0054369643 -0.014460471 0.073919915 0.0009147324 -0.04131959
-0.0020635617 0.024589917 -0.048233677 -0.037211437 -0.008950546 0.07030736 0.014069871 -0.00011549237
0.054027997 -0.0150258755 0.04295854 0.059438005 -0.051220432 -0.007355485 0.021132603 -0.004297801
0.05602451 -0.03870806 -0.029248457 0.029824145 0.0049719163 0.033717185 0.029171648 0.02168261
0.07697823 -0.06257244 0.030652106 0.030781308 -0.02899724 -0.044733953 0.09491076 -0.023941936
-0.003109961 0.014625644 0.04768675 -0.009085957 0.030557534 -0.019816251 0.003314801 0.0143878115
-0.023601415 0.019668533 0.03467686 0.018569833 0.049284976 0.051581554 -0.00027900335 -0.04430558
-0.091953106 0.012753672 0.029161317 0.031912293 0.023604633 -0.037915025 -0.0047031348 0.06203188
-0.010175598 0.057707127 -0.007176956 -0.028587475 0.016010731 0.047866054 0.028771117 -0.02734055
0.02898225 0.012516813 0.027485752 0.014685515 0.021606453 0.0051383865 -0.020190276 -0.068409644
-0.07132245 -0.033571914 -0.040978014 0.04269705 -0.07595512 -0.009013958 0.033525463 0.043133613
0.006737908 -0.040334497 0.019968012 0.034570057 0.062493097 0.01767667 0.0190081 0.004627305
0.06910306 0.043086316 0.0252951 -0.02757739 -0.032894246 -0.03204054 -0.010470823 -0.005825629
-0.0025796432 -0.0037051474 0.009317472 -0.026238695 0.03601818 0.096059136 0.035041753 -0.015021402
0.0032414896 0.08105404 -0.00765694 0.0034688695 0.070516676 0.00277305 -0.028654788 0.04764976
-0.10433713 0.0018306298 -0.06303767 -0.058536194 0.06255459 0.02315366 0.0038013707 0.0034899544
0.034423493 -0.02786728 0.032505244 0.10186149 0.022659002 -0.09034661 0.051812842 0.030142566
-0.027985236 -0.017735558 0.017605942 0.045655597 0.052435167 -0.034894552 -0.010033 -0.065549076
-0.017435886 0.059957 0.08692341 -0.06463939 0.055799846 -0.045376234 -0.0011990041 0.08193349
-0.004547666 -0.08250734 0.10206836 -0.017900292 -0.054626983 0.0069356086 0.05078663 0.092386596
-0.084831186 0.032478854 -0.008496785 0.097197555 -0.006096049 0.042924296 0.023593647 -0.09834099
-0.009124695 -0.08811598 -0.08409096 -0.10850658 0.045735292 0.0053139147 0.12519696 -0.0016959889

Fd2da27LSTM.bias_ih_l0 f4 [600]
00000000: 9476 273c 10fc e2bc 101f d23b 5652 7a3a
00000010: b876 05bc b80a 083c 7804 5abc da54 2f3b
00000020: b7fc 29bc f747 e1bb 498f 1dbc 26a0 0dbb
00000030: efc8 4dbb a63f 31bb a99b c7ba a060 eebb
00000040: 79b2 c23b c6b1 b33c 3325 0e3b 05ff f23b
00000050: 9199 843c 87e2 4e3c 7021 823c ac9c 88b9
00000060: d5d7 e9bb d7fe 02bc 6940 80b9 9e2f b93c
00000070: 75a5 1d3b 360b e03b 30a7 1dbc a862 95bc
00000080: c5b4 643c c7a0 973c 1991 883c 46f1 c2bb
00000090: e271 c5bb da30 463b 756b 723b 3b28 493c
000000a0: 10ec 8bba 6434 aeba d7ae 423c e6a1 c1bc
000000b0: b631 dcb9 7d12 6f3a d6b3 77bc 3bde e9bb
000000c0: 5f61 6cbc 305c 2d3c 3349 583c fe9e e0bb
000000d0: 1bf3 cd3b 79d1 5d3c 4c44 763c 4cbd 053c
000000e0: da88 0b3c c2d4 babb 69c8 74bc 3980 ea3c
000000f0: 740c db3c 2633 343c 5eda d9bb 2cab 1cbb
00000100: bac8 11bc 848a 81bc 7247 82bb b721 8ebb
00000110: 5d7d 31bc f083 783a ed76 803c 362c 873c
00000120: da82 fb3c ab31 1abc f800 a9bb e2ed 95ba
00000130: 91b7 a13b 4e9e 0c3c b49a c6ba d1a3 573b
00000140: 7626 5e3c 8424 6d3a 6aee c63c 9c78 103c
00000150: 7b18 16bb dd6e 5b3c 74f0 1cbc 8821 a73c
00000160: ac11 91bb b92a bd3c ae10 98bc fdab dcbb
00000170: bc08 f4ba 7257 48bc ce8e c03b d298 c8ba
00000180: 14fd 493b 8ec0 203c be69 86bb 6bf5 3d3c
00000190: 64cb 5abc af45 ac3b ca8a 42bc 8f5c 9abb
000001a0: 8d31 45bc 1c91 9d3b 9b24 9dba d2e7 9b3c
000001b0: 8293 7a3c 8fc4 1dbc 015a cd3c d154 d6bb
000001c0: 7448 783c d6a6 f83b bcf1 423c 98fa 933c
000001d0: 4907 26bc 996b ac3c dbfa e4bc 9642 87b9
000001e0: 9f23 703b 9e0d 62bc 0a33 98bb 11a5 d93b
000001f0: eb09 35bc 5807 f2ba 56ff 66ba ac77 bfb7
00000200: fadf b23c 1f76 8aba 40bc 0d3c 8c1c e23b
00000210: 8381 4dbc 544b 5d3c 6089 7abb 576a 16bc
00000220: 2e2d 7b3c 8c0d 023b c2cb 9abb 1539 27bc
00000230: 5662 693c f6c2 dfbb 1520 9c3b 4796 3eb7
00000240: 0df8 5fbc 5fcd 73bc 06ff 573c c058 f93c
00000250: aecc 09bb 90bd 1f3c 3949 24bc cfb7 243d
00000260: 9fe9 913c ad12 853c c9ad 5f3c 3f61 593c
00000270: 5288 023d 07fb 213c 17dc 033d 967a 4f3b
00000280: f265 dd3c 0e41 f93a ceea c33b 4896 483a
00000290: f7a1 0ebb 7ff5 873b 9b30 5c3c 0875 603d
000002a0: 6b16 9c3b 63f7 0abc 4684 cb3c f208 98ba
000002b0: 6427 043c 0bc3 0e3c 1e05 993c 8ec7 843b
000002c0: 44f2 b53c 29ad 4ebc 8e78 46bb 1367 583c
000002d0: 1368 323d c0c8 363d aa38 c93c 41a2 74bb
000002e0: 1053 bfbb 697b af3b 3f8e 8fbb b3e0 0bbc
000002f0: 82be d93c 3272 723c aefc f03b c097 823c
00000300: 0a02 59bc 6a2b 5bbc 9c5a 65bb 6f2d 723b
00000310: 1ce7 9139 a94f 893c e18c e93c 4858 363c
00000320: 529d 503c d989 b43a b581 cc3c 5f4d 90bc
00000330: e275 323d ffb1 cebb 802d 523b d10e 1ebb
00000340: 174a af3d 95a4 803c 48ca 75bc dfd1 7a3c
00000350: 9235 40bb 4c70 6e3c 5cf6 3f3d e010 273c
00000360: 1059 103c f569 d439 ff61 f83b ecda 40bb
00000370: 14a1 be3c 1df6 4cbc 3974 f3bc c786 9b3c
00000380: e2b1 db39 7e8b 653c 0f72 623c 8ae9 b2bb
00000390: 7fdf 88bb 9b88 ddbb ff0e 54ba 366b 263c
000003a0: 3dc7 603b 1971 763b 1710 1f3d 71e2 c73a
000003b0: 2c5a 483a 3388 2fbb be00 183b 5a6f 94bc
000003c0: 405d d33d 9322 143c 7cc0 ad3b 871d 233b
000003d0: 4051 6f3c 20cb 8d3b f32b db3c 7fe7 fbbb
000003e0: f9dd 7039 1db1 4ebc 5d36 1dbc 541f 41bc
000003f0: c909 853c f699 23bb 4850 523c 9486 0dbc
0.010221142 -0.027708083 0.0064123943 0.0009549012 -0.008145981 0.008303337 -0.0133067295 0.0026753456
-0.010375193 -0.006875034 -0.009616681 -0.0021610348 -0.0031400283 -0.0027045994 -0.0015228885 -0.007274702
0.0059416858 0.021935355 0.0021689653 0.0074156546 0.016186507 0.0126272505 0.015885085 -0.0002605667
-0.007136325 -0.007995329 -0.00024462052 0.022605713 0.002405492 0.006837274 -0.00962238 -0.01823552
0.013959114 0.018509282 0.01667075 -0.005949172 -0.006025539 0.003024152 0.003699032 0.012277658
-0.001067521 -0.001329076 0.011882505 -0.02363677 -0.00041998707 0.00091198814 -0.01511856 -0.0071370876
-0.014427512 0.010581061 0.013201046 -0.006854891 0.006285084 0.013538712 0.015030932 0.008162808
0.008516515 -0.0057016322 -0.01494036 0.028625594 0.026739337 0.010998523 -0.006648346 -0.0023905737
-0.008897955 -0.01581312 -0.003975802 -0.004337515 -0.010833112 0.00094801094 0.015681708 0.016500574
0.030702043 -0.009411256 -0.005157586 -0.0011438692 0.004935213 0.008582665 -0.0015152306 0.0032904039
0.0135589745 0.0009046274 0.024283607 0.008817818 -0.0022902775 0.013393131 -0.009578813 0.020401731
-0.0044271555 0.02309166 -0.018562641 -0.00673437 -0.0018618326 -0.01222788 0.0058763986 -0.0015304333
0.0030821012 0.009811534 -0.004101961 0.011594157 -0.013354156 0.0052573304 -0.01187391 -0.004710741
-0.01203574 0.004808558 -0.0011989059 0.019031439 0.015293958 -0.009629383 0.025067331 -0.0065408726
0.015153993 0.007588248 0.011898454 0.018063828 -0.010133573 0.0210474 -0.027951648 -0.00025798817
0.0036642326 -0.013797192 -0.004644756 0.006641992 -0.011049728 -0.0018465323 -0.0008811852 -2.28247e-05
0.021835316 -0.0010563767 0.008650839 0.0069003757 -0.012543085 0.013506729 -0.0038228855 -0.009180627
0.015330596 0.00198445 -0.004723997 -0.0102064805 0.0142446365 -0.006828661 0.0047645667 -1.1359872e-05
-0.01366998 -0.014880507 0.013183361 0.030437827 -0.002102654 0.009749785 -0.010027223 0.040214356
0.017811595 0.016244257 0.013652273 0.013267814 0.031868286 0.00988651 0.032192316 0.003165876
0.02702615 0.001901658 0.0059789186 0.0007651788 -0.002176402 0.0041491385 0.013439323 0.05479911
0.0047634146 -0.008481833 0.024843346 -0.0011599346 0.008066032 0.008713494 0.018679198 0.004052109
0.022210248 -0.012614527 -0.0030284259 0.013208169 0.043556284 0.044625044 0.024563152 -0.0037328156
-0.0058387592 0.005355288 -0.0043809707 -0.008537459 0.026580099 0.014797734 0.0073543405 0.0159415
-0.013245115 -0.01337705 -0.0034996634 0.003695335 0.00027828745 0.016761618 0.02850956 0.011129446
0.012732821 0.0013773992 0.024964193 -0.017615018 0.043569453 -0.00630784 0.0032070577 -0.0024117718
0.085590534 0.015703479 -0.015001841 0.015308826 -0.0029328805 0.014553141 0.046865806 0.010196894
0.008810297 0.00040514735 0.0075800414 -0.0029427363 0.023270167 -0.01250985 -0.029718505 0.018985165
0.00041903468 0.014010308 0.013821139 -0.005459969 -0.0041770334 -0.0067606694 -0.0008089393 0.010157397
0.0034298443 0.0037604033 0.038833704 0.001524998 0.0007642831 -0.0026784062 0.0023193802 -0.018119503
0.103205204 0.009041446 0.005302487 0.0024889426 0.014606774 0.004327193 0.026754355 -0.0076875086
0.00022970875 -0.012615469 -0.009595481 -0.011787254 0.016240017 -0.0024963594 0.012836523 -0.008638043

Fd2da27LSTM.bias_hh_l0 f4 [600]
00000000: f349 9a3c cf7f 10bd 55b5 1c3c 34b4 4e3b
00000010: 17e0 f1bb 88c3 683c eda2 d3bb 403e e83a
00000020: 3259 2cbd 7a7f 05bc 2559 1039 686b 1abb
00000030: 4ef4 4cbb 8ebe 05bb 2f69 98ba 8287 b3bb
00000040: 325c da3b 7f32 d33c 1cfe 453a 1d07 233c
00000050: 9014 883c d9c0 6a3c 6574 a53c c875 263b
00000060: e7e0 32bc 30a5 2ebc 4396 103a b77e bb3c
00000070: 7212 2d3b 0d5c 033c 5fcb d4bb e9e4 c7bc
00000080: d5d4 813c 1425 a13c 9410 8d3c 72be d3bb
00000090: 266d cbbb 1923 f6ba 7ed4 243c c0c1 343c
000000a0: 0a41 9eba 5918 21bb 981f 643c dd10 f1bc
000000b0: 235b c33b ef1c 473a 6bf8 ccbb 7b23 b3bb
000000c0: a0e1 69bc f26f 3d3c d6fe 573c 44ef eabb
000000d0: 805c fc3b f229 713c 35a0 ef3b 9306 213c
000000e0: bfe1 0c3c a8ae 98bb 375d 913b e1ac af3c
000000f0: 8ffd c03c ec7d e63b 7278 e4bb 662c 403c
00000100: 4bc3 cdbb c2e0 7bbc 1ffe 88bb 33e9 3dbb
00000110: 308e 37bc fd7c 7438 e97c 3e3c 40bb a83c
00000120: 8cab 023d 1efd 51bc 64d6 b7bb bfee 09bb
00000130: c643 17bb 5aeb 093a 0db6 fcba a40f 6b3b
00000140: aab4 0a3c 9fe9 22bb d74f b73c 21e9 1b3c
00000150: cf94 c7b8 1c5c 093c d47e 07bc b5ee 9f3c
00000160: cb48 93bb eea2 31bb 6f6d abbd 66e2 18bc
00000170: a7f2 7bbb a068 2ebc 433b 423c f499 e0ba
00000180: 79ff f83a 014c 3b3c 6f62 81bb e553 333c
00000190: d946 5fbc 2870 b03b 11dc d2ba 28b9 99bb
000001a0: 7b5e ecbb 2915 dd3b c778 48b9 42b5 c43c
000001b0: 6b63 6c3c 3d31 23bc 2665 c13c 2bd6 c6bb
000001c0: bf55 913c 866b f93b 4742 2a3b bba7 6a3c
000001d0: 73b6 32bc 4245 8c3c 5680 e5bb 3c38 c93a
000001e0: 3dd3 713b 7d17 6fbc cdac 6cbb de1b 25bb
000001f0: 7b35 35bc b42f 10ba 51af b0ba 4aa9 a6b9
00000200: 719c ac3c 50d2 8cba 4081 b7bb 488e 0b3c
00000210: 9c30 b8bc b37f 6a3c bc56 8b3c 2c4e 1bbc
00000220: be86 7e3c f0ca 5e3b 1118 50bc b4dd 35bc
00000230: b1c5 f03c bded edbb a7d3 a23b 6d0e 4abc
00000240: b9ac 64bc 1830 4cbc 5e68 173c 615e a13c
00000250: a2d9 38bb 7e6d 233c 5b5f af39 f97b 2e3d
00000260: 1bbe d63c 8233 863c c4b8 9e3c 0d0f 903c
00000270: 82ca 963c 8697 143c 7fbe 6b3d 1381 243d
00000280: c3c5 363d f38f 013b a3be 713c 1685 f739
00000290: ba3f 69bb cbf4 de3b e42f 5f3c 2dee fc3c
000002a0: c02b b73b 9077 0fbc cdbe c73c acb0 c7ba
000002b0: e6c1 463b 2eab 053c 8328 ca3b b846 8039
000002c0: e253 b13c 36ba 4cbc 310c 3dbb afd4 b03c
000002d0: 3806 823c 1551 253c aa2f 9a3c a524 7fbb
000002e0: bed7 bdbb adfe b83b f469 6fbb b3a3 77bb
000002f0: 84f8 d83c afc4 203c fcd9 2c3c 9efa 7e3c
00000300: a1d6 78bb ed9d fd3b 79ee 393d 7c3e 623b
00000310: 2896 4f3c d9dc 5d3b 304e c23c f03e 833b
00000320: 141d 4c3c 4f78 b93a a00a c83c 5ae6 9bbc
00000330: 7d2d 3d3d 4f3f 04bc a900 473b 16c5 563b
00000340: 1c5c b73c 8bd5 9cba 6a05 89bc 6ee4 693c
00000350: 0e9d 5ebb 9fac 553c cb7d ec3c 944f 0f3c
00000360: ad5b 223c 26ba 363b ee53 0c3c c180 45bc
00000370: b984 573c 1b7d 9d3c a9b5 cabc 761d 053d
00000380: 44f1 b439 4d12 9abb ebae a73c d513 51bc
00000390: 6083 92bb d4ed 933d 6c19 a03b e28c 113c
000003a0: 80cd ce3c 8298 fa3b 6235 0e3d 8117 3a3c
000003b0: f191 35ba de5a c83c b339 1e3b d62b 4b3d
000003c0: 70a9 1d3e cb31 4a3c 5390 953b 5536 e63c
000003d0: 4614 333d 0649 8c3b 6597 6d3c c58d dbbb
000003e0: 48cd a9bb c28d 293c 3ea7 1cbc 55b2 05bc
000003f0: b8a2 823c 7ff5 20bb 2167 793d 50dd 42bc
0.01883409 -0.035278138 0.009564717 0.0031540515 -0.00738145 0.0142067745 -0.0064586313 0.0017718747
-0.04207725 -0.008148069 0.00013766119 -0.0023562554 -0.0031273547 -0.002040777 -0.0011628027 -0.0054788003
0.0066638226 0.025780914 0.0007552819 0.009950426 0.016611367 0.014328205 0.020197103 0.0025399793
-0.010917879 -0.010659501 0.0005515555 0.02288757 0.00264087 0.008017552 -0.0064939703 -0.024401145
0.015848557 0.019671 0.01721982 -0.006461912 -0.00620808 -0.001877877 0.010060428 0.011032522
-0.0012073827 -0.0024581163 0.013923548 -0.029426986 0.005961792 0.0007595559 -0.0062551997 -0.005466876
-0.014274985 0.011562334 0.013183316 -0.007169636 0.0077014565 0.014719473 0.0073127993 0.009828228
0.008598744 -0.0046594925 0.004436161 0.02144474 0.023558406 0.007034054 -0.006972366 0.011729335
-0.0062793843 -0.015373411 -0.004180684 -0.002897811 -0.011203334 5.8290538e-05 0.011626461 0.0205971
0.03190188 -0.0128166955 -0.005610274 -0.0021046845 -0.0023081168 0.00052612054 -0.001928033 0.0035867477
0.008465925 -0.0024858487 0.022376938 0.0095160315 -9.516777e-05 0.008383777 -0.008269984 0.019523004
-0.0044947616 -0.002710517 -0.08370482 -0.009331321 -0.0038444193 -0.010645062 0.011854949 -0.0017135725
0.0018997035 0.011431695 -0.003948502 0.010945295 -0.013627731 0.005384464 -0.0016087313 -0.004691262
-0.0072134114 0.0067469073 -0.0001911848 0.024012212 0.014428 -0.00996047 0.023607802 -0.0060680113
0.017741082 0.0076116947 0.0025979446 0.014322217 -0.010907757 0.017122868 -0.007003824 0.0015351842
0.003689959 -0.014593002 -0.003611374 -0.0025193612 -0.011060114 -0.00055002724 -0.0013479983 -0.00031788117
0.02107069 -0.001074383 -0.0056001246 0.008517809 -0.022484116 0.014312672 0.017009132 -0.009479087
0.015535055 0.0033995472 -0.01270105 -0.011100221 0.029391142 -0.0072610066 0.0049690786 -0.012332541
-0.013957196 -0.012462638 0.009241192 0.019698324 -0.002820589 0.009974835 0.00033449646 0.0425987
0.026213696 0.016381983 0.019375212 0.017585302 0.01840711 0.009069329 0.057554718 0.040162157
0.044622194 0.0019769638 0.014754924 0.00047210668 -0.0035590963 0.006804084 0.013622258 0.03087529
0.005589932 -0.008756533 0.024382973 -0.0015235147 0.0030327975 0.008158488 0.00616938 0.00024466752
0.021646444 -0.012495568 -0.0028846378 0.02158579 0.015872106 0.010090132 0.018821556 -0.0038931754
-0.0057935407 0.005645594 -0.003653166 -0.0037786781 0.026485689 0.009812518 0.010550018 0.0155626815
-0.0037969726 0.0077397735 0.04539344 0.0034522107 0.012670077 0.003385356 0.023718923 0.0040053055
0.012458105 0.0014150235 0.024419129 -0.019030739 0.04618596 -0.008071735 0.0030365384 0.003277128
0.022382788 -0.0011965496 -0.016726214 0.014275653 -0.0033968124 0.013041644 0.028868577 0.008747
0.0099095525 0.002788195 0.008564932 -0.012054623 0.013154202 0.019224694 -0.024744825 0.0324988
0.00034512032 -0.0047018887 0.02046915 -0.012761076 -0.0044712275 0.072230965 0.004885843 0.008883687
0.025244474 0.007647575 0.03471888 0.011358143 -0.0006926349 0.024457391 0.0024143278 0.049602352
0.15396667 0.012340973 0.004564324 0.02810208 0.043720506 0.004281166 0.014501427 -0.00670025
-0.005181942 0.010348739 -0.009561358 -0.008160193 0.015946731 -0.002456039 0.060889367 -0.011893585

ClassificationFd2da27.0.weight f4 [150]
00000000: eefe 933f 0b78 9a3f 2733 823f 3c4e 953f
00000010: 9531 7c3f a53a 853f 95b6 913f e379 823f
00000020: 1d8a 923f 68a5 8e3f 3fab 823f 8d69 273f
00000030: d5ed 853f dde1 723f 068a 7e3f 7593 883f
00000040: a624 7f3f 6c5a 783f 257b 583f 6af5 913f
00000050: 033c 7c3f 8edf 833f 7d0a 983f e042 883f
00000060: 9176 843f 49de 7d3f f44e 633f d555 963f
00000070: 42f3 7c3f 0f49 0a3f 4838 6a3f ddca 8c3f
00000080: 8ece 8f3f 7fb9 853f 5aa0 7b3f 629d 613f
00000090: 0932 683f 3e4e 7f3f 1d7b 803f b4fd 833f
000000a0: d49d 823f 2769 8a3f 4265 933f 74d7 903f
000000b0: a234 733f b3c2 6e3f eb41 883f adf5 8f3f
000000c0: 5006 903f e5fc 8c3f 6889 6a3f 986e 4e3e
000000d0: fde0 873f c33e 8b3f acf9 3e3f 0d60 8b3f
000000e0: 45d4 673f bab9 3e3f 2150 943f aba1 913f
000000f0: 8be2 993f f4e2 843f d30b 453f c311 673f
00000100: 9d07 893f 0295 783f 0bc3 6f3f 8d7a 7a3f
00000110: b176 5d3e d2a7 933f da2f 8d3f 9209 913f
00000120: 7c50 9a3f 9c6d 843f 28d9 263f a71c 933f
00000130: ee15 8e3f c8ea 893f 42eb 0b3f 5d4f 883f
00000140: cfd5 873f 5028 2b3f f3e2 993f 1dfa 883f
00000150: aa9a 833f 344d 7f3f 3191 813f 1e26 8d3f
00000160: e2c2 4d3f 2383 8f3f a6e5 8b3f 4387 7f3f
00000170: 83df 713f 82c1 8b3f 9b0b af3e fdba 093f
00000180: 0c55 a73f 240a 903f f69d 783f 3477 943f
00000190: edac bf3c 1dea 973f d72a 913f 3b33 103d
000001a0: 91b4 903f 2fa8 8d3f 146a 763f 5af5 9d3f
000001b0: 64ae 813f cd9b ea3e 2a90 913f ecd9 8f3f
000001c0: bb80 9b3f e83d 513f f1b3 8d3f bdcc 983f
000001d0: 5230 383f 493e 923f ab0d 8a3f 1917 8c3f
000001e0: 97a8 8f3f 6c04 153f f554 8d3f a82d 813f
000001f0: 06d5 553f 800c 903f 7745 223f 22a2 333f
00000200: 0e51 9f3f b660 8e3f b5d5 893f 0433 823f
00000210: a8c5 8d3f 8e21 863f cf51 783f 2764 7d3f
00000220: 1bd2 943f ef90 863f 1405 8c3f 2a8f 493f
00000230: cb79 813f 26ed 8d3f 29b6 863f a8c6 983f
00000240: 6fd6 883f 6c28 823f dd3e 853f 0bec 883f
00000250: 7732 5c3f bb97 753f
1.1562173 1.2067884 1.017186 1.16645 0.98513156 1.0408522 1.1383845 1.0193447
1.1448399 1.1144228 1.020851 0.6539543 1.0463206 0.9487589 0.9942936 1.067
0.99665296 0.9701297 0.84562904 1.140302 0.9852907 1.0302598 1.1878201 1.0645409
1.0348684 0.99167305 0.8879235 1.1744944 0.9880868 0.5401773 0.9149213 1.0999409
1.123491 1.0447234 0.9829155 0.8813077 0.9070135 0.99728763 1.0037571 1.0311799
1.0204415 1.081334 1.1515276 1.1315751 0.95002186 0.9326584 1.0645117 1.1246849
1.1251926 1.1014677 0.91615915 0.20159376 1.0615536 1.0878528 0.7459972 1.0888687
0.9055827 0.74502146 1.1586953 1.1377462 1.202226 1.0381761 0.7697117 0.9026148
1.0705448 0.9710237 0.93656987 0.9784325 0.21627308 1.153559 1.1030228 1.1331046
1.2055812 1.034595 0.65175104 1.1493119 1.1100442 1.0774775 0.5465585 1.064922
1.0612124 0.66858387 1.2022384 1.0701329 1.0281575 0.9972718 1.0122434 1.1027257
0.8037549 1.1211895 1.0929458 0.9981577 0.94481677 1.0918429 0.34188542 0.53800946
1.3072829 1.1253095 0.9711603 1.1598878 0.023397887 1.1868321 1.1341199 0.035205107
1.1305104 1.106695 0.9625561 1.23405 1.0131345 0.45821992 1.137212 1.123838
1.214866 0.81735086 1.1070539 1.1937481 0.7194873 1.1425258 1.0785421 1.0944549
1.1223325 0.5820987 1.1041552 1.0092058 0.8352817 1.1253815 0.63387245 0.7016927
1.2446611 1.1123264 1.0768343 1.0171819 1.1075945 1.047899 0.9699983 0.98980945
1.1626619 1.051298 1.093905 0.78734076 1.0115293 1.1087997 1.0524341 1.1935625
1.069044 1.0168586 1.0409809 1.0697035 0.86014503 0.9593465

ClassificationFd2da27.0.bias f4 [150]
00000000: c517 e8bb d630 04bc 9ee6 8d3a ca09 883d
00000010: dc55 8fbb ae76 d43d 0e49 fa3c 0758 063d
00000020: 5d0e 02bc 55d0 973d d28e 6cbc 4db2 a8bc
00000030: 6ecf 1b3d ba7a 5dbc a218 213d 24c6 973c
00000040: 64b1 5e3d 88f1 2c3c 5e16 f8bc 13e8 323d
00000050: 8b98 833d ed2c a439 7c21 633d e11e 5f3d
00000060: e7f7 cf3c 08cb 253d 7c76 f2bb c7e8 9f3d
00000070: 2353 073d df8e 14bc 0fbf 0e3d cc46 a53c
00000080: 87e1 efbc 0523 013d c6f7 3e3d d3f1 893b
00000090: b775 ce3c 470a 7d3b d409 30bc 09f3 dbbc
000000a0: 7a62 09bd 096a 213d cab2 b5bc b306 3a3b
000000b0: f822 03bd 6873 bebc a7e6 a03c 2968 933d
000000c0: b29f a5bc 0bab e93a 7f43 833c b890 31bc
000000d0: b3bc 9ebc 7c48 15bb 0181 d3bc c67a 5a3c
000000e0: 6cbc 01ba 6261 af3b 6162 163d 63ab 84bd
000000f0: 7cff d03b 001a 1d3d 34bd 28bc 94ff 033d
00000100: d933 9bbd a513 6d3d f2a4 19bc 515e c53c
00000110: 7b74 e13a 6b64 8b3d 0d2c a7bc 145d 9bbd
00000120: 30ca c93d 8f8a e03c 3884 03bd 1589 64bd
00000130: bcf3 333b 2374 c73c 9afa 26bd f24e d43d
00000140: d912 62bd 41dd 81bc 8d29 8fbb 6466 29bd
00000150: 7ec5 e5bb f830 183d 9060 a63d c679 c6bd
00000160: bea5 ec39 266f 5dbd 35ca fb3d 7580 a63d
00000170: 2828 a0bd f871 233c 07ef 42bc 5c03 31bc
00000180: 36d1 e4bd f01b 363c 8c3f 6bbc 899e 8b3d
00000190: 5d3a 32ba fc51 b63d 4a32 a23c 7ef1 04bb
000001a0: 2923 eabb 0f71 9fbc b5cf 813a 76df 2b3d
000001b0: 0514 213d 3c19 443c ce0a e03d 664f 17bd
000001c0: 6426 8d3d 8fa7 06bd f662 a73d 18ec 003d
000001d0: da7a 8abc d607 9cbc e30e 013c b0b9 41bd
000001e0: a8a7 28bd 0645 2c3b 1c3f 073d 6a72 603d
000001f0: 3f95 fcbb 60db fc3c 5322 40bb 2cbf afbc
00000200: 02ac 2abc 8915 cc3d b653 a83d 3f04 56bd
00000210: 2b01 4bbd f4cc 563d 4048 1a3b 5d39 d43b
00000220: 4d57 8f3d b500 e33b fced 51bd f3b9 ba3c
00000230: 88cc c13b 8930 85bb 7a76 553d 27db 95bd
00000240: 6149 363d b34c 1d3d 2d36 0e3d de77 fa3b
00000250: 53aa 613a b7d2 b1bb
-0.0070829117 -0.008068284 0.0010826176 0.06642492 -0.004374249 0.10374199 0.030552413 0.032798793
-0.007937995 0.07412783 -0.014438348 -0.020592833 0.038039617 -0.01351803 0.039330132 0.018527098
0.05436839 0.010555632 -0.030284103 0.043678354 0.0642558 0.0003131399 0.055451855 0.054472808
0.025386764 0.04047683 -0.0073993783 0.07808071 0.03303827 -0.009067266 0.034850176 0.02017536
-0.029282345 0.031527538 0.046623014 0.004209736 0.025202615 0.0038610862 -0.010744531 -0.026849287
-0.03354118 0.039407764 -0.02217998 0.002838534 -0.03201577 -0.02324839 0.019641234 0.07197601
-0.02021775 0.0017827464 0.016023396 -0.010837726 -0.019377088 -0.00227788 -0.02581835 0.0133349355
-0.00049490365 0.005352185 0.036714915 -0.06478002 0.0063781124 0.038354874 -0.010299016 0.03222616
-0.075782485 0.057880063 -0.009377705 0.024092825 0.0017200852 0.068062626 -0.020406747 -0.075861126
0.09853017 0.02740982 -0.032108516 -0.055794794 0.002745851 0.02434737 -0.040766336 0.1036662
-0.055193756 -0.015852572 -0.004368967 -0.041357413 -0.0070120683 0.037156075 0.081238866 -0.09691195
0.00045136915 -0.054061078 0.12294427 0.0812997 -0.07820159 0.009975903 -0.011897809 -0.010804024
-0.11172716 0.011115059 -0.0143584125 0.068173476 -0.0006798858 0.08902356 0.01979937 -0.0020285542
-0.0071453047 -0.01946309 0.000990382 0.041961156 0.039325733 0.011968907 0.10939561 -0.036940955
0.06892088 -0.03287464 0.08173172 0.031475157 -0.016904283 -0.019046705 0.007877084 -0.047296226
-0.041175514 0.0026286258 0.03301917 0.054796614 -0.007708221 0.030866325 -0.0029317334 -0.021453463
-0.010416986 0.09965045 0.082190916 -0.052250143 -0.04956166 0.052441552 0.00235416 0.006476565
0.06999073 0.0069275745 -0.05125235 0.022793746 0.0059142746 -0.0040646237 0.05211494 -0.073171906
0.044503573 0.038403224 0.034719635 0.007643684 0.0008608449 -0.0054267305

ClassificationFd2da27.0.running_mean f4 [150]
00000000: 69d2 e33d a3a9 843e 5e4c 9dbd d983 823e
00000010: 0ab9 6dbe 8dcd 9f3e b51a f0be 61f6 f3bd
00000020: b159 a93e a290 5c3e d054 dc3e 6ca9 dc3c
00000030: b3fc c93c 50c4 60bc 28bd 233e 951f b23e
00000040: 4ff1 763d 50b5 96bd bf6e efbc 957d 41bd
00000050: e54b b7bd c3b8 753c b2ad 323e d664 813e
00000060: 8c35 f83d cf9c 443d 3233 53be 6993 1c3c
00000070: deb1 f8bc b4c8 543e f38f 913e c4f4 91be
00000080: 1265 b83c 2d97 b0bd 5587 d1bd f4b8 003d
00000090: 14fb 703d 667e 30be 22f3 b0be e708 8dbd
000000a0: c1e2 7fbd b120 a93d 16a3 b53d 5f97 93be
000000b0: 4319 e1be 941a 463b 653e e6bc e430 b03e
000000c0: c125 8abe bcd4 8ebe 1c65 2bbc aef2 9a3a
000000d0: bf62 1c3e 5f5e b53d 826f a7be 1e2f 993b
000000e0: 4094 79bc 9dc6 e8bc 0e41 413e aa79 c73d
000000f0: 108d 62bd 6405 90be f730 5abb 1bf5 d83e
00000100: 9a8c 3d3e a59a 0e3c eb23 22bd 0ed0 2bbc
00000110: 6118 cdbd 6285 5f3e 0c36 a2be 55da 6b3e
00000120: 6208 63bc 20b2 343d 8a92 f63d 77ce 363e
00000130: b7ff e8be 000f adba 5a29 b5bc 95a3 2f3e
00000140: a4a0 06bc 3c8a 2dbe a89b b73e dffc 113d
00000150: bd6f 093d 290b 9e3e bc38 88bc 874d 833c
00000160: 5bb5 56bc 0534 be3c 1dd2 d13e 5bf0 883d
00000170: 6c32 96bd d3c4 543e ed8a 40be e7d7 76bb
00000180: c707 923e e277 183e 5750 47be 5d59 75bc
00000190: fd05 67bb b2a7 ff3d eb1e 2b3e 8306 47bc
000001a0: e508 f23d 0531 5bbe 9dd8 fcbd b06c 723d
000001b0: 787e bd3e 3639 36bb 08a5 ee3c 9de9 833e
000001c0: 0181 8a3d e1ee 873b ee9a 313d 2ea7 c0bc
000001d0: 670c c0bc 293a 3cbd 253f ef3e 09b1 70be
000001e0: 2ee8 dbbc 3272 5e3d 9818 a3bc 03d3 a4bc
000001f0: 9e9d 573c 57c3 7e3e 085d 89bc d68f de3b
00000200: bc5c 8e3e 61ed 953e 7008 8f3c a1d4 173e
00000210: 606d 68be 1b27 903e 7503 cd3e 4339 b13c
00000220: 50a8 10be ddb3 0ebc 0c1a 9b3e 9f48 b83d
00000230: 66d7 f73e 1bec 31be f10c 99bd b538 7f3e
00000240: ff30 a23e a225 363d bb70 a4be 8f33 8b3d
00000250: 62f9 0abd b93c 0cbe
0.11124117 0.25910673 -0.076805815 0.25491217 -0.23215118 0.3121151 -0.46895376 -0.119122274
0.33076242 0.21539548 0.43033457 0.026936255 0.02465663 -0.01371868 0.15990126 0.3478972
0.060288724 -0.07358801 -0.029227613 -0.047238905 -0.089500226 0.014997664 0.17449072 0.25272244
0.12119588 0.048001107 -0.20624998 0.00955663 -0.030358251 0.20779687 0.28430137 -0.28507054
0.022509132 -0.086225845 -0.10230891 0.031426385 0.058833197 -0.17235717 -0.34560496 -0.068864636
-0.06247211 0.082581885 0.08868997 -0.28826424 -0.43964586 0.0030228244 -0.028105924 0.344123
-0.2698193 -0.27896678 -0.010461118 0.0011821592 0.15272044 0.088558905 -0.3270226 0.0046748063
-0.015233099 -0.028415019 0.18872473 0.097400025 -0.05531031 -0.28129113 -0.0033293345 0.423745
0.18510666 0.008703862 -0.039585035 -0.010486616 -0.100144155 0.21828225 -0.3168186 0.23032506
-0.013856979 0.044115186 0.12039669 0.17852198 -0.45507595 -0.0013203323 -0.022114445 0.17152245
-0.008217011 -0.16947263 0.35860944 0.035641547 0.033553828 0.3086789 -0.016628616 0.016028179
-0.013104762 0.023218164 0.40980616 0.06686469 -0.07333836 0.20778207 -0.18802996 -0.003766531
0.2852156 0.14889482 -0.19464241 -0.014974919 -0.0035251372 0.12483157 0.16711013 -0.012147549
0.11818103 -0.21405418 -0.12346003 0.059185684 0.3701055 -0.0027805096 0.029131427 0.2576417
0.06762887 0.0041483496 0.043360643 -0.023517217 -0.023443414 -0.045953903 0.46727863 -0.23505034
-0.02684411 0.054308124 -0.019909188 -0.02012015 0.013160137 0.24879204 -0.016767994 0.006792049
0.27805126 0.29282668 0.017460078 0.14827205 -0.22697973 0.28154835 0.400417 0.02163375
-0.14126706 -0.008709875 0.3029331 0.089982264 0.48406523 -0.17375223 -0.074731715 0.24923976
0.31678006 0.044469483 -0.32117257 0.067969434 -0.033929236 -0.13695039

ClassificationFd2da27.0.running_var f4 [150]
00000000: bec4 2a38 fb56 8237 d66b 5638 8f66 2b38
00000010: 250e 1e37 3c0b f236 e148 3c38 08fd d436
00000020: 3e76 b737 24ef 6e37 ed48 1d37 c87f 1a36
00000030: 4efd 7937 bd38 8a36 9f7c ba36 f5f9 6e37
00000040: 80b0 2137 5c2e 1a38 b3c3 f936 87b1 0538
00000050: 4c01 0339 b843 b137 70f7 9938 197e 9e37
00000060: 107c 5037 f046 bf36 3d8d e335 a33a 6638
00000070: 7f8b fa36 fddd fa35 c346 8236 3f50 b938
00000080: 9e6e 2e38 5b61 bf37 a5b9 4437 a4e9 a635
00000090: 1882 a135 04c5 f736 ca03 5937 2ac5 d337
000000a0: 7224 4237 cd1e f537 f441 0038 8d3b 2b38
000000b0: 81f1 0837 01ee 0037 abd2 3d37 8426 7737
000000c0: 4ff8 5c37 3e1f 2637 8f42 0b38 171c 7534
000000d0: 07ee d337 d8f9 9f37 5d36 2a36 08c1 1838
000000e0: c2f0 0537 2a60 9835 1706 0c38 f41e 9938
000000f0: 536e 4438 07c4 4237 3e4a 7635 93ea 0d37
00000100: 1e58 df37 8c30 4536 0a1c 5a36 f6e7 fd36
00000110: c5c2 5d36 0435 b537 a538 dd36 7d17 6639
00000120: 6235 4f38 38e1 0d37 ffcf 2536 2b11 9a37
00000130: 29c3 1f37 bb6f c537 d01b 2c36 5eb9 4838
00000140: 4b46 b937 171d 5436 aed3 8237 07f4 cf37
00000150: d980 fb37 45f9 1f37 6db4 af37 6d8d f437
00000160: 5200 a535 581e 0138 b6bd bd3a 3ec2 b336
00000170: 0ff7 8f37 acce da37 3208 8035 a8b6 0e36
00000180: c86a bd37 9ea4 f037 362f bd36 df89 f337
00000190: 133b 9c35 aa21 bf37 9455 d038 9ed5 fe33
000001a0: 3c33 c637 da60 de37 2000 5336 93b9 bb38
000001b0: b465 ef36 3fcb 8b34 3216 6f39 2067 a137
000001c0: 89bd 9e38 9b24 6437 c14d 9837 e621 2a38
000001d0: 639c 3936 0fde 3b38 03b8 5538 3b7a e436
000001e0: 3df7 9738 d22c 9336 a9d7 5137 c1e1 1b38
000001f0: 1bf1 1636 7d5c 5237 4406 8035 2123 e835
00000200: a92f bf37 c34e 5637 42e0 3337 6b9c 2937
00000210: 0a73 5c38 960a ba36 49c1 bf36 321a 9536
00000220: 1ac3 c238 a914 3d37 9ffe be37 c4b5 9d36
00000230: bf6a 2437 6e46 4137 491e cb37 a2c7 0638
00000240: d25a 6c37 cff9 7736 2d2d a136 b485 2d38
00000250: 4f40 0036 d990 4738
4.071439e-05 1.5537711e-05 5.1122006e-05 4.0865092e-05 9.420827e-06 7.21347e-06 4.4890567e-05 6.347549e-06
2.187036e-05 1.4241585e-05 9.374909e-06 2.3022167e-06 1.4900534e-05 4.1193257e-06 5.5577398e-06 1.4244103e-05
9.637442e-06 3.6759637e-05 7.4435607e-06 3.1875006e-05 0.00012493617 2.1131578e-05 7.341697e-05 1.8893787e-05
1.2426652e-05 5.700502e-06 1.6953924e-06 5.4890883e-05 7.46682e-06 1.8691059e-06 3.8825397e-06 8.8364344e-05
4.1587853e-05 2.2814309e-05 1.1725734e-05 1.2435962e-06 1.2033297e-06 7.3841093e-06 1.293509e-05 2.5244972e-05
1.1571787e-05 2.9220619e-05 3.0579e-05 4.0825038e-05 8.162461e-06 7.684809e-06 1.1314328e-05 1.4731315e-05
1.3170836e-05 9.901645e-06 3.320217e-05 2.2827622e-07 2.5264e-05 1.907062e-05 2.5363618e-06 3.64194e-05
7.983474e-06 1.135287e-06 3.3384273e-05 7.301374e-05 4.683279e-05 1.1608942e-05 9.175018e-07 8.458871e-06
2.6624704e-05 2.9383546e-06 3.2500852e-06 7.5669914e-06 3.3044937e-06 2.1601569e-05 6.5929075e-06 0.0002194326
4.9402362e-05 8.456693e-06 2.4707986e-06 1.8366225e-05 9.522578e-06 2.3536259e-05 2.5646186e-06 4.7856352e-05
2.2086451e-05 3.1607394e-06 1.5595779e-05 2.4789957e-05 2.9981531e-05 9.535176e-06 2.0945643e-05 2.9152923e-05
1.2293551e-06 3.0784257e-05 0.0014476094 5.3572285e-06 1.7161974e-05 2.6083864e-05 9.539128e-07 2.1265969e-06
2.258028e-05 2.8686885e-05 5.638135e-06 2.9032059e-05 1.1640099e-06 2.278465e-05 9.934153e-05 1.18666534e-07
2.3627297e-05 2.6509562e-05 3.1441523e-06 8.951421e-05 7.134595e-06 2.6038649e-07 0.00022801085 1.9240717e-05
7.569331e-05 1.3598382e-05 1.8156019e-05 4.056273e-05 2.7658177e-06 4.4791082e-05 5.095453e-05 6.809159e-06
7.246293e-05 4.386159e-06 1.2507583e-05 3.716513e-05 2.2492084e-06 1.25385095e-05 9.538567e-07 1.7295571e-06
2.2791168e-05 1.2773732e-05 1.07214455e-05 1.0109604e-05 5.2559226e-05 5.5444643e-06 5.714745e-06 4.4435956e-06
9.2869814e-05 1.1270088e-05 2.2768332e-05 4.700125e-06 9.8000155e-06 1.1520095e-05 2.4213588e-05 3.2134012e-05
1.4087842e-05 3.6951276e-06 4.803433e-06 4.1370935e-05 1.9110919e-06 4.7580197e-05

ClassificationCat.0.weight f4 [1, 150]
00000000: 00fa 69be a99a 8ebe e15a fc3d d46f 62be
00000010: ff72 00be e947 223e b9a9 513e 80eb 1a3e
00000020: 5712 6dbe dbdd 5a3e 80e6 283e f1bb 583d
00000030: d725 243e 0103 00be efaa 0b3e 1c7b 4a3e
00000040: 3b70 2dbe a618 bfbd 7d93 a2bd 6edc 653e
00000050: f049 2a3e 9dca 33be f481 89be 868f 3d3e
00000060: 2e15 0a3e 3890 ee3d cd70 f03d 5f08 6fbe
00000070: 1476 10be 8470 49bd 5676 d73d cd1f 403e
00000080: f703 523e 2f4e 433e 1093 03be 0eb7 c13d
00000090: 0e93 f13d 279f ecbd 4689 07be d1e7 05be
000000a0: 8aa6 0ebe c3e5 303e 3d7e 65be 83f9 503e
000000b0: af95 0f3e c0f8 00be 748a 34be 2cda 663e
000000c0: 0fb4 5b3e 1476 4cbe 037b c03d a13e f4bb
000000d0: 3ba4 403e df86 413e b574 3abd bba7 38be
000000e0: 24f9 f13d bb1e 7cbd 1ad3 52be 8c55 59be
000000f0: 0b78 92be cbd1 21be 41de a5bd 83ad 2e3e
00000100: 1bf2 45be 5e95 db3d d3f3 d0bd 781b f03d
00000110: 0124 66bc 5732 67be 68e8 523e baa0 62be
00000120: 3c34 8b3e 1b72 1f3e 3b09 c1bd ca2e 66be
00000130: c479 3c3e 38a1 33be 2f6a 96bd 392a 2c3e
00000140: fec4 44be 8277 1ebd 2d2e 84be 5e97 30be
00000150: fd4b 0cbe bc4a fd3d 0ac8 1e3e 1a27 53be
00000160: 6f04 873d aa22 5abe a7c8 4e3e 396f f63d
00000170: ba18 013e 531c 35be ee46 3c3c 3bbc 58bc
00000180: 9362 b0be 59a2 7bbe fb8f e1bd 8063 6abe
00000190: 0300 11b8 d449 7fbe ca91 50be f594 0bbb
000001a0: 7101 47be 71a3 4b3e a4b2 b9bd 4e2a 85be
000001b0: f723 133e b6e0 113d 77f6 673e 6249 633e
000001c0: e44b 973e 5136 e8bd 5750 5f3e 6581 8c3e
000001d0: ea7c a7bd 4919 783e 5fb9 33be 13b2 553e
000001e0: b65b 4e3e 1106 1d3d b45f 3dbe 7889 213e
000001f0: 6644 8a3d 853d 51be 0cb9 d3bc f6ea 95bd
00000200: a4a5 9ebe 87c2 5d3e bdda 253e e481 2f3e
00000210: 6193 553e 1031 303e c92e e83d a9d1 f03d
00000220: a312 743e 33c4 2abe fce3 3cbe 8f3a ab3d
00000230: 3f0c 073e e0cf 4a3e 0298 60be ed45 83be
00000240: c251 31be 911f 123e 28dc 203e 6b2b 45be
00000250: b30c 87bd 1e56 e83d
-0.22849274 -0.2785237 0.12322021 -0.22112972 -0.12543868 0.15847744 0.204749 0.15128899
-0.23151527 0.21373694 0.16494179 0.05291361 0.1603006 -0.12501146 0.13639425 0.19773525
-0.16937344 -0.09330873 -0.079382874 0.22447369 0.16629767 -0.1755776 -0.2685696 0.18511781
0.13484642 0.11648601 0.11740265 -0.23343037 -0.14107543 -0.04917957 0.10520618 0.18762131
0.20509325 0.19072793 -0.12849069 0.09458743 0.117956266 -0.115537934 -0.1323596 -0.13076712
-0.13930717 0.17275147 -0.22411437 0.20407681 0.14021944 -0.1259489 -0.1763094 0.22544163
0.21455406 -0.19966918 0.093984626 -0.007453755 0.18812649 0.18899105 -0.045521457 -0.18032734
0.11815098 -0.061552744 -0.20588341 -0.2122404 -0.2860721 -0.15802686 -0.08099032 0.17058377
-0.19330637 0.10721849 -0.10202756 0.11723989 -0.01404667 -0.22577797 0.20596468 -0.22131625
0.2718829 0.15570872 -0.09425589 -0.22478786 0.18405825 -0.17541969 -0.07344472 0.16812982
-0.19215772 -0.03868819 -0.2581648 -0.17245242 -0.13700862 0.1236777 0.15505996 -0.20620385
0.065926425 -0.21302286 0.2019373 0.12032933 0.12607089 -0.17686586 0.01149152 -0.013228471
-0.34450206 -0.2457365 -0.1101379 -0.22889519 -3.4570705e-05 -0.24930507 -0.20368114 -0.0021298502
-0.19434144 0.19886567 -0.09067276 -0.26008838 0.14369188 0.03561469 0.22652613 0.22195962
0.29550087 -0.11338485 0.21807991 0.2744247 -0.08178122 0.24228396 -0.17551182 0.20868711
0.20152172 0.038335864 -0.18493539 0.15775096 0.06751327 -0.20433624 -0.025845073 -0.07320206
-0.3098575 0.21656238 0.16196723 0.17139393 0.20857002 0.17206216 0.113370486 0.117587395
0.23835234 -0.16676407 -0.18446344 0.083607785 0.13188265 0.1980586 -0.21932986 -0.25639287
-0.17316344 0.14269854 0.15708983 -0.19254844 -0.06594219 0.113445505
