models/2023-05-18_22-42/1/pytorch/E-8_VA-0.6250_VL-114.60_TA-0.5583_TL-141.94.pt (torch, 411855 bytes, 9 tensors)

Fd2da27LSTM.weight_ih_l0 f4 [600, 17]
0.06822491 0.033093918 -0.041683063 0.01652758 0.0155973565 0.051593788 0.021816004 -0.008268408
0.021552464 0.13975795 0.11794656 -0.040677823 0.078910254 0.035103254 0.022188624 0.070408255
0.033010196 -0.0023298324 0.00078676787 0.024248475 0.026756853 0.056515872 -0.008582162 0.025419388
-0.009766646 0.099899195 0.06948459 0.04581431 -0.010867962 0.037084527 0.0711755 0.02816263
-0.029564317 -0.079998665 -0.008437597 0.037061963 0.042721923 -0.014975671 0.04672089 0.057170063
-0.04698626 -0.015193422 -0.03111313 -0.08773317 0.051186316 0.043786515 0.035806064 -0.07030149
0.046778783 -0.0708297 -0.08110109 0.08829319 -0.013274463 0.0020540464 -0.031970892 0.09469534
0.06048338 -0.093606204 0.0013148556 0.046922635 -0.002286038 0.027577005 0.036677398 -0.028535513
-0.015240887 0.027900716 -0.045911014 0.08671965 -0.00792966 0.03709075 -0.000104963874 0.08493015
0.0024565386 0.06654945 0.06727872 -0.031361878 0.08766325 -0.024034938 0.0037100818 -0.0065224315
0.00081701943 0.07704112 0.031207185 -0.046556298 0.011675508 -0.011913187 0.060147934 -0.041040402
0.023182128 0.058972068 0.05413209 0.021605596 0.022680746 0.038588885 -0.040690135 0.032698575
0.0020561127 -0.057689384 0.026769096 0.059218112 -0.057547312 0.00827574 0.09591089 0.010422347
0.016879568 0.031516686 0.0022128904 0.096632406 0.0037938147 0.054400623 0.015878512 0.022554241
-0.035371892 0.074277975 0.08897292 0.054806307 0.027548356 0.08789591 -0.0886003 -0.010785384
0.03445585 -0.015950447 -0.03411058 -0.050514404 -0.08398118 0.0095959315 0.052124813 0.041974902
0.07886416 -0.05091405 -0.055105314 0.034476392 0.009961245 -0.064253956 0.010252126 -0.016054237
0.053376745 0.02240197 -0.018344294 0.098218076 -0.03982915 0.07115913 0.004767808 -0.04641398
0.10691538 -0.00580759 -0.013546407 0.0962056 0.013745333 -0.020059137 0.031518564 -0.033672664
-0.004448365 0.017002575 -0.049881056 0.07730746 0.082236856 0.043998856 0.072668575 0.02896518
-0.027687913 -0.050380576 -0.063805096 -0.014439371 0.039416548 0.03921251 -0.0032551528 0.009733571
-0.032539807 -0.011052201 -0.008260451 0.0056519625 0.052692097 0.0329606 0.04737582 0.007561902
0.031769946 0.022461534 -0.054480307 -0.033878166 0.0584939 0.05101714 -0.0012289492 0.08749192
-0.024365526 0.05487973 0.024239134 -0.052124247 -0.05155713 0.015495018 0.031456172 0.03917258
0.022616258 -0.015260303 0.037544515 0.040935233 0.041408684 0.038972937 -0.024252314 -0.0024436146
-0.030872816 0.035534695 -0.023074228 -0.0077999346 -0.009001312 -0.073525995 0.017096851 -0.05236371
0.0010228166 -0.023530519 -0.08935813 -0.0009222674 0.02787544 -0.07037065 -0.02634185 -0.095564485
-0.08751785 -0.05412119 -0.030792795 0.052307077 -0.035814732 0.0067657474 -0.0017952633 -0.03367753
0.00100952 -0.010709024 0.034098636 -0.052657984 -0.061301343 -0.06581487 -0.0075269304 -0.029037807
-0.014315018 -0.025542147 0.033708397 -0.061836593 0.005277175 0.020809572 -0.031691097 -0.056130525
-0.06854841 -0.05154291 -0.028818794 -0.0080166375 0.011411077 -0.06634549 -0.04194007 0.036455065
-0.04401366 -0.0070783016 0.04090245 0.0018997043 0.04107552 0.031468354 0.00994366 0.02532872
00000000: 80b9 8b3d 7d8d 073d dcbb 2abd d964 873c
00000010: 0e8c 7f3c 0254 533d 7ab7 b23c 3778 07bc
00000020: cb8e b03c b51c 0f3e f78d f13d ca9d 26bd
00000030: b39b a13d 6ec8 0f3d ebc4 b53c 3432 903d
00000040: b335 073d 1ab0 18bb 193f 4e3a bda4 c63c
00000050: 3031 db3c 307d 673d 329c 0cbc 523c d03c
00000060: 4804 20bc f397 cc3d f04d 8e3d c9a7 3b3d
00000070: 890f 32bc f2e5 173d 76c4 913d 51b5 e63c
00000080: de30 f2bc 57d6 a3bd d93d 0abc 49ce 173d
00000090: 2ffd 2e3d 845c 75bc 675e 3f3d 282b 6a3d
000000a0: aa74 40bd d5ed 78bc f6e0 febc 73ad b3bd
000000b0: bea8 513d 7d59 333d 61a9 123d 3afa 8fbd
000000c0: 1c9b 3f3d 290f 91bd 5418 a6bd 0fd3 b43d
000000d0: 227d 59bc 2e9d 063b e9f3 02bd a1ef c13d
000000e0: 6cbd 773d 9cb4 bfbd 3c57 ac3a f331 403d
000000f0: 5ad1 15bb 2ce9 e13c 0a3b 163d 4fc3 e9bc
00000100: eab4 79bc 0b90 e43c 300d 3cbd 129a b13d
00000110: 68eb 01bc 78ec 173d 0d20 dcb8 dcef ad3d
00000120: e1fd 203b 144b 883d 6dc9 893d 5075 00bd
00000130: ca88 b33d ebe4 c4bc d824 733b 1fba d5bb
00000140: 3f2d 563a bcc7 9d3d 36a6 ff3c d1b1 3ebd
00000150: a14a 3f3c 872f 43bc ae5d 763d fb19 28bd
00000160: 72e8 bd3c b28c 713d 9cb9 5d3d 38fe b03c
00000170: f9cc b93c 610f 1e3d b3aa 26bd f1ee 053d
00000180: d9bf 063b b44b 6cbd dd4a db3c b18e 723d
00000190: bbb6 6bbd f896 073c ee6c c43d 7ec2 2a3c
000001a0: 0547 8a3c a417 013d 2406 113b 36e7 c53d
000001b0: a6a1 783b 30d3 5e3d a713 823c acc3 b83c
000001c0: 1ee2 10bd 0d1f 983d 6f37 b63d 947c 603d
000001d0: 17ad e13c c502 b43d 1374 b5bd 2eb5 30bc
000001e0: 9421 0d3d 83aa 82bc 89b7 0bbd 31e8 4ebd
000001f0: 53fe abbd 4138 1d3c d480 553d e0ed 2b3d
00000200: 8883 a13d 408b 50bd 1cb6 61bd 1e37 0d3d
00000210: 7d34 233c 9497 83bd 88f8 273c 2d84 83bc
00000220: 93a1 5a3d 5684 b73c c646 96bc 8f26 c93d
00000230: e423 23bd e1bb 913d 463b 9c3b 961c 3ebd
00000240: 73f6 da3d 994d bebb c0f1 5dbc 7107 c53d
00000250: 1b34 613c 0f53 a4bc 9c19 013d 59ec 09bd
00000260: 97c3 91bb fc48 8b3c 1450 4cbd 6053 9e3d
00000270: cc6b a83d 2538 343d 43d3 943d 6348 ed3c
00000280: c3d1 e2bc dd5b 4ebd 3fac 82bd 1d93 6cbc
00000290: 3f73 213d 4c9d 203d 6754 55bb 8e79 1f3c
000002a0: 7648 05bd 4a14 35bc d856 07bc 1934 b93b
000002b0: abd3 573d b201 073d 260d 423d d5c9 f73b
000002c0: 3421 023d 4001 b83c be26 5fbd d5c3 0abd
000002d0: 4d97 6f3d 59f7 503d b114 a1ba f72e b33d
000002e0: 369a c7bc 91c9 603d 2691 c63c 3c80 55bd
000002f0: 922d 53bd d1de 7d3c 30d8 003d 6d73 203d
00000300: bb45 b93c 5a06 7abc 47c8 193d b4ab 273d
00000310: 279c 293d 16a2 1f3d caac c6bc 0d25 20bb
00000320: fde8 fcbc d48c 113d 2a06 bdbc 9896 ffbb
00000330: 3d7a 13bc cc94 96bd b20e 8c3c 547b 56bd
00000340: 0810 863a 13c3 c0bc 6501 b7bd 51c4 71ba
00000350: 095b e43c 7d1e 90bd ddca d7bc 50b7 c3bd
00000360: 8f3c b3bd 2eae 5dbd 2c41 fcbc f23f 563d
00000370: 78b2 12bd 34b3 dd3b 0a4f ebba 73f1 09bd
00000380: df51 843a e774 2fbc 03ab 0b3d e6af 57bd
00000390: 1e17 7bbd f2c9 86bd 78a4 f6bb b2e0 edbc
000003a0: 8a89 6abc c43d d1bc d111 0a3d 5e48 7dbd
000003b0: 27ec ac3b d678 aa3c 86ce 01bd 1fe9 65bd
000003c0: 1c63 8cbd a91e 53bd 6415 ecbc 3758 03bc
000003d0: 87f5 3a3c 25e0 87bd 5ac9 2bbd e851 153d
000003e0: ab47 34bd 19f1 e7bb 5489 273d 80ff f83a
000003f0: ce3e 283d f6e4 003d bcea 223c 2d7e cf3c

Fd2da27LSTM.weight_hh_l0 f4 [600, 150]
0.052088283 -0.026248788 0.041570567 0.022308808 -0.059818633 0.025862925 0.044003226 -0.04950218
-0.0286161 0.022925861 0.01676585 0.0511017 -0.0034786756 0.04939997 0.07616658 0.067234546
0.038655356 0.083338685 -0.046097778 0.0088372 -0.05504057 -0.06501982 0.05753607 0.019104265
-0.018779589 0.006374083 0.024583075 0.04068058 -0.05673698 0.043201648 0.044695538 0.007100002
0.06074136 0.08285316 -0.038241453 0.052158028 -0.006784621 0.031563472 -0.03758957 -0.03559134
-0.03681761 0.054733176 -0.04660315 0.024115337 -0.06605456 -0.044718098 0.012214178 0.050125107
-0.02571325 0.014762415 -0.045737952 -0.032040536 0.03736785 0.051493004 0.023477545 -0.019994201
0.013495829 0.019909134 -0.04161093 -0.022327006 -0.071950145 0.018390048 -0.011532612 -0.086317115
-0.0696942 -0.06998614 -0.072237685 -0.069926 -0.0051989197 -0.07836707 0.026989058 -0.07518717
0.01586236 0.015183018 0.0037043581 0.0013401187 0.014055943 0.08568026 -0.03931926 -0.028771445
-0.07056813 -0.053914238 -0.035931252 0.011010597 -0.052641243 0.05493985 0.0344914 -0.08638185
-0.008333508 -0.04013777 -0.06118772 -0.06467407 -0.026621582 0.044243786 0.05154972 -0.0020647664
0.07155195 -0.02073128 0.07211152 0.052985143 -0.03392301 -0.004369549 -0.008652852 -0.00026293017
0.029121727 -0.0021091737 -0.0058173165 -0.006100824 -0.03425832 0.09357709 0.068402566 5.5609056e-05
0.03794503 0.003931066 0.0349955 0.015738253 0.012590089 0.0033230803 0.076156914 -0.017451158
-0.03819458 0.018524466 0.052038576 0.008628101 0.046651945 -0.048304584 0.010238949 0.017514588
-0.07332597 -0.02418276 0.027868776 -0.016958669 0.07915637 0.010625628 -0.036350027 -0.027628338
-0.06974651 0.0046495036 0.0010504173 0.013070767 -0.011752719 0.01108614 0.01806003 0.06602105
-0.06838379 0.062469106 0.018084584 -0.031224908 0.039927505 0.043635093 0.0005410773 -0.036824744
-0.00096781435 0.07189628 -0.045974877 0.055151816 -0.016740521 -0.0049381116 -0.01451138 -0.071652584
-0.040121187 -0.057790305 -0.01966676 0.0068745874 -0.060808416 0.058754425 0.05340323 -0.030351732
-0.025167845 0.041904014 0.0038645195 0.011382822 -0.0052878577 0.0748722 0.03275196 0.0005963216
0.030932887 0.033558283 0.05016355 -0.025165709 -0.0021723786 -0.07465326 -0.06134615 0.07354612
0.03237359 -0.009042719 0.07697624 -0.017213564 -0.06822279 0.0280533 -0.042829197 -0.0068199113
0.037399843 0.0032692312 -0.09561698 0.052616958 0.009614357 0.06775241 -0.072066315 -0.0037227618
-0.038583335 0.041456375 -0.064242944 -0.062417947 0.019905513 0.078067094 -0.03055313 -0.024563748
-0.037132066 -0.05910085 -0.026296848 0.015632665 -0.016548619 -0.0452252 0.0064952667 0.05902846
-0.05761203 -0.038154513 0.0021583599 -0.0064406614 0.02976312 -0.04442442 -0.026731376 -0.07347939
0.06401365 0.065635845 0.03373273 0.025194822 0.043235537 -0.012399184 0.005002814 0.037257273
0.03757641 -0.05651615 0.06969868 0.017287364 -0.056463905 -0.08139986 0.044132654 0.03998869
-0.08138695 0.06289243 -0.062121954 0.029588487 -0.020235205 0.00509793 0.0118124485 -0.080727704
-0.0046986765 -0.049487267 -0.03618742 -0.043924086 0.05189899 -0.034915667 0.08268463 -0.05995618
00000000: 865a 553d b307 d7bc e645 2a3d f6c0 b63c
00000010: 6204 75bd 7cde d33c ba3c 343d ccc2 4abd
00000020: 506c eabc 04cf bb3c 8958 893c 0450 513d
00000030: 7efa 63bb 9f57 4a3d 39fd 9b3d 44b2 893d
00000040: 1455 1e3d 79ad aa3d 06d1 3cbd e7c9 103c
00000050: 3972 61bd 1d29 85bd f1aa 6b3d 8c80 9c3c
00000060: a7d7 99bc afdd d03b 7262 c93c aea0 263d
00000070: 0965 68bd 36f4 303d ab12 373d 22a7 e83b
00000080: efcb 783d ebae a93d 12a3 1cbd a8a3 553d
00000090: 8751 debb b348 013d 85f7 19bd 3ac8 11bd
000000a0: 10ce 16bd e52f 603d f2e2 3ebd 878d c53c
000000b0: 9d47 87bd 532a 37bd fa1d 483c fc4f 4d3d
000000c0: 98a4 d2bc 0ede 713c b857 3bbd f03c 03bd
000000d0: 080f 193d 54ea 523d fb53 c03c e1ca a3bc
000000e0: 9c1d 5d3c 7b18 a33c 3970 2abd 20e7 b6bc
000000f0: 995a 93bd baa6 963c 48f3 3cbc 07c7 b0bd
00000100: d5bb 8ebd e554 8fbd 5af1 93bd 5d35 8fbd
00000110: b35b aabb ea7e a0bd 2818 dd3c bbfb 99bd
00000120: c8f1 813c 31c2 783c d1c4 723b eca6 af3a
00000130: e64a 663c 2279 af3d 3b0d 21bd 18b2 ebbc
00000140: 0686 90bd 2dd5 5cbd a62c 13bd cb65 343c
00000150: 589e 57bd 9c08 613d db46 0d3d f8e8 b0bd
00000160: 4489 08bc 8167 24bd fa9f 7abd d773 84bd
00000170: 8115 dabc f938 353d cd25 533d 0851 07bb
00000180: d489 923d a5d4 a9bc 34af 933d f306 593d
00000190: dbf2 0abd 6f2e 8fbb b1c4 0dbc e4d9 89b9
000001a0: b090 ee3c 103a 0abb 309f bebb 6ce9 c7bb
000001b0: 7452 0cbd 58a5 bf3d a516 8c3d c53d 6938
000001c0: 3f6c 1b3d 2cd0 803b 7157 0f3d 82ed 803c
000001d0: a946 4e3c 09c8 593b 28f8 9b3d bbf5 8ebc
000001e0: eb71 1cbd 9fc0 973c 6726 553d e15c 0d3c
000001f0: 1c16 3f3d 07db 45bd 44c1 273c c17a 8f3c
00000200: ed2b 96bd ec1a c6bc 0f4d e43c e8ec 8abc
00000210: bc1c a23d 1d17 2e3c c4e3 14bd d354 e2bc
00000220: 42d7 8ebd dd5a 983b 28ae 893a c526 563c
00000230: 7a8e 40bc a4a2 353c a1f2 933c 0b36 873d
00000240: cd0c 8cbd 9bdf 7f3d 1f26 943c 61cb ffbc
00000250: 068b 233d b6ba 323d 15d7 0d3a 8bd5 16bd
00000260: ecb4 7dba 5b3e 933d 2750 3cbd dfe6 613d
00000270: 6b23 89bc e2cf a1bb 24c1 6dbc 97be 92bd
00000280: 1d56 24bd 87b5 6cbd 2f1c a1bc 3844 e13b
00000290: 3f12 79bd 7ba8 703d 58bd 5a3d 32a4 f8bc
000002a0: cc2c cebc 8ba3 2b3d e143 7d3b 047f 3a3c
000002b0: c445 adbb 9956 993d eb26 063d 7752 1c3a
000002c0: f766 fd3c 6974 093d 4b78 4d3d 5128 cebc
000002d0: 775e 0ebb cfe3 98bd 1a46 7bbd 599f 963d
000002e0: 2b9a 043d ea27 14bc b8a5 9d3d 7603 8dbc
000002f0: 64b8 8bbd 09d0 e53c ab6d 2fbd 9079 dfbb
00000300: 9430 193d 9940 563b d6d2 c3bd e184 573d
00000310: 8985 1d3c c7c1 8a3d 8197 93bd 94f9 73bb
00000320: 8f09 1ebd 29ce 293d ce91 83bd f6a9 7fbd
00000330: e310 a33c a4e1 9f3d 8f4a fabc ea39 c9bc
00000340: cb17 18bd bc13 72bd 7d6c d7bc 1310 803c
00000350: f890 87bc 0f3e 39bd 3fd6 d43b d4c7 713d
00000360: 98fa 6bbd e847 1cbd 4573 0d3b 2f0c d3bb
00000370: c9d1 f33c 61f6 35bd c2fb dabc 5d7c 96bd
00000380: 9719 833d 166c 863d 552b 0a3d 5f65 ce3c
00000390: bf17 313d f225 4bbc a5ee a33b 159b 183d
000003a0: b9e9 193d 7a7d 67bd 2ebe 8e3d 3b9e 8d3c
000003b0: b246 67bd f8b4 a6bd 71c4 343d 2ecb 233d
000003c0: 34ae a6bd bfcd 803d 9773 7ebd 8e63 f23c
000003d0: 4dc4 a5bc 890c a73b 0089 413c 9154 a5bd
000003e0: 5bf7 99bb 29b3 4abd 4339 14bd bee9 33bd
000003f0: 0994 543d bb03 0fbd 8f56 a93d 9d94 75bd

Fd2da27LSTM.bias_ih_l0 f4 [600]
-0.008841595 0.019469393 0.0040324046 0.016544499 -0.01812538 -0.03766793 -0.0393445 0.020526992
0.019816343 0.073511004 -0.03083632 -0.05364702 0.00075947586 -0.04648029 -0.012238862 -0.0204073
-0.0349145 0.05917657 0.02827316 -0.003952807 0.0023866422 -0.013135043 0.024132712 -0.011392592
0.048464213 0.011161667 -0.017125254 -0.025262158 -0.01263704 0.04735151 -0.03260009 0.0565037
-0.03163936 -0.0055745007 -0.014353174 0.01706384 -0.04425422 0.01931332 -0.0060118637 -0.00487509
-0.0015060243 0.03540786 -0.012753581 0.017453171 -0.026128553 0.013090314 -0.042649604 0.019916017
-0.016667213 0.00043258336 0.016705917 -0.021358483 -0.038758017 -0.028280517 0.009083469 0.031038046
-0.020955145 -0.04605512 0.014045521 0.049810715 0.025837809 0.033811875 -0.011280508 -0.05184619
0.028844716 -0.050919004 -0.020008905 -0.037319575 -0.017806843 0.026448661 0.05400661 0.0126987975
0.029454779 0.058234647 0.012861237 0.03022842 0.049361825 0.03148588 -0.009925007 -0.0042507267
0.026629368 -0.020313308 0.061699275 0.030004635 0.02386566 0.028241275 -0.03373334 0.038322885
-0.046140056 0.07246825 -0.029386502 0.01277125 0.003802161 -0.021758558 0.03555298 -0.047834612
0.056388862 -0.04998543 0.043849755 0.0035902497 -0.00820005 0.01654929 -0.008181456 -0.029337427
0.02112961 -0.0061434847 -0.025986742 -0.01955716 0.024887182 -0.0039131176 0.040345605 -0.019895405
-0.019941818 0.0011700629 0.008122082 0.010216085 -0.03059238 0.004124683 0.028595889 -0.022602547
0.0023409128 -0.0016195076 -0.046517637 0.0038881993 0.022687284 0.0031506016 0.0041290605 -0.007798636
0.031538665 -0.034074113 0.041688822 -0.019894661 0.027104983 0.026836302 -0.064051665 0.026003102
0.026873553 0.008280073 0.015068357 0.020107323 0.004847811 -0.00089760346 -0.018863522 0.021607004
0.012128865 -0.044889286 0.0155067425 0.057958096 0.008312688 0.009838402 -0.029279837 0.047821347
0.03312185 -0.025213646 -0.026777806 0.032077707 0.03832816 0.0206225 0.07264978 -0.04328425
0.053078953 0.019254161 -0.022220127 0.0146717 0.014092265 -0.013694557 -0.011532413 0.05224813
-0.0010507434 -0.03943589 -0.006695104 -0.00016759314 0.008243075 0.043980964 0.06430714 0.013479798
0.018773863 -0.030208718 -0.04498201 0.0497781 0.10654857 0.05145969 0.033781964 -0.04116546
0.00059805193 -0.04957948 -0.029092973 -0.0151386745 0.0741688 -0.0058705043 -0.039280906 -0.017919717
-0.038892042 -0.047942758 -0.015042666 0.0025646174 -0.057778824 0.062256586 0.032813188 0.043830078
-0.030910749 -0.018280657 -0.021673484 -0.006339317 0.09088494 -0.047507912 -0.0247768 -0.016661456
0.07370208 0.009464869 0.0031507658 0.011727946 -0.011486969 0.081019126 0.04293675 0.021335904
0.008332694 -0.046588738 0.0075724595 0.040526748 0.048558954 -0.08307629 -0.04523075 0.04931343
0.01234382 0.007944769 0.03633622 0.0023442525 -0.016320094 -0.035064258 -0.024716906 0.04183354
-0.040383786 -0.028809534 0.042548932 -0.02104779 0.00716989 -0.020572454 0.010546465 -0.049607016
0.053012896 0.0077792504 -0.0015547532 -0.041359138 0.016998684 -0.007289859 0.0654853 -0.042734284
0.0035054574 -0.06995039 -0.0023617712 -0.06779452 -0.03359695 -0.046554927 0.0072288164 -0.017276788
00000000: 56dc 10bc 477e 9f3c 4322 843b 5488 873c
00000010: ad7b 94bc b049 1abd b327 21bd 3928 a83c
00000020: e255 a23c f08c 963d 739c fcbc fabc 5bbd
00000030: 9017 473a 1e62 3ebd 8285 48bc 362d a7bc
00000040: 8202 0fbd 2263 723d 1d9d e73c 8c86 81bb
00000050: 3669 1c3b 5d34 57bc f7b1 c53c ffa7 3abc
00000060: 6982 463d 6ddf 363c 434a 8cbc 96f2 cebc
00000070: 960b 4fbc a8f3 413d ac87 05bd 6c70 673d
00000080: 4698 01bd 4daa b6bb 9329 6bbc 77c9 8b3c
00000090: ea43 35bd f836 9e3c 2bff c4bb 38bf 9fbb
000000a0: ca65 c5ba d507 113d 65f4 50bc f4f9 8e3c
000000b0: 8c0b d6bc c278 563c 5ab1 2ebd ea26 a33c
000000c0: ae89 88bc 5bcc e239 d9da 883c fcf7 aebc
000000d0: bac0 1ebd 8bac e7bc d5d2 143c 8043 fe3c
000000e0: 20aa abbc 4ba4 3cbd 2f1f 663c 5206 4c3d
000000f0: d0a9 d33c 527e 0a3d e1d1 38bc ac5c 54bd
00000100: c14b ec3c 7290 50bd b7e9 a3bc 69dc 18bd
00000110: a8df 91bc ddaa d83c 0936 5d3d 9e0e 503c
00000120: 264b f13c 7487 6e3d f0b7 523c 97a1 f73c
00000130: a02f 4a3d 57f7 003d 7f9c 22bc ae49 8bbb
00000140: d525 da3c 1868 a6bc 61b8 7c3d 48cc f53c
00000150: eb81 c33c 3f5a e73c f92b 0abd 75f8 1c3d
00000160: 5bfd 3cbd 3c6a 943d f6bb f0bc 813e 513c
00000170: ad2d 793b 013f b2bc 00a0 113d 3aee 43bd
00000180: 02f8 663d 86bd 4cbd cd9b 333d 654a 6b3b
00000190: 8159 06bc 6092 873c 830b 06bc 0b55 f0bc
000001a0: 0118 ad3c 494f c9bb 26e2 d4bc 5636 a0bc
000001b0: 34e0 cb3c 9c39 80bb 6f41 253d b0fb a2bc
000001c0: 065d a3bc cc5c 993a 7b12 053c 5e61 273c
000001d0: df9c fabc 5928 873b ed41 ea3c fa28 b9bc
000001e0: 006a 193b a845 d4ba 4789 3ebd 29d1 7e3b
000001f0: afda b93c 537a 4e3b 124d 873b b38b ffbb
00000200: b02e 013d 4c91 0bbd e6c1 2a3d 21fa a2bc
00000210: 450b de3c ced7 db3c 852d 83bd 7504 d53c
00000220: ed25 dc3c 25a9 073c 45e1 763c 1db8 a43c
00000230: 63da 9e3b 264d 6bba ac87 9abc 2c01 b13c
00000240: 26b8 463c d4dd 37bd fe0f 7e3c 7865 6d3d
00000250: f131 083c 4031 213c 45dc efbc 51e0 433d
00000260: c7aa 073d d98c cebc 215d dbbc ea63 033d
00000270: fdfd 1c3d 84f0 a83c 68c9 943d d34a 31bd
00000280: 5169 593d e7ba 9d3c fc06 b6bc 9261 703c
00000290: 3ee3 663c 235f 60bc 72f2 3cbc 2302 563d
000002a0: 19b9 89ba 8787 21bd 9a62 dbbb f1bb 2fb9
000002b0: f60d 073c 6225 343d 76b3 833d 5fda 5c3c
000002c0: a5cb 993c 4678 f7bc 0e3f 38bd 1fe4 4b3d
000002d0: 2336 da3d 65c7 523d f55e 0a3d 1d9d 28bd
000002e0: 96c6 1c3a da13 4bbd 6354 eebc 3408 78bc
000002f0: d0e5 973d 5c5d c0bb 04e5 20bd 5fcc 92bc
00000300: 434d 1fbd a05f 44bd 8475 76bc 2413 283b
00000310: 7da9 6cbd c300 7f3d 1f67 063d 2b87 333d
00000320: 8a38 fdbc 51c1 95bc 978c b1bc 0cba cfbb
00000330: e221 ba3d a897 42bd b7f8 cabc 9b7d 88bc
00000340: 1ef1 963d 8a12 1b3c 147d 4e3b 9226 403c
00000350: d733 3cbc 5bed a53d 72de 2f3d a2c8 ae3c
00000360: da85 083c d5d3 3ebd 6522 f83b 60ff 253d
00000370: c1e5 463d e723 aabd e143 39bd e1fc 493d
00000380: bc3d 4a3c c72a 023c 4ad5 143d 08a2 193b
00000390: b8b1 85bc 8a9f 0fbd 1c7b cabc a559 2b3d
000003a0: 7869 25bd f901 ecbc ca47 2e3d 6a6c acbc
000003b0: 66f1 ea3b 9087 a8bc 15cb 2c3c ba30 4bbd
000003c0: 0d24 593d 15e9 fe3b dcc8 cbba 3368 29bd
000003d0: d340 8b3c c5df eebb 281d 863d 250a 2fbd
000003e0: d1bb 653b 2642 8fbd f2c7 1abb dad7 8abd
000003f0: f59c 09bd 61b0 3ebd b5df ec3b 0d88 8dbc

Fd2da27LSTM.bias_hh_l0 f4 [600]
0.06277282 -0.040883843 0.02175459 0.04657677 0.0053381734 0.051301576 0.024548607 -0.044373296
-0.05401729 0.06375897 0.0054863235 -0.045789875 0.0031425513 0.022367612 0.0070765726 0.012975734
-0.017902235 0.067165844 -0.010559289 0.03475559 -0.008709288 0.033424124 0.05054668 0.019031525
-0.00014234036 -0.040974215 -0.0056707477 -0.035643674 -0.0428679 0.049089253 -0.02107088 0.0123585025
-0.005211458 0.022344764 -0.0034758672 -0.0509656 -0.043193974 -0.0335732 0.023478989 -0.015172161
-0.010209949 0.019671692 0.0024507544 -0.041386783 -0.010210502 -0.00057432224 0.012602865 0.030822042
-0.012744164 0.003863413 0.0002313223 0.014534604 -0.026288683 -0.0021115323 -0.01766439 0.038872678
-0.04369664 0.0060481606 0.06682678 0.00014804238 -0.025132935 -0.027117498 -0.022013847 -0.0047003236
0.046314865 -0.027871605 -0.017943893 -0.006594744 -0.012529038 -0.007127115 0.0030545339 0.03428852
0.026316611 0.026775321 0.022398766 0.0036511999 -0.013331821 -0.03969225 -0.012217088 -0.003743387
-0.025067618 -0.047519974 0.03482239 0.032606166 0.029956449 -0.015163603 -0.009197609 0.027948426
0.011494512 -0.003410676 -0.10158373 -0.006494413 -0.029764242 0.00731197 0.05596304 0.017406188
0.023196544 -0.030956116 0.04253612 -0.0073196883 -0.011949792 0.004376122 0.028185388 0.016934762
0.035574958 0.019606508 0.011449688 0.036411524 0.017571837 0.0030625921 0.016113836 -0.009435261
0.002604943 -0.0233748 -0.048266165 -0.027923144 -0.04897806 -0.04867526 0.09152153 0.03690326
-0.0016586895 0.015016801 -0.03407505 -0.05811013 0.02694687 0.05566413 -0.02363 -0.0016233657
0.013894712 -0.03592512 -0.015562443 0.015572447 -0.04756934 0.042390622 0.0047715246 0.02047738
-0.0015412642 0.02063024 -0.035780497 0.0055355444 0.053834073 -0.01523192 -0.022837644 -0.035508733
0.012849739 0.015349319 -0.0028095306 -0.013731988 -0.03663882 -0.006622076 0.0137569085 0.050694916
0.05948082 -0.024487155 0.050858513 0.077142894 0.015923569 -0.04842781 0.11526077 0.06625381
0.09421941 -0.03437134 0.036839873 -0.0067929067 -0.020323364 0.043786336 -0.025479114 -0.00046123943
0.025455372 -0.03169534 -0.023643771 -0.014289026 -0.0029051532 0.036266178 -0.013912614 -0.046173036
0.0022707747 -0.021700999 -0.03674098 0.07500495 0.024100963 -0.02036303 -0.01464687 -0.007048108
0.03472247 -0.007539606 0.009788246 0.015353163 0.0644987 -0.023951296 0.036588043 -0.02051402
0.012044739 0.048387807 0.0816745 -0.031787153 -0.018646622 -0.040478367 0.009119045 -0.022727858
-0.043051153 -0.004465267 -0.03203035 -0.03053578 0.092611715 -0.059984304 -0.016769258 0.06577198
-0.016975138 -0.039686825 -0.021614365 -0.01384116 -0.054393597 0.058928408 -0.00405155 -0.00453733
0.03699855 -0.0024849956 0.013841149 -0.023474995 -0.008924735 0.013686619 0.00048312507 0.08951369
-0.019757621 -0.07392885 0.058952395 -0.05741753 -0.0074126874 0.09831383 0.033416312 0.029800138
0.034421477 -4.1272357e-05 0.03391505 0.020612763 -0.023350108 0.053820033 0.0049053766 0.059661303
0.108601615 0.023387475 -0.01475654 0.045403965 0.088605165 -0.008122971 0.02598074 -0.0024302723
-0.022425639 0.025332728 -0.0006910303 -0.029239336 -0.034235064 -0.01451659 0.07942329 -0.036161233
00000000: 098f 803d d175 27bd af36 b23c 48c7 3e3d
00000010: d8eb ae3b 9a21 523d 291a c93c c6c0 35bd
00000020: 3c41 5dbd 1094 823d 9ec6 b33b 2a8e 3bbd
00000030: 43f3 4d3b 483c b73c 98e2 e73b 2c98 543c
00000040: b5a7 92bc 3f8e 893d de00 2dbc e15b 0e3d
00000050: 67b1 0ebc bce7 083d 090a 4f3d 00e8 9b3c
00000060: 3341 15b9 94d4 27bd aed1 b9bb 1aff 11bd
00000070: 4096 2fbd d011 493d d79c acbc 517b 4a3c
00000080: e1c4 aabb 5e0c b73c 60cb 63bb 4ec1 50bd
00000090: 2aec 30bd 0d84 09bd 0257 c03c a894 78bc
000000a0: a147 27bc 8726 a13c d69c 203b 3085 29bd
000000b0: f349 27bc 1d8e 16ba 3f7c 4e3c 827e fc3c
000000c0: e6cc 50bc 5031 7d3b 1b8f 7239 8c22 6e3c
000000d0: 5d5b d7bc a261 0abb e9b4 90bc f538 1f3d
000000e0: 3ffb 32bd a62f c63b 7bdc 883d d33b 1b39
000000f0: 96e3 cdbc 8425 debc 6256 b4bc 2c05 9abb
00000100: a8b4 3d3d fe52 e4bc 12ff 92bc b918 d8bb
00000110: 9846 4dbc 938a e9bb 932e 483b 1f72 0c3d
00000120: ef95 d73c eb57 db3c 9e7d b73c f848 6f3b
00000130: b66d 5abc 5794 22bd 2e2a 48bc 9d53 75bb
00000140: 9b5a cdbc 4ea4 42bd eca1 0e3d 0b8e 053d
00000150: 3a67 f53c c370 78bc 91b1 16bc 19f4 e43c
00000160: 7a53 3c3c a685 5fbb 210b d0bd 16cf d4bb
00000170: 24d4 f3bc 4099 ef3b 8039 653d 6c97 8e3c
00000180: ae06 be3c ae97 fdbc 5b3a 2e3d ffd9 efbb
00000190: 0fc9 43bc 9265 8f3b 0be5 e63c c5ba 8a3c
000001a0: 0cb7 113d d49d a03c 7997 3b3c 4024 153d
000001b0: d0f2 8f3c c5b5 483b 2a01 843c 5a96 1abc
000001c0: b1b7 2a3b 827c bfbc beb2 45bd 14bf e4bc
000001d0: 389d 48bd b65f 47bd a46f bb3d df27 173d
000001e0: 6268 d9ba 0709 763c 4892 0bbd e304 6ebd
000001f0: afbf dc3c 1200 643d b493 c1bc 1dc7 d4ba
00000200: a5a6 633c 3826 13bd 9ef9 7ebc 9423 7f3c
00000210: 11d8 42bd caa1 2d3d 735a 9c3b 2ec0 a73c
00000220: 3f04 caba c000 a93c 928e 12bd 8363 b53b
00000230: 1e81 5c3d 4e8f 79bc 0316 bbbc 9b71 11bd
00000240: b687 523c b67b 7b3c 1a20 38bb 22fc 60bc
00000250: 9612 16bd 00fe d8bb a864 613c 79a5 4f3d
00000260: 29a2 733d 4999 c8bc 0451 503d 18fd 9d3d
00000270: 2572 823c 3d5c 46bd d70d ec3d 14b0 873d
00000280: 1bf6 c03d f6c8 0cbd 68e5 163d 0897 debb
00000290: 2f7d a6bc 4d59 333d 93b9 d0bc 82d2 f1b9
000002a0: c987 d03c f9d2 01bd 95b0 c1bc 851c 6abc
000002b0: 6264 3ebb d88b 143d bcf1 63bc f01f 3dbd
000002c0: 47d1 143b 4bc6 b1bc b67d 16bd 329c 993d
000002d0: 626f c53c 5ed0 a6bc 6df9 6fbc d1f3 e6bb
000002e0: 2639 0e3d cd0e f7bb e15e 203c d58b 7b3c
000002f0: e517 843d 8235 c4bc 58dd 153d 050d a8bc
00000300: 4c57 453c 4b32 463d f644 a73d 3f33 02bd
00000310: cdc0 98bc a5cc 25bd 0c68 153c c62f babc
00000320: 6856 30bd 6051 92bb 4232 03bd 2c26 fabc
00000330: 36ab bd3d 1ab2 75bd af5f 89bc 76b3 863d
00000340: 720f 8bbc a78e 22bd 9c10 b1bc 08c6 62bc
00000350: d2cb 5ebd ea5e 713d ddc2 84bb e2ad 94bb
00000360: cb8b 173d 4fdb 22bb fdc5 623c a24e c0bc
00000370: 0d39 12bc d73d 603c f34b fd39 f452 b73d
00000380: bcda a1bc 0268 97bd 1178 713d a52e 6bbd
00000390: 21e6 f2bb c358 c93d 8bdf 083d 6b1f f43c
000003a0: 89fd 0c3d db1b 2db8 82ea 0a3d 19dc a83c
000003b0: ba48 bfbc 6572 5c3d 48bd a03b 695f 743d
000003c0: 866a de3d 1797 bf3c 6ac5 71bc 82f9 393d
000003d0: a076 b53d 3616 05bc 90d5 d43c 3445 1fbb
000003e0: f9b5 b7bc 9586 cf3c 4226 35ba 5587 efbc
000003f0: 113a 0cbd fed6 6dbc aea8 a23d cd1d 14bd

ClassificationFd2da27.0.weight f4 [150]
1.0414524 1.0131634 0.9934033 1.0063529 0.96379566 0.9819327 1.0013266 0.97488385
1.0216134 1.039916 0.9339535 0.9242739 0.98151255 0.9630995 0.96110106 0.94335115
0.9329116 1.0004218 0.9354772 0.9969372 0.8931498 0.9737474 1.0562981 0.9814254
1.0063821 1.0003935 0.88076484 0.9743325 0.9586356 0.7448973 0.947604 1.0214497
0.9864195 0.95361215 0.9707015 0.9780835 0.9484346 0.9892167 0.9704303 1.0038255
0.9914933 1.0095305 0.9789804 0.9981494 0.907779 0.95203346 1.0046791 1.0134131
0.99606 0.9887787 0.95964587 0.8278257 0.9946832 0.9805821 0.946029 0.98260295
0.9649589 0.9247864 1.0402797 1.0084313 0.97175854 0.96586764 0.93735605 0.7657641
0.9356775 0.9871032 0.97124684 0.9912689 0.69270295 0.9940909 1.0030949 0.9810453
1.0250783 0.9979916 0.7969712 1.0365369 1.0076305 0.9972414 0.7787347 1.0226827
0.98566955 0.9257147 1.036171 0.9741217 1.012442 0.99532056 0.9510708 1.0003355
0.96374196 1.0267973 1.0236192 1.0079377 0.923584 1.0089252 0.7847159 0.9051119
1.0013344 0.9529948 0.97921646 1.0125116 0.67612076 0.99766475 1.0305638 0.70235986
1.0217118 0.9828088 0.9932852 1.029167 0.9662149 0.86493176 1.0109079 1.011365
1.0318099 0.8936774 1.0201021 1.0051427 0.8564196 1.003016 1.0109645 1.0027007
0.9880002 0.8433247 1.0077535 0.96592546 0.9453204 1.0035543 0.9455013 0.935239
1.0497303 0.9707666 1.0395346 0.97812676 0.9885685 0.99744034 0.9866957 0.9991386
0.93440586 0.98238134 1.0009097 0.85620457 1.006275 0.99238443 0.89708966 1.0182797
0.9938744 0.9888651 0.9742341 0.9885778 0.9695944 0.9384606
00000000: 504e 853f 57af 813f ae4f 7e3f 2cd0 803f
00000010: 50bb 763f f15f 7b3f 782b 803f fd91 793f
00000020: 3ac4 823f f81b 853f 9417 6f3f 379d 6c3f
00000030: 6844 7b3f b08d 763f b80a 763f 767f 713f
00000040: 4bd3 6e3f d20d 803f 6f7b 6f3f 4737 7f3f
00000050: 77a5 643f 8247 793f c734 873f b23e 7b3f
00000060: 21d1 803f e50c 803f ce79 613f db6d 793f
00000070: 2569 753f 97b1 3e3f 2d96 723f ddbe 823f
00000080: fd85 7c3f ed1f 743f e57f 783f ae63 7a3f
00000090: 9ccc 723f 4e3d 7d3f 1f6e 783f 5b7d 803f
000000a0: 81d2 7d3f 4c38 813f 769e 7a3f b886 7f3f
000000b0: 3464 683f 77b8 733f 5399 803f 85b7 813f
000000c0: cafd 7e3f 9a20 7d3f 5aab 753f 63ec 533f
000000d0: 8fa3 7e3f 6e07 7b3f f52e 723f de8b 7b3f
000000e0: 8c07 773f cdbe 6c3f e327 853f 4714 813f
000000f0: 2bc5 783f 1a43 773f 91f6 6f3f 1e09 443f
00000100: 9088 6f3f ccb2 7c3f a2a3 783f ccc3 7d3f
00000110: fb54 313f be7c 7e3f 6a65 803f c925 7b3f
00000120: c435 833f 617c 7f3f 4e06 4c3f 3ead 843f
00000130: 09fa 803f 364b 7f3f 285b 473f 44e7 823f
00000140: d754 7c3f a3fb 6c3f 40a1 843f 0a60 793f
00000150: b397 813f 54cd 7e3f 6079 733f fe0a 803f
00000160: cbb7 763f 186e 833f f405 833f 1a04 813f
00000170: 0070 6c3f 7624 813f 24e3 483f 6ab5 673f
00000180: ba2b 803f 78f7 733f eead 7a3f fb99 813f
00000190: 4016 2d3f f566 7f3f 84e9 833f dbcd 333f
000001a0: 74c7 823f 5c99 7b3f f047 7e3f bfbb 833f
000001b0: dc59 773f 2b6c 5d3f 6e65 813f 6974 813f
000001c0: 5912 843f 0bc8 643f b592 823f 84a8 803f
000001d0: 513e 5b3f d462 803f 4967 813f 7f58 803f
000001e0: 95ed 7c3f 21e4 573f 11fe 803f e446 773f
000001f0: 8500 723f 7874 803f 600c 723f d36b 6f3f
00000200: 905d 863f 2984 783f 780f 853f 8466 7a3f
00000210: d312 7d3f 4058 7f3f 1798 7c3f 8cc7 7f3f
00000220: 3935 6f3f 587d 7b3f cf1d 803f 3930 5b3f
00000230: 9fcd 803f e80c 7e3f aba7 653f fd56 823f
00000240: 8d6e 7e3f 4326 7d3f 6867 793f 6f13 7d3f
00000250: 5737 783f f43e 703f

ClassificationFd2da27.0.bias f4 [150]
0.042309873 0.012738615 -0.053257395 0.027171776 0.024557065 -0.0059232884 -0.020503657 -0.023895536
0.054025754 0.01133951 0.0038302287 -0.0073692934 0.0006150421 0.017660256 0.0020927584 -0.015860658
-0.0021023948 0.051395975 0.023898285 -0.022573318 -0.010056379 0.03058236 0.04592476 -0.011087299
0.0050597037 0.0071742344 -0.02112247 0.031897914 0.01492124 -0.0036242702 -0.00396502 -0.025154341
-0.021767082 -0.0468615 0.02398477 -0.0359808 -0.0111036645 0.052340515 0.01964811 0.016081775
0.012722335 0.0066919373 0.003655566 -0.025338618 -0.022996917 0.027921816 0.02747999 0.010108273
-0.027171677 0.04348988 -0.019698558 0.00058279117 -0.011492509 -0.0067712963 0.03736333 0.018204013
-0.050181646 0.030692378 0.031394392 0.020701848 0.032259002 0.022046871 -0.005822043 0.00784921
0.009967484 0.0038518452 0.03263466 0.000918527 -0.014006155 0.03677284 -0.037926488 0.0008344485
0.0029500886 -0.014290782 -0.007828382 0.053697698 -0.03209556 0.021037553 -0.00046810848 0.011065408
0.02208015 0.023819987 0.03191097 0.0020303908 0.029900357 0.0019588473 -0.01257686 0.008139198
-0.008663016 0.012166116 -0.004031772 -0.00958713 -0.044040628 0.04110102 -0.002987564 0.011123235
0.014944746 0.0005821819 0.03718777 0.036519848 0.0014198127 0.04554744 0.023903757 -0.0014701224
0.019087253 -0.043658867 0.053803887 0.04175601 -0.012824117 -0.010104403 0.011569651 -0.018132428
0.0072452235 -0.010770747 -0.0017743526 -0.03151316 0.0037805703 -0.0315038 0.035326105 -0.036470506
-0.05166648 -0.009198817 0.040833503 -0.008060258 -0.02663461 0.025143245 0.018735053 0.008041063
0.056391526 -0.0082788225 0.0050186305 -0.038745992 -0.04934551 0.0028866867 0.00045315936 0.0025160415
-0.023912985 0.014602758 0.019936815 -0.0066508674 0.0057322723 -0.03225837 0.009517406 0.017538575
0.024972027 0.0063582435 -0.02502425 0.010396789 0.038213737 -0.04797322
00000000: 1e4d 2d3d a0b5 503c 6d24 5abd 5897 de3c
00000010: e62b c93c 2518 c2bb 49f7 a7bc 92c0 c3bc
00000020: 1c4a 5d3d 5ac9 393c 9304 7b3b 1d7a f1bb
00000030: c73a 213a 3eac 903c a926 093b 36ee 81bc
00000040: 55c8 09bb 9684 523d 56c6 c33c aeeb b8bc
00000050: 83c3 24bc dc87 fa3c 9a1b 3c3d 81a7 35bc
00000060: dfcb a53b d715 eb3b 0809 adbc 63a7 023d
00000070: 3778 743c 2a85 6dbb 00ed 81bb 7a10 cebc
00000080: e150 b2bc d8f1 3fbd b57b c43c 9a60 13bd
00000090: 25ec 35bc 0263 563d 13f5 a03c edbd 833c
000000a0: 5771 503c 0a48 db3b 3892 6f3b ef92 cfbc
000000b0: 0864 bcbc 4bbc e43c b71d e13c 2b9d 253c
000000c0: 2397 debc 7222 323d df5e a1bc 74c6 183a
000000d0: 144b 3cbc c0e1 ddbb 4b0a 193d 9520 953c
000000e0: 458b 4dbd 956e fb3c 6897 003d ec96 a93c
000000f0: 0422 043d a49b b43c d6c6 bebb f999 003c
00000100: a84e 233c 3d6f 7c3b ecab 053d 4ec9 703a
00000110: 127a 65bc 1e9f 163d ce58 1bbd e4be 5a3a
00000120: 4656 413b e223 6abc 9d42 00bc 1ef2 5b3d
00000130: a276 03bd f256 ac3c 756c f5b9 af4b 353c
00000140: 6ee1 b43c 2222 c33c 14b5 023d 4e10 053b
00000150: 98f1 f43c 0160 003b 2d0f 4ebc 455a 053c
00000160: 53ef 0dbc 6454 473c f41c 84bb 5613 1dbc
00000170: f263 34bd 8b59 283d 02cb 43bb 3b3e 363c
00000180: cfda 743c 919d 183a 3452 183d d695 153d
00000190: 0219 ba3a f48f 3a3d d0d1 c33c 1fb1 c0ba
000001a0: df5c 9c3c a4d3 32bd 7761 5c3d 5a08 2b3d
000001b0: 3f1c 52bc f08c 25bc a28e 3d3c 758a 94bc
000001c0: 5769 ed3b ca77 30bc 6591 e8ba f113 01bd
000001d0: 72c3 773b 210a 01bd 1bb2 103d 1962 15bd
000001e0: 3ba0 53bd a3b6 16bc 0841 273d 2c0f 04bc
000001f0: d330 dabc 35f9 cd3c 417a 993c aabe 033c
00000200: cdfa 663d e6a3 07bc 5373 a43b 1eb4 1ebd
00000210: 841e 4abd 912e 3d3b 0596 ed39 2ce4 243b
00000220: 2ae5 c3bc 6840 6f3c 8852 a33c 85ef d9bb
00000230: c9d5 bb3b 5a21 04bd e5ee 1b3c 0fad 8f3c
00000240: 2392 cc3c d058 d03b a8ff ccbc 4b57 2a3c
00000250: 0286 1c3d 917f 44bd

ClassificationFd2da27.0.running_mean f4 [150]
0.10188659 0.5850489 -0.20116684 0.34540245 -0.6630889 0.4393742 -0.49597868 -0.10698432
0.62561315 0.4540089 0.8354244 0.08551689 0.104183376 0.00758788 0.20385756 0.5943815
0.07427912 -0.13057879 -0.044218346 -0.068263836 -0.026070248 0.022368826 0.3251288 0.4233326
0.31646973 0.12829414 -0.34904745 -0.0474926 0.024861608 0.4651398 0.63628864 -0.450188
-0.15757206 -0.046799228 -0.086961314 0.0402934 0.08352333 -0.3625811 -0.51647145 0.008322256
-0.07430166 0.20399256 0.009395332 -0.54068846 -0.74302256 0.057070915 -0.040453527 0.48150995
-0.5274713 -0.3395103 0.017106554 0.074593745 0.07630423 0.112669356 -0.67921907 0.05269795
-0.0059854006 -0.08321873 0.38215634 0.11633342 -0.020403704 -0.48256195 0.04750481 0.83760595
0.35710132 0.03798091 -0.04390201 0.037631463 -0.26493853 0.38426456 -0.58351505 0.26994845
-0.037480175 0.17713845 0.4647204 0.2380041 -0.7480039 0.0088634975 -0.050045155 0.1813423
0.016805734 -0.3991185 0.5537605 -0.14562152 0.13896592 0.5493507 -0.015361726 0.004814657
0.07066885 0.109442905 0.4556509 0.15066655 -0.17660362 0.31794783 -0.46845332 -0.08734373
0.45754892 0.03506606 -0.5008902 0.10793921 -0.027817156 0.16513489 0.1402423 -0.066616006
0.6752305 -0.4251194 -0.34098893 0.020673595 0.6490716 -0.025590481 0.14437774 0.104920454
0.29881376 0.009684124 0.19888364 -0.052651618 -0.042397305 -0.094699584 0.63482475 -0.23851092
0.04042 0.29053146 -0.06782907 -0.019545244 0.05002179 0.4423198 -0.08664946 0.028528556
0.35571706 0.30304253 0.05652627 0.031229457 -0.4055856 0.6523102 0.5894621 0.012663249
-0.14282139 0.034711912 0.28200433 0.29978687 0.7423501 -0.25288954 -0.03348666 0.51759183
0.5307478 0.07153633 -0.5772693 -0.10487149 -0.035111018 -0.11287403
00000000: eba9 d03d c4c5 153f aefe 4dbe 97d8 b03e
00000010: 32c0 29bf a8f5 e03e ebf0 fdbe 981a dbbd
00000020: 2f28 203f db73 e83e 60de 553f 7b23 af3d
00000030: 185e d53d c0a3 f83b 09c0 503e 6329 183f
00000040: a71f 983d 72b6 05be 4c1e 35bd e9cd 8bbd
00000050: 4691 d5bc d43e b73c 4877 a63e 0dbf d83e
00000060: 5208 a23e 8a5f 033e 59b6 b2be 9a87 42bd
00000070: 92aa cb3c ce26 ee3e d0e3 223f 0b7f e6be
00000080: 925a 21be 8cb0 3fbd c618 b2bd b10a 253d
00000090: 480e ab3d 3ba4 b9be 7937 04bf 125a 083c
000000a0: 782b 98bd 6de3 503e e1ee 193c 8f6a 0abf
000000b0: ba36 3ebf 31c3 693d 99b2 25bd 7988 f63e
000000c0: 5c08 07bf 4bd4 adbe 0b23 8c3c 9bc4 983d
000000d0: 6445 9c3d 31bf e63d 4de1 2dbf ced9 573d
000000e0: 2e21 c4bb 956e aabd ffa9 c33e 3740 ee3d
000000f0: ab25 a7bc 5c12 f7be 6794 423d 586d 563f
00000100: fcd5 b63e df91 1b3d 98d2 33bd 7323 1a3d
00000110: 06a6 87be 53be c43e 3e61 15bf af36 8a3e
00000120: d084 19bd c863 353e d5ef ed3e 59b7 733e
00000130: 2f7d 3fbf 3438 113c 26fc 4cbd ccb1 393e
00000140: 2eac 893c 4359 ccbe 40c3 0d3f cf1d 15be
00000150: 154d 0e3e 3fa2 0c3f c0af 7bbc 45c4 9d3b
00000160: d4ba 903d 9a23 e03d 134b e93e 5548 1a3e
00000170: 94d7 34be 0fca a23e 1dd9 efbe 45e1 b2bd
00000180: da43 ea3e 6ea1 0f3d 573a 00bf 3c0f dd3d
00000190: cee0 e3bc 1f19 293e ad9b 0f3e f96d 88bd
000001a0: e8db 2c3f 40a9 d9be 1a96 aebe ac5b a93c
000001b0: 8e29 263f 21a3 d1bc c2d7 133e 89e0 d63d
000001c0: 1efe 983e 29aa 1e3c 27a8 4b3e 39a9 57bd
000001d0: cca8 2dbd dbf1 c1bd e083 223f 353c 74be
000001e0: 718f 253d 8ac0 943e f8e9 8abd 591d a0bc
000001f0: a6e3 4c3d be77 e23e 4675 b1bd b8b4 e93c
00000200: 8c20 b63e 6428 9b3e 1788 673d ebd4 ff3c
00000210: eaa8 cfbe cdfd 263f fde6 163f 8479 4f3c
00000220: c53f 12be 142e 0e3d df62 903e aa7d 993e
00000230: a80a 3e3f bd7a 81be 4f29 09bd e680 043f
00000240: 16df 073f a481 923d ecc7 13bf ddc6 d6bd
00000250: 92d0 0fbd 802a e7bd

ClassificationFd2da27.0.running_var f4 [150]
1.102154e-05 8.700791e-06 1.0317851e-06 6.1612236e-06 6.4015776e-06 2.0047202e-05 2.4229512e-05 6.995601e-06
3.6411648e-06 6.4543165e-05 1.0843281e-06 2.6814653e-06 1.1270574e-05 2.3382879e-07 1.3075428e-05 3.1175964e-06
3.2002765e-07 4.7593658e-06 1.5709695e-05 1.1935337e-05 2.8593638e-06 1.2116178e-07 2.005748e-05 7.810429e-06
3.5634817e-05 1.4046238e-05 1.6553005e-06 1.0412465e-06 6.908491e-07 9.819372e-07 5.4640964e-06 1.6194837e-05
7.921185e-06 8.940702e-07 1.0206107e-06 1.5192059e-07 1.1847932e-06 2.0223759e-05 3.9943307e-06 5.6874337e-06
1.3508826e-06 1.4679919e-05 1.7922831e-06 1.8200354e-06 9.025317e-07 3.2939956e-06 4.788234e-06 2.6186677e-05
3.6816755e-06 1.5834501e-05 1.155701e-06 2.54624e-07 6.3105614e-07 9.51753e-06 9.471344e-07 4.281078e-06
7.4484205e-08 6.3972607e-07 5.6769983e-05 1.960998e-05 1.9855931e-06 3.3620797e-06 3.730088e-07 4.370639e-06
3.4449045e-06 1.891728e-05 1.2860697e-06 6.5199233e-06 1.1857521e-06 3.4990321e-06 3.6301708e-06 1.0545743e-05
2.8520455e-05 1.5408179e-05 2.838591e-06 2.8202887e-05 2.2302836e-06 1.8511711e-06 2.1537835e-07 3.608583e-05
8.6197673e-07 4.7269947e-07 1.0374981e-05 1.0950624e-05 6.216687e-05 2.691672e-05 1.3503993e-05 8.585815e-06
5.4827215e-06 2.9568806e-05 0.008123959 1.0847801e-05 5.444884e-06 9.441216e-06 1.2752229e-05 1.2644189e-07
5.4184216e-06 1.8683801e-07 5.593977e-06 5.414793e-06 2.9083753e-07 5.545205e-06 6.6865556e-05 2.578962e-07
1.6847107e-05 1.9503572e-05 1.3271571e-05 5.6525155e-06 1.2252125e-05 1.0007752e-06 3.2357766e-05 1.1520953e-06
1.4578015e-05 7.5746686e-07 3.700382e-05 1.96552e-05 3.3560173e-07 2.3007697e-06 1.10071305e-05 2.9887312e-06
2.0847647e-06 1.3044756e-06 6.3907294e-07 1.5343868e-06 7.816897e-07 1.4380834e-05 7.5362465e-07 3.87959e-07
1.6383052e-05 8.261534e-06 1.8712079e-05 1.1784718e-07 7.3199717e-06 1.7371482e-05 4.218509e-06 1.8676039e-06
6.8148147e-06 7.702432e-06 1.4798175e-05 4.167504e-06 4.346171e-06 3.742766e-06 1.7233522e-07 4.8576517e-06
5.2255664e-06 2.8080983e-06 2.8821833e-06 9.760244e-06 2.9505559e-06 3.6964495e-06
00000000: 27e9 3837 9df9 1137 de7b 8a35 82bc ce36
00000010: 22cd d636 0a2b a837 7b40 cb37 c1bb ea36
00000020: bc5a 7436 595b 8738 3b89 9135 39f3 3336
00000030: bf16 3d37 5e12 7b34 895e 5b37 e637 5136
00000040: 44d0 ab34 a4b2 9f36 50c8 8337 e23d 4837
00000050: 7fe3 3f36 b218 0234 1c41 a837 8a09 0337
00000060: 9876 1538 22a8 6b37 b12b de35 f5c0 8b35
00000070: ca72 3935 1bcb 8335 3b58 b736 26da 8737
00000080: 3be5 0437 0900 7035 ebfb 8835 9d1f 2334
00000090: 2f05 9f35 31a6 a937 0a07 8636 afd6 be36
000000a0: f94f b535 c649 7637 618e f035 f147 f435
000000b0: 8245 7235 6a0e 5d36 9eaa a036 76ab db37
000000c0: b412 7736 55d4 8437 961d 9b35 42b3 8834
000000d0: d965 2935 7bad 1f37 953e 7e35 2ea6 8f36
000000e0: 20f4 9f33 a4b9 2b35 4e1c 6e38 1d80 a437
000000f0: 3b40 0536 17a0 6136 f041 c834 81a7 9236
00000100: 022f 6736 8db0 9e37 059d ac35 b7c5 da36
00000110: 2226 9f35 ead0 6a36 dc9d 7336 9fed 3037
00000120: 363f ef37 d040 8137 9f7e 3e36 3d95 ec37
00000130: fbab 1536 c175 f835 c042 6734 dd5a 1738
00000140: 9762 6735 52c7 fd34 3410 2e37 92b8 3737
00000150: 965f 8238 37cb e137 358f 6237 cb0b 1037
00000160: 38f8 b736 870a f837 5b1a 053c f3fe 3537
00000170: 33b3 b636 b765 1e37 68f2 5537 15c4 0734
00000180: e3cf b536 a49d 4834 e6b3 bb36 b8b0 b536
00000190: 6824 9c34 f310 ba36 2c3a 8c38 fc74 8a34
000001a0: e352 8d37 9a9b a337 f7a8 5e37 bdaa bd36
000001b0: 7a8e 4d37 6052 8635 e3b7 0738 b1a1 9a35
000001c0: 1994 7437 ba54 4b35 8d34 1b38 38e1 a437
000001d0: c02c b434 ec66 1a36 44ab 3837 0392 4836
000001e0: fce7 0b36 7115 af35 c28c 2b35 21f1 cd35
000001f0: 4fd5 5135 3645 7137 b14c 4a35 ae48 d034
00000200: 566e 8937 059b 0a37 e2f7 9c37 2c13 fd33
00000210: 149e f536 f9b8 9137 b78c 8d36 62aa fa35
00000220: d0aa e436 b239 0137 ad45 7837 96d6 8b36
00000230: 53d5 9136 3b2c 7b36 250b 3934 e9fe a236
00000240: 4657 af36 c372 3c36 886b 4136 eebf 2337
00000250: 2a02 4636 8510 7836

ClassificationCat.0.weight f4 [1, 150]
-0.11266481 -0.09506738 0.054835193 -0.058266237 -0.053446747 0.051714003 0.067608535 0.05385529
-0.105665885 0.122472405 0.02861422 0.012911005 0.056946363 -0.04082594 0.039196618 0.033655625
-0.021028535 -0.06537201 -0.02252359 0.07370642 0.027537022 -0.051482487 -0.13805787 0.07359944
0.063517466 0.06262203 0.022046214 -0.038848232 -0.027328962 -0.0067408723 0.03772689 0.09700698
0.052346703 0.041597255 -0.028019875 0.052399628 0.03765549 -0.06226183 -0.033687677 -0.044726588
-0.04012964 0.07409733 -0.050145842 0.061701823 0.02508417 -0.02317026 -0.092890136 0.104666576
0.06961031 -0.076537296 0.030263271 -0.0012814393 0.0822732 0.04984135 -0.017553426 -0.05304022
0.068978995 -0.013701104 -0.07407871 -0.067657754 -0.06602763 -0.05139571 -0.020583779 0.01782929
-0.041267335 0.05744574 -0.05382768 0.07256903 0.002923587 -0.05924787 0.09292886 -0.06495287
0.101357386 0.086822845 -0.0060561686 -0.10271335 0.06226133 -0.06544272 -0.012421596 0.09118414
-0.068839595 -0.010417716 -0.096500896 -0.048029758 -0.08324634 0.06916005 0.045923468 -0.078647144
0.028223915 -0.10241175 0.11095799 0.05665305 0.033238318 -0.06834301 0.0012521562 -0.010908896
-0.06915283 -0.051745232 -0.026265584 -0.079107955 0.0050062058 -0.07197759 -0.090341024 -0.0022369043
-0.07238437 0.06427805 -0.043845665 -0.07551092 0.048925094 -0.0044628903 0.09427719 0.078087345
0.12097568 0.005620808 0.11225844 0.09306549 -0.0047991634 0.09163258 -0.0822706 0.095895365
0.051966142 0.009565779 -0.06425601 0.045848783 0.027651187 -0.07228817 -0.012176534 -0.021053603
-0.13475798 0.06066073 0.088027164 0.070198394 0.07579624 0.089201495 0.06553736 0.056877848
0.028448598 -0.067159295 -0.068432726 0.019810133 0.07266437 0.05774291 -0.014519064 -0.0780659
-0.06828926 0.059057213 0.0462756 -0.081229575 -0.051011875 0.03261253
00000000: cfbc e6bd b0b2 c2bd de9a 603d 94a8 6ebd
00000010: faea 5abd 10d2 533d 5876 8a3d 5d97 5c3d
00000020: 5b67 d8bd d0d2 fa3d 5e68 ea3c ae88 533c
00000030: 9740 693d 1a39 27bd a28c 203d 7bda 093d
00000040: 0944 acbc c3e1 85bd 6483 b8bc 64f3 963d
00000050: 5295 e13c 4ddf 52bd 0b5f 0dbe 4ebb 963d
00000060: 7215 823d fb3f 803d 439a b43c 531f 1fbd
00000070: fde0 dfbc 89e2 dcbb 8387 1a3d 98ab c63d
00000080: 7f69 563d e261 2a3d f089 e5bc fea0 563d
00000090: a53c 1a3d 4306 7fbd 17fc 09bd 3a33 37bd
000000a0: fa5e 24bd 57c0 973d ba65 4dbd 0dbb 7c3d
000000b0: 517d cd3c 8fcf bdbc 2f3d bebd 6e5b d63d
000000c0: da8f 8e3d 96bf 9cbd aeea f73c f8f5 a7ba
000000d0: da7e a83d 7226 4c3d 34cc 8fbc b440 59bd
000000e0: dc44 8d3d 987a 60bc 94b6 97bd 2690 8abd
000000f0: 7e39 87bd 4f84 52bd 509f a8bc bb0e 923c
00000100: f007 29bd 394c 6b3d 6a7a 5cbd 129f 943d
00000110: a799 3f3b e5ad 72bd 7c51 be3d 0306 85bd
00000120: 7694 cf3d 2dd0 b13d d372 c6bb 605b d2bd
00000130: bd05 7f3d d506 86bd f383 4bbc c0be ba3d
00000140: c6fb 8cbd 11af 2abc 43a2 c5bd daba 44bd
00000150: 0f7d aabd c9a3 8d3d 3f1a 3c3d c111 a1bd
00000160: d735 e73c 40bd d1bd f13d e33d 070d 683d
00000170: e724 083d 6cf7 8bbd 641f a43a 3abb 32bc
00000180: 00a0 8dbd cff2 53bd ec2a d7bc 5a03 a2bd
00000190: 190b a43b fd68 93bd b704 b9bd 0799 12bb
000001a0: 423e 94bd 36a4 833d 8397 33bd 78a5 9abd
000001b0: ae65 483d 703d 92bb 6614 c13d 42ec 9f3d
000001c0: 19c2 f73d c12e b83b c1e7 e53d 1f99 be3d
000001d0: 4d42 9dbb dda9 bb3d 7d7d a8bd ca64 c43d
000001e0: 73da 543d c9b9 1c3c a898 83bd efcb 3b3d
000001f0: be84 e23c d20b 94bd 1680 47bc 9b78 acbc
00000200: fffd 09be 6377 783d 9647 b43d 2dc4 8f3d
00000210: 0f3b 9b3d 46af b63d 7438 863d bff8 683d
00000220: 090d e93c d08a 89bd 7526 8cbd dc48 a23c
00000230: 0fd1 943d d483 6c3d 5ee1 6dbc 04e1 9fbd
00000240: 3ddb 8bbd fae5 713d 7c8b 3d3d b15b a6bd
00000250: d4f1 50bd b794 053d
