models/simple validation/videos aus si/pytorch/1-25-0.3576253354549408-0.8472222089767456.pt (torch, 451002 bytes, 55 tensors)

TSA.conv.weight f4 [3, 3, 3, 3]
-0.07521011 -0.049446855 -0.07914595 -0.061667833 0.84077305 -0.046541434 -0.070317045 -0.018458648
-0.035350647 -0.06471381 -0.055288475 -0.1105475 -0.044109665 0.8381551 -0.06683227 -0.053136468
-0.004152114 -0.045714647 -0.050019883 -0.048720494 -0.1032551 -0.029693028 0.85106665 -0.050961107
-0.04090201 0.016555522 -0.025615763 -0.02111562 0.055969622 0.12428608 0.04966757 0.98277324
0.17068885 0.052127827 0.10115535 0.1619259 -0.062311754 0.039307963 0.14881106 -0.020888042
0.9379773 0.18219528 -0.0251341 0.053129464 0.16667499 -0.07174291 0.02336223 0.12214859
-0.026890285 0.91863513 0.15392199 -0.0227249 0.044657882 0.14517902 -0.064604186 0.0029933678
0.040901195 -0.021802789 0.90819585 0.06306055 -0.028538555 -0.004492811 0.02224494 -0.08927572
-0.005095047 0.046536848 -0.06391552 0.8660619 0.05070352 -0.077056594 -0.049002342 0.0004990649
-0.102619156 -0.025467444 0.019086422 -0.0788664 0.84580624 0.02993163 -0.088378794 -0.05381265
-0.01206903
00000000: c207 9abd c988 4abd 4617 a2bd 6997 7cbd
00000010: e73c 573f 3ba2 3ebd 6202 90bd 9736 97bc
00000020: d7cb 10bd ad88 84bd 2b76 62bd ba66 e2bd
00000030: 56ac 34bd 5591 563f 5bdf 88bd a0a5 59bd
00000040: 750e 88bb 483f 3bbd a6e1 4cbd 248f 47bd
00000050: 6977 d3bd cb3e f3bc 81df 593f 98bc 50bd
00000060: de88 27bd 729f 873c 26d8 d1bc aafa acbc
00000070: 6740 653d b389 fe3d 3970 4b3d 0797 7b3f
00000080: 0fc9 2e3e fd83 553d 892a cf3d e7cf 253e
00000090: 9c3a 7fbd 6301 213d ed61 183e 661d abbc
000000a0: 481f 703f 6691 3a3e 07e6 cdbc 489e 593d
000000b0: d9ac 2a3e f2ed 92bd 2662 bf3c 0a29 fa3d
000000c0: 0449 dcbc ac2b 6b3f ba9d 1d3e 9229 babc
000000d0: 2feb 363d cfa9 143e 334f 84bd 612c 443b
000000e0: 0388 273d c39b b2bc 867f 683f e425 813d
000000f0: b0c9 e9bc 6e38 93bb 053b b63c 30d6 b6bd
00000100: 5af4 a6bb 6c9d 3e3d 24e6 82bd 3cb6 5d3f
00000110: 7fae 4f3d d9cf 9dbd aeb6 48bd aed3 023a
00000120: fe29 d2bd 1aa1 d0bc 215b 9c3c b584 a1bd
00000130: c286 583f 2d33 f53c f1ff b4bd a76a 5cbd
00000140: 2ebd 45bc

TSA.conv.bias f4 [3]
-0.010654305 -0.03222726 -0.005673747
00000000: 658f 2ebc bb00 04bd d7ea b9bb

FPN.0.weight f4 [3]
0.87654823 0.9862617 0.880836
00000000: 7765 603f a67b 7c3f 787e 613f

FPN.0.bias f4 [3]
-0.0013946487 -0.017298697 -0.00999988
00000000: a5cc b6ba ffb5 8dbc 89d6 23bc

FPN.0.running_mean f4 [3]
0.48881337 0.4239365 0.38613933
00000000: bf45 fa3e 340e d93e 0eb4 c53e

FPN.0.running_var f4 [3]
0.0420956 0.07286985 0.041619405
00000000: 706c 2c3d ca3c 953d 1c79 2a3d

FPN.1.conv.weight f4 [4, 3, 3, 3]
-0.11478969 0.02514352 -0.17342205 0.1373792 -0.08715492 0.10700551 -0.03757528 0.05034371
0.045914274 -0.071604766 -0.16736457 -0.056148026 -0.0071404018 0.045358066 -0.16897088 0.20266083
0.21397737 0.10282239 -0.05355352 -0.23285805 -0.020012354 -0.048955847 -0.01667804 0.03599915
0.01592295 0.19667326 -0.13228823 0.08238792 -0.1669918 0.1073377 -0.08332907 0.0032211784
-0.14541881 0.006544284 -0.14575139 0.1563512 -0.1155773 -0.21501802 -0.15233156 -0.16948882
-0.12011011 -0.23257191 0.10110739 -0.07005034 -0.12318436 0.0057987124 -0.17764057 -0.030933714
0.18303485 0.049446948 0.16520554 0.14840564 0.0565077 -0.023615781 0.1098648 0.06233958
-0.11725808 0.01972428 0.13787161 -0.11377368 0.015607833 0.042022485 0.11999072 -0.10015845
0.08298617 -0.012420983 -0.012547836 -0.16158365 -0.021747878 0.054377448 0.07166933 -0.09310533
-0.15079948 -0.16299744 -0.11332808 -0.106786825 -0.20857273 0.02526358 -0.11715732 0.014136387
-0.2705424 0.042172015 -0.14901875 0.07229316 0.09883214 -0.09217839 -0.06806868 0.1675451
-0.13950126 -0.204062 0.08411928 -0.0899839 0.11504121 0.06933225 0.041340142 0.21234265
0.044550594 0.104868315 0.17336081 -0.23721017 0.124476396 0.017651549 0.082876384 0.0084765
-0.0020173802 0.12038915 0.035702534 -0.0018973408
00000000: db16 ebbd c9f9 cd3c 8d95 31be 22ad 0c3e
00000010: 477e b2bd b425 db3d 89e8 19bd 3535 4e3d
00000020: 9b10 3c3d 85a5 92bd 9e61 2bbe 79fb 65bd
00000030: 08fa e9bb 61c9 393d b406 2dbe 5286 4f3e
00000040: e21c 5b3e 8c94 d23d f05a 5bbd 5772 6ebe
00000050: f3f0 a3bc ed85 48bd 63a0 88bc d873 133d
00000060: d970 823c b764 493e 9176 07be ffba a83d
00000070: e6ff 2abe ded3 db3d 6ea8 aabd 681a 533b
00000080: abe8 14be 6f71 d63b da3f 15be 871a 203e
00000090: cbb3 ecbd af2d 5cbe cefc 1bbe 7a8e 2dbe
000000a0: 4afc f5bd 5527 6ebe 6411 cf3d 8d76 8fbd
000000b0: 1548 fcbd 2003 be3b 69e7 35be b368 fdbc
000000c0: 7d6d 3b3e e288 4a3d a42b 293e a6f7 173e
000000d0: 9e74 673d e275 c1bc cc00 e13d ca57 7f3d
000000e0: 0125 f0bd d094 a13c 372e 0d3e 2d02 e9bd
000000f0: ffb7 7f3c c51f 2c3d b2bd f53d e01f cdbd
00000100: a7f4 a93d 6181 4bbc 7095 4dbc 2f76 25be
00000110: 9b28 b2bc e3ba 5e3d 5fc7 923d 02ae bebd
00000120: 2e6b 1abe cde8 26be 8d18 e8bd 0db3 dabd
00000130: 1794 55be 91f5 ce3c 2df0 efbd 4e9c 673c
00000140: 8984 8abe 90bc 2c3d 5f98 18be 700e 943d
00000150: 8168 ca3d 06c8 bcbd 9867 8bbd f190 2b3e
00000160: 6bd9 0ebe a1f5 50be bb46 ac3d 7b49 b8bd
00000170: ba9a eb3d 11fe 8d3d 4854 293d 5a70 593e
00000180: af7a 363d 33c5 d63d 7f85 313e 39e7 72be
00000190: 7bed fe3d fb99 903c 18bb a93d 05e1 0a3c
000001a0: 0636 04bb 968e f63d d23c 123d 31b0 f8ba

FPN.1.conv.bias f4 [4]
-3.701757e-05 -8.026518e-08 -0.00018343695 3.003126e-07
00000000: 5043 1bb8 405e acb3 fb58 40b9 a63a a134

FPN.1.bn.weight f4 [4]
0.91258085 0.93453074 0.88953465 1.0207576
00000000: e69e 693f 683d 6f3f 8bb8 633f 2fa8 823f

FPN.1.bn.bias f4 [4]
-0.02525378 -0.0597631 -0.060933992 -0.058352843
00000000: 04e1 cebc 27ca 74bd ec95 79bd 6403 6fbd

FPN.1.bn.running_mean f4 [4]
-0.001011625 0.0069393627 0.001559674 -0.0049455343
00000000: 8198 84ba 9863 e33b fa6d cc3a 260e a2bb

FPN.1.bn.running_var f4 [4]
0.17773256 0.7723597 0.67683226 0.29713088
00000000: 86ff 353e 5eb9 453f e144 2d3f 8a21 983e

FPN.3.conv.weight f4 [6, 4, 3, 3]
-0.14043993 -0.06558365 0.09364493 0.0385653 0.04974921 -0.1120273 0.059880443 0.21464947
0.16198018 0.054076128 0.12027967 -0.16610561 -0.037520934 -0.09903032 0.08140509 -0.004457478
-0.014614096 0.12757038 0.053979907 0.05594554 -0.055766527 -0.13467798 -0.072735496 -0.12429279
0.08240441 0.16429742 -0.15433681 -0.024857514 -0.030416718 0.21183792 -0.20808293 -0.09712794
0.19533905 0.050223827 -0.00611807 0.20211712 0.055008955 -0.104194984 0.03179826 0.10784126
0.027111957 -0.009686631 -0.088047996 -0.12567404 0.1251233 0.12463286 0.1271397 0.06729806
0.036561318 -0.13682312 0.18532375 0.034221973 -0.18607117 0.10586517 0.033448108 -0.10754175
-0.024364956 -0.12007505 -0.13300331 -0.11400503 -0.0815749 -0.10230157 0.101302035 0.02483427
0.16818707 0.099978745 -0.02091927 0.12498631 0.09320787 -0.14982626 -0.15293172 -0.12385023
0.21148537 -0.07667956 0.039701387 -0.009628677 0.06973486 0.14919329 -0.058249116 -0.12909599
-0.11543689 -0.011986723 0.07993836 -0.045828328 -0.065176345 -0.114650376 0.036459118 0.033579495
-0.11393995 0.116495654 0.07170169 -0.05748635 0.006486619 -0.009741419 0.06647269 -0.14013605
0.13109869 -0.089990065 0.07687155 0.21078281 0.17308016 -0.0049607884 0.05680678 -0.10729932
0.087270476 -0.12549946 -0.14088613 -0.08034122 0.091370545 -0.0066156327 -0.039177205 -0.031517416
0.13975142 0.048637092 -0.04509366 0.034240928 -0.06821025 0.16233633 0.10480868 -0.055002436
0.060919035 0.09054526 0.1551957 0.020534178 0.08552027 0.017127061 -0.082999304 0.17331184
-0.046950627 0.057968024 0.13338599 -0.13156657 0.009112539 -0.03994622 0.0073570013 0.036389377
-0.039483596 -0.09257944 -0.08264885 -0.080284394 0.16879457 -0.10791067 0.15586522 0.19442642
0.07670652 0.046551682 0.06577154 -0.00700924 0.12934476 0.035859212 -0.11092243 0.032318488
-0.010988879 0.1377084 0.092902176 0.08648249 0.13539383 0.17205808 0.020072069 0.04992467
-0.047467034 0.107458346 0.077850886 0.08952812 0.04359988 0.13651149 0.016216772 0.12046285
-0.12324675 0.18092455 0.14830436 0.010033554 0.02946219 -0.050443396 0.08986029 0.17050165
0.09248801 0.11218958 0.16714533 -0.036766354 -0.015376749 -0.16091606 -0.24910013 0.004797395
0.08590848 -0.0075600203 -0.0051942654 0.12659779 0.10280852 0.044314865 -0.0129023455 -0.17112337
0.17994885 -0.07625795 -0.1029601 -0.041435942 0.090954624 -0.08178448 0.15682112 0.05405843
-0.10065587 -0.15559112 0.052349668 0.052355964 0.037277754 -0.11367888 -0.099740714 -0.15243472
-0.07531241 -0.07361526 -0.060468502 -0.14505632 0.008704128 -0.034963783 -0.1481437 -0.098400794
00000000: 7ccf 0fbe b850 86bd eac8 bf3d a6f6 1d3d
00000010: d4c5 4b3d 926e e5bd 3245 753d 12cd 5b3e
00000020: 22de 253e ee7e 5d3d 3055 f63d 9717 2abe
00000030: 8daf 19bd 69d0 cabd b6b7 a63d 0910 92bb
00000040: f66f 6fbc cfa1 023e 091a 5d3d 2727 653d
00000050: 716b 64bd 06e9 09be 59f6 94bd 388d febd
00000060: a5c3 a83d 953d 283e 780a 1ebe fca1 cbbc
00000070: 7b2c f9bc 0aec 583e b113 55be 03eb c6bd
00000080: f606 483e 80b7 4d3d 177a c8bb caf7 4e3e
00000090: 1251 613d 2e64 d5bd e43e 023d e1db dc3d
000000a0: e519 de3c adb4 1ebc 8252 b4bd b2b0 00be
000000b0: 5320 003e 833f ff3d e930 023e 91d3 893d
000000c0: 52c1 153d 5c1b 0cbe 82c5 3d3e 572c 0c3d
000000d0: 7189 3ebe d7cf d83d e200 093d d93e dcbd
000000e0: 0499 c7bc e8e9 f5bd 0532 08be 787b e9bd
000000f0: be10 a7bd 7c83 d1bd 7177 cf3d 3d71 cb3c
00000100: 3b39 2c3e a8c1 cc3d e45e abbc d3f8 ff3d
00000110: c5e3 be3d 0e6c 19be 229a 1cbe 30a5 fdbd
00000120: 9f8f 583e 2c0a 9dbd ec9d 223d 99c1 1dbc
00000130: 26d1 8e3d 20c6 183e a096 6ebd bd31 04be
00000140: 2d6a ecbd f663 44bc b9b6 a33d 7cb6 3bbd
00000150: 2d7b 85bd d1cd eabd 2856 153d a78a 093d
00000160: 5959 e9bd 4695 ee3d 56d8 923d cf76 6bbd
00000170: b48d d43b 799a 1fbc d522 883d d37f 0fbe
00000180: bc3e 063e b64c b8bd d56e 9d3d 73d7 573e
00000190: ed3b 313e 1c8e a2bb 3aae 683d bfbf dbbd
000001a0: ddba b23d ee82 00be 7444 10be f089 a4bd
000001b0: 7b20 bb3d f3c7 d8bb 4778 20bd 6818 01bd
000001c0: ff1a 0f3e b037 473d 21b4 38bd 3740 0c3d
000001d0: d1b1 8bbd 7f3b 263e efa5 d63d 3c4a 61bd
000001e0: 3d86 793d cb6f b93d 9feb 1e3e 4b37 a83c
000001f0: 4025 af3d 0d4e 8c3c 8afb a9bd a978 313e
00000200: 4d4f 40bd e16f 6d3d 5696 083e 63b9 06be
00000210: c24c 153c a69e 23bd 0013 f13b 070d 153d
00000220: 8db9 21bd 4a9a bdbd cd43 a9bd 256c a4bd
00000230: 7cd8 2c3e 4500 ddbd 229b 1f3e b817 473e
00000240: 4f18 9d3d faac 3e3d 3bb3 863d c4ad e5bb
00000250: f472 043e 1ce1 123d 4d2b e3bd 6460 043d
00000260: b30a 34bc 6e03 0d3e 7f43 be3d bb1d b13d
00000270: aea4 0a3e fe2f 303e 2e6e a43c d07d 4c3d
00000280: cb6c 42bd 1f13 dc3d 4970 9f3d 855a b73d
00000290: ca95 323d abc9 0b3e 09d9 843c 3ab5 f63d
000002a0: cb68 fcbd 4944 393e 19dd 173e c763 243c
000002b0: b15a f13c bc9d 4ebd ac08 b83d fc97 2e3e
000002c0: 5b6a bd3d a7c3 e53d 2528 2b3e 5198 16bd
000002d0: c3ee 7bbc 2ec7 24be 1b14 7fbe 7733 9d3b
000002e0: c9f0 af3d 0cba f7bb a834 aabb daa2 013e
000002f0: 468d d23d 8183 353d 5c64 53bc f73a 2fbe
00000300: 8344 383e 212d 9cbd bfdc d2bd bcb8 29bd
00000310: 6b46 ba3d 9f7e a7bd b795 203e 5f6c 5d3d
00000320: aa24 cebd 4753 1fbe 9b6c 563d 3573 563d
00000330: 8fb0 183d 79d0 e8bd dc44 ccbd d917 1cbe
00000340: 653d 9abd 99c3 96bd d2ad 77bd a589 14be
00000350: c29b 0e3c 2f36 0fbd fbb2 17be 5b86 c9bd

FPN.3.conv.bias f4 [6]
6.955027e-08 -0.00010841636 2.5229653e-08 -2.558424e-09 -6.847817e-05 7.606689e-09
00000000: aa5b 9533 975d e3b8 98b8 d832 45d0 2fb1
00000010: f09b 8fb8 92ae 0232

FPN.3.bn.weight f4 [6]
0.9932248 1.0514752 0.93505716 1.0707535 0.9690424 0.9616661
00000000: fb43 7e3f bd96 863f e85f 6f3f 730e 893f
00000010: 2a13 783f c02f 763f

FPN.3.bn.bias f4 [6]
-0.063549034 -0.010735653 -0.038760338 -0.029593935 -0.048203964 0.02873166
00000000: ff25 82bd 98e4 2fbc 29c3 1ebd fb6e f2bc
00000010: 8571 45bd a95e eb3c

FPN.3.bn.running_mean f4 [6]
0.13752791 -0.051501874 0.019026095 0.24538548 0.59700096 -0.2984112
00000000: 1ed4 0c3e a1f3 52bd 9ddc 9b3c 5546 7b3e
00000010: 0ed5 183f 5ac9 98be

FPN.3.bn.running_var f4 [6]
0.116542205 0.0704471 0.054086417 0.104846515 0.39765748 0.4228049
00000000: aead ee3d 9246 903d b889 5d3d c5b9 d63d
00000010: c399 cb3e e279 d83e

ConvLSTMLayer.cell.conv.weight f4 [32, 14, 3, 3]
-0.002896766 -0.09496853 0.06843357 0.018454924 -0.010805077 0.13799657 -0.018510714 0.07280952
-0.014124949 -0.086342916 0.04225199 -0.022078348 -0.048756924 -0.0281868 -0.010587778 -0.08397856
0.037088804 0.03842242 -0.02209647 0.07461291 0.036277976 -0.023007764 -0.058881138 -0.0013616299
-0.03161711 0.030559158 0.058907237 0.006332582 -0.059716783 -0.09155975 -0.036558356 0.0016286247
0.032993864 0.063331746 -0.08209394 -0.081836164 0.008141213 -0.0068897954 0.018218948 -0.01071849
-0.048373148 -0.11125199 0.01601584 -0.0131010525 -0.13179183 0.0045972993 -0.072637595 -0.03845604
0.07603181 0.08167387 0.061674476 0.03002036 -0.016966574 -0.014922826 0.05148656 0.025129458
0.039462365 0.04468549 0.07450605 0.002771866 0.020518653 0.06145863 0.017430443 -0.012253288
-0.021256033 0.043291513 0.010361838 0.0076818718 0.04016704 -0.010001019 -0.0621598 0.002448778
-0.06832531 -0.04552974 -0.024687996 -0.033721004 -0.04789092 0.025809707 -0.025217293 -0.05161281
-0.106054746 0.0053520957 0.03788837 0.024540424 0.0019013942 0.038483586 0.02343741 0.04113257
0.095986396 0.12758994 -0.0010071088 0.014629213 0.033374015 0.06777703 0.049705096 -0.022102512
0.12889867 0.067161776 0.07097673 0.017575715 0.01740946 0.022369029 0.018534584 -0.011294078
-0.027818805 -0.03273466 -0.013033708 -0.023718547 -0.015800374 -0.03150005 -0.02662368 -0.050502628
-0.02202547 -0.02966557 0.0042079953 -0.024602694 -0.018176919 0.020247864 -0.021918157 0.026525712
-0.016863473 0.033956952 0.07472781 -0.0593735 0.02154518 0.06570682 0.11312451 0.06396696
-0.028997323 -0.08052008 0.097697906 0.011835248 -0.05260955 0.046526473 0.09146549 0.053557925
0.0008298002 0.031565093 -0.03203172 0.095266305 0.024203181 0.004678953 0.06487235 0.04185118
0.12414353 0.05477696 0.114575915 0.012979653 0.080939405 -0.03891464 0.04265608 -0.03869483
0.028337587 -0.040401194 0.09162412 0.074791566 0.0023234892 0.10817752 0.07897075 -0.09388553
0.07148194 0.029960968 0.049110334 0.068187594 -0.0031630711 -0.054176614 0.020693501 0.021663658
-0.06435868 -0.108452745 -0.021351155 -0.051023446 0.056020267 -0.0054397285 0.026568502 -0.009864928
0.03328132 -0.026098415 0.0042493665 -0.048415363 -0.03779765 -0.020328043 -0.034747332 -0.02200841
0.02211935 -0.012132563 0.03679647 0.08875478 -0.025505371 0.0019701233 -0.037619006 -0.040864624
-0.061539743 0.017588226 0.0062358775 -0.08143993 -0.06862434 -0.031642932 0.05194501 -0.060452033
-0.12174682 0.003559318 0.05375083 -0.04037179 -0.035219464 0.021480428 0.011274414 -0.0694311
-0.025547326 0.044226196 0.009801803 -0.08265068 -0.034798305 0.020936731 -0.025994366 0.025945337
-0.08347467 0.10081307 -0.009412765 -0.061543833 0.0030410183 -0.0028085138 -0.01944197 -0.0546375
0.02465084 0.00064811297 0.04531031 0.02275171 0.0042085806 0.056238346 0.016167695 0.0024113483
0.03716377 0.051103063 -0.030131 0.013429673 -0.016664652 0.05330621 0.04302064 0.011018868
-0.0061423862 -0.055152386 -0.01837774 -0.046872742 -0.026191862 0.07106596 0.03998757 -0.056771964
-0.06747505 0.09558544 -0.039870605 -0.09251462 0.14378095 0.034544267 0.15759656 0.08938376
00000000: abd7 3dbb dc7e c2bd e626 8c3d c82e 973c
00000010: c707 31bc f94e 0d3e c8a3 97bc 281d 953d
00000020: 556c 67bc 8ed4 b0bd 6c10 2d3d a7dd b4bc
00000030: 57b5 47bd 01e8 e6bc 5c78 2dbc f4fc abbd
00000040: 6eea 173d d460 1d3d a803 b5bc a7ce 983d
00000050: 3798 143d c77a bcbc 592d 71bd b878 b2ba
00000060: f180 01bd 3357 fa3c b748 713d 8c81 cf3b
00000070: 9699 74bd ae83 bbbd 37be 15bd 9477 d53a
00000080: 9324 073d 13b4 813d de20 a8bd b899 a7bd
00000090: b962 053c cbc3 e1bb e73f 953c 9b9c 2fbc
000000a0: ec22 46bd 15d8 e3bd a733 833c cca5 56bc
000000b0: 70f4 06be f1a4 963b 05c3 94bd 1584 1dbd
000000c0: 91b6 9b3d a144 a73d 609e 7c3d 42ed f53c
000000d0: 7cfd 8abc de7e 74bc 92e3 523d 4bdc cd3c
000000e0: 4aa3 213d 2208 373d a196 983d 32a8 353b
000000f0: bc16 a83c 0bbc 7b3d 4aca 8e3c 04c2 48bc
00000100: 2221 aebc 7152 313d b3c4 293c 36b8 fb3b
00000110: 3286 243d 50db 23bc 469b 7ebd ad7b 203b
00000120: 24ee 8bbd 657d 3abd 7b3e cabc 091f 0abd
00000130: 4529 44bd e16e d33c 7f94 cebc f467 53bd
00000140: 3b33 d9bd a260 af3b d630 1b3d 0009 c93c
00000150: 3438 f93a f7a0 1d3d d0ff bf3c a07a 283d
00000160: 8494 c43d f0a6 023e f700 84ba 5eaf 6f3c
00000170: 31b3 083d afce 8a3d 9297 4b3d 5410 b5bc
00000180: 03fe 033e 1d8c 893d 3f5c 913d f2fa 8f3c
00000190: 499e 8e3c 413f b73c d7d5 973c cc0a 39bc
000001a0: 43e4 e3bc c714 06bd 558b 55bc 664d c2bc
000001b0: c96f 81bc 3206 01bd e719 dabc d8db 4ebd
000001c0: c26e b4bc 3605 f3bc 39e3 893b 978b c9bc
000001d0: c3e7 94bc d9de a53c b58d b3bc 734c d93c
000001e0: 4425 8abc 7216 0b3d e50a 993d a131 73bd
000001f0: 847f b03c 4c91 863d d3ad e73d 1c01 833d
00000200: cb8b edbc b6e7 a4bd d715 c83d a1e8 413c
00000210: 1d7d 57bd 8b92 3e3d 4252 bb3d 8e5f 5b3d
00000220: f386 593a 664a 013d b133 03bd fb1a c33d
00000230: c045 c63c e751 993b cbdb 843d 256c 2b3d
00000240: f73e fe3d ce5d 603d c7a6 ea3d 9ca8 543c
00000250: 8fc3 a53d f564 1fbd 24b8 2e3d 787e 1ebd
00000260: 3a24 e83c b97b 25bd 6da5 bb3d 522c 993d
00000270: ae45 183b 2d8c dd3d 6bbb a13d 0f47 c0bd
00000280: 2065 923d b470 f53c eb27 493d f0a5 8b3d
00000290: 874b 4fbb 4ce8 5dbd 6b85 a93c fc77 b13c
000002a0: 7cce 83bd 791c debd 9ee8 aebc f6fd 50bd
000002b0: 8275 653d c03f b2bb 30a6 d93c 82a0 21bc
000002c0: fe51 083d 58cc d5bc 453e 8b3b 304f 46bd
000002d0: b5d1 1abd ff86 a6bc 3853 0ebd fb4a b4bc
000002e0: a433 b53c a8c7 46bc e5b7 163d 11c5 b53d
000002f0: a4f0 d0bc 2f1d 013b 6316 1abd aa61 27bd
00000300: 1911 7cbd 2f15 903c 5556 cc3b fac9 a6bd
00000310: eb8a 8cbd 059c 01bd 4ac4 543d 8d9c 77bd
00000320: 6656 f9bd 7243 693b d529 5c3d e45c 25bd
00000330: 4942 10bd b9f7 af3c 52b8 383c e431 8ebd
00000340: a048 d1bc 8726 353d be97 203c c244 a9bd
00000350: ab88 0ebd 8283 ab3c 23f2 d4bc 518b d43c
00000360: c5f4 aabd 1577 ce3d ff37 1abc 6315 7cbd
00000370: d24b 473b 0b0f 38bb c444 9fbc 92cb 5fbd
00000380: 8ff0 c93c 20e6 293a 4e97 393d cb61 ba3c
00000390: 22e8 893b 2e5a 663d 1d72 843c b607 1e3b
000003a0: 0a39 183d 7251 513d 49d5 f6bc 2208 5c3c
000003b0: 4f84 88bc 9d57 5a3d 6936 303d 7b88 343c
000003c0: 1246 c9bb 78e7 61bd ea8c 96bc a2fd 3fbd
000003d0: 5190 d6bc 088b 913d 02ca 233d b889 68bd
000003e0: 5c30 8abd 4dc2 c33d 5c4f 23bd 4e78 bdbd
000003f0: 503b 133e 4a7e 0d3d fe60 213e d50e b73d

ConvLSTMLayer.cell.conv.bias f4 [32]
-0.0066879434 0.0107123945 0.044427194 0.033280708 0.030697413 0.013467889 0.010438709 0.043180767
0.005256245 0.047954496 0.09018218 0.060883105 0.08776228 0.03800587 0.05107003 0.06639063
-0.008098419 0.0002577901 0.049004506 0.065472186 0.01647106 0.015942123 -0.012301077 0.04438374
-0.012749932 0.013001838 0.017185347 0.012948442 0.0408279 -0.0005358886 0.005512598 0.0024229256
00000000: 8926 dbbb 0a83 2f3c 4af9 353d 5a51 083d
00000010: 2479 fb3c 6ca8 5c3c 1e07 2b3c 51de 303d
00000020: 943c ac3b ef6b 443d 6fb1 b83d 9060 793d
00000030: b6bc b33d 0bac 1b3d cf2e 513d d0f7 873d
00000040: 3baf 04bc 0028 8739 f3b8 483d 4816 863d
00000050: 51ee 863c 0e99 823c 758a 49bc b9cb 353d
00000060: 17e5 50bc a905 553c 49c8 8c3c b425 543c
00000070: 283b 273d e07a 0cba 06a3 b43b f2c9 1e3b

Classification.0.g.0.weight f4 [4, 8, 1, 1]
6.537746e-06 7.324771e-05 -1.5724689e-09 -0.0006123196 2.7840827e-07 -3.764556e-05 -1.260283e-07 4.26102e-06
-1.3802637e-09 2.6751193e-05 1.7230034e-10 -2.954002e-07 5.8859198e-09 -1.3919347e-06 7.90887e-07 -4.3822777e-09
6.2210472e-09 -2.7316108e-07 -3.7899786e-09 -2.0862698e-10 -1.6372353e-09 -1.33598945e-08 -1.6976635e-09 -1.1905325e-10
7.943249e-06 2.902189e-05 -1.7914177e-09 -5.019357e-05 2.0858955e-05 -3.5689043e-06 1.438089e-06 2.1855882e-07
00000000: cf5e db36 919c 9938 551e d8b0 1384 20ba
00000010: 2478 9534 9de5 1db8 6552 07b4 e2f9 8e36
00000020: b6b3 bdb0 c067 e037 3c72 3d2f 7f97 9eb4
00000030: 193d ca31 83d2 bab5 574d 5435 ec92 96b1
00000040: e9c0 d531 f9a6 92b4 0139 82b1 4663 65af
00000050: 1905 e1b0 7085 65b2 3953 e9b0 83e6 02af
00000060: ff43 0537 0974 f337 e835 f6b0 ef86 52b8
00000070: 44fa ae37 4f81 6fb6 5d04 c135 feac 6a34

Classification.0.g.0.bias f4 [4]
7.00484e-20 -4.992518e-19 3.2345436e-21 -4.487588e-05
00000000: a965 a51f 665a 13a1 2c65 741d 1c39 3cb8

Classification.0.W.0.weight f4 [8, 4, 1, 1]
6.797692e-12 -3.1776778e-10 5.773215e-14 -1.0260087e-13 0.00014595973 -2.622422e-05 1.2642336e-07 0.00015394385
2.519033e-09 -2.4087575e-08 2.1928485e-11 1.862018e-12 -6.810129e-07 -3.5645744e-08 2.0967284e-12 -8.749692e-14
2.858258e-09 1.2501844e-05 5.722901e-08 -6.8626804e-08 7.2344887e-06 2.1126393e-06 -2.6279463e-07 7.544266e-06
2.9857988e-06 -6.5976544e-09 -3.1510144e-06 2.1642325e-06 -1.6029334e-08 5.87619e-11 -1.7419102e-07 1.6214274e-08
00000000: 2b2c ef2c d7b1 aeaf 5200 8229 6009 e7a9
00000010: c40c 1939 15fc dbb7 fdbe 0734 fd6b 2139
00000020: 4c1b 2d31 23e9 ceb2 8fe2 c02d 2207 032c
00000030: dace 36b5 e918 19b3 4d8b 132c 8a06 c5a9
00000040: 026b 4431 03bf 5137 f6cb 7533 fc5f 93b3
00000050: c9bf f236 dec6 0d36 3816 8db4 c024 fd36
00000060: a25f 4836 95b1 e2b1 0476 53b6 3b3d 1136
00000070: e1b0 89b2 0238 812e 4309 3bb4 9147 8b32

Classification.0.W.0.bias f4 [8]
-2.238452e-06 -6.7378046e-08 -1.3484648e-08 7.949214e-08 -9.773137e-05 0.000120267534 3.871132e-06 1.1361336e-06
00000000: 5038 16b6 79b1 90b3 1caa 67b2 44b5 aa33
00000010: 21f5 ccb8 2438 fc38 c5e4 8136 417d 9835

Classification.0.W.1.weight f4 [8]
6.9709877e-10 1.0676237e-08 -4.7383053e-09 2.8831007e-06 1.0046111e-09 -4.5531007e-08 1.1643334e-08 -4.3367326e-08
00000000: f79d 3f30 966a 3732 93ce a2b1 4b7b 4136
00000010: 9c12 8a30 df8d 43b3 ed07 4832 e142 3ab3

Classification.0.W.1.bias f4 [8]
-0.00022819731 2.755016e-05 -0.00018807025 2.4218441e-05 2.2609392e-07 -2.4630404e-07 0.00011440843 -4.2918728e-06
00000000: 4048 6fb9 851b e737 b934 45b9 b528 cb37
00000010: 39c4 7234 c53b 84b4 8fee ef38 e802 90b6

Classification.0.W.1.running_mean f4 [8]
-2.6867587e-08 -2.144163e-09 -1.4597886e-09 -7.2575355e-09 5.74814e-06 -1.3182953e-05 -6.3849393e-07 1.1538754e-07
00000000: 73ca e6b2 8458 13b1 bfa1 c8b0 f55d f9b1
00000010: 26e0 c036 5a2c 5db7 f864 2bb5 f9ca f733

Classification.0.W.1.running_var f4 [8]
5.454025e-26 4.4921e-28 6.530603e-29 1.893105e-29 7.865774e-24 7.128939e-24 2.8741869e-25 6.4039704e-26
00000000: fe08 8715 3f5c 0e12 0992 a510 d1fb bf0f
00000010: 6d25 1819 cce4 0919 4fe7 b116 fc8d 9e15

Classification.0.theta.weight f4 [4, 8, 1, 1]
6.147977e-06 -4.6160335e-07 5.892353e-05 -9.387975e-05 2.453204e-06 -6.422213e-05 -0.0001111903 7.980649e-06
4.5372975e-10 5.0082434e-08 7.046054e-17 2.7426632e-08 -2.3371802e-13 4.9690847e-09 3.3079658e-08 1.3393708e-14
-1.220908e-09 -6.413463e-10 -9.5263276e-11 2.8682262e-08 1.4426794e-07 -1.791242e-08 -1.0634332e-06 -4.3046165e-07
-3.3370893e-07 -2.7295854e-09 -3.1848693e-14 1.4016691e-06 -4.954628e-08 -1.298218e-06 7.5145675e-07 2.3225718e-08
00000000: b84a ce36 48d2 f7b4 a924 7738 4fe1 c4b8
00000010: b9a1 2436 feae 86b8 d62e e9b8 a0e4 0537
00000020: c970 f92f 381a 5733 9078 a224 cd97 eb32
00000030: 5192 83aa 88bc aa31 7813 0e33 9347 7128
00000040: e2cc a7b0 bc4a 30b0 757c d1ae f660 f632
00000050: 12e8 1a34 d4dd 99b2 49bb 8eb5 331a e7b4
00000060: 9b28 b3b4 6093 3bb1 0b6f 0fa9 fc20 bc35
00000070: b6cc 54b3 6e3e aeb5 b7b7 4935 e581 c732

Classification.0.theta.bias f4 [4]
-6.24802e-05 -1.6884028e-19 3.5514996e-20 2.4169947e-18
00000000: cd07 83b8 d854 47a0 ffb6 271f bd57 3222

Classification.0.phi.0.weight f4 [4, 8, 1, 1]
-0.0002633246 1.5110468e-08 3.8974807e-08 -3.0845677e-06 2.324538e-07 1.082507e-05 -1.0465881e-08 -3.5783512e-07
8.087194e-06 5.2988475e-05 2.401187e-07 -1.7780974e-05 7.715017e-07 -1.7420783e-05 -3.082384e-05 -1.6063989e-06
1.394313e-06 -2.4909113e-07 4.6763638e-11 -9.139395e-05 9.491667e-10 -9.8020124e-08 -5.134378e-05 -6.771523e-06
-6.4243075e-05 -3.228658e-06 4.6746203e-07 2.2977129e-05 3.2258576e-08 -1.9642907e-07 -2.9442705e-07 5.9714975e-09
00000000: d40e 8ab9 45cc 8132 4165 2733 7800 4fb6
00000010: 6a98 7934 529d 3537 6ecd 33b2 7c1c c0b4
00000020: 3cae 0737 f13f 5e38 aae9 8034 5a28 95b7
00000030: 3119 4f35 d922 92b7 d948 01b8 729b d7b5
00000040: 3b24 bb35 d3ba 85b4 2dab 4d2e c1aa bfb8
00000050: d673 8230 227f d2b3 f759 57b8 f136 e3b6
00000060: 3dba 86b8 ecab 58b6 7ef7 fa34 02bf c037
00000070: ae8c 0a33 03ea 52b4 bf11 9eb4 d92d cd31

Classification.0.phi.0.bias f4 [4]
-3.0915506e-16 -0.00016225036 -1.22907285e-17 2.6037963e-17
00000000: 3c37 b2a5 c021 2ab9 53b9 62a3 6728 f023

Classification.2.conv.weight f4 [10, 8, 2, 2]
0.06701267 0.055620115 0.19905283 0.052427545 0.0390574 0.2060117 -0.030398525 0.08109789
-0.07379977 0.010475484 0.13524821 -0.2023162 -0.03107519 -0.08334266 -0.047414925 0.08315531
-0.066855185 -0.040528562 0.16406356 -0.08501687 -0.11314404 -0.06723298 0.08598435 0.039425332
-0.12945598 0.005259943 0.035995923 -0.03200683 0.1477733 0.0036095574 0.11660904 -0.15439205
0.03740334 -0.05934071 0.12751879 0.0075895595 0.093880266 0.04538482 0.0053616273 -0.055013426
-0.17399493 -0.049141895 0.06841767 -0.041615877 0.06269114 0.01886351 -0.042063806 -0.21809578
-0.05454834 -0.13027094 0.17061393 0.11965862 0.12703133 0.05551402 -0.1727911 0.108538695
0.08041659 -0.12625727 0.08901339 -0.082310185 -0.11034814 0.17851861 0.022319717 0.0149305
-0.026885008 0.112746656 0.11858518 0.018323066 0.06691041 0.17900811 -0.19197793 0.18020065
-0.060673375 -0.13985842 0.046490073 0.14932099 -0.06267857 0.04563811 -0.05120331 0.05387756
-0.144975 0.035653945 0.04809607 -0.07249339 -0.06956146 -0.11072799 -0.06958932 -0.027904939
-0.07760155 -0.13090096 -0.08290374 -0.0025023485 0.23283024 -0.061395172 -0.1353595 0.1177827
0.0023130677 -0.009725452 0.08153556 -0.012268023 0.10307816 0.059480473 0.07155043 -0.15716027
-0.030434031 0.13054687 -0.027755281 0.044896424 0.18571694 -0.0570799 -0.10605732 -0.07741308
-0.1381232 0.19606195 0.20042588 -0.19168018 -0.030738523 -0.094531946 0.0016226394 -0.09132253
-0.1692331 0.035078663 -0.08143769 -0.11436937 0.19837454 -0.04267593 -0.05497623 -0.0802475
-0.10585426 -0.024478875 -0.16385616 -0.02973682 0.11588016 0.011373288 0.0825635 0.12010091
0.023855561 -0.03502523 0.1510476 -0.124350175 0.19385956 0.1353216 -0.026686506 0.10010468
0.049918298 0.1375843 0.07095944 0.010350956 0.008608381 -0.04527067 0.054158293 0.031022951
-0.016039964 -0.14776888 0.12103108 0.023865385 -0.18923746 -0.037496895 0.024798037 -0.03691009
-0.08989973 0.03466217 0.01151331 0.043173525 0.028938273 -0.13676177 0.0340817 -0.101864144
-0.13837601 -0.017081939 0.03534177 -0.010737848 0.11173327 -0.08429807 0.12980208 -0.16336921
-0.17528328 -0.008592543 0.098356545 0.0058735185 0.14732505 -0.08058007 0.03147078 -0.10605722
0.06316023 -0.1571961 0.053085554 0.08453087 -0.1256236 0.1836798 -0.12569441 -0.12120185
-0.07511246 -0.005069295 -0.13168128 0.114156716 0.07016999 0.048293117 0.12786573 -0.11370889
0.0046309917 0.17000201 0.07128987 0.0723506 0.02624983 -0.09511707 -0.109213986 0.21695672
-0.09806882 -0.13291161 0.15531687 0.17995961 0.04160295 -0.102380514 0.17484652 0.0146473665
0.20069368 0.023072671 0.036327578 -0.03198851 -0.0003751146 0.17141122 -0.093739875 -0.007326216
-0.06523367 -0.0011093776 0.047882706 0.0043538776 -0.09315371 -0.14392024 -0.1344645 0.023133127
0.025163326 -0.016932713 -0.060111642 0.1957171 -0.054729108 -0.059299618 0.20514232 -0.11493276
-0.072823584 0.07915694 -0.11205772 0.023363132 0.036236383 -0.099354625 -0.05218272 0.019875236
-0.085156485 -0.05385536 0.07175983 -0.09757718 -0.023640726 0.09003441 0.2211604 -0.124888495
00000000: f03d 893d ebd1 633d 81d4 4b3e 44be 563d
00000010: a7fa 1f3d bbf4 523e 5406 f9bc a716 a63d
00000020: 5524 97bd 5da1 2b3c 827e 0a3e fa2b 4fbe
00000030: 6691 febc 8eaf aabd 2736 42bd 554d aa3d
00000040: 5feb 88bd 4701 26bd 4700 283e 531d aebd
00000050: 10b8 e7bd 72b1 89bd 9018 b03d 757c 213d
00000060: 1c90 04be 9a5b ac3b 7670 133d 9819 03bd
00000070: e251 173e 538e 6c3b b8d0 ee3d f318 1ebe
00000080: 3f34 193d 3f0f 73bd 4994 023e d7b1 f83b
00000090: 4c44 c03d 6fe5 393d 97b0 af3b c255 61bd
000000a0: ba2b 32be 0349 49bd 901e 8c3d 6975 2abd
000000b0: 3664 803d a687 9a3c 194b 2cbd 8054 5fbe
000000c0: 156e 5fbd bf65 05be 6bb5 2e3e 940f f53d
000000d0: 8014 023e ab62 633d 26f0 30be 8949 de3d
000000e0: 74b1 a43d 9649 01be a74c b63d 3e92 a8bd
000000f0: 35fe e1bd 95cd 363e d7d7 b63c 0e9f 743c
00000100: f33d dcbc b8e7 e63d c9dc f23d 411a 963c
00000110: 5308 893d e74d 373e dd95 44be 8586 383e
00000120: a584 78bd 0c37 0fbe 606c 3e3d 9ae7 183e
00000130: 9f5d 80bd 07ef 3a3d 90ba 51bd b7ae 5c3d
00000140: 5474 14be df09 123d 6200 453d 6a77 94bd
00000150: 3d76 8ebd 5bc5 e2bd d884 8ebd e698 e4bc
00000160: 90ed 9ebd e70a 06be 70c9 a9bd 71fe 23bb
00000170: 0d6b 6e3e 8179 7bbd ae9b 0abe 0e38 f13d
00000180: d696 173b 8157 1fbc 1efc a63d d1ff 48bc
00000190: a41a d33d cca1 733d 0889 923d 9fee 20be
000001a0: ca50 f9bc 14ae 053e 0b5f e3bc 50e5 373d
000001b0: 952c 3e3e 9dcc 69bd 9534 d9bd c08a 9ebd
000001c0: 2b70 0dbe 77c4 483e 713c 4d3e cf47 44be
000001d0: 5bcf fbbc f799 c1bd beae d43a 4e07 bbbd
000001e0: 714b 2dbe a5ae 0f3d cec8 a6bd 7d3a eabd
000001f0: b222 4b3e f5cc 2ebd c12e 61bd cd58 a4bd
00000200: 1eca d8bd ec87 c8bc e9c9 27be a29a f3bc
00000210: 9452 ed3d 0757 3a3c 0d17 a93d 77f7 f53d
00000220: bd6c c33c 9e76 0fbd 39ac 1a3e 4eab febd
00000230: 1f83 463e bf91 0a3e a99d dabc af03 cd3d
00000240: 2177 4c3d e6e2 0c3e 2f53 913d 0e97 293c
00000250: 2b0a 0d3c bd6d 39bd 16d5 5d3d d823 fe3c
00000260: 3e66 83bc ba50 17be 25df f73d 5781 c33c
00000270: 77c7 41be 5896 19bd 4125 cb3c 092f 17bd
00000280: 5a1d b8bd ebf9 0d3d 52a2 3c3c b9d6 303d
00000290: f50f ed3c 470b 0cbe 4199 0b3d 269e d0bd
000002a0: 71b2 0dbe 6cef 8bbc 88c2 103d cced 2fbc
000002b0: 6ad4 e43d 77a4 acbd d6ea 043e 424a 27be
000002c0: 767d 33be bdc7 0cbc 286f c93d a576 c03b
000002d0: 61dc 163e 2a07 a5bd 81e7 003d 8734 d9bd
000002e0: 275a 813d 04f8 20be 3d70 593d 851e ad3d
000002f0: 79a3 00be 8f16 3c3e 09b6 00be ad38 f8bd
00000300: 90d4 99bd 541c a6bb 75d7 06be ffca e93d
00000310: 49b5 8f3d 01cf 453d 3cef 023e 35e0 e8bd
00000320: 93bf 973b 0215 2e3e 6c00 923d 8d2c 943d
00000330: e209 d73c bdcc c2bd 95ab dfbd e729 5e3e
00000340: 4ed8 c8bd fb19 08be 630b 1f3e 5547 383e
00000350: db67 2a3d e0ac d1bd f70a 333e 82fb 6f3c
00000360: a582 4d3e e602 bd3c 3acc 143d 6206 03bd
00000370: 08ab c4b9 6c86 2f3e b1fa bfbd c110 f0bb
00000380: 3b99 85bd 8968 91ba a820 443d f9aa 8e3b
00000390: 5fc7 bebd d45f 13be 10b1 09be af81 bd3c
000003a0: 5223 ce3c 79b6 8abc a037 76bd 106a 483e
000003b0: a12b 60bd 28e4 72bd d410 523e de61 ebbd
000003c0: 8824 95bd 091d a23d 857e e5bd 0a64 bf3c
000003d0: 9a6c 143d 707a cbbd 8cbd 55bd 64d1 a23c
000003e0: 8666 aebd 7097 5cbd d1f6 923d 8bd6 c7bd
000003f0: 32aa c1bc f663 b83d df77 623e 8ac5 ffbd

Classification.2.conv.bias f4 [10]
-1.2660887e-06 -3.359115e-07 -7.889175e-08 3.1967707e-07 -0.00014509905 1.2487752e-06 1.052251e-05 1.8371406e-05
-7.5104674e-07 -4.2683516e-07
00000000: 7aee a9b5 5357 b4b4 336b a9b3 15a0 ab34
00000010: bb25 18b9 979b a735 d689 3037 4b1c 9a37
00000020: 8a9b 49b5 c727 e5b4

Classification.2.bn.weight f4 [10]
0.9518719 1.005679 0.9393941 0.99435127 0.87168175 0.9990234 0.94748616 0.9206774
1.0490376 0.88076353
00000000: e0ad 733f 17ba 803f 227c 703f ce8d 7e3f
00000010: 8926 5f3f ffbf 7f3f 748e 723f 84b1 6b3f
00000020: dd46 863f b879 613f

Classification.2.bn.bias f4 [10]
-0.03653834 -0.014931655 -0.030178087 -0.015919112 0.013354854 -0.0111230705 -0.06971754 -0.022935992
-0.019575369 -0.034008995
00000000: 3aa9 15bd e6a3 74bc 0938 f7bc cc68 82bc
00000010: 51ce 5a3c 8a3d 36bc 12c8 8ebd 43e4 bbbc
00000020: 865c a0bc 044d 0bbd

Classification.2.bn.running_mean f4 [10]
-0.008143315 -0.0038470512 -0.038565714 -0.037566014 0.046332173 -0.006627659 0.009265489 -0.050620217
-0.036296066 0.0425235
00000000: 8a6b 05bc cf1e 7cbb 15f7 1dbd d2de 19bd
00000010: cec6 3d3d d52c d9bb 47ce 173c 2557 4fbd
00000020: 2fab 14bd 1f2d 2e3d

Classification.2.bn.running_var f4 [10]
0.005339341 0.004541892 0.0049855583 0.0043484797 0.0076639256 0.0049948147 0.0072654067 0.006647293
0.0044668745 0.0054424987
00000000: a3f5 ae3b 27d4 943b e55d a33b b17d 8e3b
00000010: ab21 fb3b 8bab a33b a612 ee3b 89d1 d93b
00000020: dc5e 923b fd56 b23b

AUsLSTM.weight_ih_l0 f4 [600, 17]
-0.024189556 0.015292064 0.1121407 -0.083556 0.0195756 -0.066571385 0.0933253 -0.046778485
-0.017049722 0.012893444 -0.02691983 -0.07101383 0.06649575 0.015766354 0.030207066 -0.05833663
0.026551869 3.8299586e-05 0.028593844 -0.092902705 0.027104408 -0.016646808 0.06076879 0.03129919
-0.0027825658 0.045853212 0.026348189 0.035992224 -0.02899011 0.028242135 0.05656708 0.05982609
-0.042009722 -0.038709164 0.04486355 -0.03975523 -0.021788629 -0.050773077 -0.059895333 -0.08915961
-0.01854946 -0.07394152 -0.02901112 -0.029020332 -0.06680284 0.011513598 0.0025590668 -0.0009770032
-0.027127214 0.023314403 0.013665855 -0.10155033 0.0047137463 0.07367586 -0.112988 -0.077747636
-0.057329696 0.063308895 -0.045230914 -0.132042 0.06633672 0.019003801 0.041045107 0.03793666
0.002537609 -0.06359418 -0.06972244 -0.027465636 -0.00035237745 0.042715207 -0.09193553 0.06870144
-0.065981835 0.01641748 -0.028088389 -0.09870379 -0.065290846 -0.104177944 0.052310605 -0.062305417
0.01727242 0.013655977 0.022387736 -0.07657295 -0.17582677 -0.023433935 0.02927658 -0.021490106
0.026776848 -0.015538942 -0.029240204 -0.03838261 -0.026695311 0.03281062 -0.021234602 -0.023196263
-0.0173089 0.019604724 0.04598935 -0.018440526 -0.0037117708 -0.053504087 -0.083940156 -0.051744767
0.00028907935 -0.0037903788 -0.09998778 -0.04985688 -0.1370626 -0.05844232 -0.13543008 -0.08058058
-0.13601616 -0.037109338 0.08512078 -0.016470646 -0.17908834 -0.0773595 0.15405445 -0.020153718
-0.018153157 -0.017880993 -0.082650185 -0.10931247 -0.074327365 -0.07367603 -0.024306864 -0.06059373
0.009911274 0.04364132 -0.025770722 -0.023203949 -0.07243993 -0.008403831 -0.026234936 -0.005318855
0.033393387 0.057408765 0.038548533 -0.05424619 0.097333394 -0.04483562 -0.07824574 0.075688116
0.076871365 -0.066606686 -0.047921095 0.019395802 0.058152027 -0.022580737 0.057247702 -0.08150097
0.16266756 0.057613846 -0.040887576 -0.06104322 0.07928127 0.05559266 0.019469073 -0.04020772
-0.0649694 0.00083471276 0.020794243 -0.061543263 -0.01416012 -0.07196132 -0.0078919465 0.070901595
-0.022876604 -0.017811846 0.078726016 0.07325986 0.097423755 0.01487983 -0.032929886 0.05600625
0.060461614 -0.106465876 -0.106742516 -0.14447063 0.034661114 0.060452558 -0.03644567 -0.045631018
-0.013691228 0.11959346 0.025843969 -0.011381866 -0.013539548 -0.019654019 -0.07097881 0.08205866
0.048698142 0.007892577 0.04160197 -0.03621649 -0.0777003 0.039837558 -0.08065052 -0.014238023
-0.0919946 0.037938673 -0.10920561 -0.03379211 -0.030276146 0.003037391 -0.056162745 -0.051562246
0.014955411 -0.03283896 -0.05668836 0.011867107 -0.03978115 -0.00023324639 -0.01580548 -0.034036767
-0.035017822 0.0136615345 -0.03406539 -0.054607246 -0.001281308 0.024941437 -0.022682678 -0.04109661
0.0124318795 -0.004688519 0.07294515 -0.025987057 -0.13382779 -0.0787433 -0.09770685 -0.059065867
-0.098146185 0.013988854 -0.04196824 -0.023064848 0.045706067 0.007694483 -0.008096521 0.041432485
0.0025779002 -0.09563966 0.06604908 -0.0009296457 0.07697812 0.040394075 0.011464347 -0.098220244
-0.051429924 0.021180071 -0.05395375 0.049061324 0.02845659 0.010157551 0.051478725 -0.013758441
00000000: 2d29 c6bc 918b 7a3c 06aa e53d 681f abbd
00000010: 025d a03c 9456 88bd 5621 bf3d cc9a 3fbd
00000020: dcab 8bbc 063f 533c fa86 dcbc b36f 91bd
00000030: ec2e 883d 7128 813c cf74 f73c 64f2 6ebd
00000040: 4e83 d93c dea3 2038 a33d ea3c c643 bebd
00000050: 100a de3c e35e 88bc b2e8 783d 9433 003d
00000060: b55b 36bb 94d0 3b3d 28d8 d73c 956c 133d
00000070: ab7c edbc 0d5c e73c e2b2 673d 340c 753d
00000080: 6312 2cbd 808d 1ebd d8c2 373d 61d6 22bd
00000090: 117e b2bc 6ef7 4fbd cf54 75bd 5099 b6bd
000000a0: 0af5 97bc a76e 97bd baa8 edbc 0cbc edbc
000000b0: edcf 88bd 88a3 3c3c 04b6 273b ca0e 80ba
000000c0: e439 debc d9fd be3c c0e6 5f3c 9ff9 cfbd
000000d0: c575 9a3b 5fe3 963d 4166 e7bd 273a 9fbd
000000e0: 8bd2 6abd 18a8 813d 0d44 39bd 0536 07be
000000f0: 8cdb 873d dcad 9b3c ea1e 283d 7963 1b3d
00000100: 044e 263b aa3d 82bd a3ca 8ebd 9dff e0bc
00000110: 4dbf b8b9 24f6 2e3d b248 bcbd 57b3 8c3d
00000120: 7c21 87bd f37d 863c 9f19 e6bc 3625 cabd
00000130: 35b7 85bd 3f5b d5bd a543 563d f733 7fbd
00000140: e47e 8d3c 52bd 5f3c 7c66 b73c 47d2 9cbd
00000150: ef0b 34be 86f8 bfbc 70d5 ef3c 050c b0bc
00000160: 1f5b db3c 0c97 7ebc 2789 efbc 1537 1dbd
00000170: 20b0 dabc 6e64 063d 30f4 adbc 1706 bebc
00000180: 65cb 8dbc 169a a03c 545f 3c3d 9610 97bc
00000190: 2e41 73bb 1a27 5bbd d1e8 abbd 52f2 53bd
000001a0: 938f 9739 0168 78bb 65c6 ccbd ba36 4cbd
000001b0: 235a 0cbe 3761 6fbd 2fae 0abe 6e07 a5bd
000001c0: d247 0bbe f6ff 17bd ce53 ae3d 73ed 86bc
000001d0: ef62 37be a86e 9ebd 73c0 1d3e 6919 a5bc
000001e0: eeb5 94bc 297b 92bc 8044 a9bd 37df dfbd
000001f0: f238 98bd 75e3 96bd 301f c7bc 2231 78bd
00000200: e562 223c 3ec1 323d 1f1d d3bc 3516 bebc
00000210: 635b 94bd 39b0 09bc a6ea d6bc ca49 aebb
00000220: 81c7 083d 7425 6b3d 11e5 1d3d 4131 5ebd
00000230: bb56 c73d 8ea5 37bd 4d3f a0bd 5f02 9b3d
00000240: bc6e 9d3d 1669 88bd e948 44bd f2e3 9e3c
00000250: d230 6e3d 3dfb b8bc 917c 6a3d fbe9 a6bd
00000260: 5392 263e 7ffc 6b3d bb79 27bd 7508 7abd
00000270: 385e a23d 21b5 633d 9b7d 9f3c dab0 24bd
00000280: ad0e 85bd a0d0 5a3a b058 aa3c ca14 7cbd
00000290: d9ff 67bc 7560 93bd 394d 01bc db34 913d
000002a0: b767 bbbc 26ea 91bc 1b3b a13d 4409 963d
000002b0: 1b86 c73d 88ca 733c 7de1 06bd cf66 653d
000002c0: 99a6 773d c80a dabd d29b dabd 1cf0 13be
000002d0: d0f8 0d3d 1a9d 773d 0e48 15bd 97e7 3abd
000002e0: 2c51 60bc 6aed f43d bbb6 d33c 027b 3abc
000002f0: fbd4 5dbc 7701 a1bc 575d 91bd 5f0e a83d
00000300: b477 473d de4f 013c d466 2a3d be57 14bd
00000310: 5621 9fbd b52c 233d 1a2c a5bd 9946 69bc
00000320: aa67 bcbd 9565 1b3d 31a7 dfbd 9869 0abd
00000330: ae05 f8bc f70e 473b e80a 66bd ef32 53bd
00000340: 8a07 753c 2582 06bd 0e32 68bd 416e 423c
00000350: 8ff1 22bd 9a93 74b9 7e7a 81bc 236a 0bbd
00000360: d96e 0fbd a1d4 5f3c 2688 0bbd d9ab 5fbd
00000370: 90f1 a7ba fc51 cc3c 06d1 b9bc eb54 28bd
00000380: 15af 4b3c 26a2 99bb 4464 953d cfe2 d4bc
00000390: 270a 09be 2b44 a1bd 871a c8bd 0def 71bd
000003a0: de00 c9bd 8231 653c e4e6 2bbd 7ef2 bcbc
000003b0: 4936 3b3d 0022 fc3b 45a7 04bc 1cb5 293d
000003c0: fdf1 283b bade c3bd bd44 873d 78b3 73ba
000003d0: b4a6 9d3d 4274 253d f5d4 3b3c b227 c9bd
000003e0: 2fa8 52bd d481 ad3c 9bfe 5cbd 87f4 483d
000003f0: cb1d e93c db6b 263c 5bdb 523d 166b 61bc

AUsLSTM.weight_hh_l0 f4 [600, 150]
-0.00078080304 -0.0946587 0.001897592 -0.004820282 -0.047395375 0.075110264 0.014299537 -0.028505761
0.037461054 -0.031756535 0.035107035 -0.045404524 -0.0040489533 -0.013840787 0.028471645 0.02150791
0.036350004 -0.0015942875 0.053081803 -0.023164533 0.023000432 -0.03987612 -0.022865077 -0.0561257
0.0027898648 0.025417497 0.009550209 0.00047410923 0.03741569 0.015755672 -0.04043272 0.03468609
0.0051881736 -0.017181525 -0.0140331825 0.055152696 -0.041184686 0.07020352 -0.017894741 0.059207343
0.022647522 0.08050465 0.04907392 0.0015795763 0.06757371 0.0064099412 -0.012395381 -0.06250881
0.049780983 0.019037575 -0.0014800462 0.025601942 0.08232432 -0.008652332 0.00065652677 0.0340339
0.03465462 0.014706319 0.0016141881 -0.012724967 -0.081126764 0.022177124 -0.031496543 0.005098959
-0.029600015 0.006194407 0.0072443113 0.0066231787 -0.012903292 -0.001319979 0.033141427 0.00918959
0.02362147 -0.023089552 0.06372806 -0.022519834 -0.012384601 -0.016856786 0.0009925412 -0.033645872
0.055321716 -0.09654526 -0.012144595 -0.011548579 0.018177662 0.0058828727 -0.02947392 -0.01671098
0.017083785 0.0018720569 0.015579772 -0.060593773 0.03273961 0.04270348 -0.005416436 -0.009615492
-0.019896097 -0.026325326 0.0008245399 -0.007107686 0.023652233 -0.0008453754 -0.04394984 0.028212238
-0.030663412 0.011531046 0.026045367 -0.025063477 -0.020133913 -0.026650038 0.0276728 0.0008336841
0.023275334 -0.013798759 0.014142757 -0.039429083 0.014532262 0.023109403 -0.015529444 0.037813194
0.064365745 0.03068761 0.041370913 -0.0057826675 -0.0012165145 0.092681795 -0.020973826 0.012108641
0.023954555 0.0017317972 -0.018684044 -0.001016322 0.001970089 -0.00687329 -0.00081502914 -0.0020535842
-0.0054523367 0.03253143 -0.05587055 -0.047542352 -0.03139969 0.017007653 0.10580907 -0.052451633
0.024553394 0.013759815 0.07251629 -0.08748014 -0.018649695 -0.0018348083 0.011870987 -0.03931925
0.015770629 0.00967945 0.027353711 -0.021131499 -0.015072854 -0.02160183 -0.010060931 -0.0049139075
0.013641983 0.019896373 -0.01814698 -0.014733075 0.03789787 -0.018955063 -0.020150755 -0.0042013517
0.008941866 -0.00013280271 0.00898378 0.025352158 -0.026093766 -0.03970015 0.0023581218 0.0053633414
-0.022231273 -0.0024575803 -0.003798445 0.07039042 -0.04261774 -0.015446137 -0.04040516 0.013745235
-0.00067805324 0.06386545 -0.018863088 0.046223413 0.0033768176 -0.035713773 -0.0128329005 -0.005393418
-0.041728288 -0.0368371 0.025655268 0.016986497 0.042578805 -0.048518155 -0.032784455 0.02189298
-0.0018806582 -0.012435015 -0.0025223722 -0.0055407444 -0.012718466 0.020418042 -0.0044336533 -0.029540822
0.010334683 0.007854185 0.027863089 0.0015040445 -0.017209083 0.004692824 0.026791237 0.008560275
-0.021914896 -0.010632521 0.03899846 0.051165707 -0.0033407216 -0.016248813 0.013844743 -0.029278891
0.040527366 0.024456697 0.05486266 -0.02787285 0.023542851 -0.0037218048 0.023583133 0.015561829
-0.008095872 -0.0026802933 0.00903697 -0.0028607298 -0.025390176 0.00834433 0.040921077 -0.014458574
-0.009781711 0.009298986 0.024532828 0.03641747 0.0054369057 0.0037573178 0.0023281577 -0.0014064354
-0.008328943 0.052891143 -0.009858829 0.0061694584 -0.039122537 0.03839322 0.00066562986 0.04550404
00000000: ceae 4cba 6cdc c1bd 9fb8 f83a 75f3 9dbb
00000010: a721 42bd 69d3 993d 9b48 6a3c ea84 e9bc
00000020: c370 193d 2413 02bd 65cc 0f3d 18fa 39bd
00000030: 15ad 84bb 78c4 62bc 5e3d e93c 5b31 b03c
00000040: bee3 143d 69f7 d0ba 4e6c 593d 8cc3 bdbc
00000050: 676b bc3c 2455 23bd 8b4f bbbc 10e4 65bd
00000060: 2ad6 363b 5b38 d03c 7b78 1c3c dd91 f839
00000070: 3241 193d 0a12 813c c89c 25bd 0013 0e3d
00000080: 8e01 aa3b 45c0 8cbc 6feb 65bc cbe7 613d
00000090: 46b1 28bd ddc6 8f3d fe97 92bc 6683 723d
000000a0: 4c87 b93c 9fdf a43d bc01 493d c909 cf3a
000000b0: 1664 8a3d 7c0a d23b ff15 4bbc 9e04 80bd
000000c0: 25e7 4b3d b0f4 9b3c 1cfe c1ba 2abb d13c
000000d0: a799 a83d 83c2 0dbc c41a 2c3a 2167 0b3d
000000e0: 01f2 0d3d c6f2 703c 2a93 d33a 617c 50bc
000000f0: ca25 a6bd cdac b53c 8502 01bd 2b15 a73b
00000100: bb7b f2bc 74fa ca3b b061 ed3b 4007 d93b
00000110: 5468 53bc 2503 adba 4ebf 073d ef8f 163c
00000120: d081 c13c 4d26 bdbc db83 823d 847b b8bc
00000130: c8e8 4abc 3e17 8abc 2818 823a 41d0 09bd
00000140: 0699 623d 85b9 c5bd 20fa 46bc 4036 3dbc
00000150: 52e9 943c 1dc5 c03b 4a73 f1bc 77e5 88bc
00000160: 4bf3 8b3c ce5f f53a 4d42 7f3c 2d31 78bd
00000170: f819 063d d8e9 2e3d 5c7c b1bb 4c8a 1dbc
00000180: 24fd a2bc 36a8 d7bc f025 583a 97e7 e8bb
00000190: 54c2 c13c 2f9c 5dba bf04 34bd 5a1d e73c
000001a0: d631 fbbc b6ec 3c3c 185d d53c ec51 cdbc
000001b0: e0ef a4bc 2e51 dabc 11b2 e23c 988b 5a3a
000001c0: eaab be3c 3114 62bc 06b7 673c 6480 21bd
000001d0: ba18 6e3c ee4f bd3c 366f 7ebc 02e2 1a3d
000001e0: 30d2 833d 9564 fb3c 8c74 293d 887c bdbb
000001f0: 7473 9fba f4cf bd3d 4dd1 abbc 5263 463c
00000200: 583c c43c 79fd e23a 480f 99bc 1c36 85ba
00000210: 9c1c 013b 5639 e1bb aea7 55ba 6d95 06bb
00000220: 84a9 b2bb ad3f 053d 85d8 64bd c5bb 42bd
00000230: f69c 00bd a253 8b3c 6db2 d83d 86d7 56bd
00000240: 3324 c93c d970 613c 6c83 943d ca28 b3bd
00000250: 3fc7 98bc f37d f0ba 877e 423c 390d 21bd
00000260: 6831 813c 8e96 1e3c e414 e03c f71b adbc
00000270: 22f4 76bc 52f6 b0bc 9ad6 24bc d804 a1bb
00000280: a082 5f3c b8fd a23c faa8 94bc ff62 71bc
00000290: cc3a 1b3d a647 9bbc 3213 a5bc 7eab 89bb
000002a0: e880 123c f540 0bb9 b430 133c 54af cf3c
000002b0: 98c2 d5bc a09c 22bd b88a 1a3b f8be af3b
000002c0: 5c1e b6bc 5b0f 21bb 55ef 78bb da28 903d
000002d0: f08f 2ebd cb11 7dbc e27f 25bd b233 613c
000002e0: 62bf 31ba e4cb 823d c386 9abc c354 3d3d
000002f0: 994d 5d3b 9b48 12bd 1641 52bc 45bb b0bb
00000300: 48eb 2abd 80e2 16bd ff2a d23c 4427 8b3c
00000310: 1d67 2e3d f9ba 46bd fe48 06bd e858 b33c
00000320: 6b80 f6ba 3cbc 4bbc 624e 25bb 228f b5bb
00000330: 1d61 50bc bd43 a73c 2e48 91bb 98ff f1bc
00000340: cd52 293c d7ae 003c 2241 e43c 5c23 c53a
00000350: 10fa 8cbc 43c6 993b 4c79 db3c 6540 0c3c
00000360: de86 b3bc 0634 2ebc d9bc 1f3d 2293 513d
00000370: 02f0 5abb 3b1c 85bc 10d5 623c 49da efbc
00000380: 0600 263d 6959 c83c abb7 603d 9a55 e4bc
00000390: f0dc c03c 86e9 73bb 6a31 c13c 0bf7 7e3c
000003a0: 8ca4 04bc dca7 2fbb cd0f 143c 157b 3bbb
000003b0: 0fff cfbc a8b6 083c dc9c 273d a8e3 6cbc
000003c0: 7843 20bc c65a 183c 12f9 c83c 7c2a 153d
000003d0: 1228 b23b 553d 763b 0194 183b 2458 b8ba
000003e0: 1e76 08bc 62a4 583d ed86 21bc 2b29 ca3b
000003f0: f43e 20bd 3642 1d3d aa7d 2e3a 7262 3a3d
