models/2023-05-18_22-22/2/pytorch/E-32_VA-0.7143_VL-73.66_TA-0.6417_TL-87.64.pt (torch, 5327 bytes, 9 tensors)

SILSTM.weight_ih_l0 f4 [40, 1]
000000 db ad 6f be 19 ae a3 bd 16 07 a1 be 72 9b 25 be
       -0.23406164 -0.07992191 -0.3145072 -0.16172579
000010 07 da 23 be 36 05 dd bd 3e 1d 94 3d 38 88 99 3e
       -0.1600114 -0.107920095 0.0723214 0.2998674
000020 8b 59 16 be 49 2c c5 be 21 1a b0 bd 8c bb 40 be
       -0.14682595 -0.3851035 -0.08598734 -0.18821543
000030 85 dc 13 3e 63 f4 53 3e 04 29 ae be 18 fb 84 3e
       0.1443959 0.20698695 -0.34015667 0.2597282
000040 03 99 c0 be cf 20 82 3e a7 42 bb bc 63 e9 98 bd
       -0.3761674 0.25415656 -0.02285893 -0.0746639
000050 5f 15 b9 bd 91 be 5d bd a8 13 3a 3d 47 70 b4 3d
       -0.09037279 -0.054136816 0.045428902 0.08810478
000060 d1 70 0a 3e 7b cb 4e 3d 0d 73 4b bb 90 f1 81 3e
       0.13519599 0.050487023 -0.0031043917 0.2537961
000070 87 7a 53 3e 56 6c d6 3e c3 4e 59 3c 22 18 24 3e
       0.20652209 0.4187953 0.013263407 0.16024831
000080 18 2b cf be 3b d9 86 bc fa 67 45 3b 6f 75 d4 3d
       -0.40462565 -0.016461005 0.003012179 0.10373961
000090 59 9b a1 be 9a e9 34 3e 82 45 bd bd eb 4a b0 3d
       -0.31563833 0.17667237 -0.09241773 0.086080395

SILSTM.weight_hh_l0 f4 [40, 10]
000000 0e 21 c6 3d 76 43 6d ba c5 5e 9c 3e b7 25 6d be
       0.096742734 -0.0009050885 0.30541053 -0.23158918
000010 41 5a 67 bd 1e 01 0c 3d 60 2a 4d 3e 52 35 7e 3d
       -0.056482557 0.034180753 0.20035696 0.06206257
000020 33 de 97 bd d5 d1 e1 3c 69 4a a9 3c 19 37 e6 3c
       -0.07415428 0.027565876 0.020665364 0.028102444
000030 0a 12 56 3d cb 36 c0 bd b1 e8 ce 3c df af 81 bd
       0.052263297 -0.09385451 0.02525744 -0.06332373
000040 42 12 db bd 21 80 bd 3d a9 2b d7 bc 8f 84 1e 3e
       -0.10696842 0.09252954 -0.026265936 0.15480255
000050 45 fa 52 3e dd 2a 7c be 73 11 bd 3c 59 3a 0e 3d
       0.20603283 -0.24625726 0.02307961 0.034723613
000060 b2 cf 08 be 82 1c fe ba c4 0a b6 3d f5 d4 5b be
       -0.1336048 -0.0019387158 0.08888772 -0.21467955
000070 c6 e3 18 be ca 78 82 3e 4d a4 88 bd ef dd f4 3c
       -0.14930639 0.2548278 -0.06671963 0.029890982
000080 55 15 14 3e b9 b9 b2 be ad 2e 0b bd fe 57 9c 3d
       0.14461263 -0.3490732 -0.03398006 0.07633971
000090 2a d9 41 bc f7 05 91 3d 71 8d 06 bc 70 86 51 be
       -0.011831561 0.07081216 -0.008212433 -0.2046144
0000a0 29 b4 95 3d 7d 3d a5 bd 4f a5 9c bd 6a eb 09 bd
       0.073097534 -0.080683686 -0.076487176 -0.033671774
0000b0 1b 6b 92 3c 8c be 83 3d 7c 17 c5 3d 23 ce a0 3e
       0.017873337 0.06432828 0.0962362 0.3140727
0000c0 aa 4a 39 3d 5c 06 e5 3d 64 17 27 3d a5 a3 4f be
       0.04523722 0.111828536 0.04079379 -0.20277269
0000d0 5c 7c 29 3e 6f 03 24 be f1 1c 0d be d8 57 5d be
       0.16551346 -0.16016935 -0.13780572 -0.21615541
0000e0 37 19 a2 bd fe 50 c7 3d 37 9c 54 39 bb 86 85 be
       -0.079149656 0.09732245 0.0002027609 -0.26079354
0000f0 58 cb 1b 3e ab b4 69 be 19 81 0f be 50 01 4c be
       0.15214288 -0.22822826 -0.1401409 -0.19922376
000100 05 0d 66 bd 96 24 ec bd c6 a5 7b 3e 8b a1 c5 bc
       -0.05616476 -0.11530416 0.24574956 -0.024124881
000110 77 03 c0 3c 44 8a 80 bd 0c 4f c1 3d 70 45 0e 3d
       0.023439152 -0.06276372 0.09438905 0.03473419
000120 a1 aa 39 3e 1f 6f e0 bd e6 11 c4 3c d1 85 a6 bc
       0.18131496 -0.10958695 0.023934316 -0.02032748
000130 77 0f a9 bd f3 0d 48 3d 01 4c 0e bd 88 6c 26 3e
       -0.08254903 0.048841428 -0.03474045 0.16252339
000140 8c 28 3d bd b3 6f 95 3a 59 9b 22 3e 34 80 f2 bd
       -0.046181247 0.0011401087 0.15879573 -0.11840859
000150 4d ae 59 bd 44 09 16 bc d8 b1 9c bc df 0a f6 bc
       -0.05314474 -0.009157483 -0.019127771 -0.03003448
000160 c7 92 30 bc 51 cd f5 bd 5f be 1f be 17 4b 12 3e
       -0.010777182 -0.120020516 -0.15599965 0.14286457
000170 09 42 5c 3d 7b 1f 8b 3e 77 b9 30 be 07 0c 36 3e
       0.053773914 0.27172455 -0.17258249 0.17778026
000180 54 50 60 bd 95 18 68 be d4 80 fd bd 17 20 ff 3d
       -0.054764107 -0.22665627 -0.12378088 0.124572925
000190 67 09 c0 b9 e5 da 5e 3d d9 fa 34 be 0e db ed bd
       -0.000366281 0.054407973 -0.17673816 -0.11614047
0001a0 ac c9 13 bd 81 97 f4 bd 39 b2 cc 3d 22 2a e7 bc
       -0.036081 -0.119429596 0.09994931 -0.028218333
0001b0 55 b3 0d bd ee 72 83 3d 7f 4d 18 bd c7 78 e3 3b
       -0.034594852 0.064184055 -0.03718328 0.006941888
0001c0 ce d2 70 be 43 7e 88 3e 5a 50 c0 bb 3b 09 91 3d
       -0.23517916 0.2665883 -0.0058689537 0.07081839
0001d0 9e 27 3b be b2 82 3a 3d 8c e5 1f 3c a3 50 23 3e
       -0.18276832 0.045534797 0.009759318 0.15948729
0001e0 8e 12 51 be 00 1c 1a be 5d 1c c6 3e 05 ae 86 bd
       -0.20417234 -0.15049744 0.38693514 -0.0657616
0001f0 c7 b9 22 3d 51 97 cc 3d b5 7e 3d be 00 8a f8 3d
       0.039727952 0.09989799 -0.18505366 0.121356964
000200 51 19 19 3d 83 08 0c 3d ce d4 26 be f9 b9 95 bc
       0.03737766 0.034187805 -0.16292116 -0.018277155
000210 71 50 a3 3b d5 25 94 3c a4 a6 ad 3a 57 5b 57 3d
       0.0049839546 0.018084446 0.0013248515 0.052577343
000220 86 c8 61 3e 7e b7 b8 3e 58 3b 96 3d dd ec 33 3d
       0.2204915 0.36077493 0.07335538 0.043927062
000230 3b ea 34 be 3d 0c 05 3d d3 9b 43 be 1a ff 44 bd
       -0.17667477 0.032482374 -0.19102411 -0.048094846
000240 aa 96 ba 3c df d7 02 3e a3 39 b4 bd 6c e6 16 3e
       0.02277692 0.12777661 -0.08800056 0.14736336
000250 ac d6 f5 3b f7 4a 91 bd 38 dd 3e bd 00 dd 08 be
       0.0075023975 -0.070943765 -0.04659769 -0.13365555
000260 bd b7 7b 3e 98 4c a7 be b5 3d 64 be 52 f6 f7 3d
       0.2458181 -0.32675624 -0.22289164 0.12107529
000270 2d ec bf 3b 92 53 32 3e 50 5c 54 be d0 e5 3d 3e
       0.005857012 0.17414692 -0.2073834 0.18544698
000280 0c 55 7a 3a 27 5d 52 3d 9f 5c cc 3c 00 cf 39 be
       0.0009549416 0.05135837 0.024946509 -0.1814537
000290 96 b3 03 be f8 2f 80 3b 88 a9 a1 3e 0a 5f 76 3e
       -0.12861475 0.0039119683 0.31574655 0.24059692
0002a0 ac df 52 be ea 0b 32 3d 17 24 75 3c 61 32 9d bd
       -0.20593137 0.043468393 0.014962218 -0.07675625
0002b0 9d fc 12 3e 62 08 85 bd c6 4f 17 bc ce 7e 47 be
       0.14354177 -0.064957395 -0.009235328 -0.19481966
0002c0 fb 5a e2 bd e1 e6 2b 3d 2e 06 b9 3d d1 f8 ab 3e
       -0.110525094 0.04196823 0.09034382 0.3358827
0002d0 70 67 04 bd 5d f4 ae bb 3d 8e d6 bd cd 7a 17 3d
       -0.03232521 -0.005339189 -0.104763485 0.036982346
0002e0 4d 0c 4e bd 5e fd 2f bd 0a 46 c7 3d d5 87 88 3d
       -0.0503047 -0.04296624 0.09730156 0.06666533
0002f0 b1 f3 d2 bc ce 74 d8 bd 81 a9 9f bd be 2f df bd
       -0.025750967 -0.10569154 -0.07796002 -0.10897778
000300 ec e7 33 3e 29 14 b4 3e 6f fd a8 bd d1 d8 1e bd
       0.1756894 0.3517163 -0.082514636 -0.03878099
000310 8b 69 7d 3d 08 aa a0 3d 48 9e 2d 3c 79 35 65 be
       0.06186823 0.07844931 0.010596819 -0.2238368
000320 bc b7 7f bd d7 b2 af bd af 44 50 3b c3 f6 7e be
       -0.062431082 -0.08579033 0.003177922 -0.2489882
000330 95 dd 40 be a1 5d cd 3c 88 d7 0e 3d 45 d3 d9 3c
       -0.18834527 0.02506906 0.034873515 0.026589999
000340 25 f8 cf be b5 ef 0c be 86 0d c6 bd 17 f4 00 be
       -0.40619007 -0.13763316 -0.09670548 -0.12593113
000350 6c 13 d8 3e f6 00 b8 3c 31 69 89 be e9 83 8e be
       0.42202318 0.022461396 -0.26838067 -0.27835014
000360 13 7c 6d bd 6b 8d de bd 61 85 94 be 3d 32 88 3d
       -0.057979655 -0.10866817 -0.2900801 0.06650207
000370 43 ab 94 bd a4 2e 40 be 78 fc 89 bd e0 03 34 be
       -0.07259228 -0.18767792 -0.06737608 -0.17579603
000380 fd 72 83 bd e2 b4 61 bd a6 e3 4b 3e 7f 60 89 3e
       -0.06418417 -0.055104144 0.1991106 0.26831433
000390 1e 63 58 be ae b5 35 3e 32 18 80 3e fb 01 5a 3e
       -0.2113156 0.17745087 0.2501846 0.21289818
0003a0 18 2f 8f bd 8f ba bd 3e 43 e9 87 bd 9f 9c 05 3e
       -0.06991404 0.37056395 -0.06636288 0.13048027
0003b0 cc f6 1d be 06 a1 b9 be 03 11 3c 3d fa ce 85 3d
       -0.15426177 -0.36255664 0.04591466 0.06533618
0003c0 4e 8f 35 3e a3 04 98 3e 4c fd 45 3e b7 1f bd 3e
       0.17730448 0.29691038 0.19334906 0.3693826
0003d0 26 3f 0c be 76 88 9c be 7e 98 2a bd 86 05 5f be
       -0.13695964 -0.3057286 -0.041649334 -0.21779451
0003e0 ac 1c d7 3d e6 e6 d4 bc d9 4a 55 be 64 68 32 3e
       0.105035156 -0.025989007 -0.20829333 0.17422634
0003f0 4e ad 23 3e 84 c6 e8 3d 49 58 31 3e a7 44 3e 3d
       0.15984079 0.11365989 0.17318834 0.04645219

SILSTM.bias_ih_l0 f4 [40]
000000 f2 6a 37 bd 20 86 08 3e e8 11 39 3d 13 54 72 3e
       -0.044779725 0.13332415 0.045183092 0.23664884
000010 7d 27 c0 3d d3 cb fa bd 90 15 90 3d a3 8a 21 bd
       0.09382532 -0.12245908 0.07035363 -0.039438855
000020 8e 5f 28 3b aa 1e 22 bd be 55 06 be 5a 8f f3 bd
       0.002569172 -0.039580025 -0.13118646 -0.118925765
000030 07 4f b9 3e 5f 81 62 3e b7 0f 98 bd bd 4c 07 3e
       0.36193106 0.22119664 -0.07424872 0.13212867
000040 da 09 2f 3c 70 39 29 3e 83 a1 24 be 5f d8 b4 3d
       0.010683501 0.16525817 -0.16077237 0.08830332
000050 f5 4b 5f 3e 66 f7 0e be ca 22 6b 3e 6a 96 07 3d
       0.21806319 -0.13961563 0.2296249 0.03310243
000060 74 e8 0e 3d 93 a0 1f be 87 4c bc 3c 14 b4 8e 3e
       0.034889653 -0.15588598 0.02298571 0.27871764
000070 ee fb 16 3e 50 f7 01 3e e9 5a 22 3e ef 84 2b be
       0.14744541 0.12691998 0.15854992 -0.16749929
000080 56 cf d5 bd d3 96 f5 3d 69 0c 8b 3c 29 05 b8 3d
       -0.10439937 0.11991658 0.016973691 0.08985359
000090 86 c9 fe bd 3e f1 0b be 22 1c 1f 3d f9 40 1f 3e
       -0.12440781 -0.13666245 0.03884519 0.15552129

SILSTM.bias_hh_l0 f4 [40]
000000 24 4f 78 3d f6 a6 ac bc fe 5d 16 3e 7f 09 93 bd
       0.06062235 -0.021075707 0.14684293 -0.071795456
000010 d0 ee 93 bd bc 85 ea bb 8c 43 d3 bc 24 52 e5 3c
       -0.07223284 -0.0071570557 -0.025789045 0.02799327
000020 3b 77 8c 3b da 63 3d 3e 02 79 fb bd a3 75 27 bd
       0.0042866743 0.18495122 -0.1227894 -0.04088367
000030 85 fb 59 3e bd bd 57 bd 80 c4 21 be ed ca ce 3b
       0.21287353 -0.052671183 -0.15797615 0.0063108117
000040 1b 00 b5 bd 6e e7 12 3e d2 03 8e bd 27 4c 61 3e
       -0.08837911 0.14346096 -0.069343224 0.22001706
000050 3c ca ac bd 0c 96 48 be 39 0f cb 3e c8 8f 35 be
       -0.08437011 -0.19588488 0.3966005 -0.1773063
000060 43 d4 24 be 37 8b ec bd e9 1c 7f 3e 01 de 83 be
       -0.16096596 -0.115499906 0.24913372 -0.25755313
000070 60 4e ed bd 65 78 b5 3e 6c e6 43 3d 81 e3 15 be
       -0.115872145 0.35443416 0.04782717 -0.14637567
000080 d0 b9 2d be a0 07 13 3e 9a 21 1a 3a e1 32 bd 3d
       -0.16965413 0.14358377 0.0005879641 0.0923822
000090 a7 8f 1c 3d c8 a5 bb 3d 46 e0 df bd 92 56 db 3d
       0.038222935 0.0916248 -0.10931449 0.10709871

ClassificationSI.0.weight f4 [10]
000000 b7 f2 99 3f c8 ae 81 3f 7b fa 99 3f 38 7d 87 3f
       1.2027196 1.0131464 1.2029566 1.0585089
000010 bb dc 81 3f 32 b9 6c 3f 58 a1 83 3f c0 21 66 3f
       1.0145487 0.92470086 1.0283613 0.8989525
000020 5d 55 5b 3f 3a 04 87 3f
       0.8567713 1.0548165

ClassificationSI.0.bias f4 [10]
000000 64 2e 0c 3d 43 54 84 bd b1 bf 84 3d fa ba fb 3d
       0.03422393 -0.06461384 0.06481875 0.12291522
000010 1c f2 44 3e c0 b1 4d 3d 37 bc 3e bd e7 4f a2 3d
       0.19232982 0.050218344 -0.046566214 0.079253964
000020 6a 0b bd bd 43 ff 69 3e
       -0.09230693 0.22851281

ClassificationSI.0.running_mean f4 [10]
000000 09 96 7d 3d 13 09 74 bd 1a 29 af 3e 8e a9 39 be
       0.061910663 -0.059578966 0.34211046 -0.18131086
000010 a0 e8 13 bd 95 e3 07 be 9e 75 38 3e b9 ab 47 3a
       -0.03611052 -0.1327041 0.18013617 0.0007616836
000020 ff ea 84 ba 84 67 a6 3e
       -0.0010140835 0.3250085

ClassificationSI.0.running_var f4 [10]
000000 9e 73 f4 38 79 ad 73 38 ac 55 6b 39 61 75 2e 39
       0.00011656362 5.8097274e-05 0.00022443262 0.0001663766
000010 07 97 30 38 1c 93 1d 38 4a 7c a6 38 22 b9 e8 3a
       4.2102325e-05 3.7568723e-05 7.9386475e-05 0.0017755369
000020 3a 93 ce 38 55 b3 e3 38
       9.8502685e-05 0.00010857607

ClassificationCat.0.weight f4 [1, 10]
000000 04 26 b2 be 10 f7 ac be e3 27 90 be 72 dc 2f 3e
       -0.3479463 -0.33782244 -0.2815543 0.17173937
000010 14 3e 13 3e 88 43 85 3e 1c 97 8d be b2 ea 67 3d
       0.1437915 0.26028085 -0.2765435 0.056620307
000020 e5 7d df bd c3 25 ad 3e
       -0.10912684 0.33817872
