models/2023-05-11_23-04/pytorch/1-F_4-E_0.pt (torch, 5327 bytes, 9 tensors)

SILSTM.weight_ih_l0 f4 [40, 1]
0	0xbdd0d07a	-0.10196014
1	0xbd007954	-0.031365708
2	0xbe554aa2	-0.20829251
3	0xbdc34cbc	-0.0953612
4	0x3e0166a9	0.12636818
5	0xbd95f4f0	-0.07322109
6	0xbe327037	-0.17425619
7	0x3e1a0ac2	0.15043166
8	0xbe2537b9	-0.16134538
9	0x3e98497f	0.29743573
10	0xbe1960a0	-0.14978266
11	0x3de0e0a9	0.109803505
12	0xbed34752	-0.4126535
13	0x3e7bf0ed	0.24603625
14	0x3cbbbd43	0.022917395
15	0xbcec19b9	-0.02882086
16	0x3e896b5d	0.26839724
17	0x3ea9ecb1	0.33188394
18	0xbd889758	-0.066694915
19	0x3cb7e7a3	0.02244932
20	0xbc1bdeeb	-0.009513597
21	0xbd0ea085	-0.034821052
22	0xbe69dd83	-0.22838406
23	0x3ea426f6	0.32060975
24	0x3e53fb5f	0.20701359
25	0x3e3ee44d	0.18641777
26	0xbe4d6e5f	-0.20061634
27	0x3c0dc012	0.00865175
28	0x3ca80fe2	0.020515386
29	0x3e8651b5	0.26234213
30	0xbead7ba0	-0.3388338
31	0x3d810307	0.062994055
32	0xbdd4d75a	-0.103926376
33	0xbdf584bc	-0.11988208
34	0x3df54206	0.119754836
35	0xbe879cd6	-0.26486844
36	0x3e4f0291	0.20215823
37	0x3e84f844	0.25970662
38	0xbd918fdc	-0.07107517
39	0xbe629a9a	-0.22129288

SILSTM.weight_hh_l0 f4 [40, 10]
0	0x3e23b828	0.15988219
1	0x3e1274a4	0.14302307
2	0xbd773acd	-0.06035881
3	0x3ddf63ff	0.109077446
4	0x3ddde3d9	0.10834474
5	0x3c0d0ecc	0.008609485
6	0x3e140951	0.14456679
7	0x3e129c80	0.14317513
8	0xbca56fde	-0.020194944
9	0x3d4bf276	0.049791776
10	0xbbceddef	-0.0063130776
11	0x3c5a6bc6	0.013331359
12	0xbdf7a898	-0.120927036
13	0x3d385ff4	0.045013383
14	0x3cd75e82	0.026290182
15	0x3cf4d880	0.029888391
16	0x3bad6e8b	0.0052927188
17	0x3d539459	0.051655147
18	0xbd157f8b	-0.036498588
19	0xbde5d4ca	-0.11222227
20	0x3e740e21	0.23833515
21	0x3d9a2e46	0.07528357
22	0x3e23c993	0.15994863
23	0xbce97990	-0.028500348
24	0xbe42e055	-0.19030888
25	0xbd68cc2b	-0.056835335
26	0xbdd38a06	-0.1032906
27	0xbca2cda7	-0.019873453
28	0x3db9e79e	0.090773806
29	0x3e72c476	0.23707756
30	0x3e133b50	0.14378095
31	0x3d5f6148	0.054536134
32	0xbc9c0d35	-0.019049266
33	0x3e8e691f	0.27814576
34	0x3e04134f	0.1289799
35	0xbccb9fb3	-0.024856424
36	0xbe8193e8	-0.25308156
37	0x3cd0fc63	0.025510972
38	0xbcdbd3c0	-0.026834369
39	0x3d97692e	0.07393108
40	0x3e3207f4	0.17385846
41	0xb9805fae	-0.0002448535
42	0xbd957bf4	-0.07299033
43	0x3c948f11	0.018134626
44	0xbd74eac9	-0.05979422
45	0xbcd7bdb4	-0.026335575
46	0xbe4e4c29	-0.2014624
47	0x3d139b4c	0.036036775
48	0x3c376b98	0.011195086
49	0x3e0e384e	0.13888666
50	0x3de8d665	0.113690175
51	0xbd6f81a9	-0.058473263
52	0x3e1bde88	0.15221608
53	0xbdf74800	-0.1207428
54	0xbd35eb81	-0.044414047
55	0x3977f45b	0.00023646785
56	0x3e511ac8	0.20420372
57	0xbd2b4891	-0.04181725
58	0x3e179cfb	0.14805977
59	0xbdbeb695	-0.093121685
60	0x3e5390f2	0.20660761
61	0x3a745492	0.0009320463
62	0xbca6b193	-0.020348346
63	0x3e250520	0.16115236
64	0x3e48c41f	0.19606064
65	0xbd87123e	-0.06595276
66	0x3e2da227	0.16956387
67	0xbe02fd04	-0.1279183
68	0xbcef5498	-0.029215142
69	0x3ddb072a	0.10694726
70	0xbe26eb32	-0.16300657
71	0x3e1432af	0.1447246
72	0xbe32d9d3	-0.17465906
73	0x3e4d079d	0.20022435
74	0x3e0ab72a	0.13546434
75	0xbd6df855	-0.058098156
76	0x3de2887f	0.11061191
77	0xbd8ef4f4	-0.06980315
78	0xbd7c6476	-0.061619245
79	0x3e4c2e52	0.19939545
80	0x3d6a9103	0.0572672
81	0x3d45e7b8	0.048316687
82	0x3dc46638	0.09589809
83	0xbd9d4b1f	-0.07680344
84	0xbd964eb0	-0.07339227
85	0xbde53e62	-0.11193539
86	0xbdca32da	-0.098729804
87	0x3dcedfec	0.101013035
88	0xbcdeef26	-0.027213644
89	0xbcbba672	-0.022906516
90	0xbe2ae61e	-0.16689345
91	0xbcd087f0	-0.025455445
92	0xbe911b30	-0.28341055
93	0xbd82c6bf	-0.06385564
94	0x3d7c4bf4	0.061595872
95	0x3d9e8ddb	0.077419005
96	0x3d9c3d43	0.07628872
97	0xbe412c2d	-0.18864508
98	0xbe0dec6b	-0.13859718
99	0x3e31b3dc	0.17353767
100	0x3dea0799	0.114272304
101	0xba84e653	-0.0010139443
102	0xbde84777	-0.11341756
103	0xbdb4b5cf	-0.0882374
104	0xbe1ee030	-0.15515208
105	0xbdc77d48	-0.097406924
106	0xbe8f573a	-0.27996236
107	0x3e6aec0d	0.22941609
108	0x3e1a4deb	0.15068786
109	0x3e91458e	0.2837338
110	0x3d5b13b6	0.053485595
111	0x3ca4f3a4	0.020135708
112	0xbd7b758c	-0.0613914
113	0xbde74710	-0.11292851
114	0x3c353b95	0.011061569
115	0xbc37ed8a	-0.011226067
116	0x3de86cf0	0.11348903
117	0x3d430548	0.04761246
118	0xbc46045e	-0.012086002
119	0x3b7c0bdc	0.0038459217
120	0x3ead53fe	0.33853143
121	0x3c84cef3	0.016211962
122	0x3eb23671	0.3480716
123	0xbea0788e	-0.31341976
124	0xbf05fa44	-0.52335
125	0x3d89ad6f	0.06722533
126	0xbd61a592	-0.05508954
127	0xbdaddee6	-0.0848978
128	0x3d327821	0.043571595
129	0x3dcb4eba	0.09927125
130	0xbd03215e	-0.032014243
131	0x3e1bf05d	0.1522841
132	0xbde576dc	-0.11204311
133	0x3e156c89	0.14592184
134	0xbbca74db	-0.006178481
135	0x3d625c32	0.055263706
136	0xbe69a970	-0.22818542
137	0x3e7b21e6	0.2452465
138	0xbda1110f	-0.07864582
139	0xbce2cdaa	-0.027685959
140	0x3dd173f2	0.10227193
141	0x3c98e896	0.018665593
142	0xbd66862b	-0.056280296
143	0x3d461ba2	0.048366196
144	0xbd623cf9	-0.05523393
145	0x3dc70f1f	0.09719681
146	0xbd3f12c8	-0.04664877
147	0x3d1e4a66	0.03864517
148	0xbba3166b	-0.0049770377
149	0x3d930761	0.07179142
150	0xbd85ef8e	-0.06539832
151	0xbe217604	-0.15767676
152	0xbe2cc0a9	-0.16870369
153	0xbd993702	-0.07481195
154	0xbe973787	-0.29534552
155	0xbc9396d8	-0.018016264
156	0x3e8bcafd	0.27303305
157	0xbdca92ad	-0.098912574
158	0x3d824b88	0.06362063
159	0xbe8c7a30	-0.27436972
160	0x3e8d7b8a	0.27633315
161	0x3dfc4ec3	0.1231971
162	0x3cc28e47	0.023749484
163	0x3e96f584	0.2948419
164	0x3e1a51b8	0.15070236
165	0x3c70957e	0.014684079
166	0xbe4d121c	-0.2002644
167	0xbe13eece	-0.14446566
168	0xbd0de54b	-0.0346425
169	0x3e069174	0.13141423
170	0xbd2b19ee	-0.041772775
171	0xbdfef5cf	-0.12449228
172	0xbd516c66	-0.051128767
173	0xbe3b4de5	-0.18291433
174	0xbda53914	-0.080675274
175	0xbd64e0eb	-0.05587856
176	0x3e4b386c	0.19845742
177	0x3e214ed2	0.15752724
178	0xbd45017a	-0.04809711
179	0xbdf32052	-0.11871399
180	0x3c2dc194	0.010605235
181	0x3cb8b14b	0.022545477
182	0x3e34eccc	0.17668456
183	0x3df8e1c1	0.12152434
184	0xbe223b85	-0.15843017
185	0xbc69a564	-0.014260624
186	0xbca6190b	-0.020275613
187	0x3db91feb	0.09039291
188	0xbd42691c	-0.04746352
189	0x3c8d1c57	0.017225428
190	0x3e358556	0.17726645
191	0x3e5e27ff	0.21694945
192	0xbe58fc12	-0.21189907
193	0xbc1fb7bb	-0.009748395
194	0x3deb39f4	0.11485663
195	0x3e30be88	0.17260182
196	0xbe5bceb0	-0.21465564
197	0xbdb44063	-0.08801343
198	0xbcd4179f	-0.02589017
199	0x3c450c5e	0.012026874
200	0x3e8ad637	0.27116558
201	0x3d5839d1	0.052789513
202	0x3eac411e	0.3364343
203	0x3e276c93	0.16350012
204	0x3d6335a2	0.05547107
205	0xbd8c51a3	-0.068515085
206	0x3e5bc6d8	0.21462572
207	0x3dc876ce	0.09788285
208	0x3e55165d	0.20809312
209	0x3e86e731	0.2634826
210	0x3d957ac6	0.07298808
211	0x3e821e09	0.2541354
212	0xbe49bd27	-0.19701062
213	0xbe845e77	-0.2585332
214	0x3e8beaef	0.27327678
215	0xbe20663d	-0.15664001
216	0xbe80566c	-0.25065935
217	0x3e73365d	0.23751207
218	0xbda8c4b0	-0.0824064
219	0x3e717c45	0.23582561
220	0xbd3287ff	-0.043586727
221	0x3dec7206	0.11545186
222	0x3e26b417	0.16279636
223	0xbe1ba653	-0.15200166
224	0xbd9ee692	-0.077588215
225	0xbdaca5f3	-0.0843009
226	0xbe8c806c	-0.27441728
227	0x3e5e9da5	0.21739824
228	0xbe952707	-0.29131338
229	0x3e9fd96f	0.31220576
230	0xbe08a3d8	-0.13343751
231	0xbda30945	-0.079607524
232	0xbc09f9a4	-0.008421335
233	0x3ca5ea3a	0.02025329
234	0x3e52c146	0.2058154
235	0x3e12c97c	0.14334673
236	0xbe84d432	-0.25943142
237	0x3e99de5d	0.30052462
238	0x3dd424db	0.10358592
239	0xbd0fab1c	-0.035075292
240	0xbd593538	-0.05302927
241	0xbd065083	-0.032791626
242	0xbeb33e1c	-0.35008323
243	0xbd471436	-0.04860326
244	0xbc9210dc	-0.017830305
245	0x3e934f20	0.28771305
246	0xbd5fb15b	-0.0546125
247	0x3dd68566	0.104746625
248	0xbd152cc6	-0.036419652
249	0x3d5f7731	0.05455703
250	0xbdcc50dc	-0.0997636
251	0xbe6fcac9	-0.234172
252	0xbead97d3	-0.33904895
253	0xbe327c98	-0.17430341
254	0xbe70e135	-0.2352341
255	0xbdacb40a	-0.08432777

SILSTM.bias_ih_l0 f4 [40]
0	0xbd911f53	-0.07086053
1	0x3ae8e6d5	0.0017768989
2	0x3e58297d	0.21109577
3	0x3e4e59a5	0.20151384
4	0x3e43990a	0.19101349
5	0xbd5771aa	-0.052598633
6	0xbe34c4b1	-0.17653157
7	0x3d0d87d3	0.03455336
8	0xbdc4fe2d	-0.09618793
9	0x3ca07647	0.019587649
10	0xbdf9485d	-0.12172005
11	0x3d6f882c	0.058479473
12	0x3e40bd5a	0.18822232
13	0x3d764f7b	0.060134392
14	0x3e06cbd2	0.13163689
15	0x3c66f908	0.01409746
16	0x3e85264a	0.26005775
17	0xbd442c6a	-0.04789392
18	0xbc56033c	-0.013062295
19	0xbd3b36d9	-0.045706604
20	0x3ee807e5	0.45318523
21	0x3d8b4a9b	0.06801339
22	0x3e2304e7	0.15919839
23	0x3e694c48	0.22783005
24	0xbe8788be	-0.26471514
25	0x3e4a764f	0.19771694
26	0xbe0e883a	-0.13919154
27	0xbe0a0b83	-0.13480954
28	0x3eace379	0.33767298
29	0x3e00f6b4	0.1259411
30	0xbccca422	-0.024980608
31	0xbe08a1a2	-0.13342908
32	0x3e6baab9	0.23014344
33	0x3cbe962a	0.023264963
34	0x3cd2c9bc	0.02573096
35	0x3d8cea26	0.06880598
36	0x3dbcee0b	0.092250906
37	0xbcb54bf8	-0.022130951
38	0xbc9d3229	-0.019188957
39	0x3dd24064	0.10266188

SILSTM.bias_hh_l0 f4 [40]
0	0xbc768310	-0.015045896
1	0x3d898906	0.06715588
2	0x3dee1b3c	0.11626288
3	0x3dff5515	0.124674
4	0x3d36d34b	0.0446351
5	0xbdd685f4	-0.10474768
6	0x3e7c27b5	0.24624522
7	0xbe3b80a1	-0.18310787
8	0x3e1feb21	0.15617038
9	0xbe609684	-0.21932417
10	0x3e71a7b4	0.2359913
11	0xbcb8ec3a	-0.02257358
12	0x3d511652	0.051046677
13	0x3e50b4d1	0.20381476
14	0xbdf94b6b	-0.12172588
15	0xbe184247	-0.14869033
16	0xbd21d014	-0.03950508
17	0x3df99ac5	0.12187723
18	0xbe16679f	-0.14687966
19	0x3e16e72d	0.14736624
20	0x3cd87787	0.026424183
21	0xbdac3e5d	-0.08410332
22	0xbe6beffb	-0.23040764
23	0xbe6a3887	-0.22873126
24	0x3b2ab830	0.0026049726
25	0x3ca7190a	0.020397682
26	0xbe2e1e0a	-0.17003646
27	0x3e315ed1	0.17321326
28	0xbd9fe64d	-0.07807598
29	0x3e167056	0.1469129
30	0xbe856423	-0.2605296
31	0xbd5afac3	-0.0534618
32	0x3df51d23	0.11968448
33	0xbe5aad2c	-0.21355122
34	0x3e804441	0.25052074
35	0x3e1a78a2	0.1508508
36	0xbe00ae79	-0.12566556
37	0xbd2d4b77	-0.042308297
38	0xbce16a4c	-0.027516507
39	0x3dd7c423	0.10535457

ClassificationSI.0.weight f4 [10]
0	0x3f84c43a	1.0372384
1	0x3f6654eb	0.89973325
2	0x3fb50a74	1.4143815
3	0x3f6faab6	0.9361986
4	0x3f79b836	0.9754671
5	0x3f8be03c	1.0927806
6	0x3f615a5d	0.8802851
7	0x3f6a5a80	0.9154434
8	0x3f78c721	0.97178847
9	0x3f8157db	1.0104936

ClassificationSI.0.bias f4 [10]
0	0x3c063ad1	0.008192734
1	0xbd7dcd83	-0.06196357
2	0x3e42e3ff	0.19032286
3	0xbe075b1a	-0.13218346
4	0x3e04f475	0.12983878
5	0x3e5d3598	0.21602476
6	0xbd16ec60	-0.03684652
7	0x3d7d829c	0.061892137
8	0xbd028c6d	-0.0318722
9	0x3e13791e	0.14401671

ClassificationSI.0.running_mean f4 [10]
0	0x3e4a738f	0.19770645
1	0x3ce8c389	0.02841355
2	0xbd17714e	-0.03697329
3	0x3dfb5407	0.12271886
4	0xbdd4619b	-0.10370179
5	0x3da874f3	0.08225431
6	0xbe632ed8	-0.22185838
7	0x3de205e8	0.11036283
8	0x3df6633c	0.12030646
9	0x3e2cc94e	0.16873667

ClassificationSI.0.running_var f4 [10]
0	0x38f5bb51	0.00011717401
1	0x38b3819b	8.559526e-05
2	0x399bcbfe	0.0002971589
3	0x3b392aeb	0.002825434
4	0x3a45f446	0.0007551353
5	0x38c2c3e1	9.287126e-05
6	0x3add50ed	0.001688508
7	0x3a2d31a2	0.0006606822
8	0x38cf5746	9.886785e-05
9	0x3a4671bc	0.00075700483

ClassificationCat.0.weight f4 [1, 10]
0	0xbe9defba	-0.3084696
1	0xbdcb73cb	-0.09934195
2	0xbf113d15	-0.5673383
3	0xbe8555f0	-0.26042128
4	0x3de3e44c	0.111275285
5	0x3edbe2f1	0.4294658
6	0xbdb5648a	-0.08857067
7	0x3e7a8ac4	0.24466997
8	0xbe0da768	-0.13833392
9	0x3e8e2f4e	0.27770466
